model_artifacts/tcn/dl_tcn_latest_67326_74806.pt (torch, 378521 bytes, 20 tensors)

net.0.weight f4 [64, 30, 3]
-0.012325121 -0.0012074583 -0.046536595 0.067963846 -0.022797063 0.03500907 0.10448435 0.07889577
0.009924708 -0.06371207 0.06502452 0.097918645 0.09230396 0.05103322 0.059235144 -0.077961035
-0.06512288 -0.08876495 -0.046082214 -0.045532852 -0.030025559 -0.076287694 0.060959827 0.061755814
0.031976473 -0.0842422 -0.08275606 -0.05660344 0.0006987188 0.053053677 0.02519827 0.022115754
0.0450774 -0.0692684 0.09802449 0.043144714 0.09010766 0.027618168 -0.10225351 0.064004205
-0.094602026 0.043285187 -0.07040324 -0.101857565 0.085683 0.01107177 0.03184384 0.053257808
0.0103984615 -0.08315064 0.07149068 -0.049531236 0.008045678 -0.04151987 0.03304454 0.082161136
-0.06420938 -0.06843672 -0.00089850905 -0.056906108 -0.0017567372 0.008583115 -0.078750424 -0.048374757
-0.083837986 0.053262096 -0.030105107 -0.06286229 -0.06664697 0.102827154 0.045286186 -0.08155448
-0.033695176 -0.05018109 0.10143536 -0.083571956 0.06695915 -0.0975841 -0.08695928 -0.03583012
0.09913707 0.06475112 0.085244924 -0.038707 0.0029304202 -0.05175262 -0.08825782 -0.09852295
0.07689798 -0.09116688 0.095410965 0.09806065 -0.019379752 0.054514963 -0.03262487 -0.02603867
0.030307628 -0.09178397 0.06489959 -0.04658045 -0.057240028 -0.10134045 0.02004515 -0.038881116
-0.053517673 0.05184642 -0.034844752 -0.06422869 0.11245565 0.07430436 -0.047622275 0.016155865
-0.01901944 0.047816217 -0.02364251 -0.008858931 -0.04565082 -0.03340183 -0.07124094 0.002191756
0.018514045 0.07073267 -0.048576858 0.043838013 0.066237174 -0.08853165 0.004845363 -0.052189764
-0.054592498 0.0029993174 0.06192732 0.08519431 0.06164707 -0.04378458 -0.010670663 -0.013173713
0.015385502 0.004993054 0.04911556 0.021329267 0.09152508 0.08875717 0.08748613 0.061019253
-0.03452668 -0.090116315 0.05734557 -0.024397956 -0.10010274 0.029225165 -0.03934308 0.031808756
-0.05021839 -0.107044116 -0.02751658 -0.08182441 0.012783961 -0.060671598 -0.049906667 0.022900436
-0.060766067 0.08336625 -0.10572608 -0.052729145 0.008186647 -0.065606445 0.047478594 -0.04660209
-0.11863456 -0.047954947 0.08295222 -0.071832985 0.06988752 -0.101991415 0.075195014 -0.07371784
-0.0953877 0.04108912 0.038756773 -0.05368043 0.19867872 -0.09886677 -0.09958345 0.076984935
0.044802476 0.049369734 0.052603096 0.0019172064 -0.009491073 -0.08383991 0.07162021 -0.054659944
-0.05243809 -0.07756275 0.065295435 -0.07173469 -0.08658995 0.016530126 -0.053245336 0.046340153
-0.09164456 0.07147343 -0.053760827 -0.04815088 -0.04562933 0.10065665 0.07025123 -0.0015876614
0.059255123 -0.01866781 -0.028165136 -0.053514745 0.032628372 0.010656482 0.028940737 -0.03974245
0.07325254 0.051243786 -0.0621129 0.026844837 0.014493074 -0.07988083 0.0016394253 -0.05820964
0.05575224 -0.03509953 -0.08119875 0.06990078 -0.018332861 -0.058872513 -0.012138566 0.053999707
-0.033911522 -0.04741484 0.16064653 0.0024020718 -0.0937746 -0.018515753 -0.08353534 0.05792748
0.15637818 0.028303685 -0.041266173 0.2033794 -0.09492417 0.01906061 0.04071352 -0.052815095
0.09227283 -0.03304383 -0.06770146 -0.063921005 -0.10673539 -0.0033863322 -0.05130464 -0.06089638
00000000: 4eef 49bc 9443 9eba 289d 3ebd a130 8b3d
00000010: e8c0 babc ac65 0f3d e4fb d53d 1b94 a13d
00000020: 3e9b 223c 797b 82bd 932b 853d 9289 c83d
00000030: dc09 bd3d 3608 513d 8da0 723d 09aa 9fbd
00000040: 255f 85bd 66ca b5bd b4c0 3cbd a880 3abd
00000050: 29f8 f5bc b93c 9cbd 03b1 793d aaf3 7c3d
00000060: c3f9 023d 2d87 acbd 027c a9bd 02d9 67bd
00000070: 3a2a 373a d04e 593d 9a6c ce3c 192c b53c
00000080: 14a3 383d 97dc 8dbd 10c1 c83d 83b8 303d
00000090: 5d8a b83d 7f3f e23c 4a6a d1bd a314 833d
000000a0: b5be c1bd cf4b 313d 932f 90bd b39a d0bd
000000b0: 927a af3d 5f66 353c b06e 023d dc24 5a3d
000000c0: 4f5e 2a3c e24a aabd b569 923d 44e1 4abd
000000d0: 05d2 033c bd10 2abd b659 073d 1944 a83d
000000e0: 3580 83bd 8d28 8cbd ec89 6bba 6116 69bd
000000f0: 5242 e6ba 32a0 0c3c e747 a1bd 9c24 46bd
00000100: 40b3 abbd 5b29 5a3d fc9e f6bc f2bd 80bd
00000110: 357e 88bd 0b97 d23d 027e 393d 0906 a7bd
00000120: f403 0abd b08a 4dbd 58bd cf3d c627 abbd
00000130: e121 893d 2cda c7bd b517 b2bd 9bc2 12bd
00000140: 6008 cb3d 3c9c 843d e494 ae3d 3b8b 1ebd
00000150: 4b0c 403b 8efa 53bd 84c0 b4bd 67c6 c9bd
00000160: b07c 9d3d b4b5 babd d366 c33d 06d4 c83d
00000170: 49c2 9ebc 154b 5f3d a8a1 05bd 0d4f d5bc
00000180: b447 f83c 3cf9 bbbd 14ea 843d 24cb 3ebd
00000190: 8574 6abd 958b cfbd ba35 a43c ce41 1fbd
000001a0: 5935 5bbd e95c 543d 5fb9 0ebd 558a 83bd
000001b0: 264f e63d e22c 983d 930f 43bd 4e59 843c
000001c0: a8ce 9bbc f0da 433d f0ad c1bc 0d25 11bc
000001d0: 5bfc 3abd 5bd0 08bd c5e6 91bd 90a3 0f3b
000001e0: c4aa 973c 4adc 903d 87f8 46bd 7d8f 333d
000001f0: 5ba7 873d 1550 b5bd dac5 9e3b efc4 55bd
00000200: 629c 5fbd 3290 443b 80a7 7d3d 5b7a ae3d
00000210: a381 7c3d 7657 33bd 01d4 2ebc 8fd6 57bc
00000220: 7913 7c3c c69c a33b 662d 493d b7ba ae3c
00000230: 8071 bb3d 52c6 b53d ee2b b33d 53ef 793d
00000240: d96b 0dbd e78e b8bd 30e3 6a3d 39de c7bc
00000250: aa02 cdbd 9d69 ef3c 3626 21bd e649 023d
00000260: ccb1 4dbd f239 dbbd 736a e1bc 8e93 a7bd
00000270: d273 513c c882 78bd ef6a 4cbd b299 bb3c
00000280: d7e5 78bd edbb aa3d ea86 d8bd 84fa 57bd
00000290: 4921 063c ac5c 86bd ea78 423d d5e1 3ebd
000002a0: adf6 f2bd 686c 44bd dbe2 a93d 2c1d 93bd
000002b0: 3021 8f3d e0e0 d0bd d8ff 993d 61f9 96bd
000002c0: a05a c3bd 114d 283d 6cbf 1e3d 03e0 5bbd
000002d0: 6f72 4b3e a97a cabd 68f2 cbbd 47aa 9d3d
000002e0: cd82 373d eb37 4a3d 5876 573d c64a fb3a
000002f0: 7280 1bbc 42b4 abbd 9ead 923d 1be3 5fbd
00000300: 53c9 56bd 38d9 9ebd 9db9 853d a3e9 92bd
00000310: 1256 b1bd 306a 873c c817 5abd 2ccf 3d3d
00000320: 25b0 bbbd a960 923d 5034 5cbd db39 45bd
00000330: d2e5 3abd 1325 ce3d e0df 8f3d 1419 d0ba
00000340: 80b5 723d 3ced 98bc 92ba e6bc 4732 5bbd
00000350: 54a5 053d 8698 2e3c 2015 ed3c fbc8 22bd
00000360: 6d05 963d 01e5 513d 196a 7ebd b4e9 db3c
00000370: 5c74 6d3c 9098 a3bd fce1 d63a 3b6d 6ebd
00000380: 765c 643d 86c4 0fbd 884b a6bd 2428 8f3d
00000390: cc2e 96bc 4e24 71bd d6e0 46bc cc2e 5d3d
000003a0: cfe6 0abd 1036 42bd 8680 243e 146c 1d3b
000003b0: e60c c0bd 59ae 97bc 9414 abbd 5e45 6d3d
000003c0: 9a21 203e 21dd e73c b806 29bd b042 503e
000003d0: 9a67 c2bd ff24 9c3c 38c3 263d a454 58bd
000003e0: 8af9 bc3d f858 07bd 10a7 8abd 04e9 82bd
000003f0: 1698 dabd 3aed 5dbb d024 52bd 7c6e 79bd

net.0.bias f4 [64]
0.020776577 0.07306933 0.002175779 -0.06295662 0.11312138 0.04717253 -0.035763714 -0.02071132
-0.0027002753 -0.06682612 0.10797145 0.015484057 -0.009339409 0.034312613 0.060210984 0.11916365
0.020510271 -0.039244547 0.10265568 0.005576658 0.07550622 0.10797015 0.09875656 -0.0043560285
0.036661033 -0.04183906 0.07112711 -0.09643234 0.027009662 0.007827083 -0.018763876 0.00183698
0.014952047 -0.033316422 -0.09518955 0.03423 -0.018155305 0.042889446 -0.0076273833 -0.05208635
-0.085093096 0.040403716 -0.025877845 0.02561035 0.03158086 -0.113722466 0.03795027 0.07339453
-0.03104509 0.03325207 0.09994266 -0.033725504 -0.051256444 0.09081022 0.09697995 -0.01828431
0.066543646 -0.0335007 0.10981149 -0.037535556 -0.06330576 0.036165234 0.043113805 -0.112968504
00000000: a433 aa3c 5fa5 953d 8497 0e3b 66ef 80bd
00000010: 2fac e73d fc37 413d f97c 12bd c9aa a9bc
00000020: 1af7 30bb 22dc 88bd 2320 dd3d d8b0 7d3c
00000030: 5204 19bc 628b 0c3d cb9f 763d 120c f43d
00000040: 2805 a83c e4be 20bd 243d d23d 66bc b63b
00000050: 01a3 9a3d 741f dd3d e140 ca3d 04bd 8ebb
00000060: e129 163d 6f5f 2bbd 17ab 913d 527e c5bd
00000070: 5e43 dd3c 2a3d 003c b3b6 99bc d2c6 f03a
00000080: 6ef9 743c cd76 08bd bdf2 c2bd c234 0c3d
00000090: 6fba 94bc d8ac 2f3d 21ef f9bb 7f58 55bd
000000a0: 4a45 aebd 5e7e 253d c6fd d3bc cccc d13c
000000b0: ef5a 013d 53e7 e8bd be71 1b3d df4f 963d
000000c0: 4652 febc 5333 083d bdae cc3d c123 0abd
000000d0: 47f2 51bd b5fa b93d 6d9d c63d fac8 95bc
000000e0: 0948 883d 0838 09bd d9e4 e03d e2be 19bd
000000f0: 73a6 81bd ff21 143d 1a98 303d 085c e7bd

net.3.weight f4 [64, 64, 3]
0.05246845 0.023173332 0.0041567245 0.05948064 0.04862683 0.045569416 -0.0048973607 -0.03700371
-0.0016758002 -0.06771733 0.048877522 -0.040551104 0.054101188 0.013991018 0.037076708 0.026427757
-0.042089947 -0.044239838 -0.051354352 0.04291338 0.011374495 0.031307463 -0.05723468 -0.039174914
0.06500312 -0.028454551 0.06098685 -0.20882611 0.05381373 -0.016977826 0.07243007 -0.06756497
-0.03813572 0.024156066 -0.050420817 -0.06798586 0.02128022 -0.006955457 -0.0062850597 -0.049545884
0.004449725 -0.043108054 -0.041937392 0.019950654 0.022243824 0.00087630725 0.05142019 0.043924898
0.050789807 0.05023946 0.016871748 0.053772543 -0.064598694 -0.009603491 0.083553635 0.0068453536
-0.039933797 -0.044232666 -0.03242198 0.059130717 -0.02042639 0.043133248 -0.018981168 -0.030128872
-0.06563787 0.0008791455 0.004486207 0.025937647 0.013868585 -0.049295757 0.025429722 -0.05516398
0.05726786 -0.052724063 0.021204462 -0.023100844 -0.061911568 -0.04914174 -0.010537816 -0.03439346
0.021141449 0.057325795 0.0065398975 -0.014766716 -0.020800458 0.0035629696 0.030806452 -0.09188939
-0.0093716355 -0.0261385 0.04751157 -0.024578957 -0.051887043 -0.02874071 -0.022170106 0.0044088275
-0.010194808 -0.01963823 0.021623382 0.009665132 0.06159077 -0.035974927 -0.022961723 -0.053207204
-0.028373798 0.004244893 -0.051443193 -0.031828996 0.05870121 -0.046143062 0.018951515 0.04573209
0.008650879 -0.036755838 0.019593976 0.032310028 0.05663755 0.034026332 0.012828424 0.066414155
-0.05486534 -0.017047081 0.047371257 0.07773682 -0.02673408 0.0073324987 0.07512667 -0.018424165
-0.0677012 -0.057082355 -0.010564576 -0.067880586 0.027780706 0.03732499 -0.009299863 -0.022550205
0.06179352 -0.027377767 -0.040603217 -0.005011649 0.042831536 0.0034818044 0.04694435 0.019153835
0.06723499 -0.067736275 -0.0142510915 -0.059078477 0.014189801 0.055836834 -0.04361462 -0.06817433
-0.05391963 -0.051466808 -0.06316402 0.017852345 -0.023671238 0.0052256715 0.032289047 0.0064878757
-0.0025036351 -0.02026489 -0.05165801 0.002941777 0.048120014 -0.047851197 -0.056369387 0.026520604
0.00969442 -0.06658563 0.050199 -0.028625553 0.04857946 -0.051115587 0.07626376 -0.012446684
-0.018001987 0.017012311 -0.0201081 0.008853298 0.024799822 0.020739786 -0.03127089 -0.07147359
-0.025436237 0.009403632 0.0604324 -0.05652029 -0.034207508 0.121186815 -0.0299315 0.00057277404
-0.004869657 -0.06193275 0.028113956 0.010390338 0.014090452 -0.05339022 0.1491784 -0.048989534
0.06251643 -0.03656529 -0.01184396 -0.049250558 -0.092906386 0.027579257 -0.059821207 0.014789092
-0.06360776 -0.026951035 0.010997843 -0.02991823 -0.011125706 -0.02942773 0.037174504 -0.0016750898
0.0924201 0.049240444 -0.010172407 0.3640824 0.02191807 -0.009443279 0.07002728 0.018745314
0.046999093 -0.30641794 -0.069832414 0.060749643 0.10288244 -0.06047285 -0.0536986 0.04176872
-0.022425247 0.045923255 -0.13271381 -0.009480096 -0.06460437 -0.13826594 -0.008280179 -0.01865036
0.028473653 -0.00522693 0.05150007 0.12730022 0.030312372 -0.015504073 -0.11474743 -0.016848655
0.060872022 -0.12036311 0.059607074 -0.047368184 -0.011879873 0.025033806 -0.03791427 -0.018007288
00000000: 28e9 563d 00d6 bd3c 2235 883b f9a1 733d
00000010: ed2c 473d ffa6 3a3d 0a7a a0bb 3491 17bd
00000020: 86a6 dbba 62af 8abd cc33 483d ea18 26bd
00000030: 3599 5d3d 953a 653c bfdd 173d 067f d83c
00000040: 8266 2cbd d534 35bd f158 52bd f1c5 2f3d
00000050: 175c 3a3c 413c 003d e96e 6abd e075 20bd
00000060: 5b20 853d 8519 e9bc 59cd 793d 83d6 55be
00000070: c96b 5c3d 1515 8bbc 3756 943d 815f 8abd
00000080: 3334 1cbd f1e2 c53c 0f86 4ebd 2c3c 8bbd
00000090: db53 ae3c 9aea e3bb e7f2 cdbb a0f0 4abd
000000a0: 00cf 913b 1292 30bd 8bc6 2bbd 8e6f a33c
000000b0: ae38 b63c fcb7 653a fa9d 523d 98ea 333d
000000c0: f908 503d e4c7 4d3d 9f36 8a3c 9940 5c3d
000000d0: 524c 84bd f657 1dbc 2b1e ab3d fd4e e03b
000000e0: 9f91 23bd 502d 35bd e9cc 04bd 0d33 723d
000000f0: 3f55 a7bc 7dac 303d 657e 9bbc d3d0 f6bc
00000100: 266d 86bd 7576 663a 0801 933b 307b d43c
00000110: 1039 633c 59ea 49bd fe51 d03c a0f3 61bd
00000120: b491 6a3d 30f5 57bd fbb4 ad3c fb3d bdbc
00000130: fc96 7dbd d948 49bd cea6 2cbc 28e0 0cbd
00000140: d530 ad3c 74ce 6a3d a34c d63b 19f0 71bc
00000150: b965 aabc b680 693b d05d fc3c 8130 bcbd
00000160: 7d8b 19bc 6820 d6bc 7e9b 423d cf59 c9bc
00000170: 8287 54bd a371 ebbc 159e b5bc ed77 903b
00000180: 2008 27bc 5ae0 a0bc 8523 b13c 805a 1e3c
00000190: 9a46 7c3d 725a 13bd 391a bcbc ccef 59bd
000001a0: 2b70 e8bc be18 8b3b 19b6 52bd 1f5f 02bd
000001b0: ae70 703d 8200 3dbd 3540 9b3c 9251 3b3d
000001c0: 6bbc 0d3c 4a8d 16bd 8c83 a03c 8557 043d
000001d0: c7fc 673d 325f 0b3d 4f2e 523c 2504 883d
000001e0: 7bba 60bd 52a6 8bbc 5d08 423d 7b34 9f3d
000001f0: 6e01 dbbc 7545 f03b 03dc 993d 46ee 96bc
00000200: eda6 8abd 30cf 69bd 0b17 2dbc fa04 8bbd
00000210: 5d94 e33c 17e2 183d 745e 18bc 35bb b8bc
00000220: 341b 7d3d 5747 e0bc 8f4f 26bd c238 a4bb
00000230: 1f70 2f3d fc2e 643b b848 403d 81e8 9c3c
00000240: 80b2 893d 51b9 8abd 697d 69bc 46fc 71bd
00000250: 577c 683c 2ab5 643d 3ea5 32bd fc9e 8bbd
00000260: d4da 5cbd dcce 52bd 235c 81bd 153f 923c
00000270: 2fea c1bc 1c3c ab3b 8541 043d 3f98 d43b
00000280: 0714 24bb 8e02 a6bc 5997 53bd d4ca 403b
00000290: 7e19 453d 9eff 43bd 96e3 66bd bd41 d93c
000002a0: 58d5 1e3c 0c5e 88bd 779d 4d3d 2380 eabc
000002b0: 41fb 463d 945e 51bd 2d30 9c3d 2ded 4bbc
000002c0: e778 93bc 675d 8b3c beb9 a4bc 6c0d 113c
000002d0: ff28 cb3c 7ce6 a93c e815 00bd bf60 92bd
000002e0: a85f d0bc b111 1a3c f787 773d d281 67bd
000002f0: 2c1d 0cbd cb30 f83d e832 f5bc 3726 163a
00000300: a591 9fbb 32ad 7dbd 3d4f e63c 3c3c 2a3c
00000310: a4db 663c b4af 5abd 39c2 183e 40a9 48bd
00000320: 9d08 803d 7cc5 15bd 2b0d 42bc f4ba 49bd
00000330: b445 bebd e5ed e13c 1507 75bd f34d 723c
00000340: c944 82bd 6bc8 dcbc 4c30 343c 1317 f5bc
00000350: 9848 36bc 6c12 f1bc 4b44 183d b08e dbba
00000360: c046 bd3d 59b0 493d 2baa 26bc 0269 ba3e
00000370: 868d b33c fcb7 1abc 766a 8f3d c68f 993c
00000380: 1f82 403d d0e2 9cbe 4c04 8fbd 9ed4 783d
00000390: 07b4 d23d 61b2 77bd 10f3 5bbd ad15 2b3d
000003a0: 27b5 b7bc 061a 3c3d 21e6 07be 6852 1bbc
000003b0: 4c4f 84bd 9695 0dbe 97a9 07bc a4c8 98bc
000003c0: 9441 e93c ab46 abbb bdf1 523d fd5a 023e
000003d0: a751 f83c cc04 7ebc b300 ebbd 3106 8abc
000003e0: f154 793d ef80 f6bd 8c26 743d 2405 42bd
000003f0: cda3 42bc b213 cd3c fe4b 1bbd 0584 93bc

net.3.bias f4 [64]
0.010671402 -0.061463688 0.073050156 -0.006899399 -0.054962166 -0.03181737 -0.0035707275 0.117869906
0.04305433 0.05085534 0.008203115 0.092267655 0.022956105 0.11336322 0.030588418 0.044106767
0.026862117 0.055176076 -0.0044167745 0.096237294 0.086777724 0.10616159 0.117704816 -0.013684877
0.035284158 0.04230451 -0.067706525 0.032485552 0.06923704 -0.08274601 0.047198694 0.022962347
0.018895134 -0.074433215 0.05403725 -0.027342103 0.04151974 0.010843584 0.058282837 -0.026826106
0.039499108 0.07614574 0.022495916 0.07714727 0.105199866 0.0048558004 0.034214124 0.032376405
-0.008074134 0.07523402 -0.04758856 -0.067676336 0.10312979 0.034637142 0.0034505574 0.027081065
0.034651868 0.008515604 0.047270395 0.080932885 0.04032501 -0.1607074 0.042123698 0.004181387
00000000: 1bd7 2e3c 59c1 7bbd 529b 953d 5b14 e2bb
00000010: 0220 61bd ee52 02bd de02 6abb c765 f13d
00000020: bd59 303d b04d 503d 5c66 063c d3f6 bc3d
00000030: 710e bc3c fa2a e83d 9094 fa3c 4ca9 343d
00000040: f10d dc3c 4f00 623d 97ba 90bb 0f18 c53d
00000050: 85b8 b13d 3f6b d93d 390f f13d 8936 60bc
00000060: 1f86 103d 7e47 2d3d b8a9 8abd 920f 053d
00000070: 26cc 8d3d bd76 a9bd 6b53 413d 881b bc3c
00000080: f8c9 9a3c 7170 98bd 2a56 5d3d 8cfc dfbc
00000090: 9a10 2a3d 4aa9 313c fcb9 6e3d 6cc2 dbbc
000000a0: d1c9 213d 4cf2 9b3d 5b49 b83c 63ff 9d3d
000000b0: 0773 d73d 681d 9f3b 1c24 0c3d 1f9d 043d
000000c0: 5f49 04bc 4b14 9a3d 39ec 42bd e499 8abd
000000d0: b635 d33d addf 0d3d bf22 623b 1cd9 dd3c
000000e0: 1eef 0d3d 0885 0b3c 9a9e 413d 24c0 a53d
000000f0: d62b 253d 7b90 24be e689 2c3d 0404 893b

net.6.weight f4 [64, 64, 3]
-0.00841402 0.05286288 -0.009715436 -0.06862007 -0.024152096 -0.063079074 -0.03965723 -0.041539654
-0.0364221 -0.07251962 -0.04948873 0.0352619 -0.004671735 0.004881901 -0.051217873 0.024327956
0.015105283 0.0034541201 -0.023907281 -0.030256039 0.0674653 -0.07564511 0.0637804 -0.0020741206
-0.022779439 0.06659006 -0.028381484 0.019357204 0.004680207 0.042228505 -0.03105144 -0.024525817
-0.06470957 -0.08054005 0.055228427 0.07002167 -0.032304455 -0.05862404 0.025668215 0.017938975
-0.06926742 0.05004011 -0.079520844 0.0062248865 -0.027509548 -0.0643315 -0.0072147306 0.016725896
0.024152756 -0.04222486 0.023742098 -0.035088964 -0.017783834 0.008749826 -0.06861979 -0.027818814
-0.032144975 -0.0662898 0.028100418 0.022935081 -0.0073960926 -0.04911268 -0.029578753 -0.07543415
-0.0010431149 -0.036003925 -0.01162819 -0.023808738 -0.035237 -0.043369826 0.051060528 0.034028184
0.034923922 0.0015983442 0.020089084 -0.09345134 -0.068625934 -0.047291443 -0.023390455 -0.0018130562
-0.016126866 -0.0079744505 0.025259534 0.06608924 -0.0972578 0.03563902 -0.008344037 -0.0509274
0.057982955 -0.0143505065 -0.066229776 0.053305257 0.032210745 -0.021623798 0.0047934647 -0.057288375
-0.061665192 0.018223487 0.049787045 0.02705538 -0.057061348 0.012850999 -0.008798538 0.01568684
-0.03284593 -0.043995433 -0.05094822 -0.022454908 0.012794286 -0.04378109 0.03362786 0.032055542
-0.0020188356 0.016219828 -0.021761538 -0.049041267 0.015116389 -0.06754189 -0.0022418892 -0.048394263
-0.009868403 0.040581964 -0.044669084 -0.067840695 0.05359202 0.0015446955 -0.04979067 -0.0050290185
-0.060715538 -0.01629641 -0.01806452 -0.04631517 -0.008523104 0.06677441 -0.051495206 -0.057226803
0.060197815 -0.0672219 -0.048664507 -0.06858092 -0.0045296587 -0.063345514 0.04783045 -0.051425446
-0.027262617 0.061501194 -0.035862874 -0.040482078 0.008129819 0.011926785 0.018293805 0.06288672
0.042116348 0.012980149 -0.0371309 -0.035556808 -0.03941347 -0.006607264 -0.016374031 -0.018400082
-0.06970896 -0.05937357 0.007881612 -0.0034179443 -0.046657484 0.030574085 0.01882207 -0.06978009
-0.091786236 0.031403095 0.040193796 -0.0630754 0.052023087 0.058794662 -0.070171826 -0.014011668
-0.016561737 0.024961948 -0.007992712 -0.029756265 -0.024671556 -0.062112376 0.024143534 -0.059857395
-0.010668438 -0.0025341634 0.036837507 -0.019015584 -0.030742677 0.010988038 0.04211952 -0.058055047
-0.02931174 -0.019397922 0.056710996 -0.07194322 0.022400845 -0.01707011 0.01152424 0.06122388
0.051575016 -0.05036498 -0.03644915 0.0003315307 0.06662668 0.008258844 -0.018936696 -0.021643255
0.021015022 0.056567863 0.027255401 0.043192938 -0.06756605 0.15247826 -0.06188067 -0.033108603
-0.012770398 0.044760015 -0.01141565 0.047732405 0.024884718 -0.026918434 0.024078172 -0.026048029
-0.056625843 0.011726255 0.0062794443 0.046578612 0.04332936 -0.06249336 -0.0609328 0.090483285
-0.058051806 -0.05915422 -0.07011706 -0.06866451 0.02230097 0.03712086 -0.015004447 -0.0043876637
0.023633761 -0.06379651 0.044096474 0.005900399 0.053084407 0.057424117 0.054567393 -0.050643515
0.052553892 -0.019077124 0.05993324 -0.044433214 0.07373853 0.056576617 0.051900696 0.0633483
00000000: f5da 09bc bf86 583d 7e2d 1fbc ae88 8cbd
00000010: 9eda c5bc 9a2f 81bd 9f6f 22bd 7c25 2abd
00000020: 572f 15bd 2b85 94bd b2b4 4abd c86e 103d
00000030: 5b15 99bb 5bf8 9f3b d5c9 51bd 6c4b c73c
00000040: 267c 773c 855e 623b 34d9 c3bc 83db f7bc
00000050: 3f2b 8a3d d3eb 9abd 4c9f 823d f8ed 07bb
00000060: f29b babc 5f60 883d 4980 e8bc 0093 9e3c
00000070: 6c5c 993b ccf7 2c3d 975f febc 5eea c8bc
00000080: 7386 84bd 2ff2 a4bd 3437 623d 8567 8f3d
00000090: ad51 04bd c31f 70bd 2646 d23c c2f4 923c
000000a0: 14dc 8dbd dcf6 4c3d d3db a2bd 22fa cb3b
000000b0: b45b e1bc 3cc0 83bd 8c69 ecbb bf04 893c
000000c0: 00dc c53c faf3 2cbd ca7e c23c 72b9 0fbd
000000d0: 67af 91bc 6e5b 0f3c 8888 8cbd 48e4 e3bc
000000e0: 73aa 03bd f2c2 87bd d932 e63c 5ae2 bb3c
000000f0: ec5a f2bb 612a 49bd 244f f2bc 387d 9abd
00000100: 21b9 88ba da78 13bd 2a84 3ebc 8b0a c3bc
00000110: ac54 10bd 8fa4 31bd d824 513d 2361 0b3d
00000120: 630c 0f3d 887f d13a dd91 a43c 6b63 bfbd
00000130: c18b 8cbd acb4 41bd 579d bfbc 12a4 edba
00000140: 7d1c 84bc 45a7 02bc 15ed ce3c cc59 873d
00000150: 192f c7bd 39fa 113d 6eb5 08bc 4099 50bd
00000160: 897f 6d3d 631e 6bbc 7aa3 87bd 9d56 5a3d
00000170: 6aef 033d 6424 b1bc 7f12 9d3b 37a7 6abd
00000180: a494 7cbd 6c49 953c 80ed 4b3d 3fa3 dd3c
00000190: 29b9 69bd ff8c 523c be27 10bc b081 803c
000001a0: 7489 06bd 8e34 34bd 15af 50bd 5bf3 b7bc
000001b0: 209f 513c cd53 33bd 5ebd 093d ac4c 033d
000001c0: 714e 04bb 72df 843c 4145 b2bc 7fdf 48bd
000001d0: bbaa 773c 6753 8abd a9ec 12bb 1039 46bd
000001e0: 15af 21bc 4639 263d eef6 36bd 10f0 8abd
000001f0: 4e83 5b3d 6177 ca3a 4df1 4bbd 77ca a4bb
00000200: dbb0 78bd 0c80 85bc 0bfc 93bc fab4 3dbd
00000210: 7da4 0bbc 06c1 883d a3ec 52bd a766 6abd
00000220: fc91 763d a3ab 89bd 6f54 47bd 2774 8cbd
00000230: 886d 94bb 4bbb 81bd dde9 433d 7da3 52bd
00000240: da55 dfbc ade8 7b3d f3e4 12bd 89d0 25bd
00000250: ef32 053c 9068 433c e4dc 953c c1ca 803d
00000260: 3182 2c3d b1aa 543c 9216 18bd 04a4 11bd
00000270: 0570 21bd bf81 d8bb d522 86bc c5bb 96bc
00000280: 92c3 8ebd b331 73bd e021 013c 97ff 5fbb
00000290: eb1b 3fbd 8176 fa3c be30 9a3c dde8 8ebd
000002a0: 6cfa bbbd 88a0 003d 40a2 243d ad2d 81bd
000002b0: 2916 553d acd2 703d 3fb6 8fbd 3291 65bc
000002c0: 7bac 87bc 007d cc3c ddf3 02bc 69c3 f3bc
000002d0: 011c cabc 8c69 7ebd a9c8 c53c 072d 75bd
000002e0: acca 2ebc 3514 26bb ede2 163d 92c6 9bbc
000002f0: 11d8 fbbc 2c07 343c 8585 2c3d 21cb 6dbd
00000300: 2d1f f0bc 64e8 9ebc ca49 683d f856 93bd
00000310: fa81 b73c 9ed6 8bbc 2ad0 3c3c e4c5 7a3d
00000320: 5340 533d 824b 4ebd b44b 15bd 4cd1 ad39
00000330: 9273 883d 1a50 073c 2121 9bbc 324d b1bc
00000340: b227 ac3c b4b3 673d b846 df3c 14eb 303d
00000350: 1260 8abd 4323 1c3e 9676 7dbd e39c 07bd
00000360: ee3a 51bc 4756 373d b508 3bbc 0e83 433d
00000370: 09db cb3c 0c84 dcbc 963f c53c ad62 d5bc
00000380: 80f0 67bd 7a1f 403c ccc3 cd3b 37c9 3e3d
00000390: 217a 313d 0af9 7fbd ac94 79bd 4d4f b93d
000003a0: bbc7 6dbd b24b 72bd 8899 8fbd fb9f 8cbd
000003b0: 86b0 b63c 0b0c 183d 36d5 75bc 64c6 8fbb
000003c0: 979b c13c bfa7 82bd 819e 343d 2258 c13b
000003d0: 096f 593d 8d35 6b3d 0f82 5f3d 936f 4fbd
000003e0: c042 573d a147 9cbc 8f7c 753d 9aff 35bd
000003f0: 3a04 973d e2bc 673d d395 543d c1bc 813d

net.6.bias f4 [64]
-0.017210372 0.077495895 0.090216294 0.038099162 0.111684985 0.048529092 0.04060096 -0.06871777
0.050918873 0.07867301 -0.005765359 0.04659757 0.019834055 -0.0033133016 0.08319612 0.05084271
-0.07612989 -0.023369445 0.087496765 0.08045482 0.007445126 0.00057987036 0.051906776 -0.062931575
-0.06500416 -0.08864027 0.0015247669 0.011013327 -0.01076909 -0.012343762 0.08039529 -0.059527826
-0.014682173 0.042424124 -0.0039593456 -0.05578455 0.08709711 -0.035332527 0.012732057 0.004103709
0.05959128 -0.007976547 0.054753922 -0.03723114 0.0955016 -0.061728276 0.002047643 0.051981185
0.024075957 0.08134913 0.029274352 -0.090827264 -0.003447292 0.028612202 0.041378364 0.060704004
0.08004842 -0.03495596 0.07897985 0.039492708 -0.0757051 -0.009545715 -0.015699003 -0.036157396
00000000: c4fc 8cbc 2bb6 9e3d 52c3 b83d de0d 1c3d
00000010: 19bb e43d 71c6 463d 314d 263d e7bb 8cbd
00000020: 4f90 503d 511f a13d 56eb bcbb 18dd 3e3d
00000030: 077b a23c fa23 59bb ba62 aa3d 7240 503d
00000040: fde9 9bbd 4771 bfbc 8131 b33d 7fc5 a43d
00000050: 3ef6 f33b 7102 183a 339c 543d 45e2 80bd
00000060: e720 85bd 0889 b5bd b0da c73a 3e71 343c
00000070: d670 30bc 7e3d 4abc 49a6 a43d 73d3 73bd
00000080: 7f8d 70bc ebc4 2d3d 66bd 81bb 577e 64bd
00000090: f85f b23d d7b8 10bd 1e9a 503c 6878 863b
000000a0: fc15 743d 10b0 02bc a645 603d ae7f 18bd
000000b0: 5896 c33d cad6 7cbd c031 063b 39ea 543d
000000c0: f13a c53c 5f9a a63d c4d0 ef3c a503 babd
000000d0: f6eb 61bb 2364 ea3c 5c7c 293d c3a4 783d
000000e0: 6df0 a33d fb2d 0fbd 30c0 a13d 1bc3 213d
000000f0: 470b 9bbd a165 1cbc 329b 80bc c719 14bd

net.9.weight f4 [64, 64, 3]
-0.048140723 0.051079236 0.04929902 0.0060252645 -0.056805827 -0.038541578 0.057253987 0.019208046
0.031868108 -0.05927584 0.009106387 -0.0404178 -0.026861832 -0.04592693 0.049042616 0.031643853
-0.027225515 0.049664576 -0.047152147 0.062066387 -0.028147042 -0.030540336 -0.051433913 0.02055974
0.04883156 -0.0074407603 0.060617935 0.026506323 0.038852114 -0.06402338 0.016080914 0.05000357
-0.04978088 0.052272644 -0.067587264 -0.042000446 0.007220304 -0.021752246 -0.057117872 -0.035494644
0.009664599 -0.03033526 -0.04012921 -0.038689252 0.014113305 -0.006714183 -0.067671195 -0.034551673
-0.2900021 -0.0046556243 0.049905624 0.012285993 0.028310841 -0.045580905 -0.0017658139 -0.055898547
0.03826446 0.015349904 -0.007895154 -0.055072024 0.0637806 0.05636204 -0.021470672 0.053949237
0.0693114 -0.048890773 -0.023922227 0.06707618 -0.06002021 0.009550582 0.01883782 -0.05867197
-0.016561426 -0.015104788 -0.054845903 0.0034568412 0.069547094 0.061922982 0.04157348 -0.0525994
-0.04159485 0.085414395 0.00013611479 0.047601018 0.06711989 0.015074935 -0.023542367 0.024835126
0.013782609 0.024175642 0.05639338 0.06396243 -0.062499553 -0.0067859925 0.04590255 0.016957648
-0.0034819662 0.020572942 0.068237536 -0.041418232 -0.07000813 0.024070436 0.06363561 -0.045500655
0.048101373 0.0074248267 0.041964773 0.029645892 -0.045805413 -0.03998748 0.005220743 0.017339472
-0.04620873 -0.006904879 -0.0059816255 0.026314331 0.04852959 -0.054388955 -0.057225987 -0.06557358
0.0068231327 0.039973516 0.019111816 -0.03170973 0.009208894 0.025080958 0.011115928 -0.06741354
0.012657806 -0.1478497 -0.006292505 0.050724402 0.0024022844 -0.065849975 0.056078423 -0.059956606
-0.013606068 0.010147147 0.015545184 0.0028858464 -0.041662503 0.06131762 -0.04881561 -0.0020469534
0.052776314 -0.010133529 -0.06304928 0.037706096 0.0053457296 0.020911194 0.0055150087 0.05073462
0.064051166 -0.0034827883 -0.0318057 0.05757081 -0.03381845 0.0011003145 0.031541605 0.03594655
-0.041647624 0.020631958 0.032348372 -0.010675739 0.0069878367 -0.062459182 0.009912272 0.058893666
0.09790228 -0.06515856 0.06586067 -0.024345208 0.021600874 -0.014077055 -0.16396919 0.021368636
-0.0074770614 0.01647087 -0.059646666 -0.0021387134 0.017627638 -0.069287285 -0.064003184 0.013425951
0.05879949 0.019837786 0.06808286 0.04372825 -0.0052628294 0.011157799 -0.04499413 -0.027895423
0.0114669055 -0.027996272 0.04719056 0.018315913 -0.034898642 0.028883904 -0.07106841 -0.005398586
0.052244186 -0.04337128 0.014575236 0.035961326 0.048696816 0.059644267 0.0151812015 -0.081223786
-0.040641226 -0.012789327 -0.03814146 0.06498236 0.0019692534 -0.0048635243 0.033218365 -0.025321985
0.031763863 -6.1449544e-05 0.04184609 -0.0013441052 0.054079995 0.009021809 -0.018563807 0.06935438
-0.034798097 0.03570192 -0.022325682 -0.014357864 -0.028298227 0.055824194 0.057841353 -0.024360768
0.03996915 0.069488056 0.008519743 -0.0629631 0.0052668476 -0.019590953 -0.058472317 0.0015431332
-0.046327256 -0.027764853 0.014673498 0.018601336 0.039602894 0.05607929 -0.0061292406 0.0068788994
-0.06235139 0.009551763 -0.02032077 -0.057928458 -0.032573823 -0.030684486 0.015752973 0.0014218115
00000000: 352f 45bd 7638 513d c5ed 493d 956f c53b
00000010: 3aad 68bd c6dd 1dbd 2883 6a3d 315a 9d3c
00000020: 2288 023d 39cb 72bd f532 153c 238d 25bd
00000030: 580d dcbc e01d 3cbd e9e0 483d fc9c 013d
00000040: 0b08 dfbc 156d 4b3d 9c22 41bd 5339 7e3d
00000050: a094 e6bc ba2f fabc 5eac 52bd e66c a83c
00000060: 9a03 483d 9fd1 f3bb 834a 783d ca23 d93c
00000070: 6523 1f3d b11e 83bd 1fbc 833c 8bd0 4c3d
00000080: 09e7 4bbd d71b 563d 316b 8abd a908 2cbd
00000090: 4d98 ec3b c431 b2bc 6ef4 69bd d562 11bd
000000a0: 4458 1e3c a781 f8bc 875e 24bd 9f78 1ebd
000000b0: 7e3b 673c a602 dcbb 3297 8abd 0e86 0dbd
000000c0: 287b 94be 358e 98bb d769 4c3d 314b 493c
000000d0: 23ec e73c 0bb3 3abd e272 e7ba e0f5 64bd
000000e0: 32bb 1c3d 2a7e 7b3c ad5a 01bc 3493 61bd
000000f0: 679f 823d e2db 663d 43e3 afbc e0f9 5c3d
00000100: 23f3 8d3d b141 48bd 8cf8 c3bc 3c5f 893d
00000110: c0d7 75bd 0b7a 1c3c c651 9a3c 0552 70bd
00000120: d4ab 87bc 137a 77bc 19a6 60bd 2c8c 623b
00000130: b56e 8e3d f4a2 7d3d f448 2a3d 7872 57bd
00000140: 5d5f 2abd beed ae3d 09ba 0e39 49f9 423d
00000150: 2776 893d dcfc 763c ecdb c0bc 0973 cb3c
00000160: 74d0 613c ff0b c63c bffc 663d bcfe 823d
00000170: 88ff 7fbd 085d debb 5004 3c3d c4ea 8a3c
00000180: b331 64bb 9688 a83c 1fc0 8b3d 2aa6 29bd
00000190: 6c60 8fbd 5d2f c53c 6353 823d e55e 3abd
000001a0: f205 453d f64b f33b 41e3 2b3d f1db f23c
000001b0: 759e 3bbd e9c9 23bd c412 ab3b 820b 8e3c
000001c0: 5e45 3dbd 5342 e2bb 8301 c4bb 2791 d73c
000001d0: f7c6 463d f4c6 5ebd cc65 6abd 714b 86bd
000001e0: 9694 df3b 45bb 233d 6290 9c3c 10e2 01bd
000001f0: e7e0 163c 9576 cd3c 951f 363c 1c10 8abd
00000200: b062 4f3c e965 17be 5c31 cebb 64c4 4f3d
00000210: a56f 1d3b 5adc 86bd 7db2 653d 0f95 75bd
00000220: fceb 5ebc 3840 263c 3ab1 7e3c 7820 3d3b
00000230: 4da6 2abd 2f28 7b3d e1f2 47bd 2e26 06bb
00000240: fa2b 583d 1a07 26bc fb1f 81bd b571 1a3d
00000250: 3b2b af3b f44d ab3c 3fb7 b43b 1bcf 4f3d
00000260: 422d 833d 7e3f 64bb b246 02bd 5fcf 6b3d
00000270: 3785 0abd 6e38 903a c531 013d b13c 133d
00000280: b396 2abd 5a04 a93c ba7f 043d 4be9 2ebc
00000290: 39fa e43b 33d5 7fbd 1567 223c 7c3a 713d
000002a0: fe80 c83d da71 85bd f5e1 863d 9a6f c7bc
000002b0: 51f4 b03c 73a3 66bc 8ae7 27be 470d af3c
000002c0: 2302 f5bb ebed 863c 1050 74bd a829 0cbb
000002d0: d667 903c 7ee6 8dbd 1a14 83bd 85f8 5b3c
000002e0: bcd7 703d da82 a23c 076f 8b3d 651c 333d
000002f0: d073 acbb 33cf 363c c44b 38bd f184 e4bc
00000300: b0df 3b3c 7058 e5bc e34a 413d 410b 963c
00000310: e1f1 0ebd f09d ec3c 518c 91bd 9fe6 b0bb
00000320: 00fe 553d 15a6 31bd f8cc 6e3c 2f4c 133d
00000330: 5076 473d 8c4d 743d 93ba 783c a858 a6bd
00000340: 6a77 26bd 538a 51bc 383a 1cbd 7915 853d
00000350: 970e 013b 335e 9fbb fb0f 083d 0d70 cfbc
00000360: d31a 023d 79de 80b8 ce66 2b3d b02c b0ba
00000370: fc82 5d3d 36d0 133c 2013 98bc ab09 8e3d
00000380: 7388 0ebd 2d3c 123d 59e4 b6bc 3f3d 6bbc
00000390: afd1 e7bc e9a7 643d 0eeb 6c3d 3c90 c7bc
000003a0: b1b6 233d c14f 8e3d 6496 0b3c ccf2 80bd
000003b0: 8595 ac3b 357d a0bc ab80 6fbd f542 ca3a
000003c0: a6c1 3dbd 1e73 e3bc 1d69 703c d461 983c
000003d0: a536 223d 66b3 653d ccd7 c8bb 6468 e13b
000003e0: 2c64 7fbd ff7e 1c3c be77 a6bc 6446 6dbd
000003f0: 216c 05bd 085e fbbc 610c 813c 145c ba3a

net.9.bias f4 [64]
0.035470273 -0.05296854 0.10571039 0.068964824 0.029249761 0.007509789 0.051681872 0.093786225
0.10943821 0.017288173 -0.042948615 0.08348929 0.12117161 -0.02402979 -0.009248845 -0.027763521
-0.007315429 0.029582016 0.06431377 0.033435807 -0.060666844 -0.033927266 0.02817101 0.055780955
0.1245801 -0.041893814 0.023941956 -0.03273267 0.04158595 -0.068103686 -0.07236135 0.065079235
0.058595493 0.010408525 0.048488375 -0.03313405 0.043498684 0.07129114 0.10434711 -0.011929525
-0.031533543 0.05787243 -0.07745127 0.05892337 0.05436459 0.10095693 0.037075173 0.07564768
0.08977415 -0.004767652 0.10778899 -0.02063296 -0.050545596 -0.040834226 -0.02912203 0.08644771
0.019664433 0.089052245 -0.070271604 -0.015621556 -0.02856873 0.09870931 0.015211377 0.029738935
00000000: 4749 113d 8af5 58bd b07e d83d 6e3d 8d3d
00000010: 329d ef3c ad14 f63b 5fb0 533d fe12 c03d
00000020: 2421 e03d ed9f 8d3c e3ea 2fbd 6ffc aa3d
00000030: d228 f83d 1fda c4bc 7888 17bc 5370 e3bc
00000040: 44b6 efbb fc55 f23c f0b6 833d fcf3 083d
00000050: cc7d 78bd 51f7 0abd e4c6 e63c 927a 643d
00000060: da23 ff3d d998 2bbd ec21 c43c b112 06bd
00000070: 0756 2a3d f279 8bbd 3032 94bd 4348 853d
00000080: d401 703d 8588 2a3c bf9b 463d 92b7 07bd
00000090: ad2b 323d 1701 923d f0b3 d53d 0e74 43bc
000000a0: 5129 01bd a40b 6d3d c59e 9ebd a259 713d
000000b0: 68ad 5e3d 82c2 ce3d 23dc 173d 2ced 9a3d
000000c0: 82db b73d f739 9cbb 79c0 dc3d 7406 a9bc
000000d0: e608 4fbd ca41 27bd 5391 eebc 7f0b b13d
000000e0: 4e17 a13c 0661 b63d 8fea 8fbd 8ef1 7fbc
000000f0: f808 eabc 1b28 ca3d 2439 793c 119f f33c

net.12.weight f4 [64, 64, 3]
0.004122054 0.020491831 0.047311567 0.05906151 -0.0635307 0.06612789 7.330887e-05 -0.0597179
-0.022289297 -0.03580947 -0.020897407 0.06910518 -0.035242237 0.050921354 0.05580934 -0.020985793
0.029391699 0.039749146 0.06730806 -0.0009751228 0.022195319 0.06885808 -0.0026463072 -0.035034403
-0.14999473 0.06947023 0.043845445 -0.063892536 -0.02011195 -0.046562187 -0.031578366 0.05671697
0.03633861 -0.0040428694 -0.06956744 0.018207468 0.044317976 0.02839403 -0.0606111 0.0028128556
-0.056787796 -0.05815917 -0.05169332 0.051180214 -0.06251731 0.046871856 -0.024023423 0.004416476
0.062483016 -0.016240995 -0.030041916 0.05168894 -0.05223104 0.004265496 0.080983445 0.018066414
-0.024142178 0.05147564 0.057602838 -0.027914688 0.038834233 -0.05366992 -0.03899162 -0.07677184
-0.025219252 0.04519397 0.06540869 -0.06759472 -0.046835016 0.057651684 0.05036489 0.028167807
-0.15957889 -0.041869625 -0.01892102 -0.008015343 0.0459596 -0.065615945 0.03271425 0.016983472
-0.02798383 0.051012836 0.04326974 0.00049856835 0.07763024 0.0015069479 0.03166306 -0.0474679
-0.032431003 0.034187358 0.037882503 -0.007319153 0.005699241 -0.04404284 -0.050700862 0.019642442
-0.037929486 0.04107588 0.056190137 0.007285576 -0.05464058 0.04189621 0.028175022 0.024703553
0.046091378 -0.040225264 0.032831173 0.032469925 -0.0352856 0.056405045 -0.044266965 -0.038743626
0.06957247 0.024990218 0.07691984 0.02126091 -0.040278714 0.0071603064 0.017008917 0.05889741
0.042561382 0.05589557 0.041689083 0.06509695 0.0018759348 0.032017697 -0.0061087487 -0.06284904
0.012596032 -0.059214234 0.018594721 0.030253125 0.06915941 0.035451636 0.06163799 0.05176172
0.054924604 -0.05835265 -0.04993248 0.03711177 -0.03836695 -0.04722993 -0.065574564 0.0081742
-0.05154008 0.029156221 0.048562776 0.024992714 0.005158717 -0.05569264 0.013728398 0.06848943
0.03933794 0.048109382 -0.051268365 0.012552753 0.033753328 -0.0391804 -0.06825735 -0.061698228
-0.0009001216 0.047151178 0.04352789 0.058499414 -0.06578023 0.08130161 -0.006416927 0.032744396
-0.001020131 -0.04591452 0.046839762 0.08030291 0.03708072 0.0034395407 0.03331774 0.048624028
0.033468798 0.07902761 -0.031530775 -0.045084402 0.015584935 -0.03350695 -0.051743086 0.046931557
0.062493257 -0.012733893 -0.039316908 -0.007741888 -0.06225013 0.021886386 0.009875001 0.029655932
0.003971615 0.059627213 0.06620849 0.061171982 0.008641756 -0.011657892 0.021053327 -0.051658917
-0.0019409036 0.037661508 0.039175075 -0.06694562 0.0116974665 0.042104103 0.01797791 -0.010335125
-0.008984503 -0.034117438 -0.0006593537 -0.026741575 0.049447637 -0.011043345 0.04053238 0.035503473
-0.1684081 -0.053496342 0.043241307 -0.042992536 0.061201 0.0012551668 -0.01493545 -0.04195051
-0.034375835 0.0011479502 -0.022835594 0.05633387 0.017823175 0.035777945 -0.056818735 0.0895407
0.0056140134 -0.051797796 0.045962594 -0.06294232 -0.050506666 -0.054388903 0.0065914523 -0.03363996
0.010139458 0.0068519395 -0.030045386 0.007307179 0.06513019 -0.020574503 0.06378875 0.016852902
0.019875333 0.019205237 -0.03945428 -0.005420609 0.02494539 0.050169677 0.03533276 0.024269013
00000000: 4c12 873b 7cde a73c c6c9 413d 7bea 713d
00000010: 621c 82bd 0f6e 873d 66bd 9938 c29a 74bd
00000020: 0b98 b6bc f3ac 12bd 0a31 abbc 0487 8d3d
00000030: 2a5a 10bd e992 503d 5698 643d 66ea abbc
00000040: dcc6 f03c 00d0 223d cfd8 893d 629f 7fba
00000050: f5d2 b53c 7705 8d3d ab6d 2dbb 3c80 0fbd
00000060: 3898 19be 6846 8e3d 4897 333d 17da 82bd
00000070: d1c1 a4bc feb7 3ebd 5158 01bd 0e50 683d
00000080: cbd7 143d 0c7a 84bb 6079 8ebd d427 953c
00000090: c486 353d 999a e83c 5843 78bd e357 383b
000000a0: 529a 68bd 4f38 6ebd 60bc 53bd 58a2 513d
000000b0: 1309 80bd b4fc 3f3d c5cc c4bc 16b8 903b
000000c0: 31ee 7f3d d60b 85bc 771a f6bc c8b7 533d
000000d0: 37f0 55bd 93c5 8b3b a6da a53d 0400 943c
000000e0: d1c5 c5bc 1fd8 523d f4f0 6b3d 58ad e4bc
000000f0: a510 1f3d fdd4 5bbd adb5 1fbd 8e3a 9dbd
00000100: 9b98 cebc 501d 393d fef4 853d 1a6f 8abd
00000110: 13d6 3fbd 2c24 6c3d 6a4b 4e3d 2cc0 e63c
00000120: a668 23be 7c7f 2bbd 4100 9bbc c952 03bc
00000130: 2240 3c3d a761 86bd 61ff 053d ec20 8b3c
00000140: 583e e5bc d6f2 503d 9c3b 313d 5bb2 023a
00000150: 9afc 9e3d c884 c53a 20b1 013d b36d 42bd
00000160: 5fd6 04bd 0b08 0c3d af2a 1b3d 81d5 efbb
00000170: b3c0 ba3b 4466 34bd b5ab 4fbd 30e9 a03c
00000180: f35b 1bbd 2f3f 283d a127 663d d7bb ee3b
00000190: cdce 5fbd 5c9b 2b3d 4ecf e63c 1b5f ca3c
000001a0: 50ca 3c3d 3fc3 24bd fb79 063d 2fff 043d
000001b0: a287 10bd fa08 673d 4751 35bd a3b1 1ebd
000001c0: 037c 8e3d 49b8 cc3c 2688 9d3d 5c2b ae3c
000001d0: 4bfb 24bd 01a1 ea3b 4956 8b3c 693e 713d
000001e0: d854 2e3d c1f2 643d 2cc2 2a3d 8d51 853d
000001f0: ede1 f53a fd24 033d e62b c8bb ffb6 80bd
00000200: 965f 4e3c a08a 72bd f553 983c 67d5 f73c
00000210: 73a3 8d3d bc35 113d 1e78 7c3d 1904 543d
00000220: 9ff8 603d 3003 6fbd 0086 4cbd 8302 183d
00000230: aa26 1dbd 2c74 41bd f54b 86bd 14ed 053c
00000240: b11b 53bd 07d9 ee3c c3e9 463d 85bd cc3c
00000250: 740a a93b f71d 64bd 13ed 603c 3044 8c3d
00000260: d220 213d 580e 453d c7fe 51bd 10aa 4d3c
00000270: ee40 0a3d a17b 20bd 82ca 8bbd 48b7 7cbd
00000280: 23f6 6bba 9821 413d 4d4a 323d 159d 6f3d
00000290: c9b7 86bd 7581 a63d 1645 d2bb fd1e 063d
000002a0: ebb5 85ba dd10 3cbd 0ddb 3f3d da75 a43d
000002b0: f4e1 173d eb69 613b 2f78 083d fd29 473d
000002c0: 9416 093d 3ad9 a13d 6a26 01bd 6caa 38bd
000002d0: f557 7f3c 953e 09bd 8ff0 53bd 4e3b 403d
000002e0: eef8 7f3d d1a1 50bc c40a 21bd aaaf fdbb
000002f0: fef9 7ebd 144b b33c c2ca 213c fff0 f23c
00000300: 5224 823b aa3b 743d 5198 873d 798f 7a3d
00000310: 2796 0d3c be00 3fbc 0778 ac3c 4d98 53bd
00000320: eb65 feba f442 1a3d 0b76 203d c91a 89bd
00000330: bba6 3f3c 5a75 2c3d 6946 933c a854 29bc
00000340: bd33 13bc babe 0bbd 7ad8 2cba 2611 dbbc
00000350: 9b89 4a3d 25ef 34bc 4805 263d 176c 113d
00000360: 2c73 2cbe fb1e 5bbd cc1d 313d f118 30bd
00000370: e6ad 7a3d 6984 a43a d1b3 74bc 4cd4 2bbd
00000380: adcd 0cbd d176 963a b611 bbbc 58be 663d
00000390: e801 923c e58b 123d c3ba 68bd 1d61 b73d
000003a0: c2f5 b73b ed29 54bd 4643 3c3d e7e7 80bd
000003b0: 14e0 4ebd e6c6 5ebd 1cfd d73b 0eca 09bd
000003c0: f81f 263c 3c86 e03b be21 f6bc 0f71 ef3b
000003d0: fa62 853d dc8b a8bc ada3 823d 190f 8a3c
000003e0: 98d1 a23c 4d54 9d3c d09a 21bd 5d9f b1bb
000003f0: 465a cc3c b87e 4d3d 16b9 103d cfcf c63c

net.12.bias f4 [64]
0.091638565 0.097016014 0.070907526 0.004966782 -0.052436143 0.07958142 0.10886913 0.072011635
0.061448645 -0.03319288 0.12641533 0.067280866 -0.05719617 0.009167741 0.09666158 0.102052905
0.103756174 0.13346335 0.101712376 0.05142334 0.035400797 0.09964742 0.070539735 -0.033306766
-0.07638626 0.030079074 0.082957335 0.1256527 -0.111923225 -0.055479404 0.03948556 0.11979378
-0.012963833 0.091246 0.083898686 0.07940208 0.12258059 -0.050186183 0.09134436 0.035705544
0.113717295 0.039196376 0.100624815 0.06176599 -0.033364084 -0.05005703 -0.029320193 0.016565068
0.06909472 -0.018069975 0.05919931 -0.053341687 0.117883705 0.10096383 -0.038003985 -0.07962617
0.081545435 -0.027232347 0.118732914 0.11639694 -0.11197479 0.108257435 0.11297145 -0.03725817
00000000: 00ad bb3d 55b0 c63d f737 913d 63c0 a23b
00000010: 48c7 56bd 95fb a23d c7f6 de3d d67a 933d
00000020: 93b1 7b3d 42f5 07bd 0573 013e 8dca 893d
00000030: 8846 6abd 4b34 163c 82f6 c53d 1d01 d13d
00000040: 1e7e d43d 9eaa 083e 944e d03d 48a1 523d
00000050: 6d00 113d f213 cc3d 2377 903d ad6c 08bd
00000060: 6670 9cbd 6468 f63c 89e5 a93d 1aab 003e
00000070: 0138 e5bd 5f3e 63bd 9cbb 213d 7156 f53d
00000080: 4266 54bc 2fdf ba3d 13d3 ab3d 8f9d a23d
00000090: 880b fb3d 0790 4dbd c012 bb3d fa3f 123d
000000a0: 9de4 e83d 618c 203d 6214 ce3d 56fe 7c3d
000000b0: c7a8 08bd 9a08 4dbd e730 f0bc 77b3 873c
000000c0: 8881 8d3d 7c07 94bc fa7a 723d d07c 5abd
000000d0: 036d f13d 20c6 ce3d 11aa 1bbd 0c13 a3bd
000000e0: 4b01 a73d 5f16 dfbc 3e2a f33d 8561 ee3d
000000f0: 0a53 e5bd 13b6 dd3d 935d e73d 069c 18bd

net.15.weight f4 [64, 64, 3]
-0.039993968 -0.00016401956 -0.029097164 -0.051217962 0.04025413 0.059081826 -0.010530001 -0.031062339
-0.0145149585 0.02805308 0.06688648 0.008502049 0.03707754 0.052217185 0.044003226 0.0017687461
-0.017341869 0.013244318 -0.031382576 -0.020291682 0.019630218 -0.05475463 0.022831226 -0.015965957
0.045871098 -0.039518904 0.07009554 -0.079744734 -0.05114609 0.0440719 -0.032874715 0.035249118
0.0656167 0.018139733 -0.061697654 -0.06845758 0.0025589804 -0.046698585 -0.03166538 0.1737492
0.011309503 -0.027772302 0.017502256 0.014399614 0.063611485 0.042638816 0.040478334 0.069634646
-0.22489837 0.0059419363 0.048731726 -0.06532975 -0.065632954 -0.023528432 -0.026112396 -0.01472195
-0.04891127 0.031237975 -0.0512356 0.04749633 0.0714035 0.025555488 0.012641651 -0.2305422
-0.022540625 -0.046086006 0.07048155 0.047725614 0.05754495 -0.082614705 -0.026111228 -0.06234704
-0.033900484 0.06553874 -0.04181867 -0.17415893 0.03861149 -0.052930307 -0.06683566 -0.014457134
-0.014179441 -0.019877678 0.052082192 -0.02623946 0.03741781 0.03681995 0.05367782 0.030980691
0.05755146 -0.0557142 0.046579402 0.0039871344 -0.016187523 0.01638772 -0.06782976 -0.035486475
-0.022539759 -0.005625413 -0.017952735 -0.07031063 -0.06329892 0.05513597 0.026848702 -0.00055682193
-0.005676935 0.00905632 0.010096708 0.04836734 0.046168752 -0.0330727 -0.039712712 -0.06322123
-0.0058097495 -0.06600674 0.059907395 -0.015327155 0.012675935 -0.035166807 0.052664123 -0.03298466
-0.06226457 -0.043968886 -0.012222378 -0.047544118 -0.057236396 -0.052624933 -0.026903018 -0.029466754
0.002669129 0.053432517 0.047074992 0.049960416 -0.0023149515 0.04006984 -0.047960375 -0.045026
0.018084139 0.053593345 0.074134775 0.04655476 -0.06628301 -0.08816903 0.06953429 -0.011664036
-0.064897925 0.02036105 0.057979017 -0.122618355 -0.022908647 0.006212761 0.014468492 0.0014162066
0.0039252937 0.036238357 0.04050643 -0.06196857 0.11454219 0.033331618 -0.056313664 -0.005988077
0.0013521459 -0.06416987 -0.06746384 0.067174606 0.03211509 0.0312494 -0.055767313 -0.056100775
-0.015811246 0.01271628 -0.05006041 0.058060836 -0.038227014 -0.051227104 0.005313888 0.06131083
-0.030588562 -0.032060504 0.032824006 -0.030747313 -0.052384567 -0.0456412 -0.061758198 -0.031222736
-0.046524853 0.05148628 0.06659636 -0.048600633 -0.024156494 -0.014298506 0.03345913 0.036257267
-0.0054450985 7.6126795e-05 -0.06526087 -0.038577083 -0.028750375 -0.05932981 -0.018611912 0.03388725
0.018735994 -0.08739438 -0.008213297 -0.0030752036 0.018107785 -0.025369007 0.04448707 -0.03726378
-0.008464803 0.03005163 -0.05051413 -0.042673387 -0.029643979 0.028356843 -0.04619472 0.0007738666
0.0032187842 0.064164475 0.0049129673 -0.06740708 0.04597551 -0.02913196 0.093680255 0.051858637
0.0515549 0.044394717 -0.066768505 0.01077704 0.0007561629 0.04286738 0.011361524 -0.04303764
0.03367323 -0.0048277914 -0.046579305 0.03456393 0.015713103 -0.03658254 -0.017244838 -0.038330846
-0.17026466 -0.060161576 0.037913315 0.049220044 0.036558546 -0.02280264 0.06953711 -0.021231765
0.037319206 0.0563711 -0.043232013 -0.06628107 0.031080464 0.00578257 -0.037122943 -0.16171679
00000000: b7d0 23bd aafc 2bb9 2d5d eebc edc9 51bd
00000010: 84e1 243d c9ff 713d 0686 2cbc 7276 febc
00000020: 26d0 6dbc 93cf e53c c7fb 883d 2e4c 0b3c
00000030: 9ede 173d b0e1 553d ba3c 343d 45d5 e73a
00000040: 8910 8ebc b2fe 583c 048b 00bd be3a a6bc
00000050: 8dcf a03c 6446 60bd 8d08 bb3c 0acb 82bc
00000060: 55e3 3b3d 93de 21bd 408e 8f3d 3551 a3bd
00000070: 907e 51bd bd84 343d a3a7 06bd 6161 103d
00000080: 0c62 863d c799 943c aeb6 7cbd 7d33 8cbd
00000090: 91b4 273b 0447 3fbd 8fb3 01bd 4feb 313e
000000a0: 7e4b 393c bd82 e3bc e460 8f3c 5cec 6b3c
000000b0: bd46 823d 0aa6 2e3d 9ccc 253d 9c9c 8e3d
000000c0: c24b 66be 93b4 c23b eb9a 473d 9bcb 85bd
000000d0: 926a 86bd b3be c0bc aae9 d5bc 5534 71bc
000000e0: 2f57 48bd c8e6 ff3c 6cdc 51bd 838b 423d
000000f0: 003c 923d be59 d13c ed1e 4f3c 4113 6cbe
00000100: 1ea7 b8bc aec4 3cbd a258 903d ef7b 433d
00000110: 41b4 6b3d e631 a9bd 37e7 d5bc 9c5f 7fbd
00000120: 3cdb 0abd 2d39 863d 0e4a 2bbd b856 32be
00000130: 1527 1e3d 73cd 58bd 22e1 88bd 9ddd 6cbc
00000140: e350 68bc 83d6 a2bc 2354 553d 23f4 d6bc
00000150: 6b43 193d 84d0 163d 46dd 5b3d 38cb fd3c
00000160: 14bb 6b3d 9334 64bd 0bca 3e3d 82a6 823b
00000170: b29b 84bc 8a3f 863c 54ea 8abd 445a 11bd
00000180: 4da5 b8bc 6255 b8bb 9d11 93bc 05ff 8fbd
00000190: dda2 81bd 41d6 613d cff1 db3c b0f7 11ba
000001a0: 9505 babb f660 143c aa6c 253c d51c 463d
000001b0: 721b 3d3d 3d77 07bd cca9 22bd 227a 81bd
000001c0: b65f bebb 8b2e 87bd 7561 753d bf1e 7bbc
000001d0: baae 4f3c 120b 10bd 56b6 573d ec1a 07bd
000001e0: 2209 7fbd b818 34bd 5e40 48bc 9fbd 42bd
000001f0: b670 6abd 3e8d 57bd b863 dcbc 4364 f1bc
00000200: 8eec 2e3b 0edc 5a3d b5d1 403d 4ba3 4c3d
00000210: 71b6 17bb 4620 243d 1972 44bd 2f6d 38bd
00000220: 3025 943c b284 5b3d f9d3 973d 34b0 3e3d
00000230: 63bf 87bd f791 b4bd fe67 8e3d 831a 3fbc
00000240: 34e9 84bd 37cc a63c 687b 6d3d 551f fbbd
00000250: eaaa bbbc 6b94 cb3b 410d 6d3c 02a0 b93a
00000260: c09f 803b ac6e 143d 12ea 253d c1d2 7dbd
00000270: 1995 ea3d bc86 083d 28a9 66bd a137 c4bb
00000280: 7d3a b13a 7e6b 83bd 7b2a 8abd d792 893d
00000290: 1d8b 033d befe ff3c 446c 64bd edc9 65bd
000002a0: 9686 81bc f257 503c 250c 4dbd 33d1 6d3d
000002b0: ee93 1cbd 83d3 51bd 2020 ae3b 1121 7b3d
000002c0: dd94 fabc e051 03bd 7772 063d cae1 fbbc
000002d0: 3391 56bd 44f2 3abd 2af6 7cbd d3c6 ffbc
000002e0: d890 3ebd 47e3 523d ac63 883d 7511 47bd
000002f0: d7e3 c5bc 4844 6abc 710c 093d 8082 143d
00000300: cc6c b2bb 43a6 9f38 7ea7 85bd 0103 1ebd
00000310: e885 ebbc d103 73bd 0278 98bc 5bcd 0a3d
00000320: 3a7c 993c d3fb b2bd 1191 06bc 5b89 49bb
00000330: c756 943c aad2 cfbc 1338 363d e8a1 18bd
00000340: f5af 0abc d62e f63c e8e7 4ebd 4aca 2ebd
00000350: eed7 f2bc 9c4c e83c ad36 3dbd 4fdd 4a3a
00000360: 3df2 523b aa68 833d f5fc a03b b90c 8abd
00000370: d150 3c3d 26a6 eebc 6fdb bf3d b969 543d
00000380: 3b2b 533d 3cd7 353d edbd 88bd 2f92 303c
00000390: 3c39 463a b595 2f3d b025 3a3c 3d48 30bd
000003a0: f1ec 093d 7332 9ebb f1c9 3ebd e892 0d3d
000003b0: c4b8 803c 93d7 15bd 0c45 8dbc ce00 1dbd
000003c0: dc59 2ebe fc6b 76bd fe4a 1b3d f59a 493d
000003d0: 6abe 153d 9acc babc 7969 8e3d 3dee adbc
000003e0: 06dc 183d 62e5 663d 0d14 31bd 5fbe 87bd
000003f0: 759c fe3c b77b bd3b 3a0e 18bd 1699 25be

net.15.bias f4 [64]
0.20329228 0.18755247 0.13976526 0.1849947 0.19677743 0.14935464 0.16066071 0.1911361
-0.048808254 0.15628915 -0.039089356 0.2031921 -0.0616367 0.17695211 -0.026228193 0.16846931
0.17543778 0.15691282 -0.04885804 0.16259047 0.05488855 -0.048718337 0.1860948 -0.06400077
0.18585512 0.1864663 0.13713634 0.00053467473 0.16748656 0.20497398 0.15909018 0.13802202
0.17886065 -0.028093968 0.19413443 0.17715192 0.14083421 -0.07725475 -0.022717308 0.14365157
0.18252806 0.009629248 0.17010607 -0.062426373 0.17337087 0.17003731 0.1543944 0.016608505
0.18408592 0.2501204 0.1934308 0.16698168 0.19573589 0.13406596 0.18881892 0.21292618
0.13870606 0.18200716 0.17606471 0.14499111 0.10469955 -0.02772295 0.1773695 0.040461197
00000000: da2b 503e c10d 403e a01e 0f3e 406f 3d3e
00000010: 0680 493e 6cf0 183e 3e84 243e 2fb9 433e
00000020: 2aeb 47bd 430a 203e 291c 20bd 9711 503e
00000030: c476 7cbd ef32 353e 82dc d6bc 3883 2c3e
00000040: f6a5 333e c1ad 203e 5e1f 48bd 1e7e 263e
00000050: d1d2 603d e18c 47bd a38f 3e3e d612 83bd
00000060: ce50 3e3e 06f1 3e3e 786d 0c3e 6a29 0c3a
00000070: 9981 2b3e b3e4 513e 89e8 223e a555 0d3e
00000080: 3f27 373e 5225 e6bc 2dcb 463e 5067 353e
00000090: d836 103e bd37 9ebd a619 babc 6619 133e
000000a0: a3e8 3a3e fec3 1d3c 4930 2e3e ccb2 7fbd
000000b0: 2288 313e 431e 2e3e 9119 1e3e 8f0e 883c
000000c0: 0581 3c3e c80f 803e b912 463e 3ffd 2a3e
000000d0: fd6e 483e 9648 093e bf59 413e 5209 5a3e
000000e0: f608 0e3e 1660 3a3e 4f4a 343e 8d78 143e
000000f0: b86c d63d 3d1b e3bc 5aa0 353e a4ba 253d
