model_artifacts/lstm/dl_lstm_latest_66503_73892.pt (torch, 289941 bytes, 18 tensors)

lstm.weight_ih_l0 f4 [256, 30]
0.003643698 -0.02208077 -0.17006546 -0.005141218 0.03300017 -0.09527103 -0.074708596 0.02790239
0.014986035 0.024304125 -0.13718297 0.13929516 0.044898923 0.09029626 0.00018993046 0.085719466
0.030710442 -0.008872392 0.025775898 -0.036120523 -0.019223664 -0.12819286 -0.104448296 0.016806526
0.1129515 0.14792635 0.1757419 -0.025672093 0.06924282 0.21310005 0.07100548 -0.1727754
-0.07148288 -0.17097814 -0.011056501 -0.18033373 -0.023277465 -0.16747718 -0.023248622 -0.16428839
-0.05259022 0.11715529 0.21165664 0.18133931 0.17288294 0.14679454 0.18395194 -0.15654957
-0.15376231 -0.05299884 -0.21373917 0.017171394 -0.06279463 -0.053279884 -0.056011718 -0.08319256
0.15105093 0.037751827 -0.15324104 0.024514416 -0.04372541 0.010754983 -0.03208947 0.05048306
0.15820657 0.114823885 0.17398529 0.015925815 0.24251208 -0.063228115 -0.008808736 -0.191646
0.07414418 0.107782975 -0.031287037 -0.120237105 -0.2376223 0.041627068 -0.16474727 -0.13023683
-0.10146775 -0.146807 0.15501527 0.057282764 0.034098335 0.053284038 -0.060948186 0.036697317
-0.11182232 -0.15747607 0.032118294 -0.07842354 0.11257174 0.11226333 -0.025321884 -0.047461566
-0.004136801 0.1885376 0.3099603 0.15830173 -0.15566036 0.041018423 0.010724018 0.071269095
-0.16593432 -0.22090235 0.0058471705 -0.078747444 0.056330662 -0.17857698 0.14132895 -0.17998743
0.013127775 0.08835554 0.006582999 -0.05544155 -0.047269195 -0.1691096 -0.16113998 -0.05268295
0.11460541 -0.0925051 -0.012844045 -0.053553987 -0.0012292992 -0.03610464 0.069877505 -0.19412065
0.06308816 -0.27272975 -0.26307413 -0.114751324 -0.09854013 0.14894372 0.14596279 0.082753174
-0.12582812 0.0039904956 0.059414938 0.040204953 0.027436802 -0.30777347 -0.046550475 0.005383124
-0.22699693 -0.12755866 0.039265007 -0.2847649 0.18940099 0.116225295 -0.09418381 0.06489919
-0.030475238 0.078807324 0.05846132 0.018881803 -0.085441194 -0.18503839 -0.26271415 -0.1685708
-0.013192538 -0.044180036 -0.0412133 -0.09606408 -0.12789549 -0.03524739 0.017625328 0.084380105
-0.046810392 0.027753389 -0.13376173 -0.26540142 -0.018625205 -0.113963224 -0.107856795 -0.07188039
0.12878238 -0.14501274 0.05735223 0.039853245 0.23533697 0.009718457 -0.03500095 -0.038575217
0.004537667 -0.008883914 -0.11935591 0.030278629 0.011474406 -0.0011711445 0.2640392 0.21446396
0.1539889 -0.007159524 0.14454302 0.37330616 0.078132994 -0.098079585 0.12491882 0.22534595
0.12264426 0.1482231 -0.12223809 0.026406884 0.2457651 0.3618859 -0.07007254 -0.11230377
0.047145292 0.003818502 0.06803299 0.051763367 -0.14542773 -0.099382445 0.03979288 -0.10460993
0.023920963 -0.123359874 -0.18544206 0.025486527 0.13624665 -0.003707548 0.056064963 -0.08905808
-0.16399121 -0.09990161 -0.09467394 0.022422982 0.092560224 -0.02900588 0.129863 -0.17871577
-0.026554594 0.045809086 0.033349972 -0.015230149 0.08554363 0.18615787 0.18744335 -0.021935342
-0.21389407 -0.04320078 -0.088885166 -0.068944395 -0.12686004 -0.09590607 -0.10315137 0.117966
0.32028002 0.16040295 -0.082047604 -0.007244735 -0.023680484 0.26174462 0.03528565 0.18775485
00000000: 1ccb 6e3b bbe2 b4bc a425 2ebe aa77 a8bb
00000010: 302b 073d 751d c3bd d200 99bd 8e93 e43c
00000020: fd87 753c 7219 c73c b179 0cbe 64a3 0e3e
00000030: efe7 373d 3fed b83d 1228 4739 b08d af3d
00000040: 7794 fb3c 825d 11bc fa27 d33c 1df3 13bd
00000050: f27a 9dbc fd44 03be fde8 d5bd d7ad 893c
00000060: 1e53 e73d 017a 173e aff5 333e 484e d2bc
00000070: 2ecf 8d3d e636 5a3e 526b 913d 09ec 30be
00000080: 9e65 92bd e514 2fbe 5426 35bc 68a9 38be
00000090: 62b0 bebc 237f 2bbe e573 bebc 373b 28be
000000a0: d868 57bd 1def ef3d 85bc 583e 03b1 393e
000000b0: 3a08 313e 4f51 163e e65d 3c3e 884e 20be
000000c0: de73 1dbe 5015 59bd 71de 5abe 06ab 8c3c
000000d0: 799a 80bd 023c 5abd 8b6c 65bd dc60 aabd
000000e0: 18ad 1a3e a9a1 1a3d 38eb 1cbe 75d2 c83c
000000f0: 6a19 33bd ab35 303c 4070 03bd 53c7 4e3d
00000100: e700 223e c928 eb3d 3329 323e db76 823c
00000110: 1655 783e be7d 81bd 8452 10bc d93e 44be
00000120: e7d8 973d 52bd dc3d d626 00bd df3e f6bd
00000130: 4353 73be 2581 2a3d 82b3 28be ce5c 05be
00000140: 53ce cfbd 9354 16be 53bc 1e3e 55a1 6a3d
00000150: b2aa 0b3d 5d40 5a3d cea4 79bd ed4f 163d
00000160: 1a03 e5bd 6841 21be 798e 033d 859c a0bd
00000170: 038c e63d 51ea e53d d76f cfbc 0f67 42bd
00000180: 018e 87bb 0010 413e 1eb3 9e3e d919 223e
00000190: 6e65 1fbe ef02 283d cbb3 2f3c 88f5 913d
000001a0: b0ea 29be 3a34 62be 9f99 bf3b 5746 a1bd
000001b0: fbba 663d e2dc 36be 89b8 103e a04e 38be
000001c0: e115 573c c0f3 b43d 33b6 d73b ae16 63bd
000001d0: 589d 41bd 112b 2dbe e101 25be 14ca 57bd
000001e0: 3eb6 ea3d 5073 bdbd d46f 52bc 6d5b 5bbd
000001f0: 7020 a1ba 76e2 13bd f01b 8f3d 90c7 46be
00000200: 5d34 813d 3ca3 8bbe a7b1 86be be02 ebbd
00000210: 68cf c9bd b484 183e 4577 153e 7f7a a93d
00000220: 16d9 00be b4c2 823b 145d 733d f3ad 243d
00000230: 25c3 e03c 7c94 9dbe b6ab 3ebd eb64 b03b
00000240: e271 68be bd9e 02be 58d4 203d b4cc 91be
00000250: 55f2 413e 8707 ee3d 71e3 c0bd dee9 843d
00000260: 35a7 f9bc bc65 a13d 2375 6f3d 03ae 9a3c
00000270: cbfb aebd b47a 3dbe 7882 86be d39d 2cbe
00000280: 8425 58bc 20f6 34bd 47cf 28bd 3fbd c4bd
00000290: 09f7 02be 915f 10bd fe62 903c 7acf ac3d
000002a0: 41bc 3fbd 135b e33c d6f8 08be b2e2 87be
000002b0: e393 98bc 8d65 e9bd 06e4 dcbd 0736 93bd
000002c0: 87df 033e 387e 14be 2cea 6a3d 283d 233d
000002d0: 2dfc 703e 2a3a 1f3c 285d 0fbd 0c01 1ebd
000002e0: b6b0 943b d68d 11bc df70 f4bd e30a f83c
000002f0: 26ff 3b3c 1781 99ba 2530 873e 719c 5b3e
00000300: 44af 1d3e 719a eabb 1603 143e fc21 bf3e
00000310: 3104 a03d f3dd c8bd 70d5 ff3d 17c1 663e
00000320: ea2c fb3d ccc7 173e f757 fabd 4053 d83c
00000330: d9a9 7b3e 1c49 b93e 3182 8fbd 85ff e5bd
00000340: 6c1b 413d d53f 7a3b e154 8b3d d305 543d
00000350: 02eb 14be 0689 cbbd dcfd 223d bb3d d6bd
00000360: e5f5 c33c 1aa4 fcbd 86e4 3dbe 1fc9 d03c
00000370: 3e84 0b3e 55fa 72bb 60a4 653d 1564 b6bd
00000380: 50ed 27be 3799 ccbd 69e4 c1bd 67b0 b73c
00000390: 3790 bd3d bd9d edbc cefa 043e 4401 37be
000003a0: 0589 d9bc 4fa2 3b3d fb99 083d e087 79bc
000003b0: 8031 af3d 2ba0 3e3e 26f1 3f3e bfb1 b3bc
000003c0: 0c07 5bbe 4df3 30bd 6d09 b6bd b832 8dbd
000003d0: 99e7 01be 676a c4bd 0741 d3bd 2998 f13d
000003e0: befb a33e ac40 243e 9308 a8bd 3e65 edbb
000003f0: 93fd c1bc 6403 863e b087 103d cf42 403e

lstm.weight_hh_l0 f4 [256, 64]
-0.009467014 -0.11433196 -0.11801275 0.050343066 -0.08957177 -0.006738084 -0.168587 0.0097312555
0.04565613 0.2002772 -0.05845285 -0.018950988 0.04610163 0.0054512033 0.14648996 -0.18086949
0.062180713 -0.08322691 0.067631885 -0.044691227 0.10698791 0.025779393 -0.06156388 0.1821272
-0.003083977 0.08664154 -0.09240388 0.107512146 -0.10293801 -0.015450374 -0.024822276 0.015308574
-0.09933742 -0.048428804 0.061870962 -0.031547133 0.04124222 0.12941806 -0.15528588 0.134286
0.0976658 -0.015052882 0.0718006 -0.087447315 -0.08230205 -0.07656415 -0.007875413 0.04076765
-0.06940246 -0.006365685 0.010960524 0.11560624 -0.013435233 -0.056318816 -0.049760524 0.09191035
-0.02815215 -0.0980436 0.103564985 0.03494581 -0.12208121 0.016217526 -0.009581205 0.072447196
0.247821 -0.15521711 -0.029356994 0.22866413 -0.099330515 -0.30177796 -0.30890062 -0.15837176
0.015147977 0.17204785 0.02073923 0.075964816 0.026892994 0.10036184 -0.24440439 -0.18050414
-0.20540889 0.15776682 0.077747375 0.0019345225 0.18415698 -0.119937696 0.22167361 0.15578969
0.20645535 0.08422776 0.12217958 0.14194225 -0.10565923 0.006959585 0.06657058 -0.082702376
0.10954725 0.04958965 0.12199043 -0.06780623 0.05765534 0.0140603045 0.043175835 0.1888844
0.08413572 0.146003 -0.12490125 0.05679908 -0.2153117 -0.02617449 0.097408615 0.10167151
-0.17808476 -0.20053132 -0.26774395 0.2328374 0.05127861 0.15465051 -0.19156504 0.079018675
0.006676413 -0.1400805 0.042782888 -0.044086546 -0.31536123 0.041253522 -0.0977214 -0.11575736
0.05087357 -0.09432001 0.10636352 -0.039291322 -0.019126171 -0.07616483 0.09904989 -0.05091836
-0.14472528 -0.0565478 0.13901424 -0.092863865 -0.1559707 -0.06504272 -0.034403723 -0.04976983
0.124181725 0.025035398 -0.1709403 -0.014604893 0.109607905 0.15134893 0.13998187 -0.18790664
-0.00088500034 0.053085677 -0.031957153 0.030604161 -0.008459012 -0.12737165 0.025149025 -0.043572202
-0.17227897 -0.036762413 0.07630865 0.10892893 0.05029691 0.007951507 -0.16772076 -0.02269722
-0.16042899 0.0068812566 -3.1138086e-05 -0.12872487 -0.0533875 -0.04689421 -0.035635438 0.014948824
0.12615469 -0.04427018 -0.05001836 -0.046913393 0.023839777 -0.15960653 -0.0069939294 -0.07401273
-0.12767479 0.048458032 -0.15259212 -0.046290554 0.023841783 0.028626475 0.12163915 0.081080094
0.054045312 -0.092928134 0.11804845 0.112949334 -0.06291818 -0.16057885 -0.08273516 -0.031808466
-0.21519381 0.26260045 -0.01789251 -0.067002915 -0.3053418 -0.16672681 0.03100431 0.032563295
-0.108196184 0.22358839 -0.0047872313 -0.3036754 0.23584041 -0.005198351 -0.113897786 0.031204859
0.041652095 -0.12563054 -0.07243841 0.06358439 -0.10284342 0.08436322 0.07312184 -0.08221333
-0.052452415 -0.20716941 0.06769132 0.08515401 0.034072693 -0.09380278 -0.21213454 -0.007399215
-0.09210849 0.055128913 -0.072223164 -0.020543536 -0.007981003 0.11503591 0.0017041293 -0.267745
-0.24923353 0.030766023 -0.107152395 0.12064665 -0.09475612 0.16803229 -0.20092706 -0.08434269
-0.17852168 -0.14212634 0.11046459 -0.016274037 -0.23068973 0.20157702 -0.010913843 -0.047744546
00000000: 891b 1bbc e026 eabd abb0 f1bd 8834 4e3d
00000010: 6771 b7bd 25cb dcbb 12a2 2cbe d86f 1f3c
00000020: ec01 3b3d 7715 4d3e 416c 6fbd 1a3f 9bbc
00000030: 10d5 3c3d 02a0 b23b 7701 163e da35 39be
00000040: 34b1 7e3d df72 aabd 9682 8a3d 260e 37bd
00000050: 7a1c db3d 4e2f d33c 682a 7cbd 8d7f 3a3e
00000060: 8c1c 4abb 1f71 b13d 3f3e bdbd 542f dc3d
00000070: 2ad1 d2bd 9123 7dbc 1658 cbbc d0d0 7a3c
00000080: 6b71 cbbd 485d 46bd 686c 7d3d 9137 01bd
00000090: 9aed 283d 2b86 043e 4303 1fbe 4582 093e
000000a0: 0205 c83d 5da0 76bc 310c 933d 9417 b3bd
000000b0: fa8d a8bd aacd 9cbd e007 01bc fbfb 263d
000000c0: e022 8ebd 3c97 d0bb c593 333c f7c2 ec3d
000000d0: 741f 5cbc 8fae 66bd b1d1 4bbd 7e3b bc3d
000000e0: 569f e6bc 15cb c8bd e119 d43d 5623 0f3d
000000f0: b705 fabd 9eda 843c 7dfa 1cbc 325f 943d
00000100: cac4 7d3e 3cf1 1ebe 147e f0bc ee26 6a3e
00000110: cc6d cbbd a482 9abe 3928 9ebe 352c 22be
00000120: 382f 783c 502d 303e 51e5 a93c 7193 9b3d
00000130: b24e dc3c 828a cd3d 2545 7abe 14d6 38be
00000140: b556 52be a08d 213e 043a 9f3d ce8f fd3a
00000150: a693 3c3e e5a1 f5bd 68fe 623e 5587 1f3e
00000160: 0869 533e 9b7f ac3d 4a39 fa3d 4f59 113e
00000170: de63 d8bd 3b0d e43b 2856 883d dd5f a9bd
00000180: 4f5a e03d 841e 4b3d 1ed6 f93d fedd 8abd
00000190: 0128 6c3d 315d 663c 25d9 303d ea6a 413e
000001a0: 594f ac3d cf81 153e 3acc ffbd 27a6 683d
000001b0: ac7a 5cbe e26b d6bc 2b7e c73d 2739 d03d
000001c0: da5b 36be 1558 4dbe bc15 89be ed6c 6e3e
000001d0: 8509 523d b45c 1e3e a029 44be 8bd4 a13d
000001e0: d0c5 da3b 4371 0fbe 1c3d 2f3d 1894 34bd
000001f0: 0777 a1be 74f9 283d 2822 c8bd 3212 edbd
00000200: ce60 503d d92a c1bd 1ed5 d93d f0ef 20bd
00000210: 7dae 9cbc 4efc 9bbd abda ca3d c58f 50bd
00000220: dd32 14be aa9e 67bd c059 0e3e 692f bebd
00000230: c8b6 1fbe 1e35 85bd ebea 0cbd 73db 4bbd
00000240: fd52 fe3d 0917 cd3c f90a 2fbe 5c49 6fbc
00000250: 1c7a e03d 37fb 1a3e 6857 0f3e 996a 40be
00000260: 5eff 67ba 5e70 593d 81e5 02bd 94b5 fa3c
00000270: ab97 0abc b76d 02be 5405 ce3c c478 32bd
00000280: e669 30be 2f94 16bd b647 9c3d 2116 df3d
00000290: 2204 4e3d 0a47 023c febe 2bbe 85ef b9bc
000002a0: 7f47 24be 2a7c e13b 449a 02b8 74d0 03be
000002b0: daac 5abd 2514 40bd 77f6 11bd eaeb 743c
000002c0: b22e 013e a654 35bd 0de0 4cbd 4228 40bd
000002d0: a34b c33c e56f 23be 552d e5bb fc93 97bd
000002e0: 2ebd 02be ee7b 463d 1c41 1cbe 2a9b 3dbd
000002f0: d84f c33c 1282 ea3c f21d f93d 520d a63d
00000300: 9e5e 5d3d 1b51 bebd 63c3 f13d fb51 e73d
00000310: 3fdb 80bd c86e 24be 0d71 a9bd 9849 02bd
00000320: c45b 5cbe 9173 863e 5093 92bc d338 89bd
00000330: c355 9cbe 6fba 2abe c0fc fd3c 1761 053d
00000340: f695 ddbd 5bf4 643e 35de 9cbb 587b 9bbe
00000350: 2680 713e ee56 aabb 3e43 e9bd 55a1 ff3c
00000360: 639b 2a3d 4ba5 00be 975a 94bd 8838 823d
00000370: 929f d2bd a0c6 ac3d e7c0 953d 765f a8bd
00000380: 58d8 56bd 3824 54be bfa1 8a3d 3a65 ae3d
00000390: cf8f 0b3d ac1b c0bd cc39 59be 1d75 f2bb
000003a0: 60a3 bcbd dbce 613d bde9 93bd eb4a a8bc
000003b0: c1c2 02bc f297 eb3d 175d df3a df15 89be
000003c0: 1337 7fbe 0709 fc3c b772 dbbd 9715 f73d
000003d0: 7f0f c2bd a810 2c3e d3bf 4dbe dcbb acbd
000003e0: 63ce 36be 9189 11be 423b e23d 2151 85bc
000003f0: ee39 6cbe 356a 4e3e facf 32bc c98f 43bd

lstm.bias_ih_l0 f4 [256]
0.09516298 -0.081053436 -0.15993235 -0.063177586 -0.16283378 0.11363277 -0.027798649 -0.009545832
-0.010353616 0.058419075 -0.06257555 -0.046565056 0.06666741 -0.004824506 -0.021640679 0.087529615
0.019439498 0.0063960725 0.05310693 0.08282863 -0.17145628 0.023320789 0.03154521 0.07462767
0.1678624 0.055554297 0.21072681 0.15346693 0.08363749 0.11332247 0.05363356 -0.022615487
0.2804138 0.05219113 0.065723546 0.18031362 -0.06436624 -0.004724276 0.10120594 -0.012551385
-0.07938703 -0.10945809 0.02564692 0.06152094 -0.011936723 0.0825995 -0.024868717 0.006201504
0.03777555 -0.09314583 -0.075115316 -0.06372887 -0.06261954 0.057283398 -0.048088554 -0.023613645
0.148329 0.1486757 0.012041894 -0.04195384 0.17810377 0.10766171 0.03728299 -0.005856053
-0.054167487 0.13981348 0.1574913 0.034511875 0.037294287 -0.0049411636 0.2497572 -0.057998
0.11487165 0.21370961 0.075379 0.041423924 0.08399803 0.048733883 0.049365662 0.10126385
0.06076623 0.10364455 0.032666024 0.14510262 0.32982728 0.033394367 0.057071887 0.10066776
0.042510606 0.14521429 0.11677155 0.15660453 0.050087806 0.105235025 -0.08084408 0.056109745
0.11599611 -0.058656402 0.046886105 0.19510388 -0.046166398 0.13198982 0.12791303 -0.030817606
0.17107947 0.043511495 0.08866602 0.08323075 -0.045710433 0.07735849 0.11217002 0.13162081
0.13607402 0.119207226 0.1472709 0.063167796 0.09513311 -0.10142317 -0.041240912 0.047509864
0.16625355 0.17531914 0.006260808 0.043384902 0.0385061 -0.02062416 -0.04501611 0.124235645
0.12914969 0.11323131 0.12504578 -0.034446962 -0.121208355 -0.1950741 -0.058179047 -0.12939769
-0.15628552 0.13916029 -0.1065644 0.14598715 0.007963405 -0.11376604 0.13151598 0.03311016
-0.13975479 0.05247662 -0.13804194 -0.097534254 0.17982726 -0.14233536 0.060690697 0.10361972
0.17387871 -0.14265248 -0.008583164 0.0012849893 -0.103277944 0.10358126 -0.010412038 -0.08425512
-0.13568306 -0.15216553 -0.0881444 0.1410879 0.18636423 0.054777574 -0.13105153 0.17691337
-0.0014198222 0.13323125 0.11263253 -0.010651594 -0.11816496 0.17039953 0.20870034 -0.058892157
-0.05376575 0.0024396062 -0.07038682 0.10845987 -0.030532382 0.1947176 -0.040797632 -0.02286829
0.06746059 -0.115483284 0.20708896 0.17204545 -0.008582979 0.15043202 -0.15900698 -0.1336927
0.111263365 0.021177929 -0.1778206 0.019853484 -0.03142045 0.14775085 0.022436457 0.08424156
-0.11738223 0.11433843 -0.1445053 0.0430379 0.03009702 -0.053044867 0.10908109 -0.04222529
-0.08818364 0.12611654 -0.12559526 0.053721886 0.18465385 -0.07091415 -0.03011059 0.017064927
-0.06385448 -0.18578751 0.13444398 0.05400527 0.07439278 0.023855941 -0.118603386 0.039806772
0.0012602605 0.053591542 -0.18466093 -0.03302812 0.06426293 -0.0091959825 0.11209897 0.06267547
-0.018180508 -0.12912759 0.17281729 0.061044317 -0.104713045 0.17261772 0.14884606 -0.08414615
-0.02312424 -0.04686689 -0.10260818 -0.06459884 -0.026030773 0.18578005 0.11462428 -0.0288991
0.038949035 -0.004900153 -0.022026466 -0.05204555 0.12591851 -0.032738827 0.11532905 -0.01625424
00000000: cfe4 c23d 58ff a5bd 4ec5 23be 4063 81bd
00000010: e6bd 26be 4cb8 e83d feb9 e3bc 1f66 1cbc
00000020: 37a2 29bc d748 6f3d 9c27 80bd 00bb 3ebd
00000030: ec88 883d e416 9ebb cb47 b1bc ba42 b33d
00000040: 953f 9f3c 2596 d13b a786 593d 0fa2 a93d
00000050: 3c92 2fbe 3d0b bf3c 8d35 013d 64d6 983d
00000060: 1fe4 2b3e e78c 633d c5c8 573e 6f26 1d3e
00000070: 224a ab3d 9c15 e83d ddae 5b3d 1d44 b9bc
00000080: 6692 8f3e 5ec6 553d 119a 863d 22a4 383e
00000090: 72d2 83bd 19ce 9abb 0f45 cf3d 53a4 4dbc
000000a0: ab95 a2bd 902b e0bd 7d19 d23c 62fd 7b3d
000000b0: 3f92 43bc ed29 a93d 7bb9 cbbc fc35 cb3b
000000c0: 89ba 1a3d 3ec3 bebd 0fd6 99bd 4884 82bd
000000d0: ac3e 80bd ffa1 6a3d 81f8 44bd 6771 c1bc
000000e0: 8fe3 173e 713e 183e 5d4b 453c cad7 2bbd
000000f0: d660 363e be7d dc3d 0cb6 183d 22e4 bfbb
00000100: bade 5dbd 442b 0f3e 6645 213e 535c 0d3d
00000110: e5c1 183d 7ce9 a1bb 5ac0 7f3e 508f 6dbd
00000120: d441 eb3d b1d6 5a3e 4e60 9a3d 22ac 293d
00000130: 2907 ac3d 2e9d 473d a633 4a3d 6c63 cf3d
00000140: 03e6 783d 9843 d43d cfcc 053d c895 143e
00000150: 1fdf a83e 88c8 083d 36c4 693d e62a ce3d
00000160: 9a1f 2e3d 0eb3 143e ec25 ef3d f05c 203e
00000170: df28 4d3d 7685 d73d 9591 a5bd 55d3 653d
00000180: 5e8f ed3d b241 70bd a50b 403d 50c9 473e
00000190: fa18 3dbd 5728 073e a2fb 023e 3475 fcbc
000001a0: 752f 2f3e 1c39 323d 8896 b53d e274 aa3d
000001b0: dd3a 3bbd 216e 9e3d 65b9 e53d 9bc7 063e
000001c0: fd56 0b3e eb22 f43d 2fce 163e 1e5e 813d
000001d0: 26d5 c23d f3b6 cfbd 3bec 28bd b499 423d
000001e0: 5f3e 2a3e dc86 333e 7727 cd3b 5eb4 313d
000001f0: 93b8 1d3d 00f4 a8bc d062 38bd 426f fe3d
00000200: d13f 043e d1e5 e73d 000c 003e 4218 0dbd
00000210: 163c f8bd 81c1 47be 274d 6ebd d480 04be
00000220: 5009 20be 0980 0e3e 703e dabd a87d 153e
00000230: f178 023c 2bfe e8bd 20ac 063e 859e 073d
00000240: e11b 0fbe b9f1 563d de5a 0dbe 0ac0 c7bd
00000250: a324 383e 5cc0 11be cf96 783d 9336 d43d
00000260: 430d 323e 7e13 12be 66a0 0cbc 166d a83a
00000270: 6383 d3bd 6922 d43d 4197 2abc f38d acbd
00000280: 80f0 0abe 48d1 1bbe 0d85 b4bd 5979 103e
00000290: 44d6 3e3e 735e 603d 5f32 06be c728 353e
000002a0: 5419 baba c66d 083e e2ab e63d 0684 2ebc
000002b0: 7800 f2bd 377d 2e3e 8bb5 553e e738 71bd
000002c0: 7a39 5cbd cde1 1f3b f726 90bd 3520 de3d
000002d0: 0c1f fabc 0d64 473e 6b1b 27bd 4856 bbbc
000002e0: c728 8a3d 8082 ecbd 210f 543e af2c 303e
000002f0: a09f 0cbc da0a 1a3e bad2 22be bde6 08be
00000300: 0cde e33d 567d ad3c 9a16 36be c6a3 a23c
00000310: bbb2 00bd 004c 173e a9cc b73c d786 ac3d
00000320: 1866 f0bd 442a ea3d 33f9 13be 8248 303d
00000330: 078e f63c 9345 59bd e865 df3d 6df4 2cbd
00000340: a099 b4bd b224 013e 0b9c 00be 7b0b 5c3d
00000350: e615 3d3e 703b 91bd 7caa f6bc bfcb 8b3c
00000360: 23c6 82bd 153f 3ebe afab 093e a134 5d3d
00000370: 3e5b 983d 896d c33c 55e6 f2bd 6d0c 233d
00000380: 532f a53a ce82 5b3d c117 3dbe 7e48 07bd
00000390: 489c 833d bfaa 16bc 2594 e53d ff5b 803d
000003a0: 4aef 94bc 063a 04be 04f7 303e 9b09 7a3d
000003b0: cb73 d6bd b3c2 303e 1a6b 183e d154 acbd
000003c0: 0c6f bdbc 7ff7 3fbd 3d24 d2bd 664c 84bd
000003d0: 7d3e d5bc 203d 3e3e 22c0 ea3d cebd ecbc
000003e0: 0689 1f3d 7691 a0bb d970 b4bc b72d 55bd
000003f0: c8f0 003e 2619 06bd a331 ec3d 9d27 85bc

lstm.bias_hh_l0 f4 [256]
-0.003774756 0.085295804 -0.020057116 -0.086373694 -0.079701394 0.062709294 -0.012831031 0.022536796
0.097446315 0.14713195 0.106114395 -0.007609208 0.13637847 0.15595901 0.059870094 -0.06390062
0.044915926 -0.00024956942 0.030185062 -0.040770173 -0.055194892 0.038865168 0.16795589 -0.093928166
0.12346537 0.06247616 0.19681069 0.12398188 0.18022434 0.03303393 0.09748922 -0.0077344137
0.1494014 -0.06358583 -0.1092136 0.12083625 -0.1018796 -0.02980164 0.14686096 0.038875964
0.032946207 -0.04392182 -0.11796924 -0.008748512 0.16705048 0.04629148 0.18346463 0.18539813
0.14913781 -0.054768194 0.040514994 0.0714695 -0.07415089 0.18878983 0.05070135 -0.08184193
0.028706864 0.01147369 0.037544552 0.043437902 0.08379221 0.16570318 0.18102369 0.10148748
0.08922814 0.11177968 -0.047170218 -0.0082216095 0.059902746 0.16446437 0.21445262 -0.075652055
0.1149924 0.13582423 -0.08778462 0.008615477 0.03736221 -0.037257653 -0.013490744 0.09389
-0.011760729 0.01860287 -0.06169951 0.039252453 0.2301758 0.0617269 0.01646782 -0.063687064
-0.038035206 0.10247178 0.010579256 0.069117166 0.14410827 -0.023028253 0.08912801 0.19133101
0.20503242 -0.0383018 0.07305767 0.06829576 0.04973461 0.11911563 0.109089814 0.15980437
0.018011613 0.034420215 0.1279367 0.04129728 0.045279685 0.023752857 0.08654641 0.077149265
0.039481945 0.1742294 0.13921419 0.015139101 0.14820158 0.088170834 0.050044857 -0.0633419
0.1520407 -0.032270633 -0.041617017 0.07484265 0.13410039 0.11435302 0.05561725 0.15251683
0.093313254 0.0133037865 0.10020968 -0.17007524 -0.10204566 -0.086989 -0.105155475 -0.014020756
0.0026939716 0.12017645 -0.13884202 0.048974227 -0.0052624126 -0.14171533 0.17354664 -0.13886602
-0.07363495 0.12354802 -0.07650567 -0.044742454 0.018052751 -0.112188965 0.18382853 0.07447411
0.18865986 -0.09852786 -0.17053162 0.09165816 -0.16059195 0.1823608 -0.09282005 -0.16710362
-0.116066374 -0.076395534 0.1363346 0.026200749 0.114380345 0.0037999954 0.03764122 0.015518456
-0.022831064 -0.048282307 -0.12324786 0.2071585 -0.043686677 0.16893235 0.088024706 -0.15895678
-0.08167979 -0.051611535 0.024751365 0.17432521 -0.13249171 0.08666263 -0.09301578 -0.024284365
0.079846606 -0.1348672 0.07567374 0.10396276 -0.054982316 0.013345218 -0.1680365 -0.04220679
0.075700186 0.24314651 -0.18099397 -0.088983715 0.04215173 0.1598385 0.14084765 -0.0003810513
-0.14815073 0.17083143 0.06738017 -0.08068033 0.23473598 -0.017897597 0.028022032 0.11411348
-0.06881712 0.099804364 -0.12942828 -0.017803006 0.18828565 -0.012471979 0.020404765 0.007253145
0.10096131 0.035346247 0.12071276 -0.058327533 -0.046350736 -0.08257614 2.4181863e-06 0.0652975
0.13750206 0.053138968 -0.015674265 0.08377435 0.014882856 0.032207936 0.18005528 0.004143282
0.023364993 -0.08185598 0.015978122 0.056287218 0.09544208 -0.035666294 -0.051370963 -0.00074958615
0.03376953 0.030734267 0.033122167 0.13449275 0.029225145 -0.00021403146 0.06761174 0.06629778
0.0863533 0.1520164 -0.103360385 0.156801 0.026446456 -0.09909027 0.018501872 0.09968396
00000000: e661 77bb 91af ae3d d24e a4bc b1e4 b0bd
00000010: 7c3a a3bd bb6d 803d 3f39 52bc 169f b83c
00000020: ef91 c73d c2a9 163e 8152 d93d aa56 f9bb
00000030: cca6 0b3e b8b3 1f3e 583a 753d 54de 82bd
00000040: c3f9 373d a4d8 82b9 aa46 f73c a0fe 26bd
00000050: 0a14 62bd 1531 1f3d a1fc 2b3e 695d c0bd
00000060: 69db fc3d 00e7 7f3d be88 493e 36ea fd3d
00000070: bb8c 383e 964e 073d 6ea8 c73d f770 fdbb
00000080: aefc 183e 4a39 82bd 61ab dfbd ff78 f73d
00000090: 40a6 d0bd 9222 f4bc b862 163e 673c 1f3d
000000a0: 9af2 063d 5ee7 33bd db99 f1bd eb55 0fbc
000000b0: 480f 2b3e 239c 3d3d 27de 3b3e 02d9 3d3e
000000c0: 95b7 183e 9d54 60bd 0df3 253d 9a5e 923d
000000d0: 6cdc 97bd 1f52 413e 38ac 4f3d be9c a7bd
000000e0: a82a eb3c 25fc 3b3c 51c8 193d f1eb 313d
000000f0: 409b ab3d 18ae 293e 465e 393e abd8 cf3d
00000100: 3ebd b63d bfec e43d 8f35 41bd eeb3 06bc
00000110: 955c 753d 5969 283e 7899 5b3e 77ef 9abd
00000120: 2381 eb3d 8215 0b3e 6cc8 b3bd ee27 0d3c
00000130: 1e09 193d 7b9b 18bd 4808 5dbc 6649 c03d
00000140: 13b0 40bc 0c65 983c a0b8 7cbd 2ec7 203d
00000150: 34b3 6b3e 59d5 7c3d 86e7 863c 5d6e 82bd
00000160: ceca 1bbd b9dc d13d 9e54 2d3c 4d8d 8d3d
00000170: 1e91 133e bfa5 bcbc bf88 b63d 47ec 433e
00000180: 05f4 513e 59e2 1cbd 429f 953d a6de 8b3d
00000190: 85b6 4b3d e5f2 f33d 7b6a df3d c2a3 233e
000001a0: 178d 933c 36fc 0c3d d701 033e 5627 293d
000001b0: 3177 393d 5a95 c23c 3f3f b13d 6f00 9e3d
000001c0: d2b7 213d 3169 323e 2a8e 0e3e fe09 783c
000001d0: 28c2 173e e992 b43d d6fb 4c3d 66b9 81bd
000001e0: 8fb0 1b3e 362e 04bd 9b76 2abd 1a47 993d
000001f0: 9d51 093e eb31 ea3d eace 633d 5f2d 1c3e
00000200: 051b bf3d 20f8 593c bc3a cd3d 3428 2ebe
00000210: 51fd d0bd 4a27 b2bd c15b d7bd 50b7 65bc
00000220: 588d 303b 121f f63d 9a2c 0ebe 3399 483d
00000230: 5170 acbb d31d 11be 36b6 313e e532 0ebe
00000240: eccd 96bd bf06 fd3d 01af 9cbd dd43 37bd
00000250: 5de3 933c 54c3 e5bd 8c3d 3c3e e285 983d
00000260: 0d30 413e fac8 c9bd d79f 2ebe 46b7 bb3d
00000270: 3772 24be cabc 3a3e 7018 bebd 361d 2bbe
00000280: 35b4 edbd 4375 9cbd 4c9b 0b3e f4a2 d63c
00000290: 3e40 ea3d 5809 793b ae2d 1a3d 1f41 7e3c
000002a0: 3608 bbbc abc3 45bd 6069 fcbd 5c21 543e
000002b0: cdf0 32bd 9afc 2c3e 4c46 b43d 91c5 22be
000002c0: bc47 a7bd 9e66 53bd 60c3 ca3c 4f82 323e
000002d0: e8ab 07be 2d7c b13d 0f7f bebd 01f0 c6bc
000002e0: 9e86 a33d a11a 0abe d5fa 9a3d 6dea d43d
000002f0: 2335 61bd e7a5 5a3c c311 2cbe 07e1 2cbd
00000300: b308 9b3d 66fb 783e 7c56 39be 183d b6bd
00000310: 4ba7 2c3d b4ac 233e 5e3a 103e d7c7 c7b9
00000320: d3b4 17be 6fee 2e3e 9dfe 893d bb3b a5bd
00000330: a15e 703e fb9d 92bc 768e e53c 54b4 e93d
00000340: fdef 8cbd 3b66 cc3d d988 04be 9cd7 91bc
00000350: f4cd 403e 4557 4cbc e527 a73c caab ed3b
00000360: cec4 ce3d 3ac7 103d 4038 f73d dae8 6ebd
00000370: 45da 3dbd ae1d a9bd 2048 2236 b2ba 853d
00000380: 57cd 0c3e 3fa8 593d 5167 80bc e391 ab3d
00000390: 39d7 733c 78ec 033d 6960 383e 5ec4 873b
000003a0: f167 bf3c 1ca4 a7bd 8de4 823c 6d8d 663d
000003b0: 2377 c33d d216 12bd 5c6a 52bd e07f 44ba
000003c0: eb51 0a3d 6ec6 fb3c 1cab 073d 78b8 093e
000003d0: 9269 ef3c a26d 60b9 0678 8a3d 21c7 873d
000003e0: 00da b03d 30aa 1b3e 9cae d3bd 7190 203e
000003f0: 3da6 d83c d7ef cabd 3d91 973c 1b27 cc3d

lstm.weight_ih_l1 f4 [256, 64]
-0.09569861 -0.19775966 0.18341547 -0.14400475 -0.07764045 -0.115250215 0.00087647303 0.0037218654
-0.11429168 0.10114973 -0.0830412 0.078353524 -0.16135429 0.036929995 -0.07749551 -0.053225346
0.111686245 0.042784255 -0.08798697 0.009953748 -0.11454177 -0.12041276 -0.005549323 0.045520414
0.10812593 -0.03931714 0.05266691 -0.09860526 0.027918851 -0.07055663 -0.03338412 -0.07265536
-0.11419043 -0.19662024 -0.05494738 -0.059182547 0.016234644 0.09350913 -0.097890414 0.13975655
-0.12847802 -0.05963668 -0.06488185 0.022376562 -0.042984173 0.0762124 0.09790986 -0.00056775106
0.014394977 0.061229013 -0.06198325 0.024045171 -0.006395019 -0.114793144 -0.16847251 -0.06586894
0.032873094 -0.035005316 -0.084787495 0.026009297 0.04664607 -0.013738988 -0.006886213 -0.105452254
-0.0018149663 -0.13403066 -0.017944966 -0.07310223 -0.051143065 0.01277849 -0.17133832 -0.023681508
0.03384314 0.123759456 -0.00012922517 -0.08962112 0.05273036 0.03646142 0.1291741 0.10107323
-0.15063715 0.0639634 0.09077116 0.02001041 -0.046855047 -0.030577114 0.07402597 0.013320263
-0.060176484 0.002007529 0.002455132 -0.15274678 -0.17643695 -0.0039127436 0.022882974 -0.088330574
0.107969284 -0.0933785 0.10725701 -0.007857676 -0.037512414 -0.082101755 -0.028077586 -0.006825391
0.07223822 -0.013475903 0.11612308 -0.07028881 0.04702379 0.025226016 -0.05715187 0.014529722
-0.029964488 -0.025870252 -0.08796501 0.13576677 -0.07170237 0.12338402 -0.2008618 -0.037058424
-0.104866214 -0.02417663 0.034230955 -0.12005704 0.080912076 0.16196282 -0.081904575 -0.046796244
-0.003915129 -0.04549325 -0.006366556 -0.11612757 -0.1054191 -0.045957867 0.08536371 -0.07146609
0.03959821 -0.065264694 0.060481 0.121433206 0.095635414 -0.107394785 0.09346295 -0.12552103
-0.021878451 -0.06715701 -0.05464435 0.07387989 0.031877227 -0.069208585 0.03926366 0.012568882
0.0072952947 -0.044929396 -0.03520088 0.03710086 -0.016973037 0.06691425 -0.085999385 -0.12760265
-0.059400495 0.059004232 -0.11271241 0.08306573 0.022359671 -0.008219869 -0.0763667 0.058794655
-0.0016315252 0.048009466 -0.07526324 -0.028815648 0.041488614 0.03646958 -0.05993021 0.028686121
-0.043388944 -0.05261145 -0.09008436 0.013434431 0.048928093 -0.054609455 -0.001770944 0.038110193
0.0050717597 0.08210631 -0.0837602 -0.05455947 0.0050967 0.031788066 0.05219514 -0.12414413
0.01584489 0.0024131108 0.016733792 -0.22865227 -0.09392602 -0.09923265 0.002860629 -0.19664527
0.09192607 -0.009627947 -0.16373427 -0.04066985 -0.042250596 -0.1602486 0.030152302 0.0013345657
0.06981232 0.018713279 -0.061985195 0.08389676 -0.050901525 -0.13418245 0.16763718 -0.020885458
0.034372102 -0.05796337 0.07022809 0.12600856 0.013403475 -0.06899802 -0.03536087 0.09302107
0.08234163 -0.03570922 -0.113837756 0.11208812 0.06215195 -0.066687316 -0.04786431 0.02827536
-0.095990054 -0.003900839 0.15606904 -0.020976454 -0.036001686 -0.050642926 -0.025073912 -0.024675293
0.007748357 -0.18541396 0.067889445 -0.064587995 -0.0469208 0.16216797 -0.03679662 0.10011552
-0.08098729 -0.008645234 0.17236148 0.020821406 0.08378336 0.008301113 -0.061755486 0.094821066
00000000: a2fd c3bd 8281 4abe 44d1 3b3e fb75 13be
00000010: f501 9fbd 4e08 ecbd 1cc3 653a 8aea 733b
00000020: c211 eabd 9727 cf3d 8111 aabd d077 a03d
00000030: 0f3a 25be e843 173d f7b5 9ebd d202 5abd
00000040: c2bb e43d 8b3e 2f3d 8332 b4bd 0c15 233c
00000050: e094 eabd f79a f6bd 18d7 b5bb 9d73 3a3d
00000060: 2171 dd3d 020b 21bd 42b9 573d 8ef1 c9bd
00000070: 13b6 e43c ff7f 90bd c9bd 08bd 55cc 94bd
00000080: acdc e9bd d156 49be 8110 61bd 6669 72bd
00000090: 84fe 843c b781 bf3d c57a c8bd 571c 0f3e
000000a0: be8f 03be 9745 74bd c6e0 84bd 0d4f b73c
000000b0: 2c10 30bd 3f15 9c3d f784 c83d 21d5 14ba
000000c0: e9d8 6b3c 46cb 7a3d 26e2 7dbd 61fa c43c
000000d0: 4f8d d1bb ab18 ebbd 0f84 2cbe 4be6 86bd
000000e0: f0a5 063d bc61 0fbd 11a5 adbd 7311 d53c
000000f0: f30f 3f3d 7e19 61bc bea5 e1bb 5af7 d7bd
00000100: 2ae4 edba 553f 09be 5201 93bc 9fb6 95bd
00000110: 647b 51bd df5c 513c 5073 2fbe b9ff c1bc
00000120: 1b9f 0a3d 9975 fd3d 9e80 07b9 478b b7bd
00000130: cafb 573d 9258 153d 3746 043e 7bff ce3d
00000140: a040 1abe 3eff 823d 3be6 b93d dfec a33c
00000150: 14eb 3fbd db7c fabc ee9a 973d 3b3d 5a3c
00000160: 9e7b 76bd bf90 033b 48e6 203b a769 1cbe
00000170: e3ab 34be 7936 80bb 1375 bb3c a9e6 b4bd
00000180: 001f dd3d 3a3d bfbd 90a9 db3d 7bbd 00bc
00000190: 9ea6 19bd f724 a8bd f702 e6bc 88a7 dfbb
000001a0: a2f1 933d 09ca 5cbc f0d1 ed3d 94f3 8fbd
000001b0: 059c 403d caa6 ce3c 1418 6abd 120e 6e3c
000001c0: 1678 f5bc daed d3bc 0027 b4bd 7206 0b3e
000001d0: b1d8 92bd c3b0 fc3d b7ae 4dbe 93ca 17bd
000001e0: 19c4 d6bd 110e c6bc c235 0c3d 77e0 f5bd
000001f0: 3bb5 a53d 95d9 253e 96bd a7bd 6bad 3fbd
00000200: 7c4a 80bb 2157 3abd 8b9e d0bb 4bd4 edbd
00000210: f8e5 d7bd 513e 3cbd 2bd3 ae3d d05c 92bd
00000220: bc31 223d 7fa9 85bd edba 773d f9b1 f83d
00000230: 80dc c33d ccf1 dbbd 8169 bf3d 9688 00be
00000240: 703a b3bc 9d89 89bd c1d2 5fbd 574e 973d
00000250: b291 023d 3bbd 8dbd eed2 203d b6ed 4d3c
00000260: 5e0d ef3b e307 38bd cc2e 10bd 12f7 173d
00000270: 0a0b 8bbc 570a 893d 7220 b0bd 45aa 02be
00000280: ef4d 73bd 6cae 713d c4d5 e6bd 5e1e aa3d
00000290: a12b b73c a1ac 06bc 2566 9cbd aad2 703d
000002a0: e7d8 d5ba 93a5 443d 9d23 9abd cb0e ecbc
000002b0: f7ef 293d 2061 153d 6179 75bd 28ff ea3c
000002c0: 9bb8 31bd 1b7f 57bd 267e b8bd 161c 5c3c
000002d0: d368 483d 2aae 5fbd 051f e8ba 6f19 1c3d
000002e0: 0131 a63b 5a27 a83d 788a abbd c079 5fbd
000002f0: 3802 a73b 3434 023d 92ca 553d 473f febd
00000300: 25cd 813c 4825 1e3b 4e15 893c d223 6abe
00000310: 495c c0bd 7d3a cbbd 6479 3b3b 615d 49be
00000320: bc43 bc3d 89be 1dbc f5a9 27be 6e95 26bd
00000330: f60e 2dbd 3618 24be f601 f73c 98ec ae3a
00000340: c3f9 8e3d 974c 993c 30e4 7dbd 11d2 ab3d
00000350: 1e7e 50bd 2067 09be 15a9 2b3e fb17 abbc
00000360: c3c9 0c3d 006b 6dbd bfd3 8f3d 6308 013e
00000370: 409a 5b3c d54e 8dbd 8fd6 10bd d581 be3d
00000380: baa2 a83d d543 12bd c523 e9bd 758e e53d
00000390: 0b93 7e3d 5c93 88bd 5e0d 44bd baa1 e73c
000003a0: 6f96 c4bd 38a5 7fbb 90d0 1f3e d0d6 abbc
000003b0: 8176 13bd f56e 4fbd ce67 cdbc d723 cabc
000003c0: eee5 fd3b 28dd 3dbe 9f09 8b3d b646 84bd
000003d0: 0630 40bd 5c0f 263e 0db8 16bd 5e09 cd3d
000003e0: aadc a5bd bda4 0dbc 877f 303e a791 aa3c
000003f0: 9c96 ab3d 6401 083c 52f3 7cbd 8c31 c23d

lstm.weight_hh_l1 f4 [256, 64]
-0.05497423 -0.060807586 0.023925738 0.01457662 0.07894153 0.06680252 0.0081788 0.008515085
-0.05843544 -0.07623183 0.14300215 -0.13136119 -0.120188914 -0.12996253 -0.07130277 0.120869696
0.09399912 0.012721934 0.13301396 0.048276473 -0.022518244 -0.061870623 0.025237234 -0.09213111
0.11778931 -0.1262721 0.05119548 0.053361375 -0.045047775 -0.016891802 0.15548372 0.0025988373
-0.0069111725 0.048710294 -0.17224783 0.02375978 -0.022334542 -0.015874185 0.09803282 -0.0356983
0.033554696 0.15578464 0.0065324884 0.07213087 -0.0060011633 -0.14030634 0.037872184 -0.018112313
0.005920491 -0.016229866 0.11150277 0.063330315 -0.093652844 0.0046676924 -0.12692173 -0.057843633
-0.06883324 0.15975124 0.06361179 0.12457916 0.10967522 -0.050585616 0.055882078 0.102942124
-0.074733354 0.103322774 0.09448199 -0.085045986 -0.057025317 0.024773307 0.043605007 0.027039215
0.0070091784 0.09819671 0.09083316 0.005047317 -0.03299416 0.07992922 -0.047912557 0.11780893
0.03358936 0.0076278164 0.11454598 -0.09006235 -0.0070199533 -0.096657224 0.1014152 0.103365764
0.11868026 -0.111911416 0.03296772 0.08481342 0.12415852 0.069643766 -0.09045404 -0.08902344
0.06455844 -0.074011505 -0.11905395 -0.039629906 0.10090995 0.054631084 0.05323854 -0.0015498494
-0.027955396 0.10801208 0.028860454 -0.046391286 0.027124047 -0.07969057 -0.08058356 -0.17627862
0.041928347 0.10389986 -0.08941329 -0.027438404 -0.07237063 -0.018423406 0.09000152 0.12646979
0.060234398 -0.060038652 -0.07093624 -0.06883957 0.018657459 -0.02723357 0.023830522 0.01801617
-0.029522328 -0.014415878 0.03431966 0.11549118 -0.0067655584 -0.094073735 0.058014203 0.09801325
0.14802505 0.018270671 -0.09790094 0.09796144 -0.056141786 0.050664954 -0.0764461 0.033634767
-0.04425829 -0.066989705 -0.09337898 0.113144845 -0.055365734 -0.109441556 -0.0014701372 0.07499868
-0.068041526 -0.06857643 -0.05481615 -0.014503659 0.072861984 -0.008906666 0.09989458 0.051018056
0.047292527 0.014791197 0.037968293 0.066079825 -0.10918178 -0.052192077 -0.096055605 0.004417552
0.010852648 -0.0034701326 0.101730436 0.12151892 0.04707049 -0.034633096 -0.061290897 0.027455496
-0.056151047 -0.05978855 0.11915996 -0.05176469 -0.11432578 -0.13435721 -0.06694454 -0.051992066
0.12693842 -0.022401081 -0.12344946 0.015668767 0.12198553 0.064480454 0.09052057 -0.0012426717
-0.14177987 0.09405143 0.0024586297 -0.09204561 -0.08760069 0.053936392 -0.013796062 0.04123025
0.0035807649 -0.047694385 0.08182678 -0.038113587 -0.12946041 -0.12437106 0.00070024084 0.013892737
-0.13269658 0.016314235 0.06670542 -0.0004720489 -0.08776401 0.04333689 -0.0597528 0.056751505
-0.07444547 0.00020449275 -0.13896956 0.0285695 -0.037208017 -0.010127048 0.017771324 -0.019389288
0.053223215 0.05841396 -0.058542408 -0.094069906 -0.08702434 0.006484395 -0.0015389621 -0.10244691
-0.054311525 0.023947902 0.084175736 0.057280958 0.10122172 0.06990552 -0.009036983 -0.15179844
0.09576034 -0.05077099 0.11247498 -0.095952734 0.051209692 -0.022013098 -0.13456556 0.10012985
-0.071925394 -0.0580214 -0.08027656 0.11194005 0.028508354 -0.11209386 -0.057344858 0.108270995
00000000: a82c 61bd 6011 79bd e9ff c33c c7d2 6e3c
00000010: 19ac a13d c2cf 883d 6000 063c db82 0b3c
00000020: 005a 6fbd 6f1f 9cbd 286f 123e 8c83 06be
00000030: 9b25 f6bd e614 05be 3007 92bd 888a f73d
00000040: 9c82 c03d a96f 503c d034 083e 8dbd 453d
00000050: 2e78 b8bc 0d6c 7dbd 51be ce3c 3caf bcbd
00000060: 863b f13d 794d 01be 5ab2 513d 7591 5a3d
00000070: 0484 38bd ad60 8abc 2037 1f3e 4151 2a3b
00000080: 1e77 e2bb 7284 473d bc61 30be dfa3 c23c
00000090: eef6 b6bc 940a 82bc 6ec5 c83d 6138 12bd
000000a0: a670 093d 0286 1f3e 7c0e d63b 59b9 933d
000000b0: 68a5 c4bb 77ac 0fbe dd1f 1b3d 4660 94bc
000000c0: ae00 c23b 7ff4 84bc 905b e43d 53b3 813d
000000d0: 10cd bfbd 71f3 983b c5f7 01be 72ed 6cbd
000000e0: 71f8 8cbd d495 233e e646 823d 5c23 ff3d
000000f0: 679d e03d dd32 4fbd 9be4 643d 52d3 d23d
00000100: cd0d 99bd e49a d33d c67f c13d 972c aebd
00000110: 6193 69bd 64f1 ca3c 2a9b 323d 5881 dd3c
00000120: 40ad e53b 5b1b c93d bc06 ba3d f763 a53b
00000130: e224 07bd eeb1 a33d f53f 44bd cf45 f13d
00000140: ff94 093d c3f2 f93b 1597 ea3d 9c72 b8bd
00000150: a307 e6bb 39f4 c5bd c6b2 cf3d 6eb1 d33d
00000160: a30e f33d d031 e5bd 2909 073d a9b2 ad3d
00000170: d246 fe3d 64a1 8e3d f83f b9bd ec51 b6bd
00000180: 3737 843d 5893 97bd 8fd2 f3bd f852 22bd
00000190: e0a9 ce3d d8c4 5f3d a810 5a3d 5124 cbba
000001a0: b702 e5bc 7035 dd3d c26c ec3c ca04 3ebd
000001b0: 4033 de3c cf34 a3bd fe08 a5bd 6282 34be
000001c0: 0fbd 2b3d 73c9 d43d 511e b7bd 81c6 e0bc
000001d0: 0e37 94bd afec 96bc b852 b83d 4c81 013e
000001e0: 58b8 763d 17eb 75bd 0547 91bd c3fb 8cbd
000001f0: 87d7 983c f018 dfbc 3a38 c33c a696 933c
00000200: cfd8 f1bc 9330 6cbc c692 0c3d a486 ec3d
00000210: 9eb1 ddbb bba9 c0bd 4da0 6d3d 2cbb c83d
00000220: e193 173e 60ac 953c 4a80 c8bd 02a0 c83d
00000230: eef4 65bd 0e86 4f3d c68f 9cbd 9cc4 093d
00000240: 2e48 35bd e631 89bd 7b3d bfbd 7cb8 e73d
00000250: 2ec7 62bd e522 e0bd 9eb1 c0ba e898 993d
00000260: 5b59 8bbd cd71 8cbd e686 60bd c1a0 6dbc
00000270: aa38 953d 44ed 11bc 8895 cc3d 4ff8 503d
00000280: cfb5 413d c756 723c a484 1b3d dc54 873d
00000290: b29a dfbd 5cc7 55bd cdb8 c4bd 1dc1 903b
000002a0: 4ecf 313c 2a6b 63bb 0c58 d03d e9de f83d
000002b0: fccc 403d 6fdb 0dbd 2a0c 7bbd 59ea e03c
000002c0: a4fe 65bd d7e4 74bd 230a f43d 3607 54bd
000002d0: a223 eabd f094 09be 381a 89bd a2f5 54bd
000002e0: 25fc 013e 7982 b7bc 12d3 fcbd c95b 803c
000002f0: 8dd3 f93d 540e 843d d962 b93d 25e1 a2ba
00000300: be2e 11be 099e c03d f620 213b 6982 bcbd
00000310: fe67 b3bd 68ec 5c3d e108 62bc 0de1 283d
00000320: 44ab 6a3b 305b 43bd cd94 a73d fe1c 1cbd
00000330: 4591 04be 41b6 febd 5e90 373a 5d9e 633c
00000340: 9de1 07be 6ea5 853c da9c 883d 557d f7b9
00000350: 9ebd b3bd 0682 313d 5abf 74bd 4474 683d
00000360: de76 98bd 1b6d 5639 094e 0ebe 960a ea3c
00000370: 6f67 18bd ebeb 25bc 2b95 913c 49d6 9ebc
00000380: 9600 5a3d 7a43 6f3d 2aca 6fbd b9a7 c0bd
00000390: d139 b2bd 0c7b d43b 00b7 c9ba b0cf d1bd
000003a0: c375 5ebd 642e c43c 5464 ac3d 709f 6a3d
000003b0: 554d cf3d a02a 8f3d db0f 14bc 0d71 1bbe
000003c0: ff1d c43d 3ef5 4fbd 4859 e63d de82 c4bd
000003d0: 41c1 513d d054 b4bc 8ecb 09be e110 cd3d
000003e0: 9f4d 93bd d9a7 6dbd 0968 a4bd d340 e53d
000003f0: 5a8a e93c 7791 e5bd 71e2 6abd 2fbd dd3d

lstm.bias_ih_l1 f4 [256]
0.13101503 -0.11141338 0.083417 0.11287301 -0.09472802 0.07269936 0.021299943 0.080377035
0.12211841 -0.034046903 0.042110533 0.052167315 -0.063152894 -0.063740365 -0.117984354 -0.07598567
0.012579489 -0.05568871 0.12488332 0.12342477 -0.078240395 0.13881114 0.004491388 0.09104272
0.11087771 -0.0943617 -0.101571515 -0.08388161 0.012131354 -0.016689435 -0.050129134 -0.0022160392
0.02766265 0.033977054 -0.096583135 0.04421849 -0.02963551 -0.084436335 0.061022993 -0.07708153
-0.046044406 -0.069529176 0.0112776365 -0.017523622 0.13866211 -0.10965516 -0.080161735 0.08912706
-0.06520073 0.11747512 0.043188926 0.013044537 0.008311353 -0.06791898 0.12448462 -0.09305616
0.13767588 0.1033119 0.08661752 -0.050801728 -0.022520926 -0.030066459 -0.01651175 0.0897025
0.040522806 -0.09529499 0.009845467 0.13474494 -0.016494425 -0.043644 0.057207126 0.020893969
-0.02877894 -0.07504789 -0.10017394 0.14277759 0.025263289 -0.10263232 -0.006659204 -0.08089693
0.028097348 -0.06898959 -0.0878226 0.01792336 -0.08457503 0.092959516 0.04625637 0.07514612
0.021168502 0.06066461 0.048915893 -0.07834412 0.115260266 -0.091958605 0.04572787 -0.020389069
-0.07397146 0.035149783 -0.10181886 -0.075116396 0.10190086 -0.045001343 0.024655895 -0.047669746
-0.034675296 -0.08384434 0.0017586726 0.004607908 -0.06252701 -0.09244558 0.06298797 -0.010578385
-0.0773348 -0.07350517 0.03100147 -0.06820518 0.06607151 0.025109049 0.053935204 0.011354726
0.06909929 0.07186131 -0.10232065 0.06593775 0.0016910502 0.053071562 0.12959476 0.05890498
0.024840211 -0.10789428 -0.05281878 -0.01138141 0.11364881 0.022967866 -0.05441553 -0.014959029
-0.07449689 -0.032473184 0.10071245 -0.0013917333 -0.05319102 -0.07454198 -0.0055201296 -0.005878189
0.11768208 0.037740193 0.08476872 0.00042725506 0.056574237 -0.036568943 -0.02076595 0.08581202
0.08045021 -0.08694768 0.018838545 -0.086559266 0.043155324 0.122839995 -0.007348321 -0.09065871
-0.023964955 0.09408464 -0.11314999 -0.051156938 -0.035571244 0.15290585 -0.063150436 0.031626556
-0.118266754 0.121433005 -0.11431375 0.13423103 -0.10766103 -0.07173531 -0.1300744 -0.034858067
-0.09336334 0.11514152 0.13642731 -0.14308608 0.0020605284 -0.0030393777 -0.0603905 0.11139959
0.009932023 0.10592238 -0.0024541074 0.10971152 0.05227224 0.12310246 -0.0424579 0.1069085
0.041540913 0.08555494 -0.033832166 -0.076502584 -0.094188906 -0.0092250025 0.018953314 -0.07208688
0.047823243 0.057740074 0.032589044 0.04733458 -0.092232324 0.09805968 -0.07696065 -0.10897121
0.05367124 0.1027666 0.044017777 -0.010718888 -0.028602958 -0.13460891 0.106106296 0.017015548
-0.033302985 -0.01601002 -0.06588826 0.06722984 -0.07973171 -0.00019184695 0.06949939 0.031686097
-0.118957065 0.090170726 -0.10816944 -0.083129555 0.0058224616 0.03513862 0.028644325 0.023330199
-0.045143154 -0.091447756 -0.039020177 0.050640974 0.052603763 -0.019525325 -0.042118724 0.03937645
-0.057128966 -0.04605137 0.09122914 0.084238455 0.1137691 0.0023133468 -0.09294299 -0.062302385
-0.044377856 0.12573081 -0.08053719 0.016946534 -0.05489607 0.076745726 0.110829666 0.10913183
00000000: ce28 063e b32c e4bd 88d6 aa3d f729 e73d
00000010: c400 c2bd 67e3 943d 387d ae3c b79c a43d
00000020: 3819 fa3d c474 0bbd 187c 2c3d 65ad 553d
00000030: 4e56 81bd 4f8a 82bd c8a1 f1bd 609e 9bbd
00000040: 331a 4e3c d819 64bd d3c2 ff3d 20c6 fc3d
00000050: 803c a0bd 8224 0e3e 7e2c 933b 9b74 ba3d
00000060: da13 e33d b540 c1bd ba04 d0bd 1fca abbd
00000070: 96c2 463c 48b8 88bc 3554 4dbd f83a 11bb
00000080: c89c e23c 862b 0b3d 61cd c5bd 731e 353d
00000090: 2bc6 f2bc f5ec acbd 3ff3 793d ecdc 9dbd
000000a0: 0f99 3cbd 5065 8ebd d6c5 383c b38d 8fbc
000000b0: 71fd 0d3e e292 e0bd d62b a4bd 3f88 b63d
000000c0: f687 85bd cc96 f03d dfe6 303d c1b8 553c
000000d0: 572c 083c 1b19 8bbd cbf1 fe3d 3a94 bebd
000000e0: e8fa 0c3e 3095 d33d 8764 b13d 7915 50bd
000000f0: ce7d b8bc ef4d f6bc a643 87bc f2b5 b73d
00000100: 3efb 253d 052a c3bd e24e 213c 94fa 093e
00000110: 511f 87bc 0dc4 32bd 0552 6a3d d429 ab3c
00000120: d0c1 ebbc b5b2 99bd ff27 cdbd 4a34 123e
00000130: f5f4 ce3c e530 d2bd 7435 dabb 4aad a5bd
00000140: 692c e63c 6a4a 8dbd 56dc b3bd 03d4 923c
00000150: ac35 adbd 8f61 be3d 5277 3d3d 35e6 993d
00000160: 9169 ad3c 747b 783d 085c 483d e272 a0bd
00000170: 930d ec3d cb54 bcbd 264d 3b3d fa06 a7bc
00000180: 597e 97bd 38f9 0f3d 6886 d0bd a0d6 99bd
00000190: 66b1 d03d 5453 38bd 29fb c93c 5a41 43bd
000001a0: af07 0ebd 95b6 abbd 4383 e63a effd 963b
000001b0: 290e 80bd 1c54 bdbd d6ff 803d f650 2dbc
000001c0: b561 9ebd e189 96bd cbf6 fd3c 28af 8bbd
000001d0: 8050 873d 7eb1 cd3c 29eb 5c3d 2c09 3a3c
000001e0: ee83 8d3d 062c 933d 7d8d d1bd 5f0a 873d
000001f0: 3ba6 dd3a 9161 593d 7db4 043e 5946 713d
00000200: b37d cb3c adf7 dcbd 8158 58bd 1879 3abc
00000210: b5c0 e83d 1b27 bc3c d2e2 5ebd b716 75bc
00000220: d391 98bd 9a02 05bd 5442 ce3d d26a b6ba
00000230: d4de 59bd 77a9 98bd 34e2 b4bb d39d c0bb
00000240: 4d03 f13d 7695 1a3d 399b ad3d 3401 e039
00000250: 63ba 673d 51c9 15bd 5b1d aabc 36be af3d
00000260: 14c3 a43d a011 b2bd 4b53 9a3c fc45 b1bd
00000270: a3c3 303d 8993 fb3d 2fca f0bb 46ab b9bd
00000280: 2752 c4bc 73af c03d 2fbb e7bd f089 51bd
00000290: 27b3 11bd 5a93 1c3e 0455 81bd d98a 013d
000002a0: d735 f2bd deb1 f83d 541d eabd dc73 093e
000002b0: 637d dcbd f6e9 92bd 3932 05be 55c7 0ebd
000002c0: 4735 bfbd 51cf eb3d 9ab3 0b3e 2885 12be
000002d0: ee09 073b 4c30 47bb 075c 77bd 7825 e43d
000002e0: ecb9 223c d5ed d83d 17d5 20bb 6fb0 e03d
000002f0: 6b1b 563d 241d fc3d 56e8 2dbd d8f2 da3d
00000300: ce26 2a3d 6e37 af3d 9993 0abd 63ad 9cbd
00000310: 1de6 c0bd 7724 17bc fb43 9b3c 49a2 93bd
00000320: 4ee2 433d db80 6c3d 177c 053d e8e1 413d
00000330: 4de4 bcbd 83d3 c83d 8c9d 9dbd 4c2c dfbd
00000340: 60d6 5b3d 4c77 d23d fc4b 343d 469e 2fbc
00000350: c050 eabc ebd6 09be 424e d93d 3164 8b3c
00000360: b668 08bd 7227 83bc 6df0 86bd ccaf 893d
00000370: 614a a3bd 862a 49b9 b255 8e3d 48c9 013d
00000380: c39f f3bd 6eab b83d f087 ddbd d43f aabd
00000390: 59ca be3b 83ed 0f3d 81a7 ea3c f91e bf3c
000003a0: 07e8 38bd f648 bbbd 9fd3 1fbd e96c 4f3d
000003b0: 0b77 573d 93f3 9fbc af84 2cbd 3349 213d
000003c0: 1000 6abd 5da0 3cbd 58d6 ba3d 3685 ac3d
000003d0: c6ff e83d 859b 173b e558 bebd c930 7fbd
000003e0: 8ec5 35bd 94bf 003e aff0 a4bd 75d3 8a3c
000003f0: b4da 60bd dd2c 9d3d aafa e23d 8280 df3d

lstm.bias_hh_l1 f4 [256]
0.11881375 -0.04761306 0.10479212 -0.03108426 -0.044752445 0.09673567 0.105484 -0.0043583317
-0.029731613 -0.092612535 -0.024653642 -0.0148414625 0.10539791 0.03874359 -0.05264213 -0.09013897
-0.052952744 0.010223003 0.013239793 -0.006686784 0.050444458 -0.0006173608 0.10846335 -0.03605927
0.025303561 0.012909278 -0.10382937 -0.022268238 -0.0026555618 -0.055750314 0.07397052 0.07957108
-0.005266602 0.056080632 -0.06459184 0.05345348 0.012967375 -0.0919896 0.15004136 -0.096856445
0.09919082 0.10054804 -0.074955866 0.14294504 0.07736721 0.09848183 0.112427644 -0.032934684
-0.059411906 0.003548883 0.052590046 -0.03450631 -0.010315272 -0.0071665244 -0.008021331 -0.015735973
0.051728025 0.048848663 -0.05814598 -0.04239318 -0.101060174 -0.000639547 -0.104069345 0.085654646
0.1281358 0.121599615 -0.0083413245 0.11996128 -0.04360032 0.051093403 0.14466757 0.047692068
0.09957592 0.06402363 -0.0019927004 0.0033017418 0.02319214 -0.014945034 0.010218399 -0.12896831
-0.09061112 -0.036156215 -0.062052656 -0.026605744 0.0723195 0.1110927 -0.05883377 0.024020392
0.04145007 -0.069557756 -0.01713598 0.063115805 0.13510412 0.027831007 0.09830274 -0.06400196
-0.057742834 -0.08237887 0.028906524 0.054738667 0.10744772 0.13913828 0.14545263 -0.06838054
-0.09417812 0.08332267 0.11806487 0.09981106 0.10650623 -0.06254217 -0.035464715 0.16467309
0.0038372003 0.11074205 0.13789913 0.012542254 0.0953942 0.13395357 0.063136905 -0.0066264453
0.0571623 -0.09829514 0.036654636 -0.111630164 -0.0075217895 -0.08675703 0.05872888 -0.03572064
-0.13805538 -0.1008165 0.06796459 0.11091595 0.057600237 -0.028984914 -0.0995976 -0.10274802
0.10957901 0.087034225 0.14196402 -0.14974302 -0.041237544 -0.12621236 -0.0743011 0.10606459
0.13296601 0.053660262 0.09027828 -0.009077726 -0.06729417 0.082043044 -0.13437703 -0.11185932
0.07263353 -0.093722254 -0.027181488 0.042951427 0.052866347 -0.041756105 -0.05698365 -0.10223605
-0.11354657 -0.0475729 -0.09298822 -0.06726425 -0.05859941 -0.037029214 0.06093137 -0.13690989
-0.11804045 0.06279532 -0.0044992887 -0.06537377 -0.0839141 0.07014621 -0.053639036 -0.021650072
-0.13855545 0.014317656 -0.045310456 -0.05795377 -0.052353688 -0.08243013 -0.14856678 -0.0020546354
0.013753263 0.07378522 -0.12150317 0.08204447 -0.08038755 0.06866054 0.015697164 0.15205179
0.11560792 0.038165275 -0.098776415 0.06572547 -0.01556762 0.004647671 -0.09973051 -0.02311148
0.0006620194 -0.03703385 -0.00981659 -0.031295072 -0.059524123 -0.05753371 -0.08034512 0.076050624
-0.01853869 0.09570452 -0.078821585 -0.11067931 0.1346806 -0.08887995 -0.06738181 -0.061601587
0.045696795 -0.12293956 0.06368085 -0.02085897 -0.040858913 -0.0117484955 -0.14815515 0.047956593
-0.060373858 0.08133758 0.032114856 -0.1097427 0.082572415 -0.06612634 0.073896885 -0.1131562
0.094782434 0.109956 0.097097166 0.0012803013 0.038111012 0.09570172 0.052043118 0.118434176
-0.07394656 0.07799489 -0.05908987 -0.054236144 0.1275285 0.014826523 0.016902445 -0.12715876
-0.09794899 0.024956787 -0.06861546 -0.100482225 0.08011791 -0.08421147 0.07652389 0.09067934
00000000: a054 f33d e905 43bd 409d d63d 6ba4 febc
00000010: 574e 37bd 5a1d c63d ff07 d83d 56d0 8ebb
00000020: b68f f3bc a4ab bdbd 6ff6 c9bc 9b29 73bc
00000030: dcda d73d 99b1 1e3d 469f 57bd c89a b8bd
00000040: fae4 58bd 627e 273c b7eb 583c cf1c dbbb
00000050: d99e 4e3d 62d6 21ba 0822 de3d e3b2 13bd
00000060: 6a49 cf3c 7081 533c 7ea4 d4bd e16b b6bc
00000070: ef08 2ebb 715a 64bd db7d 973d 2af6 a23d
00000080: 7693 acbb ceb4 653d ba48 84bd 09f2 5a3d
00000090: 1d75 543c 0b65 bcbd 71a4 193e ac5c c6bd
000000a0: 8e24 cb3d 21ec cd3d 7682 99bd 2f60 123e
000000b0: b372 9e3d d7b0 c93d 7740 e63d 85e6 06bd
000000c0: e659 73bd 6094 683b a968 573d 7d56 0dbd
000000d0: 6301 29bc 2ad5 eabb e76b 03bc bae8 80bc
000000e0: c4e0 533d 8915 483d 7b2a 6ebd 79a4 2dbd
000000f0: a3f8 cebd 46a7 27ba 4f22 d5bd b46b af3d
00000100: 0836 033e 3809 f93d 0daa 08bc 42ae f53d
00000110: 4096 32bd 5147 513d bc23 143e c258 433d
00000120: 76ee cb3d d21e 833d f797 02bb 0962 583b
00000130: 71fd bd3c 04dc 74bc 126b 273c 4510 04be
00000140: 5392 b9bd 8a18 14bd ed2a 7ebd 4af4 d9bc
00000150: 3f1c 943d 9284 e33d aefb 70bd 6ac6 c43c
00000160: 8cc7 293d 4c74 8ebd c160 8cbc dc42 813d
00000170: bc58 0a3e dafd e33c f252 c93d 7613 83bd
00000180: c083 6cbd 41b6 a8bd 60cd ec3c a735 603d
00000190: 8d0d dc3d 447a 0e3e 89f1 143e 190b 8cbd
000001a0: 75e0 c0bd 13a5 aa3d ffcb f13d be69 cc3d
000001b0: f01f da3d 1c16 80bd 7343 11bd 10a0 283e
000001c0: 8a79 7b3b bacc e23d 6e35 0d3e 077e 4d3c
000001d0: 095e c33d 202b 093e ec4d 813d a722 d9bb
000001e0: 0423 6a3d f64e c9bd 2c23 163d 5b9e e4bd
000001f0: 5879 f6bb abad b1bd b28d 703d ce4f 12bd
00000200: 645e 0dbe e278 cebd 0531 8b3d e727 e33d
00000210: 3aee 6b3d c571 edbc d4f9 cbbd 8e6d d2bd
00000220: f66a e03d 003f b23d 045f 113e 3c56 19be
00000230: b3e8 28bd d03d 01be 2d2b 98bd 6438 d93d
00000240: 3e28 083e ddca 5b3d d2e3 b83d beba 14bc
00000250: 87d1 89bd 2f06 a83d 229a 09be 8016 e5bd
00000260: e3c0 943d 74f1 bfbd b6ab debc d6ed 2f3d
00000270: 628a 583d 7308 2bbd b067 69bd 2261 d1bd
00000280: 1b8b e8bd cddb 42bd 9c70 bebd d7c1 89bd
00000290: ef05 70bd f2ab 17bd 2c93 793d 1b32 0cbe
000002a0: 31bf f1bd d59a 803d c56e 93bb afe2 85bd
000002b0: 28db abbd d1a8 8f3d 9bb4 5bbd 7e5b b1bc
000002c0: 7be1 0dbe 9a94 6a3c 7597 39bd ef60 6dbd
000002d0: d270 56bd 21d1 a8bd e421 18be 10a7 06bb
000002e0: 5e55 613c b51c 973d a7d6 f8bd ee06 a83d
000002f0: 3aa2 a4bd e69d 8c3d 5797 803c 77b3 1b3e
00000300: d8c3 ec3d 3153 1c3d 4a4b cabd 139b 863d
00000310: 550f 7fbc 7d4b 983b 823f ccbd 4954 bdbc
00000320: 5f8b 2d3a ceb0 17bd c3d5 20bc 432f 00bd
00000330: 91cf 73bd 78a8 6bbd fb8b a4bd 6ec0 9b3d
00000340: 73de 97bc bb00 c43d 366d a1bd d6ab e2bd
00000350: b6e9 093e b106 b6bd 79ff 89bd f251 7cbd
00000360: 902c 3b3d bcc7 fbbd 1b6b 823d 6ee0 aabc
00000370: ad5b 27bd c37c 40bc fcb5 17be 226e 443d
00000380: 944a 77bd 5194 a63d de8a 033d c8c0 e0bd
00000390: ba1b a93d 3f6d 87bd 4057 973d 70be e7bd
000003a0: 4b1d c23d 9c30 e13d e1da c63d c8cf a73a
000003b0: 4b1a 1c3d 43ff c33d 2a2b 553d 9e8d f23d
000003c0: 4b71 97bd c9bb 9f3d 3808 72bd b826 5ebd
000003d0: d596 023e f2ea 723c ff76 8a3c e835 02be
000003e0: 7b99 c8bd 2d72 cc3c 4386 8cbd a0c9 cdbd
000003f0: dc14 a43d 1077 acbd 8fb8 9c3d 17b6 b93d
