model_artifacts/dl_lstm_lstm_h24_cls2_20000_21500.pt (torch, 290123 bytes, 18 tensors)

lstm.weight_ih_l0 f4 [256, 30]
00000000: c1d9 053e aaf8 0d3e f21f c03b 9f4b 193e
00000010: ae2a fe3b b5dd 763d 2b16 d2bc 410c 043d
00000020: bbc2 a83d 52bf 05be c8ea 133e 5fe4 7b3d
00000030: a19d 043e 936d 673d f03b 823c 9ad0 c93c
00000040: 6db5 053e d067 9fbc 65bd b8bd a4f8 893d
00000050: 840d b3bc fc24 ac3c 0b37 7fbc 1560 f13d
00000060: c495 7ebd 0db4 abbc d552 90bd a8a2 1bbd
00000070: 8909 f2bc e8da 21be 275b 1e3e 1d5f 83bd
00000080: 2b7b 0d3e 2344 803d 2a8f af3a 32a0 f33d
00000090: d528 7b3d 9973 7b3d b984 08bd 754c 93bd
000000a0: 765a 983c a08e 733b 2306 a13d ecc5 873d
000000b0: 6823 f33c 9923 7dbc 88c6 db3d 54ab 73ba
000000c0: 6e0f 3c3d 5c8e f1bc 1110 a3bd 238f 01bd
000000d0: 3a71 5cbd 9eb3 133e 0144 313d 4f93 903d
000000e0: 53c5 45bb 1991 693c f530 bb3d 14db cebd
000000f0: a378 383c 8bc7 a6bd 46cd 2c3d f7c9 20bd
00000100: 29ce 2b3d 8786 b6bc a784 db3d f7b9 8cbd
00000110: 951f 85bd cfab 8fbd ee8b e33d 4276 043d
00000120: 4fdf eb3d ded8 cfbd 7009 ffbd 5cf9 a2bd
00000130: bf65 afbd c502 5b3d bf07 443d e154 da3d
00000140: 96ab 75bd ea94 afbd a62a 8f3d 2e5d 3fbd
00000150: ace3 9b3d 6ca7 f2bc 14f2 8a3d da10 c6bd
00000160: f984 86bd baf2 0a3d 4ad1 88bc 1bc8 97bd
00000170: 2e55 033d 9f1f 2e3d 15f7 07be dc0c dfbd
00000180: 5d53 933d 3af4 5abc 3a39 afbd ed57 a2bd
00000190: 3484 e5bc 755b fbbb 8f48 6cbd 56ef 2fbd
000001a0: f843 0ebd e2d0 d4bd bf40 f0bd 7008 0fbd
000001b0: c0fa 14be b6c4 f8bd 3d56 a33d 0f62 443d
000001c0: cab6 7cbb 057a 22be 1d22 e8bd 55cb 9abd
000001d0: 91d5 7c3d 2a63 89bd 7756 2fbc a2c5 09bd
000001e0: bcc0 273d 8468 d0bb 0ab0 003d 0635 36bd
000001f0: 64ab 3abd 400c 06bd 05af 2dbb 4b93 f0bd
00000200: 3944 883d bc4f 14bd 4eff 963d 6a2c 3e3d
00000210: fb65 13be 8a5c 4d3d 71e8 91bd 021b f0bc
00000220: 3475 72bd be75 b3bd 331b 8d3d 05d7 643c
00000230: ae54 b63d 8a4f 0abe d8dd 073e 020a 53bd
00000240: 6ec1 63bd c6b1 0dbc dc02 c63c c233 8b3d
00000250: 0165 a13d a4be 0cbe 755d 24bc 1995 c2bd
00000260: d65c 61bd 1ff7 09be 310e 943d e71b 08be
00000270: 0381 cf3c 33d9 1d3d 6c27 023c e912 6dbd
00000280: 9f16 193e 9bbc 833d e511 083b 12f2 8dbd
00000290: 9c22 653c 99de 8e3c e091 8fbc e4df 8c3d
000002a0: 91b7 1bbc fb9f e2bd 8d92 d6bd b44f 013d
000002b0: 3ff1 e73c 01fa 95bd a6fc 07bd 7731 97bb
000002c0: 190e 55bd d47e a13d b20c 0d3e 275f 9abd
000002d0: d49d 873d 4789 d03d a1bf 753d c32e e7bb
000002e0: d3e7 d13d 3dd2 d23d d616 ac3d 9280 9b3b
000002f0: bef6 ec3a 5c76 0e3d f948 03bd a269 9abb
00000300: b18b fa3d a092 763d db13 5ebd 1a47 85bc
00000310: 4043 77bc 9e5f 9bbb 3471 953d 5bfa 923d
00000320: bc88 98bd e111 24bd 2fdc 113e 2415 b03d
00000330: d456 fc3c d04c 17bd 626c eabd f6ae 94bd
00000340: f797 aabd 29d4 7e3b 32fe 903d c1aa c53c
00000350: 972b 13be 33de ddbd b783 59bd 5fdf b23d
00000360: 711c 79bc 0c9d 91bd 86d0 953d c477 aabd
00000370: 54f7 4ebd 46cb f63d bf02 d7bc 5b34 6b3a
00000380: 696c bdbd 4067 403d 7681 003e 9652 903c
00000390: ba08 bfbd e6bf 0cbe 4065 e4bd 381f f53d
000003a0: 3774 da3c 4cce 923d 7946 bc3d 6995 733d
000003b0: e6e3 093d a554 09be db72 11be 6f3f a4bd
000003c0: e5eb 123d bfc9 b9bd 6035 5fbd d808 cfbd
000003d0: 655a 55bd 11db efbd 48e3 e2bd b664 683b
000003e0: 9ca8 9ebd 3424 293d 6d25 8bbd 64d6 f4bd
000003f0: bb8e 6cbd 83eb b1bd f946 99bd 6d36 18be
0.13071348 0.13864389 0.005863183 0.14970253 0.0077565527 0.06027003 -0.025645336 0.03223825
0.08240267 -0.13061264 0.1444503 0.06149709 0.12950756 0.056500982 0.015897721 0.024635602
0.1305749 -0.019458681 -0.09020499 0.067368776 -0.02185703 0.02101373 -0.015577088 0.11785904
-0.062154546 -0.020959878 -0.07047049 -0.037996918 -0.029545562 -0.15806162 0.1546446 -0.06414626
0.13816516 0.06262996 0.0013394107 0.11895789 0.061318237 0.06138954 -0.0333297 -0.071923174
0.018597823 0.0037163869 0.078624986 0.066295475 0.029679969 -0.015450382 0.10731226 -0.0009295244
0.045913152 -0.029486828 -0.07962049 -0.031630646 -0.05381892 0.14423987 0.043277744 0.07059347
-0.003017743 0.014255785 0.09140197 -0.101003796 0.011259231 -0.081435286 0.04218795 -0.03925511
0.041944657 -0.022280945 0.10718661 -0.068714075 -0.065001644 -0.07015192 0.11110674 0.032339342
0.11517202 -0.10148786 -0.12452972 -0.07957718 -0.085643284 0.053469438 0.04785895 0.106607206
-0.05997809 -0.08573325 0.069905564 -0.046719722 0.07611784 -0.029620849 0.06784454 -0.09671183
-0.06568331 0.03392289 -0.01670136 -0.07411214 0.032063656 0.042510625 -0.13277848 -0.108911246
0.07193635 -0.013363892 -0.08555837 -0.07926927 -0.02801714 -0.0076708146 -0.057686385 -0.042952858
-0.03473279 -0.10391404 -0.11731099 -0.034920156 -0.14548779 -0.12146895 0.07975433 0.04794508
-0.00385611 -0.1586686 -0.113346316 -0.07558314 0.06172711 -0.06708367 -0.010701767 -0.033635743
0.04095529 -0.0063601155 0.031417884 -0.04448416 -0.045573607 -0.032726526 -0.0026502025 -0.11746844
0.066536374 -0.036208853 0.07372914 0.046429075 -0.14394371 0.05013708 -0.07124413 -0.029309753
-0.059193805 -0.08762692 0.068899535 0.01396728 0.0890287 -0.13506904 0.1326822 -0.051523216
-0.05560439 -0.0086483415 0.024171285 0.067969814 0.07880593 -0.13744599 -0.0100320475 -0.09501094
-0.055020176 -0.13473175 0.07229269 -0.13291894 0.025330072 0.038537215 0.007943969 -0.057879362
0.14950036 0.06432458 0.002076262 -0.06930937 0.013985302 0.017440127 -0.017525613 0.06878641
-0.009504215 -0.1106567 -0.10477171 0.03157015 0.028313277 -0.07323075 -0.03319993 -0.004614051
-0.052015398 0.07885519 0.13774374 -0.0753768 0.066219 0.101824336 0.059997205 -0.007055135
0.10249295 0.10294006 0.08402793 0.0047455514 0.0018078906 0.034780845 -0.032052014 -0.0047122994
0.12233675 0.060198426 -0.054218154 -0.016269255 -0.015091717 -0.004741623 0.072969824 0.07176658
-0.07447955 -0.040056113 0.1424415 0.08597782 0.030803122 -0.03693849 -0.11446454 -0.07259934
-0.08329766 0.0038883782 0.07079734 0.024129273 -0.14372097 -0.10833397 -0.05310413 0.08734011
-0.015204535 -0.071100324 0.07315163 -0.08323625 -0.05052884 0.1205049 -0.026246427 0.000897234
-0.09249193 0.046973467 0.12549385 0.017617505 -0.09327836 -0.13745078 -0.111521244 0.11968845
0.026666744 0.07168254 0.09193129 0.05946866 0.033664607 -0.13411196 -0.1420397 -0.080199115
0.035869498 -0.09071683 -0.05449426 -0.10109109 -0.05208816 -0.117117055 -0.11078507 0.003546042
-0.077470034 0.04129429 -0.06794248 -0.11954954 -0.057753306 -0.086874984 -0.0748424 -0.14864512

lstm.weight_hh_l0 f4 [256, 64]
00000000: 4442 60bd bc89 27be 29ff c2bc 0d96 4a3d
00000010: d412 a33d 58c7 033e c52d 973c b391 213e
00000020: 3e82 75bd 4f2f 5f3c 19f8 08be fc5b 1f3c
00000030: b9f0 383d fd09 92bd 2022 b33d 8544 c9bc
00000040: 3dbe bc3d 96e1 ccbd f6e6 ca3c 8e2e b3bd
00000050: dfd0 6c3d 5cba c6bd c2a5 113d 3a20 67bd
00000060: 0d7e a03d e898 9dbd d6cc 6abc 19c0 8cbd
00000070: 2e21 40bd 1f6c 463d ccce a93d c0fa 1d3e
00000080: 11f3 b53d 045d b2bd 6989 033e 910f 88bd
00000090: 70b9 b4bd 5c1a 873c cd29 4fbd 4d8c 2b3e
000000a0: 34a6 0dbd 4b01 0a3d b2fa f73b cf32 e9bc
000000b0: cc71 9a3d a585 b4bd 9a04 94bc b6a0 b5bd
000000c0: e657 fbbd 0179 863b 0d25 933d e3b1 9bbd
000000d0: 7c29 dc3d f224 16be 08ac 30be b423 ba3d
000000e0: 7dd1 473d 6ee8 e0bc a417 253e 2027 723d
000000f0: 487d 4dbd 6ba0 9e3d 6036 26bd 5db0 91bd
00000100: 58ac 2bbd 6292 64bd 12e6 f13c 70b9 dabd
00000110: a3cb cc3d c8ce 9bbd b463 85ba 10b4 f83b
00000120: d6e7 aebd 7de8 9d3d 99f1 10be 310e 253d
00000130: 8634 843d dff2 4f3d 33b2 e9bd 6b55 b6bd
00000140: 0b84 53bc 4ddf bf3d c32e 62bc 2cfd 05be
00000150: 0254 cfbd 61b2 04be 3acf 82bd e734 2dbd
00000160: ca25 3f3d 3c68 0a3e abea 06bd 8998 b43d
00000170: 1dcc 85bc b0b8 04bd 6c03 a93d d216 a8bd
00000180: eb6d 9bbc 3927 08be 353f fbbc 5901 96bd
00000190: 267a 6cbc bbba 98bc 3014 2cbe 1d19 96bd
000001a0: 7dbe 86bd 4255 7b3d 277c 1fba cb95 243e
000001b0: ffdd 3fbc 62e5 44bc 3978 85bd e6f9 303d
000001c0: d52f 37bd 631a 61bd f70f debd 7649 81bd
000001d0: 3905 3f3a 2c2a 6abd 2cbe e9bd ffa9 c83d
000001e0: 756b e03c ef6e 733d 9c85 8dbd 3fa9 a83d
000001f0: c0f9 6fbc fcac 7cbd 950b c7bd bb94 26be
00000200: 6580 30bd 6c0a 803d a655 9b3d a50c f4bd
00000210: 0daf 5d3d 53bd 9bbc 5476 343e 96dc d03d
00000220: ac0a 993d 5d5f 60bd 04bc b3bd 00b1 54bd
00000230: 1e1e b1bd 9343 43bd c4e5 f43b f6c0 03be
00000240: afef 0e3c 3d70 28bd ad85 873c 5d1a aabd
00000250: 7f95 eebd 1565 17be 5c4a 0abe b126 0f3e
00000260: 5bfc 15bd 6249 133e 8b46 4e3d 5b40 1cbd
00000270: 9f0e 493d a83b 9cbd 522c 53bd c419 c73d
00000280: e651 ed3c b028 983d 52a0 883c c414 553d
00000290: ca10 a2bc ad82 68bc 3f25 11be 08e9 e43a
000002a0: d497 9ebc feee 933c d449 a8ba 4adf 913c
000002b0: 831f f33c 3fba a73d cd4f de3d 8bfc 8c3c
000002c0: c3c3 ecbd 9dc4 8dbd 4d43 613d d112 283e
000002d0: 453f b3bc a77a 8a3c 6c4f 9cbd d91b 023e
000002e0: 7bcc 053d 0386 5ebd 5813 a0bd d21d c03c
000002f0: 023d 7f3d 1c67 3ebd ca18 3e3d 9187 803c
00000300: 42eb f13d 2e96 043c 0714 24be 3eba 94bd
00000310: ca47 de3d a9a4 bb3d 5d27 81bd 8dbc 3dbd
00000320: 3c86 ea3d f28a 66bd 8780 403d 4ad4 77bd
00000330: 5f4e 353d accf e03d 044b a3bb a4c6 c8bd
00000340: f62d ce3c 90af 1fbe ab98 73bc c65b 91bd
00000350: 3efb 8abd 424f 333d e849 d4bd 9a0f 1d3e
00000360: f92e 8d3c 3228 923d 4b72 0d3e d515 b5bd
00000370: aa65 11be 374b 5f3d 94ee b33d b30b a43d
00000380: 45fd 593d a10d c33d 6b9d bd3d aa3c 863c
00000390: 79b4 b2bd 6ab0 7e3c 0b2a c2bd f569 53bd
000003a0: d2a0 f2bd 3be9 debd 5e15 16bd 26e2 9aba
000003b0: 0e78 1a3e 1aba 0a3c 26e9 72bd 0d1a e1bb
000003c0: 9e46 b43d 5bc9 0fbd fc96 e5bc 38c1 a93d
000003d0: bd4a 073c 8149 04be 5868 babd 67bf 4fbc
000003e0: 5577 f23d 152d 54bd 5e5a 423d c3e1 963a
000003f0: 3b6a 143c 091f 063d 4546 c9bd 057d aabc
-0.054750696 -0.16361135 -0.02380331 0.049459506 0.079625756 0.12869012 0.018454442 0.15778236
-0.05993866 0.013622119 -0.13375892 0.009726521 0.045151446 -0.07130811 0.08746743 -0.024568805
0.092159726 -0.100039646 0.024768334 -0.08749114 0.057816382 -0.09703514 0.03555847 -0.056427218
0.07836542 -0.0769518 -0.014331063 -0.06872577 -0.046906643 0.048442956 0.082913965 0.15427685
0.08884252 -0.087091476 0.12845387 -0.06643594 -0.08824432 0.016492061 -0.050576974 0.16752739
-0.03458233 0.03369264 0.007567727 -0.02846661 0.07541236 -0.08814553 -0.0180686 -0.08868544
-0.12272625 0.0041037803 0.07184801 -0.076022886 0.107501 -0.14662531 -0.17253125 0.09088841
0.048783768 -0.027454581 0.161223 0.059119344 -0.050168306 0.07745441 -0.0405792 -0.07113717
-0.041912407 -0.055803664 0.029528651 -0.10679901 0.09999778 -0.076078 -0.0010176809 0.0075898245
-0.08540313 0.07710359 -0.14154662 0.040296737 0.064553306 0.05076873 -0.11410942 -0.08903011
-0.0129098995 0.09368763 -0.013805094 -0.13084859 -0.10123445 -0.12958671 -0.063871816 -0.04228678
0.046666898 0.13516325 -0.03293864 0.08818156 -0.01633268 -0.032402694 0.08252606 -0.08207478
-0.018973311 -0.13296212 -0.030669788 -0.07324476 -0.014433419 -0.018643728 -0.16804576 -0.07329009
-0.065793015 0.061360605 -0.0006083869 0.16072766 -0.011710643 -0.01201758 -0.06517071 0.04320707
-0.04472335 -0.054956805 -0.10842889 -0.0631284 0.000728685 -0.057169124 -0.114132255 0.09798049
0.02739499 0.059431966 -0.069102496 0.08235406 -0.014646947 -0.06168841 -0.09719006 -0.16267674
-0.043091197 0.06251988 0.075846955 -0.11916474 0.05412202 -0.019011175 0.17623264 0.101983234
0.074727386 -0.054778446 -0.087760955 -0.051926613 -0.086483225 -0.047671866 0.0074736793 -0.12866578
0.008724137 -0.041122664 0.016543234 -0.0830581 -0.11649608 -0.14784653 -0.13504928 0.13979603
-0.036617618 0.14383462 0.050360244 -0.03814731 0.04908621 -0.07628566 -0.05155594 0.09721711
0.028969716 0.074296355 0.01667801 0.052021757 -0.019783396 -0.014191312 -0.14174365 0.0017464468
-0.019359507 0.018058296 -0.0012839385 0.017806668 0.029678112 0.081898205 0.108550645 0.017210266
-0.11560776 -0.06922267 0.054995824 0.16413428 -0.021880755 0.016904188 -0.07632336 0.12705936
0.03266571 -0.054327022 -0.078161895 0.02345172 0.06231404 -0.04648505 0.04641036 0.015689643
0.1181245 0.008092446 -0.16023265 -0.072620854 0.108535364 0.09162266 -0.06306336 -0.046322394
0.114513844 -0.056284852 0.046997573 -0.06050519 0.044264194 0.1097711 -0.004983308 -0.09803513
0.0251684 -0.15594316 -0.014867942 -0.070975825 -0.06786202 0.043776758 -0.10365659 0.15337983
0.017234312 0.07136573 0.1381313 -0.08842055 -0.14198938 0.05451509 0.087857395 0.08010044
0.053220052 0.09524084 0.09258541 0.016386349 -0.08725829 0.01554499 -0.09480675 -0.05161472
-0.1184708 -0.10884329 -0.03664147 -0.0011816665 0.1508486 0.008467222 -0.05930438 -0.0068695606
0.08802532 -0.035104137 -0.028026097 0.08288807 0.008257565 -0.12918665 -0.09101933 -0.012679911
0.11839167 -0.051800806 0.047449462 0.0011511374 0.00905853 0.03274444 -0.09827856 -0.020811567

lstm.bias_ih_l0 f4 [256]
00000000: 0415 ec3d 6605 59bc 6f68 2bbd d784 333d
00000010: 9fa2 183d bc5f 333d 53b6 8dbd 4239 053e
00000020: dc4d 303e f2f5 86bc 298b 0e3e ab3c 883d
00000030: cd51 a93d bcfb a23c 788f 173e 35a9 053c
00000040: 540e 923d 7e2d 5f3b a1b0 823d c256 91bc
00000050: 6549 41bd 5377 fa3d cc09 a8bd 61c1 7abd
00000060: ab74 253e 61d6 78bc 044b 043d 789c 99bd
00000070: 36cc 3f3c a22c 09bb 1bef b23d fa14 c33d
00000080: 01e0 063e 88c4 673b 1d10 213e a14e bc3d
00000090: 0e57 7abd 53f7 9cbd 7794 c83c 171b 063e
000000a0: 5ad7 2c3d 582d 1abd a418 e93d b3a0 f0bd
000000b0: 6925 fe3d fb0e 0a3d b96c 0d3d 9351 bbbc
000000c0: 7e39 853d 2e46 3a3d c9e5 0f3e a002 1a3e
000000d0: 349b a83d e5b4 c73c bfbf ef3c ec8b 1abd
000000e0: 9dd2 cd3d d674 593c 813d a2bd 4abc fa39
000000f0: 8465 34bd 3d24 86bd 3f63 863d 6ca5 ca3c
00000100: 6cba c1bc a920 37bd a8ee 833d 089e 9b3d
00000110: 6332 013e a645 e33d 3d9d f6bc 2e02 cf3d
00000120: 1a85 7bbd 6ee2 8fbd 5f61 c43d 85e9 193e
00000130: 4e84 d53d 262b c33c 0c1e b5bc 21cc 253e
00000140: d4bc 21bd 506f f13d 7145 eabc 9d21 98bd
00000150: 67b1 1a3d 319b 9d3d ffe7 5abd afb3 863b
00000160: c37f 233d 7e5a 0a3d 6ad0 85bc c479 203e
00000170: 40ce 49bd 87d1 fd3d 7838 953d 24ff a9bc
00000180: 8caa c03d 35b8 81bd 3696 1bbd 38fa e23d
00000190: 40bd c2bc d81c bd3d 0d90 9abd ae40 763d
000001a0: 1d0b 94bd 29e6 d13d 5b0d 213e b75a ed3d
000001b0: beb8 803d f314 fa3d df44 113e 5d0e b63d
000001c0: de89 d53d 9334 a33d 6e21 913d 39e2 013e
000001d0: 4b10 043e d7ee b33b ef06 693d 8d2b e43d
000001e0: e648 90bd ef95 4ebd 053e 3b3c 14d4 7f3d
000001f0: 9e61 003e ea2b bc3d 29a0 db3d f586 f1bb
00000200: 8182 d03b 2b57 24be 11a8 e0bb 176f 8ebd
00000210: fbc7 50bd 8ca1 d03d aa7a f03d 9806 943d
00000220: 37bd 60bd 4adf be3b 3627 1abe 7dbb 2cbd
00000230: e167 cd3d 66f4 f93d 4a34 0bbe 31af 73bd
00000240: eac6 ccbd 7d1f 8a3d c78a 223e 7620 18be
00000250: 46b8 b1bd 466c 09bd e363 1ebe af48 9ebd
00000260: 1787 efbd ea85 063e a2a9 873d 9a13 aebd
00000270: 0ccf 63bd df52 213e ac0f a0bd b017 b13d
00000280: 4a51 2d3d 0a8b 23be 4a2c 163e c89f c7bd
00000290: 4ac6 5e3d 4968 fdbc 94b1 16bc 748c c93c
000002a0: b311 0fbe 43fc e63c d137 a6bd c921 a43d
000002b0: 9e1d 143e 15f2 84bd f6e3 223d 0319 ea3a
000002c0: 5af6 99bd 89e4 a23c 6446 eebd 51be e63d
000002d0: d0bc cbbc ec4c 21bd fb84 8abd cafc 573d
000002e0: 37b6 e13d f541 843d e272 20bb 1071 213e
000002f0: e85a 1d3e ecb8 1dbc 60eb e8bd 4ad1 c4bd
00000300: 954e 963d 8b13 2c3e 7476 933d ba7c e03d
00000310: cb85 85bd bf56 df3d afba 003e 082e f93b
00000320: 5a3d 6bbb 668b 1b3d 2dde 65bd 7d4a 283e
00000330: 6262 a9bc f682 1d3e 1dd9 9fbd b47e 033e
00000340: af05 60b9 c6f0 90bd 0ff4 b43d 08dd 253e
00000350: ca06 69bc fef8 8e3d fabb debc fe0a 003e
00000360: 6ec8 273e 20f5 643c 0f4d 343e 421d f33d
00000370: 20f0 8a3d 580d 11bb 73c5 063e ed1c 393d
00000380: 6382 1bbb 4185 89bd 6fc3 86bd af35 3a3e
00000390: 5675 4ebc a501 48bd b5e8 043e 581a 0d3c
000003a0: 2f17 4bbd 53b7 9a3d 507c f53c eecc d13d
000003b0: bd74 233e 7bd4 7d3c 4e1c e43d 651c 033c
000003c0: 26c5 9a3c 0749 ba3d 6efa 9d3c 31fc af3d
000003d0: b928 783d 1a30 35bd 7e5d 5f3c 3203 2a3e
000003e0: cd00 153d 1cc6 2f3e 143f 193e 93e0 883c
000003f0: 30b3 b4b9 5e49 9e3d fe87 f13c d495 af3c
0.11527446 -0.013245916 -0.041847643 0.043827858 0.037264463 0.04379247 -0.06919541 0.13010123
0.17217201 -0.016474698 0.13920273 0.066521965 0.082675554 0.019895427 0.14800823 0.008158018
0.07131639 0.0034054215 0.063813455 -0.017741565 -0.047189135 0.122297905 -0.082049936 -0.061219577
0.16157787 -0.015187831 0.032298103 -0.07500547 0.0117064025 -0.0020931144 0.08737012 0.09525485
0.13171388 0.0035364944 0.15728803 0.09194685 -0.061118178 -0.07664361 0.024484856 0.13096271
0.042197563 -0.0376409 0.11381653 -0.11749401 0.12409479 0.033705693 0.034527514 -0.022866046
0.065051064 0.045477085 0.140525 0.15040064 0.08232728 0.02437825 0.029266236 -0.037731096
0.10049937 0.013272485 -0.07921887 0.00047824002 -0.044042125 -0.06549881 0.065618984 0.024737082
-0.023648463 -0.04470888 0.064420044 0.075985014 0.12616877 0.11097269 -0.030104274 0.101078376
-0.061406232 -0.0702561 0.095888846 0.15030487 0.10425626 0.023824286 -0.022109054 0.1619115
-0.03948672 0.11788809 -0.028597565 -0.07428286 0.03776684 0.07695616 -0.053443905 0.0041107754
0.039916765 0.033777706 -0.016334731 0.1567145 -0.04926896 0.1239348 0.07286161 -0.020751543
0.09407529 -0.06333963 -0.03798505 0.11082882 -0.023771882 0.09234017 -0.07547007 0.060120277
-0.07228682 0.10248978 0.15727751 0.11589568 0.06285237 0.12211027 0.14186428 0.08889458
0.10426687 0.07969012 0.07086454 0.12683953 0.1289684 0.0054911184 0.056891378 0.11141119
-0.07045154 -0.050435957 0.011428361 0.062458113 0.12537238 0.091880634 0.107239075 -0.0073708245
0.0063632135 -0.16048877 -0.0068559726 -0.069547825 -0.050971966 0.101870626 0.11742146 0.0722782
-0.05486795 0.005824958 -0.1505402 -0.04217099 0.10029579 0.122048184 -0.13594165 -0.059493247
-0.09998877 0.06744287 0.15873252 -0.14856133 -0.086777255 -0.033550523 -0.15467791 -0.07728707
-0.11695688 0.13137022 0.06624152 -0.084998325 -0.055617377 0.15754269 -0.07815489 0.08647096
0.04231385 -0.15971008 0.14665332 -0.09747273 0.054388322 -0.030933516 -0.009197611 0.024603106
-0.13971595 0.02819646 -0.08116115 0.080142565 0.14464423 -0.06491486 0.03976818 0.0017860237
-0.07517691 0.019884365 -0.1163452 0.11266769 -0.024870306 -0.03938 -0.06763645 0.052731313
0.11021083 0.06457893 -0.0024482538 0.15765786 0.15366709 -0.009626608 -0.11373019 -0.09610231
0.07339207 0.1680433 0.072003275 0.1096129 -0.065196596 0.109052174 0.12571214 0.0076043643
-0.0035894723 0.037974738 -0.056120086 0.16434665 -0.020676795 0.15381989 -0.07805083 0.12841302
-0.00021364422 -0.07077174 0.08835613 0.16197598 -0.01422281 0.06981085 -0.027189244 0.12504193
0.16385052 0.013974458 0.1760752 0.11870815 0.067840815 -0.0022133198 0.13161258 0.0451936
-0.002372884 -0.06714869 -0.06580245 0.18184541 -0.012601217 -0.048829693 0.12979396 0.008612238
-0.049582656 0.075544976 0.029966503 0.10244165 0.15962501 0.015492554 0.11138211 0.008002375
0.018892836 0.0909596 0.019284453 0.085930236 0.06058571 -0.044235326 0.01363313 0.16602781
0.036377717 0.17165416 0.14965469 0.016708648 -0.0003446578 0.077288374 0.029483791 0.021433748

lstm.bias_hh_l0 f4 [256]
00000000: eeaf 073d e08b 15bd c8a5 d13d 8386 38bb
00000010: 6000 6cbd d531 5abd 95e5 78bd d48c 753d
00000020: 3e78 92bd d1d8 a83d ff84 04bd 725a 013d
00000030: 6f0d 7e3c 81c5 07bc 8c5e ed3d f51c 84bb
00000040: d9d6 ac3d a4a6 b43d 0657 da3d d356 be3d
00000050: fd96 c43c f43d c3bc fb13 78bd a7f0 0c3e
00000060: ac93 8cbd 54e6 523c 3a37 183e 9ee0 553c
00000070: 246b 82bd a1f8 2c3e 9a83 3d3b 1ccd a43d
00000080: c0ed 933d ef13 293a 10cc 98bd ffdc cf3c
00000090: b7d9 7ebd 9952 02bd bd79 82bd 1925 a53d
000000a0: 4354 34bd 6d58 d23d bdb9 153e d04d 883d
000000b0: 635b d43d cfeb 663d 268a e33d 12fa 0e3e
000000c0: e2e9 973d f987 bf3d ed81 f83d 2655 2c3d
000000d0: 8b97 0b3e 74c6 903d cfbb 3cbd dc99 54bd
000000e0: 1c28 763d 29fb 60bd a68e 8cbd 6b35 223e
000000f0: 266f 0d3e 17b8 9a3a 08b9 db3d b808 6d3d
00000100: 2b77 243e d958 ab3d aa96 aa3d f0bf 1fbd
00000110: 41af aa3d 9384 4abd 4056 34bd c4c3 db3d
00000120: 0bc1 03bc 2c29 0b3e b88f 703c 438c cf3d
00000130: 9d97 273e 2575 3c3d feb2 1a3e 4961 1cbd
00000140: 2f15 e03d 54b0 373d cb20 103e 1d70 1f3e
00000150: c9b4 313c 5f76 8c3d 438d 4fbc a8a3 c63d
00000160: 66d8 3a3d ed4a 5dbc 23a1 c5bc 3622 963d
00000170: f6cb 1c3e b31d 80bd d16d f23d e48e f53d
00000180: b098 89bd 8ef6 ca3d 7c61 763d bbdc 0d3e
00000190: 3cf9 153e abc7 d13d ecd9 c1bb b1f1 90bd
000001a0: 4795 073e f485 353d 22dd bd3d 1567 aa3d
000001b0: 5910 463d acd0 073e 31e4 6cb8 058f 913d
000001c0: 3ba5 e03d 0a00 7cbc cc75 c73d 8a9c 543d
000001d0: e5da bfbd 11dd e33d bd49 9dbd ee7f ce3d
000001e0: 8743 ccbc 76eb 80bc 331f ed3d 5b09 203d
000001f0: 3f6d 39bd 192f 953d 277e bcbc 442a c0bd
00000200: 8ba1 0f3e c8c0 13be 95e1 72bd 421b efbd
00000210: 07a1 093e aee3 ee3c d166 81bd e219 de3d
00000220: edc5 fe3d 1ce0 973d 6d3d 65bd a35c 11be
00000230: 6d2f af3c d184 bc3d 624e f4bd 2dfa 20be
00000240: d540 23bd 1606 2abb c694 14bc d404 b7bd
00000250: 136a 05be 0305 68bd 688a 953d 6372 133e
00000260: e08c a9bc b354 253d 555e 1b3e 6592 f4bb
00000270: 0733 62bd ce5a 3abd f1d0 1e3e 0cf7 a6bd
00000280: 3c09 403b e953 42bc f84f 5a3d cb31 a5bd
00000290: e655 1fbe f49f e3bc eddb 8abd e766 37bd
000002a0: 69af eebd 0cdb c2bd 345c 1dbe a733 c03d
000002b0: e51c ce3c bb3b 0cbe 6fec b43d ffac 593d
000002c0: 8de9 04bc 34f9 a2bd 96fe 9fbd e950 9e3d
000002d0: a240 0f3e add4 cbbc 1057 94bd c1ba b53c
000002e0: 62bc 8f3d 3f4a 183e 499c 243e 0ed4 283e
000002f0: b960 3abd cbbb 803d d008 07bd 7619 933c
00000300: 9d81 6b3d 6937 073c 91ec 8b3d d113 2d3e
00000310: 69ab 933d 772b cc3d 84ed 093e 67c1 3c3d
00000320: 2ecf f33c 31a6 303e 65f1 8abc 8109 2c3e
00000330: df8a 173d 9918 f63d 4679 633d 87b9 803d
00000340: 656c 133e a9db ccbc a348 50bd 22bb 673d
00000350: 2ef1 6fbd 1eb2 02bd d949 353e d300 7d3d
00000360: fd20 fe3b 07ae 2c3e c822 823d ca56 173e
00000370: d273 833d 86c5 1d3e b1d4 103e 2bf5 f73c
00000380: d019 5dbd efc3 2b3e fab8 80bd ecb8 493d
00000390: f566 f53c edf9 263e a44e 87bd b3b3 2a3d
000003a0: f233 a43d 81ec f63d f458 2b3e f84b babc
000003b0: 9253 1d3e 0611 193e 4c0d 933d 017c 213d
000003c0: f2a5 1e3e 8b73 23bb e66d c23c efd5 773d
000003d0: 3d38 ca3d 4556 cc3b 2b4c 243e 0b97 843c
000003e0: eab7 b53d 58ce f03d 97dd 163e 6657 6fbd
000003f0: 0d6f 9f3d 79e6 bb3d efd0 103e e0cc db3d
0.033126764 -0.03651035 0.102366984 -0.0028156347 -0.057617545 -0.05327018 -0.06076582 0.059948757
-0.071518406 0.082444794 -0.032353397 0.031580396 0.0155061325 -0.008286835 0.11590299 -0.0040317723
0.084394164 0.08820847 0.1066113 0.09293904 0.023997778 -0.023833252 -0.06056593 0.13763677
-0.06864104 0.012872297 0.14864817 0.013054041 -0.06368092 0.1689172 0.0028917552 0.08046934
0.072230816 0.0006449809 -0.07460797 0.025373934 -0.062219348 -0.031817053 -0.06370876 0.080637164
-0.04402567 0.10270772 0.14621635 0.066554666 0.10368993 0.05637723 0.11110334 0.13962582
0.074176565 0.093521066 0.121341564 0.04207339 0.13632028 0.07069102 -0.046077546 -0.051904544
0.060096845 -0.054927025 -0.068631455 0.1584069 0.13811931 0.0011804131 0.10728651 0.057869643
0.16061084 0.08366556 0.08329518 -0.039001405 0.08334208 -0.04944284 -0.044027567 0.10730699
-0.0080416305 0.13589925 0.014682703 0.10134175 0.1636643 0.046010155 0.15107343 -0.038178716
0.109415404 0.044845894 0.1407501 0.15570112 0.010846325 0.06858515 -0.012667957 0.09699184
0.04561653 -0.013506633 -0.024124688 0.07330744 0.1531218 -0.06255665 0.11837352 0.11990145
-0.06718576 0.09910308 0.060151562 0.13853733 0.14645857 0.10243162 -0.005915871 -0.07077349
0.13240539 0.0443172 0.09270693 0.083204426 0.048355434 0.13263196 -5.6479304e-05 0.07107357
0.10969015 -0.015380869 0.09739265 0.0519071 -0.09367923 0.111261494 -0.0768008 0.100829944
-0.024934543 -0.015737277 0.115782164 0.039071422 -0.0452702 0.07284374 -0.023009373 -0.093830615
0.14026468 -0.14429009 -0.059297163 -0.11675121 0.13440333 0.0291613 -0.06318439 0.108447805
0.12440095 0.07415792 -0.055966783 -0.14195494 0.021384919 0.0920502 -0.11929013 -0.15720434
-0.03985675 -0.002594357 -0.0090686735 -0.08936468 -0.13028745 -0.056645405 0.073017895 0.14399104
-0.020697057 0.04036398 0.15172704 -0.0074637407 -0.055224445 -0.045496754 0.15509392 -0.08152589
0.002930238 -0.011860826 0.05329892 -0.08066138 -0.15560111 -0.027786233 -0.06780229 -0.04477587
-0.116545506 -0.09514436 -0.15367204 0.09384852 0.025160262 -0.1369466 0.08834159 0.053143498
-0.0081123235 -0.07957688 -0.0781223 0.07730276 0.13989499 -0.024881685 -0.07243168 0.022183778
0.07018353 0.14872073 0.16075243 0.16487142 -0.0455024 0.06285819 -0.03296739 0.017956477
0.057496656 0.008252957 0.06832231 0.1690209 0.07210428 0.09969228 0.13469511 0.04608288
0.029761877 0.17250897 -0.016960809 0.168005 0.036997672 0.120164104 0.055535577 0.062853865
0.14396818 -0.025007086 -0.05085052 0.056574948 -0.058579616 -0.031908147 0.17703952 0.061768364
0.0077553974 0.16863261 0.0635429 0.14779201 0.06418575 0.1540738 0.14143635 0.030268272
-0.053979695 0.16773961 -0.062852815 0.04924862 0.02995632 0.16306277 -0.066067964 0.04167528
0.0801772 0.12056828 0.16733152 -0.022741303 0.15363911 0.149479 0.071802706 0.0394249
0.1549299 -0.0024940695 0.023734044 0.060506757 0.09874008 0.00623587 0.16044681 0.016185304
0.088729694 0.11758107 0.14732967 -0.05843296 0.07784853 0.091748185 0.14142202 0.10732436

lstm.weight_ih_l1 f4 [256, 64]
00000000: b375 e63d 51c0 c3bd e8ef af3d 2d0d 94bd
00000010: a755 cc3b a5c0 583c 2a57 a0bd dce7 033e
00000020: 5a53 b2bd 9daf 9d3d 09e3 a8bd 24c0 fb3c
00000030: 5296 7f3d 6c61 6bbc e2fd debd 65b2 eb3c
00000040: 3581 ee3c 1814 1ebe 6b74 96bb 369b 87bd
00000050: 7271 abbc 744d 95bd 6415 0ebe 38a3 7e3d
00000060: bd70 df3c b10a c13d dcb5 f83d d0ad 3d3d
00000070: 2f64 cdbd 38db 203e b3aa 6abd c927 1c3e
00000080: 5809 8ebd 6e33 b9bd 8b56 83bd fc85 50bc
00000090: d1c6 93bd 7523 ac3d f0fa 23bd 36e6 f8bc
000000a0: e203 e6bd 2d0b 86bd 0999 b5bd 0f17 45bc
000000b0: 3e16 e8bc 3d77 bd3d 9cb0 163e e0fe dabd
000000c0: b771 a13d cbd0 37bd b26a 76bd 6eeb d0bd
000000d0: 7877 83bd ad4d a3bd a496 c7bd 4385 7abd
000000e0: b309 df3a a630 34bd 58b5 79bd 27b2 e73d
000000f0: e045 8cbd 8418 1bbd 292b 7ebd c3ae 963d
00000100: 228f d93c 0d65 a2bd 4252 efbd 56e1 143c
00000110: ed25 0f3e 8cca 85bd d3d8 6abb d4be 16bd
00000120: 9fbc 523c a453 863b 9659 a5bd e581 233d
00000130: 2192 6a3d 9396 9ebd 7cee 413d c505 89bd
00000140: 3a41 16bd 224c 583c 9b4b df3d b464 a1bc
00000150: a5f5 933d d3d7 e4bc 61f9 a1bd d2d5 0c3e
00000160: d32d 933d cb1a 263c 8be5 033e bd0e 5ebb
00000170: e3c7 8f3c 3fcd 60bd 9797 bdbd 1661 8c3d
00000180: fa23 81bd 2744 aa3b 8f7a 71bd 8b90 90bd
00000190: f338 0abe 3dab debd 52b2 26bd f768 90bd
000001a0: 3c72 813d ff8f 783c b4c2 493d 1fe1 023d
000001b0: fa53 40bb fbd6 1fbe 084a 8c3c cd57 44bd
000001c0: bae7 abbc d51b d0bd a576 783d 70dc ed3c
000001d0: 1e15 ea3d 9c0c 393d ad34 c9bd 4ac6 b63c
000001e0: 967d b03c 3edf d7bc e6c2 a23d 5381 303d
000001f0: 6aa5 173e 8886 483d 5dc4 993d f0bb 843d
00000200: 7117 a73d cd00 18be e032 043d 9877 20bd
00000210: dfb9 103d cbec 4dbd 0b44 84bd 74a3 cb3d
00000220: ad6d 803d 03cf b13d 4095 16be f0d6 b2bd
00000230: 06dd 29bd aa53 2fbd 9233 c63c 2fc4 fbbc
00000240: a8f7 90bd 5403 a8bb a89f 1fba e171 02bd
00000250: ca8a 10be 39ef 79bc d422 5a3d f7c5 0f3e
00000260: b847 5b3d a162 e8bb 3b7e 8ebd 89bb bb3d
00000270: c366 30bb 82ef c13d 36c7 193e 7aa1 833d
00000280: d31c 92bd 3b75 4c3d 300d babc 4dd1 98bd
00000290: a7f3 553d 93b1 05bd c026 dfbc 58d1 5a3d
000002a0: 6ec5 a13c b6ae 62bd 4642 883d f971 3cbc
000002b0: 8e43 5a3c 2916 3abd cc4c f4bc 305b 54bd
000002c0: 4b51 8cbd 39fa b2bd bcef a23d c487 f43c
000002d0: da79 213e d3a7 ac3d 7a04 aebb 6c11 d03d
000002e0: 80a2 75bd 2812 133d 1a86 203e e449 9a3c
000002f0: 4d24 2abd e039 843c 5b60 a0bd d1e5 ecbd
00000300: 51f6 d43d 6a80 483c f410 473d 18ac 09be
00000310: b907 a93c 90b8 073e 4909 453d bee8 0f3e
00000320: e022 20bd 4a8a 573d b4ca 7b3d 39f0 203c
00000330: 0098 943d 4db3 013e 6ab4 883d 48ee f83c
00000340: 6f08 a63d 24f3 823d cbbd c4bd 4d5c 553d
00000350: 092b 693d cb6e cd3c 3263 edbd 0b3d 093e
00000360: cce8 9c3c 2643 9a3d 6e0b c0bd 8249 e83d
00000370: 678d e5bd a181 b23d 615a 073e 3503 a63d
00000380: de2a 453c 05f1 08bd 0c0d 43bd d38a b9bd
00000390: ca39 6cbd 73eb 693d e1f5 513d c068 e83b
000003a0: cb9e a53c 7563 743b 3e8f 3abd 2c43 f33d
000003b0: 106c 85bd fc30 a93c 6695 083d da80 afbc
000003c0: c4d9 7c3c 6778 8c3d bed7 213d 75da 6d3c
000003d0: 7f34 823d 703f 0c3d 75d4 9abd 7d11 7cbd
000003e0: 7cc0 c23d 0899 bf3c d81b ea3d e32c 433d
000003f0: 7a0f ae3c 714b 7f3d 2ffa 8b3d a07b 87bd
0.11252918 -0.09558166 0.0859068 -0.072290756 0.0062357965 0.013229524 -0.07829125 0.12881416
-0.08707304 0.07699511 -0.082464285 0.030731268 0.062399216 -0.014366489 -0.10888268 0.028771589
0.029114345 -0.15437353 -0.004591515 -0.06621401 -0.020928118 -0.07290164 -0.13875347 0.062167376
0.027275437 0.09425867 0.12144062 0.04630834 -0.10028874 0.15708625 -0.057291698 0.15249552
-0.06935376 -0.090430126 -0.06412991 -0.012727257 -0.072156556 0.084052004 -0.040034235 -0.03038321
-0.11231209 -0.065451 -0.0886708 -0.012029423 -0.028330918 0.092512585 0.14715809 -0.10693145
0.078830175 -0.044876855 -0.060160346 -0.10201155 -0.06419271 -0.079738 -0.09745529 -0.061162245
0.001701644 -0.043991707 -0.06096396 0.11313277 -0.06849265 -0.037865177 -0.06205288 0.07357552
0.026557509 -0.0792943 -0.11685611 0.009086927 0.13979311 -0.065327734 -0.0035834804 -0.03680308
0.012862354 0.004099326 -0.08073728 0.0399188 0.057268266 -0.077435635 0.047346577 -0.066905536
-0.0366833 0.013201745 0.109030925 -0.01970134 0.07224587 -0.027934944 -0.079088934 0.13753441
0.07186475 0.010138224 0.12880532 -0.0033883296 0.017551368 -0.054883238 -0.09257429 0.06854455
-0.0630569 0.0051961127 -0.05895477 -0.070588194 -0.13498287 -0.10872505 -0.040697403 -0.070512705
0.063206166 0.01517105 0.04925795 0.031952973 -0.002934693 -0.15609352 0.017125145 -0.047935296
-0.02098452 -0.101615585 0.060660023 0.029035777 0.11429809 0.04517804 -0.098245 0.022311348
0.021544259 -0.026351567 0.0794733 0.043092083 0.14809194 0.048956424 0.075081564 0.06481159
0.08158768 -0.14844055 0.03227508 -0.039176553 0.03533351 -0.05027465 -0.06458291 0.099432856
0.06270919 0.086820625 -0.14705372 -0.08732402 -0.04147055 -0.042804398 0.024194513 -0.030733196
-0.07078487 -0.00512735 -0.0006089159 -0.031846885 -0.14115444 -0.015254789 0.05325587 0.14040361
0.053535193 -0.0070918356 -0.0695767 0.09166629 -0.002691672 0.094695106 0.15017399 0.064272836
-0.07134404 0.049916487 -0.022711366 -0.07461796 0.052234318 -0.03264005 -0.027240157 0.053422302
0.019747462 -0.0553424 0.06653266 -0.011501783 0.01332177 -0.04543129 -0.029821776 -0.051844776
-0.06851443 -0.087391324 0.07955882 0.029849894 0.15769139 0.084304474 -0.0053105922 0.10159573
-0.059969425 0.035905987 0.15676156 0.018834062 -0.041538525 0.016140878 -0.07830878 -0.115672715
0.103985436 0.012237648 0.048600152 -0.13444555 0.020633565 0.13253999 0.04810456 0.14053628
-0.03909576 0.052622117 0.06147261 0.009822899 0.07255554 0.12666054 0.06675036 0.030387059
0.08107077 0.06394032 -0.09606513 0.052089978 0.056925807 0.025077244 -0.11591186 0.13402192
0.019153975 0.07532339 -0.0937718 0.113421455 -0.11208611 0.08716131 0.1321807 0.081060804
0.012034146 -0.03343298 -0.047619864 -0.09059682 -0.0576723 0.057109307 0.05125988 0.0070925653
0.02021732 0.0037290726 -0.045546763 0.118780464 -0.06514752 0.02065324 0.033345602 -0.021423746
0.015432779 0.068589024 0.03951239 0.014517416 0.06357669 0.034240186 -0.07560054 -0.061540116
0.0950937 0.0233884 0.11431092 0.04765023 0.021247614 0.062327806 0.06834828 -0.066153765

lstm.weight_hh_l1 f4 [256, 64]
00000000: 9d1c 43bd ef85 2f3d 3a5f b8bc 813b e53c
00000010: 94e9 413c f164 b73d ea3f 733d 0feb a93c
00000020: 4b33 8fbd d368 a83d 754d 713c 8afc a03d
00000030: e691 c23c afd1 b3bd 7b6a c8ba 5d21 e83c
00000040: 12e5 c03d 333c 7f3c d078 523d e1c9 69bd
00000050: 2dc9 19be fbda 1e3c 3218 553d bbf4 f53c
00000060: 3e31 f23c 024d 02bc 61d3 093c e608 a0bd
00000070: a2f2 0ebe 9e3e 243d 99fb 123e 1e32 473d
00000080: cb50 803b e74d 763c c25f 733c fd22 863d
00000090: b2c5 71bd fa97 223c abaf 87bd deb6 0fbe
000000a0: 17b2 823d d847 243c ac92 babd 6090 e23d
000000b0: c2a0 8fbc c886 e9b7 e309 2dbd c4b9 38bd
000000c0: 11a8 8cbd 14fa ea3c ee17 37bd 5fad e43d
000000d0: 5ae8 92bd 5dfa 81bd 8f0a 5eba 0ce7 95bd
000000e0: d063 b63d 932d 82bd 79b4 adbd 43ed 0fbd
000000f0: 655d 333d 3eec 4dbd ad24 eabc e321 403d
00000100: 5be5 91bc 8322 4c3d 53e7 9a3d 309d 9c3d
00000110: 372b a6bd eb37 4e3d 374c a63d bd65 303c
00000120: 986e 1bbe 321b 8f3c 3e3e 22bd a33f dabc
00000130: e735 02be fe11 d0ba 1553 43bd d8cf 853b
00000140: 9185 b0bd f099 6e3d 470b fabd 0240 8b3d
00000150: 251a b13d 2459 bdbd 412e 213e fdbc 9ebd
00000160: 0893 913d 4940 9cbd 980d 1c3e 9fb5 e6bc
00000170: e36a 0ebe af71 733d 7887 a1bc a41c 32bd
00000180: 78ca 6d3d a6dc 063e 9025 1e3e 6f74 76bb
00000190: fb03 b83d 6a45 c93d a66c 203e ca33 5c3d
000001a0: e58f fbbc 8652 b03d e0e4 b43d 6819 b93d
000001b0: d473 2fbd abd0 6cbd a60e a43d 6e7a 9dbd
000001c0: d5c8 5abd 0a28 b33b 1b77 8fbd d843 003e
000001d0: 255e 3cbb fc71 e3bd b524 013e a6e1 773b
000001e0: 8e00 b3bd dace 1c3e 0bd9 17be 1fde a0bd
000001f0: 69ae bd3d ae71 283d 0afe b23d b4f2 a9bb
00000200: d141 1ebe e28e e4bb d725 dd3c 8215 dc3d
00000210: 0772 723c e747 9ebd d732 103d 2a8e 953d
00000220: 0dd9 16be 95f6 11bc c8ed 91bd 0d8e 94bd
00000230: e95c fc3c 6a4a 853d 9db6 573c 8c68 89bd
00000240: 2f0d 20bd 45a3 12be 3e5d 5b3d 7d98 47bd
00000250: 7a35 823d 351e ad3d 7df3 f63d 8405 a13d
00000260: 5ff4 063c 2506 54bd 8c96 223e aec9 62bd
00000270: c8d0 a33d 6093 96bd 7e95 a8bd e35b 173e
00000280: 0dba 513d 5038 a0bd c59b 963d 524c e4bd
00000290: e581 74bc e406 293d 47e3 d1bc 02ec 12bd
000002a0: b3ea bfbd eb35 e53d 8826 36bd c589 233e
000002b0: 1c35 c9bd bbdd 093e 2fb6 9d3d 4364 9e3d
000002c0: 1073 973d a510 98bd 97de 3ebd c453 cb3d
000002d0: 94b0 acbd 7362 6abd 20c5 a83b 0ec9 8fbd
000002e0: 7102 e1bb 59b0 bc3d ec3a 57bb 0c6e a7bd
000002f0: 3739 b7bd 00fc ccbd 1678 e3bd d419 ce3a
00000300: ac45 20bd 043e 983d 6151 b8bd afc8 a03d
00000310: c75c 75bd 41d2 a63c 5e70 9c3d 5249 a83d
00000320: 2ed5 b23d 24e4 7b3d aedc 1b3d bda8 b23d
00000330: 293a 16be 6334 9b3d a4dd 04bd f6d8 16be
00000340: 0fda 223d 5c94 dcbd 6ed5 57bb 70f9 88bd
00000350: f5cc 62bd fe28 683c fa72 e43d c9f6 ccbd
00000360: 647c 18bd dc81 cb3c 073f 053e 8b46 bf3d
00000370: d230 05be 4a9b 06bd 1e97 05bc f516 66bc
00000380: 575b 4cbc 3059 9b3d 5905 903c d389 513a
00000390: 613a a53d e19e 9ebd c51c ae3d c751 9ebd
000003a0: b663 a7bc ac02 ef3d 4e84 933d 5fc1 153d
000003b0: 29d4 bdbd 754b 2b3d 8594 dabc af46 133e
000003c0: df40 fe3d a1f8 d9bb 62f9 823d cfc2 7d3d
000003d0: dfb9 433d c704 93bd 2d93 783c 1747 d03c
000003e0: 838d 383d c690 9bbd 8e04 ee3c f8e5 c63d
000003f0: 5a7b d0bd 32e3 32bc acac 89bc b7ef 19bd
-0.04763471 0.04285234 -0.022506345 0.027982475 0.0118354745 0.089548 0.059387125 0.020741967
-0.06992205 0.08223119 0.01472794 0.07860668 0.02375121 -0.08780228 -0.0015290523 0.028336221
0.09418692 0.015578317 0.051384747 -0.057077292 -0.15018149 0.009695764 0.052025028 0.030023923
0.029564496 -0.00795293 0.008412213 -0.07814197 -0.13959745 0.04009878 0.1435379 0.04863178
0.0039158813 0.015033222 0.014854373 0.06549642 -0.059026428 0.009923929 -0.06625303 -0.14034602
0.06381624 0.0100268945 -0.09110007 0.110626936 -0.01753271 -2.7838527e-05 -0.042245757 -0.045099035
-0.068679936 0.0286837 -0.044700556 0.111658804 -0.07173224 -0.06346581 -0.0008470201 -0.07319459
0.089057565 -0.06356349 -0.08481688 -0.03513838 0.04379024 -0.050274126 -0.028581942 0.046907317
-0.01780956 0.0498376 0.07563653 0.07647169 -0.08113711 0.050346296 0.081200056 0.010766444
-0.15178907 0.017469022 -0.03961014 -0.026641672 -0.12715875 -0.0015874503 -0.047686655 0.004083615
-0.08619226 0.058252275 -0.12209182 0.06799318 0.08647565 -0.09245518 0.157403 -0.077508904
0.07108122 -0.07629449 0.1523956 -0.028162776 -0.13907962 0.05943459 -0.019717917 -0.043484345
0.058054417 0.13170108 0.15444016 -0.003760602 0.08985134 0.09827693 0.15666446 0.053760327
-0.030708263 0.0860949 0.08832717 0.09038049 -0.04283507 -0.05781619 0.080106065 -0.07689367
-0.053414185 0.0054674195 -0.070051394 0.1252588 -0.0028742638 -0.11105725 0.12611659 0.0037823706
-0.0874034 0.15313283 -0.14828889 -0.07854866 0.09261782 0.04112404 0.0873986 -0.005186403
-0.15454794 -0.006975041 0.026995583 0.1074629 0.014797694 -0.07728558 0.035204735 0.07302506
-0.14731236 -0.008908887 -0.07125431 -0.072536565 0.030806022 0.06508334 0.013166097 -0.06709394
-0.039075073 -0.14320095 0.05355572 -0.04872941 0.06357856 0.08453027 0.120581605 0.0786238
0.008236974 -0.051763672 0.15877742 -0.055368118 0.07998806 -0.07352328 -0.08231638 0.14781146
0.051202822 -0.07823241 0.073539294 -0.111473694 -0.014923547 0.041266337 -0.02562107 -0.035869606
-0.09370937 0.11191925 -0.04447034 0.15970524 -0.09824583 0.1346349 0.077007644 0.07733967
0.07394993 -0.0742505 -0.046598997 0.099280864 -0.08432117 -0.057222795 0.0051504523 -0.0702077
-0.006866746 0.09213323 -0.0032841517 -0.08175287 -0.0894646 -0.10009003 -0.11106889 0.001572425
-0.039128944 0.074337035 -0.08999897 0.07850777 -0.059902932 0.020363929 0.0763862 0.0821711
0.08732067 0.06149687 0.038052253 0.087235905 -0.14670624 0.07578351 -0.032437935 -0.14731202
0.039758738 -0.10770485 -0.003293361 -0.066882014 -0.055371244 0.01416993 0.111547425 -0.10008008
-0.037228003 0.024842195 0.13012324 0.09339627 -0.13006905 -0.03286294 -0.008153705 -0.014043559
-0.012472949 0.075853705 0.017580675 0.00079932547 0.080677755 -0.077451475 0.08501581 -0.077304415
-0.020433288 0.116704315 0.072029695 0.036561366 -0.09268982 0.04182001 -0.026682148 0.14382432
0.12414717 -0.0066519533 0.06395222 0.061953362 0.047784682 -0.071786456 0.015171808 0.025424523
0.04505683 -0.07595973 0.029054906 0.09711832 -0.101797774 -0.010918425 -0.01680597 -0.037582126

lstm.bias_ih_l1 f4 [256]
00000000: a2d5 83bb e7d5 ecbc 5c4b d53c 8765 5ebd
00000010: 018b 66bc c442 5c3d b2bd 23bd 9e59 043e
00000020: c032 0bbd 494e aabc a2be dfbc d8a3 ef3c
00000030: bbf0 e73d 8e31 da3c 9886 6a3d 4284 be3d
00000040: 939f eb3d 3d70 183e c9d1 b1bc e574 bcbd
00000050: aa81 c0bb ee12 eebc 7d06 8b3d c0a5 8fbd
00000060: 98d0 f93c 9ac4 ffbc 3452 003d da42 a23d
00000070: 8058 063e d9a3 aa3b c2a4 30bb 5561 81bc
00000080: 7da4 cc3b 856c 0f3e d94a 973c 9657 f93d
00000090: 713e 3cbd e397 e0bc 3a31 603b d409 18ba
000000a0: 679f 46bd 6c94 943d aa7d 913d 0f34 113b
000000b0: 5358 df3c dd92 92bd 05c6 803d e6be 173b
000000c0: 2fca 543d a23b 0ebd 9ea1 11bd 7f0b dcbc
000000d0: e2d4 e53d 1ca9 07bd 99ff 09bd 7bf1 2ebd
000000e0: 2a6d 42bd fd24 f33c 205f b33d bc0a 083d
000000f0: cda7 43bb 3fa2 e53d 2d4b 32bd 3247 453d
00000100: a349 643d f4f6 b63c b872 c53b 7489 2dbc
00000110: d939 833d 0a77 4d3d 743f af3c 5625 963d
00000120: 034c 153e e826 563d 7e68 9e3c b899 923d
00000130: 498d 033e e47a 5fbd 47df fdbc b7f2 023e
00000140: a803 7e3d 115e 083e b857 143e 9ea0 bbbd
00000150: 316b a73d cbdb c93d 5480 2ebd 1c35 1b3e
00000160: 4672 843d 3d1d 103e c972 fe3d 994e 38bd
00000170: 8273 51bd 4b23 95bd 8710 b3bd 46eb a03c
00000180: 0b97 4c3d 6a98 263c 1021 15bd 0313 063d
00000190: 3102 973c 558d 033e 9a0e 5f3d f8de 2b3d
000001a0: f3ce e0bc b58e aebd 9c65 aabd 2560 67bc
000001b0: b5ae 463d 8f10 d03c 1ecc 953d ec17 d2bc
000001c0: 6ee8 503c 77ec a5bd fcbc d53d c543 b53d
000001d0: f97c a63d c812 a7bd 55fa 903d 29b1 97bd
000001e0: c4d9 df3d 19a2 993d f61d 433d 9f7f 1a3e
000001f0: 06ad c4bd 6431 323d 90af 223d c86f 3d3d
00000200: 8563 d7bd b327 853b bdf3 1fbe c8fd c63d
00000210: e46a d2bd 342b a63b 079e 01be 8a52 f03c
00000220: d3a6 efbd 57f8 563d c1b7 d33c ff91 083e
00000230: 58d8 903d 986a 8ebc 8734 c03d 55a6 1ebb
00000240: 0040 d2bd 1294 3a3c 67ba afbd 20c9 7bbc
00000250: 7934 63bc c2c7 753d 7d6d f73d 0097 573d
00000260: d292 a63d 72e8 bb3d 09b2 113e bfbd 74bc
00000270: e7b6 0bbe 96a6 45bc 476c 0b3e 9098 fabc
00000280: 4397 83bd d115 083e 9d4d 083e 5004 93bc
00000290: ed37 90bd 015e 25bd 759b 1c3e 7d06 e0bd
000002a0: 12d1 5ebc c5ab f53d e1dc da3c 7193 a93d
000002b0: ea4f b3bc d3e0 89bc 161f 03be a38b ef3d
000002c0: 2b19 da3d 2254 dcbb f8f5 3dbd e48d e63c
000002d0: 7c67 07bd 1b56 13bd eb0c 343d 154d 6abd
000002e0: 2fe0 d5bc 8b53 f33d e6f1 b6bd 755f 81bd
000002f0: f361 86bc 1155 193d a0ca b2bd b260 ff3c
00000300: 6121 833d 1d5e bf3d 54b0 123e 3c41 87bd
00000310: 7b0a 8fbd b1e7 40bd adeb cebb ed9e 303c
00000320: eff4 433d b490 f53c 1733 2a3e e6d1 2d3e
00000330: 5ac8 ba3d e814 993d 32bb 203d ffd6 42bd
00000340: 5a87 3c3d 41c9 033d 9ef9 ecbc eb60 8cbd
00000350: 7fdc 29bd f685 223e c711 253e dac0 0c3e
00000360: 67f4 253e 819d e73d 70fd 2f3e 34d5 c43d
00000370: 63ba a83d ff6a f13d fda1 383c b7ca fe3d
00000380: ab30 c43d e570 143e 6113 b2bb 3219 c93c
00000390: 4a7e d23d 637e a1bd 0e60 d63d 0213 46bd
000003a0: 7f64 80bd e8fe 28bd d7e3 e73c 07da 0fbd
000003b0: 8ecc 713c 1853 43bc 8c63 203e 277e d03d
000003c0: 8434 7ebd 5e2a e6bc 6eb9 be3d a454 82bd
000003d0: 3b01 1dbd a70f 1b3e e385 dc3d 9a80 233e
000003e0: bce8 d63d 6bb8 98bd 4bbb 743d 17ed c03d
000003f0: 9bad 843d d6f6 7f3c 2168 c63d 8eb0 083d
-0.0040232698 -0.02891059 0.02603691 -0.054296043 -0.014071227 0.05377461 -0.03997583 0.12924811
-0.033983946 -0.020789282 -0.02731258 0.029252931 0.113252126 0.026634958 0.057257265 0.0930257
0.11505046 0.14886566 -0.021706479 -0.09201983 -0.005874832 -0.02906176 0.06788347 -0.07014036
0.030494973 -0.031221677 0.031328395 0.07922907 0.13119698 0.0052075204 -0.0026953672 -0.015793482
0.0062451945 0.1400624 0.018468307 0.12174909 -0.045957986 -0.027416175 0.0034209029 -0.00057998043
-0.04849186 0.07254872 0.07104047 0.0022156273 0.027263796 -0.07156918 0.06287769 0.0023154556
0.05195063 -0.03472484 -0.03555452 -0.02686095 0.11222245 -0.03312026 -0.033691023 -0.042710762
-0.04746739 0.029680723 0.08758378 0.033213362 -0.0029854656 0.112125866 -0.043528724 0.0481636
0.055734288 0.022334553 0.0060256384 -0.010591853 0.06407518 0.050162353 0.021392561 0.0733134
0.14579777 0.052283198 0.019336935 0.07158226 0.12846865 -0.054560557 -0.030990256 0.12787901
0.062015206 0.13317133 0.14486587 -0.09161495 0.08174742 0.09856375 -0.042602852 0.15156978
0.064671084 0.14073654 0.12424237 -0.04499683 -0.051135547 -0.07282122 -0.08743387 0.019643437
0.049948733 0.010168174 -0.036408484 0.032732975 0.018433662 0.12846883 0.054457285 0.041960686
-0.027442431 -0.08523313 -0.08320162 -0.014122044 0.048506457 0.02539852 0.07314323 -0.025646172
0.012750728 -0.08101743 0.104364365 0.08850817 0.081293054 -0.08157879 0.07078997 -0.074068375
0.10930207 0.07501621 0.047635995 0.15087746 -0.09603314 0.043504134 0.03971821 0.04624918
-0.10517029 0.0040635704 -0.15620323 0.09716374 -0.10274294 0.005071068 -0.12657939 0.029336233
-0.11701741 0.05248293 0.025844457 0.13336943 0.07072514 -0.017384812 0.09385019 -0.0024208028
-0.10266113 0.011387842 -0.08580475 -0.015367776 -0.013867491 0.060004957 0.1208143 0.05263424
0.081334725 0.09175195 0.14228071 -0.014937817 -0.1364399 -0.012063643 0.13615523 -0.030590326
-0.06425335 0.13289572 0.13310857 -0.017946392 -0.07041917 -0.040372852 0.15293677 -0.109387375
-0.013599651 0.11995653 0.026716651 0.08280075 -0.021888692 -0.016830837 -0.12804827 0.116965555
0.10649332 -0.0067238966 -0.046377152 0.02814383 -0.033057675 -0.03597079 0.043957632 -0.057202417
-0.026107876 0.11881169 -0.08932857 -0.06317035 -0.016404128 0.03743464 -0.08730054 0.031174038
0.06402851 0.093441226 0.14325076 -0.06604239 -0.06984421 -0.04709596 -0.006314716 0.010780078
0.04784101 0.029976226 0.16621052 0.16974601 0.09120245 0.07474691 0.039241023 -0.047568318
0.04602752 0.032174353 -0.02892762 -0.06854423 -0.041470047 0.15871415 0.16120063 0.13745442
0.16206513 0.11309338 0.17186522 0.09610978 0.082386754 0.11787986 0.01126909 0.124410085
0.09579595 0.14496191 -0.005434439 0.024548147 0.10277994 -0.078854345 0.1046754 -0.04835797
-0.06269168 -0.041258723 0.028306885 -0.035120036 0.014758242 -0.011921667 0.15662974 0.10180312
-0.0620618 -0.028096374 0.09312712 -0.063638 -0.03833125 0.1514269 0.10767724 0.15967026
0.10493609 -0.0745705 0.05974893 0.09420221 0.06478425 0.015622815 0.0968783 0.0333715

lstm.bias_hh_l1 f4 [256]
00000000: a314 ca3d c6a4 903b be7a 48bd df88 c03d
00000010: 2298 65bd 1410 063e c601 e13d 2b3a 023e
00000020: dbb5 bb3d f544 763d afc7 24bd fe81 6a3d
00000030: e43e 543b d8a1 fcbc de32 663c 0da6 663d
00000040: 091c 913c 6a4d 17bd d4a2 75bd 3373 223c
00000050: 6f50 b53d 3049 d73d af86 813d 1375 943c
00000060: 28e3 0f3e 44d4 dcbd 9401 eebc a848 dd3c
00000070: 4b53 b2bc 0e16 49bd 6fad 9bbd babe b0bd
00000080: 759a 503d 2562 203e 265e d73d beb1 1e3e
00000090: 093c 173e 48ba acbd 7b93 2b3b ddfe abbd
000000a0: cc65 ff3d 2f9d 923d d0ca 033e 353e 843d
000000b0: 2da1 123e 14a9 05bc 5677 fd3d c3c2 933d
000000c0: 9554 263c a36c cabc f605 c73d 9991 c53d
000000d0: 327f 253d 5fd7 aabd 2bd4 093d d86f 843d
000000e0: d366 b8bd 72d7 4a3c bac8 c93c 52f9 7cbb
000000f0: b145 5abd b8b8 acbd be56 f0bb 4994 52bc
00000100: 96e3 bd3b befb eb3c 5aa2 fc3d 5138 a03d
00000110: a012 0a3e 10fc b93d cd09 e43c eb12 54bd
00000120: 1c79 923d 75e6 c4bd 5775 3fbd f465 273c
00000130: 794f 6cbd 2470 84bd 80d0 9ebd 2142 afbd
00000140: c72b 2cbd c0a6 dc3d 49fc 7d3d 09b5 c93d
00000150: 9d27 b2bd 6561 df3d 5d67 ce3d cccb 843d
00000160: 0c40 2bbd 0d0c 7f3c 431f 9f3d 0c23 2dbc
00000170: dc2b 073c dd93 143e dd46 8ebc 8214 debb
00000180: a805 8bbd 4f1c d3bc 59ef 50bc 61ed a6bd
00000190: c83e cb3d e1e5 8cbd f241 f03d 6fe5 7b3c
000001a0: 1ad8 133e 9834 7c3c c3d5 103e 0243 81bd
000001b0: 38bc 273d 15a5 cd3c 0568 e63d 3c46 a33d
000001c0: 6310 c13d c26c 83bb 1b6d f73d 9cdf 173e
000001d0: df4e f83d 0813 0bbd 106c 4f3c 995f 74bd
000001e0: 9be2 473d 633a 833d 9a34 133e f23c 88bd
000001f0: dbd6 873d 1315 593d a6ed 64bd a22f 1a3d
00000200: fdac b5bd b822 7d3d 82a9 09be 0793 a1bd
00000210: 184b 92bd 3908 f4bd 199c 683d 03e2 01bd
00000220: c474 2f3d 7e02 383d 0315 88bd 4877 723d
00000230: 85da a4bd 598f 4cbd c7ac fd3d 8188 16be
00000240: 6c8a dabd c0b4 08be 6e7e eabd 7611 01be
00000250: 67a2 9f3d 04c7 96bd 62eb 743d 8383 413d
00000260: 6e20 cb3d 0e47 18be 5113 9e3c 9d84 15be
00000270: 4672 463c d893 dd3d 594f 88bd 97fb 013e
00000280: 3af4 c13d f142 5abc 5dde 893d 157b 18be
00000290: 0ded 5bbd 0885 383d e465 edbc eeba 963b
000002a0: 63a0 b8bd 2cf6 08bd ad04 1a3d b6a9 f23d
000002b0: 04ec 3dbd 947e bd3d 15b0 82bd 33e7 ca3d
000002c0: 9fb2 4bbc 294a ee3d deb1 5bbd 2c5a 1e3e
000002d0: 5c77 afbc f265 a3bc f762 e03d 1344 8fbd
000002e0: abc5 063e 49a2 43bd 8c91 edbc fc66 e1bd
000002f0: 4b75 ce3c f6a4 913d d147 d73b 37c6 743c
00000300: c314 8a3d 0432 843d a3cc 273d 31a4 023e
00000310: af34 8cbc d1d4 95bc 1299 bf3d 87ce 893d
00000320: 9782 fc3d 2bfd 90bc c921 323d 83b5 e33c
00000330: a7ee a83d 0ea1 cf3d 0e0e 9d3d 2553 febc
00000340: 80bb 8ebd 5247 1d3d d7af e2bc 6748 e13d
00000350: 6436 5dbd 1328 323d a3a9 92bc 3bf3 93bc
00000360: b831 9c3d eeee 5d3c 8e96 9e3d 4575 aebc
00000370: 406a b53c 3e36 c1bc efa1 9c3a fe6c f33d
00000380: dd90 153e c651 113e eef7 f6bc 101f c9bc
00000390: 97dd ca3b d0e1 7e3d d410 ffbc c538 cd3c
000003a0: 5297 8e3d 8ec0 1c3e 64bf 02bd 730c 253e
000003b0: b2c6 063e 4cf1 af3d 2414 46bd c85e 7e3d
000003c0: 61bd cb3d d239 753c 5cca 06bd 5cf4 ae3d
000003d0: 0dc4 8fbd 4f9d 053e b162 443d 7ec7 a0bb
000003e0: abde a2bc bae2 76bc 9a46 4f3d 5e94 033e
000003f0: 4ece ef3d da21 9c3d 77a8 763d 2062 023e
0.098672174 0.004414174 -0.04894518 0.09401106 -0.05605329 0.13092071 0.109866664 0.12717502
0.091655456 0.060124356 -0.040229496 0.057252876 0.0032386119 -0.030838892 0.014050214 0.056310702
0.017713564 -0.036939062 -0.059969738 0.009915161 0.08853232 0.10512006 0.06324517 0.018122232
0.14051497 -0.10782674 -0.029053487 0.027012184 -0.021768233 -0.0490933 -0.07601439 -0.08630128
0.05092855 0.15662439 0.10516004 0.15497491 0.14768995 -0.08433968 0.0026180435 -0.08398221
0.12470588 0.07158887 0.12870336 0.064571775 0.14319296 -0.008157987 0.12376277 0.07214882
0.010152002 -0.024710005 0.09717934 0.09646911 0.040404506 -0.0834186 0.033649605 0.06466645
-0.09003987 0.012380468 0.024631847 -0.0038600755 -0.05328912 -0.0843367 -0.007334559 -0.012852737
0.0057949526 0.028806563 0.123356536 0.078232415 0.13483667 0.0908128 0.027836705 -0.051775854
0.07152006 -0.09614269 -0.046742763 0.010217179 -0.05769298 -0.064667016 -0.07754612 -0.08557535
-0.042033937 0.107739925 0.062008176 0.09848983 -0.08698962 0.109072484 0.10078309 0.06484184
-0.041809127 0.015566838 0.077696346 -0.010567438 0.008250203 0.1450953 -0.017367775 -0.006777347
-0.06788188 -0.025770335 -0.012752377 -0.08150745 0.09924084 -0.068797834 0.11731328 0.015374525
0.14437905 0.015393399 0.14144044 -0.06311609 0.040950984 0.025103131 0.11250309 0.079723805
0.09426954 -0.0040107677 0.12081357 0.14831394 0.121244185 -0.033953696 0.012660041 -0.05966148
0.048800092 0.06407621 0.14375535 -0.066522494 0.06632777 0.052998614 -0.0558907 0.037643082
-0.088708855 0.06180069 -0.13443568 -0.07889371 -0.07143229 -0.11915631 0.05678949 -0.031709682
0.042835966 0.04492425 -0.06644633 0.059195787 -0.08049492 -0.049941394 0.1238647 -0.1470051
-0.10670933 -0.133502 -0.11449896 -0.12604317 0.07794648 -0.07362178 0.05979479 0.04724456
0.09918295 -0.14870855 0.01929632 -0.14601369 0.012112206 0.108192146 -0.06655759 0.1269363
0.09470411 -0.013321624 0.067318656 -0.14890702 -0.053692866 0.045048743 -0.02897925 0.0045999205
-0.09014966 -0.033437893 0.037602115 0.11848776 -0.04636766 0.092526585 -0.06381241 0.09907379
-0.012432723 0.11635239 -0.053636424 0.15464085 -0.02141922 -0.019946072 0.10956376 -0.06995406
0.13161342 -0.04776219 -0.029000066 -0.11005971 0.025202414 0.07111542 0.0065698405 0.014939836
0.06742241 0.06454852 0.04096664 0.12757947 -0.017114965 -0.018289955 0.09355368 0.06728845
0.123295955 -0.017698845 0.04348925 0.027796512 0.08248644 0.101381406 0.07668696 -0.031045506
-0.069693565 0.038398094 -0.027671738 0.11000138 -0.05400695 0.04349525 -0.017903155 -0.018060317
0.076266706 0.013545735 0.0774356 -0.021296153 0.02214539 -0.023585435 0.0011950115 0.11886023
0.14606042 0.1419135 -0.030147519 -0.024550945 0.0061909663 0.06222707 -0.031135954 0.025051484
0.06962456 0.15307829 -0.031920806 0.1611803 0.13161734 0.085909456 -0.04835905 0.06210211
0.099482305 0.014967399 -0.03290783 0.085427016 -0.070198156 0.1304829 0.047945682 -0.004906594
-0.019881567 -0.015068704 0.05060444 0.12849566 0.11709271 0.07623644 0.060219254 0.12732744
