model_artifacts/dl_tx_tx_h24_20000_21500.pt (torch, 420809 bytes, 30 tensors)

proj.weight f4 [64, 30]
000000 ea 3a 0f 3e 21 5e 1d 3e e2 f0 24 bd 33 d9 2d 3e
       0.13987318 0.15367939 -0.040268786 0.16977386
000010 f2 a4 19 bd 4f 6d 20 3d 40 e1 b0 bd e1 49 08 3e
       -0.03751082 0.039166745 -0.08636713 0.13309433
000020 a9 b7 12 3e 56 5e dd bd d2 97 12 3e b3 d3 9f 3d
       0.14327873 -0.10809009 0.14315727 0.0780405
000030 d0 8e d4 3d 04 9e bd bc 5e 56 b1 3d d1 8c c5 bc
       0.10378802 -0.023146637 0.08659051 -0.024114998
000040 95 e0 12 3e 84 29 29 3d 62 aa 97 bd f6 58 3e 3d
       0.14343484 0.041299358 -0.07405545 0.04647156
000050 49 13 a6 bd 07 66 c9 bc 89 cb 92 bd 18 75 fc 3d
       -0.08109147 -0.024584783 -0.071677275 0.12327021
000060 55 f0 10 be 25 73 a2 bd 94 be 8c bd 35 49 d1 bd
       -0.1415418 -0.07932118 -0.068722874 -0.10219041
000070 23 7b ac bc 2b 13 3d be 56 a1 30 3e 7d a8 11 be
       -0.02105481 -0.18464343 0.17249045 -0.1422443
000080 30 e9 1c 3e 8e 98 2f 3d 7a f6 3e bd 34 28 00 3e
       0.15323329 0.042870097 -0.046621777 0.12515336
000090 e7 ac 27 3d b8 d6 0e 3e 33 11 d5 3c 34 6d 87 bd
       0.040936377 0.13949096 0.026009178 -0.06612626
0000a0 3b 2c 4c 3d 8c fa 29 bd 7d 3b 69 3d 15 84 13 3e
       0.04984687 -0.041498706 0.056941498 0.14405854
0000b0 fe d7 a1 3d aa 6c 49 bd bb 8d e1 3d 45 56 3a 3d
       0.07902525 -0.049175896 0.11013361 0.04549243
0000c0 f9 e7 89 3d 59 80 cf bd 7a 9a 2a be 5a 1a 8e bd
       0.067336984 -0.10131902 -0.1666049 -0.0693862
0000d0 05 4b 02 be 99 f5 25 3e fb 1a f5 3c 86 e4 6a 3d
       -0.1272393 0.1620697 0.029920092 0.057346843
0000e0 39 e7 d1 3c df dc 54 3c 36 b0 d5 3d ef bb 15 be
       0.02562295 0.012992113 0.10434 -0.14622472
0000f0 09 2e b6 3c e0 de f9 bd 1f d9 6f 3d 0b 68 77 bd
       0.022238748 -0.12200713 0.058556672 -0.060401957
000100 b9 64 6e 3d 80 d9 11 bd e4 2b 1d 3e fd 69 d2 bd
       0.058201525 -0.035607815 0.15348774 -0.10274122
000110 d5 4e df bd 48 ef d0 bd e5 bc 1c 3e cd be 8e 3d
       -0.10903708 -0.10201889 0.15306433 0.06969986
000120 04 db 20 3e 59 66 f3 bd fa a4 1a be e8 fe 09 be
       0.15708548 -0.11884756 -0.15101996 -0.13476145
000130 0f 96 de bd ad cc 8c 3d 54 b7 66 3d cf 83 18 3e
       -0.10868465 0.06874976 0.05632718 0.14894031
000140 8d 51 9b bd cd 44 fe bd 8f d1 ca 3d 36 08 92 bd
       -0.07583914 -0.124154665 0.099032514 -0.07130472
000150 e7 3f d4 3d 50 29 50 bd 60 d3 98 3d 83 a5 00 be
       0.10363751 -0.05082065 0.074621916 -0.12563138
000160 0d 1e d5 bd ad d5 7e 3d bc 29 0e 3d 4e 20 5e bd
       -0.10406122 0.062215496 0.03470777 -0.054230027
000170 04 83 ce 3d 2d ae ed 3d 32 4c 0f be 72 3d d7 bd
       0.10083583 0.11605487 -0.1399391 -0.10509767
000180 8b d6 22 3e ad 0b d6 bc 80 9c e1 bc d0 4f 12 be
       0.15902154 -0.026128614 -0.027540445 -0.14288259
000190 7c 7a a7 bd 52 c0 cb 3c b0 18 89 bb 1a 6d f2 bd
       -0.08177659 0.024871979 -0.004183851 -0.11837216
0001a0 75 b7 a8 bc 73 ab 0f be 95 0c fa bd 4b 54 bf bd
       -0.020595292 -0.14030246 -0.12209431 -0.093422495
0001b0 6d 4c 09 be e8 15 f2 bd 1d 44 34 3e 90 87 5e 3d
       -0.1340806 -0.118205845 0.17604108 0.0543285
0001c0 fe dc 45 3d 7c 0c 36 be d2 a3 be bd 42 06 0e bd
       0.048306458 -0.177782 -0.0930859 -0.034673937
0001d0 7f 22 0f 3c b8 15 0a be 04 94 d7 bd 24 60 bd bd
       0.008736252 -0.13484848 -0.105262786 -0.09246853
0001e0 d3 a2 a7 bc da 2c b4 bd ab 57 06 bd 6f 1d 13 be
       -0.020463383 -0.08797617 -0.03279845 -0.14366697
0001f0 21 bd 14 be d8 86 01 be d6 19 a9 bd 03 e4 1d be
       -0.14525272 -0.12649095 -0.08256881 -0.15419011
000200 28 ac 09 3e e6 fa 31 bd f1 39 12 3e 9c 14 9e 3c
       0.13444579 -0.043452166 0.14279915 0.019296937
000210 78 21 16 be 7a fe d5 3d 6d c1 f5 bc 3f e8 57 bd
       -0.14661205 0.10448928 -0.02999946 -0.05271172
000220 b8 e5 1a be db e6 27 be 12 2a 8e 3d 11 1b 75 bd
       -0.15126693 -0.16396658 0.06941618 -0.059840266
000230 02 b2 47 3d af 7b 25 be 2e b7 eb 3d 6b a4 1d be
       0.048753746 -0.16160463 0.11509548 -0.15394752
000240 3c bd 33 bd 4d bd c9 3c a0 72 fb 3d d2 bf 08 3e
       -0.04388164 0.024626398 0.12277722 0.13354424
000250 94 fe 27 3e 42 56 f8 bd 35 7e 9f 3d 49 f7 51 bd
       0.16405708 -0.12125827 0.07787744 -0.05126122
000260 a1 22 ea 3b e4 d4 df bd c4 ba 45 3e d4 65 da bd
       0.0071452414 -0.109292775 0.19309527 -0.106639534
000270 d2 f6 fe 3d 44 23 9a 3d 1d d6 9b 3d 94 ee d8 bd
       0.12449421 0.07526258 0.07609198 -0.1059238
000280 7d b1 10 3e d1 07 63 3d 9a c1 12 3d a4 49 13 be
       0.14130206 0.055427376 0.035829164 -0.1438356
000290 d8 eb 32 3d 55 d4 ed bb cc 5e 7a bd eb 48 10 3e
       0.04368195 -0.007257978 -0.06112556 0.14090316
0002a0 72 f8 66 3d ba 7d 8f bd 54 27 7c bd 43 fc c7 bb
       0.05638928 -0.07006402 -0.061560944 -0.00610307
0002b0 c2 ee 03 3e 1f 6c 9f bc 40 8d b5 bd 08 cf 40 bd
       0.12884048 -0.019460736 -0.08864832 -0.04707244
0002c0 a7 45 2c be 8e 8e 36 3d 1e 32 ee 3d c1 4f 23 be
       -0.16823445 0.044569544 0.11630653 -0.15948392
0002d0 64 72 7c 3d 29 86 e3 3d 63 ca 4c 3d 42 69 44 bd
       0.06163253 0.111095734 0.0499977 -0.047951944
0002e0 05 82 e5 3d 67 d4 e6 3d 3b 3e ae 3d 10 f2 24 bc
       0.1120644 0.11270981 0.08507963 -0.010067478
0002f0 96 8d c3 bc e8 87 14 3d 74 59 32 bc 9b d1 0d bd
       -0.023871224 0.036262423 -0.010885585 -0.034623723
000300 4b 4a d5 3d 13 7b 01 3e 6e 88 19 bc 7c 19 2c bd
       0.10414561 0.12644605 -0.009370906 -0.04201649
000310 92 38 d3 3c 8a 66 3c bc 39 ea ae 3c 02 12 92 3d
       0.02578381 -0.011499057 0.02135192 0.07132341
000320 b0 96 13 be 80 0a 23 bd 29 7c 2e 3e b5 15 b4 3d
       -0.14412951 -0.039804935 0.17039551 0.08793203
000330 a3 2a 93 3c 95 e6 a5 bd dd 4a 04 be 6e 05 0f be
       0.017964667 -0.08100621 -0.12919183 -0.13966915
000340 79 0e 77 bd 10 97 44 3d 25 92 11 3e fa f8 dd 3d
       -0.060316537 0.047995627 0.14215906 0.10838504
000350 80 1c 0c be 14 c5 ae bd c2 b4 93 bb d6 56 4d 3e
       -0.13682747 -0.085336834 -0.004507632 0.20052657
000360 af 47 4f 3d f3 0f 14 bd bb 46 ad 3d 69 a6 88 bd
       0.050605472 -0.036148023 0.084607564 -0.06672365
000370 d8 9b e6 bd e7 65 d3 3d e2 3a 98 bd 52 a8 e6 bc
       -0.112601936 0.10322171 -0.07433106 -0.028156433
000380 11 ed 26 be 5e aa c5 3d e1 bf 10 3e 74 ff a7 3d
       -0.16301371 0.096516356 0.14135696 0.08203021
000390 c4 59 c9 bd 62 cc 1c be e3 aa f9 bd 81 d9 ef 3d
       -0.098315746 -0.15312341 -0.12190797 0.117114075
0003a0 4b d3 e4 3d 29 db 35 3e 10 ea c7 3d cc b4 26 3d
       0.111731134 0.17759384 0.09761441 0.040699765
0003b0 c7 f6 04 bd 94 d8 0f be 3d 1b 38 be da 02 3f be
       -0.032461908 -0.14047462 -0.1797914 -0.18653432
0003c0 c6 f8 79 3d d6 45 d5 bd a5 4a 52 bd fc cb f4 bd
       0.061028264 -0.10413711 -0.051340718 -0.119529694
0003d0 e1 14 44 bd 36 59 12 be bf ee 08 be f0 1b 84 3d
       -0.047871474 -0.14291844 -0.13372324 0.06450641
0003e0 7a 18 8d bd 3d f7 f1 3d 6a 27 39 bd 5b 57 e5 bd
       -0.06889434 0.11814735 -0.045203604 -0.11198302
0003f0 62 e3 59 bd 9f a3 c0 bd 85 ff 33 bd 94 a4 1a be
       -0.053195365 -0.09406208 -0.043944854 -0.15101844

proj.bias f4 [64]
000000 32 0a da bd cd 7a 2b be 90 de 7c bc bc 50 ff bc
       -0.10646476 -0.16746064 -0.015433922 -0.031166427
000010 c8 69 15 3e 32 a9 0e bd fc e2 30 3d a2 49 da bd
       0.14591134 -0.034829326 0.04318522 -0.106585756
000020 aa da 2d 3e 76 03 17 3e 41 9b 3f be 91 50 6f bd
       0.16977945 0.14747414 -0.18711568 -0.058426443
000030 2f ed 0e be a3 f4 e8 3d 0a c9 18 be 78 61 e0 bd
       -0.13957666 0.11374786 -0.1492044 -0.10956091
000040 a9 b3 32 3e 0f 12 50 be 2e 90 f2 3d 12 c4 55 3d
       0.17451347 -0.20319389 0.11843906 0.05218894
000050 21 bd 2f 3e 49 70 b3 bd 86 f2 14 3e ab 95 a3 3a
       0.1716199 -0.08761651 0.1454564 0.0012480518
000060 d8 bc bb 3a 2e 3f eb 3d 9d c0 32 be f3 4e 2d be
       0.0014323248 0.1148666 -0.17456289 -0.16924648
000070 29 75 51 3e c6 91 05 be dc 1b 1f be 16 ab 01 bd
       0.2045485 -0.1304389 -0.15537971 -0.0316573
000080 0b be a9 bd 5f c9 11 bd a6 37 15 be c0 88 5f 3d
       -0.08288201 -0.035592433 -0.1457201 0.054573774
000090 14 dc 41 be d2 6a 0f 3d ce f6 d0 3d 4f a6 47 3d
       -0.1893161 0.03501398 0.10203324 0.04874259
0000a0 25 d8 d0 3b 78 71 58 3d a8 bc 22 bd fb 1d 66 bc
       0.0063734227 0.052842587 -0.039730698 -0.014045234
0000b0 da 43 bc bd 86 1a 1d be d1 a3 a4 bd df 5b 51 3e
       -0.09192629 -0.15342149 -0.08039058 0.20445202
0000c0 94 b0 4c bd 53 01 58 3d 6d ee 21 3e af cb 4d 3a
       -0.049973086 0.052735638 0.15813608 0.00078504806
0000d0 41 fa f8 bd d4 c2 22 be c3 bb 4d bd 59 7e b6 3d
       -0.12157107 -0.15894634 -0.05022789 0.08910818
0000e0 38 a9 1d be 55 25 ca bc 35 57 ba 3d 38 da 0c 3e
       -0.15396583 -0.024676004 0.09098665 0.13755119
0000f0 19 40 99 3d ce 58 6a 3d e8 01 1f 3e 52 bf d7 3d
       0.07482929 0.057213597 0.15528071 0.10534538

enc.layers.0.self_attn.in_proj_weight f4 [192, 64]
000000 22 3d be bd 19 51 c8 3d f6 36 b4 bc a2 42 dd 3d
       -0.09289004 0.09781093 -0.021998864 0.10803725
000010 3d f0 2a be 52 be f7 3c 79 ce ae 3c 0f 0a 28 3d
       -0.16693206 0.030242119 0.021338688 0.041025218
000020 5c f5 d9 bd bc f5 07 3e 5d 1f ab bd 4b 73 12 3e
       -0.10642502 0.13277334 -0.083555914 0.14301793
000030 78 4e d9 3d 47 ea 94 3c ec 9c 0c 3e 85 a0 90 3d
       0.1061067 0.018178118 0.13731736 0.07061867
000040 84 8d 57 bd 6b b2 41 3d b8 f6 55 be f3 e9 81 3d
       -0.052625194 0.047289293 -0.20894897 0.063434504
000050 b7 8f 9f 3d 4c 6e 16 3e 4a 13 55 bd 9e c7 3a be
       0.07791083 0.14690512 -0.05202035 -0.1824021
000060 a6 79 84 bd 16 b5 7c bc 06 ea 85 bd ae 28 69 3e
       -0.06468515 -0.015424034 -0.06538777 0.22769424
000070 ad ed ff bc 27 7d 78 3d e3 1f 2e 3e 6a 02 d4 3d
       -0.031241262 0.06066623 0.17004351 0.10352023
000080 38 c2 91 bd 6e 7f 12 3e 37 42 26 3e 2a 38 59 3d
       -0.071171224 0.14306423 0.16236196 0.053032078
000090 9e ac 6e 3c 84 e7 dd 3c 9b ee 1e be 7c eb 95 bd
       0.014567522 0.027087934 -0.15520708 -0.07320306
0000a0 b9 ad 85 bd f0 73 82 bb 43 4f 48 3e 15 c9 29 be
       -0.065272756 -0.003981106 0.19561486 -0.16580613
0000b0 54 b5 f4 bb 72 df e2 bb f9 f5 6d bd 53 c2 b5 3d
       -0.007467905 -0.0069236094 -0.058095906 0.08874955
0000c0 a0 d4 b7 bd cb 78 b9 bd ae c7 81 be 50 c3 d3 bc
       -0.08976102 -0.090562426 -0.25347656 -0.025849968
0000d0 fb 8c 1c bd dd 98 5f bd 69 d1 3f 3e 75 7c bb 3d
       -0.038220387 -0.05458914 0.18732227 0.09154598
0000e0 f0 45 49 3e 5d 62 00 3e 3a 41 f8 bb 4e ce 0a bd
       0.19655585 0.12537523 -0.007576135 -0.033888154
0000f0 40 b4 ee bd fd aa 87 3d 18 a2 39 be 8c a8 8e bc
       -0.11655474 0.0662441 -0.1812824 -0.017414354
000100 bc 4c ea bd 8b d7 10 be 62 88 e2 bd 1f 80 b3 bd
       -0.11440417 -0.14144723 -0.11061169 -0.087646715
000110 9c e5 62 bd 30 fb b3 bd 35 aa 36 bd 9d 1e 3e be
       -0.055394754 -0.087881446 -0.044595916 -0.18566366
000120 3a 5b 30 3e cb 9d fc 3d 50 fd 49 be 24 19 3e be
       0.172223 0.12334784 -0.19725537 -0.18564278
000130 46 a1 05 be c1 8c fc 3d 6a 50 b8 3d 4a 4a 86 bd
       -0.13049802 0.12331534 0.08999713 -0.06557138
000140 a0 25 17 3e de 3b 0e be 55 f3 0e 3c 97 46 10 3c
       0.14760447 -0.13890025 0.008725007 0.008805892
000150 56 f0 f3 bd 12 be b1 bd 91 f6 9d 3d 82 c2 dc 3d
       -0.11911075 -0.08678831 0.077130444 0.10779287
000160 3a b6 c4 bd b0 67 54 3b 40 0d a7 bd 7c 25 64 bd
       -0.096050695 0.0032410435 -0.08156824 -0.05569981
000170 20 3c 8c 3d f5 ab 1c be 58 c7 94 3d b6 eb ef bd
       0.068474054 -0.15299971 0.07264584 -0.1171488
000180 f9 e2 8c bd 27 a8 95 3d 76 b8 29 be 0a 9d 96 bd
       -0.06879229 0.07307463 -0.16574273 -0.073541716
000190 14 a0 5b be 63 1d 68 3d d7 6a 7c 3d 2c 38 c9 3d
       -0.21447784 0.05666865 0.061625328 0.09825167
0001a0 3b e1 1b 3c ad a5 4a bd 49 2a cf bd 05 68 c3 3d
       0.009514148 -0.049474407 -0.10115487 0.095413245
0001b0 30 5a 1d be 7f cc 14 be 55 84 90 3c 1e 56 7a bc
       -0.15366435 -0.14531134 0.017641226 -0.015279321
0001c0 51 79 a8 3c d6 f0 b1 bc c9 1e 28 3e b0 e5 ff 3b
       0.02056566 -0.021721285 0.16417994 0.0078093633
0001d0 44 6b 4d be f5 e3 53 be 0a 2c bc 3c 83 30 02 3b
       -0.2006045 -0.20692427 0.022970218 0.001986534
0001e0 b5 c6 0e bb f8 20 b6 bc fa 77 94 3b a4 cf 0c 3d
       -0.002178592 -0.022232518 0.004530904 0.03437771
0001f0 c2 73 29 bd 96 7b 3e 3d 50 25 67 3e 28 63 8a 3d
       -0.04137016 0.04650458 0.22572827 0.06757194
000200 22 32 d1 bd ed c6 50 3d c3 13 1e 3e ef 1a f4 3d
       -0.1021464 0.05097096 0.15437226 0.119192
000210 cb a5 82 bb f2 93 be 3c e6 93 32 3d 2c fb 64 bd
       -0.003987049 0.023263905 0.04359808 -0.0559036
000220 a5 fd d4 bd 89 f8 7f 3b 79 c2 82 3d b8 4a ab 3d
       -0.10399941 0.003905805 0.06384749 0.08363861
000230 50 b0 43 bc 39 a1 ed 3d 84 e9 9e 3d f6 a1 60 bd
       -0.011943892 0.116030164 0.07759383 -0.054841958
000240 b8 4f 1f 3e ab 3c d9 bc 1e 3c aa b9 04 89 9f bd
       0.15557754 -0.026518187 -0.00032469718 -0.077898055
000250 4c c8 7d bd 5c 17 22 be b8 9b 74 3d 14 7e 2c 3e
       -0.061958596 -0.15829223 0.059718817 0.1684497
000260 0e 5f 64 3d 83 46 5e 3d 9e 40 f0 bd 86 2c e0 bd
       0.055754714 0.054266464 -0.11731075 -0.10945992
000270 5a 7e 30 bd c9 b7 3f 3d 8d 01 c9 3c ff 13 b6 bd
       -0.04308925 0.04680613 0.024536872 -0.08890533
000280 dc eb ff 3c 3d 06 a1 bd b3 c9 98 bd 00 7e 04 3e
       0.031240396 -0.07862518 -0.07460346 0.1293869
000290 a6 ce fe bd cf 39 30 3e 65 a3 3b bd 9a c7 43 3e
       -0.12441759 0.17209552 -0.045810122 0.1911911
0002a0 17 12 01 3d 8d 1c db 3d 71 0d 8f bd 8e 23 ec bc
       0.031511392 0.10698805 -0.069849856 -0.028825548
0002b0 97 62 09 be 46 7a 4c be 3b 8c aa 3d 42 cf 3f 3e
       -0.13416515 -0.19968519 0.08327528 0.18731406
0002c0 ef e6 c1 3c ef 8e 7b bd 7d 30 f1 3d ea 43 87 3c
       0.023669688 -0.06141561 0.117768265 0.016511876
0002d0 cb 6e 4f be 3b 94 2b be 11 06 38 3d 7e 90 79 bd
       -0.20257108 -0.16755764 0.04492766 -0.060928814
0002e0 58 38 c5 bd 6c 93 c0 bd be 61 9f 3d e0 ce 82 bd
       -0.09629887 -0.094031185 0.07782315 -0.063871145
0002f0 b3 d7 6c bd d8 39 b4 3d 70 be 32 3e c7 b5 0a 3e
       -0.057822894 0.08800095 0.17455459 0.13545905
000300 61 14 ac 3d bd 44 49 3d 39 0f 06 3e b0 43 10 3e
       0.084023245 0.04913782 0.13091744 0.1408832
000310 79 5c 3a 3d 09 f5 83 3d 8f e2 de 3c d1 0b 26 3d
       0.045498345 0.06443221 0.02720764 0.040538613
000320 fa 7d 78 3d 6d cf 7d bc 49 da c5 bd ce 9d 9c bd
       0.060667016 -0.015491349 -0.09660775 -0.07647286
000330 cc 7c c6 bd 35 71 c3 bd 4a ce 44 3d 0f cf 04 bd
       -0.09691772 -0.09543077 0.048048295 -0.03242403
000340 79 d1 3c be a8 c4 41 bd 04 5e ea 3c cf a4 df bc
       -0.18439282 -0.047306687 0.028609283 -0.027300267
000350 41 73 4e bd 6e 16 f6 3d 7b 16 73 bd b5 22 c5 bd
       -0.050402883 0.12015997 -0.05934761 -0.096257605
000360 f1 3d a9 bd 0a 4f d2 bd 89 4d c7 bd c9 7c b4 bd
       -0.082637675 -0.10268982 -0.097315855 -0.088128634
000370 f1 93 b3 bd 22 7c a9 3d 86 a0 3e 3e 30 87 78 3c
       -0.08768452 0.082756296 0.18615922 0.01516895
000380 a7 1d f5 3d 72 91 69 3d 56 9e 39 3b 77 38 a9 bd
       0.11968546 0.057023473 0.0028323135 -0.08262723
000390 a3 b0 28 3c be 82 e8 bd d8 ec 53 bc 29 52 d1 3c
       0.01029602 -0.11353062 -0.012934886 0.025551872
0003a0 a5 d9 e3 bd aa 77 5f bd d4 36 c2 bd ea bc 1d 3e
       -0.11125497 -0.05455748 -0.09483114 0.15404096
0003b0 86 6d 19 3e a2 c2 96 bc 2a 2e 32 3e 7f 69 0a be
       0.14983186 -0.018403355 0.17400423 -0.13516806
0003c0 c0 45 0a 3e 2c 1c bc bd 80 c4 03 bd 4b 06 bb 3d
       0.1350317 -0.09185061 -0.03216982 0.0913206
0003d0 e1 b6 fc 3d 22 97 a2 3d d1 47 25 3c 32 1d e0 bc
       0.12339569 0.079389825 0.010087923 -0.027357671
0003e0 91 f9 50 3e 9a 90 21 bd f6 4e ac bd 51 b4 f5 bc
       0.20407702 -0.039444543 -0.08413498 -0.029993208
0003f0 52 21 c7 bd da 2e 32 bd aa ef c6 bd 1c 9c 35 3d
       -0.09723152 -0.043501712 -0.09713681 0.04433833

enc.layers.0.self_attn.in_proj_bias f4 [192]
000000 8e 6d ac bd dd ae 7c 3d 96 52 55 3d cf 34 48 bd
       -0.084193334 0.0616902 0.052080713 -0.048878487
000010 c7 d5 1d be 34 26 8c bd c5 5e f5 bd f8 2f 64 bd
       -0.15413581 -0.06843224 -0.119809665 -0.05570981
000020 a6 0f e1 3d c4 26 28 3d 54 0c 0a be 9c 61 0d 3e
       0.10989313 0.041052595 -0.13481265 0.13806766
000030 24 b9 8c 3d b1 40 ef 3d 64 f7 e3 3d 4a 43 8b bd
       0.0687125 0.11682261 0.111311704 -0.06799944
000040 91 64 8a bd 1e ee b6 bc d5 10 62 3c 12 f6 55 bb
       -0.06757463 -0.02233034 0.013797958 -0.003264789
000050 34 c2 8c 3d b6 86 a1 3d 0b 86 c1 3d 94 79 9c 3c
       0.06872979 0.07887022 0.09449395 0.019100942
000060 7e b5 b1 3b c0 96 0f bd 1f cf 19 bc d2 d4 87 bd
       0.005423247 -0.035055876 -0.00938776 -0.06632389
000070 2a 58 95 3d 84 89 d7 bc c9 55 0f bd 32 f2 31 bc
       0.072922066 -0.02631069 -0.03499392 -0.0108609665
000080 b4 a1 10 bd 70 d2 e1 bc 3c 48 ba 3b 8b 8d a8 3c
       -0.035310462 -0.027566165 0.0056848805 0.020575305
000090 2c 55 bf 3c a0 e3 11 3d 52 7d b5 bd be 13 67 3c
       0.023356043 0.03561747 -0.088617936 0.014103828
0000a0 9e de a2 bc 95 10 d8 bc 49 24 84 3c 28 61 4a bc
       -0.019881543 -0.026375094 0.016130583 -0.012352265
0000b0 eb d6 07 3d 7e 9e a3 bc d2 07 0a bd fd 23 06 3c
       0.033163946 -0.019973036 -0.033698864 0.008187291
0000c0 48 57 ca ba f9 cb 3f bd 25 f3 d1 bc 81 79 e9 bb
       -0.0015437389 -0.046825383 -0.025628636 -0.00712508
0000d0 2e 26 43 3d d6 c1 81 bc 58 87 1c bc 53 18 4b 3c
       0.047643833 -0.015839498 -0.009553753 0.012395936
0000e0 e6 65 b1 3b 93 12 76 3d 26 f2 12 3e 6d 99 92 bc
       0.0054137586 0.060076308 0.14350185 -0.017895425
0000f0 9c 0d 15 3d dd ba 47 3e 56 15 d0 3c f7 fe f3 bc
       0.036389932 0.19504876 0.025400799 -0.029784663
000100 ea d9 08 ba d9 f6 a5 39 91 01 f2 39 d0 04 d0 b7
       -0.000522046 0.00031655168 0.00046159004 -2.4797773e-05
000110 05 73 a2 39 ff e8 a0 3a 95 df d3 39 95 21 9e 3a
       0.00030984744 0.001227647 0.00040411638 0.0012064452
000120 2d a8 ce 39 76 62 d8 3a 8d 64 4b ba 8a 88 a3 3a
       0.00039416683 0.0016508836 -0.00077588187 0.0012476605
000130 ba 23 3c ba c1 b0 a0 ba 52 72 01 ba fa 18 b8 39
       -0.00071769545 -0.0012259708 -0.00049379945 0.00035113824
000140 3c ff ee 39 b4 3f 2c 3a 7b f0 de 3a b1 b4 96 3a
       0.00045585062 0.0006570772 0.0017008925 0.0011497942
000150 08 98 74 ba af 34 8c 3a 43 e9 d3 b9 79 2c b9 b9
       -0.0009330516 0.0010696853 -0.0004041885 -0.00035319084
000160 cd 9f e0 b9 2d 24 76 ba f2 ea dc ba ad fe 60 ba
       -0.0004284367 -0.0009389546 -0.0016854687 -0.00085828715
000170 3a 02 e9 ba ee 84 22 ba 8b eb 85 b9 73 42 5b 3a
       -0.0017777153 -0.00061996176 -0.0002554323 0.0008364089
000180 59 eb e4 3a 28 82 4c 3a 0f d6 c6 b9 b5 da f3 b9
       0.0017465159 0.0007801377 -0.0003792499 -0.0004651152
000190 e4 f4 f7 39 a0 d7 c3 ba e9 48 59 ba 16 8c 9e 3a
       0.0004729397 -0.0014941581 -0.00082887575 0.0012096192
0001a0 fd 25 a2 ba c0 76 32 37 26 d1 2d 39 dc 36 47 3b
       -0.001237094 1.0637275e-05 0.0001657648 0.003039769
0001b0 0e aa 3c ba 8e ff 96 39 50 c7 89 39 b7 0e 46 ba
       -0.0007196971 0.00028800633 0.00026279176 -0.0007555293
0001c0 f2 1e 11 ba 38 26 c4 39 35 f5 d2 3a 01 d1 a7 ba
       -0.0005535922 0.00037412508 0.0016094806 -0.0012803377
0001d0 0c 2a a7 ba 24 c4 b1 39 59 9f 90 3a 8f 1d a8 ba
       -0.001275362 0.00033906207 0.0011033817 -0.0012826192
0001e0 2e 26 aa b6 81 d0 a9 ba 37 88 83 3a 8a 0a fb b9
       -5.0708395e-06 -0.0012955816 0.0010035102 -0.00047882303
0001f0 c6 40 ab 39 5b 3e 14 b9 76 c3 8d ba 39 d7 53 3a
       0.00032663922 -0.00014137609 -0.0010815698 0.0008081082
000200 d9 7d ba 3c 1c 98 85 3c c6 cf 8d 3c 95 1a 02 bd
       0.022765087 0.016307883 0.017310988 -0.03176363
000210 48 a4 e8 3b 58 d5 fa 3c 42 81 90 3d ce 28 ec 3c
       0.007099662 0.030619308 0.07055904 0.028828051
000220 2a e2 b3 bc cd f0 fc bc 0c c7 80 bc 30 ec 40 3d
       -0.02195843 -0.030876542 -0.015719913 0.047100246
000230 71 0c 2a 3d 66 b3 2f 3d bf c8 24 3d e1 86 81 3c
       0.04151577 0.042895697 0.04023051 0.015811386
000240 3c 71 df 3c fb a2 87 bc 02 b3 bf bc e8 5e 81 bc
       0.027275674 -0.016557207 -0.023400787 -0.015792325
000250 cb 74 a9 bc dd 54 c5 3c d3 18 a8 3a 8c a0 b0 3c
       -0.020685574 0.024088318 0.0012824781 0.02156093
000260 d5 69 94 3c e1 24 8c bc 46 52 a3 bc 1a 4b 3e bd
       0.01811687 -0.017107429 -0.019936692 -0.04645834
000270 b1 88 c2 3c 17 23 b2 3c da 80 ca 3c e3 41 7a 3c
       0.02374682 0.021745248 0.024719644 0.015274498
000280 28 4c 91 3c 42 27 89 3c 9f 0c 59 bd b6 45 8f bc
       0.01773651 0.016742352 -0.052990552 -0.017489295
000290 dd ee a1 bb 29 cd b9 bc 8e a2 a7 bc d8 a1 67 3c
       -0.004941805 -0.022680836 -0.020463254 0.014137708
0002a0 77 45 3c 3c a7 f6 e1 3c 2e 22 b2 bc 54 c0 05 3d
       0.011491171 0.027583433 -0.021744814 0.03265412
0002b0 04 67 a4 3c 0a 41 9c 3c d2 83 c3 bc d0 e5 b4 3a
       0.020068653 0.019073982 -0.023866568 0.00138014
0002c0 6a 8b 31 bb 63 f2 8a 3c 05 cf 9f bc 0b ea af 3c
       -0.0027091154 0.016961282 -0.019507894 0.021473905
0002d0 4a b2 72 bc 18 eb 99 bc 19 4d a9 3c dc 78 d3 3c
       -0.014813015 -0.01878886 0.020666646 0.025814466
0002e0 38 74 60 bc 28 70 ee 3c 11 ed b6 bc 5a 2f b0 bc
       -0.013699584 0.029106215 -0.022329839 -0.021506954
0002f0 ab 21 3a bc 15 ce e2 bc 87 55 a7 bd 5d 6a a0 bc
       -0.011360566 -0.027686158 -0.0817061 -0.019581968

enc.layers.0.self_attn.out_proj.weight f4 [64, 64]
000000 4e bf dd 3d 40 d3 33 3d 4f b4 ce bd 8a 82 76 bd
       0.10827504 0.043902636 -0.10092985 -0.060183086
000010 17 c7 3c bd 91 ad 4a 3d 1f b2 94 3c d2 e1 08 3e
       -0.046088304 0.049481932 0.018151341 0.13367394
000020 31 c1 2a 3d 14 b5 ce bd 51 2c 00 be 02 74 23 3d
       0.041688148 -0.10093132 -0.12516905 0.039905556
000030 21 4a ef bb e7 84 25 3e c7 ae 01 bd 53 22 4e ba
       -0.007302538 0.1616398 -0.03166082 -0.0007863391
000040 20 0e 0e bb 93 7c 49 bd d7 44 65 3d ba ad 14 bd
       -0.00216759 -0.04919107 0.055973854 -0.03629849
000050 3d c9 35 bd 1c 4a 5a bd bd 68 b8 3c c3 4f 38 3d
       -0.04438137 -0.053293332 0.02251088 0.04499794
000060 56 51 48 3b 6d 6e da bc 91 51 a5 3b a2 cf cb bd
       0.0030566058 -0.026663983 0.005045124 -0.09951712
000070 c8 f4 14 bd 67 33 86 bd 74 b5 cb 3b ab 94 04 be
       -0.036366254 -0.06552773 0.0062166993 -0.12947337
000080 99 c6 d0 3d a6 bb 93 bd cc f3 26 be 87 dc 60 3c
       0.101941295 -0.072135255 -0.16303939 0.013724453
000090 cd cf 34 3d b2 88 0b bd 8f 60 4b 3d 4a 0a 9f bd
       0.044143487 -0.03406591 0.049652632 -0.07765634
0000a0 5b 27 0a 3d 2d ba d6 3c 45 fb 0a be ef 35 1e bc
       0.03372894 0.026211822 -0.13572414 -0.009656413
0000b0 86 f0 86 3d 26 49 92 3d 61 36 87 3d d6 f8 8a 3d
       0.06588845 0.07142858 0.06602169 0.06785743
0000c0 9f 31 76 bd 20 15 70 bd c6 35 44 bd fc 10 56 bd
       -0.060105916 -0.058613896 -0.047902845 -0.05226229
0000d0 69 49 88 bc 2b 44 f0 bd 83 88 95 3d 09 db ee 3d
       -0.016636567 -0.11731752 0.07301428 0.116628714
0000e0 03 9e aa bc 2b 7d 72 bd b8 ce eb bd d0 91 a7 bd
       -0.020827299 -0.0592014 -0.11514038 -0.081821084
0000f0 40 42 4c 3d 39 a9 cc bc c6 45 fe bc 80 62 b9 3d
       0.04986787 -0.024983035 -0.03103913 0.090519905
000100 34 d5 6e 3b d1 44 03 bc 71 6e 4d bc 1c da b5 3d
       0.0036442997 -0.008012013 -0.012538538 0.08879492
000110 89 5e 88 3d 92 5f 1a be 11 63 dd bd 79 19 4b bd
       0.06658656 -0.1507552 -0.10809911 -0.04958484
000120 b1 2e a9 3d 35 2c d4 3d 3e 84 9e bd b6 63 38 be
       0.08260859 0.10359994 -0.07740067 -0.18006787
000130 d1 36 33 bd f1 a7 8c bd ce d8 33 3c af b9 08 bd
       -0.04375345 -0.0686797 0.010976983 -0.033380207
000140 b2 82 8f 3d 3a 8f 14 3c 82 8d c6 3d 90 ca c8 bd
       0.0700735 0.009067351 0.09694959 -0.09804261
000150 a1 5f aa 3d a8 8f c5 bc 5d 9a 65 bd 35 f9 f6 3c
       0.08319021 -0.024116352 -0.056055415 0.030148128
000160 0c db 0c be 7b 33 b0 3d 73 37 32 3d 42 33 33 3d
       -0.13755435 0.08603569 0.04350991 0.043750055
000170 a2 db ea 3c df c5 8c bc 3c 68 9d 3c 35 34 c6 3d
       0.028669182 -0.017184196 0.019214742 0.096779265
000180 a3 3a d9 bd e6 32 ce 3d 3f 02 42 3d 2e 30 31 bd
       -0.10606887 0.10068302 0.047365423 -0.04325884
000190 a7 63 aa 3b 85 59 00 3e 1a c6 0b bd 25 f2 90 bd
       0.0051998678 0.12534149 -0.03412447 -0.070774354
0001a0 0a d3 8a 3d dc 99 ae bd 60 e0 8f 3d 5c bf 5e bd
       0.06778534 -0.0852544 0.07025218 -0.054381713
0001b0 f5 09 a2 3b dc 73 7a 3d 50 3b 1c bd c5 cf 31 bd
       0.0049450346 0.06114565 -0.038142502 -0.043411035
0001c0 7a 4c 8e 3d 36 67 e4 bb 16 45 67 3c 0e 13 0b be
       0.069481805 -0.0069703115 0.014115592 -0.13581488
0001d0 6b 92 ae 3d 3a 9c 65 bb d9 7e 4e bd 8b a6 a2 bd
       0.08524021 -0.0035035745 -0.05041394 -0.07941922
0001e0 33 39 22 3b ad aa d4 3c 90 f3 be 3c 06 22 01 3e
       0.0024753332 0.02596029 0.023309499 0.12610635
0001f0 a3 cc ea bb fe 70 4d 3c 64 f2 e7 3d d3 f9 09 3d
       -0.007165508 0.0125391465 0.11325529 0.033685517
000200 c2 44 ae 3c 50 81 5f 3d 37 88 b1 3d 75 13 98 3b
       0.02127302 0.05456668 0.08668559 0.0046409913
000210 0b 1e 8b 3d e9 b4 e2 3d e5 2f 84 3d 5c 55 c7 3d
       0.067928396 0.11069662 0.06454448 0.09733078
000220 5d cb c0 3b 0a 64 84 bc 9e 4e da 3d b0 70 2f 3e
       0.005883618 -0.016160984 0.10659526 0.1713283
000230 70 97 a0 3d 2b 3d 3e 3d b2 e1 19 3e 5e 24 9a bd
       0.078413844 0.046445053 0.15027502 -0.07526468
000240 35 9f e9 3d 33 87 9b 3d 0d 5c 4c 3d 09 df 00 3c
       0.114073195 0.075941466 0.049892474 0.007865676
000250 bc bc 18 be bf 18 f1 3d ed 52 27 bd b0 ef 67 3d
       -0.14915746 0.11772298 -0.04085057 0.05662507
000260 e9 24 8f 3d 31 71 cc bd e9 97 80 bc 1a 0b c6 bd
       0.06989462 -0.09982527 -0.015697436 -0.09670086
000270 db df e9 3d d4 de 69 bd 3e b3 d3 3d d3 e4 7d 3d
       0.1141965 -0.05709727 0.10336922 0.061985802
000280 d1 6b 78 3d 12 a0 d4 3d b0 34 11 bd ac c2 ca bd
       0.060649697 0.103820935 -0.035450637 -0.09900412
000290 50 64 d7 3d a5 74 44 bc 98 c6 dc bc 08 15 02 be
       0.1051718 -0.011990701 -0.026950166 -0.12703335
0002a0 c8 7f 21 bd d4 45 14 bd 22 9e c4 3d 73 ff f5 3d
       -0.039428502 -0.036199406 0.09600474 0.12011614
0002b0 b0 2a fb 3d 7d 46 d0 3d da c8 cb bd 25 ef 8d bd
       0.12264001 0.101696946 -0.09950419 -0.06930379
0002c0 fc d0 81 bd fa 32 5e bd 45 7f 99 3d 70 3b 8e 3d
       -0.06338689 -0.054247834 0.07494978 0.069449306
0002d0 b9 c5 f2 3d 2a b0 a4 bc cd 28 b5 bd fa 59 3e bc
       0.11854119 -0.020103533 -0.08845673 -0.011618132
0002e0 94 fb 88 3d 75 f8 d3 3d 49 1b 99 3c cd 72 92 bd
       0.0668861 0.10350124 0.018689768 -0.07150803
0002f0 39 dd da bd 00 b1 ba bd 42 81 e8 3c 7e 71 9b bd
       -0.10686726 -0.09115791 0.028381947 -0.07590006
000300 1a 54 23 3e 62 a3 47 3d ec d4 39 bd 06 b3 3f 3d
       0.15950051 0.0487398 -0.045369074 0.04680159
000310 39 9f 7b bd 53 0e 14 3d 1d 80 3c bc f7 25 78 bc
       -0.061431143 0.036146473 -0.011505154 -0.01514577
000320 60 66 22 bd a1 6e 49 bb 58 ed 9b bd 79 aa 69 3e
       -0.039648414 -0.0030736106 -0.07613629 0.22818936
000330 ed 9b 8a bd 5a 40 42 bd bc 34 17 bd 2a 8b c0 bc
       -0.06768022 -0.04742465 -0.036915526 -0.023503859
000340 b8 3b f9 3b 78 aa a7 bb c0 1b 0d 3d 25 65 d1 bd
       0.007605996 -0.005116757 0.034450293 -0.1022437
000350 e1 10 be bc 4b 01 fe 3c 3e b3 7d 3d 9e ca 17 3e
       -0.023201408 0.031006476 0.061938517 0.14823386
000360 3a c5 ac 3d ab b2 63 bd b8 40 fd bd 7a bf 96 bd
       0.084360555 -0.055590313 -0.1236586 -0.0736074
000370 47 14 15 bd a2 92 82 3d 8d 36 f4 3c cc d2 b0 3d
       -0.03639629 0.06375624 0.029811168 0.08633956
000380 13 c0 82 3d c0 f0 0d bd 06 dd b2 bd 31 7d f8 3c
       0.063842915 -0.034653425 -0.08733563 0.030333133
000390 3e 9e fe ba e4 23 a5 3d 44 47 09 be 89 14 6a 3d
       -0.0019425822 0.08063486 -0.13406092 0.05714849
0003a0 53 4d 9c bd be e2 ae bd f9 86 65 bd 41 f6 c2 3d
       -0.07631936 -0.085393414 -0.056036923 0.095196255
0003b0 ba f7 ef 3d df bb 99 3d 70 ae 04 bd 44 52 c2 bc
       0.11717172 0.07506537 -0.03239292 -0.023720868
0003c0 2e a0 28 bd 90 87 41 bc 6f 98 dd bc 94 09 0a 3e
       -0.041168384 -0.011812106 -0.027050225 0.13480216
0003d0 c8 2a b3 3d ce ed dc bd 40 4d b6 3c 04 37 5c bd
       0.08748394 -0.10787545 0.022253633 -0.053763404
0003e0 09 09 1d bd 79 12 9b bd da 03 63 3c 07 7b 02 be
       -0.038338695 -0.07571883 0.013855899 -0.12742244
0003f0 9c 22 06 3e d8 4c 8c 3d da be 01 be dc 22 16 be
       0.1309914 0.06850594 -0.1267046 -0.14661735

enc.layers.0.self_attn.out_proj.bias f4 [64]
000000 82 5d a1 3c 3e a1 b2 bc c7 43 9f 3c d3 fd 90 3c
       0.019697908 -0.021805402 0.019441498 0.017699158
000010 b0 0e 94 3c 5e 5b a0 bc 0c 25 a7 bc 45 6f ad bc
       0.01807341 -0.019574817 -0.020403408 -0.021171222
000020 d9 a6 97 3c a6 4a e5 bb aa ef a7 bc a3 af a9 3c
       0.018512176 -0.006997424 -0.020500023 0.020713633
000030 f3 37 93 3c ab 49 af bb 81 f8 2c 3c 0b ff 97 bc
       0.017971015 -0.005349358 0.010557295 -0.018554231
000040 31 80 6f bc 58 ad b7 bc 8b 71 8a bc f0 24 c0 3c
       -0.014617966 -0.022421524 -0.016899845 0.023455113
000050 8f 1c 19 3c 4b c5 8f bc 0f 7e 95 3c 60 fb 00 bc
       0.009345188 -0.017550131 0.018248586 -0.0078724325
000060 c3 e2 31 3c 89 02 84 bc 70 90 83 3c be cc 95 bc
       0.010857287 -0.01611449 0.016060084 -0.018286105
000070 79 3c 9c 3c 4a c2 95 bc a8 85 97 bc 7c 42 9f bc
       0.019071804 -0.01828112 -0.01849635 -0.019440882
000080 f2 a4 95 bc 1c 60 c7 bc f8 1f 98 bc b6 94 8a bc
       -0.018267129 -0.02433782 -0.018569931 -0.016916614
000090 55 da bd bc 36 d8 95 3c f9 50 90 bc e9 49 80 3c
       -0.023175398 0.018291574 -0.017616736 0.015660243
0000a0 19 ca 95 bc c3 31 83 3c ae 82 08 bd a8 9d a1 3c
       -0.018284844 0.01601494 -0.03332775 0.019728497
0000b0 9d 57 ad 3c 84 4b b0 3c a6 f2 94 3c 92 94 96 3c
       0.021159941 0.021520384 0.01818211 0.01838139
0000c0 1f 9f 84 bc 81 89 52 bc 43 7a ab 3c 9f d7 95 3c
       -0.016189156 -0.012850166 0.020932322 0.018291293
0000d0 c9 68 97 bc fc 0f b0 bc c5 13 86 3c 63 c7 a2 3c
       -0.018482583 -0.021491997 0.016366849 0.019870466
0000e0 0c 4f a3 b9 98 54 0f 3c 8a 17 9c 3c 41 26 64 bc
       -0.00031148677 0.008748196 0.019054193 -0.013925136
0000f0 3e 28 14 bc 49 a8 9f 3c 01 30 b3 3c 4c 58 0b 3c
       -0.009042798 0.019489424 0.021873476 0.008504938

enc.layers.0.linear1.weight f4 [256, 64]
000000 58 7e f5 bc e3 62 97 bb 03 58 a3 bd 1f ab a7 bd
       -0.029967472 -0.0046199425 -0.07975771 -0.08186936
000010 89 c4 87 3d 0f 2b 77 bd 17 47 d0 3c d3 e9 07 bd
       0.06629283 -0.0603438 0.025424523 -0.033181977
000020 79 e6 c7 3d ad 7b 61 bc 1a f1 b7 3d 7b 69 9c 3c
       0.09760756 -0.013762397 0.08981533 0.019093266
000030 fc c5 b1 bd 97 3c 92 3a fe fb c9 bd 7e ed c7 3b
       -0.08680341 0.0011156973 -0.09862517 0.0061013093
000040 a9 9f 2e bd c3 30 65 bb b4 a9 e8 bc 97 d4 b2 bb
       -0.042632733 -0.0034971691 -0.028401233 -0.0054574716
000050 63 49 ac bd e9 d7 82 bd e4 8a f1 3d ec 4d 55 3d
       -0.08412435 -0.06388838 0.117940694 0.052076265
000060 da b2 6f bd b6 39 00 3d de e6 4f 3c 36 d3 5c 3d
       -0.058520176 0.031305037 0.01268932 0.053912364
000070 13 10 dc 3d b1 86 b5 bd dc 81 56 bd af f1 b4 3d
       0.107452534 -0.08863581 -0.052369937 0.0883516
000080 f1 46 09 3a df 9f be bd 63 a3 6d bd 23 fe b4 bd
       0.00052367063 -0.09307837 -0.058017146 -0.08837535
000090 a0 76 0d be ea 48 81 bd 03 04 0e 3e 59 d6 0a 3c
       -0.13814783 -0.063127354 0.13868718 0.008473956
0000a0 78 91 7d 3d 1f 4e 03 be d3 c1 a5 3d 23 76 f9 3c
       0.061906308 -0.1282277 0.0809361 0.03045184
0000b0 d5 b1 e2 bd b4 fb 19 bd 37 9b 69 3d b5 82 a0 bd
       -0.11069075 -0.03759356 0.05703279 -0.078374304
0000c0 c1 e8 78 3d 68 b9 bd 3d d8 93 c5 bd d8 0c 83 bd
       0.060768846 0.09263879 -0.096473396 -0.06398934
0000d0 05 01 7a 3d a6 c4 eb bc c6 06 b9 bd 0a f1 2d 3d
       0.06103613 -0.028780293 -0.09034495 0.0424662
0000e0 07 eb 00 be da 5f 76 3d 02 8a 4c bd 87 f3 86 3d
       -0.12589656 0.060150005 -0.049936302 0.06589418
0000f0 25 bf 3d bd ca 60 91 bc 7b 70 2b bd 80 1a b4 3d
       -0.046324868 -0.017746348 -0.041855317 0.08794117
000100 c5 8f 09 be 82 7a 46 3d 60 3a af 3d 06 1c d2 bd
       -0.1343375 0.048456676 0.08556056 -0.10259251
000110 b5 35 db 3d 95 af da 3d d9 e8 d1 bd 2a 35 52 bc
       0.10703603 0.10678021 -0.1024949 -0.012830058
000120 90 75 6a 3d 8d 1f bc 3a 13 2b 89 3d b5 12 ea bc
       0.057241023 0.0014352665 0.06697669 -0.028573373
000130 05 9e 7c bd f4 17 70 3c bc e1 3e 3d ba 64 95 3d
       -0.061674137 0.014654148 0.046601996 0.07294603
000140 a7 81 e0 bd ea db 6c bd a9 d0 a4 bd 51 21 b5 bc
       -0.10962229 -0.057826914 -0.08047611 -0.022110613
000150 fd e2 3b bc 81 50 be bd 17 b7 26 bd 18 b2 b6 bd
       -0.011467692 -0.09292699 -0.04070195 -0.089206874
000160 8d b7 d3 bd c4 ce 63 3d ab 8f 4c 3d ad 73 a5 bd
       -0.10337744 0.05561711 0.0499417 -0.08078704
000170 70 45 0f 3e b1 99 c9 3c 8f 2c f3 bd 9e 7d e9 3c
       0.13991332 0.024609419 -0.11873733 0.028502282
000180 9f 09 63 bc 2d 5b d8 3d dd ce 09 3c 14 7c 92 bd
       -0.013857274 0.105642654 0.008411136 -0.07152572
000190 0f b1 dd 3d ac 40 b8 bd cb c0 f6 3c e1 d2 00 be
       0.10824787 -0.0899671 0.030121228 -0.12580444
0001a0 fa cd 38 bc 5b 51 61 3c 94 76 cc bd 68 d7 b2 bd
       -0.011279577 0.013752307 -0.099835545 -0.08732492
0001b0 19 aa e2 bc e2 e3 05 3c ec 31 56 3d 75 37 7e bd
       -0.027669 0.008172007 0.052293703 -0.062064607
0001c0 a9 73 f6 3d f0 51 15 3d db 1e f8 bb c7 cc 55 3c
       0.12033779 0.036455095 -0.0075720376 0.013049311
0001d0 75 5b df bd 88 9b 2c bc 05 7c fe bd 35 7c 14 3e
       -0.10906116 -0.010535128 -0.124259986 0.14500506
0001e0 00 8c 8f bd 8b 43 04 be 2a 75 16 3d 6a bb 91 bd
       -0.07009125 -0.1291639 0.03673283 -0.071158245
0001f0 0f b1 b0 bd b8 c0 d1 bd 0e b4 1d 3c be 4f 89 3d
       -0.08627521 -0.10241836 0.009625448 0.06704663
000200 be c0 18 be 0e 18 1f bd dd a3 85 3b 90 6f 68 bd
       -0.14917275 -0.0388413 0.004078372 -0.05674702
000210 4e 2f 86 3d 57 ff e7 3d c9 2f 1a 3d 12 48 49 bd
       0.065519914 0.11327999 0.037643228 -0.049140997
000220 81 1f 21 3d 63 cf 0b bd 6c 48 b9 bc b0 4f 57 3d
       0.039336685 -0.034133326 -0.022617541 0.05256623
000230 6e 49 2e bd 31 e2 f9 3d cf 0b d8 3d b3 fa b4 3c
       -0.042550497 0.12201346 0.10549127 0.022092199
000240 d7 84 0f 3c 57 1f 4b bd ab 58 8f 3d 8f 1c 43 3d
       0.008759699 -0.049590435 0.06999334 0.047634657
000250 db 9e bd bd a1 91 dc bd fd 8d 9d 3c 31 7b 0b bc
       -0.09258815 -0.10769964 0.019232744 -0.008513258
000260 9d e8 ac 3d 76 a3 e5 3d 55 b9 7c 3c 70 43 7c 3d
       0.08442805 0.11212818 0.015425046 0.06158775
000270 b8 8a d2 3d 37 e9 ea bd 9d 9f c6 3d 43 0f 67 bd
       0.10280365 -0.114702635 0.096984126 -0.05641104
000280 01 62 9c bd 0e ed 15 3c b7 e6 d2 bd a9 ec 33 3d
       -0.0763588 0.0091507565 -0.102979116 0.04392687
000290 81 99 61 bc b5 4b 19 3c 96 41 4d bd 80 6f 8d 3d
       -0.013769508 0.009356429 -0.050111376 0.069060326
0002a0 96 cd 9a 3d 65 04 a2 3c 4f c1 a9 3d 9f 4e b1 bd
       0.07558744 0.019777486 0.08288824 -0.08657574
0002b0 8a bd 6b 3d 10 de c7 bd 8e 1e d2 bc 93 99 11 bc
       0.057553805 -0.09759152 -0.025649335 -0.008886713
0002c0 35 23 6b bb 7d 16 11 3e c5 bc c6 3c 7c a9 d9 3d
       -0.003587914 0.14168735 0.024259934 0.1062803
0002d0 0f ee 73 3c 27 e2 42 bd e2 9e 5f bd 1c 9c 9d 3c
       0.014888301 -0.047578957 -0.05459488 0.019239478
0002e0 c2 31 d8 bd 3d 9c 4d 3d 32 2a fc 3d 90 7a f0 3d
       -0.105563655 0.05019783 0.123127356 0.11742127
0002f0 03 8a c3 3d 07 98 12 3e 75 74 0b 3d 48 24 54 3d
       0.09547808 0.14315806 0.03404661 0.051792413
000300 0d d9 19 bd 5d c4 e7 bd ad 03 99 bd a6 89 02 bb
       -0.03756051 -0.1131675 -0.07471404 -0.001991847
000310 d6 41 b7 bd 84 81 c0 bd f6 2a bb 3c d9 d0 82 bd
       -0.08948104 -0.09399703 0.022847634 -0.06387491
000320 d2 dc d4 bd cb f3 b6 bd d6 81 47 3d 60 7d be 3b
       -0.10393681 -0.089332186 0.048707806 0.0058132857
000330 37 c1 e9 bd b5 34 c4 bd 10 35 6a 3d 9c 39 ea 3d
       -0.11413806 -0.095803656 0.05717951 0.11436769
000340 73 c3 1d 3d 7c 53 72 3d 07 5b 2f bb 39 a9 42 3d
       0.038516473 0.05916165 -0.0026757137 0.047524665
000350 1e 17 7a 3d ed a5 ad bd 32 c0 8a 3d a4 75 eb bc
       0.061057203 -0.084789135 0.067749396 -0.028742619
000360 4f 59 58 3d 48 ab 03 be e0 c9 90 bd 21 0d 9b bd
       0.052819546 -0.12858307 -0.070697546 -0.075708635
000370 e4 3b 4d bd 17 ed fa 3d 2c 56 88 bd 5f 05 8d 39
       -0.050105944 0.122522525 -0.06657061 0.00026897617
000380 0d 88 1e bc c1 a0 3a 3c 33 8b 83 bd 7e b6 79 bd
       -0.009675992 0.011390866 -0.064230345 -0.060965054
000390 a2 1f e2 bd 81 3e 28 3c cd c1 e8 bd 2d 3c df bd
       -0.1104119 0.010268808 -0.113650896 -0.109001495
0003a0 63 39 d8 3d db e5 90 3d 11 b4 0d bc 32 dd 2f bd
       0.10557821 0.070750915 -0.008648888 -0.042935558
0003b0 9c 8a d6 3d 90 f3 3d bc e7 c3 c8 bd 43 7b b4 3d
       0.104756564 -0.011593714 -0.098029904 0.08812573
0003c0 83 61 d8 3d 88 32 fd 3a d4 a5 c8 3d b5 50 a8 bd
       0.10565474 0.0019317428 0.09797254 -0.08218519
0003d0 d8 99 b5 bc 6d 89 a3 3d ab a4 ee bd e4 dc ef bd
       -0.022168085 0.07985196 -0.11652502 -0.117120534
0003e0 fa e4 4f bb 40 e5 47 3d 88 48 1a 3d 51 6c 6c bd
       -0.0031722174 0.048802614 0.037666827 -0.057720486
0003f0 54 c5 d1 3d 93 12 04 3e 11 fe cf bd f8 e1 f2 bd
       0.102427155 0.1289771 -0.10155881 -0.11859506

enc.layers.0.linear1.bias f4 [256]
000000 61 69 1b bd 83 c6 d2 bd 16 19 9a 3d 51 a7 77 bd
       -0.037942294 -0.10291769 0.07524316 -0.0604623
000010 2d 29 1c 3b 53 4c 41 bd 9d 61 0b bc 27 2f 12 3e
       0.0023828254 -0.04719193 -0.00850716 0.142758
000020 36 e9 59 3d 4c d2 fe bc 4c ee d5 3d b0 cb a8 bd
       0.053200923 -0.031106137 0.10445842 -0.08241975
000030 2e 82 d7 3c af 10 d7 bd 24 fc 36 3c ac f7 8a bd
       0.026307192 -0.10501229 0.011168513 -0.06785521
000040 fc 0b c1 3d de c7 35 3b b5 d1 0c 3d a3 4b 63 bd
       0.09426114 0.0027737538 0.03437968 -0.055492055
000050 02 da d9 3d eb c4 0c 3e c9 f2 dd 3d 2c 16 cf bd
       0.10637285 0.13746993 0.10837323 -0.10111651
000060 fe fc cd bd 08 1c 78 bd 82 c2 a7 3d 1c 1f a8 3d
       -0.1005802 -0.060573608 0.08191396 0.08209059
000070 32 1d 22 3d 1d 6f 98 bd 8d d6 c4 3d 7f 8e b1 bd
       0.039578624 -0.07443068 0.09611235 -0.08669757
000080 5a 41 cc bd 72 fc dd bc 34 4c 6a 3d 34 76 72 bd
       -0.09973402 -0.027097914 0.05720158 -0.05919476
000090 19 6d be 3d 7b 1a ae 3d 7d 62 a2 3d 68 72 bc bd
       0.092981525 0.085011445 0.079289414 -0.09201509
0000a0 97 5a 1d bc 86 44 f7 bd c8 14 e2 bc 97 79 82 3d
       -0.009604118 -0.12073617 -0.0275978 0.06370848
0000b0 1a bc 39 3a 5a 6e dc 3d bf 2f c7 3d cf 71 9c bb
       0.0007085219 0.107632354 0.09725904 -0.004774309
0000c0 01 05 14 3d 26 15 9c 3d ee bd 82 3c 2d e1 d1 bc
       0.036137585 0.07621221 0.015959706 -0.025620067
0000d0 68 dd d0 3d fa 76 9b bd f3 7f 00 bd 3f a8 12 bd
       0.1019848 -0.07591052 -0.031372022 -0.035804983
0000e0 cc ce ec 3d 85 bc b8 bd 50 21 bf bd 73 8e 07 bd
       0.11562881 -0.09020332 -0.09332526 -0.033094835
0000f0 1b 75 a0 bc 03 16 b6 bd 74 7e c7 bd 8a 91 1a 3d
       -0.01958709 -0.08890917 -0.09740916 0.037736453
000100 38 8b f5 3d cb a2 1c 3c 69 3a dc 3c c5 28 b9 3d
       0.119894445 0.009560297 0.02688332 0.09040979
000110 d9 81 97 3c f6 d9 74 3d f4 41 35 3d b8 28 39 bd
       0.018494533 0.059778176 0.04425235 -0.045204848
000120 6f c4 8a 3d 1a 70 85 3b 05 db 68 3c 84 c2 ee 3d
       0.06775748 0.0040722014 0.014212375 0.11658195
000130 d9 fa a8 3d 34 3f fc 3c c9 e2 47 bd a1 c7 ab 3c
       0.082509704 0.030791856 -0.048800264 0.020969214
000140 e6 d8 91 bd 5a 45 6e bc 12 94 9c bc c4 5b 33 3d
       -0.07121448 -0.014542902 -0.019113574 0.043788686
000150 17 9a f7 3c 83 38 de 3c 8f 65 8a bd 69 b5 eb ba
       0.030224843 0.027126556 -0.06757652 -0.0017983142
000160 45 0a 47 3c b8 f7 f0 3d 8d 0b d7 bc 64 fa 73 3d
       0.012148445 0.117659986 -0.026250625 0.059564963
000170 bb 6d 2a bb 4f ce c1 3d 2a 4b bd bd e4 f3 ba 3d
       -0.0026005346 0.09463178 -0.09242852 0.0912855
000180 10 4b 51 bd 49 87 b3 bd b8 69 a2 bd 73 e5 96 3c
       -0.051096976 -0.08766038 -0.079303205 0.018419957
000190 1a f2 40 3d 87 d6 59 bd 27 b2 26 bd a7 1d b5 bc
       0.047105886 -0.053183105 -0.040697243 -0.022108866
0001a0 f2 8c d6 bc f1 d0 70 39 cd 0c e9 3d e2 da b2 bd
       -0.026190255 0.0002296602 0.11379395 -0.08733155
0001b0 e9 12 46 bd 11 6d 12 3d 38 2a 39 bd 4b 8a c2 3c
       -0.048357878 0.035748545 -0.04520628 0.023747584
0001c0 b6 2f dd 3d 5a ae 88 bd 0c 76 06 be 0c 2a 1b 3d
       0.10800116 -0.0667388 -0.13130969 0.037881896
0001d0 ff 49 0d 3e 93 3a a6 bd 57 bb e4 3d c1 c8 56 bc
       0.13797759 -0.08116641 0.11168545 -0.013109387
0001e0 44 c4 0e bd d2 84 c3 3d 45 0f 11 3e 46 c8 3e 3d
       -0.034855142 0.09546818 0.14165981 0.046577714
0001f0 97 27 bc bc e5 41 67 bd bb 0e 82 bc 67 83 f2 bd
       -0.022968097 -0.056459326 -0.015876165 -0.11841469
000200 43 b9 30 3d f4 80 96 3d 98 5d c8 bc c6 26 a5 3c
       0.04314543 0.073488146 -0.024458691 0.02016009
000210 d2 82 74 3d ad 81 9e 3d a6 b7 19 3d 9b 1c 93 3d
       0.059695072 0.077395774 0.037528656 0.071831904
000220 d3 9f a3 bd 6c b9 27 3d c9 8a 9a 3d e6 e1 aa bd
       -0.079894684 0.040948316 0.075460024 -0.08343868
000230 9e 3f b1 3d 5f a7 e9 bd 6b 89 4b bd 55 6f 2e bd
       0.08654712 -0.11408877 -0.0496916 -0.042586643
000240 83 dc 22 bd f8 fb 6d 3d aa ea 6b bb 94 6e 8a 3d
       -0.039761078 0.058101624 -0.0035998025 0.06759372
000250 d8 3c ae bd e8 ba 59 bd a6 d2 ee bd 04 94 8f 3d
       -0.08507699 -0.053156763 -0.11661272 0.070106536
000260 da 84 84 bd a0 e7 bf bd 7b 63 aa bd ea 63 ff bd
       -0.06470652 -0.09370351 -0.08319756 -0.12470229
000270 55 e9 36 bd de d6 8f 3d a8 39 18 3d b5 78 90 bd
       -0.044656117 0.070234045 0.03716436 -0.07054273
000280 f2 05 72 3d bc bf 8a 3d 70 0f b5 ba ce 22 03 3e
       0.0590877 0.06774852 -0.0013813805 0.12806246
000290 f8 3c 11 3e 66 0c db 3d f1 3b d3 bd 77 bb 80 3d
       0.14183414 0.10695724 -0.10314167 0.06285756
0002a0 44 69 ca bd cf b0 6d bd e3 4f f8 3d 9d cf d4 bb
       -0.09883359 -0.058029946 0.12124612 -0.006494476
0002b0 96 5a 01 be 85 96 80 bc f8 e6 d2 3d 37 2f 8b bd
       -0.12632212 -0.015696773 0.1029796 -0.06796115
0002c0 c7 db e8 3d 83 da 19 bd 40 40 c5 3d 73 e9 f8 3c
       0.11370044 -0.037561905 0.09631395 0.030384755
0002d0 df a8 a2 3d 80 4d cc 3d fe ad 6a bd ac e1 d8 3d
       0.07942366 0.099757195 -0.057294838 0.105899185
0002e0 71 e2 81 3b 09 e5 37 bc d8 f4 7a bd 9d 74 d9 b9
       0.0039637615 -0.01122404 -0.061268657 -0.0004147635
0002f0 fe 90 82 3d 14 cf b1 3d 63 10 bd 3c 7a b3 b8 3d
       0.06375311 0.08682075 0.023079103 0.090186074
000300 88 a9 bb bd 4d 87 e6 bd a3 22 dc bb af f8 03 be
       -0.09163195 -0.11256275 -0.006717996 -0.12887834
000310 52 3f 17 3b 3c 4e b2 bd bd d4 39 3d 9a f8 a4 bd
       0.0023078513 -0.08706328 0.0453689 -0.080552295
000320 79 b5 9f bd ea d4 d3 3d d3 1c 06 bd de e6 c3 bd
       -0.07798285 0.103433445 -0.032742333 -0.09565519
000330 82 56 da 3d cf 67 00 3e 03 1b 90 3c e8 6a f7 bc
       0.10661031 0.125396 0.017591005 -0.030202344
000340 89 92 1e bd 5f 01 8e bd 46 44 7b 3b 38 72 a0 3c
       -0.038713966 -0.06933855 0.0038340255 0.019585714
000350 b3 fd d0 bc 9b c9 4b bd 8c 80 08 3e 22 07 82 bd
       -0.025511598 -0.049752813 0.13330287 -0.06349017
000360 e9 71 1d bd 67 fe 13 3e 57 83 ce 3c c9 c1 ec 3c
       -0.03843871 0.14452516 0.025209112 0.028900998
000370 b5 b2 a7 3d e7 a0 1d bc 83 fc 35 3c 3d fd 8e 3d
       0.081883825 -0.009620882 0.011107567 0.06981895
000380 59 85 e4 3c a9 cb 90 bd fe 4e b9 3c a6 fa 04 bd
       0.027895616 -0.07070095 0.022620674 -0.0324656
000390 d4 91 08 3e 0a 2f eb 3c 42 8d 6a 3d eb 79 06 3e
       0.13336879 0.028708953 0.05726362 0.13132446
0003a0 21 2f 11 bd 10 54 94 3d 1e 65 bc bd f4 b5 14 3d
       -0.035445336 0.07242596 -0.09198974 0.036306337
0003b0 14 62 df 3d 8e 5d 21 bd 2b e1 ce 3a 36 e4 ed 3c
       0.10907379 -0.03939586 0.0015783658 0.029039484
0003c0 ef 88 66 bd 93 21 8a bd ca 84 52 bd fb c3 f1 bd
       -0.056282934 -0.06744685 -0.05139617 -0.118049584
0003d0 f8 f7 c0 3c 1e 24 6c bc b1 78 cd 3d c6 5d 6c bd
       0.02355574 -0.014412908 0.10032786 -0.057706617
0003e0 43 40 eb 3d 7b 4d 91 bd 7c d1 d2 bd 23 0a 86 3d
       0.11486866 -0.07094856 -0.10293862 0.06544902
0003f0 87 03 20 bd cd c3 8c bd 1a 85 80 bd 2f c2 55 bd
       -0.039065864 -0.068732835 -0.06275387 -0.05218714
