model_artifacts/dl_tcn_tuned_22400_23900.pt (torch, 378493 bytes, 20 tensors)

net.0.weight f4 [64, 30, 3]
0	0x3db64b43	0.08901074
1	0xbda88945	-0.08229307
2	0x3cfd5488	0.030924097
3	0x3dbe5b22	0.09294726
4	0xbd7c2e37	-0.06156751
5	0xbc67ad9d	-0.014140514
6	0xbd6faf8d	-0.058517028
7	0x3c9dd864	0.019268222
8	0xbd8017e9	-0.062545605
9	0x3d84f0d2	0.06491245
10	0x3d0a1ea8	0.033720642
11	0x3dbed17b	0.09317299
12	0x3dfee059	0.12445135
13	0xbd937c94	-0.07201496
14	0xbd52739d	-0.05137979
15	0x3d2088b7	0.03919288
16	0x3dc81e0a	0.097713545
17	0xbd9bb8f8	-0.07603639
18	0x3dee1207	0.11624532
19	0x3dbca0a7	0.092103295
20	0xbce6b1c7	-0.028160943
21	0x3c715a96	0.01473107
22	0x3d0650ab	0.032791775
23	0xbdbf247a	-0.09333129
24	0xbcbaff24	-0.022826739
25	0x3dcbebc1	0.09957076
26	0xbdaf44dd	-0.085580565
27	0x3d91f7ac	0.07127318
28	0xbdcb94ca	-0.09940489
29	0x3d9976d7	0.0749337
30	0xbdac64cc	-0.08417663
31	0xbdb3cd09	-0.08779342
32	0x3dc589f5	0.09645454
33	0x3b61e2cb	0.0034467455
34	0x3d368718	0.04456243
35	0xbc851789	-0.016246574
36	0x3da4ff41	0.08056498
37	0x3d528191	0.051393095
38	0x3c8d8235	0.017274002
39	0x3cdf61f1	0.027268382
40	0x3da4fcbb	0.08056017
41	0x3bdc3b2a	0.00672092
42	0x3da2e894	0.07954517
43	0x3d8da905	0.069170035
44	0xbd6018ab	-0.054711025
45	0xbbaf5fbc	-0.0053519886
46	0xbdc79f2b	-0.09747156
47	0xbca554d3	-0.020182049
48	0xbc87e909	-0.016590612
49	0x3db4fb6e	0.08837019
50	0x3db409e6	0.087909505
51	0x3b4619cc	0.0030227778
52	0x3d0e5451	0.03474838
53	0x3cf0d5eb	0.029398879
54	0x3d4e092d	0.05030172
55	0xbcca5f10	-0.024703532
56	0xbd847ccd	-0.06469116
57	0x3db1405d	0.086548544
58	0x3d2817df	0.04103839
59	0xbd643b1c	-0.055720434
60	0xbdcdc141	-0.10046626
61	0xbab99b82	-0.0014160725
62	0x3ca38e27	0.019965244
63	0xbdc29a25	-0.09502057
64	0x3cf06118	0.029343173
65	0x3d8ec9c1	0.06972075
66	0x3da7543a	0.08170362
67	0x3db9c7c9	0.09071309
68	0x3d821100	0.06350899
69	0x3db84233	0.089970015
70	0x3bb835d5	0.0056216517
71	0xbd8e3b07	-0.06944852
72	0x3b1ca580	0.0023902357
73	0xbd8c0fdc	-0.068389624
74	0xbc9f1893	-0.019420898
75	0xbd995705	-0.07487301
76	0xbca581be	-0.020203467
77	0xbcce131e	-0.0251556
78	0x3d528171	0.051392976
79	0x3d9f4cd3	0.07778325
80	0x3dbed28a	0.09317501
81	0x3dd5d27e	0.10440539
82	0xbdd327d4	-0.10310331
83	0x3cdd4c54	0.027013935
84	0xbdec4d7d	-0.11538217
85	0x3bc44a9d	0.00599034
86	0x3d9090f1	0.070588954
87	0x3d5d2d2a	0.05399815
88	0xbd82f25e	-0.06393884
89	0x3ca00644	0.019534238
90	0x3d60d549	0.054890905
91	0x3c8c504c	0.017128132
92	0xbdbc586e	-0.09196554
93	0xbd89a6b2	-0.06721248
94	0xbda3d467	-0.07999497
95	0x3d935a4f	0.07194959
96	0x3d2f1778	0.04274699
97	0x3daa1dc0	0.083064556
98	0x3dbbc113	0.09167685
99	0xbb083015	-0.0020780612
100	0x3dd43367	0.10361367
101	0xbcfea2f8	-0.031083569
102	0x3c1011e6	0.00879333
103	0x3db56810	0.08857739
104	0xbd8ebfda	-0.069701865
105	0xbd9fd7f5	-0.078048624
106	0x3cd18ee9	0.02558084
107	0xbd926326	-0.07147817
108	0xbd6c3b44	-0.057673708
109	0x3db4d4d5	0.08829657
110	0xbd0ac31f	-0.03387749
111	0xbc3422e2	-0.010994645
112	0x3dc9c0da	0.09851237
113	0x3db5ee5b	0.08883353
114	0x3c16e952	0.009210901
115	0xbcafa005	-0.021438608
116	0x3d5fba56	0.054621063
117	0x3be3c3dc	0.0069508385
118	0xbcea8451	-0.028627547
119	0x3d16a5c5	0.036779184
120	0xbe1eb86f	-0.15500043
121	0x3d993b41	0.07482005
122	0xbd19ae73	-0.037519883
123	0xbdc0ac41	-0.09407855
124	0xbdc8ad7e	-0.09798716
125	0x3af96ce6	0.0019029647
126	0xbd8c3410	-0.06845868
127	0x3d38d5b0	0.045125663
128	0x3d9c52fd	0.07633016
129	0xbd9bacd8	-0.07601327
130	0xbad4739f	-0.0016208774
131	0xbd4bba1e	-0.049738042
132	0xbd291a18	-0.04128465
133	0x3d370225	0.04467978
134	0xbd9e30a0	-0.07724118
135	0xbd6c089a	-0.05762539
136	0xbd372f3f	-0.04472279
137	0x3d768863	0.060188662
138	0x3d508aca	0.05091361
139	0xbd8294ea	-0.06376059
140	0xbdc5688c	-0.09639081
141	0xbd24d43e	-0.040241472
142	0xbd9c3944	-0.0762811
143	0xbd63d777	-0.055625405
144	0xbd40d373	-0.047076654
145	0x3c9ecb79	0.019384133
146	0x3ca7d583	0.020487553
147	0xbd20b572	-0.03923554
148	0x3cd1243e	0.025529977
149	0x3d831c8a	0.06401928
150	0x3d63de12	0.055631705
151	0xbcdb2722	-0.026752058
152	0x3dd087dc	0.10182163
153	0x3d17d0bd	0.037064303
154	0x3d1594e3	0.036518943
155	0x3cf0aba7	0.029378725
156	0x3dcec7b4	0.10096684
157	0x3db2f920	0.08738923
158	0xbd5203df	-0.051273223
159	0x3dbad3e8	0.09122449
160	0xbd8c9e71	-0.06866158
161	0x3d535972	0.051598974
162	0x3d81dbc8	0.06340748
163	0x3ce91028	0.028450087
164	0x3d0ace5e	0.033888213
165	0x3bd7cc2e	0.0065856194
166	0x3dd2fb8c	0.10301885
167	0xbdce0289	-0.10059077
168	0xbdabdbf2	-0.083915606
169	0x3d9bd98f	0.076098554
170	0xbd1379eb	-0.036004942
171	0xbd2faecd	-0.042891312
172	0xbdc5c02f	-0.09655797
173	0x3d699aa6	0.05703225
174	0xbd8f969c	-0.07011148
175	0xbd873400	-0.06601715
176	0xbc9c3cb2	-0.01907191
177	0x3da145cf	0.07874643
178	0x3d14fb44	0.036372438
179	0xbd9d62c4	-0.07684854
180	0xbdd96cef	-0.106164806
181	0x3d0d2268	0.03445664
182	0x3d41780f	0.047233637
183	0xbd7a10d5	-0.06105121
184	0x3dcafd11	0.0991155
185	0xbd9312fc	-0.07181355
186	0xbe101eee	-0.14074299
187	0x3d8b0fab	0.06790098
188	0x3d95ba5c	0.07310936
189	0xbdf9af38	-0.121916234
190	0xbd33e309	-0.04391769
191	0xbdc6c6fc	-0.09705922
192	0xbe13a9da	-0.14420262
193	0x3c54db2a	0.012991706
194	0x3c6cf17c	0.014461871
195	0x3cd5f24f	0.026116518
196	0xbdb3a131	-0.08770979
197	0xbaff59f0	-0.001948176
198	0x3d15eef3	0.036604833
199	0x3cd8319c	0.026390843
200	0x3d99458f	0.074839704
201	0x3d8e163f	0.06937837
202	0x3dd43ea7	0.103635125
203	0xbdad2522	-0.08454348
204	0x3d538503	0.05164052
205	0x3d7a06ff	0.06104183
206	0x3d7b76e2	0.061392672
207	0xbca2c063	-0.019867128
208	0xbc77dad5	-0.015127857
209	0xbd8ed85e	-0.069748625
210	0xbcf49517	-0.029856248
211	0x3d869c70	0.06572807
212	0xbcc36a28	-0.02385433
213	0x3ceafe89	0.028685825
214	0x3ce313aa	0.027719337
215	0x3d442647	0.047888067
216	0x3d0aafb4	0.03385897
217	0x3d12c989	0.03583673
218	0x3d424257	0.047426548
219	0x3d2bf728	0.041983753
220	0xbc38c7ff	-0.011278152
221	0x3d3b43bb	0.04571889
222	0x3d9729ca	0.073810175
223	0x3c99cfea	0.018775899
224	0xbdc4623c	-0.09589049
225	0xbdd60ff3	-0.10452261
226	0x3cb40685	0.021975765
227	0xbb1ca0e2	-0.0023899605
228	0xbd94d31e	-0.0726683
229	0x3c584f6a	0.013202528
230	0x3c7088ac	0.014681023
231	0xbda23232	-0.0791973
232	0x3d70361c	0.058645353
233	0xbd907f93	-0.07055583
234	0xbd759826	-0.059959553
235	0x3d913ecb	0.07092055
236	0xbcc0e555	-0.023546854
237	0xbdb06d9b	-0.086146556
238	0x3d5b64ca	0.053562917
239	0x3d53fd04	0.051754966
240	0x3d3c08ef	0.045906957
241	0xbd53a820	-0.05167401
242	0xbc50961c	-0.012731101
243	0xbdafe7af	-0.08589112
244	0xbdc2ec9d	-0.09517787
245	0xbd3dd37e	-0.046344273
246	0xbd06ebf3	-0.032939862
247	0xbd8315e9	-0.064006634
248	0xbd3ac264	-0.04559554
249	0xbd870284	-0.06592277
250	0xbcb7a5a6	-0.022417855
251	0xbd97e30c	-0.07416353
252	0xbc40cb65	-0.011767243
253	0x3d8c494d	0.068499185
254	0xbd5fd085	-0.05464222
255	0xbda2a17d	-0.07940958

net.0.bias f4 [64]
0	0x3d91349c	0.070901126
1	0xbda3b8fc	-0.07994267
2	0xbc0f9309	-0.008763083
3	0xbcde732e	-0.027154531
4	0x3d80bc9c	0.062859744
5	0x3d91bbe4	0.071159154
6	0x3d4b7565	0.049672503
7	0x3d0d75ab	0.034536045
8	0x3c432118	0.011909746
9	0xbaaa5d84	-0.001299784
10	0xbc3ebbbe	-0.011641441
11	0xbd70d35b	-0.058795314
12	0x3d6a9a29	0.057275925
13	0xbb2c0824	-0.002624997
14	0x3d7d7384	0.061877742
15	0x3c0155fa	0.007894034
16	0x3de89c33	0.11357918
17	0x3d42be88	0.047544986
18	0x3d402664	0.046911612
19	0x3d687f0a	0.05676178
20	0x3d335505	0.043782253
21	0xbcf01db7	-0.029311044
22	0x3d6f7d5d	0.058469165
23	0xbd872604	-0.06599048
24	0x3dd06e22	0.10177256
25	0xbc3034d0	-0.010754779
26	0x3b5524c4	0.0032523135
27	0x3d995a81	0.074879654
28	0xbb620eb1	-0.003449362
29	0x3dd3743e	0.10324906
30	0x3d3075ef	0.04308122
31	0xbcb2ddd4	-0.021834292
32	0x3e21a795	0.15786584
33	0x3df3d2d0	0.11905444
34	0x3db34491	0.087533124
35	0x3dc4e497	0.096139126
36	0xbcde0a1a	-0.027104426
37	0xbc07362b	-0.008252661
38	0xbd2be556	-0.04196676
39	0x3dba4a2e	0.0909618
40	0x3df722a5	0.12067155
41	0x3d92a8ca	0.071611
42	0xbd825fb1	-0.06365908
43	0x3e0649d4	0.131141
44	0x3c99aecc	0.018760107
45	0x3b3a6e01	0.0028446915
46	0x3e0fb5a8	0.1403414
47	0x3db9e9ae	0.09077774
48	0x3da90245	0.08252386
49	0x3dec7724	0.11546162
50	0x3ddce1bc	0.10785243
51	0xbd8510a9	-0.06497318
52	0xbd4c75af	-0.04991692
53	0x3e1dd045	0.1541148
54	0x3d821541	0.0635171
55	0x3e1ed5ca	0.15511242
56	0xbcb96cf7	-0.022634966
57	0x3d0d47b9	0.03449223
58	0x3d8ef384	0.06980041
59	0x3d4af33d	0.049548376
60	0x3db86bb4	0.09004918
61	0x3d757562	0.059926398
62	0x3c8cf058	0.017204449
63	0x3d6a4cde	0.057202213

net.3.weight f4 [64, 64, 3]
0	0x3d38a6d2	0.045080967
1	0xba5e9a76	-0.00084916444
2	0x3cb863df	0.02250856
3	0xbbf1de65	-0.007381248
4	0x3cb241a3	0.021759814
5	0xbd61c4d2	-0.055119343
6	0xbc4ed23e	-0.012623368
7	0xbd59e421	-0.053196076
8	0xbc679032	-0.0141335
9	0x3c6da118	0.01450374
10	0xbd540836	-0.051765643
11	0x3cd4acaf	0.025961248
12	0x3d1a42bd	0.037661303
13	0xbd8b116a	-0.06790431
14	0x3d87d54d	0.06632481
15	0xbcd33bb7	-0.02578531
16	0xbd1f5b63	-0.038905513
17	0xbbcbbdf1	-0.006217711
18	0xbd5fe09b	-0.05465756
19	0xbd1a85fe	-0.03772544
20	0xbbdd7fec	-0.0067596342
21	0xbd1babdf	-0.038005706
22	0xbc92ab73	-0.017904019
23	0xbbacf6bc	-0.0052784365
24	0xbbca08dc	-0.006165607
25	0x3d7b2b06	0.061320327
26	0xbd7a2581	-0.061070923
27	0x3d92d170	0.07168853
28	0x3cbfd65e	0.023417648
29	0xbd270730	-0.04077834
30	0x3d35d226	0.044389866
31	0x3d8b2d68	0.0679577
32	0xbc0da428	-0.008645095
33	0x3cbfd8c6	0.023418795
34	0x3d2586e2	0.040411837
35	0x3d900b88	0.070334494
36	0x3c0bcca0	0.008532673
37	0xbd3c83a5	-0.046023984
38	0xbd4d17d0	-0.050071537
39	0x3d7f25ce	0.062291913
40	0x3cd8136e	0.026376452
41	0x3c7f360a	0.015576849
42	0x3c115618	0.008870624
43	0xbd77a329	-0.060458336
44	0x3d100e88	0.035170108
45	0x3d0f6996	0.035012804
46	0x3ced91ea	0.029000241
47	0x3c9f542a	0.019449312
48	0xbd4bf360	-0.049792647
49	0x3c0b0e7b	0.008487339
50	0x3d84ae43	0.0647855
51	0x3d07a00b	0.033111613
52	0x3d4332c4	0.047655836
53	0x3caf5c20	0.021406233
54	0xbc3ee88c	-0.011652123
55	0x3d71772c	0.05895154
56	0xbc1f22d6	-0.009712895
57	0xbd221e33	-0.03957958
58	0x3b8d7ab2	0.004317605
59	0xbb853ace	-0.004065848
60	0x3d0f17bd	0.034934748
61	0x3c58483f	0.013200819
62	0x3cc9c43e	0.024629708
63	0xbd376d9d	-0.04478227
64	0xbd11d64c	-0.03560476
65	0xbcc275b9	-0.023737775
66	0x3d4ddf09	0.05026153
67	0xbccc216b	-0.024918279
68	0xbd83da9e	-0.06438182
69	0x3d8d132e	0.06888424
70	0x3d2525b8	0.040319175
71	0x3d0b763e	0.03404831
72	0x3d8d665a	0.06904288
73	0x3d01ee9a	0.03172169
74	0xbd04b0d7	-0.03239521
75	0x3d810c14	0.06301132
76	0xbcb5f43b	-0.022211185
77	0x3d6d14b0	0.057881057
78	0xbc58cbea	-0.013232211
79	0xbd605be6	-0.05477514
80	0x3d9235c1	0.07139159
81	0x3cd52b26	0.026021551
82	0x3c6b37a7	0.01435653
83	0x3cd9eb7e	0.02660155
84	0x3c1c0e31	0.009524868
85	0xbc12fc10	-0.008971229
86	0xbd626f6e	-0.05528205
87	0xbb735865	-0.0037131545
88	0xbd920b13	-0.071310185
89	0xbc69701f	-0.014247923
90	0x3c1241ed	0.008926851
91	0xbc31b53a	-0.01084643
92	0xbccea0ea	-0.025223214
93	0x3d140654	0.036138847
94	0xbd0e268c	-0.03470473
95	0xbd859491	-0.065224774
96	0x3d01aabd	0.03165697
97	0xbd1cfd9c	-0.0383278
98	0x3d375620	0.04475987
99	0xbd8f5d89	-0.07000262
100	0x3d56452e	0.05231207
101	0x3d2fd4b4	0.04292746
102	0x3cd8b703	0.026454454
103	0x3d7d1b65	0.061793704
104	0xbd88360a	-0.06650932
105	0xbb487084	-0.0030584643
106	0xbc0fc3dd	-0.008774725
107	0x3d67e3b1	0.056613628
108	0x3ce3e626	0.027819704
109	0xbcde0fe3	-0.027107185
110	0x3c167222	0.009182485
111	0x3d117e6b	0.035520952
112	0xbd63e81b	-0.055641275
113	0x3b8dd6f4	0.004328603
114	0x3d425a7b	0.04744957
115	0xbd551ed8	-0.052031368
116	0x3b8e7bd4	0.0043482576
117	0x3c20f77e	0.009824632
118	0x3d45a901	0.048256878
119	0xbd598d23	-0.053113114
120	0xbd3f3da0	-0.04668963
121	0x3c809671	0.015696736
122	0xbcf01573	-0.029307103
123	0x3d59627e	0.053072445
124	0x3d0587b2	0.032600112
125	0x3d39f7d9	0.04540238
126	0xbd145209	-0.036211047
127	0x3d1b6948	0.0379422
128	0xbd4334ec	-0.047657892
129	0x3ca2bacd	0.019864464
130	0xbd343240	-0.043993235
131	0x3c6f414a	0.0146029685
132	0xbb02079a	-0.0019840957
133	0xbb872ade	-0.004124983
134	0x3d0fa4d0	0.035069287
135	0xbd310f20	-0.043227315
136	0xbd91dedb	-0.071225844
137	0x3d7183da	0.058963634
138	0xbc462f9e	-0.012096314
139	0x3bcbebba	0.006223169
140	0x3d1d2f46	0.03837516
141	0x3cbca2d1	0.023026856
142	0xbcfbe1e5	-0.030747363
143	0x3d5107bc	0.051032767
144	0xbd1a5b28	-0.03768459
145	0xbcd551cd	-0.026039982
146	0xbd36d98e	-0.04464107
147	0x3a44e13a	0.0007510368
148	0xbd1277e8	-0.035758883
149	0x3c4b3dd8	0.012404881
150	0x3d21c295	0.03949221
151	0xbc16c104	-0.009201292
152	0x3d789844	0.060692087
153	0x3d25dd2c	0.04049413
154	0x3c53e362	0.01293263
155	0x3d827a9e	0.063710436
156	0xbd4ef448	-0.050525934
157	0xbc22dd2f	-0.00994043
158	0xbd904aa6	-0.07045488
159	0x3b21c92f	0.0024686565
160	0xb7fbecdd	-3.003183e-05
161	0x3d1ca4a1	0.03824294
162	0x3c87e31a	0.016587783
163	0x3d79178b	0.060813468
164	0x3d6d655b	0.05795799
165	0xbb5f7bd5	-0.003410091
166	0xbd3a2222	-0.045442708
167	0xbd09b5a6	-0.0336205
168	0x3d4d41f2	0.05011172
169	0x3d806fdb	0.06271335
170	0xbc534b91	-0.012896434
171	0x3d85d515	0.06534783
172	0x3ceea44a	0.029131074
173	0x3d3db94e	0.0463193
174	0xbc9e4f23	-0.019324845
175	0x3ba46ad1	0.0050176163
176	0x3b94b07c	0.00453764
177	0x3cf8d8f9	0.030376898
178	0x3c7e23de	0.015511481
179	0x3c293beb	0.010329227
180	0x3c9ff466	0.019525718
181	0xbd3c505e	-0.04597508
182	0x3d903b48	0.07042557
183	0x3db2f4d5	0.08738104
184	0x3d2d9e41	0.04238725
185	0x3cf46e04	0.029837616
186	0xbd4bac3a	-0.049724795
187	0x3d30d0b6	0.043167792
188	0xbd76f838	-0.060295314
189	0xbcd02e0b	-0.02541258
190	0x3c0182e9	0.007904747
191	0x3bb856bf	0.0056255753
192	0x3d2b82eb	0.0418729
193	0x3c9c763e	0.019099351
194	0xbd349f6a	-0.04409734
195	0x3d1688b1	0.036751453
196	0x3d3dea6f	0.04636615
197	0x3d9022c8	0.07037884
198	0xbd5abcad	-0.05340259
199	0xbc24fccf	-0.01007004
200	0x3c49682d	0.012292904
201	0xbbe6bb24	-0.007041352
202	0x3d6c5f45	0.057708044
203	0x3c2bc0eb	0.010483007
204	0xbcda6807	-0.026660932
205	0xbc601fff	-0.013679503
206	0x3d03f296	0.03221377
207	0x3d8138c2	0.06309654
208	0x3cf308c4	0.029667266
209	0x3c42c9c8	0.011888929
210	0x3d301043	0.04298426
211	0xbd88fc73	-0.06688776
212	0xbccf1591	-0.025278838
213	0x3a000758	0.0004883907
214	0x3d239f46	0.039946817
215	0x3d37e1f0	0.044893205
216	0x3daa59c9	0.083179064
217	0x3b86aa1d	0.0041096346
218	0xbc21fd94	-0.009887118
219	0x3cc9bf49	0.024627345
220	0x3d08258a	0.033238925
221	0xbd1691f9	-0.036760304
222	0x3d005996	0.031335436
223	0x3d3efadb	0.046625953
224	0xbd273a0d	-0.040826846
225	0x3cd4e0e4	0.025986142
226	0xbd4fb2a7	-0.050707486
227	0x3d83b06f	0.064301364
228	0x3da62398	0.08112258
229	0xbb434316	-0.0029794625
230	0x3d61bf1c	0.055113897
231	0xbb199aa0	-0.002343811
232	0x3d1d4261	0.038393382
233	0x3d1dbe06	0.0385113
234	0xbd2f4be9	-0.042797003
235	0x3d710351	0.058841053
236	0xbba43d1e	-0.0050121685
237	0xbc9bbabc	-0.01900994
238	0xbc845d85	-0.016157875
239	0x3bbf36c0	0.005835384
240	0xbc343ca9	-0.011000791
241	0xbcd23ee4	-0.025664754
242	0xbd311b85	-0.043239135
243	0x3c3ae626	0.011407411
244	0xbaabf855	-0.0013120273
245	0x3d1fe771	0.03903908
246	0xbc29207a	-0.010322684
247	0x3d84faaa	0.06493123
248	0xbcb8a79c	-0.02254086
249	0x3c3f3b00	0.011671782
250	0xbc68ba40	-0.014204562
251	0xbd3bdf8b	-0.045867484
252	0x3d5ee913	0.054421496
253	0xbcf765d7	-0.030199928
254	0x3d85e75f	0.06538271
255	0x3d75b145	0.05998351

net.3.bias f4 [64]
0	0x3d2a4a4f	0.041574772
1	0x3d17fe2f	0.037107643
2	0x3c93bb97	0.018033786
3	0x3ddb294a	0.10701235
4	0x3d4a1d7d	0.04934453
5	0x3d6f6515	0.05844601
6	0x3dac7ed1	0.08422626
7	0x3da8680d	0.08222971
8	0x3d9cc0d5	0.07653967
9	0xbd1a8c35	-0.037731368
10	0x3e066997	0.13126217
11	0x3c9c332a	0.019067366
12	0x3dbc39c4	0.091907054
13	0x3df1d294	0.11807743
14	0x3d86ca47	0.0658155
15	0x3d850014	0.064941555
16	0x3daf35d4	0.08555189
17	0x3e09e651	0.13466765
18	0x3c9d3b92	0.019193444
19	0x3de0bf26	0.10973959
20	0x3d54b952	0.051934548
21	0x3d8116e1	0.06303192
22	0x3cbd9b84	0.023145445
23	0x3d318030	0.04333514
24	0x3cd516ac	0.026011787
25	0x3dc55f3f	0.096373074
26	0x3da21af0	0.07915294
27	0x3ce56e67	0.028006746
28	0x3db0a5e4	0.08625391
29	0x3cc71360	0.02430123
30	0x3e0d4e5a	0.1379942
31	0x3d43bd8b	0.047788184
32	0x3d593c49	0.053036008
33	0x3d3d5e35	0.04623242
34	0x3decf510	0.115701795
35	0x3b3a528f	0.0028430556
36	0x3e08067c	0.13283724
37	0x3d12e1fa	0.03586004
38	0x3e0e0a9a	0.13871232
39	0x3dcb1eea	0.09918006
40	0x3cce0cde	0.02515262
41	0x3d13c583	0.036077034
42	0x3de6df40	0.1127305
43	0x3d2a656c	0.04160063
44	0x3de0426d	0.1095017
45	0x3db32e83	0.08749106
46	0x3c8bef8c	0.017081998
47	0x3e0683d6	0.13136229
48	0x3ca07b51	0.019590052
49	0x3dcf9ec4	0.10137704
50	0x3d07e035	0.033172805
51	0x3cd902b2	0.026490543
52	0x3ccd35f7	0.025050147
53	0x3dd2c0f2	0.10290708
54	0x3dc21cb3	0.0947813
55	0x3d086927	0.033303406
56	0x3cb5f3c3	0.022210961
57	0x3e07dc25	0.13267572
58	0x3dc740e8	0.09729177
59	0x3ddff087	0.10934549
60	0x3d2ba9e8	0.041910082
61	0x3d89ccdd	0.06728528
62	0x3dc218ef	0.09477412
63	0x3d126fb5	0.035751063

net.6.weight f4 [64, 64, 3]
0	0xbc8a0d1b	-0.016851952
1	0x3d294a37	0.041330542
2	0x3bc41e35	0.0059850463
3	0xbd5057fd	-0.050865162
4	0x3d49779d	0.049186338
5	0xbcac573e	-0.021037694
6	0x3cbe0848	0.023197308
7	0xbd12db90	-0.035853922
8	0xbd10d15c	-0.03535591
9	0x39d351af	0.00040305915
10	0xbd72607c	-0.059174046
11	0x3d024b26	0.03180995
12	0xbcbf6ea7	-0.023368193
13	0xbc32490e	-0.010881675
14	0x3d281c2f	0.041042503
15	0x3cb6df7d	0.022323364
16	0xbd0ac9fa	-0.033884026
17	0x3cb7fbbc	0.022458903
18	0xbd186d88	-0.037213832
19	0xbd04603e	-0.032318346
20	0x3d7ee802	0.06223298
21	0xbcc1cc84	-0.023657091
22	0xbc81006a	-0.015747268
23	0xbc779679	-0.015111559
24	0x3da5733e	0.08078621
25	0xbd8f56a8	-0.0699895
26	0x3ccc8941	0.024967792
27	0x3da9ad42	0.082849994
28	0xbd0d60b5	-0.034516055
29	0x3d7d2b09	0.06180862
30	0x3d679653	0.056539845
31	0xbd4ed4db	-0.050495964
32	0xbd8e615e	-0.06952165
33	0x3d802932	0.062578574
34	0xbd548dbe	-0.05189299
35	0x3d2c94f8	0.042134255
36	0x3d60f88f	0.054924544
37	0xbd490148	-0.049073488
38	0x3d0657b9	0.032798503
39	0xbcb81662	-0.02247161
40	0x3c4293ec	0.011876088
41	0x3cd702a2	0.026246373
42	0x3d8ec605	0.06971363
43	0x3d81006e	0.0629891
44	0xbd8ccf1b	-0.0687544
45	0xbcfca83f	-0.030841945
46	0x3d81f36e	0.06345259
47	0xbd3fcf47	-0.046828534
48	0x3c56c525	0.013108526
49	0xbd49be00	-0.049253464
50	0xbd9248e7	-0.07142811
51	0xbb20ac82	-0.0024516885
52	0xbd897436	-0.067116186
53	0xbc73545e	-0.014851658
54	0xbd1b472a	-0.037909664
55	0x3d89045a	0.06690283
56	0xbd62c8e4	-0.055367365
57	0x3d5b2945	0.053506155
58	0x3d8b17e1	0.06791664
59	0x3d90bf77	0.07067769
60	0xbbab3e8d	-0.0052259625
61	0xbd5cbd9c	-0.053891763
62	0x3cb83060	0.022484004
63	0x3d68e936	0.056863032
64	0xbd4d80a3	-0.050171506
65	0x3d83a8c0	0.06428671
66	0x3c386523	0.011254582
67	0x3d81f919	0.0634634
68	0xbd26b7b0	-0.04070252
69	0xbc69f3c3	-0.014279309
70	0xbd42322a	-0.04741112
71	0xbd873684	-0.06602195
72	0x3d1234b5	0.035694797
73	0x3d7ba749	0.061438832
74	0x3cb3e4e6	0.021959733
75	0x3d89b073	0.06723108
76	0x3d49951f	0.04921448
77	0x3c893bce	0.01675215
78	0xbc57ef97	-0.013179681
79	0x3c834356	0.01602332
80	0xbd3627f4	-0.044471696
81	0x3c9d96db	0.019236973
82	0x3cba1ed3	0.022719776
83	0x3cf34a96	0.029698651
84	0xbc669463	-0.014073464
85	0x3d0c83d3	0.034305405
86	0xbcdefe41	-0.027220847
87	0xbd124bbe	-0.035716765
88	0x3c94baf4	0.018155552
89	0xbd0def43	-0.034652006
90	0x3bc0891e	0.0058757206
91	0x3ca5ace6	0.020224046
92	0xbd1a807b	-0.037720185
93	0x3c2bfda9	0.010497489
94	0x3d508479	0.050907586
95	0x3d280889	0.041023765
96	0xbc59d0d1	-0.013294415
97	0x3d5047cc	0.05084972
98	0x3d193ae4	0.037409678
99	0x3a5105c6	0.00079735776
100	0xbcc5f645	-0.024165282
101	0xbd2bea67	-0.04197159
102	0x3c6784cf	0.014130785
103	0x3ce6697d	0.028126473
104	0x3d8e8c30	0.069603324
105	0x3a402753	0.00073300785
106	0x3d46105b	0.04835544
107	0x3d8d91a3	0.069125436
108	0xbca66b13	-0.020314729
109	0x3bad4b90	0.005288549
110	0x3ceec2c5	0.029145608
111	0xbd8b1a7b	-0.0679216
112	0xbcfda146	-0.03096069
113	0xbc094133	-0.008377361
114	0xbcf75fee	-0.03019711
115	0xbd598b17	-0.053111162
116	0xbd88e75f	-0.066847555
117	0xbcc54281	-0.024079563
118	0x3d4a89fe	0.049448006
119	0xbd1ec23a	-0.038759448
120	0xbd77867b	-0.060430985
121	0xbc5eeda1	-0.01360646
122	0x3c62d814	0.013845462
123	0x3d5bb663	0.053640734
124	0x3cb4c457	0.022066278
125	0x3c94e53c	0.018175714
126	0x3d048317	0.03235158
127	0x3c0c1a53	0.008551198
128	0xbd5da11c	-0.054108724
129	0xbc50efc5	-0.012752478
130	0xbd8c8b0d	-0.06862459
131	0xbba201b6	-0.0049440516
132	0xbc02096e	-0.0079368185
133	0xbc61f552	-0.013791399
134	0x3d8c6e5d	0.068569876
135	0xbcc86288	-0.024461046
136	0x3d7f284b	0.062294286
137	0xbc5ef88d	-0.013609064
138	0xbc9406a6	-0.018069576
139	0xbd0ae1a8	-0.03390661
140	0xbd655791	-0.055991713
141	0x3c04403d	0.008071956
142	0xbd1dffa6	-0.038573883
143	0xba3982f6	-0.00070767046
144	0x3cddc993	0.027073657
145	0x3d4454f4	0.04793258
146	0xbcb5a5c6	-0.022173773
147	0x3d60a17a	0.054841496
148	0x3cb2a8dd	0.021809036
149	0x3d4d66d5	0.050146896
150	0x3d82c0ed	0.06384454
151	0xbd6b3b26	-0.057429455
152	0xbd8bf9a1	-0.06834722
153	0xbd73832a	-0.05945126
154	0x3cfd4cd0	0.030920416
155	0x3d6ea9a6	0.058267258
156	0x3c922d79	0.017843949
157	0xbc63c364	-0.013901565
158	0xbd532bcc	-0.05155544
159	0xbc1953c6	-0.009358352
160	0x3d547622	0.051870473
161	0xbd7ef197	-0.062242117
162	0x3cde730b	0.027154466
163	0xbd831503	-0.06400492
164	0x3c8d3456	0.01723687
165	0x39d223cf	0.00040081
166	0xbd552126	-0.052033566
167	0x3c81a08f	0.01582363
168	0x3c932840	0.017963529
169	0xbcbd358a	-0.023096818
170	0xbce45110	-0.027870685
171	0x3d238546	0.03992202
172	0x3d0c00ca	0.03418044
173	0xbd844619	-0.064586826
174	0xbb2ac074	-0.0026054652
175	0x3ca952d3	0.020669376
176	0x3d4221af	0.047395404
177	0xbbaf9132	-0.005357885
178	0x3d40572d	0.046958137
179	0xbd41d9ba	-0.04732678
180	0xbc817394	-0.015802182
181	0x3cfe3e7a	0.03103565
182	0x3d097c5f	0.033565875
183	0xbcbbfb74	-0.02294705
184	0x3b1e048e	0.0024111602
185	0xbd7f5f54	-0.06234677
186	0x3d79207b	0.06082199
187	0xbcc71580	-0.024302244
188	0xbd659d47	-0.056058194
189	0x3ad59179	0.0016293965
190	0xbd048f1f	-0.032363053
191	0xbc325947	-0.010885543
192	0x3d57ba48	0.052667886
193	0x3d34cfdc	0.044143543
194	0xbd7b432b	-0.061343353
195	0x3c74a542	0.014931979
196	0xbd387c02	-0.045040138
197	0xbc7fc910	-0.015611902
198	0x3c8e9a4d	0.01740756
199	0x3bb609bf	0.005555361
200	0xbd8e45b5	-0.06946889
201	0x3c70ef35	0.014705469
202	0xbd128ec3	-0.03578068
203	0xbc720a6b	-0.014772992
204	0xbd0a30ff	-0.033738133
205	0xbd30b1f2	-0.043138452
206	0xbc86547e	-0.01639771
207	0x3da3068b	0.07960232
208	0xbd5869a6	-0.05283513
209	0x3d55aa96	0.052164637
210	0x3bfbb922	0.0076819817
211	0xbd27d29c	-0.040972337
212	0x3c447da0	0.011992842
213	0x3d6cecbe	0.057842962
214	0xbcc21952	-0.023693714
215	0xbc1a9327	-0.009434498
216	0xbd476217	-0.04867753
217	0xba238b4a	-0.0006238712
218	0x3d7c461a	0.06159029
219	0xbce37dce	-0.02776995
220	0x3d7b9525	0.061421532
221	0x3d582c29	0.05277649
222	0x3cf78a5b	0.03021734
223	0x3bfe7a2a	0.007766028
224	0x3cc79e02	0.024367336
225	0x3caa9916	0.02082495
226	0xbc372c5d	-0.011180011
227	0xbd20d6e7	-0.039267447
228	0x3d9493b2	0.07254733
229	0xbd6a371e	-0.05718147
230	0x3d0475eb	0.032339018
231	0xbd7dd2e5	-0.061968703
232	0x3d1f4af4	0.03888984
233	0xbc95fd82	-0.018309359
234	0x3d95eff4	0.07321158
235	0x3ceb753f	0.02874243
236	0x3cbf5311	0.023355039
237	0x3d19da25	0.037561554
238	0xbd2ae053	-0.04171784
239	0x3d0fdced	0.0351228
240	0x3d0a84f7	0.03381821
241	0x3d01f96c	0.031732008
242	0x3d37b1b4	0.044847205
243	0x3d9862ea	0.07440741
244	0xbd67383a	-0.056450106
245	0x3d8040b7	0.062623434
246	0xbc1dea6e	-0.009638412
247	0xbd176106	-0.036957763
248	0xbd12a219	-0.03579912
249	0x3d7155c5	0.058919687
250	0x3ca029fd	0.019551272
251	0x3a8a058a	0.0010530215
252	0x3d427034	0.047470286
253	0xbb374826	-0.0027966588
254	0xbd28d32d	-0.041217018
255	0xbd29f8de	-0.041497104

net.6.bias f4 [64]
0	0x3e246fcd	0.16058274
1	0x3cfe6e53	0.031058466
2	0x3dd590bf	0.10427999
3	0x3e252ea2	0.1613107
4	0x3de330bc	0.1109328
5	0x3d9749d4	0.073871285
6	0x3dc729cf	0.09724771
7	0x3e3ae43b	0.18251126
8	0x3e295a24	0.16538292
9	0x3e24526f	0.16047071
10	0x3d5e2e65	0.054243464
11	0x3e0c6dbb	0.13713734
12	0x3e259cb0	0.16173053
13	0x3d52e71b	0.05148993
14	0x3b2e10e5	0.0026560363
15	0x3d3c8e2d	0.046034027
16	0x3d9140e6	0.070924565
17	0x3b116a25	0.0022188511
18	0x3e382a23	0.17984824
19	0xbd89d0ee	-0.06729303
20	0x3e395c32	0.18101576
21	0xbce65855	-0.028118292
22	0x3e0115c9	0.12605967
23	0x3dc57ed3	0.096433304
24	0xbda95e9d	-0.08269999
25	0xbd93e91c	-0.072221965
26	0x3baf8463	0.005356358
27	0x3e34fbc8	0.17674172
28	0xbd586af2	-0.052836366
29	0x3d934f28	0.07192832
30	0x3e30e171	0.17273499
31	0x3e18b253	0.14911775
32	0x3dbde776	0.09272663
33	0x3dbbd79f	0.09171986
34	0x3e07c221	0.13257648
35	0x3e29685c	0.16543716
36	0x3d43a495	0.04776438
37	0x3d8d7f0e	0.069089994
38	0x3e2bc155	0.16772969
39	0x3dc15726	0.0944045
40	0xbd27f621	-0.04100621
41	0x3de736eb	0.11289772
42	0x3e0f5f71	0.14001252
43	0x3d8d0f9b	0.06887742
44	0x3e23674d	0.15957375
45	0x3d89532a	0.067053154
46	0xbbb11813	-0.005404481
47	0x3e05bc67	0.13060151
48	0x3da6820c	0.08130273
49	0xbcb44ec8	-0.022010222
50	0x3e339782	0.17538264
51	0x3e38ac5b	0.18034498
52	0xbc81bbc5	-0.015836606
53	0x3e47526d	0.19465037
54	0x3d86971a	0.06571789
55	0x3da1820d	0.07886133
56	0x3db5ac8c	0.08870801
57	0xbd4669c6	-0.048440717
58	0x3e0c538f	0.1370375
59	0x3da144b7	0.078744344
60	0x3d0a22d7	0.033724632
61	0x3b8bd43b	0.004267243
62	0x3d9cd388	0.07657534
63	0x3e191b56	0.14951834

net.9.weight f4 [64, 64, 3]
0	0xbc19cd07	-0.009387261
1	0xbbdc7df4	-0.006728882
2	0x3d3ad709	0.04561523
3	0x3daa0986	0.08302598
4	0xbca57940	-0.020199418
5	0xbc2ecef7	-0.010669461
6	0xbcfb2375	-0.030656556
7	0xbc9cd329	-0.019143658
8	0xbc9007fa	-0.017581929
9	0x3975a224	0.00023425423
10	0xbd05994d	-0.032616902
11	0xbd2067b8	-0.039161414
12	0x3db61501	0.08890725
13	0x3d3c4044	0.045959726
14	0x3d4f2635	0.050573546
15	0x3d389a7f	0.045069214
16	0xbd91bb9c	-0.07115862
17	0x3d81783d	0.06321762
18	0x3d7c151a	0.06154356
19	0x3c4cc1e9	0.012497404
20	0xba0ba448	-0.0005326909
21	0x3db73b1c	0.08946821
22	0xbd0dc6c1	-0.034613375
23	0x3cd79703	0.026317125
24	0xbc866507	-0.016405595
25	0x3d58eb5d	0.052958835
26	0x3d6c0398	0.057620615
27	0x3d4052a7	0.046953823
28	0xbd772326	-0.060336255
29	0xbd3b9a1f	-0.04580128
30	0xbd1c7b64	-0.038203612
31	0xbd7f09b4	-0.062265113
32	0xbca5e12d	-0.020248974
33	0x3be7ef30	0.007078074
34	0x3ba51bee	0.00503873
35	0x3d19e084	0.03756763
36	0x3c0f6a4b	0.00875337
37	0x3c1c4c2a	0.009539643
38	0x3d7b5117	0.06135663
39	0x3d9df35e	0.07712434
40	0x3d59a117	0.053132143
41	0x3d8a4d42	0.06753017
42	0x3d022b42	0.031779535
43	0x3d85ba4c	0.06529674
44	0x3d1add0a	0.037808456
45	0x3d39358d	0.045217086
46	0xbc7bd630	-0.0153708905
47	0x3c65bc66	0.0140219685
48	0x3da2a206	0.0794106
49	0x3c88358a	0.016627092
50	0xbd85706f	-0.06515586
51	0x3cd69fbc	0.026199214
52	0xbd476613	-0.04868133
53	0xbc4b128b	-0.012394558
54	0x3c285e2b	0.010276358
55	0x3d62e5f0	0.055395067
56	0xbd5e4a19	-0.054269884
57	0x3d3d0a9c	0.046152696
58	0xbd4070d7	-0.046982612
59	0xbc31f8ce	-0.010862542
60	0x3d8415ac	0.06449446
61	0x3cc83d6e	0.024443354
62	0xbd5aeb2e	-0.05344694
63	0xbcca094f	-0.024662642
64	0xbce1870f	-0.027530221
65	0xbd8c0554	-0.06836954
66	0x3cd0d1cb	0.025490662
67	0x3d85334c	0.06503925
68	0x3cedd999	0.029034423
69	0x3db97c20	0.09056878
70	0x3d825ebe	0.06365727
71	0xbd29578a	-0.04134325
72	0x3d6c92d1	0.057757203
73	0x3c769702	0.0150506515
74	0xbd90d162	-0.070711866
75	0x3d181cf3	0.037136983
76	0xbc878a49	-0.016545432
77	0x3d1f7540	0.038930178
78	0x3cadbcd3	0.021208202
79	0xbcec1a41	-0.028821113
80	0xbc8a1918	-0.016857669
81	0xbd087d09	-0.033322368
82	0xbc26da9d	-0.010183957
83	0xbd115f9f	-0.035491582
84	0xbd6b55d2	-0.05745489
85	0xbd756fbb	-0.059921008
86	0xbd470852	-0.04859192
87	0x3b260166	0.0025330423
88	0x3d886e2c	0.066616386
89	0x3d695653	0.05696709
90	0x3d8bb81d	0.06822226
91	0x3d25e980	0.040505886
92	0xbd8c4ae8	-0.06850225
93	0x3d324732	0.04352493
94	0x3d92529c	0.07144663
95	0xbd36cbf5	-0.044628102
96	0x3ce2a410	0.027666122
97	0x3d5862c7	0.052828576
98	0xbd6b2c56	-0.05741533
99	0x3cd8b4f5	0.026453475
100	0x3d878899	0.06617851
101	0x3a4531c2	0.0007522368
102	0xbcb01ac2	-0.021497134
103	0x3d2ed1b2	0.04268045
104	0xbcf1aa31	-0.029500099
105	0x3daf242f	0.08551823
106	0xbd687766	-0.056754492
107	0x3d8b9cfc	0.06817052
108	0x3d17e59f	0.037084218
109	0x3d054914	0.032540396
110	0xbd0451bd	-0.032304514
111	0x3daa153d	0.08304832
112	0x3b9555a6	0.004557329
113	0x3c1f9c52	0.0097418595
114	0x3cbcfa07	0.023068441
115	0xba709eb8	-0.00091789244
116	0xbd915bf7	-0.07097619
117	0x3bcb7104	0.006208541
118	0xbd7c42c8	-0.061587125
119	0xbca51fc4	-0.020156749
120	0x3d94100e	0.07229625
121	0xbd161a58	-0.036646217
122	0xbc726f5c	-0.014797058
123	0x3d028471	0.031864587
124	0xbd50ca72	-0.050974317
125	0xbd151ed3	-0.03640635
126	0x3be74532	0.0070578093
127	0xbd4640b8	-0.048401564
128	0x3d51c087	0.051209
129	0x3d2f8bde	0.042857997
130	0x3c1e8caf	0.009677096
131	0xbd2c144c	-0.042011544
132	0x3d83998c	0.06425771
133	0x3c810fca	0.0157546
134	0xbd3633f8	-0.044483155
135	0x3daefce3	0.08544328
136	0x3cac4f90	0.021034032
137	0x3c7bcb85	0.015368347
138	0xbc9c28d2	-0.019062433
139	0x3d3d6060	0.04623449
140	0xbd00def8	-0.03146264
141	0x3d827d28	0.06371528
142	0x3ce992ed	0.028512442
143	0x3c4bc9db	0.012438263
144	0x3da07151	0.078341134
145	0xbd4f0675	-0.050543267
146	0xbd39e7de	-0.04538714
147	0x3cb96089	0.02262904
148	0xbcb9792b	-0.022640785
149	0xbd3ef354	-0.046618775
150	0x3d633029	0.05546585
151	0x3d5e29a4	0.05423893
152	0xbc9b17e0	-0.018932283
153	0x3ca278f4	0.019833066
154	0xbd332e14	-0.043745115
155	0xbd1ea328	-0.038729817
156	0xbbb2c340	-0.0054554045
157	0x3d34f88d	0.04418235
158	0xbc43c873	-0.011949646
159	0xbcb95a89	-0.022626178
160	0xbd024f9f	-0.031814214
161	0x3cf3b8c9	0.029751198
162	0x3db7511b	0.089510165
163	0xbd307517	-0.043080416
164	0x3d925e51	0.07146896
165	0x3ce200d0	0.027588278
166	0xbd578923	-0.05262102
167	0xbc8d7ffb	-0.01727294
168	0x3cedcab2	0.029027317
169	0xbd8a86c7	-0.06763988
170	0xbd7db8e5	-0.061943907
171	0x3cb6fd61	0.022337617
172	0xbcbb93d2	-0.022897635
173	0xbd6d5fe5	-0.05795278
174	0x3da2b42d	0.07944522
175	0x3d75db6f	0.06002372
176	0xbc73e072	-0.014885055
177	0x3d06fafd	0.032954205
178	0xbd3fe713	-0.04685123
179	0xbb1361fe	-0.0022488828
180	0x3c0fd2ff	0.008778333
181	0xbc493b97	-0.012282274
182	0xbced0872	-0.028934691
183	0xbc804dc3	-0.01566208
184	0xbd46961c	-0.048483
185	0xbd9297da	-0.0715787
186	0x3d933d0b	0.071893774
187	0x3d755811	0.05989844
188	0x3d8cb4fa	0.06870456
189	0x3d8399bc	0.06425807
190	0xbc3483e1	-0.0110177705
191	0x3d26699d	0.040628064
192	0x3c0b9a22	0.008520635
193	0xbc2ff8db	-0.010740484
194	0x3d7a323d	0.061083067
195	0x3d7667f8	0.060157746
196	0x3c42ec1c	0.011897113
197	0xbd6b4108	-0.057435066
198	0xbd3c8ad2	-0.046030827
199	0x3d26c913	0.040719103
200	0x3cec566b	0.028849801
201	0xbd125c73	-0.035732698
202	0xbd7a1c24	-0.061061993
203	0x3d070d9e	0.03297197
204	0xbd7510c6	-0.05983045
205	0xbcdd4590	-0.027010709
206	0xbd12585f	-0.03572881
207	0xbd8092b0	-0.062779784
208	0xbd48700c	-0.04893498
209	0x3c150890	0.00909628
210	0xbd3e6483	-0.046482574
211	0x3d2fdf13	0.04293735
212	0xbd7a320a	-0.061082877
213	0x3c26af4e	0.010173632
214	0xbd7c9b0c	-0.0616713
215	0x3d83eab0	0.064412475
216	0xbd172dac	-0.03690879
217	0xbd629511	-0.055317942
218	0xbcfab499	-0.030603694
219	0x3d03fe32	0.03222484
220	0xbd25df2a	-0.04049603
221	0xbcc219a1	-0.023693861
222	0xbc450ec0	-0.012027442
223	0xbd22ac06	-0.039714836
224	0x3d4ffb32	0.050776668
225	0x3cf97ab5	0.03045402
226	0x3d6a5e9c	0.057219133
227	0x3ccec0d2	0.025238428
228	0x3d16b16f	0.036790308
229	0xbcd515c0	-0.026011348
230	0x3b10eef7	0.002211509
231	0x3c8cf99a	0.017208863
232	0x3b86fd8e	0.0041195815
233	0x3ca98a5f	0.020695863
234	0x3d5c4011	0.053772036
235	0x3d1526c5	0.036413927
236	0xbd77e2a4	-0.060518876
237	0xbbbc3982	-0.00574416
238	0x3c9f6d22	0.019461218
239	0x3cf95cc7	0.030439747
240	0x3d1d5bb5	0.038417537
241	0xbcccfa11	-0.025021585
242	0xbd1153a0	-0.03548014
243	0x3d7a642d	0.06113069
244	0x3cccc8f7	0.024998171
245	0x3c6b5f5b	0.014365996
246	0xbcf22237	-0.02955733
247	0xbd53ee02	-0.051740654
248	0xbd4b9c6f	-0.049709734
249	0x3d8894de	0.06669019
250	0x3d2c283d	0.04203056
251	0x3c214c34	0.009844828
252	0xba8b027a	-0.0010605596
253	0x3cff100c	0.031135581
254	0x3d3d196b	0.04616682
255	0x3d046f6a	0.032332815

net.9.bias f4 [64]
0	0x3e1cc3ce	0.15309069
1	0xbd3799c4	-0.044824377
2	0xbd4e5eac	-0.050383255
3	0x3e3e686c	0.18594521
4	0xbcf00239	-0.029297935
5	0x3e12f627	0.14351712
6	0xbd99aa58	-0.075031936
7	0x3e6f9bb2	0.23399237
8	0x3ddafd10	0.10692799
9	0x3e1139d3	0.14182214
10	0xbd797e1f	-0.060911294
11	0xbd44052c	-0.047856495
12	0x3e4f6cec	0.20256394
13	0xbcbfd249	-0.023415701
14	0x3e3d9025	0.18512018
15	0x3e09a8c5	0.13443287
16	0x3e12fd9b	0.14354555
17	0x3e28be89	0.16478933
18	0x3e732cf0	0.23747611
19	0x3e3269d3	0.17423181
20	0x3df9a05c	0.12188789
21	0x3dd7eafd	0.10542867
22	0xbcc96a01	-0.02458668
23	0x3cb19395	0.021676818
24	0x3e254d35	0.16142733
25	0x3dfd957b	0.12382027
26	0x3e536397	0.2064346
27	0x3d24cd65	0.040234942
28	0x3df1de60	0.11809993
29	0x3e54c437	0.20777975
30	0x3e02eabb	0.12784855
31	0xbd6ed69b	-0.058310132
32	0x3e523409	0.20527662
33	0x3e3d5329	0.18488754
34	0x3e4023c4	0.18763644
35	0xbd85cdbc	-0.06533381
36	0x3e0be951	0.13663222
37	0xbc69f1d7	-0.0142788505
38	0x3e5790aa	0.21051279
39	0x3ddb25c2	0.10700561
40	0x3e59d28f	0.21271728
41	0x3e2702d7	0.16309677
42	0xbd2c43d4	-0.042056873
43	0x3e67aa14	0.22623473
44	0x3e416087	0.18884479
45	0xbd64ffe1	-0.055908088
46	0x3e18cab9	0.14921083
47	0x3e05e822	0.13076833
48	0x3e1a3cfa	0.15062323
49	0x3dd65edd	0.104673125
50	0x3e20abc4	0.15690523
51	0x3e0bb39b	0.13642733
52	0x3dfb0252	0.12256302
53	0x3e4994a4	0.19685608
54	0x3e15b857	0.14621101
55	0xbd876d91	-0.06612695
56	0x3e0346cc	0.12819976
57	0x3e4430cb	0.19159238
58	0x3e0023d3	0.12513666
59	0x3e0b9f2a	0.13634935
60	0x3e7bf372	0.24604586
61	0x3e30f601	0.17281343
62	0x3dd4fddf	0.103999846
63	0xbd8bbb1b	-0.06822797

net.12.weight f4 [64, 64, 3]
0	0x3cb29e7f	0.021804092
1	0xbd336a79	-0.043802712
2	0xbd3c2481	-0.04593325
3	0xbc3aca1e	-0.011400728
4	0x3d1750f6	0.036942445
5	0x3c1f4d96	0.009723088
6	0xbd723c03	-0.059139263
7	0xbd6eb706	-0.058280014
8	0x3d5a8d7b	0.053357583
9	0xbbec1d25	-0.0072056227
10	0x3d07e8d9	0.033181045
11	0x3d2fac42	0.042888887
12	0x3ce16196	0.027512353
13	0x3d75e833	0.060035896
14	0xbd0a3dfe	-0.033750527
15	0xbd6c3914	-0.05767162
16	0xbd81b669	-0.0633362
17	0xba9408e6	-0.0011294156
18	0x3d8613b9	0.065467305
19	0xbc7e6859	-0.015527808
20	0xbcfe6097	-0.031051917
21	0xbd84ae7d	-0.064785935
22	0xbd69ee44	-0.057111993
23	0xbcd786fb	-0.02630948
24	0xbad2f723	-0.0016095381
25	0x3d86d7e2	0.06584145
26	0x3c4696a9	0.012120881
27	0x3d261a6e	0.04055255
28	0xbd53e2f4	-0.05173011
29	0xbd8968a8	-0.06709415
30	0x3cb3a287	0.021928085
31	0x3d253618	0.04033479
32	0xbd4a726a	-0.04942552
33	0xbd261899	-0.040550802
34	0x3d6cc56e	0.05780547
35	0xbcb9d95f	-0.022686658
36	0xbcd6355f	-0.026148496
37	0xbd91b0b7	-0.07113784
38	0x3d81f3c5	0.063453235
39	0xbd0fab9d	-0.035075773
40	0xbd78e5a6	-0.060765885
41	0xbabafacd	-0.0014265418
42	0x3d61cab3	0.05512495
43	0xbb49dec5	-0.0030802947
44	0xbd80cc0b	-0.06288918
45	0xbd37d011	-0.044876162
46	0xbd2feafc	-0.042948708
47	0x3d8eefa3	0.06979301
48	0x3ba8d2e6	0.005152094
49	0x3d24b059	0.04020724
50	0x3d34341c	0.043995008
51	0xbd8831ac	-0.06650099
52	0x3d08414e	0.033265404
53	0xbccc982b	-0.024974903
54	0x3dcd6979	0.10029883
55	0xbb41aff4	-0.002955434
56	0x3d60dc2d	0.054897476
57	0x3d1529ee	0.03641694
58	0xbd3bd677	-0.045858826
59	0xbc2cf08f	-0.0105554005
60	0xbc6d4e04	-0.014483932
61	0xbd24dc42	-0.040249117
62	0x3cd59926	0.026074003
63	0x3c9588a0	0.018253624
64	0xbd1ac3d5	-0.037784416
65	0x3c5ba302	0.013405563
66	0x3d828dc2	0.063746944
67	0xbcf45d4d	-0.029829646
68	0x3d532a56	0.051554047
69	0x3b2ea0fa	0.0026646242
70	0xbca43f92	-0.020049844
71	0x3ca86666	0.02055664
72	0xbd910808	-0.0708161
73	0xbd532cca	-0.051556386
74	0xbd9100ad	-0.07080207
75	0x3d47413f	0.048646208
76	0xbca2859c	-0.0198391
77	0x3d5a305a	0.053268768
78	0x3d51a30c	0.051180884
79	0x3d232845	0.039833326
80	0xbd325f8d	-0.043548156
81	0x3d0fab21	0.03507531
82	0x3bff2b9a	0.00778718
83	0x3d8fd1e5	0.07022456
84	0xbd9dc70d	-0.077039815
85	0xbc965600	-0.018351555
86	0xbd10d6fb	-0.03536127
87	0xbd3f596e	-0.046716146
88	0xbd641442	-0.05568338
89	0xbd2cf110	-0.042222083
90	0xbd57480d	-0.052558947
91	0xbd1696d2	-0.036764927
92	0xbc4ff5e6	-0.012692904
93	0x3c1e7adf	0.009672849
94	0x3d8965cd	0.0670887
95	0xbd0bebad	-0.034160305
96	0xbd572ced	-0.05253308
97	0xbd6153d7	-0.055011597
98	0xbd44b11e	-0.048020475
99	0x3d37c5b2	0.04486627
100	0x3d143b29	0.036189232
101	0xbd3026a8	-0.043005615
102	0x3c42c17f	0.011886953
103	0xbd8a5c1d	-0.067558505
104	0xbcb4eea2	-0.022086445
105	0xbc03f60a	-0.008054266
106	0xbd619285	-0.055071373
107	0xbd6ae122	-0.05734361
108	0xbbf1ccdb	-0.007379157
109	0x3d80c5b2	0.062877074
110	0x3ce11b08	0.02747871
111	0xbcd46859	-0.025928663
112	0x3d88ed12	0.066858426
113	0xbd89b7ff	-0.067245476
114	0xbd3bf638	-0.04588911
115	0x3d538932	0.05164451
116	0xbd6419bc	-0.055688605
117	0xbd4822fd	-0.048861492
118	0x3c8a4b52	0.016881619
119	0xbb19ab7a	-0.0023448155
120	0xbd4cedf6	-0.050031625
121	0x3d0f3bf5	0.03496929
122	0x3d32e67a	0.04367683
123	0x3d3a1ab8	0.045435637
124	0x3d27f03b	0.041000586
125	0xbd3f1d0f	-0.04665857
126	0xbd6e4f5b	-0.058181148
127	0xbd524b9d	-0.05134164
128	0xbd4ff505	-0.05077078
129	0xbb7327e5	-0.0037102636
130	0xbbb5b398	-0.005545091
131	0xbc6f9aa1	-0.014624269
132	0x3ba805e5	0.005127656
133	0x3d64c435	0.05585118
134	0x3d18d956	0.037316643
135	0x3d26a768	0.040686995
136	0x3d3bc44d	0.045841504
137	0xbd741c99	-0.059597585
138	0xbd9ca048	-0.07647759
139	0x3d15634d	0.036471654
140	0xbc9681ba	-0.018372405
141	0xbd3e5dfa	-0.04647634
142	0x3d764b2a	0.060130276
143	0x39846b01	0.00025256726
144	0xbc17efc3	-0.009273472
145	0x3d3411cc	0.043962285
146	0xbc8e36a7	-0.017360045
147	0x3bbdb5f2	0.005789512
148	0xbd9232cb	-0.07138594
149	0xbd503c77	-0.050838914
150	0x3d5d04b3	0.05395956
151	0xba841f52	-0.0010080135
152	0xbd4736c4	-0.048636213
153	0x3d3ac88c	0.045601413
154	0xbb9590eb	-0.0045643947
155	0xbd538c52	-0.05164749
156	0x3cd4ba05	0.025967607
157	0x3d0b5be6	0.034023188
158	0xbd89a634	-0.06721154
159	0xbd9387e5	-0.07203654
160	0x3d8b1058	0.06790227
161	0xbcaa366d	-0.020777905
162	0xbd19c5d6	-0.037542187
163	0xbd48d52c	-0.04903142
164	0xbbfda716	-0.0077408655
165	0x3c0ddd23	0.00865868
166	0x3d2692a4	0.04066719
167	0xbd67f55b	-0.056630474
168	0xbbc942d9	-0.006142002
169	0x3d4e8c0a	0.05042652
170	0x3cfcace4	0.03084416
171	0xbc621c54	-0.013800699
172	0xbc1b21f9	-0.009468549
173	0x3cca7fc2	0.024719123
174	0x3d12c6b7	0.03583404
175	0xbd807f3c	-0.06274268
176	0xbd4a99fb	-0.049463253
177	0x3b8b241c	0.004246248
178	0x3d137fa2	0.036010392
179	0xbd420f18	-0.047377676
180	0xbd956f03	-0.072965644
181	0xbd26e93e	-0.04074978
182	0xbbdfb016	-0.006826411
183	0x3d6610c2	0.056168325
184	0x3d0f8d73	0.035047006
185	0xbd36927e	-0.0445733
186	0x3d482443	0.048862707
187	0x3cbd9bf5	0.023145655
188	0xbd118f8e	-0.035537295
189	0xbd281b08	-0.041041404
190	0xbc81705a	-0.015800644
191	0xbd146980	-0.036233425
192	0x3ca118b8	0.019665107
193	0xbd6c4c9d	-0.05769025
194	0xbd47799e	-0.048699968
195	0x3d146654	0.0362304
196	0xbbb75f05	-0.005596044
197	0xbcba0ab5	-0.022710184
198	0xbd9578f4	-0.072984606
199	0xbc055770	-0.0081385225
200	0xbc7e07bd	-0.015504775
201	0x3d9b22a2	0.07574965
202	0x3d14e4c4	0.03635098
203	0x3cf7f52c	0.030268274
204	0xbbc2cdd2	-0.005944946
205	0xbc943f41	-0.018096568
206	0xbd53df1b	-0.05172644
207	0x3c9a5835	0.018840889
208	0xbbec9e15	-0.0072209933
209	0x3d60ec7d	0.054913033
210	0x3c65b43e	0.014020024
211	0x3d701ef7	0.05862328
212	0x3c459465	0.012059306
213	0x3cffbcdf	0.03121799
214	0x3d878ced	0.06618676
215	0xbc40df29	-0.0117719555
216	0xbd13366c	-0.035940573
217	0x3cd2985c	0.025707416
218	0xbae86198	-0.001772928
219	0x3c9cc997	0.019139094
220	0x3d4d0376	0.05005213
221	0xbce1646f	-0.02751371
222	0x3d6c2925	0.057656426
223	0xbc8a3db8	-0.016875133
224	0xbd646483	-0.055759918
225	0xbd0f5018	-0.034988493
226	0xbc315eac	-0.010825794
227	0x3d1e7ad1	0.038691346
228	0x3d984df6	0.07436745
229	0xbd6c9952	-0.057763405
230	0xbd8ee587	-0.069773726
231	0x3d3f11dc	0.04664789
232	0xbd75122c	-0.059831783
233	0xbd14f7c2	-0.036369093
234	0xbcb25684	-0.02176977
235	0x3cdb8c1e	0.026800212
236	0xb89c7e32	-7.4621654e-05
237	0xbd19c273	-0.037538957
238	0xbc5aff41	-0.013366521
239	0xbd8ac0bb	-0.06775042
240	0x3d6681dd	0.05627619
241	0x3d53ea49	0.051737104
242	0x3a83302b	0.0010008862
243	0xbd0f8e48	-0.0350478
244	0x3d4ccdac	0.05000083
245	0x3b60d716	0.0034307889
246	0x3e971c6b	0.2951387
247	0x3ceed78f	0.02915552
248	0xbd62a2d3	-0.055331063
249	0xbc97d88f	-0.01853588
250	0x3d909deb	0.070613705
251	0x3d4dc1ad	0.05023353
252	0x3a13f6d3	0.00056443847
253	0xbccd49ec	-0.025059663
254	0x3ca236fd	0.019801611
255	0x396e8651	0.00022747485

net.12.bias f4 [64]
0	0xbd3cb6c4	-0.046072736
1	0x3e7c1c6e	0.2462022
2	0x3e61fa34	0.22068101
3	0x3e54f102	0.20795062
4	0x3eabeccc	0.335791
5	0xbce16587	-0.027514232
6	0x3e707551	0.23482253
7	0x3e134b61	0.14384224
8	0x3e7137e2	0.23556474
9	0x3e843248	0.25819612
10	0x3e4c7068	0.19964755
11	0xbd7f51ee	-0.062333994
12	0x3e774fc5	0.24151523
13	0x3e85b703	0.2611619
14	0x3e55c762	0.2087684
15	0xbd5455e5	-0.051839728
16	0x3e614a2a	0.22000948
17	0x3e876deb	0.26451048
18	0xbcfd9bfd	-0.03095817
19	0x3e932066	0.28735656
20	0x3e2f1397	0.17097317
21	0x3e39f9bb	0.18161671
22	0x3e8d0f71	0.27550843
23	0x3e800694	0.2500502
24	0xbd4dc4d9	-0.050236557
25	0xbd7fc290	-0.06244141
26	0x3e8064f8	0.25077033
27	0xbd3f4e62	-0.04670561
28	0x3e73f911	0.2382548
29	0x3e876ba5	0.26449314
30	0x3e75aef0	0.23992515
31	0xbb874e33	-0.004129195
32	0x3e538f89	0.20660223
33	0x3d1aabeb	0.03776161
34	0x3d2824a5	0.041050572
35	0x3e26c1d6	0.1628488
36	0x3e8aacd7	0.2708499
37	0x3e98a70e	0.29814953
38	0x3e5f1086	0.21783647
39	0x3e484028	0.19555724
40	0x3e36ec59	0.17863597
41	0x3c7d31f0	0.015453801
42	0x3e69f335	0.22846682
43	0x3e8bee0b	0.2733005
44	0x3e2175e9	0.15767635
45	0x3e5b87e6	0.2143856
46	0x3e48d85e	0.19613788
47	0x3e2e80ab	0.1704127
48	0x3e61a5ca	0.220359
49	0xbc2387ed	-0.009981138
50	0x3e3ba826	0.18325862
51	0x3e313173	0.1730402
52	0x3c4408a6	0.011964953
53	0xbd72738a	-0.059192218
54	0x3e6d2a8b	0.2316076
55	0xbcee850a	-0.029116172
56	0x3e0c9dc9	0.13732065
57	0x3ca62caa	0.02028497
58	0xbd1a8a92	-0.037729807
59	0x3e265638	0.16243827
60	0xbceab474	-0.0286505
61	0x3e3200cf	0.17383121
62	0x3e40e295	0.18836434
63	0xbba0effb	-0.0049114204

net.15.weight f4 [64, 64, 3]
0	0x3ca0c5a1	0.019625487
1	0xbd8fd2e0	-0.07022643
2	0x3d6bd2b9	0.057574008
3	0x3d5a77c4	0.053336874
4	0xbd0f237b	-0.034945946
5	0x3d6d2b8e	0.057902865
6	0xbd14894e	-0.036263756
7	0xbcd1369e	-0.025538739
8	0xbc9a2aeb	-0.018819293
9	0xbcd03032	-0.025413606
10	0x3b9b6f47	0.00474349
11	0x3d2f4a58	0.04279551
12	0x3d9c94e2	0.07645585
13	0x3d1871b1	0.0372178
14	0x3c2d9979	0.010595673
15	0x3c5b6b25	0.013392244
16	0x3d1a0dc1	0.037610773
17	0xbcbd6e26	-0.023123812
18	0xbd8437f9	-0.064559884
19	0x3ce9ac73	0.028524613
20	0x3d17dc1e	0.037075154
21	0xbcc64e5c	-0.024207287
22	0xbd4f1e53	-0.05056603
23	0xbd461ff5	-0.04837032
24	0x3d3db009	0.04631046
25	0xbd61e9a3	-0.055154454
26	0x3d421514	0.047383383
27	0xbd354901	-0.044259075
28	0x3ce7ce71	0.028296681
29	0xbbf39169	-0.0074331057
30	0x3c56bcca	0.013106534
31	0x3d0172af	0.03160351
32	0xbc038c11	-0.008029
33	0x3cbf0b41	0.023320796
34	0xbcaa5a19	-0.020794915
35	0x3cebc89a	0.028782178
36	0x3ca8290c	0.020527385
37	0x3d32e465	0.043674845
38	0x3cd83571	0.02639267
39	0xbc6af856	-0.014341434
40	0x3c98c0e5	0.018646667
41	0x3ce7b7ac	0.028285824
42	0x3c931551	0.0179545
43	0xbca2bafc	-0.019864552
44	0xbcc26bbb	-0.02373301
45	0x3cc2d658	0.023783848
46	0x3d577438	0.05260107
47	0x3b22a590	0.0024817921
48	0x3a6ef7d1	0.0009115907
49	0x3cce2ac2	0.025166873
50	0x3cacad43	0.021078711
51	0x3d8b5fc1	0.06805373
52	0xbd025bfb	-0.031826
53	0x3cdb86e7	0.026797725
54	0xbc5e6e48	-0.013576098
55	0x3ce4b057	0.027916117
56	0x3d1f86de	0.03894698
57	0x3df12572	0.1177472
58	0xbd0446fc	-0.03229426
59	0xbd82f26c	-0.063938946
60	0x3ced9a75	0.029004315
61	0x3d8c2b55	0.068442024
62	0xbd8c1a07	-0.06840902
63	0xbd00ebbf	-0.031474825
64	0xbd83011d	-0.06396697
65	0xbbabc5d8	-0.0052420907
66	0x3def49ca	0.11683996
67	0xbcaa0ab8	-0.020757064
68	0xbbd1a1aa	-0.0063974457
69	0xbd90751d	-0.070535876
70	0x3cb12d61	0.021628084
71	0x3c78c405	0.015183453
72	0x3c6ee991	0.014582054
73	0x3d156770	0.0364756
74	0x3cfba93a	0.030720342
75	0x3b81d0be	0.0039616516
76	0x3c7fab42	0.015604796
77	0xbd499c0c	-0.049221084
78	0x3bd18017	0.0063934433
79	0xbc7bb734	-0.015363503
80	0xbd295415	-0.041339952
81	0xbc1db01c	-0.009624507
82	0x3d8e14d6	0.06937568
83	0xbd3358d6	-0.043785892
84	0x3db78572	0.089609995
85	0xbd477ecf	-0.04870492
86	0x3ca7c1a2	0.020478074
87	0xbcbceb26	-0.023061346
88	0xbcfb5721	-0.030681195
89	0xbcba61d8	-0.022751734
90	0x3d20f007	0.039291408
91	0x3bfd73e4	0.0077347625
92	0xbd727df6	-0.059202157
93	0xbd466286	-0.048433803
94	0xbd06fe94	-0.03295763
95	0xbd538ab1	-0.05164594
96	0x3d884d44	0.06655362
97	0xbd8a1b3e	-0.06743477
98	0x3cdb75fe	0.026789661
99	0x3cfe1e82	0.031020407
100	0x3d3a47e9	0.045478735
101	0xbd502103	-0.050812732
102	0xbca12207	-0.019669546
103	0xbd748c8c	-0.05970435
104	0x3d1e8058	0.038696617
105	0xbd60b967	-0.054864313
106	0x3bf7583a	0.007548359
107	0x3d8900c4	0.06689599
108	0xbba9aaf9	-0.005177852
109	0xbd8412cb	-0.06448897
110	0x39fbb96d	0.00048012604
111	0x3d03798b	0.032098334
112	0x3c721496	0.014775416
113	0xbd452ab4	-0.048136428
114	0x3ca5b218	0.020226523
115	0x3d4297fc	0.047508225
116	0x3d8e236e	0.069403514
117	0x3ce11b43	0.02747882
118	0xbd2962aa	-0.04135386
119	0xbc4c7a0a	-0.012480268
120	0x3cd93206	0.02651311
121	0xbcc51f8c	-0.024062894
122	0x3d40c3ac	0.047061607
123	0xbd62fa42	-0.055414446
124	0x3d4833fe	0.04887771
125	0xbd8caeb2	-0.06869258
126	0x3ca3c597	0.01999168
127	0xbcddc183	-0.027069813
128	0x3d8dad53	0.069178246
129	0x3d2eee22	0.04270757
130	0x3b7b5ddb	0.0038355503
131	0x3d799fd2	0.060943432
132	0x3d962213	0.07330718
133	0x3d1f9290	0.038958132
134	0xbd3c09f2	-0.045907922
135	0xbd9c37d2	-0.076278344
136	0x3d548a42	0.051889665
137	0x3ccbdfe1	0.024887027
138	0xbdb9fa3f	-0.09080934
139	0xbd8eaec8	-0.06966931
140	0x3c62e74a	0.013849089
141	0xbd3459dc	-0.04403101
142	0x3cb85b32	0.022504423
143	0x3cea9742	0.028636578
144	0x3d6eb080	0.058273792
145	0xbbac8af9	-0.0052655903
146	0x3d497145	0.049180288
147	0xbd323ce3	-0.043515097
148	0xbcef9813	-0.02924732
149	0x3d44b504	0.048024192
150	0x3bda1196	0.0066549284
151	0x3d05fe23	0.032713067
152	0xbccbafb7	-0.02486406
153	0x3d2affd6	0.04174789
154	0xbd0b3e8f	-0.033995207
155	0xbd45088f	-0.048103865
156	0xbd6f2fb7	-0.058395114
157	0x3d77bb77	0.060481515
158	0xbd2f355d	-0.0427755
159	0xbcabd336	-0.020974737
160	0xbcc937b9	-0.024562703
161	0xbc088eb4	-0.008334804
162	0x3d5ef6fb	0.054434758
163	0xbb8da689	-0.004322831
164	0xbc4bf876	-0.012449374
165	0xbc192c6b	-0.009348969
166	0xbd13ffdd	-0.036132682
167	0x3d4b9bf4	0.049709275
168	0x3d734887	0.05939534
169	0x3d37f7b6	0.04491397
170	0x3cd4a2b1	0.025956484
171	0x3d35ac36	0.044353686
172	0x3d0e9d5c	0.03481804
173	0x3cfdf1af	0.030999033
174	0x3cd78749	0.026309626
175	0xbd5a92a6	-0.05336251
176	0xbbd627bc	-0.0065354984
177	0x3cca3446	0.024683129
178	0xbd69fef9	-0.057127926
179	0x3c48525d	0.012226668
180	0xbbdb9ae8	-0.006701816
181	0x3d2a1150	0.041520417
182	0x3c24a53f	0.010049163
183	0x3d652c7d	0.05595063
184	0x3d33025b	0.04370342
185	0xbd0bc72e	-0.0341255
186	0xbd958b79	-0.07301993
187	0xbd3acf49	-0.04560784
188	0x3c7c87fd	0.0154132815
189	0xbcfb3dc8	-0.030669108
190	0xbd6141ad	-0.054994274
191	0x3d8d1718	0.068891704
192	0x3dd531bf	0.10409879
193	0xbd06b4a1	-0.032887105
194	0xbd881083	-0.06643774
195	0x3e82fc5a	0.25583154
196	0xbcc1010b	-0.023560068
197	0x3d75c2ed	0.06000035
198	0xbd59550c	-0.053059623
199	0xbd70b0d4	-0.058762386
200	0x3d07012c	0.032960102
201	0x3d698a8c	0.057016894
202	0xbd7a03cf	-0.06103879
203	0x3d892366	0.06696205
204	0x3df5309b	0.119721614
205	0xbc69fafe	-0.014281033
206	0x3d54551a	0.05183897
207	0xbd90bf09	-0.07067687
208	0xbcd05a54	-0.025433697
209	0x3d0205b7	0.03174373
210	0x3a5ed243	0.00084999594
211	0x3d82d7b0	0.063887954
212	0xbd06d19c	-0.032914743
213	0xbc61b98f	-0.013777151
214	0xbc60ad73	-0.0137132285
215	0xbc1888f4	-0.009309996
216	0x3d7ed7a9	0.06221739
217	0xbb44f638	-0.0030053984
218	0xba961b3a	-0.0011452206
219	0xbc4723c8	-0.012154527
220	0x3be4a056	0.0069771213
221	0x3d32517a	0.043534733
222	0x3da71372	0.08158006
223	0x3c1420b7	0.009041003
224	0x3c6d6063	0.014488312
225	0x3cccb3ff	0.024988173
226	0xbd327655	-0.04356988
227	0xbd043f05	-0.032286663
228	0xbd36352f	-0.044484314
229	0x3ce03fec	0.02737423
230	0x3d5a1fec	0.0532531
231	0xbdd8786c	-0.10569844
232	0xbcdc0248	-0.026856557
233	0xbcf151d8	-0.029457971
234	0x3c96237a	0.018327463
235	0x3c36f29c	0.011166241
236	0xbd680b65	-0.05665149
237	0xbca0d002	-0.019630436
238	0xbc3a3ac4	-0.01136655
239	0x3d24bd10	0.040219367
240	0x3c0c2b74	0.008555282
241	0xbc22ead6	-0.009943685
242	0x3aa10fde	0.0012288054
243	0x3d6e1614	0.058126524
244	0xbd82b9a7	-0.063830666
245	0x3c40e1fb	0.011772628
246	0xbd5431f9	-0.05180547
247	0xbd5be784	-0.053687587
248	0xbce3e699	-0.027819918
249	0x3d03deeb	0.032195013
250	0xbc65a992	-0.0140174795
251	0xbd433461	-0.047657374
252	0xbd1a4985	-0.03766777
253	0x3a8b16bc	0.0010611634
254	0x3d4bac0a	0.049724616
255	0x3d75e3df	0.060031768
