model_artifacts/dl_tcn_h24_ret20cls2_32000_33500.pt (torch, 378717 bytes, 20 tensors)

net.0.weight f4 [64, 30, 3]
000000 02 40 89 bd fa 7e ca 3b 39 91 96 3d 28 63 68 3d
       -0.06701662 0.0061796876 0.07351918 0.056735188
000010 f5 30 d2 bd 10 57 8d bd 63 2a 88 3d e4 b3 a7 bd
       -0.10263244 -0.069013715 0.066487096 -0.08188608
000020 5f 00 ce 3d d8 70 06 3e 8a 61 e9 bc fa ae f2 3c
       0.100586645 0.13128984 -0.028488893 0.029624451
000030 7a c1 ce 3c 11 55 50 bd 1f c9 78 3c 3a 74 7c 3d
       0.025238741 -0.050862376 0.01518467 0.06163428
000040 b0 cb 99 bd 39 8f a2 3d ec 3b ed 3d 56 62 a0 3c
       -0.075095534 0.07937474 0.11583695 0.01957814
000050 79 63 57 3d 05 8c 70 bd 3a 2b 4c 3d a5 38 8c 3d
       0.0525851 -0.058727283 0.04984591 0.068467416
000060 aa ef 59 bd 48 a9 80 bb 2c e8 8e 3b 68 9f cf 3d
       -0.053207077 -0.00392643 0.004361173 0.10137826
000070 56 bc b1 3c 52 b0 1f 3c d6 c5 0b be 09 4f b8 3d
       0.02169625 0.009746628 -0.13649687 0.0899945
000080 2b 50 8b 3c 38 2c a9 3d d8 48 b3 bc 9f 08 b5 3d
       0.017006 0.08260387 -0.02188532 0.08839535
000090 8a a2 b7 3d a6 69 87 bd 6c 19 a7 bb 20 f4 a3 bd
       0.08966549 -0.06611948 -0.005099466 -0.080055475
0000a0 f3 9b cd bd 07 26 80 bd d1 b3 f6 3d a2 17 9e bd
       -0.100395106 -0.06257253 0.12046016 -0.07719351
0000b0 9b 07 a6 bd 8a 82 87 bd 0c 53 1f 3d 11 82 a9 3d
       -0.081069194 -0.06616695 0.03889756 0.08276761
0000c0 19 91 bd 3d 4a 01 4b 3c 84 5e 8f bd 4b 70 16 3d
       0.09256191 0.012390444 -0.07000449 0.036728185
0000d0 28 78 04 3d 2e e8 21 3d 8d 41 22 bd c6 90 c7 3b
       0.032341152 0.039528064 -0.039613295 0.0060902564
0000e0 22 d6 4e bd 7f 35 11 bd 37 c9 8f bd d0 f6 f3 bc
       -0.05049718 -0.03545141 -0.070208006 -0.029780775
0000f0 e3 8b e4 3d b1 23 a4 3d b8 6c ab bd 6d 65 58 3d
       0.11159494 0.0801462 -0.08370346 0.052831102
000100 97 79 b8 3d 9c 15 99 3c 9b 28 ef 3d 03 ff a8 3d
       0.090075664 0.018687062 0.11677667 0.082517646
000110 4f d1 58 bd 4e e7 3b bd 97 58 71 bd ad 8f 54 bd
       -0.052933987 -0.045874886 -0.058922376 -0.051894832
000120 20 df e5 bd d6 0a 22 3d 36 9a cf bd 3c 10 3c bd
       -0.11224198 0.039561115 -0.10136835 -0.04591392
000130 7e d4 b7 bd bc 31 a4 bc 1d a7 ea bd 30 0f 08 3d
       -0.089760765 -0.020043246 -0.114576556 0.03321761
000140 cf 27 95 3d 21 da 9b bb b9 ac c6 bd 8e ab 93 bd
       0.072829835 -0.0047562276 -0.09700913 -0.07210456
000150 17 fa 00 bc f0 94 85 3a 1f 1b 5f 3d 24 eb ee bd
       -0.007872126 0.0010191482 0.054469224 -0.11665943
000160 76 1b 29 bc fc 68 94 bd 5a c0 80 3c 48 7d 88 3c
       -0.010321489 -0.07246587 0.01571672 0.016661301
000170 16 ac 23 3d ed 5d c8 3d ac a4 33 bb d8 ce f6 bc
       0.039959036 0.0978354 -0.0027411385 -0.030127928
000180 28 24 51 bd 76 6a 42 3d c8 a2 48 bc 37 25 7c 3b
       -0.051059872 0.04746481 -0.012245841 0.003847433
000190 27 39 d0 bd af 5e 5d bc 9b a0 cb 3d 20 32 88 3c
       -0.10167151 -0.013511344 0.099427424 0.016625464
0001a0 61 06 31 bd eb 29 c4 3d 5c 6c 4d 3d f0 8d 07 3d
       -0.043218974 0.09578308 0.050152168 0.033094347
0001b0 74 44 d8 bc 15 01 d1 3d 7c 63 a5 bd d0 10 31 bd
       -0.026399828 0.102052845 -0.08075616 -0.043228924
0001c0 2c a5 95 bd ba 07 fb bc a2 0b db 3c 38 bd a6 bd
       -0.07306895 -0.030643333 0.026738945 -0.08141559
0001d0 bb f7 98 3d 99 cb ee bc 8f 9c 80 bc 84 25 54 3d
       0.07469126 -0.029149817 -0.015699653 0.05179359
0001e0 a9 f6 46 bd b4 b8 21 bc 66 b4 ac 3d 41 1f c6 bd
       -0.048575077 -0.009870697 0.08432846 -0.0967393
0001f0 c9 e6 d3 3d 85 6c 3d bd 21 e4 da 3d 87 ea 92 bd
       0.10346753 -0.04624607 0.106880434 -0.07173639
000200 24 40 fa 3c 55 0a 60 bc 80 da e1 bc 35 2f b0 3d
       0.030548163 -0.013674338 -0.02757001 0.08602754
000210 3d bf 97 bd 33 2a c4 3d 4b 18 66 bd c9 cb 25 3d
       -0.07409523 0.09578361 -0.05617551 0.040477548
000220 fc c9 b2 39 20 5e 68 bd 49 44 10 bd 04 f5 9d bc
       0.00034101296 -0.05673039 -0.03522137 -0.019281872
000230 ee fa 53 bc f0 dd 81 3d f6 de 82 bd 9f 8a c6 bd
       -0.012938244 0.06341159 -0.06390183 -0.096944086
000240 87 e9 96 bd b0 20 7a bd 81 80 9e 3d eb 43 31 bc
       -0.073687606 -0.06106633 0.07739354 -0.010819416
000250 23 90 fa bb 47 ef 84 3d 2f b7 20 3d fc aa 25 3d
       -0.007646577 0.06490951 0.039237197 0.040446267
000260 53 18 a5 3d 22 19 83 3d e0 70 9c bd a0 e4 bf 3c
       0.0806128 0.06401278 -0.07638717 0.023424447
000270 85 92 89 bd a4 46 fc bc fb ff 76 bd e1 55 1a 3d
       -0.067173995 -0.030795403 -0.060302716 0.037679557
000280 f4 0d 17 3d 58 ed bf bd f7 1d f0 bd 03 af 03 bd
       0.03687854 -0.093714416 -0.11724465 -0.032149326
000290 b9 70 88 3d 79 45 cb bd 31 5d 41 bd 3c 66 64 3c
       0.06662125 -0.0992536 -0.047208015 0.01394039
0002a0 2c 3c 67 3d 4b 7e c0 bd e8 84 97 bd ee 25 45 bd
       0.05645387 -0.093990885 -0.07398397 -0.048131876
0002b0 30 2c 26 3d e1 65 d0 bd 77 6a a9 bd 1a 1e 43 3d
       0.040569484 -0.10175682 -0.0827226 0.04763613
0002c0 ce 1e c5 bd 87 e6 e8 bd 58 99 aa bc 37 50 85 bc
       -0.09625016 -0.113720946 -0.020825073 -0.016273601
0002d0 e0 e5 45 3d 4e 87 79 bd 80 7c c0 3d 2e d6 0b 3d
       0.04831493 -0.060920052 0.093987465 0.034139805
0002e0 26 a0 17 bd 96 bb ab bc 0e 28 f0 3d 32 ac 3e bd
       -0.037017964 -0.020963471 0.1172639 -0.046550937
0002f0 90 58 23 3d fb e0 75 bd b9 3b b5 3d e4 98 7e bd
       0.03987938 -0.06002901 0.08849282 -0.062157527
000300 ad 18 57 3d f7 51 d5 3d 00 46 c3 b9 7d 5a e5 3c
       0.052513767 0.10416024 -0.00037245452 0.02799725
000310 f5 27 cb bd de 29 8f bd 35 ab 4e bd 06 ff 1a 3d
       -0.099197306 -0.069904074 -0.050456244 0.037840866
000320 20 a5 3b 3d 3f be a8 bb 26 85 74 bd 90 54 1a bd
       0.045811772 -0.005149632 -0.059697293 -0.0376783
000330 80 be 9e bd e4 84 a4 3c 03 01 9b bd b0 38 d9 bd
       -0.07751179 0.020082898 -0.07568552 -0.106065154
000340 33 5e 53 bd fe 47 91 3d 8f 18 fa bd 08 7d 79 bb
       -0.051603507 0.070938095 -0.122117154 -0.003806891
000350 e6 db c8 bd ef 4f 46 3c cc f5 8d bd 9e bd a8 3b
       -0.09807567 0.012104019 -0.06931648 0.0051495573
000360 74 70 f4 bd b3 48 d4 bd 48 cb 94 bd dd 10 b6 3d
       -0.11935511 -0.10365429 -0.07265335 0.08889935
000370 da 0e bf 39 70 58 35 bd 3b 6c 6a 3d 5e ed 23 bd
       0.00036441424 -0.044273794 0.057232123 -0.040021293
000380 47 f2 88 3d 36 ed 00 be c5 dc 18 bd 67 3e bc bd
       0.06686836 -0.12590489 -0.037319917 -0.0919159
000390 3d 70 f5 3c 2c 05 9f 3d bd 08 c2 bd 7e 33 fe bd
       0.029960746 0.07764658 -0.09474323 -0.12412165
0003a0 e9 c1 52 3d 00 7c ce bc 43 ca 9b bd 36 12 61 3d
       0.05145446 -0.025205612 -0.07606938 0.054949008
0003b0 6f 44 87 bd 52 cf 0e bd 20 b6 7f bd 2e 25 b2 3c
       -0.066048495 -0.034865685 -0.062429547 0.021746244
0003c0 b3 bb 2c bd 12 56 d9 3c 2d d7 8e 3d 2c 50 41 bd
       -0.04217119 0.0265303 0.06974635 -0.0471956
0003d0 72 ba b8 3a 04 51 20 3d 87 59 f0 3c 2c 8a cf bd
       0.0014093651 0.039139763 0.029339565 -0.10133776
0003e0 0e 09 7e bb bf 2a 95 3d f1 38 cc 3d f5 04 a3 3d
       -0.0038762721 0.07283544 0.09971798 0.0795993
0003f0 73 95 75 bd 9c 07 3b 3d d8 55 e1 3b 67 35 f2 bb
       -0.05995698 0.045661554 0.0068766885 -0.00739162

net.0.bias f4 [64]
000000 04 3d 35 bd 8b 23 0e 3e 36 e4 62 3c 5f 31 c6 bc
       -0.044247642 0.13880746 0.013848355 -0.024193464
000010 43 e1 e7 3d ed 8c 57 3d ad 3c 9e bc 50 e2 be 3d
       0.11322262 0.05262463 -0.019316042 0.093205094
000020 24 56 8a 39 1b b8 0d 3e 4e 79 d0 3d 8e ed 83 3c
       0.0002638559 0.13839762 0.10179387 0.016104486
000030 cc 96 99 bc 7a 4e a8 3d f6 53 ef 3d f8 2f 17 bb
       -0.018748663 0.08218093 0.11685936 -0.0023069363
000040 5c f4 7e 3d e4 8a d0 3b 99 85 70 bc 29 75 8d 3d
       0.062244758 0.0063642133 -0.01468029 0.06907112
000050 f5 fb aa bc 2b 6f 73 3c b3 bc aa 3d a1 50 ce bb
       -0.020872096 0.0148580475 0.08336773 -0.006296233
000060 14 39 92 3d 07 b4 0d 3e b6 d0 e9 3d 40 95 bb 3d
       0.07139793 0.13838206 0.114167616 0.091593266
000070 78 0f 4d 3c 0e 03 95 3d df 08 89 3d f8 4f 17 3e
       0.012515895 0.07275973 0.06691145 0.147766
000080 1b c9 06 3e 2a b1 14 3e c5 d0 d2 3d 64 f9 05 bd
       0.13162653 0.14520708 0.10293726 -0.03270854
000090 bf 64 06 bd 6b 41 8e 3d 6e dd 0f 3c d1 47 fb 3d
       -0.032810923 0.06946071 0.00878082 0.12269557
0000a0 55 ac 02 3e ed c4 cd 3d 7f da 6e 3d 48 07 c5 bc
       0.12761052 0.10047326 0.058313843 -0.024051324
0000b0 27 8f 81 bc ab 69 06 3d 87 e6 e7 3c 72 c1 46 3d
       -0.01581533 0.032815617 0.028308166 0.048524328
0000c0 ad e9 1d bb bf 35 74 bc 8e d8 4e 3c d4 cc 97 3d
       -0.002409558 -0.014905392 0.012624873 0.07412115
0000d0 c8 49 a9 bd 9d f6 07 3b 15 16 21 3d c3 b5 f7 3d
       -0.08266026 0.0020746358 0.0393277 0.12095215
0000e0 7c 3b b8 3d 19 54 04 3e 94 6f f6 3d 96 17 e6 3d
       0.08995721 0.12922706 0.120330006 0.112349674
0000f0 3b fa 99 3d 4e 40 7f bc 72 c7 c5 3d 4c 0c dd 3b
       0.07518431 -0.015579296 0.09657182 0.0067458507

net.3.weight f4 [64, 64, 3]
000000 c2 64 95 bb e5 36 66 bd 32 ff 86 3a e7 5d 24 3b
       -0.0045591304 -0.056204695 0.0010299443 0.0025080384
000010 86 bf 2c bd a6 91 a4 bc af c7 54 3d a2 33 2c 3a
       -0.04217484 -0.020088982 0.051948246 0.0006568973
000020 c4 70 33 3d c4 47 31 3d 82 3b a0 bb 4c a4 55 bd
       0.043808714 0.04328133 -0.0048899064 -0.05215864
000030 cd ab 0c 3c 32 09 a4 bc 82 e6 59 3d f4 ee ba 3d
       0.008585882 -0.020023916 0.053198345 0.09127608
000040 54 9c ea 3b ca e4 90 3d 05 2e ca 3c 1c 74 47 bd
       0.007159749 0.07074888 0.024680147 -0.048694715
000050 76 a0 8b bd 41 94 19 3d 36 16 7e 3c 32 58 34 3d
       -0.06817715 0.0374949 0.015508225 0.044029422
000060 89 c0 76 3d 4a 2d a9 3c 9d 6f 22 bd 70 2b 1b 3d
       0.06024221 0.020651478 -0.039657224 0.037883222
000070 38 9c 40 bd 34 51 ad bb c8 e6 55 bc 1c 01 70 3b
       -0.04702398 -0.005289221 -0.013055511 0.0036621755
000080 0a d9 f4 bc e4 23 1e 3c 57 09 46 bd 38 22 86 bd
       -0.029888649 0.009652112 -0.04834875 -0.065494955
000090 57 6c 02 3d 2a 6b 7f bd 36 4c c5 3c 82 62 54 3b
       0.031841602 -0.06235806 0.024084192 0.0032407348
0000a0 46 57 b8 3c c2 cc 22 bd ee ac 12 bc 42 cc c1 bc
       0.022502553 -0.039746054 -0.008952362 -0.023656968
0000b0 5f 0c 4b 3c 65 b8 b1 bc f1 2b 1e bd 62 a0 2d bd
       0.012393086 -0.021694371 -0.038616125 -0.04238928
0000c0 9a a0 c6 3d 28 14 8f 3d ea 0e e6 3c 6b 68 c6 3d
       0.09698601 0.069862664 0.028083283 0.09687885
0000d0 50 92 7c 3d 9e 8d 7e 3d f1 78 d9 3d 44 30 0a 3d
       0.061662972 0.062146775 0.10618771 0.033737436
0000e0 b4 62 12 bd e8 08 f1 3b 9a 74 d9 3c b7 49 82 bd
       -0.035738662 0.007355798 0.026544858 -0.06361716
0000f0 e5 61 6a bc 08 48 03 3d 5c 28 3d 3d bf 83 97 bc
       -0.014305566 0.032051116 0.046181068 -0.018495439
000100 dc ba 85 3d c5 32 92 bd 76 13 ba 3d 71 75 1a bd
       0.06529781 -0.0713859 0.09085743 -0.037709657
000110 b0 e4 56 bd bd 00 9a 3a ca 4d 7b 3d bb ff 31 bd
       -0.052464187 0.0011749488 0.061353482 -0.043456774
000120 df 08 d4 bc ae 86 59 3c 4a 18 0e bc 93 1e ae 3c
       -0.025883136 0.013276739 -0.008672783 0.021254813
000130 5e f4 6b 3c 8f a9 80 3d 0a 70 b2 3c 1a 6e a6 3c
       0.014401523 0.06282341 0.02178194 0.020316172
000140 7c 39 c0 ba e6 25 ed 3d 2d 9a 73 bd aa 22 0b 3d
       -0.0014665569 0.11579494 -0.059473205 0.033968605
000150 ae 5a 1a bd 85 b8 1a bd 84 9d 4a bd 12 47 af 3d
       -0.037684135 -0.037773628 -0.049466625 0.085584775
000160 ac ce 88 3c 9d 83 2f bd 17 d5 83 bc 50 8b 4c bc
       0.016700111 -0.042850126 -0.01609282 -0.012484387
000170 8e 5b 63 3d 5f ed 1b 3d 7c cf 97 3c 49 8e c0 3c
       0.055507235 0.03806817 0.018531553 0.023505347
000180 51 ce 58 3d 74 f8 3e 3d 7c 5c 27 bb 27 90 f6 3b
       0.052931134 0.046623662 -0.0025537303 0.0075245085
000190 0e 1d 8d bd 4e b6 28 3c 41 cb e8 3b 30 d2 48 bc
       -0.06890307 0.010297371 0.007104308 -0.012257144
0001a0 a7 b4 00 bd 4e 91 cb 3d 18 f4 ed 3c b4 81 27 3c
       -0.031422284 0.09939824 0.029047057 0.010223795
0001b0 f8 b0 cd 3d 02 d1 8e 3d a7 f1 35 bd 79 4f e4 3b
       0.1004352 0.06973459 -0.04441991 0.0069674817
0001c0 b0 96 ad 3c 3e ec e5 bb 75 93 c4 3d ca f6 3a 3d
       0.021190017 -0.0070166877 0.09598438 0.045645513
0001d0 b7 27 86 bd ed 7f b5 3d 64 9f 10 bd 08 1e d1 bc
       -0.06550544 0.088622905 -0.035308257 -0.025527015
0001e0 a9 1f e1 3b 08 03 a5 3b e2 61 87 bc 5e bb 59 3d
       0.0068702293 0.0050357617 -0.016526166 0.053157203
0001f0 30 6e 73 3d 02 cc b1 3c 05 8a 05 3b a6 5e 93 3c
       0.059431255 0.021703724 0.0020376456 0.017989468
000200 e8 b0 4b bd dd 07 ff 3b 36 26 3e bc 0e 82 5f 3d
       -0.049729258 0.00778292 -0.01160579 0.05456739
000210 64 54 b3 3d 15 24 05 bd 44 7f c5 ba 7d 31 80 3d
       0.087563306 -0.032505114 -0.0015067835 0.06259439
000220 a6 0e 37 3d a2 59 13 3b 0a 64 74 b9 1d 11 a2 3a
       0.044691704 0.0022483845 -0.00023306921 0.0012364719
000230 ea 57 96 3c dd d2 b9 bb 4b 38 90 bd c8 bc 85 3c
       0.018352468 -0.005670889 -0.07041987 0.01632537
000240 f0 d4 df 3c 6c e0 3c 3d 40 5d 7f 3d b6 6f e4 3c
       0.027323216 0.046112463 0.06234479 0.0278853
000250 4a 91 39 bd 71 f8 78 3d 75 eb 6d 3c 98 3d 37 bd
       -0.045304574 0.060783807 0.014521469 -0.044736475
000260 ab 3a 8d bd ed bc 0c 3c b8 53 22 3d 28 58 13 bd
       -0.06895956 0.008589965 0.03963062 -0.035972744
000270 af a9 87 bc dc f1 9d 3c e4 47 aa bc e9 c3 ee 3d
       -0.016560404 0.019280367 -0.020786233 0.11658461
000280 f6 2f 3b 3c 96 aa f4 bc 3a 85 5e 3d 85 ac 52 3d
       0.011425009 -0.029866498 0.054326274 0.05143406
000290 ac 59 21 3d cd 40 06 bc 99 34 1f bd 52 88 0a 3d
       0.03939216 -0.008194161 -0.03886852 0.03382141
0002a0 1c 11 2b 3d e9 d4 08 bd 15 a6 82 bd 16 e1 00 bd
       0.041764364 -0.033406172 -0.06379334 -0.03146466
0002b0 9a 9a 7b 3d 2e b7 8b 3d 73 26 c3 3d f0 2e 81 bd
       0.061426736 0.06822048 0.09528818 -0.06307781
0002c0 fe 21 10 bc 5a 0f f2 3c 02 a4 b1 bc 84 fe e6 3c
       -0.008797167 0.029548336 -0.02168465 0.028197534
0002d0 48 a6 a0 3c 24 25 9a bc 17 65 3a 3c 9f 00 d9 bc
       0.01961054 -0.018816538 0.011376641 -0.026489554
0002e0 56 b6 1c 3d 4e 5e b4 bb b9 2d 1b bd 56 29 3e bd
       0.038259827 -0.005504406 -0.0378854 -0.04642614
0002f0 a0 a8 97 bc d1 2b aa 3d 90 25 43 bd 32 27 06 3d
       -0.018513024 0.083091386 -0.047643244 0.032752223
000300 01 85 ea bc 9c ec f0 bb fc 63 70 3d b7 53 dd 3c
       -0.028627874 -0.007352425 0.058689103 0.027017457
000310 34 5d 77 bd 80 c8 72 bc ac aa 5f bb 4a c2 87 3d
       -0.06039162 -0.014818311 -0.0034128828 0.066288546
000320 02 ce 1c 3d 20 15 a9 3d 1c e3 f0 bb 9b 60 53 bd
       0.0382824 0.082559824 -0.0073512923 -0.051605802
000330 52 b0 2f 3d dc c0 12 3d 86 3b 24 3d 1f 9a e5 3d
       0.04289276 0.035828456 0.04009583 0.11211037
000340 c0 58 61 3d e8 c9 1b 3d 78 e7 bc bc 9e 2a 66 3d
       0.05501628 0.03803435 -0.023059592 0.056192987
000350 28 ad de 3c 68 99 07 3d 1a 41 37 bd e8 98 02 3d
       0.027182177 0.033105284 -0.04473982 0.031884104
000360 6e c8 b3 3d 88 1f b0 bb da 6c 6f bb 23 54 dc 3d
       0.08778463 -0.0053748526 -0.0036533386 0.10758235
000370 ca e9 f3 bc 2c d8 0f 3d db 21 17 3c dc c5 ce bc
       -0.029774565 0.035118267 0.00922438 -0.025240831
000380 78 e5 02 3d 94 ca 3f 3d 60 91 72 bd 01 0d 65 3d
       0.03195712 0.046824053 -0.05922067 0.055920605
000390 2a 26 89 bc 0b 3f 84 bd 0b c8 13 bd fe 1f 98 3c
       -0.01674183 -0.06457337 -0.036079448 0.018569943
0003a0 04 aa 2e 3d 54 b6 4d bd 79 4c ab 3d 58 be 5d 3d
       0.04264261 -0.05022271 0.083641954 0.054136604
0003b0 12 f6 e2 3c 38 c3 be 3d 46 0d 50 3d aa ab 1f bd
       0.027705226 0.09314579 0.05079391 -0.03898207
0003c0 d6 ff 30 3d e3 a6 05 bd 6a c0 d0 3c 09 70 c1 3c
       0.043212734 -0.03262986 0.025482375 0.023612993
0003d0 7c fd 5d 3d 0f 92 c9 3c 42 65 8a bc 3c 56 1b 3d
       0.05419682 0.024605779 -0.016893987 0.037924036
0003e0 c9 73 90 bd 8a f8 1a bd dd e3 12 bc 1a f2 aa bc
       -0.07053334 -0.03783468 -0.00896546 -0.020867396
0003f0 54 3c 87 3c f5 db 0e bd 48 4e f1 3c 13 50 dd 3c
       0.016508259 -0.034877736 0.029456273 0.027015721

net.3.bias f4 [64]
000000 04 35 e9 3c bf 36 57 3d be 0a b7 3d 45 cb 9d 3c
       0.028467663 0.052542444 0.08937596 0.019261966
000010 47 c2 dd 3c 9d 04 bc 3d 17 3d 69 3d 0c 0c 9d 3d
       0.027070178 0.091805674 0.056943025 0.076683134
000020 1c 5b f1 3b 90 19 11 3e 1c 6a 22 bd 5e 3c ef 3d
       0.0073655974 0.14169908 -0.039651975 0.11681436
000030 7c be 9c 3c 95 5f f1 3d 32 8f eb 3d b5 ed bd 3d
       0.019133799 0.11785809 0.11501922 0.09273855
000040 33 0b ed 3c 92 4e c1 3d a7 6f e8 3d 65 eb ae 3d
       0.028936004 0.09438814 0.11349421 0.08540992
000050 67 e2 f9 3d 60 e9 4a 3d fd dd 09 3e 4d 71 ae 3c
       0.12201386 0.04953897 0.13463588 0.02129426
000060 10 e0 7a 3d 9b c5 0b bd c2 bd 74 bc 00 81 8f 3d
       0.06124884 -0.034123998 -0.01493782 0.07007027
000070 de 81 ba 3d 2e 57 83 3d 7d dc 4b 3d a8 d0 03 bb
       0.091068015 0.064131126 0.04977082 -0.0020113382
000080 f1 01 f9 3d 07 a0 94 3d dc c7 05 3e 78 73 75 3d
       0.121585734 0.07257085 0.13064522 0.059924573
000090 0e 59 f2 3d aa e3 d5 3d 5b 3b 9a 3d 49 d8 f1 3d
       0.11833392 0.10443814 0.075308524 0.11808831
0000a0 85 50 68 bd 0e d7 2f bb 28 21 3c 3d 38 97 e6 3c
       -0.056717414 -0.0026831063 0.045930058 0.028148279
0000b0 d0 a8 04 3e 98 75 86 3d e0 0e 41 3d 5d 3a 09 3c
       0.12955022 0.06565398 0.047133327 0.008375731
0000c0 26 1f e3 3d f7 9d 9a 3d 74 4b 9a 3a 1a 85 2b 3d
       0.110899255 0.07549661 0.0011771754 0.041874982
0000d0 91 4f 70 3d 26 eb cc bc e4 dd 76 3d a6 17 a4 3d
       0.05866963 -0.025014471 0.060270205 0.08012323
0000e0 cc c2 99 3d 11 07 e8 3d e6 73 7a 3d 1d d9 df 3d
       0.07507858 0.11329473 0.061145686 0.10930083
0000f0 5c ed 43 3d ce 23 d0 3d dd 79 b5 3d 7a d0 84 3d
       0.047833785 0.10163079 0.08861134 0.06485076

net.6.weight f4 [64, 64, 3]
000000 3b 70 72 bc d2 bf e1 bc f2 ba 5c bc 17 60 ab 3c
       -0.014797266 -0.027557287 -0.013472306 0.020919843
000010 ba ac 3e bb f2 6c 5d 3d 28 ec c0 3c 72 e2 87 bb
       -0.0029094652 0.054058976 0.023550108 -0.0041468674
000020 8a 26 01 3c 65 ff 4e 3d 6c a3 bf 3c f8 bc 8f 3c
       0.007882724 0.050536532 0.023393355 0.017546162
000030 be 64 6c 3d ec 96 88 3d 52 f6 cf bc ac 3d 29 ba
       0.057713263 0.06669411 -0.02538601 -0.0006456028
000040 71 c9 8f bd ca a2 62 bd aa b4 85 3c 88 dd 30 bb
       -0.07020844 -0.05533103 0.016321499 -0.0026987512
000050 82 2c 0e 3d 72 75 81 3d b0 e8 5a bd 98 95 a8 bc
       0.034710415 0.06321229 -0.053444564 -0.020579144
000060 ad cd 95 bd 3c 3b e4 bb a6 81 7c bd 5a 27 f4 3c
       -0.0731462 -0.006965069 -0.06164708 0.02980392
000070 e9 a5 86 3d a0 71 33 bc 95 59 a2 bc 46 9e 7e 3c
       0.065746136 -0.010952383 -0.019818107 0.015540665
000080 71 8f 80 bc fe 34 01 3b 25 cd 29 3d 98 e3 64 bc
       -0.015693398 0.0019715424 0.041455407 -0.013970278
000090 a7 7b 65 bd bb 10 8a bd 1a 3d 30 3d f1 6f 3f bb
       -0.056026127 -0.06741472 0.04302702 -0.002921101
0000a0 36 2b db bc 98 53 3f 3d 18 19 4e 3c 8e ba 65 3c
       -0.026754003 0.04671058 0.012579225 0.014021529
0000b0 be 35 19 bd 8a 8e be bc 68 9e 5b 3d 6e 70 e8 bc
       -0.03740477 -0.023261327 0.053617865 -0.028373923
0000c0 e3 65 f0 3c 14 33 07 3d 80 15 22 3d 30 9f 7a bd
       0.029345458 0.033007696 0.039571285 -0.06118697
0000d0 fa 59 cd 3c be 5a 84 3d 7f 4c 39 3d fa 06 0e bc
       0.025067318 0.0646262 0.045238968 -0.0086686555
0000e0 bc f4 38 bd 78 7f 93 bc 1c 4d 41 3d bf ab 92 bd
       -0.045155272 -0.018005118 0.047192678 -0.07161664
0000f0 8b 7f 57 3d 8e a0 33 3d 78 b6 ce 3c 10 bf 07 3d
       0.05261187 0.04385429 0.025233492 0.033141196
000100 ba e6 d0 3c 52 d5 84 bc d7 7d 85 3d 5a 2b 59 3d
       0.025500644 -0.016215 0.06518143 0.05301986
000110 2f 82 91 bd c5 1f 78 3d e7 e8 7d bd 4e 08 90 3d
       -0.07104909 0.060577173 -0.06198969 0.07032834
000120 77 2f 9d bc 46 77 c7 3a 98 ee 9e bc 53 37 98 bd
       -0.019187672 0.0015218041 -0.01940088 -0.07432427
000130 b4 fa 20 3b cb cd 0c bd ac cd e2 3c 64 0e eb bb
       0.0024563493 -0.034375947 0.027685963 -0.0071733464
000140 9e 2a 6f bd 15 03 2f 3c e2 96 2e bd da f9 e6 bc
       -0.058390252 0.010681887 -0.04262436 -0.02819531
000150 f3 7a 64 bd 1a 04 14 3c 60 5e d7 bb 56 8d fe 3c
       -0.055781316 0.009034181 -0.0065725297 0.031073254
000160 70 41 3a bc b8 ca a0 bc 10 85 66 3c a7 f1 11 bd
       -0.011368141 -0.019627914 0.0140698105 -0.03563085
000170 18 df eb bc 0f c3 f5 bc 74 ef 89 bc ba fe a5 3b
       -0.028792903 -0.030000238 -0.016837813 0.005065766
000180 92 5c d3 ba 92 76 72 bd 6a a6 38 bc d1 42 94 bb
       -0.001612561 -0.05919511 -0.011270145 -0.0045245667
000190 a2 74 50 3c 63 51 f7 bc 77 95 e4 3c 4c db 23 bd
       0.01272312 -0.030190175 0.027903302 -0.04000406
0001a0 6c 0d b3 bc 2d a3 f0 3c af 80 67 bd d2 3e 9d 3c
       -0.021856986 0.029374683 -0.056519207 0.019194994
0001b0 61 04 86 3d 62 e4 3b 3d ae a0 cd bb 85 3d aa 3c
       0.06543804 0.0458721 -0.006275258 0.020781288
0001c0 f0 75 89 3d 7e ec 19 bd 10 72 5b bd d4 d8 8a 3d
       0.06711948 -0.037579052 -0.053575575 0.06779638
0001d0 a3 14 10 bd cb e2 0c bd b6 b8 38 bc f6 50 78 3d
       -0.03517593 -0.034395974 -0.011274507 0.060624085
0001e0 a3 d7 37 bd 7b a1 4c bd c2 55 42 3d b5 a5 de 3b
       -0.04488338 -0.049958687 0.047445066 0.006794656
0001f0 a2 d2 31 3d 1c 90 a9 bc a7 90 6e bd a8 7a d8 bc
       0.043413766 -0.0206986 -0.05824342 -0.026425675
000200 fa 24 82 3d 9d 2c 3c bd 91 a5 84 bd 92 22 1a 3c
       0.06354709 -0.045940984 -0.06476892 0.009407656
000210 18 36 78 3c ca 93 02 3d 10 5c 81 bd fb 4d 39 bd
       0.015149616 0.031879224 -0.06316388 -0.045240384
000220 14 bc b3 3c 7b b0 f5 bc b6 56 47 bc 52 54 2e bd
       0.021940269 -0.029991379 -0.01216667 -0.042560883
000230 f2 77 5e bd 5e c0 7b bc 0a ee 04 3d 28 24 3e bd
       -0.054313608 -0.015365688 0.032453574 -0.0464212
000240 03 59 71 3d 78 ed 29 3c ed 42 22 3d f4 0d ed bc
       0.05892278 0.010371558 0.039614607 -0.028937317
000250 72 cf 09 bc a1 11 df 3c d3 47 92 bd 7e 8a 8d bd
       -0.008411275 0.027230086 -0.07142606 -0.06911181
000260 36 7f 84 3d cd 41 13 bd a4 54 46 3c 14 11 70 3c
       0.06469576 -0.035951424 0.012105141 0.014652509
000270 d9 d0 50 bc 08 43 30 3c 30 a9 41 3d c8 3a 4a bd
       -0.012745106 0.010758169 0.04728049 -0.049372464
000280 04 33 47 bd 0c d7 65 bd 74 6a 82 3d a0 49 2b bc
       -0.048632637 -0.056113288 0.063679606 -0.010454565
000290 dd 9f 83 3d 24 0a ff 3c 82 f4 16 bd 21 39 18 bd
       0.06426976 0.031132765 -0.036854275 -0.037163857
0002a0 95 13 2f 3d 12 6e 42 bd 9a af 36 bd 4a 64 b5 3d
       0.042743284 -0.047468252 -0.04460106 0.08857019
0002b0 20 6c 06 3d 5f b1 22 bd e2 73 0a ba 6f 1e 93 bd
       0.03281796 -0.039719936 -0.000528155 -0.07183539
0002c0 04 41 15 bb 76 44 84 bd dc 70 8d bd 04 65 53 bd
       -0.0022774348 -0.064583704 -0.06906292 -0.051610008
0002d0 f7 5d 52 bd 5e 24 16 bc e0 8a c0 3b e5 d1 53 bc
       -0.051359143 -0.009163944 0.00587593 -0.012928461
0002e0 d6 9e 6b 3b 9b ad 00 3d 8e d2 9a bc 70 88 64 3d
       0.0035952828 0.031415563 -0.018899228 0.05579418
0002f0 26 26 d7 bc b5 87 19 3d 23 da 88 bd 98 f8 97 3b
       -0.026263308 0.037482936 -0.06682231 0.004637789
000300 68 55 38 3d 3a ae 4e 3d 52 19 6c bc f0 21 16 3d
       0.045003325 0.050459124 -0.014410334 0.03665346
000310 16 b5 05 bd d4 02 44 3d b0 eb 81 3d a0 cb 88 bd
       -0.0326434 0.04785426 0.06343782 -0.066794634
000320 fe 5b 84 3d 78 0d 76 3d 74 9f 71 bd a4 ec 2d 3d
       0.064628586 0.06007144 -0.058989957 0.042462006
000330 54 50 47 bc be 72 96 3c c7 9c 14 bd 15 00 7a 3d
       -0.012165148 0.01836526 -0.036282327 0.061035234
000340 64 08 f4 bc 60 1e 87 bd bf 3b c9 3d 32 fd 29 3d
       -0.029789157 -0.065975904 0.09825849 0.04150123
000350 ce b5 8f 3d 34 e7 ca 3d 53 62 d7 bc 8c 10 b1 bc
       0.07017098 0.0990738 -0.026292002 -0.021614335
000360 67 55 59 bc dc 5d 28 3d a8 04 ea 3c 33 b6 97 3d
       -0.01326499 0.041105136 0.028566673 0.074077986
000370 2c 8f 8e 3c 54 53 2b bd 3d 5c 15 3d 20 12 ac bc
       0.017402254 -0.041827515 0.03646492 -0.021004736
000380 2a bf 85 bc 21 af 14 3d f5 5d 93 bd ac c4 d1 bc
       -0.016326506 0.03629983 -0.07195655 -0.025606476
000390 37 d9 ea bc ae 64 90 3b 39 88 40 3d df 24 6a bb
       -0.02866803 0.004406533 0.047004912 -0.0035727543
0003a0 68 d0 8c 3c 5d 7d 1a bd 50 f8 83 bc 5a c6 2b bd
       0.01718922 -0.037717212 -0.016109616 -0.04193721
0003b0 f6 98 eb 38 9b 8f 8c b9 87 01 99 bc 0d 02 a2 3c
       0.000112341644 -0.00026809875 -0.018677486 0.019776369
0003c0 b6 a2 2e 3d 6e 04 6d bd 94 ee a0 3a 1b 95 00 bd
       0.042635642 -0.057865553 0.0012278133 -0.031392198
0003d0 1a 11 f2 bc 9a 89 8f 3d 05 ee 36 3a 01 a2 39 bd
       -0.02954917 0.07008667 0.00069782167 -0.045320515
0003e0 c4 06 ed bc 2e 89 95 3c 26 e1 85 3d 42 0d 13 bc
       -0.02893389 0.018253889 0.06537084 -0.008975329
0003f0 cc 54 03 3d 22 63 aa bc 1c 73 01 3d 2b ee b7 3d
       0.03206329 -0.020799223 0.031603917 0.08980974

net.6.bias f4 [64]
000000 ff e4 2d bd ba f5 94 3c b6 f5 6d 3d ed 82 a1 3d
       -0.042454716 0.018183578 0.058095656 0.078863
000010 7e 6d 9a 3d 13 b4 b1 3d 8e a0 e6 3d 6a 0a 0e 3e
       0.07540415 0.086769246 0.11261092 0.1387116
000020 bc c3 b0 bd 45 e1 26 bc ac 84 cb 3d 3b 77 af bc
       -0.08631083 -0.010185544 0.099374145 -0.021419158
000030 94 fa 9a bc 8c 82 66 3d d5 55 0e 3e f3 8a ca bb
       -0.018918313 0.056276843 0.1389993 -0.006181115
000040 c7 c2 06 3d 29 dc c1 bc 08 34 3f 3d d6 03 24 3d
       0.032900598 -0.02366455 0.04668048 0.04004272
000050 0f 7d a7 3a fb 23 c8 3c 45 fc 1f 3c 0b d8 02 3e
       0.0012778359 0.02443122 0.009764736 0.12777726
000060 fd f9 58 3d 36 ed 14 ba 9b 60 92 bc 6c a7 8b 3c
       0.052972782 -0.0005681099 -0.01786833 0.017047606
000070 13 0e 59 3c 1c 27 a0 3d 58 1a 04 3d c0 23 80 bd
       0.013247984 0.078199595 0.032251686 -0.06256819
000080 eb 95 41 3d 37 13 40 3d 6e 2b ef 3d 86 dd 00 bd
       0.047262114 0.046893325 0.116782054 -0.03146126
000090 b8 79 49 3d ff f6 51 3d 14 f5 c1 bc bc bb ca 3c
       0.049188346 0.051260944 -0.023676433 0.024747722
0000a0 a3 cb a9 3d c5 d8 1c 3d ee 7a ba 3b 0f 16 85 3d
       0.08290794 0.038292665 0.005690924 0.06498348
0000b0 de 11 ed 39 61 f7 c7 3d ae e6 45 3d b4 dd 40 bd
       0.00045217475 0.09763981 0.048315696 -0.047086433
0000c0 0a 9f c7 bc 04 fd 0c 3d 01 8e c3 3d 7b 51 28 3c
       -0.024367828 0.034420982 0.095485695 0.010273333
0000d0 0d fe 3f bc d0 3a 2b 3d 8f 2b 2a 3d d6 6f d9 ba
       -0.011718285 0.041804135 0.041545447 -0.0016589116
0000e0 ad 86 78 3d 60 05 ef 3d 9b 0f e0 bc e5 de f9 3d
       0.06067531 0.11670947 -0.027351191 0.12200717
0000f0 d7 dc 41 3b ed a1 c6 3d b4 39 4f bd aa 18 37 bb
       0.0029581094 0.09698854 -0.05059214 -0.0027938285

net.9.weight f4 [64, 64, 3]
000000 56 05 8a bd 81 e4 0a bd 4d b8 01 bd 4d 4a 90 3d
       -0.06739299 -0.033909325 -0.031669904 0.07045422
000010 e4 16 91 3d a4 eb 67 3d 53 20 3a bc 13 03 92 bd
       0.07084444 0.05662121 -0.011360246 -0.071294926
000020 b6 be 47 3c d3 6c 20 3d 7a 32 07 bd 82 3a 13 ba
       0.012191465 0.039166283 -0.033007123 -0.00056163233
000030 96 0b 92 3d cb 8d fa 3c 06 9b 39 bd 4c fa 53 3c
       0.07131116 0.03058519 -0.045313857 0.012938093
000040 ea da 0b bd f8 af 20 3d 20 02 53 3d fd cf 41 bd
       -0.03414432 0.039230317 0.0515157 -0.047317494
000050 de af bb bc 82 ca 5c 3d c9 94 a6 3c 50 cb e4 bc
       -0.022911008 0.053904064 0.020334618 -0.027928978
000060 56 b9 2b bd a0 f4 a9 bb e0 13 bd 3c 86 b4 0f bd
       -0.041924797 -0.0051866323 0.023080766 -0.03508427
000070 32 81 5f bd 06 13 82 3d 51 c2 3b bc 36 8c be bc
       -0.05456657 0.06351285 -0.011459903 -0.023260217
000080 d6 01 1d 3c ee 7f 02 3d 5a 4b e9 bc e0 cd 8b bd
       0.009582957 0.031860285 -0.028478313 -0.06826377
000090 85 0d 3c bd 22 3a 0f 3d c3 dc 2b bd 71 da c0 3c
       -0.04591133 0.03496755 -0.04195858 0.023541661
0000a0 b6 86 41 bd 76 56 66 3d b4 f7 2d ba 41 d2 de bc
       -0.04724761 0.0562348 -0.0006636337 -0.027199866
0000b0 50 39 37 bb 0c 03 d9 3c b6 4d 00 bd f0 62 ca bc
       -0.0027957745 0.02649071 -0.03132411 -0.02470538
0000c0 39 a7 8f 3d aa 7a 2d 3d 76 d3 41 bc ac ee ea bc
       0.07014317 0.04235331 -0.011830201 -0.02867826
0000d0 43 0e 91 bd 5b 2d bf 3c 41 f2 d3 3d a0 03 42 bd
       -0.07082798 0.023337057 0.10348941 -0.04736674
0000e0 32 06 5a 3d 69 fe d4 3c 24 e1 0b 3d 00 1b 72 bd
       0.053228565 0.026000218 0.034150258 -0.05910778
0000f0 85 d7 83 3d 8b 3d 78 bd 85 99 77 3d 0b 21 69 3d
       0.064375915 -0.060605567 0.060449142 0.056916278
000100 d0 d2 3d 3d 50 4f 4c bd fc 91 b8 3d 69 6d 3b bd
       0.046343625 -0.049880326 0.09012219 -0.04575864
000110 4e b7 8d 3c e5 e8 bd 3d 7a 93 72 bd 59 6a 63 3d
       0.01729932 0.09272937 -0.059222676 0.055521343
000120 e5 58 73 3d 98 6d c9 bb 7c 1a 7f 3d da 20 4e bc
       0.05941095 -0.006147098 0.062281117 -0.012581075
000130 54 9b 7f 3d 04 28 0d 3d 48 5b f6 bc d2 b9 8f 3d
       0.06240399 0.03446199 -0.030072823 0.07017864
000140 9e b9 0a 3c db 8e 85 bc 92 af b7 bb ac 67 5e 3c
       0.008467106 -0.01630347 -0.0056056464 0.013574522
000150 7c 45 53 3d 48 74 98 ba b8 18 3f bd 30 1e d7 3d
       0.051579937 -0.0011631334 -0.046654433 0.10503805
000160 b2 8f 40 3d c6 e4 c7 3b da bd 78 3c 3f 71 19 bd
       0.04701204 0.00610027 0.015181983 -0.037461516
000170 bd 1f 30 bd a1 00 58 3d 97 48 31 3d 86 86 ca bc
       -0.042999018 0.052734975 0.043282118 -0.024722349
000180 73 48 86 3d 76 c6 7a 3d d2 17 82 bc 71 6a 9c 3c
       0.06556787 0.061224423 -0.015880499 0.019093724
000190 7a cd e0 bc 3e 5d 3b bd e3 93 96 3d 20 34 f4 bc
       -0.027441729 -0.04574322 0.07352426 -0.029810011
0001a0 70 be b0 bc d3 e0 4c bd f8 6a 69 bd e0 e4 85 bd
       -0.021575183 -0.050019097 -0.05698678 -0.06537795
0001b0 be 00 dc 3d 92 a9 b8 3c 83 9c 46 3d eb af a8 3d
       0.10742329 0.022541795 0.048489105 0.08236679
0001c0 3c 9e 82 3d 64 f9 2c 3b f1 d2 82 3c c8 4a 3e 3d
       0.06377837 0.0026393766 0.015969725 0.046458036
0001d0 a4 50 39 bd 90 83 48 3d 58 79 29 3d fe 4f 78 3d
       -0.04524292 0.048953593 0.041375488 0.06062316
0001e0 45 05 ef bb 7a 77 0d bb ee b5 6e bd 01 9c a3 3d
       -0.0072943293 -0.0021586106 -0.05827897 0.0798874
0001f0 c2 83 ac 3b 82 22 02 3d 3b 60 10 ba a5 c3 39 bd
       0.00526473 0.03177119 -0.00055075035 -0.045352597
000200 13 73 5a bd c9 b9 6d 3d 3c 16 5b bc fc ba d7 3b
       -0.0533324 0.058038507 -0.013372 0.0065835696
000210 c9 25 40 bd b0 72 01 3d 15 5c 91 3d e8 54 fa 3c
       -0.046911035 0.031603515 0.070976414 0.030558065
000220 ce 5e ee 3c 57 70 6f bd d7 a8 61 bc 38 2f 49 3d
       0.02909794 -0.058456745 -0.013773165 0.049117297
000230 8a f2 89 3d e4 51 9e 3d 00 52 35 bd 15 0a 79 3d
       0.06735714 0.07730463 -0.044267654 0.06080063
000240 5f 65 5a 3c 66 39 17 3b 32 bf da bc 7f ef 8f bc
       0.013329833 0.0023074984 -0.026702497 -0.017570255
000250 ac cb 4b bc a2 bd e8 3c ca 5f 9d 3d 68 27 2a 3c
       -0.012438696 0.028410736 0.07684286 0.010385372
000260 5f 8e 23 3d 76 0d ce bc db ba 89 3d 04 82 71 3d
       0.039930698 -0.025152903 0.06725093 0.058961883
000270 ed 20 31 bb 84 ce 5b bc 30 58 06 bd 9f 48 25 3d
       -0.0027027682 -0.013415936 -0.032798946 0.04035246
000280 4a 5d e5 bc 0e 81 a9 bb fe af 2f 3d 50 9c a6 3c
       -0.027998585 -0.005172855 0.04289245 0.020338207
000290 ae 3e 80 3d fe cf 4c 3d a6 77 80 bc 95 77 87 bd
       0.06261955 0.050003044 -0.015682053 -0.06614605
0002a0 71 d6 cf 3d 8a 09 2b 3d d2 ea 14 bd be 8d ca 3d
       0.10148323 0.041757144 -0.036356755 0.098903164
0002b0 54 c2 84 3d 72 27 5d 3d fb 1f 0d 3d 5a 47 01 3c
       0.06482378 0.053992696 0.034454327 0.007890547
0002c0 bc 9c 9c bc 95 94 82 3c 1f ff 1e bd b8 b8 27 bd
       -0.019117706 0.01593999 -0.03881752 -0.040947646
0002d0 ca 30 1c 3d 22 97 9f bb 5a 8d 33 bd 8c f5 62 3c
       0.038132466 -0.0048703114 -0.043835975 0.013852488
0002e0 de 09 99 3c b5 20 1f 3d b9 72 87 3d af 31 82 bd
       0.018681463 0.03884955 0.066136785 -0.06357133
0002f0 8a 51 d9 3c 00 dd 7e bd 3c 34 84 bd 29 fd c1 3b
       0.026528139 -0.06222248 -0.064552754 0.0059200716
000300 4a 90 33 3c ea a0 19 3d 12 2c 20 b9 4e 1b 58 3d
       0.010959694 0.037506975 -0.00015275207 0.052760415
000310 14 f6 f3 3c 76 7f 59 bd 5f 4c eb bc ca cc 62 3b
       0.029780425 -0.05310007 -0.02872294 0.0034606927
000320 52 9a 59 3d 15 c6 ae 3d 9c 0b 43 bc 3c c8 ad bc
       0.053125687 0.08533875 -0.011904623 -0.021213643
000330 03 43 b2 3c 92 56 84 3d f0 cb d1 bc cd ad 78 bc
       0.02176047 0.064618245 -0.02560994 -0.015178156
000340 f0 fb 9e bc 5a b5 b8 3c 3c 44 25 3d 23 be 86 3d
       -0.019407243 0.022547413 0.040348276 0.065792345
000350 97 ab 2f 3d de a6 42 3d f8 3c 3b 3d 06 a8 9c 3c
       0.04288825 0.04752242 0.04571244 0.019123089
000360 6f ed 57 bc 8e 1a f2 bb fa 01 8e bd be b6 80 3d
       -0.013179167 -0.0073884195 -0.06933971 0.06284855
000370 a8 5d ff 3c e8 27 7f 3c 83 f0 9d 3d 38 27 bd ba
       0.031172588 0.015573479 0.077118896 -0.0014431244
000380 c8 d9 8c 3d 82 7b 32 bd 6c 1b 03 bd 68 5a 89 3c
       0.06877476 -0.043574817 -0.032008573 0.016766742
000390 0c fd 0e 3c 12 9f 3c 3d 1c ec 4a 3d a2 e0 c7 3d
       0.008727323 0.04605014 0.049541578 0.09759642
0003a0 58 c2 21 3d 3f eb 06 bd b1 cc e3 3c c9 46 8e bd
       0.03949198 -0.032939192 0.027807565 -0.06947095
0003b0 f9 47 37 bd 72 7f 3f bd 08 a6 8e 3d d8 35 35 bd
       -0.044746373 -0.0467524 0.06965262 -0.044240803
0003c0 5e 35 8e 3d 70 2b cf bb e3 8f 26 3d a5 a4 3b bd
       0.06943773 -0.006322317 0.040664565 -0.045811314
0003d0 20 93 3c bc d4 4b 6a 3c 3d b9 ba 3d 17 82 6c 3d
       -0.011509687 0.014300305 0.09117363 0.05774125
0003e0 7c 72 d0 bc 89 e4 41 3c 40 8d 92 3d be 9d c1 bb
       -0.025445215 0.011834272 0.071558475 -0.005908697
0003f0 6d 21 67 bd 27 81 3a bd 70 d7 dd 3c 7d be 35 bc
       -0.05642836 -0.045533326 0.027080268 -0.011092779

net.9.bias f4 [64]
000000 46 d0 08 3e b3 07 c5 3d 87 49 e1 3d 1f 9c cb 3d
       0.133607 0.09620609 0.11000352 0.09941887
000010 5b f7 35 3c 29 b2 f6 3d 7d 4c 00 bd b3 c7 8a 3c
       0.011106337 0.120457 -0.031322945 0.016940927
000020 a9 b3 96 3d 58 08 f8 3d 9d 75 52 bd 30 7e cf bb
       0.07358486 0.121109664 -0.051381696 -0.0063321814
000030 66 65 8d 3d 45 fe d9 3d 99 c9 1f 3d 73 a1 9a 3c
       0.06904106 0.10644201 0.039010618 0.018875813
000040 f4 54 fa 3d 71 0f d8 3d 2e f6 d5 3d 46 8f 0c 3e
       0.12223235 0.1054982 0.10447346 0.1372653
000050 3f 33 3a 3d 1d 0d ce 3d 0a 1b 7b 3d 62 24 6e bd
       0.04545903 0.10061095 0.061305083 -0.058140166
000060 fe a2 ce 3d 4a 50 8a bd e9 ea df 3c f3 c8 f7 bb
       0.10089682 -0.06753595 0.027333694 -0.007561797
000070 20 0e 80 3d fd 77 2a bc 2a de 4d 3c 8a eb 0e 3e
       0.06252694 -0.010404584 0.012565175 0.13957039
000080 1c 20 06 3e ce b5 74 bb a6 11 d3 3d 00 f1 a1 3d
       0.13098186 -0.003733981 0.103061005 0.07907295
000090 62 1e 0f 3e c7 09 66 3b 3e a5 22 3d ab ce 2f 3d
       0.13976434 0.0035101043 0.03970837 0.042921703
0000a0 7d 1c c2 3d 74 a4 01 3d 26 a6 d9 3d 51 24 83 3d
       0.0947809 0.031650975 0.106273934 0.06403411
0000b0 71 4a 03 3d a2 47 03 3e 43 cb 6c 3d 81 af 45 bc
       0.032053415 0.12820294 0.057811033 -0.012065769
0000c0 15 f2 13 3e bc b9 92 3d 0b 58 f4 bb 51 7c 4e bc
       0.14447816 0.07164332 -0.0074567846 -0.0126028815
0000d0 49 37 f8 3c 5d 9a 48 bd 86 69 ab ba c6 7a 94 3c
       0.0302998 -0.048975337 -0.0013077713 0.01812495
0000e0 df d9 ba 3d e8 a1 0e 3b ee 7e 89 3d 9e 7a c2 3d
       0.09123587 0.0021763984 0.06713663 0.094960436
0000f0 80 4e f9 bb c0 37 06 3e 7e cd 1a 3e 16 25 08 3d
       -0.007608235 0.13107204 0.15117452 0.033238493

net.12.weight f4 [64, 64, 3]
000000 fb a6 80 3d 2e 92 38 bc 25 35 df bc f0 6c 98 3d
       0.06281849 -0.011265321 -0.027247021 0.07442653
000010 0a d8 bd bb 9a 68 53 bc cd 55 db 3d 70 01 2f 3d
       -0.005793576 -0.012903357 0.107097246 0.04272598
000020 5e ea 87 bd 89 d3 a0 3c f6 18 69 bd 79 da 80 bd
       -0.06636499 0.019632118 -0.05690857 -0.0629167
000030 8b 1e 02 3c ae 12 66 3d 64 86 2d 3c 1e d4 d3 3d
       0.007941852 0.056170158 0.010591123 0.103431925
000040 30 0b 00 bd 04 ec c8 3c 70 52 74 3d 6a 38 04 bd
       -0.03126067 0.024526604 0.05964893 -0.032280363
000050 ea 53 5f 3d 20 e5 10 3d ee 1b 62 bd da b8 93 bc
       0.054523386 0.03537476 -0.055202417 -0.01803248
000060 1e 7b 14 3c aa 51 42 bd 8e 63 42 bd ce 15 be 3d
       0.009062557 -0.047441162 -0.047458224 0.09281503
000070 28 f5 59 bd 66 82 35 3c 57 eb 0b bd ab 01 8b bd
       -0.053212315 0.011078453 -0.034159984 -0.067874275
000080 1c 6f 88 bc 85 ef 48 bd c8 5f cf 3c 48 e8 3e bd
       -0.016654544 -0.04905655 0.025314227 -0.04660824
000090 eb d0 9f 3c 54 67 1e bd 91 0f 1f 3c 1e 50 c9 3c
       0.0195088 -0.03867276 0.009708301 0.024574336
0000a0 f6 ba 18 bd 16 b8 c9 bb f0 e8 0b bc 26 c0 fd 3c
       -0.037287675 -0.006155978 -0.008539423 0.030975413
0000b0 8d 27 c8 3c bd f6 94 3d 0c 0b 93 bd 48 ad 89 bd
       0.024432922 0.07273624 -0.071798414 -0.06722504
0000c0 fd d3 8e 3d ba 6d 19 3d 88 d1 5a 3d 6c 47 cc 3d
       0.06974027 0.03745816 0.05342248 0.0997456
0000d0 da 04 8a 3d 0a 3a d6 3c 96 d9 13 3d b6 10 c1 bc
       0.067392066 0.026150722 0.036096178 -0.023567539
0000e0 91 28 f4 bc 83 c7 bd 3d 12 c0 af 3c fc 8a 88 3c
       -0.0298045 0.092665695 0.021453891 0.016667835
0000f0 0a 53 69 3d c0 c8 86 3d 71 44 86 bd ce 1a 5c 3d
       0.056963958 0.06581259 -0.06556023 0.0537365
000100 00 22 8c bd d8 d9 ea 3c 38 ac e9 bc d2 5f 93 3b
       -0.068424225 0.02866833 -0.028524503 0.0044975067
000110 00 72 bb bc 4a 0c 17 3d c0 27 79 3c 17 63 26 bd
       -0.022881508 0.036876954 0.015207231 -0.040621843
000120 00 2c d4 3d 62 4d 7b bd 10 7c 06 3b 87 fe 12 bd
       0.10359955 -0.061353095 0.0020520724 -0.035887267
000130 ce fd 2d 3d 98 9f 8f 3c 95 fc af 3d 6a 44 ab bc
       0.042478375 0.017532155 0.08593098 -0.020906646
000140 e8 94 ae bc 86 c8 8b 3d 1c 62 6a 3d c6 c3 9d bc
       -0.021311238 0.06825356 0.05722247 -0.019258391
000150 17 cb d8 3c aa d0 51 3d ce 53 0a 3d 73 f6 03 3d
       0.026464028 0.05122439 0.03377133 0.032217454
000160 bb 45 b7 bc a8 3e 88 3d f7 95 05 3c 3e ae 92 bc
       -0.022372117 0.06652576 0.00815343 -0.01790535
000170 48 9e 67 3c c1 a9 de 3d 82 ca 47 bc 36 33 34 3d
       0.014136858 0.10872222 -0.012194278 0.04399415
000180 e7 ee 2f bc 34 b2 9c bc e2 c0 65 3d 62 23 ac 3d
       -0.010738111 -0.019127943 0.05609215 0.08405186
000190 86 ce df 3c 2a da 47 bc 93 6f c5 3d b2 cb 5c 3d
       0.027320158 -0.01219801 0.09640422 0.053905196
0001a0 1e 60 91 3c ba fe 65 bc 80 fa 85 bc 80 d6 69 3d
       0.017746028 -0.014037782 -0.0163548 0.05708933
0001b0 d3 cb 5c 3d 88 da aa 3c 1b ce 87 bd 5e 4a 7d 3c
       0.05390532 0.020856157 -0.066311084 0.015459625
0001c0 82 14 2b 3d 58 38 03 bd 7a ea b5 bc 6a 3f be 3b
       0.041767605 -0.032036155 -0.022206534 0.0058058994
0001d0 d4 92 26 3d 91 5b c1 3d ac 24 6e bd f2 83 86 bd
       0.04066737 0.09441293 -0.05814044 -0.06568135
0001e0 84 41 b2 3d 0c d8 04 3d 74 94 c2 3c 60 4a 36 3d
       0.08703902 0.0324326 0.023752429 0.044504523
0001f0 a6 e7 2f 3d 10 24 e0 bc 9f c9 57 3d 3a 69 8a bc
       0.042945527 -0.027360946 0.052682515 -0.016895879
000200 4a 05 82 bd 51 60 d9 3c 72 c3 07 ba b2 4d a0 bb
       -0.06348665 0.026535185 -0.0005178965 -0.0048920745
000210 20 09 ce 3c 00 c1 15 3d ad 82 94 bb 39 f6 eb 3c
       0.025150836 0.036561012 -0.0045321793 0.028803932
000220 de 90 29 bc 51 cc 63 bc 0b a6 66 3c 82 89 be 3c
       -0.01034948 -0.013903693 0.014077674 0.023258928
000230 29 39 2e bd b4 54 0a bd c1 e4 40 bd 66 2b 16 3b
       -0.04253498 -0.033772185 -0.047093157 0.002291405
000240 1e 73 5b 3e 6d c6 7c bd 60 18 3f 3d 1d 01 7b 3d
       0.21430632 -0.06171267 0.046654105 0.06128036
000250 ec c1 a7 3b e9 f2 ec bb 6d 3d a5 ba 84 2c 06 3d
       0.005119553 -0.0072311056 -0.0012606807 0.032757297
000260 1a 61 85 bd fd a2 02 3d b5 ba 55 3c bf a1 19 bd
       -0.06512661 0.03189372 0.013045003 -0.03750777
000270 d5 39 d0 3c 76 cc 0a 3c 20 80 47 3d 89 18 77 bd
       0.025418201 0.008471599 0.048706174 -0.060326133
000280 c0 9e 71 bd 60 5a 89 bc ec 1d 1b bd 7e 2c af 3c
       -0.058989286 -0.016766727 -0.037870333 0.02138352
000290 ee 02 b6 3c 9c cc bf bc 54 58 58 3d 48 ae 0a 3d
       0.022218194 -0.023412995 0.05281861 0.033857614
0002a0 b8 5e 8b 3c ea 8a 01 39 3c 0d 5e 3c 3c 25 9a 3c
       0.017012939 0.00012354148 0.01355296 0.018816583
0002b0 d4 28 92 3d 34 2f 9b 3c e1 af cb 3d fa 80 81 3c
       0.071366936 0.018943407 0.099456556 0.015808571
0002c0 78 0e 18 bd 1d d5 8a 3c 88 5f b5 bc b0 90 41 3d
       -0.037123173 0.016947323 -0.02214028 0.047257125
0002d0 4e 3b bd 3b 98 5d 61 3c b8 a8 5d bc 74 7e d7 3d
       0.005774892 0.013755225 -0.013528995 0.10522166
0002e0 68 20 ae bc a6 99 a6 3b 65 09 de 3d 4a 7d 81 3b
       -0.021255687 0.0050842343 0.108416356 0.003951703
0002f0 08 58 92 bd 16 87 33 3d c2 a0 42 bd d9 b4 84 bd
       -0.07145697 0.04383 -0.04751659 -0.064798065
000300 b2 29 5d bc fc ac 8a bd fc 66 b6 bc 3a a8 76 bd
       -0.0134987105 -0.067712754 -0.022265904 -0.060219027
000310 f4 33 1b bc 7f c0 42 bd 48 02 62 bd b5 ea bb bc
       -0.009472836 -0.04754686 -0.055177957 -0.022939065
000320 0f 76 89 bd ec 42 97 bd 5e 8f 8a bc 21 4d 91 3c
       -0.06711971 -0.07385811 -0.016914066 0.017736973
000330 48 40 08 3d a2 f5 35 bd 82 4a 81 3d 4f 9f 19 bd
       0.03326443 -0.044423707 0.06313039 -0.037505444
000340 d6 d8 0d 3d 4e 62 35 bd 1c f5 53 3d 1a b4 be 3c
       0.03463062 -0.044283204 0.051747426 0.023279238
000350 1a 29 52 3d 22 17 ae bc f0 59 4a bd cc ae 82 bd
       0.05130873 -0.021251265 -0.049402177 -0.06380996
000360 3e c6 6b bd b6 c2 26 bc 22 66 19 bc 46 9a 61 bb
       -0.057562105 -0.010178259 -0.009362729 -0.003442423
000370 56 ba 8e bd 0c 11 46 3d 2d 28 73 bd 5e ac 12 3d
       -0.069691345 0.0483561 -0.059364486 0.035808913
000380 f2 43 91 ba 9c 3b 37 bd c2 11 24 3d 80 6a df bc
       -0.0011082871 -0.044734582 0.040055998 -0.027272463
000390 3e 7f 0b 3d 08 b0 40 3d 58 0b 87 bd 49 44 c0 3a
       0.034056894 0.047042876 -0.065939605 0.0014668788
0003a0 b0 68 4e 3c 58 50 4f 3c af 97 8c bd 24 d1 e3 3c
       0.012598202 0.012653433 -0.06864869 0.027809687
0003b0 c0 e1 00 3d db 6d 3d 3d 7e 83 7e bc e6 6c 62 bd
       0.031465292 0.046247344 -0.01553428 -0.055279635
0003c0 4d 6e 50 bc d5 f8 26 bd 25 4e 82 bd 20 2c 4d bd
       -0.01272161 -0.04076465 -0.06362561 -0.05009091
0003d0 1e 56 89 3d b8 5d db 3c 38 8d 84 bd 14 ac 8d 3d
       0.06705879 0.026778087 -0.06472248 0.06917587
0003e0 4c 59 ec bc 3e b6 5a bd ac 6f 1f bd b2 7b 3a bd
       -0.028851174 -0.053396456 -0.038924858 -0.04552812
0003f0 05 37 f9 bc 9a 92 62 bc d9 7a bd bc 8d 8e 5b 3d
       -0.030421743 -0.013828898 -0.023129867 0.053602744

net.12.bias f4 [64]
000000 6b a0 56 3d 3d 3f 18 bd b8 d8 08 3d c9 f1 8c bd
       0.05239908 -0.037169684 0.033409804 -0.06882054
000010 56 66 62 3d a2 5d 8c 3c 2c 1f e2 bb 9f d3 80 bd
       0.055273376 0.017134491 -0.0069006886 -0.062903635
000020 d1 fa a5 3d 77 3a 0b 3e 98 eb d1 3d 95 e5 ce bc
       0.0810448 0.13596521 0.10250014 -0.025255958
000030 4d 12 85 3d 30 d2 9e 3d 39 89 5b bc 7c 30 91 3d
       0.06497631 0.07754934 -0.013399416 0.07089326
000040 33 d3 9c 3c 2d 3f c5 3d 26 d2 f5 3d 58 72 81 3d
       0.019143676 0.096311904 0.12002973 0.063206375
000050 01 8b 01 bd bb 44 e1 3c a9 70 7a 3c 7f 0f 25 bd
       -0.031626705 0.027498594 0.015285649 -0.04029798
000060 98 4b 1d 3e 78 ff e4 b9 e9 a3 0d 3e a0 9d 96 3d
       0.15360868 -0.00043677888 0.13832058 0.07354283
000070 56 40 a4 3d bf c5 4e 3d af 97 81 bd 0c 7a 05 bb
       0.080200836 0.050481554 -0.063277595 -0.0020366935
000080 48 2f 13 3c df 50 5b 3d e2 c3 8e 3d 1d ae 15 3c
       0.008983441 0.05354392 0.069709554 0.00913575
000090 63 54 33 3d 90 f5 d7 3c 73 b4 c8 3d 4e 77 88 3c
       0.04378165 0.02636221 0.09800043 0.016658451
0000a0 4e a2 7a bc 9f dc b9 3d 4e 05 c0 3d 47 fd 0d 3e
       -0.0152974855 0.09075283 0.09376012 0.13866149
0000b0 81 e6 a2 3c ca d5 cc bb 8c db 13 3d c5 b8 03 3e
       0.019885303 -0.0062510716 0.036098048 0.12863453
0000c0 73 5c cf 3c 3d 11 0d 3e 48 7f bd 3d d2 16 1e 3d
       0.025312638 0.13776107 0.092527926 0.038595982
0000d0 9b eb c8 3d c2 8a b7 3d f0 cd bf 3d 7a db 11 3e
       0.09810563 0.08962013 0.09365451 0.1424388
0000e0 a3 47 12 3e 33 ca d7 3d 6a 92 43 3d 0b 14 e1 3d
       0.1428514 0.10536613 0.047747053 0.10990151
0000f0 cf a3 cf 3d 2d 4f 39 bd e8 5d d6 3d cc 02 00 3e
       0.10138666 -0.045241524 0.1046713 0.12501067
