model_artifacts/dl_tx_tx_h24_40000_41500.pt (torch, 420809 bytes, 30 tensors)

proj.weight f4 [64, 30]
0	0x3dc76f0a	0.09737976
1	0xbc5ce89b	-0.013483192
2	0x3e2368b2	0.15957907
3	0x3d7daf42	0.061934717
4	0x3e145c02	0.14488223
5	0xbd8403eb	-0.0644606
6	0xbe3e23e3	-0.18568377
7	0x3db36d1f	0.087610476
8	0xbc975392	-0.018472467
9	0x3e060ac9	0.13090052
10	0xbc1c09a2	-0.009523781
11	0xbdf86ce0	-0.12130141
12	0x3c87f292	0.016595159
13	0x3d08cb7b	0.03339718
14	0x3d0c1a34	0.034204677
15	0x3d5d7fae	0.054076843
16	0x3e0519b5	0.12998088
17	0x3c6e9390	0.014561549
18	0x3cb786a1	0.022403063
19	0x3e246ec9	0.16057886
20	0x3cd22d30	0.025656313
21	0x3e1a24a5	0.15053041
22	0xbd71022a	-0.058839954
23	0x3e109c0f	0.14122032
24	0xbc44fcff	-0.01202321
25	0xbd3f7cd4	-0.046749905
26	0xbdde7e67	-0.10863953
27	0xbdbbfe1e	-0.091793284
28	0xbd857eb3	-0.065183066
29	0x3dc44446	0.095833346
30	0x3daae34c	0.08344135
31	0xbb986398	-0.0046505444
32	0x3d7c3f7c	0.06158398
33	0x3d208a8a	0.03919462
34	0x3e3e04e0	0.18556547
35	0x3e0fbac4	0.14036089
36	0x3bb802d4	0.0056155715
37	0xbbbfb8ec	-0.005850902
38	0xbe037e1c	-0.12841076
39	0xbdd04899	-0.10170097
40	0x3de79a83	0.11308768
41	0x3d500435	0.050785262
42	0x3ca0f2c8	0.019647017
43	0xbcc442ef	-0.023957698
44	0xbd6d3c94	-0.0579191
45	0xbc42fa84	-0.011900548
46	0x3d3a8934	0.045541003
47	0xbe313ad1	-0.17307593
48	0x3c51503e	0.012775479
49	0xbe06526b	-0.13117377
50	0xbdf4351b	-0.119241916
51	0x3deb7852	0.11497559
52	0xbab9c229	-0.0014172244
53	0xbda32723	-0.07966449
54	0xbdc65c1f	-0.096855395
55	0xbcec75bb	-0.028864732
56	0xbc7b664e	-0.015344216
57	0xbe0344fc	-0.12819284
58	0x3d15e99e	0.036599748
59	0xbe28f346	-0.16499051
60	0xbc852499	-0.016252803
61	0xbe00fa8d	-0.12595578
62	0x3d3ee75e	0.046607368
63	0xbdb3e9ec	-0.087848514
64	0x3c90b286	0.017663252
65	0xbdf327c1	-0.11872817
66	0x3d04f326	0.032458447
67	0x3db4279d	0.08796618
68	0x38ae5adf	8.3138926e-05
69	0xbd5e6d5e	-0.05430352
70	0x3d7c35c7	0.061574724
71	0x3c57b27a	0.013165111
72	0x3dd3a125	0.1033347
73	0x3b66cd99	0.003521776
74	0x3d9055ca	0.07047613
75	0x3d10273a	0.03519366
76	0x3de7b7e0	0.11314368
77	0xbc41b779	-0.011823528
78	0x3dbfab63	0.09358861
79	0x3c6edb8c	0.014578711
80	0x3d2b7ea7	0.041868832
81	0xbdb1c8d4	-0.08680883
82	0xbe421c06	-0.18956003
83	0xbe03feae	-0.12890121
84	0xbe0619ce	-0.13095781
85	0x3cadb6da	0.021205354
86	0x3e3c435b	0.18385069
87	0x3ca3829f	0.019959746
88	0xbd5a8081	-0.053345207
89	0x3d94c6fa	0.07264514
90	0x3b9501cd	0.004547334
91	0xbe1c4269	-0.15259708
92	0xbe265d10	-0.16246438
93	0x3e06bf88	0.13159001
94	0xbdad2727	-0.08454733
95	0x3c3e1884	0.011602525
96	0x3d2b75c6	0.041860364
97	0xbcb890b8	-0.022529945
98	0x3db033d6	0.08603637
99	0x3e09c254	0.13453037
100	0xbe200afe	-0.15629193
101	0x3e18a915	0.1490825
102	0xbe14f3f6	-0.14546189
103	0x3d4949d1	0.049142662
104	0xbe274a23	-0.16336875
105	0xbdeb40f1	-0.11486996
106	0xbe0213ee	-0.12702915
107	0xbd839e3d	-0.06426666
108	0xbdc0ed8b	-0.09420308
109	0xbe3d1b8b	-0.18467538
110	0xbd71a724	-0.05899729
111	0x3e1902f1	0.14942528
112	0x3d232a92	0.03983552
113	0xbd99bfc4	-0.075072795
114	0xbddb93c2	-0.10721542
115	0x3d96e1c8	0.07367283
116	0x3de33408	0.110939085
117	0xbd67377a	-0.05644939
118	0x3d8d5ee2	0.06902863
119	0x3d564e8f	0.052321013
120	0xbd34eecf	-0.044173058
121	0x3d45c5f7	0.048284497
122	0x3d58f4b7	0.052967753
123	0x3e291f67	0.16515885
124	0xbd844d71	-0.06460083
125	0xbde988cb	-0.11403044
126	0x3e0f21eb	0.13977782
127	0x3d1a387b	0.03765152
128	0xbdd43ae6	-0.103627965
129	0xbc7f8c28	-0.015597381
130	0x3d3b4e4f	0.045728978
131	0xbd5df412	-0.05418784
132	0xbdfd637e	-0.12372492
133	0x3d269fd1	0.040679757
134	0xbdcda6b1	-0.100415595
135	0x3c81af81	0.015830757
136	0xbd9dab52	-0.076986924
137	0xbd952466	-0.07282333
138	0xbcf357ae	-0.029704895
139	0xbd8dfec8	-0.06933361
140	0xbdad770b	-0.08469971
141	0x3d2856fd	0.041098583
142	0xbda4898a	-0.08034046
143	0x3e0acfe1	0.13555862
144	0x3e096425	0.13417108
145	0x3e022bf4	0.1271208
146	0xbe36cf00	-0.17852402
147	0xbdd8c562	-0.10584523
148	0x3da425e9	0.08015043
149	0x3db3914c	0.087679476
150	0xbde93ad3	-0.11388173
151	0xbe03f9a7	-0.12888204
152	0x3e23852b	0.15968768
153	0xbe1d13b8	-0.15339553
154	0xbda5ff19	-0.08105297
155	0xbe0c1a78	-0.13681972
156	0x3e057d0e	0.13035986
157	0xbddd11aa	-0.10794385
158	0xbe0f10ac	-0.13971204
159	0xbcb2cb75	-0.021825531
160	0xbdfea3c2	-0.12433578
161	0x3e21bdac	0.1579501
162	0xbd5e796f	-0.054315027
163	0xbd8dd877	-0.06926053
164	0x3de31a17	0.110889606
165	0x3dab2860	0.0835731
166	0xbbe258dd	-0.006907566
167	0xbe2cbb78	-0.16868389
168	0xbcf595c3	-0.029978639
169	0x3e220bad	0.15824766
170	0xbdba1975	-0.09086887
171	0x3e183b59	0.1486639
172	0xbe26a44d	-0.16273613
173	0xbe4426e3	-0.19155459
174	0x3c5e84ff	0.013581513
175	0x3d9aa122	0.07550265
176	0xbe167a67	-0.1469513
177	0x3de39889	0.11113078
178	0x3e3ec8a1	0.18631221
179	0xbda1e589	-0.079051085
180	0x3e264a7a	0.16239348
181	0xbe111810	-0.14169335
182	0xbdbbc832	-0.091690436
183	0xbd01be20	-0.031675458
184	0x3dddabe0	0.10823798
185	0x3e2ccad5	0.1687425
186	0xbcf6d747	-0.03013195
187	0x3d6a8316	0.05725392
188	0xbe175baa	-0.14781061
189	0x3d95fd31	0.07323683
190	0x3d83b878	0.06431669
191	0xbd4ffb68	-0.05077687
192	0x3d0ded1a	0.034649946
193	0x3daf6f64	0.08566168
194	0x3cad3e9a	0.021148015
195	0xbd2937fb	-0.041313153
196	0xbdf4329e	-0.11923717
197	0x3e2059c3	0.15659241
198	0x393681bd	0.00017405204
199	0x3e25302a	0.16131654
200	0x3b0b41b7	0.0021248886
201	0xbcf4413a	-0.029816259
202	0x3e10c749	0.14138521
203	0x3d9a7111	0.07541097
204	0x3c9653c3	0.018350488
205	0xbd343e82	-0.044004925
206	0xbe36eb1e	-0.17863128
207	0xbdb1a33e	-0.08673714
208	0x3dd52818	0.10408038
209	0xbd31c6c1	-0.043402437
210	0xbce5583e	-0.027996179
211	0x3da5670b	0.080762945
212	0x3e11e724	0.1424833
213	0xbd8fdded	-0.07024751
214	0xbe1be349	-0.15223421
215	0x3e1d2293	0.1534522
216	0x3c8e8c15	0.01740078
217	0x3dd18707	0.102308325
218	0xbd0726a8	-0.03299585
219	0x3df29f60	0.118468046
220	0x3d27dd67	0.04098263
221	0x3d993a05	0.074817695
222	0xbc490340	-0.012268841
223	0xbd300fba	-0.042983748
224	0x3e16275b	0.1466345
225	0x3e0d7f78	0.13818157
226	0xbd865b1c	-0.065603465
227	0xbd087d40	-0.033322573
228	0xbd094627	-0.033514168
229	0x3e266b1a	0.16251794
230	0xbd07bfdf	-0.033141967
231	0xbe21c7a7	-0.15798818
232	0x3e4fa97e	0.202795
233	0x3de95fa8	0.11395198
234	0xbdba7370	-0.09104049
235	0xbd040c90	-0.032238543
236	0xbd4b2fca	-0.049606122
237	0x3da71c07	0.08159643
238	0x3dad3e0a	0.08459099
239	0xbdc3c500	-0.09559059
240	0xbd023948	-0.03179291
241	0xbd9d237e	-0.07672785
242	0x3d22af1f	0.03971779
243	0xbbb3d5ca	-0.005488132
244	0xbdddeb76	-0.10835926
245	0xbd8fc551	-0.07020057
246	0xbdd11e5b	-0.10210868
247	0x39fbd6c4	0.00048034464
248	0x3e33d156	0.17560324
249	0x3dbb87fc	0.09156796
250	0x3de64ca6	0.11245088
251	0x3e090cdb	0.1338381
252	0x3dcd2dc2	0.10018493
253	0x3c6be3b3	0.014397549
254	0xbbc3a78a	-0.0059709
255	0xbd8d7a3c	-0.0690808

proj.bias f4 [64]
0	0x3d4ea38b	0.050448935
1	0xbe193550	-0.14961743
2	0x3e129b64	0.1431709
3	0x3d832905	0.06404308
4	0x3e1506b7	0.14553343
5	0xbdda6b3c	-0.106649846
6	0xbe29487a	-0.16531554
7	0xbde65743	-0.112471126
8	0x3d9ccc03	0.076561
9	0xbe1ccd0d	-0.15312596
10	0x3d95c991	0.07313836
11	0x3e521848	0.20517075
12	0x3caf5275	0.021401623
13	0x3dbe4ace	0.092916116
14	0x3e1ea3a7	0.15492116
15	0x3d22ddfd	0.039762486
16	0x3d4764e7	0.048680212
17	0xbd959d7f	-0.073054306
18	0x3e2af785	0.16695984
19	0xbd154d04	-0.0364504
20	0x3e4dc5c3	0.20094971
21	0x3e204212	0.15650204
22	0xbe017cb3	-0.12645225
23	0x3ca21973	0.019787526
24	0xbe002dae	-0.12517425
25	0x3dfe60a7	0.12420779
26	0x3e369f59	0.17834224
27	0xbda45391	-0.080237515
28	0x3d8be288	0.06830317
29	0xbd953d2e	-0.0728706
30	0xbe306327	-0.17225324
31	0x3dca3b5d	0.09874604
32	0x3da6adc1	0.0813861
33	0x3e42fb73	0.19041233
34	0x3c635f5b	0.013877715
35	0x3e2a8675	0.16652854
36	0x3dcb7ce9	0.09935934
37	0xbe3c132d	-0.1836669
38	0xbe347cee	-0.17625782
39	0x3b301c31	0.0026872272
40	0xbceeb972	-0.029141162
41	0x3d8dd1e5	0.069248
42	0x3e14f631	0.1454704
43	0xbaeacb22	-0.0017913321
44	0x3bcb4124	0.0062028337
45	0xbdca9b7e	-0.09892939
46	0x3e1b5253	0.15168123
47	0x3e271f32	0.16320494
48	0x3de5f903	0.11229136
49	0x3d5c3dc8	0.053769857
50	0x3dd3e17f	0.10345744
51	0x3dc95b14	0.09831825
52	0x3df5db7c	0.12004754
53	0xbd19a313	-0.037509035
54	0x3cd7bb04	0.026334293
55	0xbe0cdb8d	-0.13755627
56	0xbe46ed39	-0.19426431
57	0x3d357efc	0.044310555
58	0x3dadd802	0.08488466
59	0x3e0e61da	0.13904515
60	0x3e2ad337	0.16682135
61	0xbda7aaa5	-0.08186845
62	0xbe4440be	-0.19165322
63	0xbdc37328	-0.09543449

enc.layers.0.self_attn.in_proj_weight f4 [192, 64]
0	0xbdb3bc0d	-0.08776102
1	0xbe045497	-0.12922893
2	0x3e0909d4	0.13382655
3	0xbdef42b2	-0.11682643
4	0x3e28b92a	0.16476884
5	0x3e22a26e	0.15882275
6	0x3d83e3e2	0.064399496
7	0xbd30f889	-0.04320577
8	0xbd874a07	-0.066059165
9	0x3d98159b	0.07425996
10	0x3cd81e18	0.026381537
11	0xbda4a594	-0.08039394
12	0xbd9e521c	-0.07730505
13	0x3cf5ec41	0.030019881
14	0x3de3b805	0.11119083
15	0xbdfe9ce8	-0.12432271
16	0xbd653bb9	-0.05596516
17	0x3dc920ab	0.09820684
18	0x3dd4594d	0.10368595
19	0xbbaa68f6	-0.0052005006
20	0xbe04e49d	-0.12977834
21	0x3e0c71ee	0.13715336
22	0x3c1531a3	0.009106073
23	0x3e0cfe1e	0.13768813
24	0xbe002171	-0.12512757
25	0xbe0dde92	-0.13854435
26	0xbde68625	-0.11256055
27	0x3d5cf685	0.053946037
28	0x3de9ad23	0.11409976
29	0xbda3bd3a	-0.079950765
30	0xbdec67a4	-0.115432054
31	0x3e19f715	0.1503566
32	0x3db0e02e	0.08636509
33	0x3e06b85e	0.13156268
34	0xbe1cfa39	-0.15329827
35	0x3e2f2d17	0.17107044
36	0xbc2ed6bd	-0.010671315
37	0xbe19ccfa	-0.15019599
38	0xbd43b396	-0.04777869
39	0x3d81e249	0.063419886
40	0xbde2c6c6	-0.11073069
41	0xbd196bbe	-0.037456267
42	0xbdbd57aa	-0.09245236
43	0xbe1d2379	-0.15345563
44	0xbdb69348	-0.089148104
45	0xbddc2977	-0.10750096
46	0xbc64e8f5	-0.013971557
47	0xbdb11388	-0.086463034
48	0x3d028ed9	0.03187451
49	0xbdaad887	-0.083420806
50	0x3def5816	0.11686723
51	0xbca2cbe9	-0.019872623
52	0x3d93d0c7	0.072175555
53	0x3c9f5d54	0.019453682
54	0xbd839c38	-0.06426281
55	0x3d2ce1b3	0.04220743
56	0x3d8f9116	0.07010095
57	0x3c7481dd	0.01492354
58	0x3df854d1	0.121255524
59	0x3dd5c8a9	0.104386635
60	0x3daabcc7	0.08336788
61	0xbe0e47c8	-0.1389457
62	0x3da840dc	0.08215496
63	0xbe291ddf	-0.16515301
64	0xbe15dd1c	-0.14635128
65	0x3d8348e7	0.064103894
66	0x3d75860c	0.05994229
67	0xbe13407a	-0.14380065
68	0x3e2658f3	0.16244869
69	0x3dab46be	0.083631024
70	0x3dcd4d78	0.100245416
71	0x3ded8eb1	0.11599482
72	0x3e1e3f22	0.15453771
73	0xbd568107	-0.052369144
74	0xbdba63a8	-0.09101039
75	0xbd763fd9	-0.060119484
76	0x3db41b3b	0.08794256
77	0xbd98a67d	-0.0745363
78	0xbe069fe2	-0.13146928
79	0xbd134269	-0.035952006
80	0xbe0fae12	-0.14031246
81	0xbe24686b	-0.16055457
82	0x3e180143	0.14844231
83	0xbe014acd	-0.1262619
84	0x3e15930c	0.14606875
85	0xbd878a67	-0.06618195
86	0xbe05bb17	-0.1305965
87	0xbd9e2fd3	-0.077239655
88	0xbd991cd1	-0.074761994
89	0xbd1bd3b5	-0.038043696
90	0x3dd132e5	0.102147855
91	0xbdd7da8c	-0.105397314
92	0xbccf18ad	-0.025280321
93	0x3bcd3784	0.0062627215
94	0x3ce42d54	0.027853645
95	0x3db2c8a0	0.087296724
96	0xbd9d366d	-0.076763965
97	0xbc82251c	-0.015886836
98	0x3dcc68a5	0.09980897
99	0xbb3dc826	-0.002895841
100	0x3e08dd53	0.13365678
101	0xbcaa6078	-0.020797953
102	0x3d908020	0.07055688
103	0xbdba184e	-0.09086667
104	0xbd8f6d83	-0.070033096
105	0xbe078b29	-0.13236679
106	0x3e022ba9	0.12711968
107	0x3dcdb203	0.10043719
108	0xbd61e82c	-0.055153057
109	0xbe06cdb3	-0.13164406
110	0x3da7f893	0.08201709
111	0xbde1d2f6	-0.11026566
112	0x3d9aae6b	0.07552799
113	0xbc1276e9	-0.008939483
114	0x3df208c4	0.11818078
115	0xbbae6b1d	-0.0053228275
116	0x3c39607f	0.01131451
117	0x3d490b39	0.04908297
118	0x3cdb6177	0.026779873
119	0xbd7c6753	-0.061621975
120	0x3d1487d8	0.036262363
121	0xbdbe10cb	-0.09280547
122	0xbd75cdfe	-0.060010903
123	0x3d90292b	0.07039102
124	0xbd8a86e6	-0.06764011
125	0x3c046471	0.008080588
126	0xbe1769cc	-0.14786452
127	0x3d87a6fa	0.06623645
128	0xbb2906b6	-0.0025791354
129	0xbdd5d2fe	-0.10440634
130	0x3e2d22f7	0.1690787
131	0x3d513394	0.05107458
132	0xbdbb1ba7	-0.09136134
133	0x3d31dd04	0.043423668
134	0xbd78d3ac	-0.06074874
135	0xbdf62d23	-0.12020328
136	0x3d8675da	0.06565447
137	0x3d3ff355	0.04686292
138	0x3dc967b9	0.09834237
139	0xbd824b4d	-0.06362019
140	0xbd46e613	-0.04855926
141	0x3c5c0fc2	0.013431491
142	0x3dfeab11	0.12434972
143	0x3d057c93	0.032589506
144	0x3e116dfc	0.14202112
145	0xbd9921b3	-0.07477131
146	0xbcf7c587	-0.030245556
147	0x3c2c849b	0.0105296625
148	0x3ddfcab1	0.10927332
149	0x3e16676d	0.14687891
150	0xbdcff2a0	-0.10153699
151	0x3c6e28d4	0.014536101
152	0xbe3c90b3	-0.18414573
153	0x3dff814c	0.12475833
154	0xbdd70e9f	-0.105008356
155	0x3e3d689b	0.18496935
156	0x3e249805	0.16073616
157	0x3d86c0da	0.06579752
158	0x3d2667e7	0.040626433
159	0x3e5574d9	0.20845355
160	0xbd1a1aee	-0.03762334
161	0x3e021a74	0.12705404
162	0xbd54a06b	-0.0519108
163	0x3d594164	0.053040877
164	0xbd23df51	-0.040007893
165	0x3d928961	0.07155109
166	0x3d2019d5	0.039087135
167	0x3d16dddc	0.036832675
168	0x3d57a3c1	0.052646402
169	0x3dc99da6	0.09844522
170	0x3e37bbc1	0.17942716
171	0xbdf87251	-0.12131179
172	0x3bdae25c	0.006679816
173	0x3dda240b	0.10651406
174	0x3ca8ec8a	0.020620603
175	0x3dbb643c	0.091499776
176	0x3e2a2e95	0.16619332
177	0xbd90226e	-0.07037817
178	0x3d01831e	0.031619184
179	0x3d54c41c	0.051944837
180	0x3d49c55a	0.049260475
181	0x3e27249c	0.16322559
182	0xbe1275c5	-0.14302738
183	0x3de7f825	0.11326627
184	0x3d7f3037	0.06230184
185	0x3dde7659	0.10862417
186	0x3e10f05c	0.1415419
187	0x3e24c2eb	0.1608998
188	0x3e19a2f3	0.15003566
189	0x3dbd7d7c	0.0925245
190	0xbd84bcdb	-0.06481334
191	0x3d32a449	0.043613706
192	0xbd7e8404	-0.06213762
193	0x3c4af54d	0.012387586
194	0xbd3311bc	-0.043718085
195	0xbe2b5510	-0.16731668
196	0x3d44fa25	0.04809012
197	0xbe18db48	-0.14927399
198	0x3d8e4731	0.069471724
199	0x3e0d3a79	0.13791837
200	0x3da5f2ba	0.08102937
201	0xbc84fd43	-0.016234046
202	0x3da9f416	0.08298509
203	0x3e0bdaf1	0.13657738
204	0x3dad0754	0.08448663
205	0xbd8ca744	-0.06867841
206	0xbb075ecf	-0.0020655876
207	0xbe214cc1	-0.15751936
208	0xbda8a466	-0.082344815
209	0xbd471d5a	-0.048611976
210	0xbd81d348	-0.06339127
211	0xbd8b0176	-0.06787388
212	0x3e040024	0.12890679
213	0xbdec1579	-0.11527533
214	0x3dce5560	0.10074878
215	0xbde047f5	-0.10951225
216	0xbe25b614	-0.16182739
217	0x3e12b254	0.1432584
218	0xbdb12b27	-0.08650809
219	0x3dd5de78	0.10442823
220	0x3d799964	0.0609373
221	0xbdbb19a4	-0.0913575
222	0xbd47a2ac	-0.04873912
223	0xbdddfb32	-0.10838927
224	0x3e19270d	0.14956303
225	0xbbd6b8f4	-0.00655281
226	0x3cf97ef0	0.030456036
227	0x3b64377b	0.0034823108
228	0x3d3d0607	0.046148326
229	0x3dbb707d	0.09152315
230	0x3caa2d74	0.020773627
231	0x3c322a7d	0.010874388
232	0xbdc5dfb4	-0.096618086
233	0xbd4e3814	-0.05034645
234	0xb9fc6de3	-0.00048147058
235	0x3c1f672c	0.009729188
236	0xbd1b6bb1	-0.0379445
237	0xbd2f8252	-0.042848893
238	0x3c21e509	0.009881266
239	0xbc5925d4	-0.013253648
240	0xbdf668f3	-0.12031736
241	0xbdead669	-0.11466677
242	0xbd4505ff	-0.04810142
243	0xbe05ffcc	-0.1308586
244	0x3da48f1b	0.08035108
245	0x3ddbba3c	0.10728881
246	0xbd9851d2	-0.07437481
247	0xbdfcf8be	-0.12352131
248	0x3dae1851	0.08500732
249	0xbe09f2a9	-0.13471474
250	0x3d2a2730	0.04154128
251	0x3d7469ec	0.059671327
252	0x3d23d626	0.03999915
253	0x3da6b5e9	0.08140165
254	0x3c867389	0.016412513
255	0x3da2153c	0.079142064

enc.layers.0.self_attn.in_proj_bias f4 [192]
0	0x3cf9980d	0.030468011
1	0x3c892c54	0.01674477
2	0x3d644640	0.055731058
3	0x3c1e0828	0.009645499
4	0xbcc9576e	-0.024577823
5	0x3c07639d	0.008263496
6	0xbca2c3e8	-0.019868806
7	0xbba3a9f0	-0.0049946234
8	0x3b8da3a3	0.0043224855
9	0xbd721a8c	-0.05910735
10	0x3c0fbcfb	0.008773084
11	0x3b5287fb	0.0032124508
12	0xbb5539e7	-0.0032535733
13	0x3d3d3447	0.046192434
14	0xbbb93565	-0.005652117
15	0xbc97289e	-0.018451985
16	0x3da5c62a	0.080944374
17	0x3d64bb78	0.055842847
18	0xbd269c63	-0.040676486
19	0xbced55cc	-0.028971575
20	0x3ce9b40c	0.028528236
21	0xbd210440	-0.039310694
22	0x3d2714ac	0.0407912
23	0x3d03cf43	0.032180082
24	0x3bda5fd6	0.0066642566
25	0xbcdfffbc	-0.027343623
26	0x3d2ac9dd	0.041696418
27	0xbd677edb	-0.056517463
28	0xbe076161	-0.13220741
29	0x3d2451d4	0.0401171
30	0x3da6f9ec	0.081531376
31	0x3d663c8f	0.056210097
32	0xbd763b34	-0.060115054
33	0xbd87b5a8	-0.06626445
34	0x3d8748fe	0.06605719
35	0x3ce6301b	0.02809911
36	0x3d763c95	0.06011637
37	0x3d61b39d	0.055102933
38	0xbd3986ac	-0.04529445
39	0x3d524719	0.051337335
40	0xbde5a38f	-0.11212837
41	0x3de2dade	0.11076902
42	0x3da9f59e	0.08298801
43	0xbc031c20	-0.008002311
44	0x3d4b0a5d	0.04957043
45	0x3d6557d1	0.05599195
46	0x3cb075e0	0.021540582
47	0x3d08982e	0.033348255
48	0xbdfe2a78	-0.12410444
49	0x3dd8d668	0.1058777
50	0x3d7bcb38	0.0614731
51	0xbdfedc19	-0.12444324
52	0xba210f43	-0.0006143937
53	0x3d7f46fc	0.062323555
54	0x3cba0351	0.02270666
55	0x3e3df523	0.18550543
56	0x3d80e3b1	0.06293429
57	0xbd98b0fa	-0.074556306
58	0x3d068635	0.032842834
59	0xbd56df8f	-0.052459296
60	0x3cf4a88e	0.02986553
61	0xbd504eda	-0.05085645
62	0xbd16ec69	-0.036846552
63	0x3d3fc760	0.046821
64	0xba1d0e3b	-0.0005991195
65	0xb706f387	-8.043723e-06
66	0xb9db8aa5	-0.00041874233
67	0xb867ec1a	-5.529458e-05
68	0xb849d1c2	-4.8117487e-05
69	0x3800c7fa	3.070382e-05
70	0xba30739f	-0.0006731096
71	0x3a55411e	0.00081350084
72	0x39dabfd7	0.00041723132
73	0xba0da15c	-0.00054027676
74	0xb994ecb7	-0.00028405126
75	0xba43c176	-0.00074674876
76	0x398adfa5	0.0002648804
77	0xb98974a3	-0.00026217577
78	0xb9049503	-0.00012644012
79	0xb9ea01d2	-0.00044633314
80	0xb98e78ee	-0.0002717445
81	0x3a072c81	0.0005156473
82	0x38565a72	5.110581e-05
83	0xb88e76dc	-6.793227e-05
84	0x3a80ccaa	0.000982662
85	0xb9c6495d	-0.00037820163
86	0x3ad48967	0.0016215265
87	0x39e5411d	0.00043726797
88	0x38ffa8f7	0.0001219082
89	0x39db657c	0.00041846547
90	0x3a1e049f	0.000602791
91	0xba19096f	-0.00058378925
92	0x3ac08538	0.001468814
93	0xb9475d09	-0.00019012777
94	0x38e22882	0.00010784065
95	0x37d30aa6	2.5158119e-05
96	0xb94bef2c	-0.00019448687
97	0x3a15e709	0.0005718326
98	0xbad39cda	-0.0016144768
99	0x3a6a4f68	0.0008938224
100	0x3a1097cf	0.00055157853
101	0xb9f667d0	-0.00046998123
102	0x396191ae	0.00021511942
103	0x392cc052	0.00016474843
104	0x39322847	0.00016990407
105	0xba098e5b	-0.0005247348
106	0x3944cae2	0.00018767596
107	0xb98fa80b	-0.00027400287
108	0x3a4e5890	0.0007871473
109	0xb8e3c198	-0.00010860263
110	0xb9c965eb	-0.00038413642
111	0xba50e220	-0.00079682656
112	0xb9d8a82a	-0.00041324022
113	0x3a5abc13	0.0008344065
114	0x36f962dd	7.4322875e-06
115	0x3a93fc8e	0.0011290477
116	0x3a4cf1ba	0.00078180025
117	0xba46e9c1	-0.00075879326
118	0x3a0682a2	0.000513116
119	0xba6850a4	-0.0008862114
120	0xb863efad	-5.4344233e-05
121	0x395808e5	0.00020602679
122	0xb87f8fb9	-6.093059e-05
123	0xba2dbbac	-0.00066273916
124	0xbadff661	-0.0017086976
125	0x3a6cb06a	0.0009028973
126	0xba6b2712	-0.00089703605
127	0xb743d0ec	-1.1671549e-05
128	0x3c84f09d	0.016228015
129	0x3d067295	0.032824118
130	0x3cb32579	0.021868454
131	0x3c92e2be	0.017930385
132	0xbcc3d455	-0.023904959
133	0x3cb20b7b	0.02173399
134	0x3cb9a173	0.022659993
135	0xbcadca9f	-0.021214781
136	0xbc30bb23	-0.010786804
137	0x3ca5a21f	0.020218907
138	0x3d03c629	0.032171402
139	0xbcd54d22	-0.026037756
140	0x3ca59bf6	0.02021597
141	0x3c21ba66	0.009871101
142	0x3cbe5f9d	0.023238951
143	0x3b968b11	0.0045942147
144	0xbc951bf6	-0.01820181
145	0xbcf85aaf	-0.030316679
146	0xb8c1b988	-9.237515e-05
147	0xbce68524	-0.028139658
148	0x3cc02b61	0.023458185
149	0xbcc8f753	-0.024531996
150	0x3c95b56d	0.018274987
151	0x3ce34926	0.02774484
152	0xbc5d4300	-0.013504744
153	0x3c0f74b2	0.00875585
154	0x3cab899b	0.020939639
155	0x3c1b35b6	0.009473255
156	0xbd1f6083	-0.0389104
157	0xbcbae204	-0.02281285
158	0xbc92ed6d	-0.017935479
159	0xbcd3cfda	-0.025855947
160	0xbcc32d25	-0.023825238
161	0x3ca181c0	0.01971519
162	0x3c6f12a4	0.014591847
163	0xbce94007	-0.028472913
164	0x3c7ebe90	0.015548363
165	0x3b6f1ca9	0.0036485589
166	0x3c9107ee	0.017703976
167	0x3caa87f0	0.020816773
168	0x3cada44e	0.02119651
169	0x3cb49ee8	0.022048429
170	0x3c9efe1b	0.019408276
171	0x3cab1cfc	0.020887844
172	0xbc82a553	-0.015947973
173	0x3c4e27c5	0.012582724
174	0x3ce61803	0.028087622
175	0xbccff5d0	-0.025385767
176	0xbcc7d319	-0.024392651
177	0x3ca0ace6	0.019613694
178	0xbca1c46d	-0.019746983
179	0xbcb6ab6b	-0.022298535
180	0xbca62729	-0.020282345
181	0x3cd74d7e	0.026282068
182	0xbc8afbb0	-0.016965717
183	0x3c6c9a6a	0.014441112
184	0x3cb7c140	0.022431016
185	0x3d03915d	0.03212105
186	0xbd0d6928	-0.034524113
187	0x3c4bdbc6	0.012442535
188	0x3cc0c8ef	0.023533313
189	0x3cbbc8fb	0.022922983
190	0xbcb921b8	-0.022599086
191	0xbc837b7b	-0.016050091

enc.layers.0.self_attn.out_proj.weight f4 [64, 64]
0	0x3bd21321	0.0064109717
1	0xbdd8c291	-0.105839856
2	0x3da649ba	0.08119531
3	0x3d7b1e05	0.061307926
4	0x3d84eb6b	0.06490215
5	0xbdb73b7d	-0.08946893
6	0xbd30406d	-0.04303019
7	0xbd7c5954	-0.061608627
8	0xb9d2f4fb	-0.00040236846
9	0xbdd2f33e	-0.10300301
10	0x3d071289	0.03297666
11	0x3d6ea210	0.058260024
12	0xbdea75d3	-0.114482544
13	0xbc45d955	-0.012075742
14	0x3d3b2efc	0.045699105
15	0xbdb38c52	-0.08766998
16	0x3e0fd172	0.14044741
17	0x3e11dc22	0.1424413
18	0xbe0cda21	-0.13755085
19	0x3d55e842	0.05222345
20	0xbdb132be	-0.086522564
21	0xbd65ad31	-0.05607337
22	0xbda209b0	-0.07912004
23	0xbe163925	-0.14670236
24	0xbdfee1ab	-0.124453865
25	0xbc0725ee	-0.008248789
26	0xbdfa26a5	-0.12214402
27	0x3d739ddb	0.059476715
28	0x3c3445ab	0.011002938
29	0xbd11ac45	-0.03556468
30	0xbd08bcb3	-0.033383083
31	0xbd70e332	-0.05881042
32	0x3c5c2cce	0.013438417
33	0x3dbb7650	0.09153426
34	0x3d50eaaa	0.051005043
35	0x3dfbe364	0.12299231
36	0xbdb62e89	-0.088955946
37	0xbad7a8de	-0.0016453525
38	0xbdcdbcc7	-0.10045772
39	0xbe0c8add	-0.13724847
40	0xbbb6487c	-0.00556284
41	0xbda95c45	-0.08269552
42	0xbd9b4759	-0.07581968
43	0x3ddda5ba	0.108226255
44	0x3dd5ea3b	0.104450665
45	0xbcb0de01	-0.021590235
46	0xbdc29100	-0.09500313
47	0xbcb5035e	-0.022096332
48	0x3d520275	0.051271874
49	0xbd8dc055	-0.0692145
50	0x3a204b66	0.0006114751
51	0xbdb1c82d	-0.086807586
52	0x3d544bdd	0.05183016
53	0xbcd0cda6	-0.025488686
54	0x3cf391a9	0.029732542
55	0x3ae2a971	0.0017292929
56	0xbe0e3692	-0.13888004
57	0x3d9019c4	0.070361644
58	0x3dd423e3	0.10358407
59	0x3c6a4f44	0.014301125
60	0xbd694fbf	-0.056960817
61	0xbe0b7842	-0.13620093
62	0x3cf45129	0.029823856
63	0x3de44707	0.1114636
64	0xbcc29f04	-0.023757465
65	0x3d40b619	0.04704866
66	0xbb84d07f	-0.004053175
67	0xbccadde6	-0.024764013
68	0xbd2b6f34	-0.0418541
69	0xbc9265ef	-0.017870871
70	0xbd6ffe54	-0.058592156
71	0x3d431e56	0.047636352
72	0xbd9f8917	-0.0778982
73	0xbdec46ff	-0.11536979
74	0xbe161187	-0.14655124
75	0x3b105127	0.0022021027
76	0x3d386950	0.04502231
77	0x3daed1fc	0.08536145
78	0xbe04de22	-0.12975362
79	0xbd5a2f7c	-0.05326794
80	0x3cd6dec0	0.026229262
81	0x3db26ff9	0.08712763
82	0xbbebb2a5	-0.007192927
83	0xbd83918d	-0.06424246
84	0x3db00f1f	0.08596634
85	0xbdb27eba	-0.087155774
86	0x3dbfa3c3	0.09357407
87	0xbda18fcf	-0.078887574
88	0xbcbebba4	-0.023282833
89	0x3dc78780	0.097426414
90	0x3dbf5a75	0.09343425
91	0x3c082ff6	0.008312216
92	0x3e1948a0	0.1496911
93	0xbdb7ffa7	-0.08984309
94	0x3cd6204e	0.026138451
95	0x3d2534fc	0.040333733
96	0xbd87bfcb	-0.066283785
97	0x3d3c5fee	0.045989923
98	0x3d8e4573	0.0694684
99	0x3d973ef6	0.07385056
100	0xbdaef1ac	-0.08542189
101	0x3d9e7a18	0.07738131
102	0xbddfb8e6	-0.109239385
103	0x3c673939	0.014112764
104	0xbd0ac1f7	-0.033876386
105	0xbdd65ebc	-0.10467288
106	0xbd0905e4	-0.033452883
107	0xbdbf7c09	-0.0934983
108	0x3cda9046	0.026680123
109	0x3dde6b0d	0.10860262
110	0xbdd9abc8	-0.10628468
111	0xbcf305c7	-0.02966584
112	0x3d5fc827	0.05463424
113	0xbd40f31a	-0.04710684
114	0x3de91c6a	0.11382373
115	0x3e054a66	0.13016662
116	0x3df9425f	0.121708624
117	0xbe166088	-0.14685261
118	0xbd77a757	-0.060462322
119	0xbc1a32bd	-0.009411511
120	0xbd07b6c6	-0.03313329
121	0xbd74fe99	-0.059813116
122	0xbd54ee51	-0.05198509
123	0x3d99e4b9	0.075143285
124	0x3d3cb85f	0.046074267
125	0xbdd64e7b	-0.10464188
126	0x3d40f57d	0.047109116
127	0x3d97f47a	0.07419677
128	0xbdcc5b00	-0.099782944
129	0x3c632e26	0.013865983
130	0x3da1cd9b	0.07900544
131	0x3c31bbac	0.010847967
132	0xbbd0017d	-0.0063478337
133	0xbd0783b6	-0.033084594
134	0xbd6331e1	-0.05546749
135	0x3ccad3d6	0.024759214
136	0xbd42f779	-0.04759929
137	0xbd9e1a8f	-0.077199094
138	0xbe51ac11	-0.20475794
139	0xbca3c2ea	-0.019990403
140	0x3caa047b	0.02075409
141	0x3d33d8b9	0.043907855
142	0x3caa2c71	0.020773144
143	0x3dcaff66	0.09911995
144	0x3dbddb99	0.092704006
145	0x3ccc4f49	0.02494015
146	0x3c3b3408	0.011425979
147	0x3da2464f	0.079235666
148	0x3c281ba6	0.010260498
149	0xbdb91fe0	-0.09039283
150	0x3d470209	0.048585925
151	0xbd9a8f92	-0.07546915
152	0x3db2443f	0.08704423
153	0xbcef6901	-0.029224874
154	0xbdec575a	-0.115400985
155	0xbd93128d	-0.07181273
156	0x3dabdbe3	0.083915494
157	0xbcbcd049	-0.023048537
158	0x3d0f4ded	0.034986425
159	0x3e39e24d	0.18152733
160	0xbdcfc8f2	-0.10145749
161	0x3d7375f3	0.059438657
162	0xbd4d02f2	-0.050051637
163	0xbde5d97d	-0.11223123
164	0xbc6258e8	-0.013815142
165	0xbd535642	-0.051595934
166	0xbd1f6af0	-0.038920343
167	0xbdbff0ec	-0.09372124
168	0x3b4dc03f	0.0031395105
169	0xbc004007	-0.007827765
170	0xbd9f5890	-0.07780564
171	0xbdf7dc92	-0.12102617
172	0x3d0660c5	0.03280713
173	0x3d0d2a89	0.034464393
174	0xbdae4458	-0.08509129
175	0x3d6a5d9f	0.05721819
176	0x3d26f55c	0.040761337
177	0x3c8b70d2	0.01702157
178	0x3dcf34e3	0.10117509
179	0xbdd255d7	-0.10270279
180	0xbdacc2aa	-0.08435567
181	0x3ca7d52a	0.020487387
182	0xbd58f4c2	-0.052967794
183	0xbdeddc19	-0.11614246
184	0x3d799f48	0.060942918
185	0xbdbf504b	-0.093414865
186	0x3e1d1dda	0.15343419
187	0xbd6806fe	-0.056647293
188	0x3da220d6	0.07916419
189	0xbdec22c3	-0.11530068
190	0x3d2bd3f3	0.041950177
191	0x3d8b284f	0.06794798
192	0xbdced213	-0.10098662
193	0xbe1e6244	-0.15467173
194	0x3d39d5df	0.04536998
195	0x3de7a816	0.11311357
196	0x3dfb3b0c	0.12267122
197	0xbd9db9a0	-0.07701421
198	0xbe15a310	-0.14612985
199	0x3e1e1c58	0.154405
200	0x3d4c1c80	0.049831867
201	0xbd802fa3	-0.06259086
202	0xbe0c18e7	-0.13681374
203	0x3cfe62d3	0.031052982
204	0xbdf781fc	-0.120853394
205	0xbd89eeec	-0.06735024
206	0x3b878c8b	0.004136627
207	0x3d3b4a16	0.04572495
208	0xbcdc85c4	-0.026919253
209	0x3de16374	0.11005297
210	0xbd3b92bb	-0.04579423
211	0xbd6ae6e0	-0.057349086
212	0x3d310922	0.0432216
213	0x3cc0ea9f	0.023549376
214	0xbd94b25a	-0.0726058
215	0xbdd582e0	-0.10425353
216	0xbda2ca10	-0.079486966
217	0x3c4c7581	0.012479187
218	0x3d6cd16e	0.057816915
219	0xbd02ec16	-0.03196343
220	0x3d4beda6	0.049787186
221	0x3e0e5c19	0.1390232
222	0x3e014d96	0.12627253
223	0x3e1ecfae	0.15508911
224	0x3d0431c0	0.032274008
225	0x3d0f8756	0.035041176
226	0xbcdf2748	-0.02724041
227	0x3d95ac8a	0.073083
228	0xbc9c3f41	-0.01907313
229	0xba2d5857	-0.000661259
230	0xbe0104c0	-0.12599468
231	0xbdc0cc68	-0.094139874
232	0x3d86e95e	0.0658748
233	0x3d24f9d6	0.040277325
234	0xbd815098	-0.063142
235	0xbd925ebb	-0.07146975
236	0x3db58609	0.08863456
237	0x3cdf3399	0.027246283
238	0xbd870369	-0.06592447
239	0x3d96917e	0.07351969
240	0x3ccd6c67	0.025076104
241	0x3d3e2a06	0.046426795
242	0x3def9795	0.11698834
243	0x3e0c3777	0.13693033
244	0x3cb36d00	0.021902561
245	0x3d8f76ba	0.07005067
246	0xbdb3536c	-0.08756146
247	0x3dc0634a	0.09393938
248	0x3d03edf2	0.032209344
249	0x3d277974	0.04088731
250	0x3e0f3b9d	0.13987584
251	0xbcbed286	-0.023293745
252	0xbe093038	-0.133973
253	0xbde645d6	-0.11243789
254	0x3e188d1f	0.14897583
255	0xbd56b2e5	-0.0524167

enc.layers.0.self_attn.out_proj.bias f4 [64]
0	0xbc96f41c	-0.018426947
1	0xbc9e1f46	-0.019302022
2	0x3c4edd88	0.012626059
3	0xbc9eeeb6	-0.019400936
4	0xbc9452b6	-0.018105846
5	0x39484bcf	0.00019101727
6	0xbc708b1d	-0.014681605
7	0x3c3549fb	0.011065002
8	0xbbc514db	-0.006014449
9	0xbb4dece8	-0.0031421725
10	0xbc94f0bb	-0.018181195
11	0x3cb0105f	0.021492181
12	0xbc4fb43a	-0.012677247
13	0xbc968dd5	-0.018378178
14	0x3c9832da	0.018578935
15	0xba543ba8	-0.00080960477
16	0x3bdf8acd	0.0068219663
17	0xbca783fe	-0.020448681
18	0x3ca4563b	0.02006065
19	0x3ca34735	0.019931415
20	0x3c9b7d37	0.018980606
21	0x3c979348	0.018502846
22	0x3c899831	0.016796203
23	0x3c936d7c	0.017996542
24	0x3c7a70aa	0.01528565
25	0x3c9a6eda	0.018851686
26	0x3c95f92b	0.01830729
27	0xbc8f313c	-0.017479531
28	0xbc3f6370	-0.011681423
29	0xbc919c85	-0.01777483
30	0xbc9c18f1	-0.019054862
31	0x3c9b3d81	0.018950226
32	0x3c8acc61	0.016943159
33	0xbbf83a37	-0.007575299
34	0xbca1ab0d	-0.019734884
35	0x3c8329c4	0.016011126
36	0x3ca9c88d	0.020725513
37	0xbca01d3d	-0.019545192
38	0xbc9bfc6c	-0.019041263
39	0x3c4d54e5	0.012532447
40	0x3cb909b1	0.022587629
41	0x3ca42b40	0.020040154
42	0x3cb8c408	0.022554412
43	0xbc896dc9	-0.016775982
44	0xbc9976b1	-0.018733354
45	0xbc9e63f5	-0.019334773
46	0x3c8a25df	0.016863761
47	0x3c846556	0.016161602
48	0x3d101e21	0.035184983
49	0x3c821f6b	0.015884122
50	0xbbd9f145	-0.006651076
51	0x3c914eb5	0.017737726
52	0x3cac25a8	0.02101405
53	0xbc90205f	-0.01759356
54	0xbbd0caab	-0.006371816
55	0x3c8a19b3	0.016857957
56	0xbc9676ba	-0.01836716
57	0xbc66e681	-0.014093042
58	0xbc7d1c8b	-0.0154487
59	0xbc5ebb6f	-0.013594492
60	0x3c5f376f	0.013624056
61	0xbc5727e7	-0.013132072
62	0xbcafc6c8	-0.021457091
63	0x3c8f7ca0	0.01751548

enc.layers.0.linear1.weight f4 [256, 64]
0	0x3e1170ba	0.14203158
1	0xbd2a6a33	-0.041605186
2	0x3dac88b1	0.08424509
3	0x3d0b87e5	0.034065146
4	0xbd77a276	-0.06045767
5	0xbdf23776	-0.118269846
6	0x3d8db17d	0.06918619
7	0xbd86d007	-0.06582647
8	0x3db8a6de	0.090162024
9	0x3b33375e	0.0027346234
10	0xbc0a1218	-0.008427165
11	0xbd73771c	-0.059439763
12	0xbd8723fc	-0.0659866
13	0xbe040d9b	-0.12895815
14	0xbda3dac4	-0.080007106
15	0xbd0ff243	-0.03514315
16	0xbdc57f5f	-0.09643435
17	0xbd97de0e	-0.074154004
18	0xbd6fa53a	-0.05850718
19	0x3d5b8add	0.053599227
20	0xbd717c1e	-0.058956258
21	0xbda16d8f	-0.07882225
22	0xbb84902f	-0.0040455083
23	0x3dc0ecd2	0.0942017
24	0xbb3d58a0	-0.0028891936
25	0xbcd33258	-0.025780842
26	0x3e11953f	0.14217089
27	0x3ad5ae96	0.0016302641
28	0xbcc6ce1c	-0.024268202
29	0x3b2c4e6a	0.0026291856
30	0x3bf76ede	0.007551058
31	0x3d9e28ac	0.07722601
32	0x3d352639	0.044225905
33	0x3d10d6fb	0.03536127
34	0x3e09d416	0.1345981
35	0x3d3cb94f	0.04607516
36	0xbd57bf09	-0.05267242
37	0xbdbbab61	-0.09163547
38	0xbc0e5214	-0.008686561
39	0x3d9fc10b	0.07800492
40	0xbb88f9d6	-0.0041801734
41	0xbe0c71c9	-0.1371528
42	0x3d6931d6	0.056932293
43	0xbc516bf9	-0.01278209
44	0x3d43ba79	0.047785256
45	0x3cfafb6e	0.03063747
46	0x3c051915	0.008123656
47	0xbd0cb6ba	-0.03435395
48	0x3dec3910	0.11534321
49	0x3da72a36	0.08162348
50	0x3df4665c	0.11933586
51	0x3d94524e	0.07242261
52	0xbb834dfd	-0.0040070997
53	0x3e004570	0.12526488
54	0xbbf0eeb6	-0.0073526753
55	0x3d47144d	0.048603345
56	0xbe0dbd29	-0.1384169
57	0xbdb5e311	-0.088812
58	0x3e107e33	0.14110641
59	0x3dd1e0a8	0.10247928
60	0x3df84c36	0.12123911
61	0xbe15b263	-0.1461883
62	0x3d738487	0.05945256
63	0xbe0ff91e	-0.14059874
64	0x3caf9d4c	0.02143731
65	0xbdd509da	-0.1040227
66	0xbdae9e8b	-0.085263334
67	0xbd619954	-0.055077866
68	0xbd773275	-0.060350854
69	0xbca6f4f9	-0.020380484
70	0x3dc83f79	0.097777314
71	0xbd71787e	-0.0589528
72	0xbcff941b	-0.031198552
73	0xbdf727f6	-0.12068169
74	0xbd581bcc	-0.052760884
75	0xbe0760b5	-0.13220485
76	0xbde3700a	-0.11105354
77	0x3ce817db	0.028331688
78	0xbd6f8cef	-0.058484014
79	0x3db18b5b	0.08669158
80	0xbb1ad449	-0.0023625067
81	0xbe0f8f7e	-0.14019582
82	0x3df07ed0	0.117429376
83	0xbb21b7eb	-0.0024676274
84	0xbbb2dc6b	-0.005458405
85	0xba34292d	-0.0006872591
86	0xbd473355	-0.04863294
87	0x3d62f616	0.055410467
88	0xbdf6cd85	-0.120509185
89	0x3dea398d	0.11436758
90	0x3d4dd02c	0.050247356
91	0x3d3457cd	0.044029046
92	0xbd822579	-0.063548036
93	0x3c83fd55	0.016112009
94	0xbdf75b35	-0.12077943
95	0x3dab41cd	0.0836216
96	0x3df8cba7	0.121482186
97	0x3a448677	0.00074968435
98	0xbdb54154	-0.08850351
99	0xbccbf30d	-0.02489617
100	0x3ddde4ca	0.10834654
101	0xbc0d25ce	-0.00861497
102	0xbe0e5385	-0.13899048
103	0x3c80ce8a	0.015723485
104	0xbd7eb485	-0.062183876
105	0x3dd515f2	0.10404576
106	0xbdc393ea	-0.09549697
107	0xbd8dc93f	-0.0692315
108	0xbd313ddd	-0.043271888
109	0xbe10ff04	-0.1415978
110	0x3d876005	0.06610111
111	0x3dc76726	0.09736471
112	0xbd9cf0b0	-0.07663095
113	0x3d878c23	0.06618526
114	0x3e1181ab	0.1420962
115	0xbdd2bfcb	-0.10290488
116	0x3d57f454	0.052723244
117	0x3d780d7e	0.060559742
118	0xbdb185a0	-0.08668065
119	0x3cc414d3	0.023935711
120	0x3d8f97b2	0.070113555
121	0x3e057f24	0.13036782
122	0x3d8ebf68	0.069701016
123	0x3d1b333d	0.03789066
124	0x3ca3a9a4	0.019978352
125	0xbd5973bf	-0.0530889
126	0xbd8a47e1	-0.06751991
127	0xbde65967	-0.11247521
128	0xbd8fc828	-0.07020599
129	0xbc83f2d0	-0.016106993
130	0xbd63cd9d	-0.05561601
131	0x3dc58db3	0.096461676
132	0x3c1f5ccc	0.009726714
133	0xbdc65938	-0.09684986
134	0x3c2a2470	0.010384664
135	0x3d50b5cc	0.050954625
136	0x3db26160	0.08709979
137	0xbd1a2c1d	-0.037639726
138	0xbe1130b4	-0.14178735
139	0xbcfee3ae	-0.031114426
140	0xbcaf0c45	-0.021368155
141	0xbdaeb55a	-0.08530684
142	0x3dda530f	0.106603734
143	0x3c161ca2	0.0091621
144	0x3cd1bd9a	0.025603104
145	0x3d8dfd59	0.06933088
146	0x3c2c407b	0.01051342
147	0x3cbf32e0	0.023339689
148	0x3dee046e	0.11621939
149	0xbd4d3e9c	-0.050108537
150	0x3da38cc7	0.079858355
151	0x3d013082	0.0315404
152	0xbccb8f58	-0.024848625
153	0x3dddb99b	0.10826417
154	0xbd231159	-0.039811466
155	0x3d88d1f0	0.066806674
156	0xbdbe5fe8	-0.092956364
157	0xbd08559c	-0.03328477
158	0xbd4bfc3b	-0.049801093
159	0xbe0cbdd4	-0.13744289
160	0x3d46f760	0.04857576
161	0x3debb343	0.11508801
162	0x3c8e7e95	0.017394343
163	0x3d5b42ec	0.05353062
164	0xbd8c15a0	-0.06840062
165	0x3baea6ee	0.005329958
166	0xbbaa789f	-0.0052023674
167	0xbd236aaa	-0.039896645
168	0x3a3e5c62	0.0007261691
169	0xbd8b1f02	-0.06793024
170	0xbde02909	-0.10945327
171	0xbd83355a	-0.064066604
172	0xbde6758b	-0.11252888
173	0xbca007be	-0.019534942
174	0xbd0286da	-0.031866886
175	0x3d690985	0.056893844
176	0xbdc4cdf5	-0.09609596
177	0xbe0a3b11	-0.13499095
178	0x3d256760	0.04038179
179	0x3d47ca22	0.048776753
180	0xbd69160f	-0.056905802
181	0xbbb7a431	-0.00560429
182	0x3d89e3bb	0.06732889
183	0x3db62025	0.0889285
184	0xbd1c964f	-0.038229283
185	0xbdc656c6	-0.096845195
186	0xbc733eeb	-0.014846544
187	0xbc7dc88b	-0.015489708
188	0x3dcb5bd3	0.099296235
189	0x3c886e6c	0.016654216
190	0xbd0c655b	-0.034276348
191	0x3d9438be	0.07237385
192	0x3da30438	0.07959789
193	0x3d3deedc	0.046370372
194	0x3d96a722	0.07356097
195	0x3d6e593f	0.05819058
196	0xbdc6517e	-0.09683512
197	0xbd82b2a2	-0.06381728
198	0xbdfd3a8e	-0.12364684
199	0x3d57f50f	0.05272394
200	0xbda03887	-0.07823282
201	0xbd0f0147	-0.034913328
202	0x3dddfc1c	0.10839102
203	0xbdb948b5	-0.09047071
204	0x3d91b218	0.07114047
205	0x3ddcaab5	0.10774747
206	0x3da9a8c8	0.082841456
207	0x3d4070fd	0.046982754
208	0xbc4a4d41	-0.01234752
209	0xbc116bb1	-0.008875773
210	0x3d59ace3	0.053143393
211	0xbd86fbc5	-0.0659099
212	0x3c881fde	0.016616758
213	0xbd213669	-0.03935853
214	0xbd96239d	-0.073310114
215	0x3deefcb1	0.11669291
216	0xbd82af89	-0.06381137
217	0xbdb0cccb	-0.08632811
218	0xbd530f46	-0.051528238
219	0xbdadc29d	-0.08484385
220	0x3d6cb99e	0.057794206
221	0x3db1d311	0.08682836
222	0x3d8ebe3d	0.06969879
223	0x3d028f8a	0.03187517
224	0x3d2ceafb	0.042216282
225	0x3ddd70b5	0.10812513
226	0x3d343910	0.04399973
227	0x3d5fff21	0.05468667
228	0x3d489f12	0.048979826
229	0xbd0fb3ae	-0.035083465
230	0xbdfa0918	-0.12208766
231	0xbce9bdd0	-0.028532892
232	0xbc6d880e	-0.01449777
233	0x3dc53f06	0.096311614
234	0x3d671449	0.05641583
235	0xbe019dda	-0.12657872
236	0xbdc2f164	-0.09518698
237	0xbd575849	-0.05257443
238	0x3d909857	0.070603065
239	0x3df135e4	0.11777857
240	0xbb3a6656	-0.0028442345
241	0x3a890b2a	0.0010455598
242	0x3e0d92b9	0.13825502
243	0xbd860476	-0.065438196
244	0x3d22c496	0.03973826
245	0xbc58e566	-0.013238287
246	0x3c37c108	0.011215456
247	0xbd779d5b	-0.0604528
248	0x3d80571e	0.06266616
249	0x3dfded8c	0.12398824
250	0xbd919814	-0.07109085
251	0x3a997ad6	0.0011709582
252	0x3da377fc	0.079818696
253	0xbe0602d4	-0.13087016
254	0x3dd0dc3d	0.10198257
255	0x3e0908cc	0.13382262

enc.layers.0.linear1.bias f4 [256]
0	0x3e02781c	0.1274113
1	0xbdb99850	-0.090622544
2	0xbcea416a	-0.028595645
3	0x3da35e51	0.07976974
4	0xbd37436d	-0.044742037
5	0x3e08db89	0.13364996
6	0xbd515b43	-0.051112425
7	0xbcfb5453	-0.030679857
8	0x3cc215aa	0.02369197
9	0xbd519751	-0.051169697
10	0xbd1b58ea	-0.037926592
11	0x3d1c8281	0.038210396
12	0x3dc5a89b	0.096512996
13	0x3d0a8246	0.033815645
14	0x3db07a3b	0.086170636
15	0xbd448464	-0.04797782
16	0xbdbed9a0	-0.093188524
17	0xbd21fb43	-0.039546262
18	0xbcba3d4b	-0.022734305
19	0x3ce5e43d	0.028062934
20	0x3d5d753a	0.054066874
21	0xbd68795a	-0.056756355
22	0x3da3fd8c	0.080073446
23	0xbd734f2b	-0.059401672
24	0xbdc20e1a	-0.09475346
25	0x3a488d82	0.0007650481
26	0xbdc6bd35	-0.09704057
27	0x3c468ed0	0.01211901
28	0xbde2154a	-0.11039217
29	0xbdb7be68	-0.08971864
30	0xbd588c86	-0.05286839
31	0xbd95b879	-0.07310576
32	0x3df9ee8d	0.12203703
33	0xbdcb9fcc	-0.09942588
34	0x3d312fdb	0.04325853
35	0xbce89bdb	-0.02839463
36	0xbd912878	-0.07087797
37	0x3df1bade	0.1180322
38	0xbd94b61b	-0.07261296
39	0x3c8c31e7	0.017113639
40	0xbda370f4	-0.079805285
41	0x3ddae665	0.106884755
42	0x3e06e617	0.1317371
43	0x3e0acfbc	0.13555807
44	0xbc30bdd3	-0.010787445
45	0x3d3a43b7	0.045474734
46	0xbcb2b568	-0.021815017
47	0xbce43203	-0.027855879
48	0x3c6b0ff9	0.01434707
49	0x3dbff063	0.09372022
50	0xbd8b98c1	-0.06816245
51	0x3dc1bb74	0.09459582
52	0x3e014a40	0.1262598
53	0x3c436c5a	0.0119276885
54	0x3d48ccce	0.049023442
55	0xbc822d73	-0.015890813
56	0x3d836836	0.06416361
57	0x3ccf7c11	0.025327714
58	0xbc3335bc	-0.010938104
59	0x3d3c7428	0.046009213
60	0xbdd50ffe	-0.10403441
61	0xbcdcea25	-0.026967118
62	0xbd0a0686	-0.033697627
63	0xbdee343b	-0.11631056
64	0x3c877b61	0.016538324
65	0xbca361de	-0.019944128
66	0x3cdc441c	0.026887946
67	0xbddc2f17	-0.10751169
68	0x3e06f355	0.13178761
69	0xbda479ad	-0.0803102
70	0x3dcb1e82	0.09917928
71	0x3c2e78c2	0.010648908
72	0xbe038c69	-0.12846531
73	0xbc268c66	-0.0101653095
74	0x3ccc5bed	0.024946177
75	0x3dc432aa	0.09579976
76	0xbd74cd24	-0.05976595
77	0xbd7df716	-0.062003218
78	0xbdac3cd9	-0.08410043
79	0x3db31b88	0.087454855
80	0x3d878827	0.06617766
81	0x3d505798	0.050864786
82	0xbde0771d	-0.10960219
83	0xbc291f58	-0.010322414
84	0xbd25a37e	-0.04043912
85	0x3d6e3ec5	0.05816533
86	0x3de51ca7	0.111871056
87	0x3e033ac1	0.12815382
88	0x3e0612c5	0.13093098
89	0xbd92072d	-0.07130275
90	0x3cba0903	0.022709375
91	0xbcc51f50	-0.024062783
92	0xbd684b1d	-0.05671226
93	0xbdb361c5	-0.087588824
94	0x3dd44003	0.10363772
95	0x3b9a330c	0.0047057923
96	0xbd925182	-0.07144453
97	0x3dcf3089	0.10116679
98	0x3ca5865b	0.020205667
99	0x3bded944	0.0068008024
100	0x3d2b5220	0.041826367
101	0xbc5addfd	-0.01335859
102	0xbb45aa25	-0.0030161228
103	0x3da0bd07	0.07848554
104	0xbda12684	-0.078686744
105	0x3ddff844	0.10936025
106	0x3e086697	0.13320385
107	0x3cc854e2	0.024454538
108	0x3dc1bb0d	0.09459505
109	0x3de01484	0.10941413
110	0x3ca2bf01	0.019866468
111	0x3c366f73	0.01113497
112	0x3db52b23	0.08846118
113	0xbcc46767	-0.023975087
114	0xbda1b545	-0.078959025
115	0x3cb39275	0.021920422
116	0xbd723c5f	-0.059139606
117	0xbce40681	-0.027835133
118	0xbc204de3	-0.009784195
119	0xbd393e0c	-0.045225188
120	0x3d1bf149	0.038071904
121	0xbca023c6	-0.019548308
122	0xbdc0560a	-0.09391411
123	0xbd248bd9	-0.04017243
124	0xbdb0ddfc	-0.0863609
125	0xbdd9782d	-0.10618625
126	0x3e050bea	0.12992826
127	0x3dbc36cc	0.09190139
128	0x3d31e7c8	0.043433934
129	0x3d503937	0.050835814
130	0x3d9a5f03	0.07537653
131	0x3d873a92	0.06602968
132	0x3d94f326	0.072729394
133	0x3d976528	0.07392341
134	0x3dc8d510	0.098062634
135	0x3d57f966	0.05272808
136	0xbdb22779	-0.08698935
137	0xbc6e011b	-0.014526631
138	0xbd6c8308	-0.05774215
139	0x3debe72e	0.115187034
140	0x3dfa0f44	0.12209943
141	0xbccb5af0	-0.024823636
142	0x3dd872c3	0.10568764
143	0x3d9a1d2f	0.075250976
144	0x3d2a8c01	0.041637424
145	0xbd879360	-0.066199064
146	0xbbde495d	-0.006783648
147	0xbd99e58f	-0.07514488
148	0xbb9df981	-0.004821003
149	0xbdc27fd0	-0.094970345
150	0xbd5ca633	-0.053869437
151	0xbd6b123c	-0.057390437
152	0x3c9ac678	0.018893465
153	0xbd676274	-0.056490377
154	0x3e0a5e63	0.13512568
155	0xbd8976ff	-0.0671215
156	0x3db64553	0.08899941
157	0x3c5fb243	0.013653341
158	0x3d726b2d	0.059184242
159	0xbda0bdf9	-0.078487344
160	0x3c0ff7f2	0.008787142
161	0x3cc27dd0	0.023741633
162	0xbd6edfe1	-0.058318976
163	0x3def5c00	0.116874695
164	0xbca0508a	-0.019569654
165	0x3e0d7471	0.1381395
166	0xbbb66013	-0.005565652
167	0x3b68ecf2	0.003554162
168	0x3daa1875	0.08305446
169	0xbda0a4e3	-0.0784395
170	0x3e003fc5	0.12524326
171	0x3e01a88e	0.12661955
172	0x3bc54d4b	0.006021177
173	0xbc838981	-0.016056778
174	0xbc1919a2	-0.00934449
175	0x3cef4a36	0.029210191
176	0x3d21f944	0.03954436
177	0xbb0e1b8b	-0.0021683897
178	0x3b6afc20	0.0035855845
179	0x3be034ff	0.006842255
180	0xbc1ea963	-0.00968394
181	0x3a7ff659	0.00097641867
182	0xbd66d96a	-0.056359686
183	0x3d5cc579	0.053899262
184	0xbc4401d5	-0.011963327
185	0x3dc32827	0.09529143
186	0xbdbc4780	-0.09193325
187	0x3d587d3f	0.05285382
188	0x3e0749de	0.13211772
189	0xbd7d1193	-0.06178434
190	0x3de67401	0.11252595
191	0xbda381e3	-0.07983758
192	0x3d5c355c	0.053761825
193	0xbbbd84d1	-0.005783655
194	0x3cde4394	0.027131833
195	0xbd84ce6d	-0.06484685
196	0x3d2a4c7d	0.04157685
197	0x3dbdccd4	0.092675835
198	0xbdb8c752	-0.09022392
199	0x3e02ed26	0.12785777
200	0xbdef9a80	-0.116993904
201	0x3dc8397a	0.09776588
202	0x3d09d0c9	0.03364638
203	0xbbb070df	-0.005384549
204	0xbd9cee1d	-0.07662604
205	0xbc6bf458	-0.014401518
206	0xbd43b335	-0.047778327
207	0xbbe49ab8	-0.0069764517
208	0x3df17d35	0.117914595
209	0xbdfa43c6	-0.12219958
210	0x3d6fb37a	0.05852077
211	0x3d0fcc36	0.03510686
212	0x3d8d5169	0.069002934
213	0xbdd14186	-0.10217576
214	0x3d3f871c	0.04675971
215	0xbce4b0cf	-0.02791634
216	0x3bfd9b97	0.007739495
217	0xbda59c1d	-0.08086417
218	0x3de20eb9	0.110379644
219	0x3d84b790	0.06480324
220	0x3cf74105	0.03018237
221	0xbdb77b16	-0.08959024
222	0xbdaf4738	-0.08558506
223	0x3d423adc	0.047419414
224	0x3d19e17d	0.037568558
225	0xbdb8b657	-0.090191536
226	0x3ca9f55e	0.020746883
227	0xbe0aaa63	-0.1354156
228	0x3d7e7d64	0.0621313
229	0x3bf266fc	0.0073975306
230	0x3dba09ea	0.09083922
231	0x3e09e7a9	0.13467278
232	0x3c6cf4a8	0.0144626275
233	0x3ce18908	0.027531162
234	0xbe07c871	-0.13260056
235	0x3d489e20	0.048978925
236	0x3b3e5486	0.002904208
237	0x3d3c2700	0.04593563
238	0x3ace14c6	0.0015722744
239	0x3d4bd5ec	0.04976456
240	0x3d926f89	0.0715018
241	0x3dce8e8e	0.10085784
242	0xbd9b4ee0	-0.075834036
243	0x3d581819	0.052757356
244	0xbdaeabb3	-0.08528843
245	0xbe04a8f3	-0.12955074
246	0x3dbe50de	0.09292768
247	0x3cf8e2dd	0.030381614
248	0x3d115663	0.035482775
249	0xbdcf8d42	-0.10134365
250	0xbdd11a73	-0.10210123
251	0xbd6e8f31	-0.058242027
252	0x3d405993	0.046960425
253	0x3caa1fb6	0.020767074
254	0x3d8e9326	0.0696166
255	0x3d81f5a1	0.06345678

enc.layers.0.linear2.weight f4 [64, 256]
0	0xbd866282	-0.065617576
1	0xbda66131	-0.081240065
2	0x3bc6804e	0.0060577756
3	0xbd8cfb0e	-0.068838224
4	0xbd90b297	-0.07065313
5	0x3ae1fa7d	0.0017240789
6	0xbd5f6cfe	-0.054547302
7	0xbad94cf0	-0.0016578715
8	0x3c6b9f47	0.014381236
9	0xbd2c66a3	-0.04209007
10	0xbd05a702	-0.032629974
11	0x3d2b53f3	0.041828107
12	0xbd68bade	-0.056818835
13	0xbca242f7	-0.019807322
14	0x3d27e6ce	0.040991597
15	0xbcd271e8	-0.02568908
16	0xbd787475	-0.060657937
17	0xbd0c6850	-0.034279168
18	0xbc94b944	-0.018154748
19	0xbd82082f	-0.06349217
20	0x3d3105b1	0.04321832
21	0x3ce1c188	0.027558103
22	0x3c1d1012	0.009586351
23	0x3cc10b10	0.023564845
24	0x3d3676f9	0.044547055
25	0x3d1d0214	0.03833206
26	0xbc9374a3	-0.017999953
27	0x3cb17e5d	0.0216667
28	0x3c5bb6b6	0.013410261
29	0x3c4aad00	0.012370348
30	0xbc0ec52d	-0.008714003
31	0xbd831b83	-0.06401732
32	0xbcb4a920	-0.022053301
33	0x3d030cbb	0.031994563
34	0xbc574b64	-0.013140533
35	0xbd2786e9	-0.040900145
36	0x3ab902e1	0.0014115238
37	0xbd4b93d6	-0.049701534
38	0x3d29394a	0.0413144
39	0x3c8cabb3	0.017171716
40	0xbd9879d8	-0.07445115
41	0xbd92e542	-0.07172634
42	0xbd2ca71c	-0.042151555
43	0xbd2ab8ff	-0.041680332
44	0x3cc3b27d	0.02388882
45	0xbd806c99	-0.06270713
46	0x3c1a701d	0.009426144
47	0x3d032938	0.03202173
48	0x3c238b02	0.0099818725
49	0xbb0867f4	-0.0020813914
50	0xbcb936f1	-0.022609206
51	0x3ca37b89	0.019956367
52	0xbd90a19e	-0.07062076
53	0xbce373d2	-0.027765188
54	0xbda4811c	-0.08032438
55	0xbca39e4a	-0.019972939
56	0xbcf543a2	-0.029939476
57	0xbcdc0d89	-0.026861923
58	0xbc3ecfc5	-0.011646216
59	0xbc84d2f1	-0.016213866
60	0x3d0e9f0a	0.03481964
61	0xbd413a0b	-0.047174495
62	0x3cc654e7	0.024210406
63	0xbd56d7f2	-0.052452035
64	0x3c3c0df3	0.011477935
65	0xbd9e1bed	-0.0772017
66	0x3cf5e0c0	0.030014396
67	0x3ce4889e	0.027897175
68	0xbc38de3c	-0.011283454
69	0xbd46ddb8	-0.04855129
70	0x3bcc0555	0.0062262216
71	0xbd29fca6	-0.04150071
72	0x3c4fd3ad	0.012684745
73	0x3bd7bb60	0.006583616
74	0xbcb5d4d4	-0.02219621
75	0xbbe64cc9	-0.0070281965
76	0xbd94fc94	-0.07274738
77	0x3cf775c2	0.030207518
78	0x3c3580ec	0.011078101
79	0x3d2bc3f2	0.041934915
80	0x3cec25d3	0.02882663
81	0xbd82fd2a	-0.063959435
82	0x3ce1c81b	0.027561238
83	0xbba0d66e	-0.0049083745
84	0xbd9a847f	-0.07544803
85	0x3cd901b5	0.026490072
86	0xbd99376a	-0.074812725
87	0xbd22186b	-0.039574068
88	0xbc4e6408	-0.0125970915
89	0x3c97d78c	0.018535398
90	0xbd937c4a	-0.07201441
91	0xbd3a61a2	-0.045503266
92	0xbc86e7e6	-0.016468
93	0x3a50c73c	0.00079642585
94	0xbd8c04e7	-0.068368725
95	0x3b20595a	0.002446732
96	0xbcb6da54	-0.022320904
97	0xbd09eee2	-0.033675082
98	0xbd45a4fd	-0.04825305
99	0xba33fbf4	-0.0006865852
100	0xbcdadeb7	-0.026717527
101	0xbc8e7529	-0.01738985
102	0x3c054025	0.008132969
103	0xbd17a419	-0.03702173
104	0x3a93de79	0.0011281512
105	0x3cf1f168	0.029534057
106	0xbcbc37c1	-0.022975804
107	0xbd8a49a2	-0.067523256
108	0xbc519225	-0.012791191
109	0xbba6b691	-0.0050876816
110	0x3bc7514b	0.006082689
111	0xbd043b3d	-0.032283057
112	0xbb268482	-0.002540857
113	0xbd5a6b9a	-0.053325273
114	0xbd1cf7a0	-0.03832209
115	0xbcd0f77e	-0.025508638
116	0x3d32e054	0.043670967
117	0xbacb16af	-0.0015494431
118	0x3c788519	0.015168452
119	0xbd90b34a	-0.07065447
120	0xbd52034e	-0.051272683
121	0xbc443f85	-0.011978035
122	0x3cfdf5fe	0.031001087
123	0xbd634e7b	-0.055494767
124	0xba23492b	-0.00062288594
125	0xbd45af8d	-0.04826312
126	0x3c8dc878	0.017307505
127	0x3cff6b84	0.031179197
128	0xbd02e00a	-0.03195194
129	0xbd7f8ab2	-0.06238813
130	0x3cf18aac	0.02948507
131	0xbc9e0be4	-0.01929278
132	0x3d1d6110	0.038422644
133	0xbd0ad868	-0.033897787
134	0xbd825b3e	-0.06365059
135	0xbd6c233b	-0.057650786
136	0xbb7bcedc	-0.0038422858
137	0x3d040961	0.032235507
138	0xbd11d753	-0.03560574
139	0x3a4a8f4a	0.000772704
140	0xbdb1d22c	-0.08682665
141	0xbc96b36a	-0.018396098
142	0x3cc3be56	0.02389447
143	0xbd9630c3	-0.07333519
144	0x3d130567	0.035893824
145	0xbd58abbb	-0.05289815
146	0x3d0587cb	0.032600205
147	0xbb669933	-0.0035186529
148	0x3b6d4878	0.0036206525
149	0x3ccb2c51	0.024801405
150	0xbd31c490	-0.043400347
151	0x3cc3c869	0.023899274
152	0xbd451249	-0.04811314
153	0xbc404be6	-0.011736846
154	0x3d094f05	0.033522625
155	0xbda1907c	-0.07888886
156	0x3d1c056b	0.038091104
157	0x3cb6b561	0.022303285
158	0xbb3e87ce	-0.0029072645
159	0x3a48b570	0.0007656431
160	0x3c83c8bc	0.016086929
161	0x3c83e355	0.016099611
162	0xbc24f9b2	-0.010069298
163	0xbd8fac1e	-0.070152506
164	0xbda303a3	-0.07959678
165	0x3d106904	0.0352564
166	0xbd31c960	-0.043404937
167	0xbc480da4	-0.012210283
168	0xbda0177a	-0.07816978
169	0xbd92f4c5	-0.07175592
170	0x3d1e8ef4	0.03871055
171	0xbcf530d4	-0.02993051
172	0x3c2e108e	0.010624064
173	0x3c10f090	0.008846417
174	0x3d084835	0.033271987
175	0xbd171317	-0.03688344
176	0xbd82b1fb	-0.06381603
177	0x3d18681a	0.037208654
178	0xbd5d6bec	-0.054058
179	0xbd888dfd	-0.06667707
180	0xbd1d27d5	-0.038368065
181	0xba9cc82a	-0.0011961509
182	0xbd5e94bc	-0.054341063
183	0xbd218765	-0.039435763
184	0xbda59fbc	-0.080871075
185	0xbcb7fc5b	-0.0224592
186	0x3cd78b54	0.026311554
187	0xbd9f83c3	-0.077888034
188	0xbda2e8e9	-0.0795458
189	0x3c777bb3	0.015105176
190	0x3cdf23e3	0.027238792
191	0xbd25d49e	-0.04048597
192	0xbd5f4b9a	-0.05451546
193	0xbd3e3f89	-0.04644731
194	0x3c5ed4a4	0.013600502
195	0x3d30192f	0.042992767
196	0x3d243e55	0.040098507
197	0x3d264b37	0.040599074
198	0xbd6e2e6c	-0.05814974
199	0xbb569cc7	-0.0032747255
200	0xbd9a2d61	-0.075281866
201	0xbc8c370a	-0.017116088
202	0x39646b44	0.00021783734
203	0xbd0e86d3	-0.034796547
204	0x3c08938c	0.008335959
205	0xbda1edb3	-0.07906666
206	0xbd56f5ee	-0.05248063
207	0xbd247e08	-0.040159255
208	0xbd34a1ed	-0.044099737
209	0x3d276941	0.040871862
210	0xbd727d00	-0.05920124
211	0x3c25f70b	0.0101297
212	0xbd9185d4	-0.07105604
213	0xbd8dc89d	-0.069230296
214	0x3c9f1ce2	0.019422952
215	0x3bf3adde	0.007436498
216	0x3c381cca	0.011237333
217	0xbc93947b	-0.018015137
218	0x3cd49627	0.025950504
219	0xbd93e031	-0.072204955
220	0x3cd23556	0.025660198
221	0xbd988464	-0.074471265
222	0xbd1cf1ec	-0.038316652
223	0xbcd28561	-0.025698366
224	0x3cb6296d	0.02223655
225	0xbd9a9056	-0.07547061
226	0xbd8f5672	-0.0699891
227	0x3c13148b	0.008977066
228	0x3ada2de1	0.0016645753
229	0xbd82d1aa	-0.063876465
230	0xbda3ac78	-0.0799188
231	0xbb21f816	-0.002471452
232	0x3c35fe29	0.01110796
233	0xbd85b299	-0.065282054
234	0xbd6d3a44	-0.057916895
235	0xbd8c05d4	-0.06837049
236	0xbcb3f652	-0.02196804
237	0xbd39b540	-0.04533887
238	0xbd815897	-0.06315725
239	0xbd12a354	-0.035800293
240	0xbc0d6d4b	-0.0086320145
241	0xbd6d75d3	-0.057973694
242	0xbb7e4785	-0.0038799953
243	0xbc36df72	-0.011161672
244	0xbd220208	-0.03955272
245	0xbd57cd1d	-0.052685846
246	0xbd5cc32c	-0.053897068
247	0x3d2d727a	0.0423455
248	0x3cfc4349	0.030793803
249	0x3cf032ad	0.02932104
250	0x3cba47b0	0.022739261
251	0x3d098e43	0.033582937
252	0x3c93cba3	0.018041437
253	0x3d051515	0.03249081
254	0xbc86cbbf	-0.016454576
255	0xbcf223f3	-0.029558158
