model_artifacts/dl_tcn_weights_ret20_42800_44300.pt (torch, 378717 bytes, 20 tensors)

net.0.weight f4 [64, 30, 3]
0	0x3d23eb3f	0.04001927
1	0x3daa702a	0.08322175
2	0xbcfc3859	-0.030788587
3	0xbd9c352a	-0.07627328
4	0xbc62a950	-0.013834313
5	0x3c9ba1ea	0.018998105
6	0xbd809be6	-0.06279735
7	0xbb417adf	-0.00295227
8	0xbbad06d8	-0.005280357
9	0x3cc75fd7	0.024337692
10	0xbc686d88	-0.014186271
11	0x3cdd8e4a	0.027045388
12	0xbdbaae3f	-0.09115266
13	0xbc896181	-0.016770126
14	0x3cade7a8	0.021228626
15	0xbcd3fe29	-0.025878029
16	0x3c989dec	0.01862999
17	0x3dab2c4a	0.08358057
18	0xbc9a11c3	-0.018807298
19	0xbd28dbcb	-0.041225236
20	0x3c3743bd	0.011185584
21	0x3daf57d8	0.08561677
22	0x3d88500b	0.06655892
23	0x3ca42c00	0.020040512
24	0x3d28a1cb	0.041169923
25	0xbc66284f	-0.014047696
26	0xbc2b5796	-0.010457894
27	0xbd2c70b9	-0.04209969
28	0xbcfdae50	-0.030966908
29	0xbd720310	-0.059084952
30	0xbc5da18e	-0.013527287
31	0x3dbd9a73	0.092579745
32	0xbdc16e21	-0.094448335
33	0xbc1de72b	-0.009637634
34	0xbd0c226c	-0.034212515
35	0xbce8285c	-0.028339557
36	0xbd25461d	-0.04035007
37	0x3c672fee	0.014110548
38	0xbc893384	-0.016748197
39	0x3b5ffbda	0.0034177215
40	0xbce794f0	-0.028269261
41	0xbc3e6f84	-0.011623267
42	0xbd98cd8a	-0.074610785
43	0xbcce5e9f	-0.025191603
44	0xbd916b75	-0.07100574
45	0xbd370a1b	-0.04468737
46	0xbdbeafec	-0.09310898
47	0x3d0d460e	0.034490637
48	0xbb76798f	-0.0037609076
49	0x3d6edc21	0.0583154
50	0xbd3b04d5	-0.045658905
51	0xbd94b656	-0.0726134
52	0x3db7e953	0.0898005
53	0xbd4a0f9b	-0.04933129
54	0x3d80d99d	0.062915064
55	0xbdc37628	-0.09544021
56	0xbbc576aa	-0.0060261087
57	0xbe082b0e	-0.13297674
58	0x3d010cde	0.03150641
59	0x3b34c49a	0.0027583004
60	0xbd5f1cab	-0.0544707
61	0x3abe2b48	0.0014508748
62	0x3d1e496d	0.038644243
63	0x3d801839	0.0625462
64	0xbd57ba3b	-0.052667838
65	0xbd68d0a5	-0.056839604
66	0xbdc7f5d8	-0.09763688
67	0x3cf4dd98	0.02989082
68	0x3db5adbc	0.08871028
69	0xbcec44d9	-0.028841423
70	0x3cbaf350	0.022821099
71	0x3ae1fa0c	0.0017240657
72	0x3da670b4	0.08126965
73	0x3cfffaa8	0.031247452
74	0xbd019648	-0.03163746
75	0x3dae545b	0.08512183
76	0x3c709c7e	0.014685748
77	0x3d84400d	0.06457529
78	0xbdc35f46	-0.09539656
79	0x35d15bd6	1.5598441e-06
80	0x3d1202b5	0.035647113
81	0xbd12ce65	-0.035841364
82	0x3d44324f	0.04789954
83	0x3dbd35d9	0.09238786
84	0x3d4b0009	0.04956058
85	0x3c803274	0.015649058
86	0xbd7d55c9	-0.06184939
87	0x3dd5b6e9	0.10435278
88	0x3c9ae680	0.01890874
89	0x3d6eeb31	0.058329765
90	0xbd52ba2d	-0.051447082
91	0x3dce4e99	0.10073585
92	0xbd7711a8	-0.060319573
93	0xbdfad359	-0.122473426
94	0x3dc9cae0	0.098531485
95	0xbd4c7272	-0.04991383
96	0xbe0044a6	-0.12526187
97	0x3dbc9766	0.092085645
98	0xbd128ce5	-0.0357789
99	0xbdeca5b8	-0.11555046
100	0xbd882d16	-0.066492245
101	0x3d8c4c07	0.068504386
102	0x3d62eb25	0.055400033
103	0x3da0d69f	0.07853436
104	0xbd23b384	-0.03996612
105	0x3d5c854b	0.053838056
106	0xbc2f9b48	-0.010718174
107	0xbd9fd33b	-0.07803961
108	0xbc944dd7	-0.018103523
109	0x3b6d8614	0.0036243247
110	0xbb567b68	-0.0032727364
111	0x3dd2be78	0.10290235
112	0x3ce91a13	0.028454816
113	0xbd2e0254	-0.04248269
114	0x3d73e9c6	0.059549116
115	0x3d56608b	0.052338164
116	0xbda68aa9	-0.08131916
117	0xbd731f66	-0.059356116
118	0xbd9df9a1	-0.077136286
119	0x3dba8233	0.09106865
120	0xbd1ba941	-0.03800321
121	0x3d3352bf	0.043780085
122	0x3ca6ba2a	0.020352442
123	0xbcc385e8	-0.023867562
124	0xbd937f08	-0.07201964
125	0xbd2f15e5	-0.04274549
126	0xbc154540	-0.009110749
127	0xbc8bd160	-0.017067611
128	0xbc7d5848	-0.015462942
129	0xbbbcaa5a	-0.005757612
130	0xbdd5ed51	-0.10445655
131	0xbc07e574	-0.008294452
132	0xbd5965b1	-0.053075496
133	0x3cc05a64	0.023480602
134	0x3d81a498	0.06330222
135	0xbca4a69f	-0.020098982
136	0x3d048701	0.032355312
137	0xbaf4bad3	-0.0018671401
138	0xbc690588	-0.01422251
139	0x3d0c51e8	0.0342578
140	0x3d4d8437	0.050174918
141	0x3d02ac0e	0.031902365
142	0xbd02170c	-0.03176026
143	0xbd88f404	-0.06687167
144	0xbdb044ee	-0.08606897
145	0xbd77a16a	-0.06045667
146	0xbd06575e	-0.032798164
147	0xbcc0dd1f	-0.023542939
148	0x3dce3246	0.10068183
149	0x3d81f2f4	0.06345168
150	0xbdb32eaa	-0.08749135
151	0xbd779334	-0.06044312
152	0xbb05a2e0	-0.002039127
153	0x3d26beac	0.040709183
154	0xbda7cd98	-0.08193511
155	0x3dc5a149	0.09649903
156	0xbdd8e990	-0.105914235
157	0x3dd55ae5	0.104177274
158	0xbc46a146	-0.0121234115
159	0xbdcd8a43	-0.10036137
160	0x3d728b09	0.059214626
161	0xbcd73875	-0.026272038
162	0x3d10a578	0.035314053
163	0xbdb7d414	-0.089759976
164	0xbdc80921	-0.09767366
165	0x3da59094	0.08084217
166	0x3d3af60d	0.04564481
167	0x3d4f0b0f	0.050547656
168	0xbd9d44d1	-0.07679141
169	0xbd5bc4fd	-0.05365466
170	0x3d810461	0.06299663
171	0x3bca84f1	0.0061803986
172	0x3d6933ba	0.056934096
173	0x3d3c857c	0.046025738
174	0xbc1c7916	-0.0095503535
175	0x3ce20c9a	0.0275939
176	0xbd502114	-0.050812796
177	0xbd86fe21	-0.0659144
178	0xbd86026f	-0.06543433
179	0x3dba9c96	0.09111898
180	0x3bd4888f	0.0064860056
181	0x3cb67883	0.022274261
182	0x3dc4405a	0.095825866
183	0x3d54a692	0.051916666
184	0x3a1ea290	0.00060514454
185	0xbc971291	-0.01844147
186	0x392e113c	0.00016600353
187	0x3d8aee16	0.067836925
188	0x3d58b1c8	0.05290392
189	0x3c3e4fba	0.011615688
190	0x3dc125a8	0.094310105
191	0xbcf65554	-0.030069984
192	0x3b042459	0.0020163266
193	0x3b9e77b9	0.0048360494
194	0xbdc204e4	-0.09473589
195	0x3dd4e2e4	0.103948385
196	0x3dcba2ba	0.09943147
197	0x3c685535	0.014180471
198	0x3d841de2	0.06451012
199	0xbd66c49c	-0.056339845
200	0xbda78f77	-0.081816606
201	0x3dad88e4	0.084733754
202	0x3dca79b8	0.09886497
203	0x3d059eaa	0.032622017
204	0xbccbda5e	-0.024884399
205	0xbdc3e036	-0.09564249
206	0xbce05d2d	-0.02738818
207	0x3da607b6	0.081069395
208	0x3c8cfa3c	0.017209165
209	0xbdb65809	-0.0890351
210	0x3d123ac4	0.035700575
211	0xbd2d4c33	-0.042308997
212	0xbdc8c1af	-0.09802567
213	0xbaf2cb42	-0.001852371
214	0xbda9a6be	-0.08283757
215	0x3d3c24e2	0.04593361
216	0xbdd665c6	-0.104686305
217	0xbbc0438f	-0.0058674286
218	0xbdc67bca	-0.0969158
219	0xbdd0979c	-0.10185167
220	0x3b2bd78b	0.0026221003
221	0xbdb4036c	-0.08789715
222	0x3d8ae126	0.06781225
223	0x3da06a92	0.07832827
224	0x3d826f2d	0.06368861
225	0xbde05b15	-0.109548725
226	0x3d9a8f60	0.07546878
227	0xbd301534	-0.04298897
228	0xbd0453b0	-0.032306373
229	0x3bc38130	0.005966328
230	0xbdba83a0	-0.09107137
231	0xbd819ae9	-0.06328375
232	0x3dd2b564	0.10288504
233	0x3b0d0f44	0.0021523992
234	0x3db2d44f	0.08731901
235	0x3cddb7ea	0.027065236
236	0xbcf3cdc2	-0.029761199
237	0x3d7314c7	0.059345987
238	0xbcd530bb	-0.026024213
239	0x3d933cdb	0.07189342
240	0x3b5d8d3f	0.0033806113
241	0xbd5d6ac8	-0.054056913
242	0x3c5899d6	0.013220271
243	0x3d2906b7	0.04126617
244	0x3d7b7e76	0.0613999
245	0xbdab0970	-0.083514094
246	0x3c2d3f19	0.010574126
247	0xbda9a7a7	-0.0828393
248	0x3d310284	0.04321529
249	0x3e053cf1	0.13011529
250	0xbd6d2f35	-0.05790635
251	0x3dcce973	0.100054644
252	0xbc163e12	-0.009170072
253	0x3d9c2667	0.07624512
254	0x3d4e7e4c	0.050413415
255	0xbdfac566	-0.12244682

net.0.bias f4 [64]
0	0x3d4f3a7a	0.050592877
1	0x3df89e7d	0.12139604
2	0xbd39786a	-0.04528085
3	0x3d53f76d	0.051749635
4	0x3d8dda65	0.06926421
5	0xbd806995	-0.06270138
6	0x3dd8525b	0.10562583
7	0x3d8e03b4	0.069343
8	0x3d1e1472	0.038593717
9	0x3d311826	0.04323592
10	0xbd203ca9	-0.03912035
11	0xbd0dcd4c	-0.034619614
12	0x3d5a8dd4	0.053357914
13	0xbc07c721	-0.008287222
14	0xbd29f42e	-0.041492634
15	0xbc9f6a59	-0.01945989
16	0x3e22b785	0.1589032
17	0x3d344255	0.04400857
18	0xbce01300	-0.02735281
19	0x3d8a3895	0.067490734
20	0x3d6d4ca1	0.057934407
21	0xbd11bc40	-0.03557992
22	0x3de245c9	0.11048467
23	0x3cf8ea54	0.030385174
24	0x3ca96be9	0.020681338
25	0x3d8039c0	0.06261015
26	0xbbd16a81	-0.00639087
27	0x3c965f4b	0.018355986
28	0xbd30216a	-0.043000616
29	0x3cde26f3	0.027118182
30	0x3df2d9e6	0.11857967
31	0x3e02e343	0.12782006
32	0x3d97ee89	0.07418544
33	0x3d8b5651	0.06803573
34	0x3e20948f	0.1568167
35	0xbd997a4f	-0.07494032
36	0xbd4de34e	-0.050265603
37	0x3c15ad0e	0.009135498
38	0xbba85937	-0.0051375884
39	0xbd20c5db	-0.03925119
40	0x3e073b63	0.13206248
41	0x3d373ec2	0.044737585
42	0x3de0096e	0.109392986
43	0x3cc4a88a	0.024006147
44	0x3e0453b5	0.12922557
45	0xbc84998a	-0.016186494
46	0xbd51dfa5	-0.051238675
47	0x3ddc0b6f	0.10744368
48	0x3db86c75	0.090050615
49	0xbd2bdb6e	-0.04195731
50	0x3df2b487	0.11850839
51	0x3db0709a	0.08615227
52	0x3d9fa189	0.07794482
53	0x3dd5659a	0.104197696
54	0x3dcd73b5	0.10031835
55	0x3e07f3cf	0.132766
56	0xbd3df563	-0.046376597
57	0xbc7e30c0	-0.015514553
58	0x3c837d6a	0.016051013
59	0x3da1a29c	0.078923434
60	0xbd60c0cf	-0.054871377
61	0xbd421c55	-0.0473903
62	0x3d384d12	0.044995375
63	0x3d3cb973	0.046075296

net.3.weight f4 [64, 64, 3]
0	0xbb9a5fd9	-0.004711133
1	0xbcfbd1d7	-0.030739708
2	0xbd535147	-0.051591184
3	0xbcdeefb6	-0.027213912
4	0xbd860abe	-0.06545018
5	0xbd772c88	-0.060345203
6	0x3d094102	0.033509262
7	0x3d841cfe	0.06450842
8	0x3d85d36f	0.065344684
9	0x3d8fea31	0.0702709
10	0x3d5785cc	0.052617833
11	0x3d8759c0	0.06608915
12	0x3bbde1ae	0.0057947254
13	0xbd4456dc	-0.047934398
14	0x3d716df2	0.058942743
15	0xbadf3fd0	-0.0017032567
16	0xbd80eed7	-0.06295555
17	0xbceda619	-0.029009866
18	0xbc0e2c1d	-0.00867751
19	0xbd3f9cb6	-0.04678031
20	0xbcdb2fe4	-0.026756234
21	0xbd280402	-0.041019447
22	0x3c820c3b	0.015874973
23	0x3b778fc2	0.0037774895
24	0xbc7dc624	-0.015489135
25	0xbd048d37	-0.032361235
26	0xbcd4eba5	-0.02599127
27	0x3c4d5104	0.012531523
28	0x3d7ba93e	0.0614407
29	0x3c9cd4d9	0.019144462
30	0xbd39fa8b	-0.045404952
31	0xbc94322d	-0.018090332
32	0x3cf41ee8	0.029799893
33	0xbd3608b2	-0.044441886
34	0x3c451b1b	0.012030388
35	0xbc39a5f7	-0.011331073
36	0xbd19f60e	-0.03758817
37	0xbd6d5a37	-0.057947364
38	0x3cf7602d	0.030197227
39	0x3ccc4c63	0.024938768
40	0xbb286c4c	-0.0025699316
41	0x3c0b1f44	0.008491341
42	0xbc265727	-0.010152615
43	0x3d10b7f1	0.03533167
44	0x3d5730ab	0.052536648
45	0xbd03c415	-0.03216942
46	0xbb99d90b	-0.004695063
47	0x3bf38395	0.0074314573
48	0xbbe8baa6	-0.0071023284
49	0x3d0a7f38	0.03381273
50	0x3cdadcc8	0.026716605
51	0x3d88a672	0.06672372
52	0xbd70c1a9	-0.05877844
53	0xbd319a20	-0.043359876
54	0x3cf935db	0.030421188
55	0x3d8feefc	0.070280045
56	0x3d7fd906	0.06246283
57	0x3da079f3	0.0783576
58	0xbd1e80cc	-0.03869705
59	0xbd7c024b	-0.061525624
60	0x3d69cd6f	0.057080682
61	0xbc88adf4	-0.01668451
62	0xbd18cd31	-0.03730506
63	0xbcf0cb82	-0.029393915
64	0x3cd13811	0.02553943
65	0x3d55b032	0.052169986
66	0x3d031459	0.032001827
67	0x3d89cbcd	0.06728325
68	0x3d259b3c	0.040431246
69	0x3d102696	0.03519305
70	0x3c49032f	0.012268825
71	0x3d3a7e5a	0.045530654
72	0xbd34243c	-0.04397987
73	0x3bb6fe59	0.00558452
74	0xbd4ad113	-0.049515795
75	0xbc5fa0f8	-0.013649218
76	0xbb1c0539	-0.0023806824
77	0xbc8a6a20	-0.016896307
78	0xbb4f2270	-0.003160622
79	0xbd2d24a0	-0.042271256
80	0xbd4ff4d6	-0.050770603
81	0x3d015de1	0.03158367
82	0x3d8d6d04	0.06905559
83	0xbcabd778	-0.020976767
84	0xbd31609f	-0.043305036
85	0x3d832a3d	0.06404541
86	0xbcf93101	-0.030418875
87	0x3d229205	0.039690036
88	0xbaea5a06	-0.0017879612
89	0x3d8a57be	0.06755017
90	0x3db8408c	0.08996686
91	0xbd4ba4be	-0.049717657
92	0x3c7a10eb	0.015262823
93	0xbc4f3798	-0.012647532
94	0x3ca63bc6	0.020292174
95	0x3c06d0ab	0.008228461
96	0x3d37e1ba	0.044893004
97	0xbd826729	-0.063673325
98	0xbd4605f5	-0.048345525
99	0x3c002243	0.007820669
100	0xbd319f27	-0.04336467
101	0xbb29431b	-0.0025827351
102	0x3d5e8db1	0.054334346
103	0x3d90b2fa	0.07065387
104	0x3cee2626	0.029070925
105	0xbd208b82	-0.039195545
106	0x3d2fc6a9	0.042914066
107	0xbd2e46da	-0.042548038
108	0x3cedfea1	0.02905208
109	0xbc59ae10	-0.013286129
110	0xbd1f27f2	-0.038856454
111	0x3c749f4e	0.014930559
112	0xbce1f5ba	-0.027582992
113	0xbc43c81a	-0.011949563
114	0x3cfb5d28	0.030684069
115	0xbbf11fc1	-0.0073585217
116	0x3d8fb676	0.070172235
117	0x3d96ca1b	0.07362767
118	0xbd4cc218	-0.04998979
119	0xbb8ce2b3	-0.0042994856
120	0xbc1eb041	-0.009685577
121	0xbc6e73e2	-0.014553996
122	0x3d4c27df	0.04984271
123	0x3d8c3a7c	0.068470925
124	0xbd81db14	-0.06340614
125	0x3d10fe3e	0.035398714
126	0xbc817bd6	-0.01580612
127	0xbd071108	-0.032975227
128	0xbcb3381b	-0.02187734
129	0x3c0f57a2	0.008748921
130	0x3d67e3f7	0.05661389
131	0x3d78c587	0.06073525
132	0x3cbf4075	0.023346165
133	0x3b9faef9	0.0048731533
134	0x3d5992ec	0.05311863
135	0x3c902dde	0.017599996
136	0xbcd6868c	-0.026187204
137	0xbb960fc2	-0.004579515
138	0x3d266334	0.04062195
139	0x3d0b34f9	0.033986066
140	0xbd0545a1	-0.032537106
141	0x3d601d49	0.05471543
142	0x3c55381e	0.013013868
143	0xbd763fc1	-0.060119394
144	0x3d02ab02	0.031901367
145	0x3bb617e1	0.005557046
146	0xbd15fe1d	-0.036619294
147	0xbd207bdc	-0.03918062
148	0x3d869d0f	0.06572925
149	0xbd2877a6	-0.04112973
150	0xbc0d89c1	-0.0086388
151	0xbd3572ce	-0.04429894
152	0x3d49967b	0.049215775
153	0x3d93e4fd	0.072214104
154	0x3d90dc1a	0.07073231
155	0x3d005425	0.031330246
156	0xbd2a5bd2	-0.041591473
157	0x3ce3c4f0	0.027803868
158	0x3d8ff384	0.07028869
159	0xbbd4daf1	-0.0064958264
160	0xbcee540e	-0.029092815
161	0x3d8756cf	0.06608354
162	0x3d925e30	0.07146871
163	0xbc9344a2	-0.017977063
164	0x3d1d90ca	0.03846816
165	0xbc91c673	-0.017794823
166	0xbd17bb37	-0.037043776
167	0xbd311b3f	-0.043238875
168	0xbcbfe9dc	-0.023426943
169	0xbd5da97c	-0.05411671
170	0xbd66ab0f	-0.056315478
171	0x3d13d5f7	0.036092725
172	0x3d7b129b	0.06129704
173	0xbd792060	-0.06082189
174	0x3d3edef8	0.04659936
175	0x3d3921d1	0.045198265
176	0x3bbab45c	0.00569777
177	0x3d3b21ea	0.04568664
178	0x3d5a4b7e	0.05329465
179	0xbca6d5d3	-0.020365631
180	0x3d9586bf	0.073010914
181	0xbcec43ec	-0.028840981
182	0x3d1f8894	0.03894861
183	0xbd1eee00	-0.038801193
184	0xbcdb4869	-0.026767926
185	0x3d8f2678	0.06989759
186	0xbd3ef9fd	-0.046625126
187	0xbca59c41	-0.02021611
188	0xbd86e8e8	-0.06587392
189	0xbd56c24b	-0.052431386
190	0xbd2389a9	-0.039926205
191	0x3cd075a5	0.025446722
192	0xbcaf27db	-0.02138131
193	0xbb1222c2	-0.002229855
194	0x3c31f765	0.010862206
195	0x3cbf6fd2	0.02336875
196	0xbd910b3b	-0.0708222
197	0x3ce4648e	0.02787998
198	0xbb2eb990	-0.0026660897
199	0x3b3ce1db	0.0028821144
200	0xbce20988	-0.027592435
201	0x3cbaf08d	0.022819782
202	0xbbf3aa37	-0.0074360627
203	0x3ce99da3	0.02851755
204	0xbcd8133d	-0.026376361
205	0xbd47fe7b	-0.048826676
206	0xbcf1b4a1	-0.029505076
207	0x3c188d18	0.009310983
208	0xbcaf6182	-0.0214088
209	0x3d886940	0.066607
210	0x3d432e53	0.0476516
211	0x3d3af12d	0.04564016
212	0x3d5fa779	0.054603074
213	0xbcca0fbd	-0.024665708
214	0xbcdff7b8	-0.027339801
215	0xbcde2b47	-0.027120246
216	0x3d8161bc	0.063174695
217	0x3d2ae316	0.041720472
218	0xbd8e29aa	-0.069415405
219	0x3d77b7bc	0.060477957
220	0xbc8af9ca	-0.016964812
221	0x3d7a6931	0.061135475
222	0xbc6fdc15	-0.014639874
223	0xbd8a9a8d	-0.067677595
224	0xbd658b2e	-0.056040935
225	0x3da3a485	0.07990364
226	0xbd91d295	-0.071202435
227	0x3c603c3a	0.013686234
228	0xbd39bf30	-0.045348346
229	0x3ccce159	0.025009798
230	0x3d31a89c	0.04337369
231	0x3d7c7075	0.061630685
232	0xbb7dcad7	-0.0038725638
233	0x3d5f687b	0.054543
234	0x3ca30372	0.019899104
235	0xbb15cbe3	-0.0022857122
236	0x3d10aed6	0.035322987
237	0x3d42aed0	0.047529995
238	0x3d267782	0.040641315
239	0x3c924468	0.017854884
240	0xb9a21626	-0.0003091555
241	0x3c44fe5c	0.012023535
242	0x3d78d084	0.06074573
243	0xbbc4ab5d	-0.0060018734
244	0xbcdf440c	-0.027254127
245	0xbc736898	-0.01485648
246	0x3d192901	0.03739262
247	0x3d8da56c	0.06916317
248	0xbc1eaa15	-0.009684105
249	0x3dad1b22	0.08452441
250	0x3d57833d	0.052615393
251	0x3d820db1	0.06350268
252	0x3d000821	0.031257752
253	0xbd8604fc	-0.065439194
254	0xbd8e23c0	-0.069404125
255	0x3d8f09cf	0.06984293

net.3.bias f4 [64]
0	0x3d96fd2a	0.07372506
1	0x3c6c43aa	0.014420429
2	0x3cd66d9f	0.026175318
3	0x3dcb82a3	0.09937026
4	0x3da7e272	0.08197488
5	0x3d9da4b1	0.07697428
6	0xbc51da2a	-0.012808362
7	0x3c3409e5	0.010988687
8	0x3cabb4ad	0.020960176
9	0xbc180ceb	-0.009280424
10	0x3d22f8dd	0.039788116
11	0x3da1b752	0.07896294
12	0x3c31786e	0.010831935
13	0x3dc6426d	0.096806385
14	0x3dbb72a8	0.09152728
15	0x3d3a65c9	0.045507226
16	0x3d244228	0.040102154
17	0x3d804cca	0.06264646
18	0x3db13873	0.08653345
19	0x3d919424	0.07108334
20	0x3d831490	0.06400406
21	0x3d8d4c80	0.06899357
22	0x3e06995b	0.13144438
23	0x3de2984e	0.11064206
24	0x3da2cbc5	0.07949022
25	0x3db4ec8e	0.08834182
26	0x3d931631	0.07181967
27	0x3da059f4	0.07829657
28	0x3d584ce5	0.052807707
29	0x3dd6dfe6	0.10491924
30	0x3c50a7af	0.012735291
31	0x3d8e3549	0.06943757
32	0xbdbe7825	-0.093002595
33	0x3d045869	0.032310877
34	0xbd41a11b	-0.047272783
35	0x3dbf00d1	0.093263276
36	0x3d0c2dbc	0.034223303
37	0x3ddc5249	0.10757882
38	0x3d66e4bd	0.056370486
39	0x3dd88f7f	0.10574245
40	0x3d00ff2f	0.031493362
41	0xbc500d2b	-0.012698452
42	0x3ccc6f00	0.024955273
43	0x3d583bc5	0.052791376
44	0x3b9f7880	0.0048666596
45	0x3c7d25e5	0.015450929
46	0x3d2bb5dc	0.04192148
47	0x3de2da4d	0.11076794
48	0x3db90f9b	0.0903618
49	0xbc3263fb	-0.010888095
50	0xbbafc0a4	-0.0053635407
51	0x3c39d4db	0.011342253
52	0x3d9e3f1d	0.07726882
53	0x3d33c5ea	0.043889917
54	0x3dc1b5b7	0.094584875
55	0x3c9f2fff	0.019432066
56	0x3daba70c	0.08381471
57	0x3d656337	0.05600282
58	0x3dc129c2	0.09431793
59	0x3dba992d	0.09111247
60	0x3d87262b	0.06599077
61	0x3dc80b55	0.097677864
62	0x3d28fb48	0.041255265
63	0x3ddf083a	0.10890241

net.6.weight f4 [64, 64, 3]
0	0xbc210457	-0.009827695
1	0xbd7bdfef	-0.061492857
2	0xbd7e1c52	-0.062038727
3	0x3d0085b9	0.031377528
4	0x3d40d6ac	0.047079727
5	0xbc788b01	-0.01516986
6	0xbd3d425a	-0.046205856
7	0xbb2d21e0	-0.0026417896
8	0xbc4c5ad8	-0.012472831
9	0xbca65a1f	-0.020306645
10	0x3c3eda1a	0.011648679
11	0x3c849483	0.016184097
12	0x3d898408	0.06714636
13	0x3cb52ad3	0.022115147
14	0xbc88f695	-0.016719142
15	0xbc02733e	-0.007962046
16	0xbbda06d5	-0.0066536465
17	0x3d671c5f	0.05642354
18	0xbd16385b	-0.03667484
19	0x3d6f0aa0	0.058359742
20	0xbbc6e9de	-0.0060703596
21	0x3daa9c71	0.0833062
22	0xbca74fe0	-0.02042383
23	0xbd75e20e	-0.060030036
24	0x3c34aa67	0.011026955
25	0xbd2f525a	-0.042803146
26	0x3d1363b0	0.03598374
27	0xbc150a16	-0.009096643
28	0xbbb92888	-0.0056505837
29	0x3ca682e3	0.020326084
30	0x3d08d543	0.033406507
31	0x3d687ccb	0.056759637
32	0xbd8deb1e	-0.06929611
33	0xbc9b1574	-0.018931128
34	0xbd5513cc	-0.052020833
35	0x3d080930	0.033211887
36	0x3d08f83b	0.033439856
37	0xbc801fa4	-0.015640087
38	0x3d0e1315	0.034686167
39	0x3cb84b44	0.022496827
40	0xba7a569b	-0.00095496484
41	0x3d801a18	0.06254977
42	0x3cd2ba30	0.025723547
43	0x3d5cb1c4	0.053880468
44	0xbd835b98	-0.064139545
45	0xbc6e5ddb	-0.014548744
46	0x3c96b1df	0.018395362
47	0x3c0171ff	0.007900714
48	0xbcd61762	-0.026134197
49	0xbd400f7e	-0.046889775
50	0xbd8ff6e7	-0.07029515
51	0x3c3fd20f	0.011707797
52	0x3d47f29a	0.048815347
53	0xbcec843e	-0.028871652
54	0xbc8a6e91	-0.016898425
55	0xbd8bfe2b	-0.06835588
56	0xbd6dd416	-0.05806359
57	0xbd0757d6	-0.03304275
58	0xbd0da5b2	-0.034581847
59	0x3cef805c	0.029236011
60	0xbd20ea7e	-0.03928613
61	0x3c89feec	0.016845189
62	0xbd5a95a0	-0.05336535
63	0xbd241145	-0.040055532
64	0xbc4895ab	-0.012242715
65	0xbb877bfc	-0.004134653
66	0xbca6c355	-0.020356813
67	0xbb2df3c9	-0.0026543012
68	0x3bda3434	0.006659055
69	0x3daf3144	0.085543185
70	0xbd25d2fb	-0.04048441
71	0xbd143608	-0.03618434
72	0xbd05b60c	-0.032644317
73	0x3c13339c	0.008984473
74	0xbd7d9d1c	-0.06191741
75	0x3d91305c	0.07089302
76	0x3ccfaa01	0.025349619
77	0x3d5d60f7	0.05404755
78	0xbcbf6059	-0.023361372
79	0x3d15ed24	0.036603108
80	0x3d8c4829	0.06849701
81	0x3d88531e	0.06656478
82	0xbc9ddf5e	-0.019271549
83	0xbb955df3	-0.0045583188
84	0x3d4c1329	0.04982296
85	0xbd1d2cc3	-0.038372766
86	0xbd022f3f	-0.03178334
87	0xbd4cf40e	-0.050037436
88	0x3d12ed2a	0.03587071
89	0xbbbf6386	-0.0058407215
90	0xbd4e19d2	-0.050317593
91	0x3d82c34c	0.06384906
92	0xbd896ca0	-0.06710172
93	0x3ce1c1d9	0.027558254
94	0x3d1538ba	0.03643105
95	0xbd59e851	-0.05320007
96	0xbcd3af55	-0.02584044
97	0x3d2eeb32	0.04270477
98	0x3c715b3e	0.0147312265
99	0xbbd4d8a5	-0.0064955526
100	0xbd03e621	-0.03220189
101	0x3d29eb8e	0.041484408
102	0x3d6571a4	0.05601658
103	0xbc61eee8	-0.01378987
104	0x3d893025	0.06698636
105	0xbb8c80a3	-0.0042877956
106	0x3d143793	0.036185812
107	0xbc0889d8	-0.008333646
108	0x3d8e4b26	0.06947927
109	0x3d1ffe1c	0.039060697
110	0xbc7d9448	-0.015477248
111	0x3c8a36e3	0.016871875
112	0x3d76684a	0.06015805
113	0xbd6f8389	-0.05847505
114	0xbd708166	-0.058717154
115	0xbcf8bca1	-0.030363383
116	0xbcac1a6c	-0.021008693
117	0x3b8d746b	0.0043168566
118	0xbcb3277e	-0.021869417
119	0xbc98fb04	-0.018674381
120	0x3da79d3f	0.08184289
121	0xbc0f5128	-0.0087473765
122	0x3d70cc5c	0.058788642
123	0xbd4cb352	-0.0499757
124	0xbd50b7d9	-0.05095658
125	0xbc53d40a	-0.012928972
126	0x3c6bff8d	0.01440419
127	0xbb009fcf	-0.0019626503
128	0xbd5cf69d	-0.053946126
129	0x3d9bf82f	0.07615697
130	0x3d8a2a9a	0.06746407
131	0xbcd7cdf9	-0.026343333
132	0xbc51a8a7	-0.0127965575
133	0x3d081dfa	0.033231713
134	0xbc0f2df0	-0.00873898
135	0x3d859c6f	0.06523978
136	0xbcc0f3ef	-0.023553817
137	0xbc9cf541	-0.019159915
138	0x3da501fd	0.0805702
139	0xbc4b3fa0	-0.012405306
140	0x3d8372dc	0.06418392
141	0x3d21ae4d	0.039472867
142	0x3d8bf3e2	0.06833626
143	0x3d896187	0.06708055
144	0x3d036150	0.032075226
145	0xbc359b78	-0.01108443
146	0xbd031dbb	-0.032010775
147	0x3b8809c9	0.004151557
148	0x3c64aacf	0.01395674
149	0xbaf01d54	-0.0018319287
150	0x3d9fee71	0.07809151
151	0xbcf55cf6	-0.029951554
152	0x3cf15c76	0.029463034
153	0xbcc8947e	-0.02448487
154	0x3c5dd6d7	0.013539991
155	0x3cf5f19b	0.030022433
156	0x3d61df94	0.05514486
157	0x3c9f6300	0.019456387
158	0x3d89726b	0.067112766
159	0xbd006070	-0.03134197
160	0xbc7811bf	-0.01514095
161	0xbd0e5e39	-0.034757826
162	0x3ceb7c00	0.028745651
163	0x3d2ac447	0.04169109
164	0x3d624a08	0.055246383
165	0xbcf895c3	-0.03034485
166	0x3ca2c8cb	0.019871136
167	0x3d134b62	0.035960563
168	0x3d37e24e	0.044893555
169	0xb9aa71f3	-0.00032509826
170	0x3d7d223d	0.06180023
171	0xbabe6ab2	-0.0014527647
172	0xbb2ee487	-0.0026686506
173	0xbb772974	-0.0037713917
174	0x3d5ee53f	0.054417845
175	0x3d1df7fa	0.038566567
176	0xbd86fcf0	-0.06591213
177	0xbd2f4d2f	-0.042798217
178	0x3c7c1db0	0.015387937
179	0xbc004cf3	-0.007830846
180	0xbd119520	-0.035542607
181	0x3c3528d3	0.0110570965
182	0xbd834571	-0.06409729
183	0x3d7b5832	0.061363406
184	0xbd2e18ee	-0.042504244
185	0xbc304a6c	-0.010759931
186	0x3c835e95	0.016036311
187	0x3d827b14	0.063711315
188	0x3b64026e	0.0034791487
189	0x3aae19d6	0.0013282846
190	0xbd78f00f	-0.060775813
191	0xbcb83434	-0.02248583
192	0x3d3664e4	0.04452981
193	0x3cf21c85	0.029554615
194	0xbd436f71	-0.0477137
195	0xbd4380b8	-0.047730178
196	0x3c8f7758	0.017512962
197	0xbd879455	-0.06620089
198	0xbcf47d17	-0.029844804
199	0x3d362b62	0.044474967
200	0xbc87c9f2	-0.016575787
201	0x3d19b53f	0.037526365
202	0x3d91b0d0	0.071138024
203	0xbb899044	-0.004198106
204	0xbc1b0d6a	-0.009463647
205	0xbc2418b6	-0.010015657
206	0xbd826924	-0.0636771
207	0x3d09f280	0.03367853
208	0xbb573a2e	-0.0032841074
209	0x3d36b70f	0.044608172
210	0x3a27d5d9	0.000640241
211	0xbd1a6f7c	-0.037703976
212	0xba9fbd46	-0.0012187145
213	0xbd00dbf4	-0.031459764
214	0xbc1b3fd8	-0.009475671
215	0x3d692bc6	0.05692651
216	0x3cef3f85	0.029205093
217	0xbd2e6ff2	-0.042587228
218	0xbc7ff088	-0.015621312
219	0xbd3640e8	-0.044495493
220	0x3d290b10	0.041270316
221	0x3d69d4da	0.057087757
222	0x3d5105a1	0.05103076
223	0x3a1b60b6	0.0005927192
224	0xbd391528	-0.04518619
225	0x3d2a86af	0.04163235
226	0x3ca1564e	0.019694474
227	0xbcb86337	-0.022508247
228	0x3c96edb0	0.018423885
229	0x3d670233	0.05639858
230	0x3d2f24a0	0.042759538
231	0xbbc0342f	-0.005865596
232	0x3cd66911	0.026173146
233	0xbd39cea1	-0.045363072
234	0x3cc4f15e	0.024040874
235	0xbd12cec9	-0.035841737
236	0xbc9c5130	-0.019081682
237	0xbd33680c	-0.0438004
238	0x3cb2eaa5	0.021840403
239	0x3d7407f5	0.0595779
240	0x3d3ed23d	0.046587218
241	0xbd217bb5	-0.039424617
242	0xbd038010	-0.03210455
243	0x3d60ed10	0.05491358
244	0xbd414e12	-0.047193594
245	0xbca062a9	-0.019578295
246	0xbd069017	-0.03285226
247	0x3d439caf	0.047756847
248	0xbd31d35c	-0.04341446
249	0x3da92fcc	0.0826107
250	0xbbd1629a	-0.006389928
251	0x3d0103a8	0.031497627
252	0x3d66ce98	0.056349367
253	0xbd5c512d	-0.053788353
254	0xbce41243	-0.02784074
255	0x3d51cce9	0.05122081

net.6.bias f4 [64]
0	0x3cd55d32	0.026045416
1	0x3dcaac84	0.09896186
2	0xbd688d1d	-0.0567752
3	0x3dcf7e71	0.10131539
4	0x3df6fd74	0.12060061
5	0x3dcf9450	0.1013571
6	0x3e0e10a3	0.13873534
7	0x3e258c0a	0.16166702
8	0x3e065245	0.13117321
9	0x3d5f884c	0.054573342
10	0xbdcfd609	-0.10148246
11	0x3d1d988e	0.038475566
12	0x3d32243e	0.043491594
13	0x3cbb4a1e	0.02286249
14	0x3de7c9aa	0.11317761
15	0x3c94d421	0.018167557
16	0xbc9b90e7	-0.018989993
17	0x3e0846d9	0.13308276
18	0x3d9b62c1	0.07587195
19	0x3c0b6358	0.008507572
20	0x3d4b4aa3	0.049631726
21	0xbd4016f4	-0.04689689
22	0x3e07bb16	0.13254961
23	0x3da3da75	0.08000652
24	0x3d82a3f7	0.0637893
25	0xbcf2290b	-0.029560586
26	0xbd90b36f	-0.07065474
27	0x3e111cae	0.14171097
28	0x3bd62483	0.0065351143
29	0x3d706917	0.05869397
30	0xbb2cf396	-0.0026390306
31	0x3d8ae434	0.067818075
32	0x3d9f4a90	0.077778935
33	0x3e128bb4	0.14311105
34	0xbd87c6cd	-0.06629715
35	0xbd5cf398	-0.053943247
36	0x3ce75b91	0.028241904
37	0x3db7f1f1	0.089816935
38	0xbd5fa675	-0.054602105
39	0x3d914e90	0.07095063
40	0x3bbdbf8e	0.0057906574
41	0x3db6091f	0.088884585
42	0x3d9a40e1	0.07531906
43	0xbd8d6a8d	-0.069050886
44	0x3d4d1a71	0.050074045
45	0x3da18ef9	0.07888598
46	0x3e175585	0.14778717
47	0xbc72aab9	-0.014811211
48	0x3d064596	0.032781206
49	0x3a19ff9b	0.0005874575
50	0x3d9c2b82	0.07625486
51	0x3cd9951b	0.026560357
52	0x3c8b5327	0.017007424
53	0xbc9e5dd4	-0.01933185
54	0x3d9c84f2	0.07642545
55	0x3e0a25ef	0.13491033
56	0xbdbde5c3	-0.09272339
57	0xbd0759da	-0.033044674
58	0x3d03399b	0.03203736
59	0xbdc09235	-0.09402887
60	0x3b84f9a7	0.004058081
61	0x3d69116f	0.05690139
62	0x3d9604eb	0.07325157
63	0x3dc34409	0.09534461

net.9.weight f4 [64, 64, 3]
0	0x3d6b7f66	0.057494543
1	0xbc4cd50e	-0.012501968
2	0x3ce3b850	0.027797848
3	0xbd64f560	-0.05589807
4	0x3d463b9e	0.0483967
5	0xbd62d280	-0.05537653
6	0x3ba4dae6	0.0050309775
7	0x3d2a13dc	0.041522846
8	0xbd87dbea	-0.06633742
9	0x3cc4888a	0.023990888
10	0xbcf0f26b	-0.029412469
11	0xbbf1b020	-0.007375732
12	0xbba2f748	-0.004973326
13	0x3d1dfef6	0.038573228
14	0x3b95a704	0.004567029
15	0x3d18f2a5	0.03734078
16	0xbd234f28	-0.03987041
17	0x3c0c9204	0.008579735
18	0x3ba7a812	0.005116471
19	0xbd8c02bd	-0.0683646
20	0x3ca8de6b	0.02061387
21	0xbbe7fded	-0.007079831
22	0xbd89d5af	-0.0673021
23	0xbb19c2e3	-0.0023462109
24	0xbd5e23f7	-0.054233517
25	0xbd87a24b	-0.06622752
26	0xbd87eebb	-0.06637331
27	0xbc897ec2	-0.016784076
28	0x3d89ab55	0.06722132
29	0xbd7f63aa	-0.062350906
30	0x3d98b0bb	0.07455584
31	0x3c985a59	0.018597769
32	0x3d479be0	0.04873264
33	0x3bfefe3b	0.0077817715
34	0x3bf05b40	0.0073350966
35	0xbc3fac56	-0.011698803
36	0x3d286bb8	0.041118354
37	0xbc9c9b4c	-0.01911702
38	0x3d80d82a	0.0629123
39	0xbd332196	-0.043733202
40	0xbd55e3ce	-0.052219205
41	0xbced91ee	-0.029000249
42	0x3cbc4e8c	0.022986673
43	0xbc92c477	-0.017915947
44	0xbd7a46aa	-0.061102547
45	0x3d38e4f8	0.045140237
46	0x3c94c610	0.01816085
47	0x3d71cc9e	0.05903303
48	0x3bfd2402	0.0077252397
49	0x3ccf7178	0.02532266
50	0xbbc749b2	-0.006081783
51	0xbd844d87	-0.064601
52	0xbd084a86	-0.033274196
53	0xbcd055d6	-0.025431555
54	0x3c0707f1	0.0082416395
55	0x3d724ab3	0.05915327
56	0xbd90037b	-0.07031914
57	0xbc3ca52a	-0.011513988
58	0x3ce3a947	0.027790679
59	0xbcff22be	-0.031144496
60	0xbd528077	-0.051392045
61	0xbd3d4211	-0.046205584
62	0xbcc3c659	-0.02389829
63	0x3a2e75b1	0.00066551106
64	0x3d4a2b1e	0.049357526
65	0x3d33de18	0.043912977
66	0x3d94f2cb	0.072728716
67	0x3d1347de	0.03595721
68	0xbd787828	-0.060661465
69	0x3b28421d	0.0025674172
70	0xbd2ec4b7	-0.04266807
71	0x3c62c39b	0.013840581
72	0x3d034192	0.032044955
73	0x3d22ebcc	0.039775655
74	0x3cf4ec15	0.029897729
75	0xbd631a9e	-0.055445306
76	0x3c8621b0	0.016373485
77	0x3d739ae7	0.0594739
78	0x3d47875e	0.04871308
79	0xbd208d20	-0.039197087
80	0xbd08d2ea	-0.03340427
81	0x3cf152d6	0.029458445
82	0x3c883f4e	0.016631749
83	0xbd7e28ad	-0.06205051
84	0x3d8ea893	0.06965747
85	0xbd66d929	-0.056359444
86	0x3cf16304	0.02946616
87	0x3d8a684d	0.06758175
88	0x3d602d64	0.054730788
89	0xbd1c838d	-0.038211394
90	0x3c9842cd	0.01858654
91	0x3ccc980b	0.024974843
92	0xbc7e6cde	-0.015528886
93	0xbd8cec60	-0.068810225
94	0xbb84468c	-0.00403673
95	0xbb79c50a	-0.003811183
96	0xbd5c0dbb	-0.053724032
97	0xbd882434	-0.0664753
98	0x3b84481c	0.0040369164
99	0xbd198914	-0.037484244
100	0xbcbee857	-0.023304148
101	0xbd0a9b83	-0.033839714
102	0xbbb7da1b	-0.005610717
103	0xbd5f5bc9	-0.054530893
104	0xbd3bd03a	-0.045852877
105	0x3c55dc19	0.013052964
106	0xbd5c2bed	-0.05375283
107	0xbd45b359	-0.048266742
108	0x3c820097	0.015869422
109	0x3a9a0b8b	0.0011752708
110	0xbbdf4617	-0.0068137753
111	0x3c8d81d4	0.017273821
112	0xbd32aac7	-0.043619897
113	0xbcf1afbf	-0.029502748
114	0xbc4d7795	-0.012540718
115	0xbc9004ae	-0.017580356
116	0x3d717172	0.05894608
117	0x3d16ec34	0.036846355
118	0xbcb7705c	-0.022392444
119	0xbc8b0fa0	-0.016975224
120	0xbd2608c6	-0.04053571
121	0x3d8032df	0.06259703
122	0x3d66b5af	0.05632561
123	0x3d428c08	0.047496825
124	0x3c9aa225	0.018876145
125	0x3cf60781	0.030032875
126	0x3ca0b8d1	0.019619377
127	0xbd8d3c37	-0.06896251
128	0xbd90aaed	-0.070638515
129	0xbd25abf9	-0.04044721
130	0xbc70f0c5	-0.014705841
131	0x3d4538a4	0.04814972
132	0xbcdee420	-0.027208388
133	0xbcc252ee	-0.023721185
134	0xbd919248	-0.07107979
135	0x3cb56036	0.022140604
136	0x3cfea9d9	0.031086849
137	0x3d66d467	0.056354906
138	0xbc1ef230	-0.009701297
139	0x3cb2db82	0.021833185
140	0x3d6cd4de	0.057820193
141	0x3d804c6e	0.06264578
142	0x3d4e090a	0.05030159
143	0xb6cc2634	-6.084121e-06
144	0x3d857318	0.06516093
145	0x3c0d4a14	0.008623619
146	0xbc531657	-0.012883744
147	0xbd2e0e67	-0.042494204
148	0x3c1a59fc	0.009420868
149	0xbc0e76a8	-0.008695282
150	0xbb14a8ab	-0.0022683542
151	0xbd354601	-0.044256214
152	0xbd732b3d	-0.059367407
153	0xbd7f78ac	-0.06237094
154	0xbd642ca2	-0.055706628
155	0x3d857354	0.06516138
156	0x3c6851f5	0.014179696
157	0xbd35b982	-0.044366367
158	0x3c932b10	0.01796487
159	0xbd3d0e48	-0.046156198
160	0xbd914cea	-0.07094748
161	0x3cda907a	0.02668022
162	0x3ca5dbca	0.020246405
163	0xbd63cb56	-0.055613838
164	0xbd769029	-0.060196076
165	0xba8d48cb	-0.001077914
166	0x3d337bf5	0.043819387
167	0x3ca64c44	0.020300038
168	0x3c860936	0.016361814
169	0x3d58e51e	0.05295288
170	0xbd26c386	-0.04071381
171	0xbc774137	-0.015091232
172	0x3d626a35	0.05527707
173	0xbd49b30d	-0.04924302
174	0xbd4cf378	-0.050036877
175	0x3d18d679	0.037313912
176	0xbc3fb9fa	-0.011702055
177	0xbc02a704	-0.00797439
178	0xbd235d80	-0.03988409
179	0xbd5386bc	-0.051642165
180	0x3d33ba2d	0.043878723
181	0x3cb4959c	0.022043996
182	0x3b07bce1	0.0020711946
183	0xbd9e6694	-0.07734409
184	0xbbc3f70f	-0.0059803794
185	0xbce4a52c	-0.027910791
186	0xbccd566c	-0.025065623
187	0xbd6d1316	-0.05787953
188	0x3d8c7e01	0.06859971
189	0x3cb0e1c2	0.021592025
190	0xbd3ce566	-0.04611721
191	0xbce763f3	-0.028245902
192	0x3cc48e96	0.023993772
193	0x3d8924a2	0.0669644
194	0xbd6f0311	-0.058352534
195	0xbd07afae	-0.033126526
196	0xbc643d36	-0.013930609
197	0x3d8d5d10	0.06902516
198	0x3c40d82f	0.011770292
199	0x3d914c8b	0.070946775
200	0x3cbe3397	0.02321796
201	0x3d5c5005	0.05378725
202	0x3b60a4af	0.0034277847
203	0x3b927419	0.0044694063
204	0x3c41911a	0.01181438
205	0x3d039c33	0.032131385
206	0xbd2e6d60	-0.042584777
207	0xbd68adea	-0.056806482
208	0xbbe674fd	-0.007032989
209	0x3ca8536c	0.020547591
210	0xbca44d93	-0.020056522
211	0x3c965e44	0.018355496
212	0x3d6e2c7a	0.058147885
213	0xbc28eee5	-0.010310863
214	0x3d83d336	0.0643677
215	0x3d605b84	0.054774776
216	0x3d8f65dd	0.07001851
217	0x3c85ab30	0.01631698
218	0x3cde7907	0.02715732
219	0x3cf269f1	0.029591532
220	0xbd90e7cf	-0.07075464
221	0xbd39cf26	-0.045363568
222	0xbc562d7d	-0.013072369
223	0x3d803850	0.06260741
224	0xbd236669	-0.039892588
225	0xbd6da570	-0.0580191
226	0xb99cea1c	-0.00029929064
227	0x3a97e950	0.0011589918
228	0xbd3edb51	-0.046595875
229	0xbc5b6355	-0.013390382
230	0x3d7757bf	0.060386416
231	0x3c6fb1d2	0.014629798
232	0xbd8e024d	-0.069340326
233	0x3d2505f6	0.040288888
234	0xbd3d9306	-0.04628279
235	0x3d1ce365	0.038302798
236	0xbd5147cd	-0.051093865
237	0xbd3a0d73	-0.045422982
238	0xbc62d41f	-0.013844519
239	0xbd3b1f82	-0.045684345
240	0xbd348d4d	-0.044080067
241	0xbca1af16	-0.019736808
242	0xba6060bb	-0.0008559336
243	0x3d2021fe	0.039094917
244	0x3c93dbbd	0.018049115
245	0xbd7f2313	-0.06228931
246	0xbd1a9a48	-0.03774479
247	0x3cc17460	0.023615062
248	0xbc965f72	-0.018356059
249	0xbd71b9d2	-0.059015103
250	0xbd04c2e1	-0.032412414
251	0xbcff63e2	-0.031175558
252	0xbd32aba9	-0.04362074
253	0xbd0cb504	-0.034352317
254	0x3d81bd1b	0.06334897
255	0x3cb458f0	0.022015065

net.9.bias f4 [64]
0	0x3e17cbee	0.14823887
1	0xbcb7e461	-0.022447767
2	0x3eb5b148	0.35486817
3	0x3e00a57c	0.12563127
4	0x3de9e0d9	0.114198394
5	0x3dfb606b	0.1227425
6	0x3d6134fa	0.054982163
7	0x3e0f0492	0.13966587
8	0x3dc5de2e	0.09661518
9	0x3dad6f67	0.08468514
10	0xbc518693	-0.012788433
11	0x3da83eeb	0.08215126
12	0x3e00ec33	0.12590103
13	0xbd356ad7	-0.044291344
14	0x3e1f7bf9	0.15574636
15	0xbd92de2b	-0.071712814
16	0x3e18be51	0.1491635
17	0x3e21b03d	0.15789886
18	0x3dd0d49c	0.10196802
19	0x3e166e21	0.14690448
20	0xbd02a298	-0.031893343
21	0xbd1bb063	-0.038010012
22	0x3e0bb7eb	0.13644378
23	0xbd7558f1	-0.059899274
24	0xbcc43800	-0.023952484
25	0xbd7471de	-0.059678905
26	0x3e26c98c	0.16287822
27	0xbc223060	-0.009899229
28	0x3e24d1ff	0.16095732
29	0x3db41cbc	0.08794543
30	0x3e21cd89	0.15801062
31	0x3d972739	0.07380528
32	0x3e094d4a	0.1340839
33	0x3e0251a5	0.12726457
34	0x3e1cce5b	0.15313093
35	0x3def0aed	0.11672006
36	0x3e813b36	0.25240487
37	0x3d649f39	0.05581591
38	0x3daeca28	0.08534652
39	0x3d9121db	0.070865355
40	0x3e0fd64e	0.14046595
41	0x3e0d91d9	0.13825168
42	0x3ddc6ade	0.10762571
43	0xbc34bf18	-0.011031888
44	0xbd39d82d	-0.045372177
45	0xbd45f083	-0.048325073
46	0x3e177bdd	0.14793344
47	0x3e244bb6	0.16044506
48	0x3db50737	0.08839267
49	0x3e1500aa	0.14551035
50	0xbd859788	-0.06523043
51	0x3dca6a03	0.098835014
52	0x3d0b241c	0.033969983
53	0x3e045081	0.12921335
54	0x3e058792	0.13039997
55	0x3d9aaa88	0.075520575
56	0x3e192173	0.14954166
57	0x3e06b8bf	0.13156413
58	0x3e338773	0.17532139
59	0xbacd25e9	-0.0015651557
60	0x3da29f6a	0.07940562
61	0x3dce3db2	0.10070361
62	0x3d59f833	0.053215217
63	0x3de8e605	0.11371998

net.12.weight f4 [64, 64, 3]
0	0x3dd43718	0.10362071
1	0x3bb9b858	0.0056677274
2	0xbd51f0e1	-0.05125511
3	0x3b3381db	0.0027390632
4	0x3ca5543e	0.020181771
5	0x3d417fb8	0.047240943
6	0x3e59b89f	0.21261834
7	0x3c95f6db	0.018306186
8	0xbab70f45	-0.0013966343
9	0x3bdff1ed	0.0068342597
10	0x3d3131ae	0.04326027
11	0xbca96368	-0.020677283
12	0x3ce2a2d9	0.027665542
13	0x3bfd7d96	0.0077359183
14	0xbd85b357	-0.06528347
15	0x3d1c477d	0.038154114
16	0xbca34398	-0.019929692
17	0x3ce2e076	0.027694922
18	0x3d0488a3	0.03235687
19	0x3b96f7af	0.004607163
20	0x3cee23c2	0.029069785
21	0x3d1d84c1	0.038456682
22	0xbcf244a3	-0.029573744
23	0xbd5fb92b	-0.05461995
24	0x3d261c0a	0.040554084
25	0xbd841bae	-0.06450592
26	0xbd80bf4b	-0.06286486
27	0xbc28c35e	-0.010300485
28	0x3d09d696	0.03365191
29	0xbd220483	-0.039555084
30	0x3d257054	0.040390328
31	0x3d85ed36	0.06539385
32	0xbd41ef78	-0.047347516
33	0xbb566f71	-0.0032720233
34	0x3b834065	0.004005479
35	0x3d01f2e5	0.031725783
36	0x3d7ecb47	0.06220558
37	0xbd4e2823	-0.050331246
38	0xbd264526	-0.04059329
39	0x3cc5d707	0.024150385
40	0xbbe5f3e8	-0.0070176013
41	0xbb86efc4	-0.0041179378
42	0xbc4ab64d	-0.012372565
43	0xbd4a3cc2	-0.04937435
44	0x3cfda670	0.030963153
45	0x3ae6a6fb	0.0017597371
46	0x3d3e291a	0.046425916
47	0x3cc87c24	0.024473257
48	0x3db38ee4	0.087674886
49	0x3d5f56ba	0.05452607
50	0x3d905b30	0.07048643
51	0x3cff7980	0.031185865
52	0xbd8be5db	-0.06830951
53	0xbc1390a0	-0.009006649
54	0x3d72b9d6	0.05925926
55	0x3d2b6fbe	0.041854613
56	0x3d70bb50	0.058772385
57	0x3dc0faf8	0.094228685
58	0x3d06e35e	0.032931678
59	0xbd758b80	-0.05994749
60	0x3d16db4e	0.03683024
61	0xbd5b57ec	-0.053550646
62	0x3984b4b8	0.00025311648
63	0x3d829885	0.06376747
64	0xbbb973e8	-0.005659569
65	0x3d53c8bf	0.05170512
66	0xbcdb9088	-0.026802316
67	0x3d4dec18	0.050273985
68	0xbc073c6c	-0.008254152
69	0xbcd1bbdd	-0.025602276
70	0x3cea5f51	0.028609904
71	0x3ce80fed	0.028327907
72	0xbd57288b	-0.0525289
73	0xbcca0025	-0.024658272
74	0x39ee075f	0.0004540039
75	0xbd2e3981	-0.04253531
76	0xbcc92f09	-0.02455856
77	0xbd8cf42a	-0.06882508
78	0x3d37fcdb	0.044918876
79	0x3c787336	0.015164187
80	0x3d205231	0.039140884
81	0xbd3b98ae	-0.045799904
82	0x3d08cb06	0.033396743
83	0xbd8e37da	-0.069442466
84	0xbd0a8f7f	-0.033828255
85	0xbd3daad6	-0.0463055
86	0xbd8ccee3	-0.06875398
87	0x3d110c96	0.035412394
88	0xbd559ffa	-0.05215452
89	0xbce09289	-0.027413623
90	0x3b077f21	0.002067514
91	0x3d8ca647	0.068676524
92	0x3c84844f	0.01617637
93	0xbd095e3c	-0.033537135
94	0xbd8c6710	-0.06855595
95	0xbd78d3c9	-0.06074885
96	0x3d77ba0a	0.060480155
97	0x3d8ca421	0.068672426
98	0x3d3d9333	0.04628296
99	0x3dad788a	0.084702566
100	0x3bc8d41a	0.0061288
101	0xbd4f799c	-0.050653085
102	0x3cbd23a7	0.02308829
103	0xbbe0be85	-0.006858649
104	0xbd156737	-0.036475386
105	0x3d7b1b1c	0.06130515
106	0xbd01278d	-0.03153186
107	0x3d6f174f	0.05837184
108	0x3d72f1d2	0.05931265
109	0x3b237605	0.0024942171
110	0xbd7888ef	-0.060677465
111	0x3d0fbfc9	0.03509501
112	0x3d0918bc	0.033470854
113	0x3d647198	0.055772394
114	0x3d945814	0.07243362
115	0xbc657cc6	-0.014006799
116	0xbd8453ca	-0.06461294
117	0x3d87d2ac	0.06631979
118	0xbb9212dc	-0.0044578146
119	0xbce1a32b	-0.027543625
120	0x3dc6a256	0.09698932
121	0xbd809355	-0.06278101
122	0x3d581847	0.052757528
123	0x3d0d3ac2	0.034479864
124	0x3d06af8f	0.03288227
125	0xbbefe224	-0.0073206592
126	0xbd157ad4	-0.03649409
127	0xbd0d6274	-0.03451772
128	0x3ce5cb15	0.028050939
129	0xbd438d20	-0.04774201
130	0x3d8f9bb7	0.07012122
131	0xbcb73454	-0.02236382
132	0x3caab803	0.020839697
133	0xbd80e58f	-0.06293785
134	0xbc5c5fbd	-0.01345056
135	0xbc2772c9	-0.010220238
136	0x3d1bf61d	0.03807651
137	0x3b25e657	0.0025314295
138	0x3dab9c22	0.08379389
139	0x3b81ec2f	0.003964923
140	0xbbed8cc9	-0.007249449
141	0x3dd59d1e	0.10430358
142	0xbd198b0d	-0.037486125
143	0xbd2a4f23	-0.041579377
144	0xbcfee4e2	-0.031115
145	0xbd0f3617	-0.034963693
146	0x3d54fcd2	0.05199892
147	0x3da51bfd	0.08061979
148	0xbb821072	-0.0039692456
149	0x3d4c1719	0.049826715
150	0xbc09e4a9	-0.008416333
151	0xbc442435	-0.011971523
152	0xbd6a45ce	-0.057195477
153	0x3dab9673	0.08378305
154	0xbd18b41c	-0.03728114
155	0xbd8ca7d7	-0.068679504
156	0x3d9a0cb4	0.07521954
157	0x3d80c766	0.06288032
158	0xbbc1cbbc	-0.0059141796
159	0x3d32c377	0.04364344
160	0x3cbe3ed0	0.02322331
161	0x3ba59b67	0.005053926
162	0x3d521f86	0.051299594
163	0x3b5b531e	0.003346629
164	0x3d41a63c	0.047277674
165	0x3cd97a89	0.026547687
166	0xbd40d32d	-0.047076393
167	0xbcd0d67a	-0.025492895
168	0xbc2f9428	-0.010716476
169	0xbd3f31d1	-0.046678368
170	0xbcd53ddb	-0.026030472
171	0x3d9700e4	0.07373217
172	0x3d841010	0.06448376
173	0x3d87208c	0.06598005
174	0x3db588de	0.08863996
175	0x3c5e65ad	0.013574046
176	0xbd820b2e	-0.063497886
177	0x3cee553b	0.029093375
178	0x3d262e9b	0.04057179
179	0x3ca29576	0.01984666
180	0x3d971a58	0.073780715
181	0xbd72cc1c	-0.059276685
182	0x3d84916c	0.064730495
183	0xbd0e6d32	-0.034772106
184	0x3d034c18	0.03205499
185	0xbca350e8	-0.01993604
186	0x3da12e11	0.078701146
187	0xbc3e7d14	-0.011626501
188	0xbd3e12f4	-0.046404794
189	0x3d685d3c	0.05672954
190	0x3d1c524c	0.038164422
191	0xbcb3c4a6	-0.021944355
192	0xbcbf16af	-0.023326246
193	0xbd549d88	-0.051908046
194	0xbd1adf40	-0.037810564
195	0x3d385cf8	0.045010537
196	0xbcc81e33	-0.024428463
197	0x3d71a331	0.058993522
198	0xbd16d24b	-0.036821645
199	0x3d814a06	0.06312947
200	0x3d5d71dd	0.054063667
201	0x3d3843c6	0.04498651
202	0xbd47521f	-0.0486623
203	0x3d8d3540	0.06894922
204	0x3caf3391	0.021386893
205	0xbd79348b	-0.060841125
206	0x3d0162d1	0.03158838
207	0xbce8950b	-0.028391382
208	0x3d8cd61c	0.068767756
209	0x3c682018	0.014167808
210	0x3d3909c2	0.04517532
211	0x3d3d57b8	0.046226233
212	0xbc96b3e0	-0.018396318
213	0xbd145090	-0.036209643
214	0xbb9fd018	-0.0048771016
215	0xbc90ca38	-0.01767455
216	0xbd916970	-0.07100189
217	0xbd8a9391	-0.06766427
218	0x3c2bb5b8	0.010480337
219	0x3d250d00	0.0402956
220	0x3d180192	0.037110873
221	0x3d8ceb1e	0.068807825
222	0x3cebff15	0.028808156
223	0xbc1d2862	-0.009592148
224	0x3d6dd33d	0.05806278
225	0x3b69f62a	0.0035699704
226	0xbba8c410	-0.0051503256
227	0xbcaacba4	-0.020849057
228	0xbcf03745	-0.02932323
229	0xbc99614c	-0.018723153
230	0x3d446ea7	0.04795709
231	0x3d0f7ed5	0.035033066
232	0x3bd65759	0.0065411744
233	0x3d7719c5	0.06032731
234	0x3d3ed359	0.046588276
235	0x3d331e72	0.043730207
236	0xbd8be1e4	-0.068301946
237	0xbd3f46ac	-0.046698257
238	0xbc9aadcc	-0.018881701
239	0xbd3ada36	-0.04561826
240	0x3c91f613	0.017817533
241	0x3d0ae551	0.0339101
242	0xbd48ab55	-0.04899152
243	0xbd0c0f82	-0.034194477
244	0xbd688556	-0.056767784
245	0x3d8839c2	0.066516414
246	0x3d5b82a3	0.05359138
247	0x3d4f8b65	0.050670046
248	0x3bdaf269	0.0066817296
249	0xbdb93658	-0.090435684
250	0xbd579c93	-0.052639555
251	0xbd072f02	-0.033003815
252	0xbd241710	-0.040061057
253	0xbd889d4c	-0.06670627
254	0xbd33b0b6	-0.043869697
255	0x3d09e4d3	0.03366549

net.12.bias f4 [64]
0	0x3e19f38b	0.1503431
1	0xbcb3b192	-0.021935258
2	0x3e1b2222	0.1514974
3	0x3e0292fb	0.12751381
4	0x3ddc2c0c	0.10750589
5	0x3e4e9e1e	0.20177504
6	0xbda12f15	-0.07870308
7	0xbce8b089	-0.028404491
8	0x3ef9e2b6	0.4880578
9	0x3dca226e	0.09869848
10	0x3e39388e	0.1808798
11	0xbc9cf287	-0.019158615
12	0xbd05cc4e	-0.032665543
13	0x3e10ef63	0.14153819
14	0x3e29e524	0.16591316
15	0x3e36b76c	0.17843407
16	0xbd5c300b	-0.053756755
17	0x3de916a9	0.11381275
18	0x3df17bcd	0.11791191
19	0x3e007b01	0.12546922
20	0xbd5e29dd	-0.054239143
21	0x3e1ef190	0.15521836
22	0xbd0530c2	-0.032517202
23	0x3da705fb	0.081554376
24	0x3e0fdb08	0.14048398
25	0x3e10ba17	0.14133488
26	0x3d070b92	0.03297002
27	0x3e14c4be	0.14528176
28	0x3d2ab589	0.04167703
29	0x3e3b7010	0.18304467
30	0x3e4736b7	0.19454466
31	0xbd94d7ca	-0.07267721
32	0x3e3c548e	0.1839163
33	0x3e0a35bf	0.13497065
34	0xbced7737	-0.02898751
35	0x3e053c15	0.130112
36	0x3db64531	0.08899916
37	0x3e4b0090	0.19824433
38	0x3e3af55e	0.18257663
39	0x3e1a89f9	0.15091695
40	0x3dec444c	0.11536464
41	0x3dcbef11	0.09957708
42	0x3e1986d8	0.14992845
43	0x3da69e57	0.0813567
44	0x3e31f045	0.17376812
45	0x3e3623c0	0.17787075
46	0x3dd225e5	0.10261134
47	0xbcebc724	-0.028781481
48	0x3e217298	0.1576637
49	0x3c65d41a	0.01402762
50	0x3ef17c6a	0.47165233
51	0x3e38f0f3	0.18060665
52	0x3e02d879	0.1277789
53	0x3debb036	0.11508219
54	0x3dd163e4	0.10224131
55	0xbd9ec292	-0.07751955
56	0xbd36285f	-0.044472095
57	0x3e263889	0.16232504
58	0x3e44fe8c	0.19237727
59	0xbdad5a9f	-0.0846455
60	0x3e4db930	0.20090175
61	0xbc10d7ff	-0.00884056
62	0x3dca0499	0.09864158
63	0x3e29bb2e	0.1657531

net.15.weight f4 [64, 64, 3]
0	0xbd7786f7	-0.060431447
1	0xbd464293	-0.048403334
2	0xbc0d313c	-0.008617695
3	0xbcd77a38	-0.026303396
4	0x3d788628	0.060674816
5	0xbbc06d89	-0.0058724326
6	0xbb93d32e	-0.0045112586
7	0xbc83a026	-0.016067576
8	0xbd3f3b55	-0.046687443
9	0xbd7b39ea	-0.061334528
10	0xbb064def	-0.002049323
11	0xbd8a50da	-0.067537025
12	0xba0f704f	-0.00054717524
13	0x3d8245db	0.0636098
14	0x3a938cd9	0.0011257186
15	0xbcf5bcec	-0.029997312
16	0xbca9844f	-0.020692972
17	0xbcd29d2b	-0.02570971
18	0x3c04fd5a	0.008117044
19	0x3cf26452	0.029588852
20	0xbcf151c0	-0.029457927
21	0xbd8bd9d6	-0.06828658
22	0x3d8ca6ce	0.06867753
23	0x3c9c1e12	0.019057307
24	0x3ce27b44	0.027646668
25	0xbd769b44	-0.060206667
26	0xbd7f5ff6	-0.062347375
27	0xbd69cc8d	-0.05707984
28	0x3b47a343	0.0030462302
29	0xbd848e08	-0.06472403
30	0x3c81d42f	0.015848247
31	0x3c977920	0.018490374
32	0xbd26bc73	-0.040707063
33	0xbd632860	-0.055458426
34	0x3ca91545	0.020640025
35	0x3d302298	0.04300174
36	0xbcb1201b	-0.021621754
37	0xbd1ef13f	-0.03880429
38	0xbd73d6d6	-0.059531055
39	0xbbc60fdc	-0.006044371
40	0x3d6dcf9b	0.058059316
41	0x3d1be5c6	0.038060926
42	0x3cf7c2d2	0.030244265
43	0x3cdb0896	0.026737493
44	0xbce86be9	-0.028371768
45	0xbcd67894	-0.026180543
46	0x3d90c535	0.07068864
47	0xbd0e8729	-0.034796868
48	0x3d11ebab	0.03562514
49	0x3d432e8f	0.047651824
50	0x3c2ad646	0.010427063
51	0xbd3a3903	-0.045464527
52	0x3d3ee727	0.046607163
53	0x3bf35382	0.0074257264
54	0x3d06ea34	0.032938197
55	0xbd246955	-0.040139515
56	0x3a1479a8	0.000566388
57	0x3d2050ee	0.03913968
58	0xbd6a0d97	-0.057141867
59	0x3d5febb3	0.05466814
60	0xbd5b1bdd	-0.05349337
61	0x3cf62961	0.030049028
62	0xbc3412d8	-0.010990821
63	0xbd18ff07	-0.037352588
64	0x3d858d94	0.065211445
65	0x3d2bb226	0.041917942
66	0x3d2f48b9	0.042793963
67	0x3c8ba070	0.017044276
68	0x3c5cd6b3	0.013478923
69	0x3d56bd48	0.052426606
70	0xbd8b1cf4	-0.06792632
71	0x3d363879	0.04448745
72	0xbd73d860	-0.059532523
73	0x3d7d25ab	0.0618035
74	0xbcaba001	-0.02095032
75	0x3d70723e	0.0587027
76	0xbb2b83d4	-0.0026171105
77	0xbd23495b	-0.03986488
78	0xbbfe1830	-0.007754348
79	0xbd0b6920	-0.034035802
80	0xbd47e5a3	-0.048802983
81	0xbca43d0c	-0.02004864
82	0x3c8d2ddc	0.017233782
83	0x3bf606eb	0.007508149
84	0x3d179da6	0.03701558
85	0x3d7379f0	0.05944246
86	0xbbb5688a	-0.0055361437
87	0x3c20b9c6	0.009809917
88	0x3c2617ab	0.010137479
89	0x3c03be8d	0.008041036
90	0xbc80409f	-0.015655814
91	0x3d3551c5	0.044267435
92	0x3d28fddd	0.041257728
93	0x3b9c3e3c	0.004768161
94	0x3d3b5a9d	0.045740712
95	0x3d03f27a	0.032213666
96	0xbc0f5a05	-0.00874949
97	0xbd415f2f	-0.047209915
98	0xbd8669ca	-0.065631464
99	0xbd456eba	-0.0482013
100	0x3d7a038c	0.06103854
101	0xbd4fc2a9	-0.05072275
102	0x3d267510	0.040638983
103	0x3d81350a	0.063089445
104	0x3ccc51b9	0.024941312
105	0xbd87cbd1	-0.06630672
106	0xbccf3ab3	-0.025296545
107	0xbd1e64d0	-0.03867036
108	0xbd6a6e08	-0.05723384
109	0x3d547634	0.05187054
110	0x3cf366cf	0.029712109
111	0xbca41936	-0.020031553
112	0x3ca5665c	0.02019041
113	0xbd1d9251	-0.038469616
114	0x3d1cec80	0.03831148
115	0xbbbddf14	-0.0057944153
116	0x3d1593a0	0.03651774
117	0xbd233485	-0.03984501
118	0xbaaf0af1	-0.0013354701
119	0xbd6f18e2	-0.05837334
120	0xbd43d536	-0.047810756
121	0x3d42c6ca	0.04755286
122	0x3d885f83	0.066588424
123	0x3b888824	0.00416662
124	0xbc9d005d	-0.019165212
125	0x3d0ee82a	0.034889378
126	0xbd8ec800	-0.06971741
127	0x3ce964ee	0.02849051
128	0xb98407ec	-0.00025182904
129	0xbd9140a3	-0.070924066
130	0x3cbd9c5a	0.023145843
131	0xbd81ebe0	-0.06343818
132	0x3d21543a	0.039386965
133	0xbba921a8	-0.005161483
134	0x3be72cfb	0.0070549226
135	0xbd3846c4	-0.044989362
136	0xbcd188c2	-0.025577907
137	0xbd59d55c	-0.05318199
138	0xbd69aa04	-0.057046905
139	0x3d8f87f8	0.07008356
140	0x3d17528c	0.036943957
141	0xbaf210d4	-0.001846815
142	0x3d824bfc	0.06362149
143	0x3d1d3645	0.038381834
144	0x3d0f8a7d	0.035044182
145	0xbc20f1f8	-0.009823315
146	0xbc2678ab	-0.010160605
147	0x3d1a3836	0.037651263
148	0xbd6d2e94	-0.05790575
149	0x3c2d6ed3	0.010585505
150	0xbcd48446	-0.02594198
151	0xbb6eab03	-0.003641785
152	0xbd52d86f	-0.05147594
153	0x3d56a6ba	0.052405097
154	0x3d2ef3e4	0.04271306
155	0x3b8f8f8e	0.0043811267
156	0x3c3c2792	0.011484044
157	0xbd2ab7ab	-0.041679066
158	0xbd51a483	-0.05118228
159	0x3d734c26	0.059398793
160	0x3d91d166	0.07120018
161	0xbd8971bd	-0.06711147
162	0x3c96fa6b	0.018429955
163	0xbd61936e	-0.05507224
164	0xbd230114	-0.03979595
165	0xbd8218c6	-0.063523814
166	0xbd805265	-0.062657155
167	0x3c82bb48	0.015958443
168	0x3d1be79d	0.03806268
169	0xbd3e7aa1	-0.046503667
170	0x3d7bdb3e	0.061488383
171	0x3d246dd2	0.040143795
172	0x3d65ed3f	0.05613446
173	0x3c9c266d	0.019061292
174	0x3d2e9833	0.042625617
175	0x3c89108f	0.016731529
176	0xbd2e2663	-0.042517077
177	0xbcbfe6ca	-0.023425478
178	0x3afde036	0.0019369188
179	0xbd28c436	-0.041202746
180	0xbd584719	-0.05280218
181	0x3d561bae	0.05227249
182	0x3d51f29a	0.051256754
183	0x3bbb6fc1	0.005720109
184	0xbd74611a	-0.059662916
185	0xbd136cdf	-0.0359925
186	0xbc50144d	-0.012700153
187	0xbc9d0e76	-0.019171935
188	0x3d31756a	0.043324865
189	0xbd427259	-0.04747233
190	0x3ca595a1	0.02021295
191	0x3d665162	0.056229956
192	0xbc62521b	-0.013813521
193	0xbd3e3d35	-0.04644509
194	0x3d74dd80	0.05978155
195	0x3d7156b6	0.058920585
196	0x3d31c993	0.043405127
197	0x3d8a9f8f	0.06768715
198	0xbd657874	-0.056023076
199	0xbc9d188f	-0.01917675
200	0x3d352c2a	0.04423157
201	0xbd3bfeba	-0.045897223
202	0xbd920bab	-0.07131132
203	0xbb9a9963	-0.004717992
204	0xbd61a846	-0.05509212
205	0xbc06f9c4	-0.00823826
206	0x3d4ed365	0.05049457
207	0x3d163a57	0.03667673
208	0x3d882467	0.06647568
209	0xbcc4da1c	-0.024029784
210	0xbca75e1b	-0.020430615
211	0x3c6adf01	0.014335395
212	0xbb3592bf	-0.0027705876
213	0xbd6fde8b	-0.058561843
214	0xbb42f6c4	-0.0029749135
215	0x3bc19bdd	0.005908473
216	0xbdd86430	-0.10565984
217	0xbd164121	-0.036683206
218	0xbd3ce005	-0.04611208
219	0xbd6f72d4	-0.058459118
220	0xbb128f21	-0.0022363144
221	0xbc44b2ae	-0.012005491
222	0xbd04c18a	-0.032411136
223	0x3cc52baa	0.024068672
224	0x3cea87d2	0.028629217
225	0x3c608b27	0.0137050515
226	0x3bb2b5c5	0.0054537975
227	0x3d414433	0.04718418
228	0xbbf67aa9	-0.0075219464
229	0xbc999b3b	-0.018750777
230	0xbcb0af04	-0.021567829
231	0xbce9de42	-0.028548364
232	0xbb6e7c8f	-0.003639016
233	0x3d690470	0.056888998
234	0x3d850b5d	0.06496308
235	0x3c9b60e1	0.018967094
236	0x3bd0565f	0.0063579525
237	0x3bc53e31	0.0060193767
238	0xbc8c79b5	-0.017147878
239	0xbcc3113c	-0.023811929
240	0xbd106803	-0.035255443
241	0xbd0a80f3	-0.03381438
242	0x3d5621d1	0.052278344
243	0xbd300045	-0.042969007
244	0xbb1b113d	-0.0023661398
245	0x3c849838	0.016185865
246	0x3d35604c	0.04428129
247	0xbd736fe7	-0.05943289
248	0xbd8c4857	-0.06849735
249	0x3b894372	0.0041889483
250	0xbd086d39	-0.033307288
251	0xbd3ea594	-0.046544626
252	0xbccc8364	-0.024964996
253	0xbb839dbf	-0.0040166075
254	0x3c8fab3a	0.017537702
255	0x3d43366c	0.047659323
