model_artifacts/dl_tcn_h12_ret20_36000_37500.pt (torch, 378605 bytes, 20 tensors)

net.0.weight f4 [64, 30, 3]
0	0xbd22bbe3	-0.039729964
1	0x3d2feb93	0.04294927
2	0xbd552cda	-0.052044727
3	0xbd2274b6	-0.039662085
4	0x3d32fc94	0.04369791
5	0x3d8c1125	0.068392076
6	0x3ce86f71	0.028373452
7	0x3d0d05fc	0.034429535
8	0xbd6ff032	-0.058578677
9	0xbd8ad856	-0.06779544
10	0xbd9d23a6	-0.07672815
11	0x3c12c6ea	0.008958558
12	0xbd8d325a	-0.068943694
13	0xbd490daa	-0.049085297
14	0x3cd42322	0.025895659
15	0xbd564719	-0.052313898
16	0xbd25ae44	-0.040449396
17	0xbc8ddd46	-0.017317425
18	0x3b0a9083	0.0021143265
19	0x3d0c1f4e	0.034209542
20	0x3c3b2866	0.011423206
21	0xbc9297a0	-0.017894566
22	0x3c31d53a	0.01085406
23	0xbdbb2436	-0.09137766
24	0xbcb444b6	-0.02200542
25	0xbda9687b	-0.08271881
26	0xbda08534	-0.078379065
27	0x3c8477d0	0.016170412
28	0x3d9a97dc	0.07548496
29	0x3c8473a6	0.016168427
30	0x3dc66152	0.09686531
31	0xbdcab2a0	-0.09897351
32	0x3dd362b9	0.10321564
33	0x3db7ca42	0.089741245
34	0xbd3f7d7b	-0.046750527
35	0xbd51a63d	-0.051183928
36	0xbdc261c0	-0.094913006
37	0x3c76b46c	0.015057664
38	0xbda95d30	-0.08269727
39	0xbd616d8f	-0.055036124
40	0x3d7a8954	0.061166123
41	0x3db37a5f	0.08763575
42	0xbde0cbc2	-0.10976364
43	0x3c1dca28	0.009630717
44	0xbadf5166	-0.0017037808
45	0x3d7685ab	0.06018607
46	0xbdc7ed1c	-0.09762022
47	0x3c15141c	0.009099033
48	0xbda9953a	-0.08280416
49	0xbd84861c	-0.06470892
50	0x3dc67fd7	0.09692352
51	0xbd1e3886	-0.038628124
52	0x3b177396	0.0023109666
53	0xbd9ab216	-0.075534984
54	0x3bfa7468	0.0076432712
55	0xbd5f26e7	-0.05448046
56	0x3dac5d05	0.084161796
57	0x3d8b89e3	0.06813409
58	0xbb0a3556	-0.002108892
59	0xbd24412e	-0.040101223
60	0x3da3ebb8	0.08003944
61	0x3dad6a51	0.08467544
62	0x3d626b0c	0.05527787
63	0x3ccc3892	0.024929319
64	0xbdd31b92	-0.10307993
65	0xbccae9ee	-0.02476975
66	0x3d2d045d	0.04224049
67	0xbd905fe4	-0.0704954
68	0x3d92f4c3	0.07175591
69	0x3ddc1127	0.10745459
70	0xbd9b7a88	-0.0759173
71	0x3d670e1e	0.056409948
72	0x3cf866bf	0.03032243
73	0x3d126342	0.03573919
74	0xbd12b23e	-0.035814516
75	0x3d3adc80	0.04562044
76	0xbd6ab24f	-0.057298955
77	0x3dbc4a89	0.09193904
78	0xbdca2391	-0.09870065
79	0x3d2fcc39	0.04291937
80	0x3bd529a8	0.00650521
81	0x3de1642e	0.11005436
82	0xbd503496	-0.0508314
83	0x3b1c05f9	0.002380727
84	0xbe0cbb64	-0.13743359
85	0x3da94ca9	0.08266575
86	0x3bbbb1d6	0.005727987
87	0xbdb427be	-0.08796643
88	0xbd52c36e	-0.051455908
89	0xbd76163f	-0.06007981
90	0xbdb21c2f	-0.08696782
91	0x3db70e7f	0.08938312
92	0x3dd03a01	0.10167313
93	0xbdb3fb93	-0.08788218
94	0xbdcf4d9f	-0.10122227
95	0xbd9e92c5	-0.07742838
96	0xbd069d77	-0.032865014
97	0xbd444da6	-0.047925614
98	0x3d874307	0.06604581
99	0xbc8bc431	-0.017061325
100	0xbd8da28c	-0.06915769
101	0xbce25876	-0.027630072
102	0xbd879177	-0.06619542
103	0x3d863f45	0.065550365
104	0x3db6c697	0.08924597
105	0xbcda2800	-0.026630402
106	0xbdd3808d	-0.103272535
107	0xbcaa793c	-0.020809762
108	0xbde3e70e	-0.111280546
109	0x3d27d5c6	0.040975355
110	0x3d17e6ca	0.037085332
111	0xbd05085a	-0.032478668
112	0x3d219436	0.039447986
113	0xbca65f7a	-0.020309199
114	0xbdcdbdb0	-0.10045946
115	0x3ce11114	0.027473964
116	0xbd2be376	-0.04196497
117	0xbd36f6e6	-0.044669054
118	0x3bc38b79	0.005967554
119	0x3b101d5e	0.002199016
120	0x3d706033	0.058685493
121	0x3c518d9c	0.01279011
122	0x3d12cfec	0.03584282
123	0xbd737657	-0.05943903
124	0x3dbe42ed	0.09290109
125	0xbd9a9445	-0.075478114
126	0xb9ff98cd	-0.00048751236
127	0x3d103a80	0.03521204
128	0xbdb8d2c9	-0.09024579
129	0xbd562584	-0.05228187
130	0xbd699938	-0.057030886
131	0xbd3df4d6	-0.046376072
132	0x3d3362b8	0.043795317
133	0xbc2c1e92	-0.010505335
134	0xbcada0b8	-0.0211948
135	0xbbb970ca	-0.0056591975
136	0x3da3cd73	0.07998171
137	0x3cba8adc	0.022771291
138	0xbdc12eb3	-0.09432735
139	0xbd0e716d	-0.03477614
140	0xbc9a45e2	-0.01883215
141	0xbdd6a1fe	-0.10480116
142	0x3d9523d5	0.07282225
143	0xbd70b194	-0.0587631
144	0x3d81cba5	0.0633767
145	0xbdaa812e	-0.0832542
146	0xbd0f1f16	-0.034941755
147	0xbc0c7407	-0.008572585
148	0x3ca94572	0.020662997
149	0xbd1fc8b4	-0.039009765
150	0xbde15895	-0.11003224
151	0xbdc8a408	-0.097969115
152	0x3dc17bf7	0.094474725
153	0x3d982005	0.07427982
154	0x3d58cc4b	0.052929204
155	0xbd9852d8	-0.07437676
156	0xbd63a148	-0.05557373
157	0xbdcf5ff8	-0.101257265
158	0xbcf8ff86	-0.03039528
159	0xbdf9d172	-0.12198152
160	0x3dbf0321	0.09326769
161	0xbc57f77c	-0.0131815635
162	0xbdce6ba6	-0.10079126
163	0x3c186428	0.009301223
164	0xbdaef033	-0.08541908
165	0xbd164bc9	-0.036693368
166	0xbd79d77b	-0.060996514
167	0xbd7ae34b	-0.06125192
168	0xbda9dfa8	-0.08294612
169	0x3d66584c	0.05623655
170	0x3db61091	0.088898785
171	0x3d975cb7	0.07390731
172	0xbd5e8965	-0.05433025
173	0xbce5f75e	-0.028072055
174	0xbd506b09	-0.050883327
175	0x3d14b0e6	0.036301516
176	0x3d7fb6d6	0.062430225
177	0x3d7fd5af	0.062459644
178	0xbd2c1980	-0.042016506
179	0xbd48b744	-0.0490029
180	0xbd339e8c	-0.043852374
181	0xbd11de26	-0.035612248
182	0x3ce72dec	0.02822014
183	0xbe145db0	-0.14488864
184	0xbcac6a2a	-0.021046717
185	0xbc9474bd	-0.018122071
186	0xbdd28660	-0.10279536
187	0xbce08895	-0.027408877
188	0xbdc6cc65	-0.09706954
189	0xbd33156d	-0.043721605
190	0xbdb18654	-0.08668199
191	0x3d47b6c0	0.04875827
192	0xbc8ca5be	-0.017168876
193	0xbc883741	-0.01662791
194	0x3dcda529	0.100412674
195	0x3b5d6cb3	0.0033786714
196	0xbda8d017	-0.08242815
197	0xbd47346b	-0.048633974
198	0x3c91a7f8	0.017780289
199	0x3db6e4cd	0.08930359
200	0xbc4e1296	-0.012577673
201	0xbd9edd14	-0.07757011
202	0xbd1ce3ce	-0.03830319
203	0xbd8ad096	-0.06778066
204	0xbceaae34	-0.02864752
205	0x3dcd8527	0.100351624
206	0x3ce64612	0.028109584
207	0x3b44c984	0.003002734
208	0xbd988b8d	-0.07448492
209	0x3d3ac984	0.045602337
210	0x3d9dc8f0	0.077043414
211	0x3dd14db8	0.10219902
212	0xbd463d1b	-0.04839812
213	0x3d4a92c3	0.04945637
214	0xbd1122c8	-0.03543356
215	0xbc44dd5a	-0.012015665
216	0xbdb0309a	-0.0860302
217	0xbcff7964	-0.031185813
218	0x3db8d25a	0.090244964
219	0xbd85af59	-0.065275855
220	0x3daf6cdd	0.08565686
221	0x3da6accc	0.08138427
222	0xbdab49b7	-0.08363669
223	0xbdb9ff44	-0.09081891
224	0xbd9bc796	-0.07606427
225	0x3d3cc6fa	0.046088196
226	0xbdae008e	-0.084961995
227	0x3d96c5fb	0.073619805
228	0xbb6324e2	-0.0034659435
229	0xbdd6a3ce	-0.10480462
230	0xbdb2b075	-0.08725063
231	0xbd51ea02	-0.051248558
232	0xbd95ebb5	-0.07320348
233	0x3d08d496	0.033405863
234	0x3cd66ca4	0.02617485
235	0xbc5afaf8	-0.0133655
236	0x3dcf068d	0.10108671
237	0xbd08fea2	-0.03344596
238	0xbd81dfa4	-0.06341484
239	0x3db584b5	0.088632025
240	0xbe0f3fed	-0.1398923
241	0x3d818eb7	0.06326049
242	0x3cb42308	0.02198936
243	0x3d43a53b	0.047764998
244	0xbd46c3ff	-0.04852676
245	0xbd8d9ee2	-0.0691507
246	0xbe221d85	-0.15831573
247	0x3d90e685	0.07075218
248	0xbd37952a	-0.04481999
249	0xbcb71270	-0.022347659
250	0x37e032e6	2.6726582e-05
251	0x3dc3e8cf	0.09565889
252	0xbd891938	-0.06694263
253	0xbd326b8d	-0.0435596
254	0xbca2f812	-0.01989368
255	0x3d8d1b1e	0.06889938

net.0.bias f4 [64]
0	0xbc2d1d79	-0.010566109
1	0x3da6a020	0.0813601
2	0x3e24d86f	0.16098188
3	0x3e000d8b	0.12505166
4	0x3ca63457	0.02028863
5	0x3bdabc8a	0.0066753076
6	0xbceb9a81	-0.028760197
7	0x3bd4c43b	0.006493119
8	0xbb51ea1b	-0.0032030407
9	0x38f50472	0.000116833384
10	0x3d3cb68a	0.04607252
11	0x3e019ef6	0.12658295
12	0x3d99c076	0.07507412
13	0x3cb2c4ac	0.021822296
14	0x3cc9c399	0.024629401
15	0x3df213c8	0.11820179
16	0xbc83c629	-0.016085701
17	0xbd81a36d	-0.06329999
18	0x3dcc06d8	0.09962243
19	0x3dd25035	0.102692045
20	0x3e19fc22	0.15037587
21	0x3d995acc	0.07488021
22	0x3cc4524d	0.023965025
23	0xbd486acb	-0.04892997
24	0x3dcc9c29	0.09990723
25	0x3d94d76c	0.07267651
26	0xbca1a407	-0.019731535
27	0x3dac6de0	0.084193945
28	0x3db5cead	0.08877311
29	0x3dd93593	0.106059216
30	0x3caef775	0.021358231
31	0x3ddef96f	0.108874194
32	0x3ddc2768	0.10749704
33	0x3c1da756	0.0096224155
34	0xba7cdbbf	-0.0009645782
35	0xbc8ed6bf	-0.017436383
36	0xbcad128d	-0.02112701
37	0x3e049b2c	0.12949818
38	0x3dbf8cfa	0.09353061
39	0x3de6551d	0.11246703
40	0xbd0939fc	-0.033502564
41	0xbd01638d	-0.03158908
42	0x3dc51fc9	0.09625203
43	0x3d9daf95	0.07699505
44	0xbd26b29d	-0.040697683
45	0x3df18f5f	0.11794924
46	0xbbdb5e5b	-0.0066945977
47	0x3e1b927a	0.15192595
48	0x3d31b375	0.043384034
49	0x3d59a3b3	0.05313463
50	0x3d34d149	0.044144902
51	0x3db7a966	0.08967857
52	0x3c733977	0.014845244
53	0x3d7fe575	0.062474687
54	0x3d0ac987	0.033883598
55	0xbc6ea3be	-0.014565406
56	0x3deae6f9	0.11469836
57	0x3e030f0e	0.12798712
58	0x3dd496e9	0.10380346
59	0x3d7aeb64	0.061259642
60	0xbc85d618	-0.01633744
61	0xbd286b75	-0.041118104
62	0xbd0a8743	-0.033820402
63	0x3df81b75	0.12114612

net.3.weight f4 [64, 64, 3]
0	0x3d8d2550	0.068918824
1	0x3d6a8aa4	0.057261124
2	0xbd837188	-0.06418139
3	0xbb81938b	-0.003954356
4	0xbd5f37ee	-0.054496698
5	0xbd182672	-0.03714604
6	0x3d175d9b	0.036954504
7	0x3bffe4f0	0.007809274
8	0xbce58cfe	-0.028021332
9	0x3ce64dcd	0.02811327
10	0x3cf837c2	0.030300025
11	0x3cb165b9	0.02165495
12	0x3d459543	0.04823805
13	0x3cf5940a	0.029977817
14	0x3c40ea26	0.011774575
15	0x3d913b28	0.07091361
16	0x3d2735b4	0.0408227
17	0x3b51f8f4	0.0032039257
18	0xbc6fe96c	-0.014643054
19	0xbd5289a0	-0.05140078
20	0x3c5388ee	0.012911065
21	0x3d6a5933	0.057213973
22	0x3ba5fa7a	0.0050652595
23	0x3d86eb3a	0.06587835
24	0x3da5d047	0.080963664
25	0xbc52f905	-0.012876754
26	0xbc40c596	-0.011765858
27	0x3dc1cb47	0.094626
28	0x3d4aafe2	0.04948414
29	0x3d6d4658	0.057928413
30	0x3d8aaed7	0.06771629
31	0xbd773cb1	-0.060360614
32	0x3d1e2c82	0.038616665
33	0xbb7d1c01	-0.0038621428
34	0x3aefe7e3	0.001830336
35	0xbccfccae	-0.025366154
36	0x3cd3be9c	0.025847726
37	0x3ce0d25c	0.027444057
38	0xbca177d6	-0.019710463
39	0x3db20c0c	0.08693704
40	0x3c1cbd1e	0.009566573
41	0xbc0ce20b	-0.008598815
42	0x3d8ee4bd	0.06977222
43	0x3cbb1f7a	0.022842158
44	0x3cb09254	0.02155415
45	0x3b0ac313	0.0021173402
46	0x3d01fdf4	0.03173633
47	0xbc9752ea	-0.018472154
48	0xbccfbf4c	-0.025359772
49	0xbd288c8f	-0.041149672
50	0xbd7d354c	-0.061818406
51	0x3c43c90e	0.011949791
52	0x3d50322e	0.050829105
53	0x3d11b39c	0.03557168
54	0x3dc1c1c3	0.09460785
55	0x3d00c924	0.031441823
56	0xbc2e0464	-0.010621164
57	0x3d68a6ab	0.056799572
58	0xbcfa5314	-0.030557193
59	0x3d79738c	0.06090121
60	0x3d586c92	0.052837916
61	0x3c14a37c	0.009072181
62	0xbcfdb5bf	-0.030970452
63	0xbccbcfba	-0.024879325
64	0x3bf3ceb0	0.0074404106
65	0x3c918e8c	0.017768167
66	0x3d96afc9	0.07357747
67	0x3bf67a64	0.0075219143
68	0x3c7346b8	0.014848404
69	0xbd071cf5	-0.0329866
70	0x3d707820	0.05870831
71	0xbcacc723	-0.02109105
72	0xbcdabedf	-0.026702343
73	0x3c7c1920	0.01538685
74	0x3a3407ec	0.00068676355
75	0x3dd83a77	0.10558026
76	0xbd639cac	-0.055569336
77	0xbd8e2fda	-0.06942721
78	0xbd0c6371	-0.034274522
79	0x3c8e94c0	0.017404914
80	0x3d0f2250	0.034944832
81	0x3dc7de98	0.09759253
82	0x3c515ef5	0.012778987
83	0xbca6aab0	-0.020345062
84	0x3d81c98b	0.063372694
85	0x3d6ca3d4	0.057773426
86	0xbba0f624	-0.0049121547
87	0x3d9d82b0	0.07690942
88	0xbd8abd06	-0.067743346
89	0xbd232a3a	-0.039835192
90	0x3d569687	0.052389648
91	0x3c340b2c	0.010988992
92	0x3cab1338	0.020883188
93	0x3cb6712d	0.022270763
94	0xbc140a4a	-0.009035656
95	0xbce8eb90	-0.028432637
96	0x3dc3dcb2	0.09563579
97	0x3d4c3e20	0.049863935
98	0x3d5e6928	0.054299504
99	0xbb480d6a	-0.0030525574
100	0xbd65474d	-0.0559762
101	0xbd116586	-0.03549721
102	0x3d9352bc	0.07193515
103	0xbbac3a02	-0.0052559385
104	0xbd0c1603	-0.03420068
105	0x3dae1e4b	0.08501872
106	0xbc19f58a	-0.00939692
107	0xbd09e4fc	-0.033665642
108	0x3bd8423b	0.006599692
109	0xbd78517b	-0.06062458
110	0xbd118d94	-0.03553541
111	0xbd1e6a81	-0.03867579
112	0xbbe8d1c2	-0.007105083
113	0xbd805061	-0.06265331
114	0xbd04c04a	-0.032409944
115	0x3bfb450a	0.007668142
116	0x3ca4d9ac	0.020123325
117	0xbd293d2f	-0.041318115
118	0x3d400ce0	0.04688728
119	0xbd4b4327	-0.04962459
120	0xbd335d1e	-0.043789975
121	0xbc8d3964	-0.01723928
122	0xbcc08a35	-0.023503402
123	0xbb52aed9	-0.0032147674
124	0xbd49949d	-0.049213994
125	0xbd74da6c	-0.059778616
126	0x3d978cc0	0.07399893
127	0x3b943c22	0.00452377
128	0x3c590460	0.013245672
129	0x3c144a93	0.009050983
130	0x3cab204e	0.020889428
131	0x3c6d4828	0.014482535
132	0xbb784ee9	-0.003788883
133	0x3cd6b282	0.026208166
134	0x3c91a014	0.017776527
135	0x3d1ad20a	0.037797965
136	0x3c3e3bea	0.011610964
137	0xbc2b616a	-0.010460237
138	0x3d0cf8ff	0.03441715
139	0xbbb38dbc	-0.0054795425
140	0x3c68392d	0.014173788
141	0x3d0996f3	0.033591222
142	0xbcec4d5a	-0.028845478
143	0x3c5ef327	0.013607777
144	0x3d13a123	0.036042344
145	0x3d456276	0.048189603
146	0xbd22288b	-0.039589446
147	0x3d1d1652	0.038351364
148	0x3c4a224a	0.012337277
149	0x3d3f33f0	0.04668039
150	0x3d27b0f5	0.040940244
151	0xbba18234	-0.0049288515
152	0xbd1fdcdf	-0.039029
153	0x3de0237f	0.1094427
154	0xbbd2c9d1	-0.00643275
155	0xbd16e772	-0.036841817
156	0x3d2ba04e	0.041900925
157	0x3ca4a984	0.020100363
158	0x3d233994	0.039849833
159	0x3d2c4a34	0.042062953
160	0xbd321020	-0.04347241
161	0x3d84b582	0.06479932
162	0xbc60b1ed	-0.013714296
163	0xbd8a002e	-0.067383155
164	0xbcee49af	-0.02908787
165	0x3d43b56d	0.047780443
166	0x3c204012	0.009780901
167	0x3c0e8344	0.008698288
168	0x3de28b7b	0.1106176
169	0xbd5858a5	-0.052818913
170	0x3d49dab3	0.049280833
171	0x3acad093	0.0015473537
172	0xbd1bfe62	-0.038084395
173	0xbd01cfc2	-0.031692274
174	0x3da3cfc7	0.07998615
175	0x3d3880dc	0.045044765
176	0xbbe90122	-0.0071107307
177	0xbcd311d1	-0.025765331
178	0x3d7ba2e2	0.061434634
179	0x3ce7ce50	0.02829662
180	0xbc1ab965	-0.009443616
181	0x3d5391ae	0.051652603
182	0x3ca00506	0.019533645
183	0x3da72437	0.08161204
184	0x3d7308b1	0.05933446
185	0xbd4760e6	-0.048676394
186	0xbcc7091c	-0.024296336
187	0xbd1b9063	-0.037979495
188	0x3d80ec48	0.06295067
189	0x3dac620e	0.0841714
190	0x3d3266b4	0.043554977
191	0xbd76c80c	-0.060249373
192	0xbd3675ab	-0.04454581
193	0x3d382164	0.04495372
194	0xbd1dc785	-0.038520355
195	0xbcd51579	-0.026011216
196	0xbd42545c	-0.047443733
197	0xbc3c513c	-0.011493977
198	0xbceeb97c	-0.02914118
199	0xbd870ec4	-0.06594613
200	0xbd906a5f	-0.07051539
201	0x3dbb3bf0	0.091422915
202	0xbd8089de	-0.06276296
203	0x3ac1a07e	0.0014772562
204	0x3d557f12	0.052123137
205	0x3d83d81c	0.06437704
206	0x3c7efe8f	0.015563621
207	0x3ce85225	0.028359482
208	0xbd8fc208	-0.070194304
209	0x3cb26bc6	0.021779906
210	0xbc9ca321	-0.019120755
211	0x3c49d945	0.0123198675
212	0xbcf1454a	-0.029451985
213	0xbcc1ddd1	-0.02366534
214	0xbd299759	-0.041404102
215	0x3d3e179c	0.046409234
216	0x3d1d3dbf	0.038388964
217	0xbd924a70	-0.07143104
218	0xbd35295a	-0.04422889
219	0x3d4ad670	0.04952091
220	0x3c617cd0	0.013762668
221	0xbd614911	-0.055001322
222	0xbdac4c91	-0.084130414
223	0xbaf99fc8	-0.0019044811
224	0xbd8feb82	-0.070273414
225	0x3a75abd5	0.0009371613
226	0xbd17120d	-0.03688245
227	0x3c4380af	0.011932536
228	0x3d2653a4	0.04060711
229	0xbd47e57a	-0.04880283
230	0x3d810970	0.06300628
231	0xbb924831	-0.0044641723
232	0xbd172f17	-0.036910143
233	0xbc88fe58	-0.016722843
234	0x3d691126	0.05690112
235	0x3ceb1065	0.028694341
236	0xbd00d11c	-0.031449422
237	0xbc072dc2	-0.008250656
238	0xbd2f957a	-0.04286716
239	0x3cb58316	0.022157233
240	0x3d213640	0.039358377
241	0x3d7e6136	0.062104426
242	0x3d307aee	0.043085985
243	0xbce81e09	-0.028334634
244	0x3d82327e	0.06357287
245	0xbc03e3e6	-0.008049941
246	0x3c18eda2	0.009334
247	0x3bcf1ba0	0.006320432
248	0xbd89b00b	-0.06723031
249	0x3d5d3496	0.054005228
250	0x3d84fa0e	0.06493007
251	0xbd4e358b	-0.05034403
252	0x3dc4769e	0.09592937
253	0xbd8a02cc	-0.06738815
254	0x3d875178	0.06607336
255	0x3d641d82	0.055692203

net.3.bias f4 [64]
0	0x3c74dd81	0.014945389
1	0xbca5706c	-0.020195208
2	0x3dee32df	0.11630797
3	0x3ddcf8eb	0.10789665
4	0x3ceb7981	0.028744461
5	0x3c76b139	0.015056902
6	0xbbc62f4c	-0.0060481187
7	0x3ca00285	0.019532451
8	0x3ce9135b	0.028451612
9	0x3db358cf	0.08757173
10	0x3d35a4c4	0.044346586
11	0x3df0eea9	0.11764271
12	0x3d88beff	0.066770546
13	0x3bd9fe17	0.0066526043
14	0x3d550119	0.052003
15	0x3cbd4802	0.023105625
16	0x3ca6891a	0.020329047
17	0xbb94470f	-0.0045250724
18	0x3d59dde4	0.053190127
19	0x3d6e12e0	0.05812347
20	0x3dd5084b	0.104019724
21	0xbc8c9c7a	-0.017164458
22	0x3d2fae80	0.042891026
23	0x3de90fbc	0.11379954
24	0x3d3256c5	0.04353978
25	0x3a98a9ed	0.0011647322
26	0x3d52c4e0	0.051457286
27	0xbd20fbff	-0.039302822
28	0x3d251907	0.04030707
29	0xbbb59b84	-0.0055422205
30	0x3dfc9276	0.12332623
31	0x3d1fe4b3	0.039036464
32	0x3def0d2d	0.11672435
33	0x3d6d35f1	0.05791277
34	0xbaa2c11d	-0.0012417171
35	0x3daa756f	0.0832318
36	0x3d7ca09e	0.061676614
37	0x3daf0005	0.085449256
38	0x3d31d176	0.04341265
39	0x3d46d4af	0.048542675
40	0x3dfcf11b	0.12350675
41	0x3db69f3b	0.089170896
42	0xbb997fbd	-0.004684417
43	0x3cabc73b	0.020969024
44	0x3d9cb1e7	0.0765112
45	0xbbe5e4af	-0.0070157866
46	0x3d1fd098	0.03901729
47	0x3da93fc9	0.08264119
48	0x3da03ce0	0.07824111
49	0x3d40cf9c	0.04707299
50	0xbc8cf3bb	-0.017206063
51	0x3de850df	0.1134355
52	0x3def5b0a	0.11687286
53	0x3d9464a7	0.072457604
54	0xbbb54823	-0.005532281
55	0x3dfd5eb9	0.123715825
56	0xbc217c86	-0.009856349
57	0x3d520eb2	0.051283546
58	0x3a15e814	0.0005718481
59	0xbc2bbdc3	-0.010482254
60	0x3dd573f7	0.10422509
61	0x3de77284	0.11301139
62	0x3de2f93a	0.110826924
63	0x3d0404f9	0.032231305

net.6.weight f4 [64, 64, 3]
0	0x3d050837	0.032478537
1	0xbd823724	-0.063581735
2	0xbd7a6e58	-0.06114039
3	0xbd1f51e6	-0.038896464
4	0x3cb96da0	0.022635281
5	0x3cee1747	0.029063834
6	0xbc39371a	-0.011304641
7	0xbc89091e	-0.01672798
8	0xbd1cdba1	-0.038295392
9	0x3d1d25c1	0.038366083
10	0x3cf8d383	0.030374294
11	0x3d7696d8	0.06020245
12	0x3d75aceb	0.05997936
13	0x3a0ad476	0.00052959414
14	0x3ba21a76	0.004947002
15	0x3c395164	0.011310909
16	0x3d2b2830	0.041786373
17	0xbc78d70d	-0.015187991
18	0xbc8ce12a	-0.01719721
19	0xbcc5217e	-0.024063822
20	0xbd1a27d6	-0.037635647
21	0xbcad20e6	-0.021133851
22	0x3d4efdf6	0.050535165
23	0x3d5a94fa	0.05336473
24	0x3b468942	0.0030294214
25	0xbcd59406	-0.02607156
26	0xbd2b9b37	-0.04189607
27	0x3db2d224	0.087314874
28	0x3d83a4b4	0.06427899
29	0x3d072ece	0.03300362
30	0xba4cdd63	-0.00078149716
31	0x3c698d72	0.014254915
32	0x3cb2c251	0.021821173
33	0x3d8aa09d	0.06768916
34	0x3c545919	0.012960696
35	0xbd6a5e18	-0.05721864
36	0x3d362561	0.04446924
37	0x3d906508	0.0705052
38	0xbd435b48	-0.047694474
39	0x3d62608f	0.055267867
40	0x3c3fa5cc	0.011697244
41	0xbd6715b4	-0.056417182
42	0x3d2fdaa7	0.042933132
43	0xbd3fc232	-0.04681606
44	0x3d5cb6ca	0.05388526
45	0x3d87f6d5	0.06638876
46	0x3caec852	0.021335755
47	0xbd257203	-0.040391933
48	0xbb846f52	-0.0040415907
49	0x3d611c64	0.054958716
50	0xbc300d98	-0.0107454285
51	0xbd2e23be	-0.042514555
52	0xbcae2244	-0.021256573
53	0xbd851130	-0.06497419
54	0x3cbe4aff	0.02322912
55	0xbcb64736	-0.022250753
56	0xbcdd27fc	-0.026996605
57	0x3d3a76fd	0.045523632
58	0xbcc7d9ea	-0.024395902
59	0x3d26bb9a	0.040706255
60	0x3d46ca82	0.04853297
61	0xbd720ff0	-0.05909723
62	0x3d3d0a8a	0.04615263
63	0x3a968595	0.0011483902
64	0xbd6971ac	-0.05699317
65	0x3c508142	0.01272613
66	0x3cd8ae90	0.026450425
67	0x3d3af226	0.045641087
68	0xbd350428	-0.044193417
69	0x3db0af2c	0.086271614
70	0xbbc6cfdc	-0.0060672592
71	0xbd86f256	-0.06589191
72	0x3d369b2f	0.04458159
73	0x3d187370	0.037219465
74	0xbcc4fa48	-0.024045125
75	0x3d9f1eb7	0.0776953
76	0xbb4aa0aa	-0.0030918517
77	0xbd46be8c	-0.048521563
78	0x3d17639b	0.036960226
79	0xbcd5a186	-0.026077997
80	0x3d3a943b	0.04555152
81	0xbc8f52f9	-0.01749562
82	0xbd1537a0	-0.03643
83	0x3d389d7a	0.045072056
84	0x3cf6de29	0.030135231
85	0x3d89ffc4	0.067382365
86	0x3d464be8	0.048412234
87	0x3db6c741	0.089247234
88	0xbc9bc350	-0.01901403
89	0xbd05ea92	-0.032694407
90	0x3d9c090b	0.07618912
91	0x3d12d5c1	0.035848383
92	0x3cdbccd7	0.026831074
93	0x3dc8e772	0.0980977
94	0x3d656e7e	0.056013577
95	0xbd094b3b	-0.03351901
96	0xbaa3179e	-0.0012442952
97	0x3a1b714c	0.00059296633
98	0x3d268854	0.040657356
99	0x3db19115	0.0867025
100	0x3d7e571a	0.062094785
101	0xba0570b0	-0.0005090339
102	0x3da54ab4	0.08070889
103	0x3d79cc2c	0.06098573
104	0xbd64d447	-0.055866506
105	0xbb3658aa	-0.0027823844
106	0x3c4a3ff2	0.012344347
107	0xbd9077cd	-0.070541
108	0xbc7efa42	-0.015562596
109	0xbd0e46ad	-0.03473537
110	0x3d85cc8e	0.06533156
111	0x3dab75ed	0.08372102
112	0xbc61d824	-0.013784442
113	0x3d1538fc	0.036431298
114	0x3dc20a19	0.09474582
115	0xbc39d03c	-0.011341151
116	0xbb5da543	-0.0033820427
117	0xbca0af2d	-0.01961478
118	0xbc16d0ce	-0.009205056
119	0xbcf3df80	-0.029769659
120	0x3d3fdab3	0.046839427
121	0x3d7c224a	0.061556138
122	0xbd273e97	-0.040831175
123	0x3b980ca2	0.004640178
124	0xbd8251f3	-0.06363287
125	0xbb8d4fba	-0.0043124827
126	0x3b1e8828	0.0024190042
127	0xbbf0866c	-0.007340243
128	0xbd693c37	-0.05694219
129	0x3d3370a5	0.043808598
130	0xbd92aa29	-0.07161362
131	0xbd8d0853	-0.06886353
132	0x3d2da0a7	0.04238954
133	0xbd90894c	-0.07057437
134	0x3d924e8c	0.07143888
135	0x3daa7950	0.0832392
136	0xbd062782	-0.03275252
137	0xbd8c462d	-0.068493225
138	0x3d9e865a	0.07740469
139	0xbd7a6893	-0.061134886
140	0x3b14fc24	0.0022733295
141	0x3d8f049e	0.069833025
142	0x3aa95c9e	0.0012921279
143	0x3ca40a04	0.020024307
144	0x3d1af48f	0.037830885
145	0xbcadb0a4	-0.021202393
146	0x3d216598	0.039403528
147	0x3d3c2793	0.04593618
148	0x3c6681ef	0.0140690645
149	0x3cb0d274	0.021584727
150	0xbcd5150c	-0.026011012
151	0x3d4fc996	0.050729357
152	0x3c018c82	0.007907035
153	0x3dd0feff	0.10204887
154	0x3d8aff22	0.06786944
155	0xbd840b1a	-0.0644743
156	0x3dd5e3a9	0.10443813
157	0x3cc12252	0.023575936
158	0x3d0308f2	0.031990953
159	0xbc051d49	-0.008124658
160	0x3d20c6d4	0.039252117
161	0xbcc911ca	-0.024544615
162	0x3d6cf1eb	0.0578479
163	0x3ca0375a	0.019557644
164	0x3d41b7b0	0.04729432
165	0xbcece7ba	-0.02891909
166	0xbc0f5574	-0.008748401
167	0xbcb1972e	-0.021678533
168	0xbd1a53fd	-0.037677754
169	0xbd50ba40	-0.05095887
170	0x3d6e8ba6	0.058238648
171	0x3dc8c117	0.09802454
172	0xbcf9269a	-0.030413914
173	0xbd0e9f66	-0.034819983
174	0x3d87ba37	0.066273145
175	0x3cbda6bf	0.0231508
176	0xbd7a67f0	-0.06113428
177	0x3d7e1e87	0.062040832
178	0xbd3faed2	-0.04679758
179	0xbd6d144a	-0.057880677
180	0x3d6db5a2	0.058034547
181	0x3d35df5c	0.044402465
182	0x3c8fefe5	0.017570445
183	0xbccf710d	-0.025322462
184	0xbd5b6a4c	-0.05356817
185	0xbcff2433	-0.03114519
186	0x3da0b2c6	0.07846598
187	0xbd28033c	-0.04101871
188	0x3d8e42d5	0.06946341
189	0x3c11df08	0.008903272
190	0xbd8a5c92	-0.06755938
191	0xbd8864af	-0.06659829
192	0xbc9aa28a	-0.018876333
193	0xbc5492f4	-0.0129744895
194	0xbd282678	-0.04105231
195	0xbd4bee56	-0.04978784
196	0xbd813db1	-0.06310595
197	0xbd20d2ab	-0.03926341
198	0x3d555355	0.052081425
199	0xbce1b478	-0.027551875
200	0x3cc30858	0.02380769
201	0xbdaf60e7	-0.085634045
202	0xbd4f22a2	-0.050570138
203	0xbcfd69f0	-0.030934304
204	0x3d553680	0.05205393
205	0xbd5d0e88	-0.053968936
206	0xbcef522a	-0.029213984
207	0xbcfe9220	-0.031075537
208	0x3d322f1a	0.04350195
209	0x3bd38816	0.0064554317
210	0x3ca525eb	0.020159682
211	0xbce3b25f	-0.027795015
212	0xba99be4a	-0.0011729684
213	0x3d53127f	0.05153131
214	0xbcbd870a	-0.02313568
215	0x3d585f00	0.052824974
216	0xbbdedf0f	-0.006801493
217	0xbd4e2058	-0.050323814
218	0xbd2d23eb	-0.042270582
219	0xbd9c66cd	-0.07636795
220	0xbbb1beda	-0.0054243626
221	0xbd86f422	-0.065895334
222	0x3c58a758	0.013223492
223	0x3c5681c2	0.01309246
224	0xbbc6c277	-0.0060656625
225	0xbc1afd65	-0.009459828
226	0xbc1374a2	-0.008999975
227	0xba81f8aa	-0.0009916027
228	0x3d1a13b9	0.037616465
229	0xbb5e1d24	-0.003389188
230	0xbcf0ec84	-0.029409654
231	0x3d073b52	0.033015557
232	0x3d596c52	0.053081818
233	0x3d8af782	0.067854896
234	0xbd481e83	-0.048857223
235	0x3d298556	0.041386925
236	0xbd1012a0	-0.035174012
237	0xbd8bd0f7	-0.06826966
238	0xbd0f5809	-0.034996066
239	0x3cc87ffc	0.02447509
240	0xbc946b9e	-0.018117722
241	0x3c9d112a	0.019173224
242	0x3ce40200	0.027832985
243	0xbc4e60c5	-0.012596314
244	0xbc5304df	-0.012879579
245	0x3d537dec	0.05163376
246	0xbda7b762	-0.08189274
247	0x3cce9754	0.025218643
248	0x3d8e0cc4	0.069360286
249	0xbd7a7659	-0.06114802
250	0x3d84fb8e	0.06493293
251	0x3c36a278	0.011147134
252	0xbd908b02	-0.07057764
253	0xbd15a8a6	-0.03653779
254	0x3d635f32	0.055510707
255	0xbd4c6e80	-0.04991007

net.6.bias f4 [64]
0	0x3e03ef15	0.12884171
1	0x3d25d31a	0.040484525
2	0x3ddaaed5	0.10677878
3	0xbcc68ef2	-0.024238084
4	0x3e06296f	0.13101743
5	0xbb67bba4	-0.0035359645
6	0x3d185569	0.03719083
7	0x3d59f934	0.053216174
8	0x3c1170d7	0.008877001
9	0x3db2620e	0.08710109
10	0x3c27bf89	0.010238537
11	0x3e093fc2	0.13403228
12	0x3e016a94	0.12638313
13	0x3c105212	0.00880863
14	0x3d9e9e11	0.077449925
15	0x3d4a3e4f	0.04937583
16	0xbc00a225	-0.007851158
17	0x3c3169dd	0.010828462
18	0x3d9af702	0.07566644
19	0xbd68c330	-0.05682677
20	0x3dd13754	0.10215631
21	0xbd8fdc03	-0.07024386
22	0xbc7fdeeb	-0.015617113
23	0xbc61ac81	-0.013774038
24	0x3cca13ce	0.024667647
25	0x3de1fb19	0.11034221
26	0x3c8ab084	0.016929872
27	0x3db6bfd7	0.08923309
28	0x3c39fbc8	0.011351533
29	0x3c77d2a2	0.015125902
30	0x3c23bb2d	0.009993357
31	0x3dbbf819	0.0917818
32	0x3c06a774	0.008218635
33	0x3dfdc4d8	0.123910606
34	0x3dbcaa9d	0.092122294
35	0xbd114595	-0.03546675
36	0x3ce04ac4	0.027379401
37	0xbcf1cba9	-0.029516058
38	0x3d2689ca	0.04065875
39	0x3d9c07a1	0.076186426
40	0xbca46166	-0.020065974
41	0xbd71c441	-0.059025053
42	0xbd3c0d2c	-0.045911
43	0x3d613e24	0.054990903
44	0xbd70bf27	-0.058776047
45	0x3debbc3c	0.11510512
46	0x3dfbc7bc	0.12293956
47	0x3d599c7c	0.05312775
48	0x3d460f82	0.048354633
49	0xbd1687d0	-0.036750615
50	0x3c5530de	0.013012139
51	0x3d7a68db	0.061135154
52	0x3e046de8	0.12932551
53	0xbbd3738c	-0.0064529832
54	0x3d8122b7	0.063054495
55	0x3d86d2e3	0.06583192
56	0x3dbec2a5	0.09314469
57	0x3d6f78e9	0.05846492
58	0x3ddb2af1	0.1070155
59	0x3dafbb3a	0.085806325
60	0x3dca949a	0.09891625
61	0x3cb84190	0.0224922
62	0x3d92482c	0.07142672
63	0x3dbba610	0.09162533

net.9.weight f4 [64, 64, 3]
0	0x3d505f1c	0.050871953
1	0x3d5ca0a2	0.05386413
2	0xbd28e672	-0.041235395
3	0xbd11add0	-0.03556615
4	0xbd1d8577	-0.03845736
5	0x3d54cc5e	0.051952712
6	0x3d0341ee	0.032045297
7	0xbd76a3d1	-0.06021482
8	0x3a9c8e0e	0.0011944191
9	0x3d0163e5	0.031589407
10	0x3a8899b4	0.0010421784
11	0xbcc4b0a8	-0.024010018
12	0x3da770f1	0.08175839
13	0x3d00dafa	0.031458832
14	0x3cc342a4	0.023835488
15	0x3d85f3da	0.065406516
16	0x3b97fb88	0.004638139
17	0x3d5a6bd4	0.05332549
18	0xbc12a18f	-0.008949651
19	0xbcac5a46	-0.02103914
20	0xbd1eb60c	-0.038747832
21	0x3aa9fc26	0.0012968823
22	0xbd7f20d4	-0.062287167
23	0x3c82477c	0.015903227
24	0xbc80b41b	-0.015710881
25	0xbcd7f4be	-0.02636182
26	0x3d5feef6	0.05467125
27	0x3d730062	0.059326537
28	0xbd0ba085	-0.03408863
29	0x3d26b639	0.040701125
30	0xbd3861bf	-0.045015093
31	0x3ce5f9ca	0.02807321
32	0xbcafc7fa	-0.021457661
33	0x3da2bd5e	0.07946275
34	0xbbab4255	-0.0052264133
35	0xbd2af28c	-0.041735217
36	0x3d95e238	0.073185384
37	0xbd72d015	-0.059280474
38	0x3cf16e70	0.029471606
39	0x3bc7f3ec	0.006102076
40	0x3c4f2580	0.012643218
41	0xbd6136ff	-0.05498409
42	0x3c071bac	0.008246344
43	0xbd89f668	-0.067364514
44	0xbc73592c	-0.014852803
45	0x3c45caa5	0.01207224
46	0xbac95ac8	-0.0015362138
47	0xbbc1fb1d	-0.0059198276
48	0x3d99a622	0.075023904
49	0x3ba257e6	0.004954326
50	0x3cb411fc	0.021981232
51	0x3d9955d8	0.074870765
52	0xbcc41326	-0.023934912
53	0x3d6a598c	0.057214305
54	0xbc70fc6d	-0.0147086205
55	0xbd1b2e89	-0.037886176
56	0xbd657067	-0.0560154
57	0xbc16382e	-0.009168668
58	0xbd1c3b61	-0.038142566
59	0x3cb4d5ee	0.022074666
60	0xbd07d35d	-0.033160556
61	0xbd26c58a	-0.04071573
62	0x3c1a97fb	0.009435649
63	0xbcf9081f	-0.03039938
64	0x3b0a3d76	0.0021093762
65	0xbd8d6f5f	-0.06906008
66	0xbc5b5f49	-0.013389417
67	0x3ca799a0	0.020458996
68	0xbbfded4e	-0.007749236
69	0x3cdf16b7	0.027232511
70	0xbd827575	-0.063700594
71	0xbc8b6d64	-0.017019935
72	0xbd454af7	-0.048167195
73	0xbb2d3984	-0.0026431987
74	0xbd259c87	-0.04043248
75	0xbc218115	-0.009857436
76	0xbd7d5d95	-0.061856825
77	0xbbd1f414	-0.00640727
78	0x3ce3eb77	0.02782224
79	0x3ca53c7c	0.020170443
80	0xbd905e8b	-0.07049283
81	0x3ba221f1	0.004947894
82	0xbc962c12	-0.018331561
83	0x3c81ac8e	0.01582935
84	0xbcbe9297	-0.023263259
85	0xbd8b58ed	-0.068040706
86	0x3d35cb5f	0.044383403
87	0xbd3aa55f	-0.045567866
88	0xbd245cb7	-0.040127482
89	0x3d6f73f2	0.058460183
90	0xbd8dc1c7	-0.06921726
91	0x3c1654ae	0.009175463
92	0x3d0c9e74	0.0343308
93	0x3d46eb7e	0.048564427
94	0x3ccf5904	0.025311
95	0x3cf24592	0.02957419
96	0xbcf7bca6	-0.030241322
97	0x3c92262c	0.017840467
98	0x3d3d6338	0.0462372
99	0x3db5cde6	0.08877163
100	0x3d511f06	0.051054977
101	0x3d41d31c	0.04732047
102	0x3db5c721	0.088758714
103	0x3d7d91df	0.06190669
104	0xbd765066	-0.060135268
105	0x3cd9cb3a	0.026586164
106	0xbd2eb7a8	-0.042655617
107	0xbd6495dc	-0.05580698
108	0x3d6be55e	0.05759179
109	0xbd0b0370	-0.033938825
110	0xbd474c68	-0.04865685
111	0x3d5f5d27	0.054532196
112	0xbc9bc5ba	-0.019015182
113	0x3bc6f796	0.006071995
114	0xbd2a4109	-0.04156593
115	0xbd551f8e	-0.052032046
116	0x3d855fa4	0.065123826
117	0x3d9b2376	0.07575123
118	0xbd38d7c6	-0.045127653
119	0x3c6c7b9e	0.0144337695
120	0xbd82e8c2	-0.06392051
121	0xbd67c427	-0.05658355
122	0xbd7effc8	-0.06225565
123	0xbd6fa9c0	-0.058511496
124	0xbcefd1b5	-0.0292748
125	0x3d14568d	0.036215354
126	0x3d66e84b	0.056373876
127	0xbd406e32	-0.04698009
128	0x3d83ec2e	0.06441532
129	0x3d99d98e	0.075121984
130	0x3d10c10e	0.03534036
131	0xbc5ea3bc	-0.013588842
132	0x3d35f5b5	0.044423778
133	0xbd0a4847	-0.033760335
134	0x3ccdd926	0.025127959
135	0xbba8ad14	-0.0051475856
136	0x3d803222	0.06259562
137	0x3d58fe9a	0.052977182
138	0x3d2c208a	0.04202322
139	0x3d922066	0.07135086
140	0xbd714457	-0.058903065
141	0xbd4a6da3	-0.049420964
142	0xbd1d8bb0	-0.038463295
143	0xbd3485e6	-0.044073008
144	0x3da9b44d	0.08286343
145	0x3ce96ad2	0.028493319
146	0x3d3dc32c	0.04632871
147	0xbb3acd56	-0.0028503737
148	0x3d935162	0.07193257
149	0xbd7e7a0d	-0.062128115
150	0x3be000ae	0.0068360185
151	0xbc7c69f0	-0.015406117
152	0xbd299ff9	-0.041412327
153	0x3cd774e6	0.026300859
154	0xbca55c84	-0.020185716
155	0xbcd19864	-0.02558536
156	0xbd0a8d83	-0.033826362
157	0xbc89c261	-0.01681632
158	0x3d894b54	0.06703821
159	0xbd0b30b8	-0.03398201
160	0x3d1ee5dc	0.03879343
161	0xbd4d9d6e	-0.050198965
162	0x3c912472	0.017717574
163	0x3caefbfa	0.021360386
164	0x3c9f767a	0.019465674
165	0xbd0f7c72	-0.03503079
166	0x3ce3d1f8	0.027810082
167	0x3c7293a6	0.01480571
168	0xbcea47b7	-0.02859865
169	0xbc6c5bda	-0.014426196
170	0x3abbcaf6	0.0014327455
171	0xbc935af1	-0.0179877
172	0x3d20632c	0.039157078
173	0xbc130407	-0.008973128
174	0xbd340315	-0.04394825
175	0x3c424743	0.01185781
176	0x3d2d4188	0.042298824
177	0xbcd1d84d	-0.025615836
178	0xbd04e8ae	-0.032448463
179	0x3d936062	0.07196118
180	0xbbf47c51	-0.0074611087
181	0xbd4c9559	-0.049947117
182	0x3d4cda3c	0.050012812
183	0x3cbd3d21	0.023100438
184	0x3d04ec2c	0.032451794
185	0xbc28bee6	-0.01029942
186	0x3c54bf23	0.012985024
187	0x3d501626	0.050802372
188	0x3cd1788d	0.025570178
189	0xbce5369a	-0.027980138
190	0xbd6e47fd	-0.058174122
191	0xbce62f50	-0.028098732
192	0x3db09520	0.08622193
193	0x3d8741a8	0.0660432
194	0xbab079a8	-0.0013463991
195	0xbc592c8e	-0.013255252
196	0x3d8608f2	0.06544675
197	0x3d835930	0.064134955
198	0x3c8af5f6	0.016962986
199	0xbced7840	-0.028988004
200	0xbc22149c	-0.009892609
201	0xbd4144e4	-0.04718484
202	0xbcc1be48	-0.023650303
203	0x3c1ef279	0.009701365
204	0x3d0632c8	0.032763273
205	0x3cc333b4	0.023828365
206	0xbc482b12	-0.0122173
207	0x3dbf5b60	0.093436
208	0xbcd09864	-0.02546329
209	0x3d3c3b8c	0.045955226
210	0x3dbae0f1	0.091249354
211	0x3d6d6958	0.05796179
212	0x3d16f248	0.03685215
213	0x3dbe161c	0.09281561
214	0xbd784366	-0.06061115
215	0x3d010c14	0.03150566
216	0x3d476603	0.04868127
217	0xbca24ad2	-0.019811068
218	0x3d0259ec	0.031824037
219	0x3cbe411a	0.023224402
220	0x3d15995a	0.0365232
221	0xbd93812c	-0.07202372
222	0x3da2cd29	0.079492874
223	0xbb715946	-0.0036826893
224	0xbd7cf860	-0.061760306
225	0x3ceb2dc0	0.028708339
226	0xbccbcfee	-0.024879422
227	0xbd22af37	-0.03971788
228	0xbce56b2c	-0.028005205
229	0xbd645c96	-0.05575236
230	0xbcefd7f3	-0.029277777
231	0xbce9a33d	-0.02852022
232	0xbd354ccc	-0.044262692
233	0xbc3d7e4a	-0.011565754
234	0x3c5fbcb5	0.013655831
235	0x3caf5e92	0.0214074
236	0xbd5330c9	-0.051560197
237	0x3d848c6c	0.06472096
238	0x3d22e324	0.0397674
239	0xbd0347f4	-0.03205104
240	0x3c121bdc	0.008917775
241	0xbc7b9fce	-0.015357925
242	0x3d8f913a	0.07010122
243	0x3d806b95	0.0627052
244	0x3c54177e	0.012945054
245	0xbc81baba	-0.015836108
246	0xbd03b9b3	-0.03215952
247	0x3d7ee4c3	0.062229883
248	0xbc12fd90	-0.008971587
249	0xbd5b55a6	-0.053548478
250	0x3cda4ffa	0.026649464
251	0xbd208081	-0.03918505
252	0x3d4c8259	0.049928997
253	0xbbd7d52c	-0.0065866914
254	0x3d8de4c8	0.06928402
255	0xbd011d1d	-0.031521905

net.9.bias f4 [64]
0	0x3daf0a20	0.08546853
1	0x38eb02f2	0.00011206222
2	0x3d663f0c	0.05621247
3	0x3d7616a0	0.06008017
4	0x3cbd0412	0.02307323
5	0xbb151482	-0.002274782
6	0x3db541c9	0.08850438
7	0xbd27d1ba	-0.040971495
8	0x3db07d86	0.08617692
9	0x3d91bfe7	0.071166806
10	0xbca6cda8	-0.020361736
11	0x3d4829ef	0.048868116
12	0x3e0e4bce	0.13896105
13	0x3d402d05	0.046917934
14	0x3d2587fb	0.040412884
15	0x3dcb21ac	0.09918532
16	0x3e091d3e	0.13390061
17	0x3b942c56	0.004521887
18	0x3ca3fa8a	0.020016927
19	0x3da3578c	0.079756826
20	0x3dc9352a	0.09824593
21	0x3d8f57a3	0.06999137
22	0xbc0c58a8	-0.008566059
23	0x3d0f4497	0.03497752
24	0x3dd85bf3	0.10564413
25	0x3c682dda	0.014171088
26	0x3d60cde1	0.05488384
27	0x3d4b7ac8	0.04967764
28	0x3d930428	0.07178527
29	0x3d9ff82e	0.078110084
30	0x3dfb85a2	0.12281348
31	0xba49519c	-0.0007679702
32	0x3dc95d62	0.098322645
33	0x3d652cc4	0.055950895
34	0x3dcf9f6e	0.10137831
35	0x3c8f97ba	0.017528404
36	0x3dce0cf0	0.100610614
37	0x3ce24212	0.027619395
38	0x3dfe01a2	0.12402655
39	0x3d5f938b	0.054584067
40	0x3dee0024	0.116211206
41	0x3dc2691e	0.09492706
42	0x3dc66937	0.09688037
43	0x3db5ee3d	0.08883331
44	0x3d3b3c52	0.045711823
45	0x3d1a08f5	0.0376062
46	0x3d3fffc5	0.04687478
47	0x3dfe9792	0.124312535
48	0x3d8eee89	0.06979091
49	0x3d10bb75	0.035335023
50	0xbc99259b	-0.01869469
51	0x3de64233	0.11243095
52	0x3d1ab2e2	0.037768252
53	0x3e0dac2e	0.13835213
54	0x3e04b024	0.12957817
55	0x3dabe251	0.08392776
56	0x3d113bb0	0.035457313
57	0x3dc6069c	0.096692294
58	0x3df631da	0.12021227
59	0x3b796da2	0.003805973
60	0xbd4c4238	-0.04986784
61	0x3e0728d9	0.13199176
62	0x3d630f74	0.05543466
63	0xbd5249db	-0.051339965

net.12.weight f4 [64, 64, 3]
0	0xbdaa9cae	-0.083306655
1	0xbd475284	-0.048662677
2	0x3c96b302	0.018395904
3	0x3ca1f605	0.019770632
4	0x3c96e2d2	0.018418703
5	0xbd6aef90	-0.05735737
6	0x3cb8163a	0.022471536
7	0x3d8a9e9e	0.06768535
8	0xbd60ee5c	-0.054914817
9	0xbceedfc1	-0.029159429
10	0xbd065d69	-0.032803927
11	0x3cc3dc1a	0.023908664
12	0xbd74d33c	-0.05977176
13	0x3c441baa	0.011969486
14	0xbd063a3d	-0.032770384
15	0xbcc5c6ed	-0.024142707
16	0x3ca818b7	0.020519597
17	0xbba23032	-0.004949593
18	0x3d4bc37b	0.04974697
19	0xbb87bee2	-0.004142628
20	0x3d8aeec8	0.06783825
21	0x3c49c358	0.01231464
22	0x3c6cff68	0.0144651905
23	0x3d60d2e4	0.05488862
24	0xbd89858b	-0.067149244
25	0xbd5c47b0	-0.053779304
26	0x3d9381c0	0.07202482
27	0xbc6cf6a0	-0.014463097
28	0xbd4040ee	-0.04693692
29	0xbd0698d3	-0.03286059
30	0x3cfa6069	0.03056355
31	0xbc45f208	-0.0120816305
32	0x3d44605c	0.047943458
33	0xbd557b64	-0.052119628
34	0xbd7ea2a3	-0.06216682
35	0x3d054485	0.03253605
36	0x3d4a0734	0.049323276
37	0x3cb61db0	0.022230953
38	0xbc54a59c	-0.0129789375
39	0xbce7e9cb	-0.028309723
40	0xbd5c9975	-0.053857286
41	0x3d532786	0.051551364
42	0x3d572164	0.05252208
43	0x3c8b5a0b	0.01701071
44	0x3c740718	0.014894269
45	0xbd983e6b	-0.0743378
46	0xbd8550fd	-0.06509588
47	0xbca6cb41	-0.02036059
48	0xbd9c16f0	-0.076215625
49	0xbd52214a	-0.05130128
50	0xbca3b7fd	-0.019985193
51	0xbd643b35	-0.055720527
52	0x3acbfa0c	0.0015562191
53	0xbd6552c2	-0.055987127
54	0x3d219282	0.03944636
55	0x3d477e36	0.04870435
56	0xbd8a0893	-0.06739917
57	0xbd80d49f	-0.06290554
58	0xbd849fa1	-0.06475759
59	0x3d109972	0.035302587
60	0x3d39e38d	0.045383025
61	0xbd8f50d9	-0.06997842
62	0xbc6bb34e	-0.014386011
63	0xbdb22779	-0.08698935
64	0xbd85f731	-0.06541289
65	0x3d1673aa	0.0367314
66	0x3d3fd3fc	0.046833023
67	0xbc630042	-0.013855042
68	0xbcbbe24d	-0.022935057
69	0xbd98f064	-0.07467726
70	0xbd2fa90d	-0.04288583
71	0xbc85fa20	-0.01635462
72	0x3cf00213	0.029297864
73	0xbd1b8d01	-0.03797627
74	0xbd643d64	-0.05572261
75	0xbc456e61	-0.012050242
76	0x3d77e146	0.060517572
77	0x3d82f7e4	0.06394938
78	0xbc430b10	-0.011904493
79	0x3d5649c0	0.052316427
80	0xbd7083ca	-0.058719434
81	0x3d2a0a93	0.04151399
82	0x3d38b112	0.045090742
83	0xbd386e7a	-0.045027234
84	0xbbdd24fe	-0.0067487946
85	0x3d5e630c	0.054293677
86	0xbc8f1adc	-0.017468862
87	0x3cf5ad79	0.029989945
88	0x3c3a4514	0.011369009
89	0xbd9122b1	-0.07086695
90	0xbd3355c1	-0.043782953
91	0x3d81300e	0.06307994
92	0x3d621264	0.05519332
93	0xbd76b461	-0.060230616
94	0xbd3664e4	-0.04452981
95	0xbd8e69eb	-0.06953796
96	0xbb84eae2	-0.0040563205
97	0xbc80d226	-0.015725207
98	0x3d487e3c	0.04894851
99	0xbdaa871f	-0.083265536
100	0xbc969586	-0.018381845
101	0x3d10fe4c	0.035398766
102	0xbdad9ca2	-0.08477141
103	0xbc1532bc	-0.009106334
104	0xbd2098c7	-0.0392082
105	0x3d6259bc	0.05526136
106	0xbd094f71	-0.033523027
107	0xbd11c8f0	-0.03559202
108	0x3d33b01c	0.043869123
109	0xbd871158	-0.06595105
110	0xbc06c861	-0.008226485
111	0xbbe83c89	-0.0070872945
112	0x3d88d516	0.06681268
113	0xbbee37d6	-0.0072698398
114	0xbd8de649	-0.06928689
115	0xbd5dea5e	-0.054178588
116	0xbce33a9e	-0.027737912
117	0x3cc6f590	0.024287015
118	0x3ce46844	0.027881749
119	0xbd853ea4	-0.065060884
120	0xbd2f32d0	-0.042773068
121	0xbc8ce478	-0.017198786
122	0xbd82d288	-0.06387812
123	0x3c574418	0.013138793
124	0x3cdd90e3	0.027046626
125	0xbd88ae14	-0.06673828
126	0x3b730ec1	0.0037087651
127	0xbb9c8c9e	-0.004777505
128	0xbcb61ee2	-0.022231523
129	0xbd1974cb	-0.037464898
130	0x3d45cfbe	0.04829382
131	0xbd0e446d	-0.034733225
132	0xbd1e9b48	-0.038722306
133	0xbd329cf6	-0.04360672
134	0x3d2e5716	0.04256352
135	0xbd625c63	-0.055263888
136	0x3bf36ef0	0.0074289963
137	0x3d58feaa	0.05297724
138	0xba9879de	-0.0011632999
139	0xbcd7959e	-0.02631646
140	0xbd8c9144	-0.06863645
141	0xbc4b9f94	-0.012428183
142	0xbcce737e	-0.025201555
143	0xbd8c451f	-0.06849121
144	0x3d0d22e4	0.034457102
145	0xbd1daf1c	-0.038497075
146	0xbd8ad0df	-0.0677812
147	0xbcb01847	-0.021495951
148	0xbb5f7186	-0.0034094765
149	0xbc7dfc1a	-0.015502
150	0x3d0b5293	0.034014296
151	0xbc9c2469	-0.01906033
152	0x3d0938d4	0.03350146
153	0xbce9991a	-0.028515387
154	0xbd432a30	-0.047647655
155	0xbd7d6bc5	-0.061870355
156	0xbd89483c	-0.06703231
157	0x3c9cb996	0.019131463
158	0x3d6c064e	0.0576232
159	0xbc49c992	-0.0123161245
160	0x3d1b3e20	0.037901044
161	0xbae78630	-0.0017663892
162	0xbd3a1a12	-0.04543502
163	0x3d83e3e0	0.06439948
164	0x3d0ea9e8	0.034830004
165	0xbd808251	-0.06274856
166	0xbd19d895	-0.037560064
167	0xbc6ac860	-0.01433
168	0xbd56e404	-0.052463546
169	0x3b93e0e2	0.004512892
170	0xbd41b334	-0.047290042
171	0xbc03b727	-0.008039272
172	0x3cc458ce	0.023968127
173	0x3d4e9964	0.050439253
174	0xbd577ffb	-0.052612286
175	0x3ce48af0	0.027898282
176	0xbcd167c0	-0.025562167
177	0x3cb127c0	0.0216254
178	0xbd8db0de	-0.069185
179	0xbd832b6d	-0.06404767
180	0x3d2e4894	0.042549685
181	0x3d25d8d4	0.040489987
182	0x3d926990	0.07149041
183	0x3abd13cc	0.0014425456
184	0xbbb7c4b2	-0.0056081647
185	0x3d78f0d1	0.060776535
186	0xbc7a707b	-0.0152856065
187	0xbd65fbc0	-0.05614829
188	0xbd16c7e1	-0.036811713
189	0xbd40bb5f	-0.04705369
190	0xbc718736	-0.014741709
191	0x3cb7f72e	0.022456732
192	0xbd44ddf9	-0.048063252
193	0xbd8878f5	-0.06663696
194	0x3aa30ad6	0.0012439142
195	0x3d36b54d	0.044606496
196	0xbd7c9970	-0.061669767
197	0xbd81de39	-0.06341214
198	0x3b5ce588	0.0033706147
199	0xbd91bead	-0.07116447
200	0xbaf0edbc	-0.0018381397
201	0xbd0430a3	-0.032272946
202	0x3bcb1010	0.006196983
203	0xbb5f7886	-0.0034098937
204	0xbd2e2775	-0.042518098
205	0x3cb5165a	0.022105385
206	0xbd851d00	-0.06499672
207	0x3d0ef7f2	0.034904428
208	0x3d0d0e66	0.03443756
209	0xbcde033a	-0.027101148
210	0xbc43d4b7	-0.011952571
211	0x3ca98f72	0.020698283
212	0x3d660c62	0.056164153
213	0x3d12fa69	0.03588334
214	0xbcb88efc	-0.022529118
215	0xbd8ea6fa	-0.06965442
216	0x3bd3fc81	0.00646931
217	0x3bd7bdac	0.00658389
218	0x3d384d50	0.044995606
219	0xbc9c6461	-0.019090833
220	0xbd86c38d	-0.06580267
221	0x3d44273c	0.04788898
222	0x3d6ab37f	0.057300087
223	0x3a8717b2	0.0010306744
224	0xbd095a52	-0.0335334
225	0x3c41e2bf	0.011833846
226	0xbd053920	-0.03252518
227	0xbd313732	-0.04326553
228	0xbcda01ac	-0.026612125
229	0x3d68b2ba	0.056811072
230	0xbd8b7d7a	-0.06811042
231	0x3d221786	0.039573215
232	0xbd23d47d	-0.039997566
233	0xbcb24e04	-0.021765716
234	0x3d390d7e	0.045178883
235	0x3bbef440	0.0058274567
236	0xbc129890	-0.008947507
237	0xbd3903a5	-0.04516949
238	0xbd414596	-0.047185503
239	0xbb0b46c5	-0.0021251899
240	0x3d3cce7b	0.046095353
241	0x3d1b7c8c	0.037960574
242	0x3d8212a0	0.06351209
243	0xbd285e06	-0.041105293
244	0x3d113088	0.035446674
245	0xbd3b5884	-0.045738712
246	0xbd379c99	-0.044827078
247	0x3d7bb17a	0.06144855
248	0x3d34e0bc	0.044159636
249	0xbcfde101	-0.03099108
250	0xbd81eb8a	-0.06343754
251	0xbce7a8a2	-0.028278653
252	0x3c6dbc5a	0.014510239
253	0xbd84673c	-0.06465003
254	0xbcc05de6	-0.023482274
255	0x3c2891bf	0.010288655

net.12.bias f4 [64]
0	0xbc42fa5c	-0.011900511
1	0xbcc78da5	-0.024359534
2	0xbb9f518f	-0.0048620175
3	0xbc9e2d34	-0.019308664
4	0x3df35f2f	0.11883389
5	0x3e02b829	0.12765564
6	0x3d3aa66d	0.045568872
7	0x3df1194e	0.117724046
8	0x3df63efa	0.120237306
9	0x3df6fe7c	0.12060258
10	0xbd502ef2	-0.05082602
11	0xbd8c5c78	-0.068535745
12	0xbcb6a5fd	-0.022295946
13	0xbd1a5cdc	-0.037686214
14	0x3de97d10	0.11400807
15	0x3de299d5	0.110644974
16	0xbcc7ba6e	-0.024380889
17	0x3ded6480	0.115914345
18	0xbbb9f2f0	-0.0056747124
19	0xbd86cfc6	-0.065825984
20	0x3d4a83c6	0.049442075
21	0xbb27673f	-0.0025543717
22	0xbd928598	-0.07154387
23	0xbc47edd1	-0.012202696
24	0x3e0dad3e	0.13835618
25	0x3e013345	0.12617214
26	0x3d2ef192	0.04271085
27	0xbd9951b9	-0.074862905
28	0xbc82e297	-0.015977187
29	0x3d5ecaba	0.054392554
30	0xbd78acee	-0.060711794
31	0xbcce607e	-0.025192495
32	0x3daaf954	0.08348337
33	0x3dca1ee7	0.098691754
34	0xbd03b660	-0.03215635
35	0x3e060bee	0.13090488
36	0x3cf48e7d	0.0298531
37	0x3dedcb55	0.11611048
38	0x3e0d0af6	0.13773713
39	0x3ccadbbb	0.024762979
40	0xbcab23bc	-0.020891063
41	0xbd02d236	-0.031938754
42	0x3c9838f6	0.018581849
43	0x3ce41428	0.027841642
44	0x3d45ecda	0.048321582
45	0x3cc511af	0.024056284
46	0xbd6bf911	-0.057610575
47	0x3db4f74d	0.088362314
48	0x3dd45933	0.10368576
49	0xbd8647be	-0.065566525
50	0x3d6bf0be	0.057602637
51	0x3ddffa1b	0.10936376
52	0x3d46da89	0.048548255
53	0x3df64127	0.120241456
54	0x3ca162f2	0.019700501
55	0xbd8fb47e	-0.07016848
56	0xbd9fe92e	-0.07808147
57	0x3def28cf	0.116777055
58	0x3a48f98d	0.00076665805
59	0x3d7fef50	0.062484086
60	0x3e2009f1	0.15628792
61	0xbcc39c35	-0.023878196
62	0xbda9fd5c	-0.083002776
63	0x3da764ca	0.08173521

net.15.weight f4 [64, 64, 3]
0	0x3d4cba1e	0.049982183
1	0x3d680aa0	0.056650758
2	0xbcf2f8c7	-0.029659642
3	0xbd2b4630	-0.041814983
4	0x3d8a0c0a	0.067405775
5	0xbd53903a	-0.051651217
6	0xbd42c38e	-0.047549777
7	0xbd284dcd	-0.04108982
8	0x3c85b594	0.016321935
9	0xbd6da617	-0.058019724
10	0xbd1cf377	-0.038318124
11	0x3c4470ba	0.011989767
12	0xbd556c07	-0.052104976
13	0x3b39ccd4	0.0028350847
14	0xbc997452	-0.018732224
15	0x3c655921	0.013998301
16	0xbcaf78a2	-0.021419827
17	0xbcb1f13a	-0.021721471
18	0x39ed9bef	0.00045320342
19	0x3c05e8f8	0.00817322
20	0xbd38055b	-0.044926982
21	0xbd62e5c6	-0.05539491
22	0xbd92e03a	-0.07171674
23	0xbd65125e	-0.05592572
24	0x3ac7fba6	0.0015257492
25	0xbd5cb0bb	-0.05387948
26	0xbd5cd0c4	-0.053910032
27	0xbccd23e2	-0.025041524
28	0xbcde6d56	-0.027151745
29	0x3d92b700	0.07163811
30	0xbc3ab256	-0.011395058
31	0xbd25bed8	-0.040465206
32	0x3d02c260	0.03192365
33	0xbd64a1c0	-0.05581832
34	0x3d53fb52	0.05175335
35	0x3d41cefe	0.047316544
36	0xbd1815a6	-0.03713002
37	0x3a3408ec	0.00068677845
38	0x3d16f136	0.03685113
39	0xbc48b214	-0.012249488
40	0x3d8c6598	0.06855315
41	0xbd8d178c	-0.06889257
42	0x3ba14006	0.0049209623
43	0x3cc9ba79	0.02462505
44	0xbd791e20	-0.060819745
45	0x3d459b33	0.048243713
46	0x3cbf996c	0.023388587
47	0x3c0a356e	0.00843559
48	0x3d3620b6	0.04446479
49	0xbcafd34d	-0.02146306
50	0xbd51c29c	-0.051210985
51	0xbbd5949f	-0.006517961
52	0xbd210c16	-0.039318167
53	0xbaac30a2	-0.0013137052
54	0x3d71b5b2	0.05901117
55	0x3d09447a	0.03351257
56	0x3d7f66e0	0.06235397
57	0xbd6de538	-0.05807993
58	0x3d742fc7	0.059615877
59	0xbd080d1d	-0.03321563
60	0xbd852b37	-0.06502383
61	0xbcc5b1bc	-0.024132602
62	0xba0e8dbc	-0.000543799
63	0x3cb86036	0.022506814
64	0xbd440108	-0.047852546
65	0x3d44282e	0.04788988
66	0x3d655cde	0.05599677
67	0xbd01f1f0	-0.03172487
68	0x3bcd7e7e	0.0062711826
69	0xbd52550c	-0.05135064
70	0x3d517d46	0.05114486
71	0xbd8391f8	-0.06424326
72	0xbd461c47	-0.04836681
73	0x3c291206	0.0103192385
74	0xbd487ff9	-0.04895017
75	0xbd855ff5	-0.06512443
76	0x3d91351a	0.070902064
77	0xbcafeb20	-0.021474421
78	0x3d06d189	0.032914672
79	0x3b7d06ac	0.0038608713
80	0xbd2b1e90	-0.041777194
81	0xbd914ced	-0.070947506
82	0x3d65e77e	0.05612897
83	0x3c0f7cf4	0.0087578185
84	0xbd238a82	-0.039927013
85	0x3d35a13e	0.044343226
86	0x3d27e682	0.040991314
87	0x3d2fbb14	0.04290302
88	0x3d68a47e	0.056797497
89	0xbd664937	-0.056222167
90	0x3d34181a	0.043968298
91	0x3c84e29e	0.01622134
92	0x3d3ef61b	0.046621423
93	0x3d655207	0.05598643
94	0xbd0edb0a	-0.03487686
95	0x3c72437e	0.014786599
96	0xbaa59cfb	-0.0012635285
97	0x3d08bab6	0.033381186
98	0xbca10f84	-0.019660719
99	0x3c67df1e	0.014152316
100	0x3d05cbb2	0.032664962
101	0xbcdd0220	-0.026978552
102	0xbd869ce2	-0.06572892
103	0x3d3171e2	0.043321498
104	0x3d23a22b	0.039949577
105	0xbd847463	-0.064675115
106	0xbc36aed8	-0.011150084
107	0xbd59dadf	-0.053187247
108	0x3cda6e2f	0.026663868
109	0xbbe246fd	-0.006905435
110	0x3d077bf0	0.03307718
111	0x3a5a7c8a	0.0008334598
112	0xbcbd6c6d	-0.02312299
113	0x3c843fa6	0.016143631
114	0x3c9c9595	0.019114295
115	0x3d6a0ee0	0.057143092
116	0x3d8a4ea6	0.06753282
117	0x3d5bf836	0.05370351
118	0x3ca9fb90	0.020749837
119	0xbafa0248	-0.0019074166
120	0xbd58d7ad	-0.05294006
121	0xbcd45ae2	-0.025922243
122	0x3d890530	0.066904426
123	0x3d5538a2	0.052055962
124	0x3d6c518a	0.05769495
125	0x3d02cbc4	0.031932607
126	0xbd277aa2	-0.040888436
127	0x3d86f42c	0.06589541
128	0x3d21f0a8	0.03953615
129	0xbd8d3297	-0.06894415
130	0x3c83ae10	0.01607421
131	0x3d824c54	0.06362215
132	0xbd745865	-0.059654612
133	0x3d7ccc9c	0.06171857
134	0xbd0a100d	-0.033706713
135	0x3d86d471	0.06583489
136	0x3d10c15a	0.035340644
137	0x3cc89584	0.024485357
138	0xbd8ecc0e	-0.06972514
139	0x391da106	0.00015032673
140	0xbd7259fe	-0.059167854
141	0xbc4bd576	-0.01244103
142	0xbd3262d8	-0.043551296
143	0x3bd94a4e	0.0066311723
144	0x3c37c598	0.011216544
145	0xbd62928d	-0.055315543
146	0x3d734874	0.05939527
147	0xbd8e037d	-0.06934259
148	0x3bfd85a9	0.007736881
149	0x3d3bdcad	0.04586475
150	0xbd0ab31f	-0.03386223
151	0x3d1db684	0.03850414
152	0x3d8f6808	0.07002264
153	0x3d022856	0.03177675
154	0xbd6abefe	-0.05731105
155	0x3c82314b	0.015892645
156	0x3d962e05	0.07332996
157	0x3d1e6e46	0.038679384
158	0xbc28e5ca	-0.010308692
159	0xbd3e61f8	-0.04648015
160	0xbd51adf0	-0.05119127
161	0xbcded7f7	-0.02720259
162	0xbbceb420	-0.0063080937
163	0x3c2fcac6	0.010729497
164	0xbd8eefc8	-0.069793284
165	0x3ce1a7d0	0.02754584
166	0x3d71d00e	0.059036307
167	0xbd2fbac8	-0.042902738
168	0xbd1c8ec1	-0.03822208
169	0xbbfef292	-0.0077803815
170	0xbc8db94a	-0.017300267
171	0x3cfd93db	0.030954292
172	0x3abecf3a	0.0014557608
173	0x3d3572d8	0.044298977
174	0x3cae6a8c	0.02129104
175	0xbd22e8a4	-0.039772645
176	0xbc5259bc	-0.012838777
177	0xbc5c614b	-0.013450931
178	0xbd08d805	-0.033409137
179	0x3a456904	0.0007530602
180	0x3e5c281b	0.21499674
181	0xbb6163c8	-0.003439175
182	0xbd2514f5	-0.04030319
183	0x3d484eae	0.04890316
184	0x3d626546	0.055272363
185	0x3d8f0d0a	0.06984909
186	0x3d299482	0.041401394
187	0x3ce80946	0.028324734
188	0x3b3dea5a	0.0028978796
189	0x3d6069e5	0.05478849
190	0xbc871ada	-0.016492296
191	0x3bc58ca4	0.0060287286
192	0x3c9311e8	0.017952874
193	0xbd68ef41	-0.056868795
194	0x3c70da04	0.0147004165
195	0xbd5ee2a7	-0.05441537
196	0xbd1485a6	-0.03626027
197	0xbd752084	-0.059845462
198	0x3cd45184	0.025917776
199	0x3d7a953b	0.061177474
200	0xbd5f713d	-0.05455135
201	0x3cb348ac	0.021885239
202	0x3d1e3c80	0.038631916
203	0x3c4721c6	0.012154048
204	0xbcf2b060	-0.029625118
205	0xbc9db700	-0.0192523
206	0xbd4bf9ac	-0.049798653
207	0x3d954ad4	0.07289663
208	0xbd48e1ac	-0.049043342
209	0x3c94d478	0.01816772
210	0x3dd06f4d	0.10177479
211	0xbd8bf4a3	-0.0683377
212	0x3d37f70e	0.044913344
213	0x3c99c599	0.01877098
214	0xbc59a942	-0.013284983
215	0xbcd951d8	-0.026528284
216	0x3d6459b0	0.055749595
217	0x3d64104c	0.055679604
218	0xbd3f5137	-0.046708312
219	0x3ddc3e43	0.10754063
220	0xbd7046a7	-0.05866113
221	0x3d033b8a	0.032039203
222	0xbd84dd9e	-0.064875826
223	0xbcc2b976	-0.023770075
224	0xbcab2e98	-0.020896241
225	0xbd358d01	-0.044323925
226	0x3d873f72	0.06603898
227	0xbd545e55	-0.051847775
228	0xbd40ba29	-0.047052536
229	0x3d11c010	0.035583556
230	0xbd86feae	-0.06591545
231	0xbd9352fd	-0.07193563
232	0x3c6dca28	0.01451353
233	0xbd021532	-0.031758495
234	0x3d57187b	0.05251358
235	0x3d27031a	0.040774442
236	0x3d84f98c	0.0649291
237	0x3d33a4a2	0.043858178
238	0xbb44f6df	-0.0030054373
239	0xbd6bc143	-0.057557356
240	0xbcb51696	-0.022105496
241	0x3d8c4f5a	0.068510726
242	0x3d5659bc	0.05233167
243	0x3bef4ff7	0.0073032337
244	0x3d182a82	0.037149914
245	0xbd83bf96	-0.064330265
246	0x3d87241d	0.06598685
247	0xbc046cd6	-0.008082589
248	0x3d01a4f6	0.03165146
249	0x3d3d1503	0.046162616
250	0xbce87e24	-0.028380461
251	0xbd2d8f6e	-0.042373113
252	0x3b8f41f0	0.004371874
253	0xbd2a4a1a	-0.041574575
254	0x3c82ed10	0.01598218
255	0x3d0410d7	0.032242622
