model_artifacts/dl_tcn_weights_ret20_48800_50300.pt (torch, 378717 bytes, 20 tensors)

net.0.weight f4 [64, 30, 3]
000000 df 89 23 3d d4 d4 a5 3c a4 2c c5 3c d4 97 89 bb
       0.039926406 0.020243086 0.024069138 -0.0041990075
000010 26 8a 67 3c 6f 09 e0 3c 06 a0 10 be 19 a2 d2 3d
       0.014132058 0.027348248 -0.14123544 0.10284824
000020 ea 39 44 bc 4a c7 43 3d be f8 18 3d d7 4f e5 3b
       -0.011976698 0.04779748 0.037346594 0.006998043
000030 a2 38 fa bd 76 1b 91 3d f0 28 99 3c 58 ea 01 be
       -0.12217833 0.07085316 0.018696278 -0.12687051
000040 c6 21 33 3d 1f 4d a5 bd b9 d0 fb 3c ba 09 34 3d
       0.04373338 -0.0807135 0.030739175 0.04395459
000050 c7 e0 1f 3c 76 35 e1 bd e4 91 0b bd a9 3d ea 3c
       0.009758181 -0.10996525 -0.03407468 0.028593855
000060 0a 12 4c 3d 40 0a 8e 3d f0 63 9e bd 3d 74 a5 bc
       0.04982189 0.06935549 -0.07733905 -0.020197028
000070 96 95 8a bd 7d 51 33 3d c0 3f b6 bc 45 5c c3 3c
       -0.067668125 0.043778885 -0.022247195 0.023847708
000080 93 5d 14 3c e2 1e 5e 3d b7 c9 d4 bb a0 e1 8d bd
       0.009055513 0.05422867 -0.006493773 -0.069278
000090 5a 48 0b 3c 28 28 33 3c 7f 01 d3 bd 95 61 5e 3d
       0.008501137 0.010934867 -0.1030302 0.05429228
0000a0 02 fe 87 3c ab af cf ba 53 aa d3 3a f3 a5 90 3d
       0.016600613 -0.00158452 0.0016148783 0.07062902
0000b0 bf 00 1b bc 89 dc 73 3d db c3 23 3c ba 33 ee ba
       -0.009460627 0.05953649 0.009995426 -0.0018173375
0000c0 db 8c 94 3c 07 47 65 3d 61 47 e1 bb 39 71 a8 3d
       0.018133571 0.05597594 -0.006874964 0.082247205
0000d0 2a 34 85 3d 4e 02 a4 bd 1b 8a 27 3c 0b d1 72 bd
       0.0650409 -0.08008252 0.010225798 -0.05928139
0000e0 aa 19 b2 bd 68 b4 20 bd 2d c8 40 bd 89 ba 51 bd
       -0.08696301 -0.03923455 -0.047065903 -0.051203284
0000f0 c3 0a d1 bd bb 71 88 3d 4c a5 ff 3c 59 1a 0a 3d
       -0.10207131 0.06662317 0.03120675 0.033716533
000100 a1 98 ee 3b b2 ca 9d bd 5e a7 f2 bc 75 16 8f bd
       0.0072813784 -0.07704677 -0.029620823 -0.06986705
000110 b4 77 ea bc cb 33 61 bd 93 71 8d bd fb 20 20 bd
       -0.028621532 -0.054981034 -0.06906428 -0.039093953
000120 dc 76 a0 3d 4c df df 3b 4c 2e 98 bd 32 62 28 bd
       0.078351706 0.006832039 -0.074307054 -0.04110927
000130 56 12 c8 bc 61 9a 67 3d ea c5 d0 bd a7 86 7e bd
       -0.024422806 0.05654371 -0.10193999 -0.062140133
000140 5b ca c4 bc e2 81 88 bd 53 83 9f 3a b5 30 b7 bd
       -0.024022272 -0.06665398 0.0012169875 -0.08944837
000150 81 45 f3 bc aa c1 55 bc c7 8a 1f bd 31 c8 d1 3d
       -0.029696228 -0.013046661 -0.038950708 0.102432616
000160 e0 fe af bd 3b 45 bd bd 8b 4f c8 bb 92 b6 45 3d
       -0.085935354 -0.0924172 -0.006112998 0.048269816
000170 c7 54 77 3d 02 b6 ec 3d 48 d2 11 bd 8f cc d3 3d
       0.060383584 0.11558153 -0.03560093 0.10341751
000180 8f bd e5 3d ab bf c6 bd c2 0a a2 bc a6 09 c0 bc
       0.11217796 -0.097045265 -0.01978052 -0.0234421
000190 20 af 17 bd 4e ef 70 bd ae 3f a7 3d e1 11 e6 3c
       -0.037032247 -0.05882197 0.08166443 0.028084697
0001a0 72 89 7c 3d cb d7 6b bd c4 56 13 3c 73 48 ea bb
       0.061654516 -0.057578843 0.0089928545 -0.00714975
0001b0 63 59 72 3d a0 8f 60 bd 05 ee 66 3c b4 2e d0 b9
       0.059167277 -0.05482447 0.014094834 -0.00039707648
0001c0 3f 11 8f bd 19 7c 4f bd ad 3a bc 3b e4 f9 c5 3c
       -0.06985711 -0.050655458 0.0057442994 0.024167009
0001d0 8e e9 f7 bb e0 8a 4c 3d be 82 0c 3c 84 9e a6 3d
       -0.0075656837 0.04993713 0.008576093 0.08135703
0001e0 50 16 b9 3b e9 be b3 3d 53 ad cd 3b bc 33 6c 3d
       0.005648412 0.087766476 0.0062767654 0.057666525
0001f0 fc 5b 5a 3c f8 ef 9b bd c6 c2 d5 bc 0b ed 2b bd
       0.013327595 -0.0761413 -0.026093852 -0.04197411
000200 5c a3 10 3d f2 f9 79 bd c9 48 c6 bd dc 1b 96 ba
       0.03531204 -0.061029382 -0.096818514 -0.0011452395
000210 25 40 a5 bd 86 c6 b8 bc 0c 1d ca bc 2d c2 8b bd
       -0.08068875 -0.0225556 -0.024672054 -0.068241455
000220 b4 bc 44 3d 1e 59 08 bd 64 f8 52 3d b9 5b a9 bd
       0.048031524 -0.033288114 0.051506415 -0.08269448
000230 46 c1 87 bd c0 0d 4d bd 1e 19 91 bd 72 b5 ec 3a
       -0.06628661 -0.05006194 -0.07084869 0.0018059446
000240 fb 4f 10 bd a4 a2 1d 3d 9c a8 0d bd 09 73 1c bd
       -0.035232525 0.038485184 -0.034584627 -0.038195644
000250 9b f3 2d 3d ed 18 b9 3d c9 1e b1 bd 8c 4a 48 bc
       0.04246865 0.09037957 -0.0864845 -0.012224805
000260 31 81 a4 3d fd 7e 8e bc 01 29 3d bd f5 05 d2 3d
       0.08032454 -0.017394537 -0.046181682 0.102550425
000270 f5 26 81 3d 3a cd 08 bd fc b5 19 3c 66 57 08 3c
       0.063062586 -0.033398844 0.009381767 0.008321619
000280 10 fa 93 3d 06 99 ad bd e5 00 a3 bd d6 fb ce 3d
       0.0722543 -0.084764525 -0.07959155 0.10106628
000290 7c 2a b4 bd 15 f7 b0 bd 19 d3 98 3d 5c 2b 4d 3d
       -0.08797166 -0.08640877 0.07462139 0.05009018
0002a0 28 69 2c be a4 61 12 3d c0 de 4d bd d2 d1 dd bd
       -0.16836989 0.03573765 -0.05026126 -0.10831036
0002b0 08 58 ca bd b7 e8 d3 3d ac 2c 06 be 10 a9 2d 3b
       -0.09880072 0.10347121 -0.13102978 0.0026498474
0002c0 65 47 5a bd 4e f9 b1 bc 5c 16 28 3d 40 39 ab 3d
       -0.053290743 -0.021725323 0.04103695 0.08360529
0002d0 74 ef 1d bd 8c 20 cb 3a f5 5e 30 3d 95 3b f3 3d
       -0.03855844 0.0015497371 0.043059308 0.11876599
0002e0 e8 19 17 3d 16 47 82 3c 84 30 d0 3d ce 4f 74 3d
       0.03688994 0.015903037 0.101655036 0.05964642
0002f0 47 32 36 bd 36 2f bb 3d e9 b4 68 3c 03 f5 93 bd
       -0.044481542 0.09139864 0.014203289 -0.07224467
000300 0b a7 af 3d 46 9a 25 bd bb 82 ca 3d cb 86 12 3d
       0.08576783 -0.04043033 0.09888216 0.03577308
000310 52 b7 1b 3d 30 a2 e9 3c 50 0d 03 3e 59 5d 72 bb
       0.038016625 0.02851972 0.12798047 -0.003698191
000320 0e 82 b4 3d e1 9a 5f bd 32 96 e4 b9 01 af a8 3d
       0.088138685 -0.054591063 -0.00043599453 0.08236504
000330 5d 02 e3 bc 17 50 b9 3c 89 b4 85 3d 4f 43 be 3d
       -0.027711088 0.022621198 0.06528575 0.09290182
000340 74 1a ee 3c e5 a2 c3 3d 2b 1d b5 bd eb 26 da 3a
       0.029065348 0.09552554 -0.08843454 0.0016643679
000350 d1 dd 0f bd 29 90 06 bd a3 06 7e bd d3 ec 04 bc
       -0.03512365 -0.032852326 -0.062018048 -0.008113104
000360 55 51 bd 3c 2c 86 08 bd 58 76 a5 3c 18 72 2e bc
       0.023110071 -0.03333108 0.020198032 -0.010647319
000370 3b 27 6c 3d ac b6 80 3d 20 9b 96 3b ae e6 66 bd
       0.0576546 0.06284842 0.004596129 -0.056372337
000380 a3 7c b6 3d fd 81 a1 3c f3 48 cf 3d a1 c0 c8 3d
       0.08910491 0.019715304 0.10121336 0.09802366
000390 a8 35 a0 bc 82 f9 97 bd d5 0a 6f bd 7c 57 59 3b
       -0.019556835 -0.07420637 -0.05835994 0.0033163717
0003a0 f7 61 8f 3d 81 53 7b 3d 7a 42 b1 bd 73 25 8f bd
       0.07001107 0.061358932 -0.086552575 -0.06989565
0003b0 4a c6 01 bc 5c 7c 0b 3d ab ec 5f 3d 6e b8 cb bc
       -0.007920811 0.034054145 0.054669064 -0.024868216
0003c0 89 b1 d4 bd 56 af 15 bc bc ce 15 3b b7 08 9f bd
       -0.10385425 -0.009136042 0.002285882 -0.07765334
0003d0 3f 23 98 bd 72 f3 cf 3d 37 ed 81 bd 9a 48 c9 bd
       -0.07428598 0.101538554 -0.06344073 -0.09828301
0003e0 19 c8 dc 3c 96 c6 c8 bc 6f 78 8f bd 82 8a c0 3c
       0.026950883 -0.024508756 -0.07005393 0.023503546
0003f0 aa a4 4b bd 33 42 ba 3c 69 67 85 bd f9 a3 c7 bd
       -0.049717583 0.022736644 -0.065138645 -0.09748072

net.0.bias f4 [64]
000000 73 85 ab 3c e1 08 14 bc a9 26 ac 3d ab 3d c0 bc
       0.020937657 -0.00903532 0.08405811 -0.023466906
000010 f3 61 e6 b9 47 c8 8b 3d 45 77 13 bd 23 74 51 b9
       -0.00043941996 0.06825309 -0.036002416 -0.00019975058
000020 b4 6b b0 3d da f5 a4 3d e6 27 ef 3d 72 f4 77 3d
       0.08614293 0.08054705 0.11677532 0.060535856
000030 25 ac 8e 3c 4f 7b eb 3d c0 ff 17 bd b9 ff 58 3d
       0.01741607 0.114981286 -0.037109137 0.05297825
000040 fe 30 50 3c e5 a5 09 3e 1b b3 12 3d 09 0d 5c bd
       0.012706993 0.1344219 0.03581534 -0.05372337
000050 22 ba 04 bd 74 5b 1d ba 89 7b cc 3b d2 94 f1 3d
       -0.032404073 -0.0006002702 0.0062403125 0.11795963
000060 60 07 f3 bc ef e3 7f 3d be 59 b0 3d e4 98 81 bc
       -0.029666603 0.062473234 0.08610867 -0.015819974
000070 18 a7 15 3e 57 07 12 bd b3 f4 34 bd 70 bd 80 bc
       0.14614522 -0.03565153 -0.044178676 -0.01571533
000080 52 48 18 3e 06 23 05 3d 65 b5 81 3d f7 51 e6 3d
       0.14871338 0.032504104 0.063334264 0.11246102
000090 16 02 08 3e 28 da 7f 3d 09 df 88 3c cc 5a 02 3e
       0.13282046 0.06246391 0.016707914 0.12729949
0000a0 5c 3f 58 3d 64 4b 2d 3d e8 bf a1 3d 66 12 72 3d
       0.0527948 0.042308226 0.07897931 0.059099577
0000b0 4a ce 0e 3e 5a 44 ce 3d d1 a1 37 bd dd 90 29 3d
       0.1394588 0.10071631 -0.044832055 0.041397918
0000c0 a2 e4 b0 3c 82 11 cc 3d 8b 37 53 3c 22 18 80 bd
       0.021593396 0.09964277 0.01289166 -0.06254603
0000d0 10 a4 0b 3e 7c f3 5f 3d 21 ef 79 3d f5 fc 0e bc
       0.13636804 0.054675564 0.061019067 -0.008727302
0000e0 17 29 9d bb 19 75 26 3c 6a 19 c4 3c eb 4d d2 3d
       -0.004796158 0.010159754 0.0239379 0.10268768
0000f0 08 67 be 3d 76 37 0b bd 75 4b 28 3d 73 82 b7 3d
       0.092969954 -0.03398844 0.041087586 0.08960428

net.3.weight f4 [64, 64, 3]
000000 7d 52 09 3c dc 6e 5b 3d 2c 04 39 bb 65 b1 3d bd
       0.008381483 0.05357252 -0.0028231246 -0.046311755
000010 de bd 87 bd 78 85 69 3d d7 49 09 3d a1 52 64 3d
       -0.06628011 0.05701205 0.033517685 0.055742864
000020 af 38 18 bd 9d b8 ff bc 09 06 05 3b 5a bc 26 bd
       -0.037163433 -0.03121596 0.0020297787 -0.04070697
000030 26 aa aa bb 1e 46 72 3d 2d b5 7c 3d ca be 25 3d
       -0.0052082716 0.0591489 0.06169622 0.040465154
000040 db 50 a6 bc 59 9a 70 3c a4 eb 46 bd 9f 54 3c bd
       -0.020302227 0.014685237 -0.04856457 -0.04597914
000050 48 09 87 bd fb 1f 76 39 19 e8 84 3d e5 9e 80 bd
       -0.06593567 0.00023472302 0.064895816 -0.06280307
000060 9d da 96 bd 02 52 3d 3d a4 ae cc 3c 08 87 a0 bc
       -0.07365916 0.046220787 0.024985619 -0.019595638
000070 e1 98 7c bc 51 e2 6c 3d 86 29 3c 3d 4f 91 a9 bc
       -0.015417309 0.05783302 0.045938037 -0.020699171
000080 57 1d f5 bc aa 01 d1 3c 2b 56 14 bd ec d0 76 bc
       -0.029921217 0.025513489 -0.03621499 -0.015064459
000090 cb b9 11 3d e3 65 75 3d e5 1b 1f bb 2b e4 9c 3c
       0.035577577 0.05991162 -0.00242781 0.019151768
0000a0 68 59 92 bd cc 79 a8 39 f5 92 31 bd ca e1 77 3c
       -0.07145959 0.00032134203 -0.04335304 0.015129516
0000b0 3e 31 5b 3d f4 c4 07 3d 73 17 2c 3d e4 0e 27 bd
       0.053513758 0.033146814 0.04201455 -0.040785685
0000c0 c4 2e 44 bd 2c 58 64 bd c5 e7 23 bd 19 5d 9c 3c
       -0.04789616 -0.05574815 -0.040015955 0.019087361
0000d0 a3 44 a8 3c d8 2c 84 bd 0a fd bf bd bb 57 91 bd
       0.020540541 -0.06453866 -0.09374435 -0.070968114
0000e0 6e 8f d1 bc 3f d4 87 bd 27 cd bb 3c f3 8c 34 3d
       -0.025581088 -0.066322796 0.022924973 0.044079732
0000f0 e8 0e 76 3c 25 4d 39 bd c8 c2 8d 3d bc 6e 40 bd
       0.015018202 -0.045239586 0.06921917 -0.046980605
000100 b6 8c 86 3d 45 30 6d bd ca 7f 40 bd 59 9e 15 bd
       0.06569807 -0.05790736 -0.04699687 -0.036527965
000110 09 15 ee 3b 78 f5 cb bb fe 62 90 3d d2 91 78 3d
       0.007265691 -0.0062243305 0.07050131 0.06068594
000120 26 54 bb 3c f9 f9 a5 bc ec 50 27 bd 72 7f b6 bd
       0.022867274 -0.020260798 -0.040848657 -0.08911027
000130 69 20 55 bc 95 d3 02 3d 84 ba 42 bd f7 9d 36 3d
       -0.013008215 0.03194006 -0.047541156 0.04458424
000140 37 45 05 3d 27 65 2d bd 81 4a 67 bd c5 ad de bc
       0.03253671 -0.042332795 -0.056467537 -0.02718247
000150 cd 35 c4 bd 86 9d d4 bc e3 30 82 3d ee 69 74 3d
       -0.09580574 -0.02595402 0.06356981 0.059671335
000160 48 1d 91 3d 02 3e 81 bd c3 ba 1d bd 6a 25 1c 3d
       0.07085663 -0.06310655 -0.038508188 0.03812162
000170 ad 5f b7 3c 97 b2 88 bd ac 9b c0 bb 94 24 22 bd
       0.022384489 -0.06674688 -0.0058779325 -0.039585665
000180 73 9f 67 bd b3 b1 a2 3c fd f6 6a 3d 05 b5 73 bd
       -0.056548547 0.019860124 0.057364453 -0.059498806
000190 da f1 96 3c 7c 05 aa 3c f5 0e b7 bd e3 23 b8 bc
       0.01842587 0.020754568 -0.089384 -0.02247805
0001a0 7f 3c ea 3c ac a4 f7 bc fa a7 a5 3b 36 7d 28 3d
       0.0285933 -0.030229889 0.0050554248 0.041135035
0001b0 24 7b 8d bc a3 ca 1e 3d ea 60 07 3d eb 71 d9 bd
       -0.017270632 0.03876747 0.03305141 -0.10617431
0001c0 1a b5 1e 3d fc fa ff 3c c1 da 9f 3c 0b 80 de 3c
       0.03874693 0.031247608 0.01951349 0.027160665
0001d0 a7 73 8e 3d b2 6f 21 bd 84 c6 5c 3d 43 78 b2 3c
       0.06955653 -0.03941316 0.053900257 0.02178586
0001e0 8e de 25 bc d6 3a 5f 3d 65 a4 eb bc 0b f1 9f bc
       -0.010123862 0.05449947 -0.028764913 -0.019524118
0001f0 18 f6 49 bd 50 92 92 bd 5e eb 7d bd a5 c7 8a 3d
       -0.04930696 -0.07156813 -0.06199204 0.067763604
000200 d1 c1 83 bc 6c ae e4 3c 89 73 c8 3c 47 cc 58 3d
       -0.01608363 0.027915202 0.024469154 0.05292919
000210 d2 60 10 3d 75 aa 8a bc 70 8d 0f 3d 4a f7 b7 bd
       0.035248585 -0.016926983 0.035046995 -0.089827135
000220 15 88 89 3d 86 13 e6 3c 61 5d 06 bc fd 51 59 bd
       0.06715409 0.028085481 -0.008200974 -0.053056706
000230 92 9d f2 3c 34 70 a4 bd 70 02 ae 3c af 7a 56 bd
       0.029616151 -0.080292135 0.021241397 -0.052363094
000240 8b f6 8c 3d 86 f6 02 bd a7 a2 0a 3d 0b bc 83 3d
       0.06882962 -0.031973384 0.033846524 0.06432351
000250 3f 95 72 3a ff ab 49 3d c8 43 cd bc 2d 5e 85 bd
       0.0009253807 0.049236294 -0.025056735 -0.06512103
000260 0c b6 42 bd 8d fd b7 3c ac 70 5c bd 8f 56 36 bb
       -0.047536895 0.02245977 -0.05381839 -0.002782259
000270 16 3b dd 3c d3 c4 86 3d e5 f9 2f 3c 26 62 f0 3c
       0.027005713 0.0658051 0.010740732 0.029343676
000280 29 c2 12 3d e9 a5 55 bc 50 9e 12 3d 55 13 a6 3c
       0.035829697 -0.013040044 0.03579551 0.02027289
000290 ff 7b 83 bd 73 e4 2d bc d5 ce cb bc af b5 e7 bc
       -0.06420135 -0.010613549 -0.024878899 -0.028284876
0002a0 a9 9b 91 3c 3a bc 80 3d b8 f0 ca 3b ee 22 0a bc
       0.01777442 0.06285901 0.0061932467 -0.008431179
0002b0 6e d4 1c 3d 0e 13 4a bd c3 06 2a 3d 13 7e 29 bd
       0.038288526 -0.04933458 0.041510355 -0.04138
0002c0 4d bd e9 3c 00 bb 84 3c c8 ad 88 3b 96 f5 e8 bc
       0.028532648 0.01620245 0.004171107 -0.028437417
0002d0 f0 d1 9f bb a8 f6 2a bc 83 fa b6 bc e5 6f 62 3b
       -0.0048773214 -0.010434784 -0.02233625 0.0034551558
0002e0 14 45 ce 3b 22 c3 06 bc bf fb 89 bd 51 2e 76 bc
       0.006294856 -0.008225234 -0.0673747 -0.015025691
0002f0 27 8a 34 3d 84 df d8 bc eb 42 fe bc c2 7b 10 bd
       0.044077065 -0.026473768 -0.031037768 -0.035274275
000300 3e 72 a4 3d 9e 63 82 3d 52 7c 91 bc cf 85 c3 3b
       0.080296025 0.06366657 -0.017759476 0.005966879
000310 83 0d 23 bc bc ca 63 3d af 7c e3 3c a7 ea 79 3d
       -0.009951952 0.055613264 0.027769415 0.061014798
000320 a4 c6 88 bc 21 1c 1a bd 23 c0 8e bd 92 4e d0 3c
       -0.016696282 -0.037624482 -0.06970241 0.02542809
000330 07 4b 98 3c e0 17 4f bc e6 6d be bc 2c 2d 91 3c
       0.018590463 -0.01263997 -0.023245763 0.017721735
000340 74 46 66 3d 82 b1 5d 3c 5f 33 85 bd 83 f8 35 bd
       0.056219533 0.013531091 -0.06503939 -0.044426452
000350 a7 5e 90 bd cb b5 cc 3c 39 95 81 bd 0d d8 24 bd
       -0.070493035 0.02498903 -0.0632729 -0.040245105
000360 18 df 07 bd 2a 3e 54 bb d8 98 0c bd 07 ea d1 ba
       -0.033171743 -0.0032385685 -0.03432545 -0.001601518
000370 9b 92 5b bd dc 7f b8 3c b6 d5 14 bd f3 cb 82 bc
       -0.05360661 0.022521906 -0.036336623 -0.015966391
000380 80 bd 67 3d 37 98 ed bb c0 ce 0b 3c e2 d1 75 bd
       0.056577206 -0.0072508114 0.00853318 -0.060014613
000390 d5 1a 93 3d 0b 6c d0 3c 25 a7 28 bd 7f 63 47 3b
       0.07182852 0.025442144 -0.041175026 0.0030424295
0003a0 7c 62 9f bc 00 34 9c bc 5c bc 5f 3d f4 dd 15 3b
       -0.01945614 -0.019067764 0.054622993 0.002286789
0003b0 c6 ad 90 39 df 32 93 3d 67 38 a4 bc f8 90 82 3a
       0.00027595292 0.07187437 -0.020046426 0.0009961417
0003c0 c5 93 18 3d f0 1c 31 bd 23 d5 93 bc 46 a9 b9 3c
       0.0372503 -0.043240488 -0.018045967 0.022663724
0003d0 fe dc 90 bd a3 ff 67 bd a2 dc 95 bd 9a e2 92 3c
       -0.07073401 -0.05664028 -0.07317473 0.017930318
0003e0 35 30 59 3d 35 7a 09 bd 45 bb 30 3d 5d 2d 03 bc
       0.05302449 -0.03356381 0.043147344 -0.008006421
0003f0 0f ae e5 3c 3b 94 2f 3d af 4d 39 bd f3 a0 ad bc
       0.0280371 0.042865973 -0.0452401 -0.02119491

net.3.bias f4 [64]
000000 be cf 90 3d 2f 75 95 bc 23 82 9d 3d bf a5 9c 3b
       0.07070874 -0.018244354 0.07690837 0.0047805007
000010 69 86 82 3d ee f7 9e 3d e5 2f ee 3d 5f 36 d4 3b
       0.06373293 0.077621326 0.11630229 0.006476208
000020 fe f1 5c bc a6 0d 2b 3d e6 e4 b7 3d 8a 34 32 3c
       -0.01348543 0.041761063 0.08979206 0.010876784
000030 5c ef a5 3d 33 61 dc bc 6e 79 ad 3d d4 91 e3 3d
       0.08102295 -0.026901817 0.084704265 0.11111799
000040 30 55 b8 3d 4d 68 bb 3d 7d 02 cf 3d a0 55 15 3b
       0.09000623 0.09150753 0.101078965 0.0022786632
000050 6d b5 13 3c a1 8f 3f 3d e6 58 ea 3d 3a 5a 74 3c
       0.009015423 0.046767835 0.11442737 0.01491409
000060 dc 7c c6 3c 94 df ac 3c ef 2b 37 3d eb 4e b5 3d
       0.02422946 0.021102704 0.044719633 0.08852943
000070 bf a8 cc 3d 68 8d 62 3d ef 49 4b bc cd 31 de 3d
       0.09993123 0.055310637 -0.012407764 0.108493425
000080 41 e8 05 3c 48 5f 9f 3d f9 d7 a6 bd 23 55 7a 3c
       0.008173049 0.07781845 -0.08146662 0.015279087
000090 6d 9d 27 bc 8b 7c cb 3d 36 02 b9 3d 50 9b 46 3d
       -0.010230404 0.09935864 0.09033625 0.04848796
0000a0 f7 c9 46 3c 7d d3 1a bd ef 6e a4 bd df 51 75 3c
       0.012133113 -0.037799347 -0.080289714 0.014973133
0000b0 16 33 d7 3d 7e e7 07 3c 10 31 f5 3d aa 6a c1 3d
       0.10507791 0.008294938 0.119722486 0.09444173
0000c0 97 06 0a 3e d6 5a 2c bd 73 2e a7 3d c0 87 c5 3d
       0.13479076 -0.042078815 0.08163156 0.09645033
0000d0 4a 37 10 3d 82 96 2e 3d 08 9a 9a bc 6d f7 b1 3d
       0.035208978 0.042624004 -0.018872276 0.08689771
0000e0 47 99 cd 3d 87 33 64 3d 30 b1 e0 3d 32 3b ce 3d
       0.10039001 0.055713203 0.10971296 0.10069884
0000f0 b4 56 fb 3c 90 c9 c5 3d ef fb 49 3c b7 52 38 3d
       0.030680992 0.096575856 0.012328132 0.045000758

net.6.weight f4 [64, 64, 3]
000000 fb 7c e2 bc 3e 11 88 3b 5a 72 5e bd 4b a0 84 3d
       -0.027647486 0.004152446 -0.054308273 0.06475886
000010 37 0a a2 3c 57 18 5f bd 74 0e 2a ba 94 d1 1e 3d
       0.019780261 -0.05446657 -0.0006487139 0.038774088
000020 59 97 5f 3d ea 1b 5c 3d 08 52 01 3c 91 29 2f bd
       0.054587696 0.05373756 0.007893093 -0.04276425
000030 7f af f9 bc b7 3c 58 bd 63 2f 1d bd 70 ee 80 3d
       -0.03047919 -0.052792277 -0.03837527 0.06295478
000040 c8 9a 82 3c d8 45 cc 3b df 21 26 bc 6e 5b 15 bd
       0.015942946 0.006233912 -0.010139911 -0.036464147
000050 a3 ea 55 3d 09 1a 9a 3d d3 41 21 3d f1 0e 91 3d
       0.05222572 0.07524497 0.039369415 0.07082928
000060 c1 6a 2d bc 13 98 52 bd 42 8f 30 3d e5 d1 33 3b
       -0.010584534 -0.05141456 0.04310537 0.002743834
000070 0c dc 3e 3d 0f 6e 8a bb a5 0f 7c 3d a6 f5 f6 3b
       0.04659657 -0.004224546 0.061538357 0.007536608
000080 80 c8 08 3c 6a 5d 7d 3d 9e 4f 0d 3d 32 d1 8d bd
       0.008348584 0.061856665 0.034499757 -0.069246665
000090 a5 74 64 3d 54 a0 70 bd b8 63 4f bd b7 6c e0 3c
       0.055775303 -0.05874665 -0.05063221 0.02739559
0000a0 1c 58 df 3c d4 01 8f bd 5e 15 3a 3d ba 88 46 bc
       0.027263694 -0.069827706 0.045430534 -0.012117559
0000b0 9b 42 22 bc f7 b0 ec 3c 8c 75 35 3d 9e bb 1e bd
       -0.009903575 0.028892977 0.044301555 -0.038753144
0000c0 90 6f 13 3c be 7f a5 bc 46 42 55 bd 70 3b 10 3d
       0.008998767 -0.020202514 -0.052065156 0.035212934
0000d0 6f 0e f7 3c 10 9c 85 3b c8 62 79 3d cd 3c 50 3d
       0.03015825 0.004077442 0.06088522 0.050839234
0000e0 10 5d dc bc 4a 38 38 3d db 4e 69 bd bf a6 da bc
       -0.026899844 0.044975556 -0.056959968 -0.026690839
0000f0 6e 9a 29 bb 92 fc 98 3c cf e7 33 3d d3 f2 04 bc
       -0.00258794 0.018675122 0.04392224 -0.008114534
000100 40 db 18 bd 7e 6b f4 bc 44 ec e8 3a a5 3d 4f bc
       -0.037318468 -0.029836413 0.0017770608 -0.012648975
000110 c8 ef f3 3b 59 0d db 3c 83 73 21 bd f8 da 7f 3d
       0.0074443556 0.026739763 -0.0394168 0.062464684
000120 b7 0d 86 3d f8 0c 77 bd 06 45 8a bc f8 08 ac 3a
       0.06545585 -0.060315102 -0.016878616 0.0013125231
000130 a9 5d db bc 50 e3 84 bd 27 db 97 3d 36 0c 23 3d
       -0.02677806 -0.06488669 0.07414847 0.039806567
000140 40 bd 88 3d 0e 6e 79 3d 31 3f 67 bd 58 3f 59 bd
       0.066767216 0.060895972 -0.05645675 -0.053038925
000150 61 a3 6a 3d 3b 58 76 bd f6 8a 1a 3d a1 9e f2 bc
       0.057284717 -0.060142737 0.03773018 -0.029616656
000160 01 6b 8a bd 16 01 35 3d 1b 52 6c 3c 0e 72 90 bd
       -0.067586906 0.04419049 0.014423872 -0.07053004
000170 24 b1 33 3d 3a 06 b8 3c 1a da 03 3d ce ae 5a bc
       0.043870106 0.022463907 0.03219042 -0.013347341
000180 24 45 af 3d a9 67 39 3c 6f 3c c5 bc f0 0f c4 ba
       0.085581094 0.011316218 -0.024076669 -0.0014958363
000190 49 34 5f 3d 1c 22 cc 3c 9b e3 93 bc 19 04 28 bd
       0.054493222 0.024918608 -0.018052867 -0.041019533
0001a0 af 18 80 bc 86 49 a0 3d 17 b8 4b bc 2c 90 36 3c
       -0.01563677 0.078265235 -0.012434027 0.011142772
0001b0 07 16 b8 bc 4b a9 7c 3d ba f2 33 bc 55 3a 02 bd
       -0.022471441 0.061684888 -0.0109831635 -0.03179391
0001c0 0e ee 31 bd de 21 83 bd 91 4c c1 bc dc 9e 5d 3b
       -0.043439917 -0.06402944 -0.02359608 0.0033816611
0001d0 cf 68 44 3d a8 c2 1f 3d dc ac 9d 3c 92 06 93 3b
       0.047951516 0.039003998 0.019247465 0.004486867
0001e0 43 ea b7 3c 12 cd 61 3c ec a4 82 3d 00 10 9d 3c
       0.022450572 0.013781803 0.063791126 0.019172668
0001f0 68 8b 7f bc 34 ae fd bc 4f f2 33 bc 6e 4a 9e bc
       -0.015597202 -0.030966856 -0.010983064 -0.0193226
000200 98 3b 8b bd ba ed c8 3c 79 8a 7d bd ee 59 06 3d
       -0.06798476 0.02452742 -0.061899636 0.032800607
000210 39 5d d7 3c c7 65 53 3d 17 07 09 bd 53 50 a7 3c
       0.02628957 0.051610734 -0.033454027 0.020424044
000220 6d fe 8a 3d 50 81 ff bc 1e f7 a8 3d 7c 23 90 bc
       0.06786809 -0.03118959 0.08250259 -0.017595045
000230 5c ad 3a 3d fd 81 6d 3d 60 e1 fe 3c ef 06 d0 3c
       0.045575485 0.057985295 0.031113327 0.025393931
000240 2a 1e b8 3d 28 0e 90 bd 62 8a 00 3d 66 6e 2e bd
       0.08990128 -0.0703395 0.031381972 -0.042585753
000250 20 d6 13 3c e9 6a 27 bd 61 3f ab 3d b8 87 5b bd
       0.009023219 -0.04087344 0.08361698 -0.05359623
000260 29 8e 48 3d 0e 69 3e 3d b2 87 22 3d d4 55 95 bc
       0.0489637 0.046486907 0.03968019 -0.018229403
000270 9d c3 2b bc 84 11 2e bd 2a 40 8a 3d 69 21 ae bc
       -0.01048365 -0.042497173 0.067505196 -0.021256166
000280 01 34 31 3d d9 22 59 bd 86 17 fb 3c 7b 50 a3 3c
       0.043262485 -0.05301175 0.030650865 0.019935837
000290 3b 8c 6c 3c 28 b6 4f 3d 22 f9 24 3d 54 ac 78 3c
       0.01443773 0.050710827 0.040276654 0.015177805
0002a0 68 44 a8 3d a7 66 7c bd 52 d7 f5 3a 74 c9 f7 3c
       0.082161725 -0.061621334 0.0018756187 0.030247428
0002b0 ec 31 49 3c 1b 19 48 3d 87 36 f6 3c 2b ec 1c 3d
       0.012279969 0.048852067 0.030055298 0.038311165
0002c0 4e aa 47 3c d2 03 26 3c 4b bf 51 3d 60 ef 9b 3c
       0.0121866 0.010132747 0.05120782 0.019035041
0002d0 7e 13 df bc dd 96 3c bd 19 60 4f bd 1f d1 7d 3d
       -0.027230974 -0.046042312 -0.050628755 0.06196701
0002e0 6f 1c 68 bd 28 cf 51 bb 16 72 a2 3d a7 bc 8a bd
       -0.05666774 -0.0032014344 0.079319164 -0.06774264
0002f0 72 ae 06 3d b7 f2 e9 bc 51 87 87 3d a2 26 8d 3d
       0.032881208 -0.028558118 0.066176064 0.06892134
000300 ee 48 8a 3c f1 c9 78 3c ba 0b 14 bd cc 09 8d bd
       0.016880479 0.015184865 -0.036143996 -0.06886634
000310 29 bf 67 3d 87 f0 23 bd d3 db 7b 3c 14 de 8a 3d
       0.05657879 -0.040024307 0.015372234 0.06780639
000320 ff c8 55 3d 8b b3 00 bd e7 47 39 bd e4 e7 59 3c
       0.052193638 -0.031421226 -0.045234587 0.013299916
000330 5b fe e7 3c 12 58 e9 bc bd 3f cf 3a 7a c8 7d bd
       0.028319528 -0.028484378 0.0015811842 -0.061958767
000340 82 ef bd bc 0d 76 e2 3c 13 e5 f9 3c 29 fc 0c bd
       -0.023185495 0.027644182 0.030504739 -0.034420166
000350 c6 0f a3 3c a1 8f 52 3d 81 68 91 bd f0 05 19 3d
       0.019904982 0.051406506 -0.07100011 0.037359178
000360 2d 1d 29 3d 7a d5 8d 3d b0 4b 9f 3c b3 0d a9 3b
       0.04128759 0.06925483 0.01944527 0.005159104
000370 31 38 4a 3d 98 11 80 3d 67 9b a9 bb d0 b8 53 3d
       0.049369995 0.06253356 -0.005175996 0.051689923
000380 c4 ba 4f 3d af 87 6b bc d9 3c 5b bc ea ad e7 3c
       0.050715223 -0.014375611 -0.013381206 0.02828117
000390 ca 7d 88 bd 0d e5 67 bc 3e 7f 8c 3d d8 5c e8 bc
       -0.06664617 -0.014153731 0.06860207 -0.028364584
0003a0 43 09 93 bc c4 4b 2c bc 66 20 8e 3d 93 21 20 3d
       -0.017948752 -0.010516111 0.06939773 0.03909452
0003b0 f2 96 45 bd b4 49 7e bd 34 71 e9 bc 0d b2 5b bd
       -0.048239656 -0.062082008 -0.028496362 -0.0536366
0003c0 d2 d5 0a bd 69 8f 8d 3d 61 0b e4 bc 1b c9 44 bd
       -0.03389532 0.06912119 -0.027837457 -0.04804335
0003d0 7c 06 25 3d 29 cd 40 bd 6e 0a 7d bd d2 28 48 bc
       0.040289387 -0.047070656 -0.061777525 -0.012216764
0003e0 6a e0 cb 3b 36 48 3a 3c b4 ce 09 3d 42 ee f3 bc
       0.0062218206 0.0113697555 0.033644393 -0.029776696
0003f0 0d 8f 17 3d 8f 0b 55 bb 73 3d 74 3d 57 d6 d9 3c
       0.03700166 -0.003250811 0.059628915 0.026591463

net.6.bias f4 [64]
000000 41 3f 19 3e b5 61 2a 3e ba 43 73 3d 98 28 d7 3d
       0.14965536 0.16638835 0.05939076 0.105057895
000010 b7 2b 72 bd d8 75 e3 3c ba ae f1 3d b2 0a 02 3d
       -0.05912372 0.027766153 0.118009046 0.03174848
000020 36 f3 14 3e 8b 35 49 bd 81 19 da 3d 7f 12 85 3d
       0.14545903 -0.04912333 0.10649396 0.064976685
000030 fc 85 08 3e 9b 0b ee 3d ae 6c 23 3e 20 ef dd 3d
       0.13332361 0.11623307 0.15959427 0.10836625
000040 2b 60 3e bd 38 73 09 3e 3f bb 0b 3e 2b d8 1f 3e
       -0.04647843 0.13422859 0.13645647 0.15609805
000050 e3 ae 09 3e f9 1f 3e 3e 0d b4 9e 3d 17 96 d2 3d
       0.1344562 0.18566884 0.07749186 0.102825336
000060 ae 06 23 3d a0 41 45 bb b1 b9 08 3e 8b 74 2b 3e
       0.039801292 -0.003009893 0.13352086 0.16743676
000070 85 91 67 bc 77 b7 0e bd c3 d4 b9 3d 33 5d b1 3c
       -0.014133816 -0.034842934 0.09073784 0.021650886
000080 a9 9c ce 3c d8 18 59 3d e0 26 4c 3e fe 03 8f 3d
       0.025221186 0.05300221 0.19936705 0.06983183
000090 c5 f4 78 3d 48 04 cd bc cc 95 13 3e ad 86 ea 3d
       0.060780305 -0.025026456 0.14412612 0.114514686
0000a0 c4 28 31 3d 3d e3 54 ba c3 2e ac 3d ae 02 a3 3d
       0.043251768 -0.00081210193 0.084073566 0.079594955
0000b0 fb bc e7 3c df 7f 89 3d 1f 74 db 3c 4f b0 00 3e
       0.028288355 0.067138426 0.02678877 0.12567256
0000c0 c3 99 8a bd f6 61 af 3c c2 6e 19 3e ea 30 15 3e
       -0.06767609 0.021409016 0.14983657 0.1456944
0000d0 73 e3 95 3d 56 f9 24 bd 60 5b a7 3d 80 ad cc 3d
       0.07318773 -0.040276848 0.08171725 0.0999403
0000e0 1e 5f 04 bd 11 0b e7 3d 54 dd 65 3d 11 6b c9 3c
       -0.032317273 0.112814076 0.056119278 0.024587186
0000f0 87 9b 25 3e 4e f3 07 3d fb 91 96 3d 1e 08 3d bd
       0.1617261 0.033191018 0.07352062 -0.04615032

net.9.weight f4 [64, 64, 3]
000000 4b 56 00 3d b6 db 71 3d 4e 99 21 bd c1 cf 96 bd
       0.031332295 0.059047423 -0.039452843 -0.07363845
000010 c6 db 7f 3d dd 1a ab bc 46 ef 01 bd c0 b1 de bb
       0.06246545 -0.020886833 -0.03172233 -0.006796092
000020 6a 3c 0c 3c 9c 7d 64 3b ea 1b 5f 3d 1a 98 55 3d
       0.008559326 0.0034864908 0.05446998 0.05214701
000030 57 95 00 bd c2 f1 7f bd d7 43 e1 3b 69 68 f1 3c
       -0.03139242 -0.062486418 0.006874542 0.029468732
000040 95 b0 c3 3c f1 a8 69 bd 2b e7 65 bd af 11 6e bb
       0.023887912 -0.05704588 -0.056128662 -0.0036326458
000050 3c 18 88 3d 08 dd fd 3c b0 b6 62 bd 1b e8 41 bc
       0.06645247 0.030989185 -0.055350006 -0.011835123
000060 37 a1 82 bd 1f d6 ad bc e0 e8 80 bd aa cc 1d bd
       -0.063784055 -0.021220265 -0.062944174 -0.03852526
000070 c0 c8 8c bd 8b af f9 3a 21 13 6d bd dc 1c 2e bc
       -0.068742275 0.0019049508 -0.05787957 -0.010626998
000080 e9 fe 08 3c b0 45 a0 bb d8 b0 84 3d 2c 3b 90 bb
       0.008361557 -0.00489112 0.06479043 -0.004401585
000090 33 df 21 bd 78 62 82 bd c1 6b 84 3d bd d3 61 bb
       -0.0395195 -0.06366438 0.06465865 -0.0034458481
0000a0 0e c1 0d 3d 74 ed 8f 3d bd ca bb bc 92 76 17 bd
       0.03460794 0.070277125 -0.022923822 -0.03697831
0000b0 7c ce 8f bc 18 c9 1d bc 61 85 07 3c 81 56 41 3c
       -0.017554514 -0.009630464 0.008271546 0.011800409
0000c0 30 48 33 3d 49 23 1e 3d ff cc 87 bd 0b c2 71 bc
       0.043770015 0.03860787 -0.06630897 -0.014755736
0000d0 bf 6d 54 3d 7e af 9c 3c 31 38 01 bd bb 2f 68 bc
       0.051862475 0.01912665 -0.03154773 -0.014171536
0000e0 1e a1 7b 3d fb ac 88 bd d8 4a 00 3d 8d 4b 31 3c
       0.06143295 -0.066736184 0.031321377 0.010821235
0000f0 ae f9 81 3d b5 3c 80 3d 9d 7d 32 3d 4b 90 e2 3c
       0.06346451 0.06261579 0.043576825 0.027656695
000100 96 4e aa bc ad f6 27 bd a9 8e 52 bd 26 9e b6 3b
       -0.020789426 -0.041006733 -0.051405583 0.005573052
000110 91 2b 22 3d 95 c7 85 3d 8c 99 6d 3d 54 35 8d 3b
       0.03959233 0.06532208 0.05800776 0.0043093357
000120 67 4e 2a 3d 90 eb 03 3d 3f 54 0f bc f8 91 45 bc
       0.041578677 0.03220707 -0.008748113 -0.012058727
000130 fa 3f 34 3d ac 10 36 bd 24 dc 59 bc 9e e1 68 bc
       0.044006325 -0.044449493 -0.0132971145 -0.014213948
000140 2e 9f 45 bc db 61 3d 3c 9a 2e fd 3c 27 bd d7 3c
       -0.012061877 0.011558975 0.03090601 0.026335312
000150 76 49 7d 3d 1a cd 3e bd 63 e4 0d bc 18 25 58 3b
       0.061837636 -0.04658232 -0.008660409 0.0032981094
000160 57 70 42 3d 7d b0 50 bd ab c7 7d 3b 2c b9 56 bd
       0.047470417 -0.050949562 0.0038723748 -0.052422687
000170 49 33 d0 3c af 6f d5 3c b8 80 22 bd e2 ee 58 bd
       0.02541508 0.026054231 -0.039673537 -0.05296219
000180 80 62 1e bd f7 fc 73 bd e6 1d 3b 3d 40 d0 82 bd
       -0.038668156 -0.059567418 0.04568281 -0.06387377
000190 5b 44 54 bc d6 67 f1 bb 39 49 6d bd 0b 44 fb 3c
       -0.01295575 -0.0073671145 -0.05793116 0.030672094
0001a0 08 1a 81 bc b4 ca 83 3c f4 92 78 3d a0 57 85 bb
       -0.015759483 0.016087867 0.06068702 -0.0040692836
0001b0 89 9a d6 bc b2 37 95 bc 9d 31 66 bd ce 5c 89 3d
       -0.026196735 -0.018215034 -0.05619966 0.06707154
0001c0 ed f2 8a 3c 4c 73 32 3d c1 89 ad bc f5 29 ef ba
       0.01696154 0.043566987 -0.02118385 -0.0018246757
0001d0 c1 4d d6 bc e4 e2 ca bc 04 3b 13 bd 20 d2 50 bd
       -0.026160123 -0.024766393 -0.035944954 -0.05098164
0001e0 f2 9e 97 bd 78 05 30 3d a2 1c 92 bd a3 ae e7 bc
       -0.07403363 0.042973965 -0.071343675 -0.028281515
0001f0 54 aa 30 3d 1c 1c e1 3b 10 ee 51 3b d5 1c 2c 3d
       0.043131188 0.006869806 0.0032032765 0.042019684
000200 42 ad 99 bc 2e f4 59 bc 5e 55 c5 bc 6d f9 ea bb
       -0.018759374 -0.013302846 -0.024088558 -0.007170847
000210 06 40 de 3b a8 2d d2 bb ec e4 60 ba 3c 02 8b 3d
       0.0067825345 -0.006414134 -0.0008579034 0.067875355
000220 0e 45 8c bc 83 64 e9 3c 40 56 18 bd a1 46 b8 3c
       -0.017122772 0.02849031 -0.03719163 0.022494616
000230 54 52 09 3d 48 8e 47 3d 00 27 f8 bc 60 24 e9 bc
       0.03352578 0.048719674 -0.030292034 -0.028459728
000240 e9 dd 49 3d 7a 2c 79 bd 72 1a ae 39 cc 97 f8 3c
       0.049283896 -0.06083343 0.0003320757 0.03034582
000250 cc 9c 0c bd 68 e8 46 bc b0 6b 88 bd c7 d8 bb 3b
       -0.03432922 -0.012140371 -0.06661165 0.005732629
000260 2f b4 44 bc 2f 2c 86 bc 6a e4 53 3d e9 88 82 bd
       -0.01200585 -0.01637849 0.051731504 -0.0637377
000270 62 39 ab ba e6 7f 81 3d b6 5d c8 3b 04 7b 2e bd
       -0.0013063366 0.06323223 0.006114687 -0.042597786
000280 35 aa 1d 3d 78 e1 04 bd 9b 38 43 3d 1c 6d 0f 3d
       0.0384924 -0.032441586 0.047661405 0.035016164
000290 17 7d 12 3d 73 4e 98 3c 07 1f b9 3c 79 d5 66 bc
       0.035763826 0.018592095 0.022597803 -0.014088982
0002a0 56 95 8f bd e8 cf 13 bc cf 45 ab 3c 2d f7 9d bd
       -0.070109054 -0.009021737 0.02090731 -0.07713161
0002b0 e2 a5 50 3c 3b a1 54 bd f1 e9 d8 bc 93 bc a0 bc
       0.012734862 -0.051911574 -0.02647874 -0.01962117
0002c0 32 7d 07 bd 3d c8 15 3c fd 08 8b bd ee c8 e9 3c
       -0.03307838 0.009141979 -0.06788824 0.028538194
0002d0 f3 7b 23 bc f0 ca 36 bd 15 62 36 bd 4f fe 8e 3c
       -0.009978282 -0.04462713 -0.044527132 0.017455248
0002e0 e5 fd 88 bd ef f5 36 bc c8 ea ec 3c c5 4b 86 3b
       -0.066890515 -0.011167034 0.028920546 0.004098388
0002f0 8c 00 86 3d 42 4c f1 3c 68 52 bf 3c ad d6 8f bd
       0.06543073 0.029455308 0.023354724 -0.07023368
000300 f3 f1 91 3b 0f 60 52 bd b1 79 6a 3b 32 a8 c2 3b
       0.0044538914 -0.05136114 0.00357781 0.0059404606
000310 ad fc e7 3c 96 f8 24 bd 70 1f 9d 3d 2f 72 50 bc
       0.028318727 -0.040276133 0.07672012 -0.012722536
000320 a2 5b 2d bd 13 d1 83 bb 23 56 b3 bc 70 88 6d bb
       -0.042323716 -0.0040227263 -0.02189166 -0.0036244653
000330 55 42 1d bc 43 6e 65 3d 50 af a0 3c a7 cf 21 3c
       -0.009598334 0.056013357 0.019614846 0.009876168
000340 d4 ad 91 3c 19 b9 a8 3c 61 7a 7a 3d 3f 00 58 3d
       0.017783083 0.020596074 0.061151866 0.05273461
000350 be 87 64 3d 23 7d 19 bd 17 a0 10 3d 8b c5 62 bd
       0.055793516 -0.037472855 0.035308924 -0.055364173
000360 89 9e b9 bc ed ba a5 3b 48 51 cc bc 9c 33 8c bd
       -0.022658603 0.0050576837 -0.024941102 -0.06845781
000370 1f 91 8f 3d f7 e4 02 bd c3 18 01 bd 40 2c 8f bd
       0.070101015 -0.03195664 -0.031517755 -0.06990862
000380 78 fe 8a bd 57 0f 80 3c c2 6a 5a 3d 87 21 4e bb
       -0.06786817 0.015632315 0.05332447 -0.003145309
000390 b8 3a 77 3c e5 3f aa 3c 69 e3 f4 bc 0e 95 f6 3c
       0.015089683 0.02078242 -0.029893594 0.030100372
0003a0 66 e5 1f 3d 3a a4 6b bd 5f cf da bc 48 a4 23 3d
       0.03903713 -0.057529666 -0.02671021 0.039951593
0003b0 a9 ce 6f bd d9 30 72 3d 6f 68 27 3c c8 4b b1 bc
       -0.058546696 0.059128616 0.01021777 -0.02164258
0003c0 ae 9b 47 bc 0b 7e 46 3c e3 6a 92 bd e2 a2 89 3d
       -0.012183113 0.012115012 -0.07149293 0.067205206
0003d0 de 92 5d 3d 8c 48 69 bd cc 98 53 bd f1 e5 42 bd
       0.05409514 -0.05695395 -0.05165939 -0.04758257
0003e0 5e 15 eb 3c 68 4b 7b bc 90 ea 0a 3c 39 28 a8 bc
       0.028696712 -0.0153378025 0.008478776 -0.020526992
0003f0 09 ff 4f bc 04 f5 9a 3c a5 d4 bc bc 98 bb e9 3b
       -0.012695082 0.01891566 -0.023050616 0.0071329586

net.9.bias f4 [64]
000000 88 b9 c2 bc 45 91 01 3e 58 cb 08 3e 91 ac 10 3e
       -0.023770109 0.12653072 0.1335882 0.14128329
000010 63 02 9f 3d 12 07 27 3e 8b 70 0b 3e f4 4b f9 3c
       0.07764127 0.16311291 0.1361715 0.030431725
000020 af c4 f2 3c 7b b5 0f 3e 1e ca 0f bd 5f 35 31 3e
       0.029634802 0.14034073 -0.035104863 0.17305516
000030 28 55 de 3d f0 3a e4 3e 1a cc a1 3d 09 78 4d 3e
       0.10856086 0.44576216 0.079002574 0.20065321
000040 93 33 20 3e 45 9c 8a 3d 8c 87 26 3e 2e 99 8d bd
       0.15644674 0.06768087 0.16262645 -0.06913982
000050 9f cf 8d bd eb ef f1 bc aa 67 ae 3d e3 47 30 3e
       -0.06924366 -0.029533347 0.08515866 0.17214923
000060 95 68 f4 3d d6 21 65 3d 15 67 3c 3e 19 9e 53 bd
       0.1193401 0.05594047 0.18398698 -0.051664446
000070 aa d5 bd 3d 6f f8 34 3e 60 8a 02 3e 9d 0e db 3d
       0.09269269 0.17672895 0.12748098 0.10696147
000080 1c 2d fa 3d d4 06 fc 3d cb 5f 7f 3d f7 7b 49 3e
       0.12215635 0.1230599 0.062347215 0.19676195
000090 dc f2 3b 3e cd 46 6a bb 1c c9 ba 3d 9c 68 de 3c
       0.18354362 -0.0035747767 0.0912039 0.027149491
0000a0 6d f2 01 3e 3c 81 28 3e 59 cc 0e 3e 84 53 2e 3e
       0.12690134 0.16455549 0.1394514 0.17024046
0000b0 45 84 36 3e fc fa 12 3e 08 e6 6f 3b 56 85 b5 ba
       0.17823894 0.14353555 0.0036605615 -0.0013848941
0000c0 76 a6 a8 3d 0f f1 6e 3d b3 2d 3f 3d 70 f8 c7 bc
       0.08234875 0.05833536 0.04667444 -0.024410456
0000d0 e8 81 15 bd 1b 0f d3 3d 2c 7a 12 bd 88 0e ed bc
       -0.03650084 0.103056155 -0.035761043 -0.028937593
0000e0 29 fe 3e 3e 95 ff 30 3e 81 16 20 ba 89 75 d5 3d
       0.18651642 0.17284997 -0.0006106869 0.10422809
0000f0 ef ed dc 3d e0 bb 06 3e d8 d2 a3 bd 64 e9 05 3e
       0.1078757 0.13157606 -0.079992 0.13077313

net.12.weight f4 [64, 64, 3]
000000 f5 76 47 3c 03 8f 2a 3d fd c7 64 3d 4a b1 6c 3d
       0.012174358 0.041640293 0.055854786 0.057786264
000010 7d e0 44 bd c1 98 e5 bc af fc 0c 3d ed f4 53 bc
       -0.04806565 -0.02802694 0.034420665 -0.012936813
000020 e9 71 87 bd 71 db a2 3d 9f 59 f6 bc bf 05 92 3b
       -0.066135235 0.079520114 -0.030072032 0.0044562514
000030 ce 58 a3 3d 16 ed 52 bd 3c 81 83 3d e2 82 8c bc
       0.079759225 -0.051495634 0.06421134 -0.017152254
000040 a3 d5 7c bd 74 e9 06 3d 93 89 84 3d 93 bd 4f bd
       -0.061727177 0.032937482 0.06471553 -0.0507179
000050 f0 50 c8 bb 5f 6f 8b 3d 1a 5b a5 bc eb 6d 94 3c
       -0.006113164 0.06808352 -0.020185042 0.01811882
000060 10 22 39 bd 54 ec b5 bc 9e 1a bc 3b 1a b5 0b 3c
       -0.0451985 -0.022207417 0.0057404777 0.008527065
000070 14 37 13 bb f7 cb 60 3d f4 bc dd bb cb 9a 77 3d
       -0.002246325 0.054882016 -0.0067669097 0.060450356
000080 40 2a 73 3d 2e f2 7e bc 68 c6 0e 3d 35 4a 3e 3d
       0.059366465 -0.01556067 0.034857184 0.046457488
000090 39 f3 a9 3d aa 72 46 bb 99 5a da bc 36 90 6e 3e
       0.08298344 -0.0030280747 -0.026654528 0.232972
0000a0 4c c9 00 3c b5 99 88 bd 5d 6b cc 3b 80 f0 70 bd
       0.007860493 -0.06669942 0.0062383846 -0.05882311
0000b0 b6 44 0d 3d eb 19 c0 3d c6 41 c0 3c 05 42 a8 bc
       0.034489356 0.093799435 0.023468863 -0.020539293
0000c0 10 bb e6 3c 71 f2 f1 3c f0 7a 8c bc 63 00 9c 3d
       0.02816537 0.02953455 -0.017148465 0.07617261
0000d0 74 d9 23 bd ee d5 09 bb 9d dc 98 3d 76 11 72 bd
       -0.0400023 -0.0021032053 0.07463954 -0.059098683
0000e0 98 4f 96 3c 92 3a cd 3c 39 a8 87 bc ae 4d 20 bc
       0.0183485 0.025052343 -0.016559707 -0.009784145
0000f0 d4 97 d2 bc d5 c6 3c bd 20 b2 12 3d d8 c4 9b 3b
       -0.025707163 -0.04608806 0.035814404 0.00475369
000100 5c 27 92 3d d0 52 02 bc a6 04 3c 3c 8b da 8a bd
       0.071364135 -0.007954314 0.011475718 -0.06779965
000110 40 1e b0 3c ba bd c3 3b ec af 26 3d be ee 8b bc
       0.0214988 0.005973545 0.040695116 -0.017081615
000120 d9 5c c9 3d 63 a4 6e bd 3c 4f 8b bd 9e 2f 69 bc
       0.098321624 -0.05826224 -0.06802222 -0.014232544
000130 73 48 d4 3c ac 24 27 bd cd 82 e0 3c ab 65 dc bb
       0.025913453 -0.040806457 0.02740612 -0.006725987
000140 b6 64 26 3d 5c e3 5b bd ef 68 01 3d 7e a2 65 3d
       0.04062339 -0.053683624 0.031594213 0.056063168
000150 e8 72 b7 3d ab fc a5 3c 23 0a ce bb 6a b3 d6 3d
       0.089574635 0.020262083 -0.0062878295 0.10483439
000160 7c 2c 5d 3b 93 3a 80 3d 4e 37 0a bc ab 72 4a 3c
       0.0033748439 0.06261172 -0.008436037 0.012356441
000170 62 98 ba 3b db 23 b5 3d f7 c8 62 bd b4 80 ed bc
       0.005694435 0.088447295 -0.055367436 -0.028992034
000180 29 4b a4 bc f6 ba 55 bc ba ab 89 3d ea 33 40 3d
       -0.02005537 -0.013045063 0.06722207 0.04692451
000190 a6 6f e3 bc f3 a1 86 3d 38 fb 54 3c 05 c3 d7 bc
       -0.027763199 0.06573858 0.012999348 -0.02633811
0001a0 70 6b 04 bc 22 c1 99 bb 9e 79 41 3d 01 dd 5d 3d
       -0.008082256 -0.0046922127 0.047235124 0.054165844
0001b0 e8 d0 b6 3c 67 46 85 bd e7 a5 7e bd 2c b7 df bc
       0.022316411 -0.06507569 -0.062169936 -0.027309023
0001c0 db 9c 74 3d 19 e0 8b bd b9 6b 26 bc e3 05 bd bc
       0.0597199 -0.068298526 -0.010157519 -0.023074096
0001d0 c2 84 d4 bc e1 73 b4 3c f3 7d 11 bd dc 1f 64 bd
       -0.02594221 0.022027912 -0.035520505 -0.055694446
0001e0 1b 2b db bc 36 c0 31 3d 9e 8c 78 3c d9 1f b2 bc
       -0.026753953 0.043396197 0.0151702445 -0.021743702
0001f0 1d 1a 94 3c 83 27 42 bc 5a c9 8a 3c f2 57 52 3c
       0.018078858 -0.011850241 0.016941715 0.012838351
000200 e8 6b 6a 3c a8 01 c6 3c 9c 44 3b bd 3c 7e 22 3c
       0.014307953 0.024170712 -0.045719728 0.009917792
000210 60 08 a7 3c c1 3a 1d bd 91 a4 15 bd 3b f6 79 3c
       0.020389736 -0.03838611 -0.036533896 0.01525646
000220 da 44 8b bd 00 05 54 bd 41 90 92 bc 6e c4 4e 3c
       -0.06800242 -0.05176258 -0.017891051 0.012620075
000230 69 af be 3b 8e fe 0c 3c be db 47 bd a3 98 84 bd
       0.0058192504 0.008605612 -0.048793547 -0.06474426
000240 36 c0 4f ba dc d0 2e bd 73 2f c3 bc cf de d7 bc
       -0.0007925065 -0.042679653 -0.023826336 -0.02635136
000250 3d 8e 2d bd a3 c8 91 bd 80 28 87 3d b2 ae 90 bd
       -0.042371977 -0.071183465 0.06599522 -0.070645705
000260 9b bc 48 3d f5 ab bb bc 58 53 00 bb f8 d0 47 3d
       0.049007993 -0.022909144 -0.0019580927 0.048783273
000270 a8 41 03 bc 69 61 12 3d ba 00 63 3d ee 81 06 3d
       -0.008011259 0.03573743 0.055420615 0.032838754
000280 8e eb 76 bd 52 4f 20 bc cd e0 ce bb ad a9 a0 3c
       -0.060283236 -0.009784536 -0.0063134194 0.019612158
000290 8a f0 ba 3c 18 f9 25 3c de 58 f6 bb ae 54 80 bc
       0.022819776 0.010130189 -0.007517918 -0.015665378
0002a0 87 94 01 3d ec a4 ad bc 13 c3 55 bd 03 4a 81 3d
       0.031635787 -0.021196805 -0.05218799 0.06312945
0002b0 54 3e 6a 3d b3 81 0a 3d 43 34 2b bd 9a d9 00 3d
       0.057188347 0.033815097 -0.041797888 0.03145752
0002c0 cb 20 92 3d 15 7d 78 3c d8 3c 45 3b ea e8 7f 3c
       0.07135161 0.015166541 0.003009608 0.015619496
0002d0 4d 4b d9 3c 39 3a e5 bc 68 c7 f7 3c da 6f a9 3d
       0.026525164 -0.027981864 0.030246451 0.08273287
0002e0 9c 18 06 3d 20 72 bb 3c 51 e4 96 3d 73 07 d5 bc
       0.032738313 0.022881567 0.07367767 -0.026004529
0002f0 f8 46 b8 3c 42 d1 f4 3c d6 c1 41 3d 38 eb ae 3b
       0.022494778 0.029884938 0.047303997 0.005338099
000300 50 07 52 3d b4 b7 71 3c 71 fd fe bc b6 b4 dd 3c
       0.051276505 0.014753271 -0.03112671 0.027063709
000310 91 39 58 bd 71 f5 32 bd 15 be 69 3d 35 3b f9 3c
       -0.052789275 -0.043691102 0.057066042 0.03042374
000320 ec a7 63 bb 48 66 7b bc 18 17 8f 3d da 79 76 bd
       -0.003473754 -0.01534421 0.06986827 -0.0601748
000330 0b 3f 4a 3c 90 20 67 bd 1d 78 70 bd c9 b4 f4 bc
       0.012344132 -0.05642754 -0.0587083 -0.029871361
000340 d3 8d a9 bc d4 a2 37 3b 5f ef 03 3d 3f 99 c3 3c
       -0.02069751 0.0028020637 0.032210704 0.023876784
000350 19 df bb 3b 55 3b 2f 3b d3 59 c5 bc 3d 9e 6c ba
       0.0057333824 0.0026738246 -0.024090683 -0.0009026265
000360 80 84 9b 3c 14 ad 83 bd 94 b3 ec 3c 89 a8 c3 3c
       0.01898408 -0.064294964 0.028894223 0.023884075
000370 34 ed 62 3d ec df 37 bd 23 43 2a 3d 3c c4 2e 3d
       0.055401996 -0.044891283 0.041567933 0.042667612
000380 71 7a 92 bd 19 d1 4f 3d 75 2e 94 bc 75 f2 82 3d
       -0.0715226 0.05073652 -0.018088559 0.06393901
000390 28 de 1b bd 1d 0b 07 bd 01 82 1a 3d a5 8d 31 3e
       -0.03805366 -0.032969583 0.037721638 0.1733919
0003a0 94 08 da bc ae 44 a7 bc 25 ba e8 bb b4 25 66 3b
       -0.026615418 -0.020418491 -0.0071022683 0.0035117688
0003b0 21 ca c7 bc 9d 5e 48 3d f0 6f 51 3d 99 78 5a 3d
       -0.024388375 0.048918355 0.051132143 0.053337667
0003c0 05 66 68 bc 5e 73 09 3d a4 ca d6 bc fd 3c 84 3d
       -0.01418448 0.03355729 -0.026219673 0.06456945
0003d0 d7 e0 3f b9 2f 66 8a bc 65 72 a6 3d c8 58 25 bd
       -0.00018298939 -0.016894428 0.08127288 -0.04036787
0003e0 33 6c 49 3d 56 41 c5 bb 37 89 3f 3d 8f 87 35 3d
       0.049175452 -0.0060197515 0.046761718 0.044318732
0003f0 2b 4c d0 bb 53 6b b8 3c cc ce a4 bc de 5b 0a bd
       -0.006356736 0.022512114 -0.02011814 -0.033779018

net.12.bias f4 [64]
000000 1e fb 0f 3e f7 17 4a 3e ba 56 06 3e 5d 62 1c 3e
       0.14060637 0.19735704 0.13119021 0.15271898
000010 8d 46 25 3e 82 aa 63 3e d8 0d 26 3e 24 35 4d 3e
       0.16140194 0.22233012 0.16216218 0.20039803
000020 00 ab 37 3e 41 f3 70 3e 15 02 37 bd 68 52 46 3e
       0.17936325 0.23530294 -0.04467972 0.19367373
000030 44 91 1b 3b 80 37 4f 3e 3d 4a 16 3e 34 53 19 3e
       0.0023737708 0.20236015 0.14676757 0.14973146
000040 f5 4d 94 bd 41 b1 46 3e 44 96 2a 3e 90 01 57 3e
       -0.072414316 0.19403554 0.16658884 0.2099669
000050 2e e8 19 3e 17 89 39 3e 41 8e aa bd ae b0 49 3e
       0.15029976 0.18118702 -0.08327914 0.19696304
000060 f2 e3 56 3e 47 6c 65 3e bd 4e 0a 3e c1 86 e2 3d
       0.20985392 0.22404586 0.13506599 0.110608585
000070 52 eb 4e 3e fd 4d ee 3d 9e 56 74 3e 86 75 4b 3e
       0.20206955 0.11635969 0.23861167 0.1986905
000080 1a 23 98 bd 3f ea 3d 3e f9 cb 6f 3e 2f 26 21 3e
       -0.0742857 0.18546389 0.23417653 0.15737222
000090 a4 21 0d 3e 2f 20 36 3e 75 27 36 3e 29 bc 2e 3e
       0.13782364 0.17785715 0.17788489 0.17063965
0000a0 b5 d2 87 bd 4a 34 37 3e fc c3 07 3d 23 96 24 3e
       -0.06631986 0.1789104 0.03314589 0.16072898
0000b0 66 ad 10 39 bb 3c 07 bd 5b e2 37 3e ff 17 9d bd
       0.00013797506 -0.0330169 0.17957442 -0.076705925
0000c0 c7 c7 71 bd 4c 9b f0 3d 07 55 22 3e 3b 84 2d 3e
       -0.059028413 0.117483705 0.15852748 0.16944973
0000d0 75 a5 1d 3e 03 01 fe 3d 61 32 72 3e 67 7c 1f 3e
       0.15395148 0.12402537 0.2365203 0.155748
0000e0 e5 1d 18 3c 47 df 5b bb cb e7 28 3e 13 b5 39 3e
       0.009284471 -0.0033549832 0.16494672 0.1813548
0000f0 59 c3 1b 3e 7d 0c a9 bd c6 02 2f 3e 5b 45 2f 3e
       0.15211238 -0.08254335 0.17090902 0.17116301
