model_artifacts/dl_tcn_longcpu_25000_27000.pt (torch, 378549 bytes, 20 tensors)

net.0.weight f4 [64, 30, 3]
0.10431948 0.08672896 -0.024479482 0.1287971 -0.022894546 0.021085473 -0.01807022 0.061366405
0.09211393 -0.043826614 0.09082392 0.019556602 0.10999932 0.0141514465 0.05038464 0.018053873
0.08055117 0.015444884 -0.01583175 0.026634896 -0.048143253 -0.007228372 -0.042440217 0.06931673
-0.070907 -0.048171666 -0.029505763 -0.06386515 0.009862266 -0.10320416 0.098446146 -0.08876256
0.080670394 -0.0018533545 -0.033928886 0.06457138 -0.0017727134 0.08442553 0.011423002 -0.01990223
0.028075283 -0.028336024 0.03473166 0.09329285 0.06040238 -0.041769657 0.060319614 0.018696247
0.04521675 -0.0636881 -0.10343747 -0.057686053 -0.08014771 0.085739605 0.0307255 0.043281946
0.033046957 -0.0051084035 0.08177619 -0.074243106 0.008173451 -0.07132013 0.03222021 -0.051324315
0.03201805 -0.021769982 0.11962537 -0.061932243 -0.062319502 -0.029527623 0.09398463 0.034822047
0.10539989 -0.0862346 -0.1036433 -0.06298412 -0.07028998 0.042323373 -0.0025674917 0.086824745
-0.053962346 -0.10792277 0.055441204 -0.04223606 -0.011019782 -0.024796063 0.059774 -0.11119046
-0.052731678 0.031857118 -0.050710812 -0.026641214 0.06228505 0.0024080533 -0.07577483 -0.055784933
0.027024304 -0.035259135 -0.037044093 -0.16984142 -0.059839394 0.026102498 -0.08246292 -0.07584922
0.002451023 -0.14008753 -0.08865054 -0.0575396 -0.16022299 -0.06653335 0.10445093 0.01361119
0.032199945 -0.097457916 -0.07577192 -0.03478042 0.016339632 -0.10187471 -0.04502271 -0.062556095
-0.02074906 -0.03888165 -0.007240827 -0.05187716 -0.0717223 -0.060960785 -0.041464914 -0.08247341
0.08761318 -0.037476547 0.08990435 0.03255745 -0.075956985 0.072311886 -0.028750263 -0.04023694
-0.086735494 -0.103881314 0.014291494 -0.022825563 0.040681034 -0.09909533 0.077577636 -0.07670258
-0.027139448 0.021825189 0.05394418 0.003656282 0.09518777 -0.08285381 -0.042573504 -0.044944607
-0.011450724 -0.07763164 0.09517724 -0.0766918 -0.012926094 0.036722727 0.033955097 -0.12522437
0.09497779 0.022962134 -0.007781522 -0.092083804 0.043864444 -0.019633237 -0.047870133 0.08975275
0.012158821 -0.057812724 -0.052887548 -0.018119244 0.058344193 -0.02670108 -0.065769255 -0.03578241
-0.07806327 0.044312626 0.080880955 -0.098373055 -0.049790777 0.053979773 0.018947471 -0.11049724
0.054538492 0.054911636 -0.0342389 -0.018361537 -0.027669525 -0.062221527 -0.018458864 -0.031138996
-0.006535305 0.089800104 -0.010344409 -0.09676631 0.0015247802 -0.0062390394 -0.04832112 0.029282035
-0.094905116 -0.031266853 0.087995686 0.040705252 -0.0055122254 -0.06299897 -0.06392904 -0.08992758
-0.034060255 0.035287477 0.074241914 0.048243485 -0.09236501 -0.040772952 -0.016490614 0.101080045
0.021671291 -0.027060213 0.043229867 -0.034352034 -0.06763325 0.07626693 -0.032815367 -0.02094714
-0.103948675 0.06557917 0.07916644 0.038081735 -0.060018487 -0.103126794 -0.08486605 0.04854699
0.05016708 0.08793037 0.023918698 0.02644615 -0.0010232594 -0.15930979 -0.08952579 -0.09773657
-0.025813172 -0.051302135 -0.021029241 -0.040806103 -0.019040812 -0.073545195 -0.14172687 0.034661006
-0.031054676 -0.008882409 -0.033521887 -0.07665179 -0.016260915 -0.05065226 -0.031968597 -0.086285844
00000000: 74a5 d53d f49e b13d 3289 c8bc 63e3 033e
00000010: 588d bbbc 71bb ac3c ff07 94bc 575b 7b3d
00000020: 3aa6 bc3d 8983 33bd e401 ba3d 2b35 a03c
00000030: 5347 e13d 78db 673c 2060 4e3d b7e5 933c
00000040: 03f8 a43d 8a0c 7d3c 96b1 81bc 6d31 da3c
00000050: dc31 45bd fbdb ecbb cbd5 2dbd eef5 8d3d
00000060: b037 91bd a74f 45bd 12b6 f1bc bbcb 82bd
00000070: 5795 213c b45c d3bd 229e c93d 25c9 b5bd
00000080: 8536 a53d 42ec f2ba 04f9 0abd 003e 843d
00000090: 645a e8ba 4be7 ac3d 8b27 3b3c 000a a3bc
000000a0: 23fe e53c f320 e8bc c942 0e3d 5210 bf3d
000000b0: 7c68 773d a916 2bbd b311 773d df28 993c
000000c0: 3335 393d e86e 82bd 06d7 d3bd 3648 6cbd
000000d0: 7c24 a4bd 3f98 af3d 0bb4 fb3c 6948 313d
000000e0: 3f5c 073d 6564 a7bb 467a a73d c50c 98bd
000000f0: f0e9 053c 4a10 92bd 57f9 033d 7239 52bd
00000100: 5c25 033d f656 b2bc 25fe f43d aaac 7dbd
00000110: bc42 7fbd eae3 f1bc 047b c03d 90a1 0e3d
00000120: e6db d73d c49b b0bd f042 d4bd d1fd 80bd
00000130: 31f4 8fbd 465b 2d3d 5d43 28bb 2cd1 b13d
00000140: 9f07 5dbd 9d06 ddbd 5116 633d b8ff 2cbd
00000150: 518c 34bc 1d21 cbbc 95d5 743d d3b7 e3bd
00000160: 2cfd 57bd 9c7c 023d 24b6 4fbd ad3e dabc
00000170: 9c1e 7f3d 6ed0 1d3b d62f 9bbd be7e 64bd
00000180: 1362 dd3c e26b 10bd 8cbb 17bd e9ea 2dbe
00000190: 271a 75bd e8d4 d53c 52e2 a8bd d656 9bbd
000001a0: 58a1 203b 1b73 0fbe 6a8e b5bd a5ae 6bbd
000001b0: 7f11 24be a342 88bd 5fea d53d 7801 5f3c
000001c0: 17e4 033d 0498 c7bd 4f2e 9bbd ea75 0ebd
000001d0: b1da 853c b0a3 d0bd bc69 38bd 691d 80bd
000001e0: eff9 a9bc 5d42 1fbd 7644 edbb 257d 54bd
000001f0: 24e3 92bd 04b2 79bd 1dd7 29bd d2e7 a8bd
00000200: 8a6e b33d 0281 19bd c61f b83d f65a 053d
00000210: 568f 9bbd 4118 943d ac85 ebbc 7dcf 24bd
00000220: 61a2 b1bd babf d4bd df26 6a3c adfc babc
00000230: 28a1 263d 7ef2 cabd 06e1 9e3d 3e16 9dbd
00000240: 8c53 debc bdca b23c 93f4 5c3d 3c9e 6f3b
00000250: cef1 c23d 42af a9bd 8e61 2ebd d617 38bd
00000260: d19b 3bbc 56fd 9ebd 49ec c23d 9710 9dbd
00000270: f8c7 53bc 926a 163d 8014 0b3d d13a 00be
00000280: b783 c23d 161b bc3c 23fc febb 6f96 bcbd
00000290: 34ab 333d e2d5 a0bc 7913 44bd 4ad0 b73d
000002a0: cb35 473c 09cd 6cbd 9da0 58bd cf6e 94bc
000002b0: 52fa 6e3d 39bc dabc 08b2 86bd 9490 12bd
000002c0: a3df 9fbd 2881 353d eaa4 a53d d077 c9bd
000002d0: 6af1 4bbd e519 5d3d ba37 9b3c 614c e2bd
000002e0: c163 5f3d 06eb 603d 173e 0cbd ef6a 96bc
000002f0: 33ab e2bc 00dc 7ebd 0b37 97bc 3517 ffbc
00000300: 1d26 d6bb 1ee9 b73d 997b 29bc 6a2d c6bd
00000310: 22db c73a db70 ccbb 5eec 45bd e1e0 ef3c
00000320: 9d5d c2bd ac11 00bd 1537 b43d 8dba 263d
00000330: e69f b4bb 9b05 81bd 3bed 82bd f32b b8bd
00000340: c482 0bbd 9a89 103d 250c 983d f69a 453d
00000350: de29 bdbd 8a01 27bd 5317 87bc 0e03 cf3d
00000360: fe87 b13c 61ad ddbc cd11 313d b8b4 0cbd
00000370: 4d83 8abd d631 9c3d 6869 06bd 5699 abbc
00000380: 0be3 d4bd 5f4e 863d 0422 a23d 98fb 1b3d
00000390: f2d5 75bd 2434 d3bd 40ce adbd 35d9 463d
000003a0: ff7b 4d3d d614 b43d 25f1 c33c 99a5 d83c
000003b0: e31e 86ba 1b22 23be 4c59 b7bd 1c2a c8bd
000003c0: 2576 d3bc 3022 52bd 8445 acbc 4d24 27bd
000003d0: 7afb 9bbc dd9e 96bd d920 11be b3f8 0d3d
000003e0: 6066 febc 8687 11bc 3f4e 09bd 9dfb 9cbd
000003f0: 9c35 85bc bf78 4fbd 81f1 02bd a2b6 b0bd

net.0.bias f4 [64]
0.12232131 -0.04073391 0.12354005 0.026848238 -0.044461254 0.12359881 -0.00052312826 -0.01600498
0.05875318 0.047607545 0.117614515 -0.028527834 0.09691735 0.09251541 0.11947251 0.02146425
0.06243716 0.081338935 0.1296197 -0.037781473 -0.0329742 -0.043556973 0.066712014 -0.067832045
0.031322315 0.0015117184 0.055542115 -0.017753238 0.08739755 -0.06730526 -0.03328478 0.06459442
-0.082768485 0.05567939 -0.0061027207 -0.04146338 0.12637722 -0.014617762 0.062369514 0.0008661738
0.102040954 0.13092566 0.14279792 -0.0056431303 -0.05069501 -0.040680397 0.08831853 0.09681896
0.08920256 0.08634822 0.1439374 -0.05106647 -0.05128278 0.0023424164 0.12162491 -0.064637996
0.12183117 0.043482322 0.11329064 0.15777956 0.14973801 0.14852965 0.015147592 -0.010089483
00000000: 9883 fa3d 9ad8 26bd 9102 fd3d d6f0 db3c
00000010: 011d 36bd 5f21 fd3d 8b22 09ba e01c 83bc
00000020: 2da7 703d 2100 433d e1df f03d 34b3 e9bc
00000030: 9b7c c63d b878 bd3d 01ae f43d cbd5 af3c
00000040: 1cbe 7f3d 0795 a63d 07bb 043e bfc0 1abd
00000050: f40f 07bd cc68 32bd 4fa0 883d 87eb 8abd
00000060: d44b 003d da24 c63a 2180 633d 3d6f 91bc
00000070: 7dfd b23d 57d7 89bd 9f55 08bd 144a 843d
00000080: 8682 a9bd 1210 643d 55f9 c7bb 81d5 29bd
00000090: 0869 013e 567f 6fbc 2d77 7f3d f10f 633a
000000a0: d9fa d03d 6011 063e 9e39 123e 02ea b8bb
000000b0: 92a5 4fbd 7da0 26bd 58e0 b43d 0549 c63d
000000c0: d5af b63d 56d7 b03d 5364 133e 132b 51bd
000000d0: e40d 52bd 3a83 193b 7b16 f93d ed60 84bd
000000e0: 9f82 f93d 851a 323d ec04 e83d f790 213e
000000f0: ec54 193e 2818 183e 9b2d 783c 5c4e 25bc

net.3.weight f4 [64, 64, 3]
0.044960313 0.061008353 0.0017812226 0.0015941842 -0.011570923 -0.025535481 0.052893467 -0.071153134
0.060875174 0.039792456 -0.0433685 -0.02551886 -0.02689069 -0.062163446 0.0071985833 0.0003856389
-0.03211375 -0.012183856 0.015673872 0.031518605 -0.057869792 0.0132442415 -0.00097635505 -0.058483407
0.08381249 -0.033914663 0.056758694 0.06612039 0.0019375327 0.053269006 -0.025608048 -0.007863867
-0.059013087 -0.020619959 0.022602731 0.053308945 -0.035399456 -0.028906615 -0.040112976 0.010980515
-0.059423063 -0.05662498 0.009599738 0.06873617 0.012323911 -0.005522686 0.047825474 0.05280105
0.058710765 0.00066586793 -0.007750449 0.06998175 0.038456783 0.05424464 0.08049595 -0.020306738
0.060593866 0.026941655 0.07122507 0.07117036 0.08316171 0.04762195 0.056172002 -0.012164881
-0.027850376 -0.016672645 -0.008084488 0.052561723 0.0066878283 0.00889562 -0.032052558 -0.06369349
0.031873543 0.062886216 0.04704004 0.07485829 0.048879363 0.030104285 0.011422264 -0.052924193
0.052599587 -0.035540614 -0.043019827 0.028707007 0.059180114 -0.037228886 0.045275226 -0.054978784
0.0170483 0.03158308 0.030588837 -0.040256385 -0.048314553 0.07433106 0.015760979 -0.030734347
0.086345986 -0.01493274 -0.013229342 0.03508838 0.059561472 -0.031846248 0.0066659306 -0.032117635
-0.03240376 0.005068531 -7.370193e-05 0.038360044 -0.017523555 0.04151542 0.055892777 0.011367602
-0.006408454 0.017642342 -0.05016394 0.052640714 -0.0125148585 0.03334749 0.033916812 0.029789168
-0.015956094 -0.052547995 -0.06901622 -0.039059818 -0.015039132 -0.055538762 0.02331375 -0.03779615
0.040537342 0.063370936 0.060523663 -0.04691301 -0.041126724 0.024817238 -0.016337264 0.098378524
-0.065631 0.06634215 -0.02537175 -0.05736971 -0.0075863153 -0.010966362 -0.045098685 0.040843166
0.06969764 0.039830882 0.008732341 -0.0011458022 -0.039033614 0.06818737 -0.010580088 -0.06272482
0.06069684 0.008009813 0.048069794 -0.023745159 0.07002914 -0.050448284 0.043051977 0.07497183
-0.0010001864 0.047443062 0.038947493 -0.06550127 0.03134143 -0.04117814 0.0022482898 -0.06435188
-0.00974808 -0.02131642 -0.027801888 -0.05135503 -0.03553303 -0.066287786 -0.03653968 -0.07137473
-0.04121221 0.005215278 0.06444921 -0.050329987 -0.03263402 -0.058238316 0.06692928 0.003953399
-0.019034028 0.039225075 -0.03996998 -0.018907085 0.06557233 0.04839589 -0.05549661 -0.019662475
-0.0034475205 0.02584809 -0.032913253 0.041252635 0.0011187732 -0.061855666 0.004755826 -0.0694483
0.004980619 -0.07541756 -0.02040661 -0.016626304 -0.07741871 -0.0202354 0.0024023885 -0.045866057
0.010152572 0.03777802 0.0033236905 -0.07022099 -0.00022606163 -0.04139829 0.020392045 -0.0574017
-0.066566415 -0.0023749543 0.041253414 -0.029948063 -0.0037725025 -0.007084995 -0.07053141 -0.005660116
-0.002013486 0.0067146826 0.032019958 0.021305535 0.028771926 -0.013638432 -0.030904926 0.05170448
0.05704106 0.039004907 0.047020458 0.035038512 0.06324036 0.0487707 -0.05816695 -0.06741763
-0.047264926 0.054698892 0.06459627 -0.008234231 -0.05289567 -0.033623762 0.028880654 0.0666395
0.013856629 -0.05323682 0.067877434 0.06281904 -0.031384252 -0.038656097 0.041129384 -0.051697623
00000000: 4e28 383d e5e3 793d ea77 e93a f2f3 d03a
00000010: f893 3dbc c92f d1bc d2a6 583d bcb8 91bd
00000020: 3f58 793d 6afd 223d 2ba3 31bd ee0c d1bc
00000030: dd49 dcbc 199f 7ebd 18e2 eb3b 942f ca39
00000040: b589 03bd cc9e 47bc 7e66 803c a719 013d
00000050: e008 6dbd 60fe 583c 14f2 7fba 4c8c 6fbd
00000060: e2a5 ab3d 1aea 0abd ce7b 683d 216a 873d
00000070: cff4 fd3a 9a30 5a3d f8c7 d1bc 73d7 00bc
00000080: b5b7 71bd 30eb a8bc 5d29 b93c 7b5a 5a3d
00000090: 05ff 10bd 91cd ecbc 814d 24bd 9ee7 333c
000000a0: 9965 73bd 98ef 67bd 3848 1d3c 8dc5 8c3d
000000b0: 3bea 493c a6f7 b4bb a5e4 433d ea45 583d
000000c0: b37a 703d a48d 2e3a 7af7 fdbb 9752 8f3d
000000d0: dc84 1d3d a12f 5e3d 10db a43d 515a a6bc
000000e0: 4631 783d bfb4 dc3c 73de 913d c4c1 913d
000000f0: b050 aa3d 3c0f 433d 9d14 663d 364f 47bc
00000100: 7926 e4bc 1295 88bc cd74 04bc f64a 573d
00000110: 9225 db3b efbe 113c 8b49 03bd bc71 82bd
00000120: d58d 023d 7dca 803d 0fad 403d 4e4f 993d
00000130: ba35 483d 439d f63c 7324 3b3c 0ac7 58bd
00000140: aa72 573d 0993 11bd 8f35 30bd f52a eb3c
00000150: d966 723d 517d 18bd 8472 393d 6f31 61bd
00000160: e0a8 8b3c 425d 013d 7195 fa3c e1e3 24bd
00000170: 7be5 45bd e23a 983d 2b1d 813c 99c6 fbbc
00000180: 2ad6 b03d 73a8 74bc e2bf 58bc d5b8 0f3d
00000190: bbf6 733d 3671 02bd e16d da3b c88d 03bd
000001a0: ceb9 04bd eb15 a63b 6c90 9ab8 6c1f 1d3d
000001b0: 8f8d 8fbc 130c 2a3d d3ef 643d 2e3f 3a3c
000001c0: 02fe d1bb ac86 903c b478 4dbd ca9d 573d
000001d0: 1f0b 4dbc 6197 083d 5bec 0a3d 6a08 f43c
000001e0: 5bb6 82bc 913c 57bd 6058 8dbd 30fd 1fbd
000001f0: b166 76bc 9d7c 63bd 7afc be3c 23d0 1abd
00000200: 7c0a 263d 9fc8 813d a9e7 773d db27 40bd
00000210: 7f74 28bd 854d cb3c bad5 85bc ae7a c93d
00000220: 8c69 86bd 65de 873d 6bd8 cfbc 80fc 6abd
00000230: a096 f8bb 42ac 33bc 66b9 38bd 2a4b 273d
00000240: a3bd 8e3d b525 233d 1812 0f3c be2e 96ba
00000250: b6e1 1fbd d2a5 8b3d 1b58 2dbc df75 80bd
00000260: 409d 783d 973b 033c d5e4 443d 3585 c2bc
00000270: 706b 8f3d dca2 4ebd 4557 303d d58a 993d
00000280: b018 83ba a853 423d 6887 1f3d 8825 86bd
00000290: df5f 003d 69aa 28bd 0b58 133b ebca 83bd
000002a0: 69b6 1fbc c69f aebc c9c0 e3bc a759 52bd
000002b0: 158b 11bd e4c1 87bd a2aa 15bd ea2c 92bd
000002c0: 22ce 28bd ece4 aa3b f3fd 833d d126 4ebd
000002d0: 40ab 05bd 4d8b 6ebd 3812 893d 848b 813b
000002e0: 40ed 9bbc 79aa 203d 90b7 23bd 08e3 9abc
000002f0: c94a 863d c53a 463d 6a50 63bd 3313 a1bc
00000300: ccef 61bb 60bf d33c 0cd0 06bd 86f8 283d
00000310: cda3 923a 5e5c 7dbd c3d6 9b3b e93a 8ebd
00000320: 7634 a33b 8674 9abd c32b a7bc e333 88bc
00000330: b38d 9ebd b6c4 a5bc 6471 1d3b 0cde 3bbd
00000340: f956 263c 20bd 1a3d 46d2 593b 06d0 8fbd
00000350: f50a 6db9 4191 29bd 380d a73c 0c1e 6bbd
00000360: f953 88bd 1fa5 1bbb 57f9 283d a455 f5bc
00000370: 173c 77bb 3f29 e8bb c672 90bd 7f78 b9bb
00000380: b1f4 03bb d706 dc3b 5c27 033d f288 ae3c
00000390: 1ab3 eb3c bb73 5fbc 542c fdbc 14c8 533d
000003a0: e3a3 693d 9cc3 1f3d 8698 403d 8b84 0f3d
000003b0: 2984 813d c9c3 473d 7840 6ebd 4112 8abd
000003c0: de98 41bd f20b 603d 0d4b 843d dee8 06bc
000003d0: 21a9 58bd 12b9 09bd 1f97 ec3c 4a7a 883d
000003e0: ea06 633c da0e 5abd 5303 8b3d 45a7 803d
000003f0: c68c 00bd db55 1ebd 4977 283d e3c0 53bd

net.3.bias f4 [64]
0.13383032 -0.07355927 0.055619564 -0.028474687 0.046202473 0.08816025 0.07384361 0.111330986
0.012466609 0.10377689 0.03990283 0.104647696 -0.03810857 0.12217708 0.07166181 0.093384124
0.008147557 0.07441471 0.10602823 0.007734905 0.118121155 0.089436665 0.03707805 -0.06936269
0.107729696 0.04284658 0.10387348 0.0768597 0.13259491 0.017653475 0.06023901 0.10381691
0.032254595 0.049792122 0.056485474 0.13626884 0.10052464 -0.009854497 0.07624227 0.12598917
0.10492591 0.13203642 0.04334706 0.06811217 0.13502051 0.13475685 0.11517644 0.069151096
0.07249693 0.12803243 0.037925437 -0.027352335 0.081825964 0.04542305 0.03343644 0.12511852
0.008757084 0.112134494 0.057927307 -0.004604172 0.019184988 0.081296064 0.093214184 0.05423754
00000000: d10a 093e 3ea6 96bd 57d1 633d bf43 e9bc
00000010: ce3e 3d3d 5c8d b43d 523b 973d 8001 e43d
00000020: bf40 4c3c fa88 d43d 2671 233d 8851 d63d
00000030: bb17 1cbd fa37 fa3d 6dc3 923d 2d40 bf3d
00000040: 557d 053c bd66 983d 5425 d93d 1675 fd3b
00000050: 81e9 f13d 922a b73d 27df 173d 070e 8ebd
00000060: 63a1 dc3d e57f 2f3d 9ebb d43d 9e68 9d3d
00000070: f6c6 073e 059e 903c 2ebd 763d f69d d43d
00000080: 651d 043d d3f2 4b3d 505d 673d 0f8a 0b3e
00000090: dddf cd3d c274 21bc e824 9c3d 4e03 013e
000000a0: 65e3 d63d 8e34 073e b08c 313d 657e 8b3d
000000b0: d142 0a3e b3fd 093e a0e1 eb3d 179f 8d3d
000000c0: 4579 943d ef1a 033e b457 1b3d 0112 e0bc
000000d0: 5f94 a73d 850d 3a3d a6f4 083d 121f 003e
000000e0: df79 0f3c c5a6 e53d 2f45 6d3d 98de 96bb
000000f0: d629 9d3c 8d7e a63d 14e7 be3d 2f28 5e3d

net.6.weight f4 [64, 64, 3]
0.067173176 0.013140887 0.030421421 0.069731385 0.048805505 0.055420697 -0.02989626 -0.05277108
0.05671882 0.07903887 0.036352545 0.028385181 -0.0007016049 0.025058886 -0.03446083 0.01265674
0.06694456 -0.045070514 -0.042678155 -0.005572747 0.037315052 -0.040029373 0.045537747 0.0031889242
0.022510506 0.044298686 0.036171094 0.016643701 -0.06806347 0.061874576 -0.011422159 -0.039738234
0.02392674 0.06283895 0.010187047 -0.040707484 -0.050271604 0.031145284 0.02504232 0.057663787
0.071283944 -0.03897002 0.030145291 0.07097094 -0.00223355 -0.012965297 -0.055846892 0.0011462985
-0.025303245 -0.048704576 -0.06802127 0.040470693 -0.010319665 0.030844068 0.065577246 -0.071096525
-0.025936406 0.07574482 -0.012327509 0.048196614 -0.04373266 0.065389164 0.030212594 -0.030399302
0.016800009 0.045588255 0.05671558 0.013889521 -0.027793897 -0.021915166 -0.051926885 0.070318885
0.037248213 0.015502439 -0.041322757 -0.046342194 -0.008408637 0.03693484 0.069288485 -0.007014015
0.03004783 0.006741272 -0.021239558 0.07149438 0.03512751 0.070230864 -0.07017686 0.019396782
-0.024496889 0.055405807 0.050625175 0.011934832 0.044548415 -0.018242083 -0.018757688 0.036308937
-0.031373598 0.017201029 0.023275498 -0.046690565 -0.04204692 -0.052947983 -0.04517115 -0.025383668
0.02248794 0.045256022 0.040545028 0.008967441 -0.03323677 -0.067454435 0.06234003 0.023546845
0.054887887 -0.06709458 -0.018328628 -0.0018865382 0.059197616 -0.044331048 -0.038050845 -0.054273598
0.05763224 0.005525803 -0.02717003 0.06465528 -0.053185187 -0.007065742 -0.017909884 -0.015980111
0.0007382856 0.018554987 0.070870996 -0.06314824 -0.007332282 -0.005449565 -0.02993831 0.086254716
0.036815412 0.05411418 0.1322385 -0.003823198 0.04713882 0.029530482 0.0513919 0.010419829
0.03902806 0.029477581 -0.027156223 0.07474477 0.058303688 -0.017289622 -0.00020630026 -0.063477375
0.037636366 -0.04156213 -0.06609099 0.05886952 0.041459713 0.0623051 -0.059846334 -0.02731152
-0.01908984 0.044226944 -0.043287065 -0.06164197 -0.02106719 -0.017587196 0.069321305 0.036495347
-0.0232916 -0.030835662 -0.0026331833 -0.026007373 -0.054055367 0.06410895 -0.033021554 0.041319348
-0.02059492 -0.04642017 -0.03241424 -0.03277997 -0.040904664 -0.043823108 -0.0032493554 -0.00078047055
0.058180697 -0.0683485 0.023024043 0.0470956 -0.047218267 -0.0015997228 -0.058334585 -0.069017924
0.025659006 0.018274894 0.006962881 0.0565735 -0.0016364618 -0.05969402 -0.075465135 0.010374044
-0.042391464 0.060007572 -0.00895054 0.061536822 -0.019177549 -0.033109024 -0.07087042 0.05994672
-0.06183248 0.050585955 -0.034423657 -0.052805215 -0.024595466 0.03809888 0.05459551 -0.059836376
-0.059283767 0.024289075 0.03414993 -0.053352185 0.029778006 -0.010019642 -0.07073488 0.040072
-0.059923045 -0.011954935 -0.01546661 -0.032881334 -0.018100142 -0.06385633 0.06332825 -0.06149633
0.044159427 0.0024745692 -0.011033125 -0.005208301 -0.030527484 -0.021241134 0.051484223 -0.033979148
0.02473207 -0.05771902 -0.035373427 0.04233819 0.02617548 -0.06496861 -0.057291295 0.046301473
-0.004904548 0.05927008 -0.07055986 0.018976128 -0.078780286 0.02977479 -0.024228795 -0.014195634
00000000: 1792 893d e04c 573c 5836 f93c 54cf 8e3d
00000010: 48e8 473d d000 633d 00e9 f4bc 7d26 58bd
00000020: fe51 683d 22df a13d 68e6 143d 0a88 e83c
00000030: e8eb 37ba 4b48 cd3c cd26 0dbd 375e 4f3c
00000040: 3b1a 893d dc9b 38bd 4acf 2ebd 979b b6bb
00000050: abd7 183d d7f5 23bd ca85 3a3d 45fd 503b
00000060: f467 b83c 8a72 353d 2428 143d 5f58 883c
00000070: dc64 8bbd 3270 7d3d 0224 3bbc 8fc4 22bd
00000080: 0302 c43c b5b1 803d 92e7 263c e4bc 26bd
00000090: 99e9 4dbd 6524 ff3c 8d25 cd3c dd30 6c3d
000000a0: 51fd 913d 079f 1fbd 42f3 f63c 3659 913d
000000b0: c060 12bb 666c 54bc b6bf 64bd 653f 963a
000000c0: c048 cfbc 737e 47bd bc4e 8bbd 99c4 253d
000000d0: d013 29bc b3ac fc3c 5d4d 863d 0e9b 91bd
000000e0: 9678 d4bc 1a20 9b3d 52f9 49bc d069 453d
000000f0: 0521 33bd c1ea 853d 6780 f73c f507 f9bc
00000100: 2ca0 893c c0ba 3a3d 994e 683d e090 633c
00000110: 07b0 e3bc 6f87 b3bc 49b1 54bd 5903 903d
00000120: 9591 183d f1fd 7d3c 0d42 29bd 50d1 3dbd
00000130: 61c4 09bc fd48 173d 1fe7 8d3d d3d5 e5bb
00000140: de26 f63c e3e5 dc3b 95fe adbc a56b 923d
00000150: dde1 0f3d 33d5 8f3d e3b8 8fbd 00e6 9e3c
00000160: b3ad c8bc 33f1 623d 585c 4f3d 508a 433c
00000170: 6678 363d 6c70 95bc b9a9 99bc aeb8 143d
00000180: 9a81 00bd 2ce9 8c3c 42ac be3c 9b3e 3fbd
00000190: 6439 2cbd fcdf 58bd 6205 39bd 69f1 cfbc
000001a0: a138 b83c 615e 393d 8b12 263d 2cec 123c
000001b0: 4823 08bd 8d25 8abd 4258 7f3d 50e5 c03c
000001c0: 1fd2 603d e268 89bd eb25 96bc b845 f7ba
000001d0: 3379 723d 7994 35bd 34db 1bbd fe4d 5ebd
000001e0: c90f 6c3d cc11 b53b af93 debc fd69 843d
000001f0: b6d8 59bd bd87 e7bb c0b7 92bc b9e8 82bc
00000200: 8289 413a a100 983c d024 913d dd53 81bd
00000210: a443 f0bb 4492 b2bb 3041 f5bc 50a6 b03d
00000220: c2cb 163d d5a6 5d3d 8869 073e 9e8e 7abb
00000230: a314 413d e9e9 f13c 5080 523d eeb7 2a3c
00000240: e3db 1f3d f87a f13c ba76 debc c913 993d
00000250: d9cf 6e3d f7a2 8dbc 4e52 58b9 6d00 82bd
00000260: 9728 1a3d 0d3d 2abd b75a 87bd 2a21 713d
00000270: a9d1 293d a233 7f3d 6e21 75bd 69bc dfbc
00000280: 4c62 9cbc 5027 353d c74d 31bd 4a7c 7cbd
00000290: 1a95 acbc 0613 90bc 54f8 8d3d 257c 153d
000002a0: 07ce bebc 129b fcbc 7c91 2cbb 6a0d d5bc
000002b0: 2969 5dbd 8e4b 833d 9c41 07bd 7a3e 293d
000002c0: adb6 a8bc 1423 3ebd cbc4 04bd 4a44 06bd
000002d0: a68b 27bd dc7f 33bd 23f3 54bb 7e98 4cba
000002e0: e24e 6e3d 4cfa 8bbd eb9c bc3c 51e7 403d
000002f0: f167 41bd caad d1ba 3ff0 6ebd 4559 8dbd
00000300: d632 d23c 3bb5 953c e128 e43b 9db9 673d
00000310: 8c7e d6ba b781 74bd 778d 9abd e5f7 293c
00000320: aca2 2dbd 80ca 753d 49a5 12bc 090e 7c3d
00000330: 3c1a 9dbc 549d 07bd 8324 91bd b18a 753d
00000340: 0e44 7dbd 3833 4f3d d2ff 0cbd 484a 58bd
00000350: 6e7c c9bc 920d 1c3d 8b9f 5f3d fd16 75bd
00000360: 89d3 72bd e2f9 c63c cce0 0b3d d287 5abd
00000370: 01f1 f33c 6d29 24bc 73dd 90bd 8a22 243d
00000380: de71 75bd a2de 43bc aa67 7dbc 94ae 06bd
00000390: c046 94bc 1cc7 82bd 3eb2 813d 93e3 7bbd
000003a0: 84e0 343d 622c 223b 48c4 34bc 65aa aabb
000003b0: c614 fabc e301 aebc 1fe1 523d b82d 0bbd
000003c0: e99a ca3c c76a 6cbd bae3 10bd cf6a 2d3d
000003d0: f66d d63c 430e 85bd 47aa 6abd 9da6 3d3d
000003e0: 55b6 a0bb 2fc5 723d b081 90bd d373 9b3c
000003f0: 8f57 a1bd 43ea f33c 777b c6bc ce94 68bc

net.6.bias f4 [64]
0.14913853 0.0056409156 0.124869525 0.12708774 0.08291473 0.15891768 0.039105356 -0.0686587
-0.041180644 0.11486091 0.14657946 0.049411584 0.047018986 0.020959787 -0.033358674 0.09489829
0.07321354 0.089774415 0.21720684 0.13260046 0.05594844 0.07327258 0.058235474 0.08113891
0.13803662 -0.053391755 0.08711025 0.13527296 0.1504409 -0.04341235 0.11526666 0.15076649
0.108317494 0.12859365 0.072583936 0.14281756 0.08873997 0.092812315 0.057102438 0.033011977
0.07957927 0.051816702 -0.08368017 0.07314488 0.016904686 0.09410575 0.07647979 0.12302947
-0.018422447 0.13805492 0.060427513 -0.00167998 0.14926235 0.14251067 -0.04097601 0.14983669
0.044296622 0.11520922 0.03146536 0.089992374 0.13712837 0.09860348 0.06405459 0.14374071
00000000: c5b7 183e 6ed7 b83b 98bb ff3d 4a23 023e
00000010: 33cf a93d 51bb 223e f02c 203d ef9c 8cbd
00000020: 09ad 28bd 323c eb3d ed18 163e cd63 4a3d
00000030: fb96 403d dcb3 ab3c 1ba3 08bd 095a c23d
00000040: fbf0 953d a6db b73d 786b 5e3e 6ac8 073e
00000050: 312a 653d ef0f 963d 5288 6e3d 282c a63d
00000060: 7959 0d3e 50b1 5abd dc66 b23d ff84 0a3e
00000070: 2e0d 1a3e 26d1 31bd ed10 ec3d 8862 1a3e
00000080: 90d5 dd3d 0eae 033e e3a6 943d c43e 123e
00000090: 4dbd b53d 6214 be3d 3fe4 693d 9137 073d
000000a0: 75fa a23d c03d 543d 8260 abbd fccc 953d
000000b0: b27b 8a3c 84ba c03d 70a1 9c3d e0f6 fb3d
000000c0: acea 96bc 455e 0d3e d782 773d c632 dcba
000000d0: 3bd8 183e 51ee 113e 76d6 27bd ca6e 193e
000000e0: 6070 353d d0f2 eb3d d2e1 003d ec4d b83d
000000f0: 616b 0c3e 9ff0 c93d 0e2f 833d c430 133e

net.9.weight f4 [64, 64, 3]
0.05977748 -0.034549847 -0.031892844 0.04452203 0.03503585 0.057251465 0.040863097 -0.068853445
0.052250657 -0.00028490942 -0.005971036 0.042855825 -0.060245983 -0.020474328 0.03287484 -0.036735106
0.030059522 0.024383713 0.0041422653 0.030915644 -0.065078706 0.055337794 -0.011892645 -0.012691048
-0.04095639 -0.002715541 0.006745961 -0.029765794 -0.046984218 -0.009576209 0.0234497 0.008577036
0.02198143 -0.0065690754 -0.0579272 -0.061816897 0.004901542 0.05426169 0.06864441 -0.05904794
-0.024869923 -0.024412753 0.06806372 -0.052638434 -0.041013367 0.042185552 -0.069576874 0.068916015
-0.02318793 -0.011342037 -0.005939996 -0.055069074 -0.040422875 0.06353428 -0.036139075 -0.0027035044
0.013523045 0.053599074 0.070815034 0.03857544 -0.021207059 0.050910138 -0.05522083 -0.06523065
-0.00053465465 0.026331386 0.05522393 0.010796739 -0.05334192 -0.031624705 -0.016237423 0.06463739
-0.03413816 0.0026369423 0.011618272 0.07001103 -0.0071592256 0.042816006 0.027651621 -0.007445419
-0.016793668 -0.0727678 -0.0030221248 -0.04907145 -0.00576727 -0.03947106 -0.015232778 -0.044248477
0.027596632 0.043909073 -0.031246278 -0.07074419 -0.027498845 0.04730558 0.05352571 -0.05111064
-0.0026923108 0.0104779275 -0.045997847 -0.021163547 0.04984316 0.06862475 0.00146381 -0.054443087
0.005675783 0.0018886491 0.026571473 0.0031641868 0.046849713 -0.024495352 -0.06520258 -0.044613328
-0.017120996 -0.03336367 -0.06946152 0.020005204 0.06495221 0.009028026 -0.0024433401 0.003927222
-0.060276277 -0.050666906 0.02410411 -0.06286615 0.062636204 0.056590866 -0.04738541 -0.003461443
0.05940748 0.058567483 0.06695166 0.06307642 0.02767446 0.0075411634 0.06282402 0.03726942
-0.059440795 0.027520599 0.061678197 -0.024993818 -0.007868978 -0.030688658 0.027602527 0.06810935
-0.0025516546 -0.045106903 0.029311832 -0.0012081505 -0.03863496 0.06549184 0.0068348055 0.0116950115
0.03034864 -0.030008497 0.03975292 -0.07075765 0.03431701 0.063213594 0.05222269 -0.034356505
-0.03197047 -0.059480567 -0.0064122705 0.02495825 -0.05288629 0.029825475 -0.00861341 -0.015928634
-0.03648967 0.047744635 -0.031106587 -0.027426086 -0.05620407 -0.048247136 -0.06721265 -0.009549652
0.059608303 -0.040407583 -0.06337157 0.046307895 0.008487359 0.024207039 0.055614196 -0.053981718
-0.0704136 0.04373568 -0.032579713 -0.061147 0.069349125 -0.02718542 0.026957503 -0.0023026585
-0.033773135 -0.014969285 0.015247759 -0.008799985 0.059329975 -0.011730619 -0.030522883 0.024429528
0.048096586 0.0062035955 0.030834107 0.03759947 0.024727417 0.042018626 0.0035134433 0.071445435
-0.06718055 -0.031380232 0.06362565 0.039312523 0.04593137 -0.01993092 0.049581308 -0.014996951
0.049510635 0.029882828 0.043934163 -0.014387069 -0.018171696 0.057601843 0.090975024 0.03801874
0.008860759 -0.003118533 -0.0138770165 -0.063838966 0.017612396 0.036413692 -0.024261305 0.01777798
0.007914075 -0.061908804 0.021823224 -0.05048996 -0.009782099 0.02347135 0.058414727 0.017693097
-0.037042465 -0.0649915 0.046200797 -0.025025552 -0.03608835 -0.0007477963 0.038716186 -0.022883534
-0.007472362 0.03618341 0.049327895 0.03773853 -0.017164279 0.028063063 -0.0072599496 0.049540658
00000000: 3bd9 743d 2484 0dbd 12a2 02bd bb5c 363d
00000010: c081 0f3d 8380 6a3d 1060 273d 0903 8dbd
00000020: c904 563d e55f 95b9 aea8 c3bb 9789 2f3d
00000030: 7ec4 76bd c7b9 a7bc c5a7 063d 8d77 16bd
00000040: 633f f63c 5ac0 c73c d7bb 873b ce42 fd3c
00000050: fc47 85bd e2a9 623d 5ed9 42bc 1dee 4fbc
00000060: e3c1 27bd 38f7 31bb 390d dd3b 65d7 f3bc
00000070: 8672 40bd 88e5 1cbc 9619 c03c b286 0c3c
00000080: 6612 b43c 6641 d7bb 1245 6dbd b733 7dbd
00000090: 1d9d a03b 8141 5e3d 7195 8c3d 41dc 71bd
000000a0: 02bc cbbc 41fd c7bc fe64 8b3d 669b 57bd
000000b0: a2fd 27bd c2ca 2c3d 527e 8ebd d723 8d3d
000000c0: 9df4 bdbc f3d3 39bc 4ca4 c2bb 1c90 61bd
000000d0: 7592 25bd 431e 823d 9106 14bd 472d 31bb
000000e0: c38f 5d3c b48a 5b3d 7907 913d 4801 1e3d
000000f0: 6dba adbc 2687 503d 3d2f 62bd a697 85bd
00000100: 1128 0cba ebb4 d73c 7d32 623d cee4 303c
00000110: 0f7d 5abd e888 01bd 5804 85bc 9c60 843d
00000120: 75d4 0bbd 8dd0 2c3b 915a 3e3c f161 8f3d
00000130: f097 eabb d65f 2f3d a785 e23c b4f8 f3bb
00000140: e092 89bc 4907 95bd d70e 46bb 25ff 48bd
00000150: 5efb bcbb 68ac 21bd e792 79bc e43d 35bd
00000160: 5512 e23c 00da 333d 32f8 ffbc 54e2 90bd
00000170: 4245 e1bc 7fc3 413d c63d 5b3d 6459 51bd
00000180: 7b71 30bb 9dab 2b3c 3d68 3cbd 2d5f adbc
00000190: 5728 4c3d 228b 8c3d 50dd bf3a b7ff 5ebd
000001a0: ebfb b93b 8c8c f73a 6bac d93c 3f5e 4f3b
000001b0: 7ce5 3f3d 7aaa c8bc ee88 85bd 77bc 36bd
000001c0: 5541 8cbc 58a8 08bd d741 8ebd f4e1 a33c
000001d0: aa05 853d 49ea 133c 7220 20bb edaf 803b
000001e0: 42e4 76bd 1a88 4fbd fc75 c53c f8bf 80bd
000001f0: 6947 803d d3cb 673d 3417 42bd 60d9 62bb
00000200: 4255 733d 75e4 6f3d f41d 893d 362e 813d
00000210: 8db5 e23c dd1b f73b e1a9 803d d2a7 183d
00000220: 3178 73bd e172 e13c 47a2 7c3d d6bf ccbc
00000230: e3ec 00bc c866 fbbc b21e e23c ea7c 8b3d
00000240: a939 27bb 04c2 38bd 5e1f f03c ce5a 9eba
00000250: b13f 1ebd 9620 863d 81f6 df3b 6f9c 3f3c
00000260: b69d f83c 61d4 f5bc f5d3 223d 63e9 90bd
00000270: fe8f 0c3d 2176 813d 76e7 553d 68b9 0cbd
00000280: 78f3 02bd e5a1 73bd 061e d2bb 3e75 cc3c
00000290: 4b9f 58bd 8e54 f43c 431f 0dbc c47c 82bc
000002a0: 3176 15bd e18f 433d 3ed3 febc acac e0bc
000002b0: 3d36 66bd ca9e 45bd c9a6 89bd 2576 1cbc
000002c0: d627 743d 6c82 25bd f4c8 81bd 59ad 3d3d
000002d0: 900e 0b3c d74d c63c b6cb 633d ef1b 5dbd
000002e0: 0135 90bd 2f24 333d 4e72 05bd 4775 7abd
000002f0: ea06 8e3d f5b3 debc fbd5 dc3c 33e8 16bb
00000300: b355 0abd bb41 75bc bdd1 793c d02d 10bc
00000310: fd03 733d c831 40bc 200b fabc 6f20 c83c
00000320: ed00 453d 8847 cb3b cf97 fc3c e701 1a3d
00000330: 2791 ca3c b91b 2c3d cc41 663b fc51 923d
00000340: f595 89bd 8f88 00bd 2a4e 823d 2b06 213d
00000350: 8822 3c3d 2b46 a3bc c515 4b3d c6b5 75bc
00000360: aacb 4a3d d5cc f43c 4ff4 333d beb7 6bbc
00000370: cfdc 94bc e9ef 6b3d 1d51 ba3d 8ab9 1b3d
00000380: b82c 113c 4d60 4cbb 6d5c 63bc 01be 82bd
00000390: df47 903c 8626 153d a5bf c6bc 20a3 913c
000003a0: 09aa 013c 1694 7dbd 9ec6 b23c 8fce 4ebd
000003b0: 1945 20bc fd46 c03c 4844 6f3d 1df1 903c
000003c0: d7b9 17bd 431a 85bd 0c3d 3d3d 6302 cdbc
000003d0: 61d1 13bd c307 44ba dd94 1e3d 4076 bbbc
000003e0: b7da f4bb 0e35 143d 0c0c 4a3d b893 1a3d
000003f0: 1a9c 8cbc 82e4 e53c dfe4 edbb 25eb 4a3d

net.9.bias f4 [64]
-0.074559085 0.18090874 0.017163139 0.14455824 0.13667308 -0.060096923 0.26993597 0.11523333
0.1139203 0.12683095 0.120142095 0.09843713 0.012508474 0.22153467 -0.0262114 0.060786117
0.18217157 0.017203106 -0.034975376 0.0423676 -0.040832583 0.1799126 0.18503143 0.020660838
0.09104544 -0.08456977 -0.017697481 0.1373577 0.09527539 0.118636385 0.1036971 0.3541527
0.24017973 0.09317087 0.085636094 0.17751628 0.12832072 0.11525872 0.048896357 0.13563581
0.047665082 0.09695513 0.05262453 0.14258443 0.13959372 0.11454665 -0.037589304 0.12897024
0.12734653 0.056981746 0.18803564 0.01284598 -0.036263727 0.1636248 -0.013778081 0.1520147
0.08160826 0.10310061 0.07643601 -0.0048686964 0.114751644 0.31991106 0.13981609 0.045003798
00000000: 6fb2 98bd 2440 393e b699 8c3c 1307 143e
00000010: 07f4 0b3e 3128 76bd 0c35 8a3e 74ff eb3d
00000020: 0c4f e93d f9df 013e 0f0d f63d 6899 c93d
00000030: 58f0 4c3c fcd9 623e 4ab9 d6bc ddfa 783d
00000040: 2f8b 3a3e 87ed 8c3c 5742 0fbd a689 2d3d
00000050: 1140 27bd 023b 383e e178 3d3e eb40 a93c
00000060: 0876 ba3d ea32 adbd 4ffa 90bc 7fa7 0c3e
00000070: be1f c33d a2f7 f23d 255f d43d 8153 b53e
00000080: adf1 753e 5ed0 be3d fa61 af3d d4c6 353e
00000090: 8266 033e c40c ec3d 8c47 483d 1de4 0a3e
000000a0: 763c 433d 6990 c63d d28c 573d a701 123e
000000b0: a8f1 0e3e 6f97 ea3d 3ef7 19bd c610 043e
000000c0: 2167 023e b165 693d 6a8c 403e f277 523c
000000d0: 4689 14bd 428d 273e 76bd 61bc bea9 1b3e
000000e0: 3b22 a73d 6a26 d33d 7c8a 9c3d 9689 9fbb
000000f0: e902 eb3d 62cb a33e f32b 0f3e e755 383d

net.12.weight f4 [64, 64, 3]
0.039172646 0.025548188 0.024726026 0.040436864 0.0039239083 0.012561911 0.047420073 -0.06803326
-0.061245907 0.018471405 0.05923825 -0.041031286 0.046604265 -0.061572287 -0.04800504 0.048424177
0.025031507 0.009058084 0.017645415 0.05373908 -0.008639314 0.04243292 0.009004722 0.06908519
0.052848555 0.030344952 0.053410623 0.097085394 0.019640809 0.017977132 -0.0064915875 0.008197656
-0.03893428 0.012484577 0.031590052 0.053653006 0.029463207 -0.0040317406 -0.051113497 0.04337077
-0.016765913 -0.016642222 0.072218955 0.062222533 -0.04905425 0.007528515 -0.0397852 0.019820886
0.06467383 -0.035985768 0.009788601 0.06157532 0.02329255 -0.007236726 0.04861899 0.0012181976
0.012990926 -0.060254637 -0.02118363 -0.0409997 -0.011431662 0.005379204 0.055960376 0.013488899
-0.0642194 -0.028696714 -0.036860447 -0.055626057 -0.03189458 -0.0502577 0.032908417 -0.037879393
0.02242843 0.0073260847 0.03044968 0.024476679 -0.01829219 0.043381836 0.058923658 -0.014499619
0.06757373 0.031305324 0.02505981 0.00919909 0.0029008794 -0.043927588 0.034101285 -0.0031296257
-0.06828067 0.05559423 0.07796816 0.05696498 -0.04182633 0.10123727 0.0014727715 0.013125097
0.11301239 -0.055095844 -0.04515687 0.007072314 -0.006364616 -0.040906273 0.019594071 -0.035101235
0.045981396 0.039626364 0.026077164 0.02698252 0.09453552 0.015855499 -0.0054796506 0.030508194
-0.07064636 0.046040162 0.05807588 0.05102502 0.06627979 -0.03082039 0.021967651 -0.027704418
-0.054399654 0.04849655 -0.025485698 0.049097016 0.018723035 -0.028096154 0.0416501 0.047785524
-0.06944986 0.040347576 -0.0498163 0.003988564 0.0263632 -0.0018437238 -0.06886915 0.06026776
0.006142864 0.052730735 0.011526288 -0.06351741 -0.04189968 -0.016601041 -0.0001841334 0.022722183
0.06498265 -0.0194929 -0.028871996 0.054104418 0.02729977 -0.057951726 0.031187547 0.061930753
0.051097836 0.008297384 0.07122445 0.03385207 0.014332184 -0.021278415 0.06152749 0.0773209
-0.060202356 0.037127595 -0.04748968 0.022550145 0.046264514 -0.007328268 -0.036842257 0.060372934
0.060444392 0.05475762 -0.0033758997 0.09634804 -0.038913153 -0.035916828 0.060231566 0.02080585
-0.03406853 0.07409826 0.03811135 -0.01745044 0.09806628 -0.039524682 0.047159847 0.18015258
-0.05999409 0.002227636 -0.011492454 -0.053152047 -0.026459754 0.043059167 0.056716364 -0.04581194
-0.018705098 -0.04459523 0.071309425 0.05360873 0.058075953 -0.06799339 -0.033327192 -0.006535712
0.05836505 -0.0014377295 -0.053183667 0.0036348207 -0.018110653 0.041764483 0.04483855 -0.0010090539
0.06365761 0.052098297 0.11181724 -0.01693949 -0.025916824 0.032116298 -0.017275391 0.06268056
-0.025967253 0.010776832 0.048874218 0.044322256 0.0018752739 -0.053677265 0.0684063 0.039468583
0.018366545 -0.03419929 0.058824465 0.018184207 0.030256864 0.06715616 0.054156847 0.14336121
-0.0058273487 0.0021742624 -0.022558026 -0.04350123 -0.05598345 0.039081294 0.008109502 -0.022114241
0.0018649023 0.054321837 0.050171427 -0.03459394 0.021648888 -0.019070217 -0.013856832 -0.023817958
-0.0018612132 0.014436661 -0.062424816 0.058353394 0.002195572 0.05224736 0.017628781 0.057907134
00000000: 7f73 203d 6f4a d13c 3c8e ca3c 20a1 253d
00000010: 2194 803b 79d0 4d3c 8d3b 423d 0655 8bbd
00000020: fddc 7abd 5851 973c cfa3 723d 6c10 28bd
00000030: 1de4 3e3d 3933 7cbd efa0 44bd 6e58 463d
00000040: e00e cd3c 5c68 143c 1e8d 903c 821d 5c3d
00000050: e98b 0dbc 24ce 2d3d 8b88 133c 897c 8d3d
00000060: ba77 583d fa95 f83c 19c5 5a3d b5d4 c63d
00000070: c3e5 a03c c744 933c 62b7 d4bb 764f 063c
00000080: 8d79 1fbd 1c8c 4c3c 9264 013d 41c3 5b3d
00000090: d35c f13c b11c 84bb 635c 51bd 8ca5 313d
000000a0: ab58 89bc 4555 88bc 88e7 933d 0edd 7e3d
000000b0: 1ced 48bd c3b1 f63b cef5 22bd 695f a23c
000000c0: b773 843d d065 13bd 5e60 203c 6736 7c3d
000000d0: 05d0 be3c 0f22 edbb b524 473d eeab 9f3a
000000e0: e5d7 543c 91cd 76bd 4b89 adbc 4def 27bd
000000f0: de4b 3bbc 0944 b03b b536 653d 8b00 5d3c
00000100: 7685 83bd 5f15 ebbc fbfa 16bd 26d8 63bd
00000110: e4a3 02bd 05db 4dbd faca 063d 6c27 1bbd
00000120: d4bb b73c a70f f03b 9b71 f93c 5183 c83c
00000130: 81d9 95bc 27b1 313d ef59 713d cf8f 6dbc
00000140: 1964 8a3d 033a 003d 3b4a cd3c c8b7 163c
00000150: ae1c 3e3b 6aed 33bd caad 0b3d 681a 4dbb
00000160: bcd6 8bbd c6b6 633d c5ad 9f3d 1c54 693d
00000170: 1652 2bbd 7c55 cf3d 030a c13a a60a 573c
00000180: 0a73 e73d 2eac 61bd 69f6 38bd dfbe e73b
00000190: 458e d0bb 568d 27bd bf83 a03c 50c6 0fbd
000001a0: fd56 3c3d 414f 223d c79f d53c 720a dd3c
000001b0: d79b c13d 64e3 813c a48e b3bb 52ec f93c
000001c0: 0aaf 90bd 9c94 3c3d f9e0 6d3d 9dff 503d
000001d0: b3bd 873d 0b7b fcbc 81f5 b33c 60f4 e2bc
000001e0: 2cd2 5ebd 52a4 463d 62c7 d0bc f419 493d
000001f0: 0d61 993c e829 e6bc 4c99 2a3d c1ba 433d
00000200: ba3b 8ebd 8043 253d 2d0c 4cbd 80b2 823b
00000210: a3f7 d73c 1ba9 f1ba 450b 8dbd 54db 763d
00000220: 144a c93b 2ffc 573d c2d8 3c3c 6a15 82bd
00000230: 009f 2bbd e8fe 87bc ef13 41b9 df23 ba3c
00000240: a015 853d 93af 9fbc f784 ecbc 989c 5d3d
00000250: c4a3 df3c ca5e 6dbd 077d ff3c 1aab 7d3d
00000260: f74b 513d c0f1 073c 20de 913d 78a8 0a3d
00000270: 89d1 6a3c 1250 aebc 4004 7c3d 6c5a 9e3d
00000280: bf96 76bd 1b13 183d 8a84 42bd 15bb b83c
00000290: dc7f 3d3d f821 f0bb e8e7 16bd 9c49 773d
000002a0: 8a94 773d 8749 603d 333e 5dbb 1f52 c53d
000002b0: 6663 1fbd 861d 13bd 60b5 763d 0871 aa3c
000002c0: 718b 0bbd d4c0 973d a61a 1c3d 3af4 8ebc
000002d0: f9d6 c83d a2e4 21bd af2a 413d eb79 383e
000002e0: 5dbc 75bd 88fd 113b d94a 3cbc f6b5 59bd
000002f0: 20c2 d8bc cf5e 303d 6b4f 683d 4da5 3bbd
00000300: 6f3b 99bc 7da9 36bd ad0a 923d d494 5b3d
00000310: 0de1 6d3d 1e40 8bbd 1882 08bd 8729 d6bb
00000320: 3110 6f3d 3272 bcba 1ed7 59bd 2c36 6e3b
00000330: cb5c 94bc 3c11 2b3d a1a8 373d 3b42 84ba
00000340: ec5e 823d 0665 553d 7000 e53d afc4 8abc
00000350: 854f d4bc 618c 033d 1f85 8dbc aa5e 803d
00000360: 47b9 d4bc 4f91 303c 5530 483d 418b 353d
00000370: c0cb f53a b1dc 5bbd 9a18 8c3d cfa9 213d
00000380: 7075 963c 8e14 0cbd ecf1 703d 0cf7 943c
00000390: 3edd f73c 2b89 893d 92d3 5d3d 48cd 123e
000003a0: 58f3 bebb 127e 0e3b 9ccb b8bc 592e 32bd
000003b0: e74e 65bd b513 203d b7dd 043c ed28 b5bc
000003c0: bd6f f43a 9380 5e3d 8e80 4d3d 60b2 0dbd
000003d0: 0259 b13c 2539 9cbc c407 63bc e11d c3bc
000003e0: f4f3 f3ba bf87 6c3c 2ab1 7fbd f803 6f3d
000003f0: 96e3 0f3b 5401 563d 3c6a 903c 0830 6d3d

net.12.bias f4 [64]
0.19740579 0.20977588 0.31316328 0.16941322 0.16911842 0.006456181 0.15419006 -0.055266727
0.21992777 -0.044262197 0.21771677 0.122716404 0.16017753 0.052891854 0.17483433 -0.07028952
0.22214998 0.15506412 0.028485574 0.21112658 0.005770271 0.18389279 0.19043425 0.24324605
0.25099415 0.38089463 0.25702438 0.21348509 0.20422906 0.14787054 0.19231237 0.18147391
0.15705149 -0.08643391 0.21040821 0.16098343 0.19380276 -0.05593718 0.19981349 -0.045337945
0.15055664 -0.013700422 0.22077732 0.1659687 0.004792422 0.13974865 -0.06352774 0.005249342
0.19406122 -0.057730116 0.37891382 0.15374237 -0.06506661 0.1688598 0.13442075 0.22605763
0.18469393 0.17962436 0.1630907 0.25137827 0.18281034 0.2174196 0.17986248 0.44229874
00000000: be24 4a3e 7dcf 563e f056 a03e a97a 2d3e
00000010: 612d 2d3e 5f8e d33b 00e4 1d3e 5d5f 62bd
00000020: bf34 613e 474c 35bd 25f1 5e3e bd52 fb3d
00000030: 9405 243e 21a5 583d c507 333e f4f3 8fbd
00000040: 497b 633e 21c9 1e3e 945a e93c 9131 583e
00000050: 8b14 bd3b 644e 3c3e 3201 433e 7e15 793e
00000060: 4e82 803e 9f04 c33e b398 833e d69b 5a3e
00000070: 6c21 513e 606b 173e 89ed 443e 4cd4 393e
00000080: 1bd2 203e 4304 b1bd 4075 573e d7d8 243e
00000090: 3b74 463e 621e 65bd e89b 4c3e 48b4 39bd
000000a0: 852b 1a3e bc77 60bc 7313 623e b3f3 293e
000000b0: c009 9d3b 451a 0f3e d51a 82bd ac02 ac3b
000000c0: fcb7 463e 6a76 6cbd fe00 c23e a46e 1d3e
000000d0: a541 85bd 95e9 2c3e 98a5 093e a77b 673e
000000e0: 6820 3d3e 73ef 373e 4001 273e a7b4 803e
000000f0: a232 3b3e 3ea3 5e3e df2d 383e fb74 e23e

net.15.weight f4 [64, 64, 3]
0.09354686 -0.013547074 0.053143106 0.09857059 -0.045042068 0.070388936 0.09323419 -0.006079386
0.067111 0.03223293 0.05255065 -0.062075686 0.07089676 -0.06894552 0.011217286 0.028614774
0.043891963 0.046138994 0.02813526 -0.04667668 -0.07083475 -0.05045038 -0.0029253534 -0.015216953
0.009732873 0.018698385 0.03673584 0.006983516 -0.00754109 -0.02599924 0.05978545 -0.051189363
0.002045362 0.029930213 -0.014387317 -0.035482876 0.086699456 -0.03511506 0.051280774 0.0004823539
-0.050571434 -0.012364507 0.048798654 0.015387669 -0.06727155 0.03688077 0.024266092 -0.005167102
0.051453754 -0.025369545 0.066470794 -0.0054947715 0.038002413 -0.06904713 0.007409291 -0.026907876
0.06811854 0.013218961 0.06139288 0.035989538 -0.05569423 -0.038860917 -0.019400926 -0.006024584
0.006030372 -0.036380142 0.015850645 -0.03904874 0.0026839983 -0.013300632 -0.013562921 0.06535055
0.060165577 0.04561271 -0.0029218642 0.1625883 0.0533324 -0.048769303 0.005666924 -0.06067427
0.05350668 -0.025568584 0.05877448 -0.003035652 -0.0017626518 0.041398503 0.046352778 0.018797448
0.007912852 -0.061854623 0.015493769 -0.03655448 0.06894227 -0.0068022264 0.046015564 -0.045426156
0.05666594 0.054752428 0.0061962428 0.05452249 -0.03143695 0.015348524 0.0726321 0.05330442
-0.024647195 0.081917755 -0.0013466108 -0.005098761 0.06436277 0.07139744 -0.013001693 0.013381869
-0.03407467 -0.003501327 0.0041826656 0.04946272 0.01597557 0.021653187 0.06416443 -0.062445886
0.079684995 -0.04165335 -0.058927286 0.024168355 -0.02180272 0.0035062046 -0.039162014 -0.052587174
0.05042957 -0.032433867 -0.032500736 -0.0021196066 -0.033237137 -0.013350529 0.011653522 0.062116656
-0.022294594 0.012702153 -0.057458088 0.008422938 0.039896645 0.020566612 0.0032703565 0.007882382
0.0682883 -0.028738756 -0.07010258 0.030438883 -0.02907774 -0.047005173 0.13707002 0.0014055193
0.0060601314 0.019428845 0.0078067686 -0.065459654 -0.00040802348 0.052738562 0.046206497 0.058695048
0.060819007 0.06316184 0.0043362016 0.054572675 0.058020134 0.08080158 0.009439837 -0.044855703
0.018279908 0.020639883 0.0679404 -0.042727947 0.025986247 0.033391576 0.07994533 -0.06987534
-0.021684302 0.021795753 -0.027915804 -0.046510633 0.08398916 0.02839795 0.054001298 -0.017915756
-0.05276532 0.046828162 0.07027603 0.044714894 0.0037938608 0.08446537 0.00811194 0.033075906
0.08415838 -0.008670686 -0.022770278 0.011588864 0.07012907 -0.059204586 0.1512269 0.01855701
-0.029019218 0.05592819 -0.06632853 -0.040600393 0.0017734179 0.041276813 0.031960275 0.061262034
-0.04357919 0.039964616 0.054517016 -0.007907365 -0.020368464 -0.022960046 0.057047635 -0.0431052
-0.01778301 -0.04714011 -0.0026882577 -0.05586639 0.036445245 -0.042564675 -0.02211165 0.04540305
0.007994568 0.0030063887 -0.0049720565 0.00055230584 0.07557741 0.00048847205 0.028853666 -0.03863658
-0.048293885 -0.056372724 0.047971494 -0.026512133 0.034302283 -0.009039646 0.044778567 -0.0050910884
0.0872401 -0.03671777 0.05986165 0.058993727 0.03942122 -0.03209311 0.052825656 -0.04627287
-0.03728086 -0.03561352 0.046100877 0.06562017 -0.022685148 0.0097536845 0.05717328 0.032383792
00000000: 7f95 bf3d 8cf4 5dbc 96ac 593d 61df c93d
00000010: 087e 38bd 1328 903d 91f1 be3d 9635 c7bb
00000020: 7e71 893d ad06 043d 5a3f 573d 1343 7ebd
00000030: 5232 913d 4f33 8dbd b5c8 373c 8869 ea3c
00000040: 0fc8 333d 3efc 3c3d eb7b e63c 0c30 3fbd
00000050: cf11 91bd 0fa5 4ebd 49b7 3fbb 8750 79bc
00000060: a176 1f3c 5b2d 993c 5278 163d fad5 e43b
00000070: 3f1b f7bb 5cfc d4bc 97e1 743d f0ab 51bd
00000080: 7b0b 063b 3530 f53c c8b8 6bbc 7e56 11bd
00000090: 7c8f b13d cfd4 0fbd ca0b 523d 72e4 fc39
000000a0: fe23 4fbd 8094 4abc 19e1 473d 901c 7c3c
000000b0: abc5 89bd 4a10 173d afc9 c63c cb50 a9bb
000000c0: 2cc1 523d cbd3 cfbc d721 883d 7c0d b4bb
000000d0: 6ba8 1b3d 9568 8dbd a3c9 f23b e86d dcbc
000000e0: bc81 8b3d 5794 583c 1a77 7b3d c469 133d
000000f0: a21f 64bd a02c 1fbd b1ee 9ebc e069 c5bb
00000100: 6d9a c53b 5803 15bd 36d9 813c 92f1 1fbd
00000110: 05e6 2f3b e5ea 59bc 0437 5ebc 82d6 853d
00000120: 2e70 763d 65d4 3a3d bf7c 3fbb 8c7d 263e
00000130: 1373 5a3d 52c2 47bd 9bb1 b93b 9585 78bd
00000140: d229 5b3d 3575 d1bc 82bd 703d caf1 46bb
00000150: c808 e7ba 7a91 293d 69dc 3d3d 1bfd 993c
00000160: e8a4 013c 465b 7dbd 94d9 7d3c 27ba 15bd
00000170: 9b31 8d3d 36e5 debb d17a 3c3d c710 3abd
00000180: 8b1a 683d 1544 603d da09 cb3b f952 5f3d
00000190: 08c4 00bd 6078 7b3c 23c0 943d bc55 5a3d
000001a0: eae8 c9bc 7fc4 a73d c380 b0ba 8213 a7bb
000001b0: a1d0 833d d238 923d 0e05 55bc a03f 5b3c
000001c0: e291 0bbd 8576 65bb be0e 893b 6c99 4a3d
000001d0: 33df 823c 0662 b13c a468 833d 42c7 7fbd
000001e0: e331 a33d b49c 2abd bd5d 71bd b7fc c53c
000001f0: 9e9b b2bc 5ac8 653b 5968 20bd a665 57bd
00000200: 3d8f 4e3d 60d9 04bd 7e1f 05bd 19e9 0abb
00000210: aa23 08bd 2dbc 5abc 6aee 3e3c 096e 7e3d
00000220: 27a3 b6bc b11c 503c 2c59 6bbd 5d00 0a3c
00000230: aa6a 233d 507b a83c 7a53 563b 1b25 013c
00000240: bcda 8b3d 8a6d ebbc f191 8fbd f75a f93c
00000250: 7134 eebc 7f88 40bd 155c 0c3e 6739 b83a
00000260: 1194 c63b 3e29 9f3c eccf ff3b b60f 86bd
00000270: fceb d5b9 6404 583d 0643 3d3d 386a 703d
00000280: 5a1d 793d ff5a 813d b216 8e3b 9987 5f3d
00000290: 85a6 6d3d 4c7b a53d 8ca9 1a3c 9dba 37bd
000002a0: bfbf 953c f914 a93c 5624 8b3d 8003 2fbd
000002b0: 1ce1 d43c 9bc5 083d 61ba a33d cd1a 8fbd
000002c0: 47a3 b1bc 028d b23c afaf e4bc ef81 3ebd
000002d0: 8202 ac3d d1a2 e83c 7730 5d3d 10c4 92bc
000002e0: 7320 58bd e3ce 3f3d e1ec 8f3d f726 373d
000002f0: 6ca2 783b 2efc ac3d f1e7 043c 9a7a 073d
00000300: 3b5b ac3d 7e0f 0ebc bc88 babc 38df 3d3c
00000310: d49f 8f3d 8280 72bd 39db 1a3e df04 983c
00000320: b6b9 edbc f514 653d 41d7 87bd 994c 26bd
00000330: 0872 e83a e011 293d c7e8 023d e6ed 7a3d
00000340: 1880 32bd f0b1 233d 3c4d 5f3d e58d 01bc
00000350: c4db a6bc b516 bcbc c8aa 693d 148f 30bd
00000360: adad 91bc fd15 41bd 7b2d 30bb 28d4 64bd
00000370: 9c47 153d 4c58 2ebd 7e23 b5bc 8cf8 393d
00000380: a6fb 023c d506 453b a2ec a2bb 9ec8 103a
00000390: 54c8 9a3d ce0c 003a 865e ec3c 6441 1ebd
000003a0: cfcf 45bd 16e7 66bd c27d 443d f92f d9bc
000003b0: 8d80 0c3d 061b 14bc bb69 373d 25d3 a6bb
000003c0: f0aa b23d 5f65 16bd 7d31 753d 68a3 713d
000003d0: 2578 213d 1174 03bd b75f 583d 9f88 3dbd
000003e0: d1b3 18bd 7bdf 11bd 46d4 3c3d de63 863d
000003f0: 34d6 b9bc ebcd 1f3c 872e 6a3d dea4 043d

net.15.bias f4 [64]
0.2141053 0.18834288 0.02948198 0.16915463 0.14415233 -0.033741117 0.15253669 0.20615675
-0.08296183 0.15840122 0.013139791 0.39295512 0.009716361 -0.06191076 0.19822955 0.16921087
0.16938731 -0.055927597 -0.04725448 0.33492914 0.49414712 0.11403388 0.46760768 0.18514845
0.19790329 0.024586964 0.13427334 0.1860039 0.15732163 0.24609858 0.16494012 -0.04364542
0.24911293 0.23635136 -0.051128227 0.36245546 -0.009920034 -0.011518344 0.1495788 0.3061403
0.17339961 0.20094703 0.21776748 0.1671112 0.1538151 0.20803246 0.18382062 0.18092106
0.022065891 0.23087129 -0.05506177 -0.006619842 0.20026226 0.27632773 0.19628996 0.01905895
0.15735662 0.12847975 0.21740638 -0.015895318 0.22962365 0.28852996 0.13705684 0.21090974
00000000: 6b3e 5b3e f5dc 403e 3184 f13c df36 2d3e
00000010: ab9c 133e 2034 0abd 9432 1c3e c11a 533e
00000020: e4e7 a9bd ee33 223e 4748 573c 6a31 c93e
00000030: 5f31 1f3c 2396 7dbd b0fc 4a3e 9d45 2d3e
00000040: de73 2d3e 5614 65bd ea8d 41bd d57b ab3e
00000050: da00 fd3e 988a e93d 466a ef3e 8e97 3d3e
00000060: 29a7 4a3e 9a6a c93c f37e 093e ce77 3e3e
00000070: ec18 213e 4401 7c3e 10e6 283e 8ac5 32bd
00000080: 7617 7f3e 1706 723e d56b 51bd c393 b93e
00000090: a387 22bc 70b7 3cbc 2f2b 193e 6cbe 9c3e
000000a0: ab8f 313e 0fc5 4d3e 70fe 5e3e 331f 2b3e
000000b0: b581 1d3e 7606 553e 793b 3c3e 5f43 393e
000000c0: 87c3 b43c 8669 6c3e 7388 61bd 42eb d8bb
000000d0: 8d11 4d3e d47a 8d3e 3c00 493e 8421 9c3c
000000e0: 1822 213e 3290 033e c79f 5e3e e636 82bc
000000f0: 7622 6b3e 33ba 933e a158 0c3e b9f8 573e
