model_artifacts/dl_tcn_latest_29600_31100.pt (torch, 378521 bytes, 20 tensors)

net.0.weight f4 [64, 30, 3]
00000000: 6f55 6cbd c6e3 a4bd 3e8e a93c fbee c4bc
00000010: 3138 803d 2bd0 4fbd 0499 0cbd 0de1 753d
00000020: 8a69 87bd 4dbd a7bd e787 b43d dc76 09bc
00000030: 8d6c 10be dca4 7ebd 5c02 eb3a 38b2 0fbe
00000040: a9df c83d 93bb 603d 6473 11be e1f7 823d
00000050: 0e09 6b3d 9d86 323d 74cd d3bd 3fca 903d
00000060: 20ac 15bc e572 113d 7082 3cbc a096 8bbd
00000070: ced9 813c 3edf 73bd b4aa 5dbd d406 203d
00000080: fde3 cabd 2f09 73bd 0873 d6bd b196 813d
00000090: 10e4 a2bd ee03 c83c 2255 f2bc 208c 673d
000000a0: 5a61 123d a597 bcbd d08a 853d 0ebc a23c
000000b0: 5468 093c 084b cb3d 4246 153d a01c 7e3d
000000c0: b03c 7dbc 42ee 723d 24d8 c4bd e622 05bd
000000d0: b086 a3bd b11d 6b3d b81e 8c3d 6ad2 043b
000000e0: d351 5abd 779f ebbd a3dd 8cbd 8c01 153a
000000f0: fe44 0bbe d440 563d 91a1 463d 0930 a93d
00000100: ca20 4d3a 208f 1d3d 6290 debd 0cee 4a3d
00000110: 288c 233d 6649 89bd f69d 703d 72d5 643d
00000120: 0b05 bb3d 187f 7fbc ec31 19bd 0e4e a33c
00000130: afdb aabd 68ff 29bc 25a2 c2bd 93f5 debc
00000140: 2978 173d 7ece 023e dcc4 bbbd a052 aa39
00000150: ae8f 66bc 5ed2 abbd fb36 d7bd b396 a23d
00000160: cb3c 82bd 8e36 af3c 85fe 09bd 948e cabd
00000170: 9a2f 8a3c 0c89 96bd 87fe 8b3d 72ff b73c
00000180: 0f84 67bd f73e 4dbd 690b c7bd 783d ecbd
00000190: a244 10bc 2abe 733d e05e a33c 85f6 c33d
000001a0: 26a3 153d dc62 803c e5a8 c5bd b090 55bd
000001b0: 574a 4f3c 7d1d d2bd a2be 5d3d cd75 143c
000001c0: 8cec a5bd 6da0 5cbd cb00 373d 70bd 9ebb
000001d0: 6171 3abd 97fd 96bd 6124 833d 34e1 51bc
000001e0: fdb9 86bc dc80 bdbd 9fe4 c43d aa0f e43b
000001f0: 9d05 823d 4c5e 073d 75f6 ccbd 8548 82bd
00000200: 6228 b5bd 213e d2bb f2aa d3bd 2438 983c
00000210: b866 8dbd a2d2 ac3d a344 aa3d 10c4 ba3d
00000220: f007 2abc 1a01 48bc ceae 2c3d e2c4 d63c
00000230: f214 c73a c6d0 b83d 8f30 9f3d ab0f 37bd
00000240: 7436 173d 5fbe 91bd 382d a4bd cb63 f0bd
00000250: e885 2b3d 6371 7bbd ab73 01be fab0 dd3c
00000260: 9540 c4bd 1e2c e1bd c434 e4ba 72bc 77bc
00000270: 76ac 05be 8efb c73c fe4a 493d cde8 6d3d
00000280: ceb1 20bc 49b5 ef3c 8900 d8bd 1b23 e83c
00000290: c399 b93d ec38 923a 0021 b8bd b57a b93d
000002a0: d7b9 aa3d 6fc5 5abd 5ab0 0c3d 4759 233d
000002b0: bbe3 8e3d 005f 293d 0150 773d 04a2 373d
000002c0: 1e44 363d c8ce b23b 2552 9c3d 6649 69bc
000002d0: 4cf4 d53d ea1f b6bd 1ef7 6e3c 5e39 843d
000002e0: f216 95bd a787 c63d 0751 143d d069 f03c
000002f0: 8b6b 823d 3a26 c73d cfec 47bd 7edc 5a3d
00000300: 99bd 463d 135f d13d 914d ba3d 9092 7e3d
00000310: 9ca4 373d 47b6 8e3d 5247 e03d b212 9c3d
00000320: a534 bc3d 25c9 1bbd bd22 c8bd 9c1c 6bbd
00000330: 1328 8f3c 8ecf 31bc d263 673d 0167 323d
00000340: ee52 68bd a492 aabd 7894 a63b 9039 b7bc
00000350: 7c48 d23a dd7d 043d 3b18 c63d 3407 34bc
00000360: a147 d6ba 47ac bfbd f662 683c ab6d f4bd
00000370: 8700 be3d 7278 96bc 6a7a 8c3d 9c96 8f3c
00000380: a08f 23b8 52d2 863d 9e66 453d da14 523d
00000390: fe0f 633a fe3b febc 32f9 1cbc 2ee5 923c
000003a0: 6d0a a83d cb69 8c3d 4f0a 2fbc a331 d53d
000003b0: 0022 f4ba 1feb bcbd 8ac3 583d ca42 d7bd
000003c0: 6973 c7bb 4250 09bd 544e 84bd adfd f43d
000003d0: 26f4 50bc 9a9f 653c 7427 f9bc 2693 25bd
000003e0: 05e9 39bd 3d71 6a3d 5424 c7bd 5efe 793d
000003f0: 28b1 70bb c7d1 c33d 1b7a 57bd 073e cb3d
-0.057698663 -0.08051257 0.02069771 -0.024039736 0.06260718 -0.050735634 -0.034325615 0.06002908
-0.06611927 -0.08190403 0.08814984 -0.008390155 -0.14103909 -0.06216894 0.001792978 -0.14032829
0.09808285 0.054866385 -0.14204174 0.063949354 0.057381682 0.04358541 -0.103419214 0.070698254
-0.009135276 0.035509963 -0.011505708 -0.06815839 0.015850928 -0.059539072 -0.054117873 0.03906901
-0.099067666 -0.05933493 -0.10471159 0.0632757 -0.07953656 0.024415936 -0.02958161 0.056530118
0.035737373 -0.092086114 0.06520617 0.019865062 0.00838669 0.099264205 0.036443956 0.062039018
-0.015456364 0.05930925 -0.09611538 -0.032503985 -0.07984674 0.057401363 0.06841797 0.0020267018
-0.05330069 -0.11505025 -0.06878211 0.00056841294 -0.13600537 0.05230792 0.048493925 0.08261115
0.00078250153 0.038466573 -0.108673826 0.049543425 0.039928585 -0.06703453 0.058744393 0.05586762
0.09131821 -0.015594266 -0.037401125 0.01993468 -0.083426826 -0.010375835 -0.09503583 -0.027216708
0.036979828 0.12774083 -0.09168407 0.00032486487 -0.014072342 -0.08389734 -0.105085336 0.079389
-0.063592516 0.021388318 -0.033689994 -0.09890476 0.016868401 -0.07350358 0.068356566 0.022460673
-0.056522425 -0.050108876 -0.09718973 -0.11535162 -0.008805426 0.059507526 0.0199427 0.09568504
0.036532544 0.01567214 -0.09651355 -0.052139938 0.012652001 -0.10259531 0.05413688 0.009061289
-0.08101758 -0.05386393 0.04467849 -0.00484436 -0.045518283 -0.07372587 0.06403423 -0.01281004
-0.016446108 -0.092530936 0.096139185 0.006959875 0.06348727 0.033048913 -0.100079454 -0.06361488
-0.08845593 -0.0064160977 -0.103353396 0.018581457 -0.06904358 0.084386125 0.08313873 0.09119427
-0.010377869 -0.012207294 0.042158894 0.026216928 0.0015188737 0.090241954 0.07772934 -0.044692677
0.036917165 -0.071163885 -0.08016437 -0.11737784 0.04187575 -0.06138743 -0.1264178 0.027061928
-0.095826305 -0.10994743 -0.0017410745 -0.015120612 -0.1305407 0.024411943 0.049143784 0.058083344
-0.009808017 0.029261248 -0.10546977 0.028337052 0.09062531 0.001115588 -0.08990669 0.09056608
0.083362274 -0.053410944 0.03434787 0.039880063 0.0697703 0.041350365 0.060379032 0.044832245
0.044498555 0.005456779 0.07632855 -0.014238691 0.104469866 -0.08892806 0.0145852845 0.064562544
-0.07279767 0.096938424 0.036210086 0.02934733 0.063681684 0.09724088 -0.048809823 0.053432934
0.04852066 0.10223212 0.09096826 0.06215149 0.044834718 0.069683604 0.10951103 0.07620753
0.09189729 -0.038033623 -0.09772251 -0.05740033 0.017475164 -0.010852708 0.05649168 0.043555263
-0.056719713 -0.08328751 0.005083617 -0.022366315 0.001604333 0.032346595 0.0967259 -0.0109880455
-0.0016348251 -0.09359031 0.01418375 -0.1193498 0.09277444 -0.01836798 0.06859286 0.01752787
-3.899599e-05 0.06583084 0.048193567 0.051289417 0.0008661746 -0.031034466 -0.009580897 0.017931547
0.082051136 0.06856116 -0.01068361 0.10409858 -0.0018625855 -0.09224533 0.052920856 -0.10510786
-0.006086756 -0.033523805 -0.064602524 0.11962447 -0.012753522 0.014015103 -0.03041432 -0.040423535
-0.04538824 0.0572369 -0.09723726 0.0610336 -0.0036726687 0.09561496 -0.052606683 0.0992394

net.0.bias f4 [64]
00000000: 9657 b73c ba5a eb3c 5076 acbd 4f1d 173e
00000010: aa06 2cbd e0ea 68b7 0b8b ff3d 95d1 a83d
00000020: 83d5 013e d40e 14bd da44 af3d b164 613d
00000030: 5c5e 2dbd 1561 8c3c b30b 023c bdc7 fe3d
00000040: a71a 2cbd a909 123d f720 a43d 6eeb 33bc
00000050: 8ca4 973b 6e8a 48bb 0615 0b3e e914 0e3e
00000060: a039 3cbc f63a 213d 3015 77bd 8919 b83d
00000070: 1831 c73d e377 673c 6bc7 4c3d 18f9 c73d
00000080: 292b 093e 5eed 093e 1a18 e73a 77fb 713d
00000090: 96e3 853d 8867 683c 8784 b73c c163 093c
000000a0: db79 253b 2b22 96bc e71a 703d d05a d33c
000000b0: d8cd db3d d175 0e3d 932b ec3d c3d5 11bd
000000c0: f4f4 c63d 0a2f bb3d 9ca7 b33d edbf c43d
000000d0: 2ea8 e63d 61a9 033e 3785 fa3d b427 babc
000000e0: 88cd cd3d 1d5f db3d 9775 933d cc80 d33d
000000f0: 17a3 5bbc 545b b13d d386 a13d 2bf6 cc3b
0.022380631 0.028729785 -0.08421004 0.14757274 -0.041998543 -1.3882964e-05 0.12477692 0.082430996
0.12679105 -0.036146954 0.08558054 0.055027667 -0.042326316 0.017136136 0.00793736 0.12440441
-0.042017605 0.035653744 0.080141 -0.010981424 0.00462777 -0.0030600089 0.13582239 0.13875164
-0.011488348 0.03936287 -0.06032294 0.089892454 0.09726161 0.014127704 0.049994867 0.09764308
0.1339537 0.13469455 0.0017631084 0.059077706 0.06537549 0.01418484 0.022402061 0.0083856
0.0025249633 -0.01832684 0.058619406 0.025800139 0.10732621 0.034780327 0.115317486 -0.03560425
0.0971469 0.09139831 0.08772203 0.096069194 0.112625465 0.12857582 0.1223244 -0.02272401
0.100489676 0.10711501 0.07200163 0.103273004 -0.013405583 0.086599976 0.07887044 0.0062549314

net.3.weight f4 [64, 64, 3]
00000000: 94e8 2d3b b6c3 89bc 6ea4 e23b 266a 0cbd
00000010: 1e2d 01bb 7dbf ccbb 2585 01bd bc12 e2ba
00000020: e1ae 23bc 0483 aa3d 66b9 bdbc d4a9 20bd
00000030: 0094 08bd 4499 383d 0630 443b 0e10 ffbc
00000040: 658f 29bd d8b4 8e3d b35c bf3d 46af 1c3d
00000050: 747b 853d c18b 073a 5c09 41bd 80be 813d
00000060: fa28 89bb 3642 11bd 18dd 8bbd ed36 e53c
00000070: c1ad 403d f8a1 81bc 9441 c33c 9ed6 0a3d
00000080: 0c3b c23b abf8 d5bc a6fd 10bd 2840 533d
00000090: 8701 283d 90cf 5abd dc4b d5bc 4b76 f23c
000000a0: 6af5 46bc e408 8cbd cf98 ffbb ba93 283b
000000b0: a442 6e3d bd99 013d 606f 313c 3ddc b8bc
000000c0: e020 ca3d aea1 8bbc 9c37 833c 7b5b aabc
000000d0: 26aa 8bbd 795e 8e3d e2b5 b43d 845b 023b
000000e0: ee51 253c d095 943d 6234 683d 287f 743d
000000f0: be7d 8abc e80b 553b 944d 7dbc b018 a639
00000100: 1943 54bb 86a7 373c 76bf 793d ba6f 833d
00000110: 90b6 853d 917d f43c 2af2 91bc 74fa 133d
00000120: 3ca2 683d c454 fa3b c62c 87bd 825c 4d3d
00000130: 4188 84bd a43f 923d 014d c33b 1010 25bc
00000140: da3a 463d 7ea5 b33d 0e7b 85bd aaf9 cc3c
00000150: bd59 e73d 33bf 66bc c35a 883c c95a bd3d
00000160: 4e3e bdbc 1f52 89bd de6f ec3d 22aa 8ebd
00000170: 132d 33bd 5361 a33d e475 52bd 4a5c ddbc
00000180: 6671 c03d 081f fabc 609d e93c bb5f f63c
00000190: c827 61bc a4da a3bc 6a58 5a3d 95db 34bd
000001a0: 1462 823c be3e a3bc 58ff 33bd eae5 9f3c
000001b0: d282 9e3d a6e6 7a3d 2110 36bd 033f 51bc
000001c0: d4be 8dbd d01a 703d b70c 8c3c 70f8 343d
000001d0: 72bb e7bc 4bce 553d ae43 f2bc b0c4 dbbc
000001e0: 9d3a 343d e461 763d 9638 1b3d 736e 3e3d
000001f0: deeb 443d 2aa7 e539 e83c 763d 3ac7 f13b
00000200: ce24 8eba 09c1 a23d 4c32 dabc 14fa 92bd
00000210: b44b 863b b08f 8a3d 48c9 3a3d 001b 273c
00000220: bc1b 89bb 820c 7dbd d816 c53d 60f4 2ebd
00000230: e218 32bd 3b0f 3f3d c02b 683d 4a24 533d
00000240: 48af e8bc 9ae8 343d 1c27 173d a6bb 623d
00000250: 2620 8e3c aa90 863d 296a ebba e6db 87bd
00000260: cec0 66bd d7eb 9bba 6e9e f1bc f70d 19bc
00000270: 0619 e9bc 160e 4a3c af13 8fbd 34d5 873d
00000280: 8059 283d 8662 8d3d d851 8a3d fca2 74bd
00000290: 52d9 8abb 8f55 cfbc fab8 203d 8ebb 193d
000002a0: 6220 bfbc dcc3 5d3c 08ca f2bc b8d9 cf3d
000002b0: ef0b fcbc 725f bb3b 58c3 c83c 5a44 da3c
000002c0: 8def 183d b434 2b3d 5e5f 203d 2137 91bd
000002d0: 5bca ea3c 7278 183d ce9b 8dba 86f4 c03d
000002e0: d8e5 e03c 502e e43c fe69 c2b9 38d7 bdbc
000002f0: 1a76 f9bc 77e5 a33b 8047 123c ce44 5a3d
00000300: f57e a63d be84 20bd e81d 363d aa73 153d
00000310: dca0 893d 8344 8fbd 43c9 8fbc cad5 11bd
00000320: 4c76 32bd a7ea 05bd 3261 263d eaf3 16bc
00000330: 686e 033c de36 503d aef7 1f3c f19e 603c
00000340: 502d 8f3c 68b9 813d 17ff 8f3d dcd4 5abd
00000350: c0de 113a 2b7c a1bc 00f3 183d a8ad a33b
00000360: 89e1 9e3d 9db8 72bd 7a0d f23c 037f 0b3d
00000370: 5cfd 6abc bbc4 af3a dd0f 0cbd ec1e 2bbd
00000380: 526e 8cbd 37ac 1fbd e234 553d cc6b 893b
00000390: 9244 99bc 26f2 623d 40bc 9a3c 4bc7 b93c
000003a0: b0bd ff3a 0c82 71bd 0aa7 d43c 2822 303c
000003b0: 461c 283d bac8 ad3d 40a5 483d 78fc 6a3d
000003c0: f2d6 0abd 53cf 323d 5486 86bc e89f 833d
000003d0: 6473 ccba e409 2e3d b6c2 1bbd 6242 993c
000003e0: c6dd 4a3c 64a7 ff3c 6441 90bc 1699 753c
000003f0: ec78 aebc 7e39 60bd 1ce1 79bc d368 49bd
0.0026536332 -0.016816955 0.006916574 -0.03428092 -0.001971073 -0.006248413 -0.031621117 -0.0017248015
-0.009990425 0.083257705 -0.023159694 -0.03922446 -0.03334427 0.04506804 0.002993585 -0.031135585
-0.041396517 0.06968087 0.09343853 0.03825309 0.065176874 0.0005170666 -0.047128066 0.06335163
-0.004185793 -0.035463534 -0.0682928 0.027980292 0.047040705 -0.015824303 0.023834981 0.03389608
0.005927449 -0.02611955 -0.035398148 0.051574856 0.04101708 -0.053420603 -0.02603715 0.029597422
-0.012143472 -0.06837633 -0.0078001986 0.0025722818 0.058169022 0.031640757 0.0108297765 -0.022565955
0.09869552 -0.017044868 0.016017728 -0.020795574 -0.068195626 0.06951613 0.08823754 0.0019890973
0.010090334 0.07255137 0.05669058 0.05969158 -0.016905662 0.0032508317 -0.015460391 0.0003168038
-0.0032388626 0.011209374 0.060973607 0.064177945 0.06528962 0.029845031 -0.017815668 0.036127523
0.056795344 0.0076394994 -0.06600337 0.05013705 -0.06471301 0.07141045 0.0059601073 -0.01007463
0.04839597 0.087717995 -0.065176114 0.025021393 0.11296413 -0.014083671 0.016644841 0.092458315
-0.023100998 -0.067051165 0.115447745 -0.06966044 -0.043744158 0.079775475 -0.05138196 -0.027021546
0.09396629 -0.030532375 0.028517425 0.030074945 -0.013742395 -0.020001717 0.053306974 -0.044154722
0.015915908 -0.019927379 -0.043944687 0.019518811 0.07739796 0.06125512 -0.044448975 -0.012771371
-0.06921163 0.05861932 0.017095907 0.04418224 -0.028287623 0.05219869 -0.029573288 -0.026827186
0.04400121 0.06015195 0.03789576 0.04649205 0.048076503 0.0004380283 0.06011668 0.007378486
-0.0010844709 0.07946975 -0.026635312 -0.07176605 0.00409838 0.067656875 0.045602113 0.010199308
-0.0041842144 -0.061779507 0.09623498 -0.042713523 -0.04348076 0.046645384 0.05668235 0.05154828
-0.028403893 0.04416714 0.036902532 0.055354737 0.017349314 0.06570561 -0.0017960715 -0.06633739
-0.056336217 -0.0011895847 -0.02949449 -0.009341708 -0.028454315 0.01233246 -0.06986176 0.06632462
0.04110098 0.069035575 0.06753892 -0.059725747 -0.0042373324 -0.025309352 0.039238907 0.03753238
-0.023330871 0.013535466 -0.029637352 0.101489484 -0.03076741 0.005718165 0.02450721 0.02664392
0.03733783 0.04179831 0.03915345 -0.07090593 0.028660944 0.03722424 -0.001080388 0.09421639
0.027453348 0.027854115 -0.00037081534 -0.023173913 -0.030451823 0.0050017196 0.00892818 0.053288274
0.08129684 -0.039189093 0.044462115 0.03648726 0.067201346 -0.069954894 -0.017552024 -0.035604276
-0.043569848 -0.032694485 0.040620036 -0.009213427 0.008021928 0.050833575 0.009763641 0.01370977
0.017477661 0.063341916 0.070310764 -0.053425655 0.00055645034 -0.019712528 0.037341118 0.0049950667
0.07757861 -0.059258092 0.029547442 0.034056675 -0.014342632 0.0013410071 -0.034194816 -0.041777536
-0.068569794 -0.038982596 0.052052386 0.0041937586 -0.018709455 0.055406712 0.018888593 0.022678038
0.0019511487 -0.058961913 0.025958557 0.010750331 0.04104259 0.08485551 0.04898572 0.05736968
-0.033896394 0.04365475 -0.016421475 0.06426984 -0.0015598354 0.0424899 -0.038027488 0.018708412
0.0123819765 0.031207748 -0.017609306 0.014990112 -0.021297894 -0.05474233 -0.015251424 -0.049172234

net.3.bias f4 [64]
00000000: 5009 a53d b8ed a23d 63b3 253d a26c 773d
00000010: 13a0 5c3c dff7 d23d 6e15 cfbc b733 9d3a
00000020: 2fa6 3abc e313 0e3d b4f8 5f3d e108 f1bb
00000030: ea8f 413c ba02 ab3d e923 b5bc ae3c b93d
00000040: 5a56 2c3d b536 8c3d d3c7 9cbc 13d0 8f3c
00000050: 2693 95bc fe77 853d aee9 d4bc dd51 56bd
00000060: 105e 613d 5ef2 34bd 3e23 893d f108 be3d
00000070: 7207 38bc 788a 24bc 6395 b4bc 295c d73b
00000080: ec63 ff3d 3c17 b13d bbf0 443d fb4c 4b3c
00000090: f4fc 13bb 8716 2f3d bcc7 2337 cb43 653b
000000a0: da0e 1abc 9644 f43d 2d25 5abd 7c44 0c3d
000000b0: 691a ae3d be4f 903d d6e0 643d 266f ea3d
000000c0: d8ae d6bc 94e6 c53d 9ef5 733d ce49 6e3d
000000d0: b54e 8c3b e66d 763d d4b9 293d a0cb e83c
000000e0: bb1c df3d 551c abbc 7ffe be3c 55d7 aa3d
000000f0: 52c3 c83c d07d e43d a817 b23d d90f d03d
0.08058417 0.079554975 0.04045428 0.060406335 0.013465899 0.10301184 -0.025278773 0.0011993562
-0.01139216 0.034686934 0.05468054 -0.007355795 0.011814097 0.083501294 -0.02211185 0.09044777
0.04207454 0.06846372 -0.019138252 0.017555272 -0.018258642 0.06517027 -0.025990333 -0.052324165
0.055021346 -0.04417645 0.06696175 0.09279049 -0.011232244 -0.010042779 -0.02204389 0.0065722656
0.124702305 0.0864701 0.04808114 0.01240849 -0.0022581192 0.042746093 9.762061e-06 0.0034983035
-0.009402955 0.11927144 -0.05325811 0.034245 0.08501131 0.070464596 0.055878483 0.11446981
-0.026206419 0.0966312 0.05956041 0.058175854 0.0042818435 0.0601634 0.041436985 0.028417408
0.10894152 -0.020887533 0.023314713 0.083418526 0.024507198 0.11156809 0.08695918 0.10159273

net.6.weight f4 [64, 64, 3]
00000000: c3c3 8b3d 1f0e 7cbd 183f 7a3d 2c03 843d
00000010: 806a 403d 81ad 6dbd 9b2f a43d d2bc 073d
00000020: 4442 8f3d 6408 13bd 1efd 5f3d eaaf 37bc
00000030: 5409 053e 96e5 033d 7e66 0a3d 4398 843d
00000040: 0e9d 3c3d faa0 8f3d b542 f83c 1899 3ebd
00000050: 4264 c73c e52c 943c 547e 4b3d 3f83 22bd
00000060: 2573 593d 3302 5cbd 8c8d 7c3c fbd3 03bd
00000070: 30b8 1d3d 7ab3 6dbd b869 bbbc 2276 3c3d
00000080: f2d1 46bd 2abd c63d de2f cebc b86b 5dbc
00000090: f742 233c 4ac1 59bd 54a0 823d e30e a33d
000000a0: fe8f 6f3d 4593 80bd ba48 1cbd 3e44 88bd
000000b0: 493f 13bd 587f dbbc 0d1b e53b 8a86 1c3d
000000c0: f64e c13d 5159 343d 0937 76bd 8d61 e33c
000000d0: c407 4d3d 3d88 a0bc 0360 a83d fc26 b8bc
000000e0: 320f ecbb 0957 b53c 8e16 843d ecf4 8b3d
000000f0: fcd8 a93d 3ba0 1fbd 63f5 15bd 4bfa 19bd
00000100: d59a 59bd 53f0 0c3d 30da b43d c241 2d3d
00000110: ccf3 dd3c 37d2 f13c 8067 923c 9193 84bd
00000120: fa93 273d de1e 5cbd def5 31bb fcf5 073d
00000130: d6e1 6ebc 5650 a83c 5f86 433c 2d50 773b
00000140: f857 5b3c 6ad9 903d e4b2 8a3d 4433 3d3d
00000150: 8c72 503d 5ca1 7f3d 60c6 4cbd 5155 47bd
00000160: d636 3bbc 81d2 68bd ad53 e83b 7be2 06bd
00000170: 68bc 023d c6dc fcb9 7c67 da3c 09a4 6f3b
00000180: 117a 263d fe98 fe3c bffe 9ebc f21d 893d
00000190: f8f6 823d 480f 4abd 3f67 c53c 99ee 8abd
000001a0: 97e5 36bd b7b8 9f3c 6253 a33a 0efe 2b3d
000001b0: 9d92 05bc c4c3 b33b 60b2 873d ad42 cb3d
000001c0: 3ce4 7fbd a923 16bd bb0b 9e3d 7c4c c23c
000001d0: f0f7 943c 05ab 3a3c aaa6 843c fc78 863c
000001e0: fee4 1dbc 8ab4 d5bc f22b 11bc 3900 6a3c
000001f0: e8dc b33c 4282 193d 5dd3 6b3d 6ebe 59bd
00000200: 2010 13bd 5415 aabc 645b 953c 72b1 8b3d
00000210: ccd0 973d 1c86 563d b960 18bd af9e c93c
00000220: 7c47 02bd 260d 753a db89 a13d fe7c 2c3c
00000230: 6a42 87bd 3f38 f43b 84ba b7bc d4d9 113d
00000240: 456b 153d 2e74 28bc 0231 ff3c 7aa0 773c
00000250: 607b c3bc 90ad 1b3d 823a cc3d cc57 45b9
00000260: 0897 8c3c 842d d03d 5cf9 82bd 6c3c e73c
00000270: 4b56 ad3c b9f5 2dbd b6a7 883d 2088 dc3c
00000280: c09f e7bc dddd fe3c f817 2c3d d9d6 5fbd
00000290: 6a94 d8bc 1735 21bd 226f 97bb c043 4a3d
000002a0: 3d5c 63bc 086d 523d ae30 8f3d aeb1 6a3d
000002b0: ac8e de3a 1aef 45bd 6b97 ca3d 1c5b 1b3d
000002c0: 992e 88bd 90fa 89ba b62d 35bd 9298 043c
000002d0: e99f 2a3d 9264 e2bc de2f 813c 9a94 553c
000002e0: 0613 63bc 90be 05bc 6e87 9c3d 88be 7c3d
000002f0: c50c 653c 8cbd 0fbc eeea d63a 3adc 2d3d
00000300: 6c68 44bd ea24 7c3d f08e 86bc 9fd8 3bbc
00000310: 79ca 1bbd e6aa 3e3c 71b1 bc3c d8ae 91bd
00000320: 2781 90bd bced 26ba 3c08 453c 6c83 52bd
00000330: 690b 89bd bcb7 083b f03c 4f3d 356a 843c
00000340: 2145 17bd 34b4 b33c 2c57 573d 8c79 923d
00000350: 18e4 97ba 9f4b bbbc 0804 24bb c2ee 0e3d
00000360: f926 183c b812 61bb 04b5 763c 246b 833c
00000370: 62ed 6c3d 7e97 13bc 3b8c 51bc 8229 45bc
00000380: 08da 62bd 9b3a 283d c181 7a3d df79 8abd
00000390: f242 b2bd 68ec 63bc 3a41 603d 5f6d 903b
000003a0: 8e45 92bc ce6f 2e3d 2bf8 4a3d bbb0 80bd
000003b0: 6c69 cc3c 8521 54bd f8ef 7b3d 5c3c 033c
000003c0: 8fb3 0ebb 5834 073d c072 2f3d 8861 a6bd
000003d0: 397e 0bbd ae04 f23c 7c2b d13b 086a 803b
000003e0: 680e 803d 9250 59bd a017 703d 6c3f de3a
000003f0: 2ee9 aebc b63c a5bc 5ca4 943b 1da3 4c3c
0.06824448 -0.061536904 0.061095327 0.064459175 0.046976566 -0.058026794 0.080168925 0.033139057
0.06995061 -0.035896674 0.05468475 -0.011211375 0.1299184 0.032201372 0.03378915 0.06474354
0.046048217 0.07013126 0.030305246 -0.04653272 0.024339799 0.018087814 0.049681023 -0.039675947
0.053088326 -0.053713035 0.015414607 -0.032184582 0.038505733 -0.05803249 -0.022877559 0.046011098
-0.048540063 0.09704049 -0.02516931 -0.013514452 0.009964696 -0.05316285 0.063782364 0.07961824
0.05848693 -0.062780894 -0.038155295 -0.06653641 -0.035949025 -0.02679412 0.00699175 0.038214244
0.09438889 0.04403049 -0.06011108 0.027756477 0.050056234 -0.019596213 0.08221438 -0.022479527
-0.00720396 0.022136228 0.064496145 0.068338245 0.082933396 -0.038971167 -0.036610972 -0.037592214
-0.053126175 0.03440888 0.088306785 0.04229904 0.02709379 0.029519184 0.017871618 -0.064734586
0.040912606 -0.053740375 -0.0027154605 0.033193573 -0.014580211 0.02054612 0.011933892 0.0037736997
0.013387673 0.070727184 0.06772402 0.04619147 0.05089049 0.062409744 -0.049993873 -0.04866535
-0.011426648 -0.056841377 0.007090053 -0.032930832 0.03191796 -0.00048229675 0.026660673 0.0036566278
0.040643755 0.031078812 -0.019408582 0.06695165 0.06394762 -0.04933098 0.024097083 -0.0678379
-0.044652548 0.019497259 0.0012460763 0.041990332 -0.008152631 0.0054859836 0.06625819 0.09924827
-0.06247352 -0.036655102 0.07717081 0.023718111 0.018184632 0.011393313 0.016192753 0.016415112
-0.0096371155 -0.026087064 -0.008860575 0.01428228 0.021955922 0.03747774 0.05757462 -0.053160124
-0.03590405 -0.020762123 0.018232055 0.068209544 0.07412872 0.05237399 -0.037201617 0.024611799
-0.031806454 0.00093479676 0.07887622 0.010527847 -0.06604464 0.007452994 -0.022427805 0.035608128
0.036479253 -0.010281606 0.031151298 0.015113944 -0.02386254 0.03800732 0.09972097 -0.00018820091
0.017161861 0.101649314 -0.06395218 0.028227054 0.021159312 -0.042470668 0.06672613 0.026920378
-0.028274417 0.031111652 0.042015046 -0.054648254 -0.026437957 -0.03935727 -0.0046214024 0.049381018
-0.013876972 0.05137351 0.06991707 0.057298355 0.0016979775 -0.04832373 0.09892162 0.037928686
-0.06649513 -0.0010526944 -0.044233046 0.008093016 0.04165641 -0.027635846 0.015769895 0.013035918
-0.013859516 -0.008163109 0.07643019 0.061705142 0.013980095 -0.008773219 0.0016396919 0.042446353
-0.047951147 0.06155864 -0.01642558 -0.011465221 -0.03803489 0.011637425 0.02303383 -0.07113427
-0.07055884 -0.00063678226 0.012025889 -0.051394865 -0.066916294 0.0020861467 0.050595224 0.016163925
-0.03693116 0.021936513 0.052573368 0.071520895 -0.0011588363 -0.022863207 -0.0025026817 0.034895666
0.009286636 -0.0034343433 0.015057806 0.0160423 0.057843573 -0.0090082865 -0.012789781 -0.012033822
-0.055383712 0.041071516 0.0611589 -0.06761526 -0.08704175 -0.013911344 0.054749705 0.0044075693
-0.017855432 0.042587094 0.049553078 -0.06283709 0.024952613 -0.05178978 0.06150815 0.008009996
-0.0021774506 0.033008903 0.042834044 -0.08124071 -0.034055922 0.029543247 0.0063833576 0.00391889
0.06252748 -0.053055353 0.05861628 0.0016956157 -0.021351423 -0.02017055 0.0045361947 0.012490061

net.6.bias f4 [64]
00000000: fb49 313d abc4 73bc 8ecd d83c 31e1 99bc
00000010: f0fd a7bd f90a d53d d878 e93c d30f ae3d
00000020: 8225 85bd e4b6 ee3c 14e4 b33d a7d2 bc3d
00000030: b6ec 763b 80a0 cdbc 9cf0 73bd 2537 5a3d
00000040: c164 c5bc 2d12 4c3d af11 7d3d 74d6 a63d
00000050: f759 43bc 7b77 f53d 33fe 233d 8d67 a3bc
00000060: 9a0d a93d 21d0 d33d 8d2a 6abd 8788 cebc
00000070: b85b 4a3a 8880 87bc cfb5 df3d e458 b83d
00000080: 2cd4 ce3c 382a 753d 0ebe c13c b3ae af3b
00000090: 0e6c 9e3c c9ed b73d b500 853b b50e 223d
000000a0: 7860 b03d 1b9e 6a3d 38e2 473d b54b a93d
000000b0: c8c8 a3bc 8788 253d 0572 9c3d 9104 c9bc
000000c0: db4b 1b3d 9874 563d 413e a4bd 99b4 8abc
000000d0: 02ef d13d 190c a13b caf0 e53d c3a4 473c
000000e0: 50c2 c13c bda1 e73c 82b4 8e3d 7f74 e93c
000000f0: 83c9 7bbd de1e a9bc 6ecd b73d 4718 b73d
0.043283444 -0.014878432 0.026465204 -0.018784137 -0.082027316 0.104024835 0.028500006 0.08499112
-0.06501295 0.029139943 0.08783737 0.09219866 0.0037677712 -0.025100946 -0.059555635 0.053275246
-0.024095895 0.04982202 0.061784443 0.081463724 -0.011923305 0.1198568 0.040037345 -0.019946838
0.082545474 0.10342432 -0.057169486 -0.025211586 0.00077193556 -0.01654078 0.10923349 0.090013295
0.025247656 0.059854716 0.023650195 0.005361402 0.019338634 0.08980901 0.004058922 0.039564807
0.0861215 0.057279687 0.048799723 0.08266393 -0.0199932 0.040413406 0.07638935 -0.02453831
0.03791414 0.052357286 -0.080196865 -0.016931819 0.10250665 0.004914772 0.112275675 0.012185278
0.023652226 0.028275365 0.06968023 0.028497932 -0.061471473 -0.020644601 0.089747295 0.089401774

net.9.weight f4 [64, 64, 3]
00000000: 8cfa 473d 28b2 fabc 3ac7 e1bc 7223 4d3d
00000010: 0873 97bb 0a49 623d 7b92 29bd ceab 563d
00000020: 06cb b23c 6808 4bbd 46c3 653d c47e f2bc
00000030: 57d5 dabc 47b2 89bc 7859 fdbc da23 d9bc
00000040: 1afe ccbc 6483 08bc 4a6c 923c 443d 763d
00000050: 86ca 0d3c 88e3 423c b64d 993c 4746 88bd
00000060: 8a46 843b bec3 b6bc e861 c6bc 6586 86bd
00000070: ca12 4eba 9bb3 76bd 4acc 04bc a8a2 5ebd
00000080: 51fb 1cbd 81fb 0a3b 16bb a93c e9e4 15bd
00000090: f20e 00bc dc70 15bd 925a 60ba c6e9 e8bc
000000a0: 6a87 2d3d e4e0 393c ebf3 5c3d ef01 88bd
000000b0: 2020 2d3d a69a 8fbb bcca 88bd e6e1 323d
000000c0: e889 a0bd dec2 923d fa08 5a3d 1845 90bc
000000d0: be30 70bd 04ea 7abd aba7 50bd e680 0dbd
000000e0: f41c ccbb 4ec0 98bd f759 1fbd 9cd5 3fbc
000000f0: 9617 b43c b40b 87bd 9e3a 4dbd 4ea0 23bd
00000100: 0627 d43c 215c cb3c 5f89 b8bc 7e9e 90bd
00000110: c2f6 8ebd 1184 943b ee8b eebc 4697 2ebc
00000120: bd68 04bd a8c1 a43c d6bd ac3b 6e10 87bc
00000130: 57e4 7e3d 70f4 e43c 60a5 f7bc 3a03 263d
00000140: c14b 41bd 5c06 503d 0ed4 52bd 8618 11bd
00000150: 114b 713d 7077 4abd 7e86 7dbd 0900 5b3d
00000160: 28a9 a8bc ca72 33bd 8cf5 a8bd b476 64bd
00000170: 781a 4b3d b2c9 26bc 9ce7 21bb 1b21 54bd
00000180: 9125 3ebd 82c5 78bd 433e 5bbd 2919 2cbd
00000190: f4f8 153d be48 41bd 160a 833d 20ae 6abc
000001a0: d02f 2ebc ef74 8abd 5893 613d d817 5b3d
000001b0: 5ee4 55bc 021b 4bbc 071c 2abd 78ad b0bd
000001c0: 05f7 d23c f0a8 453d 645e 093d 2009 bcbc
000001d0: b509 333d c7ee 4fbc a2e7 eb3b 92a7 93bc
000001e0: 2162 48bd eaaf 283d 0830 863d bf7a 0ebd
000001f0: 0644 9c3c ae8f 2fbc c1f2 91bc ccf9 c53a
00000200: 8a29 063d 4a2c ae3c d2fb c93c 809f 81bd
00000210: d64e 2bbd bcf6 adbb 9fb7 82bd e3e5 613d
00000220: 62b2 5c3d d897 1e3c 3df3 163c 763f b23c
00000230: 60df dabb 7f95 003d 9268 2f3c 5b00 0ebd
00000240: d776 a5bd 029c 693c be47 a4bc d0d3 6c3b
00000250: 86d1 dcba 8808 293d dd74 883d 2a42 53bc
00000260: b371 6ebc d12b 8a3c 96c1 aebc 244f fcba
00000270: 516b c4bb 70b1 cb3c 00ec eabc 7ce0 b53b
00000280: 0e8a 25bb 86af 223d a3d0 733c 8a48 71bd
00000290: e6f7 f3bc 755d ae3c 364e a7bc e0d7 a73c
000002a0: aec1 3f3d b0e0 92bd ea51 35bb 6197 71bd
000002b0: 9347 55bd 0a4c 7ebb a224 67bd 4135 5dbd
000002c0: 14a9 7cbc d11c 8abc a1e9 23bd 82f7 85bc
000002d0: ba1a a5bc cec8 753d 3309 5bbd 22b9 513d
000002e0: 5a89 263d c4b8 6f3d 45f7 7ebd eceb 563d
000002f0: 20cf 3c3d f453 87bd 232c 25bc 0ac5 58bd
00000300: d318 8dbc 3835 533d 20e9 823d eab3 84bb
00000310: 88a3 d4ba b82c 983c e833 8dbd bfbd 3bbd
00000320: 75f2 353d 6249 d03c d3e3 92bd 5cc8 883b
00000330: bf7c 16bd b1c7 d23c d202 453d eda5 b03c
00000340: b6d6 86bd c7c8 29bd 6739 8fbd c28c 62bd
00000350: 72d2 babb aba4 a1bc d4d8 733d 207a 27bd
00000360: c30e 02bd 7812 123c 1e9d 5ebd e638 553d
00000370: 5b12 5ebd 7ea8 4a3b 0cf7 2cbd 505f 5cbd
00000380: 3e4d 95bc 3c53 0fbd 3cf0 6abb a02c 65bd
00000390: d82d 6b3c c7c1 6ebd 50fd 6c3d 6add e5ba
000003a0: 38c0 05bc 64fa e0bc 7cf7 8cbd c33f 09bd
000003b0: b146 60bd 5a62 ccbc ca24 acbc 0e99 29bc
000003c0: 2d0c 95bd f665 843c 418f ddbc 8e12 153d
000003d0: 841e db3c 42cb bebc bd40 0a3c e4ef 20bd
000003e0: 0891 803d 048c 86bd f94f 0bbd b7d1 35bd
000003f0: 710f ddbc 0eee 923d a2a7 b53c 443d 7bbd
0.048822924 -0.03060253 -0.027560819 0.05008263 -0.004621867 0.055245437 -0.04139946 0.05240994
0.021825325 -0.049568564 0.05609443 -0.029601462 -0.026713056 -0.016808642 -0.030926451 -0.026506353
-0.025023509 -0.008332107 0.017873902 0.06011702 0.008654242 0.011895068 0.018713813 -0.06654029
0.004036729 -0.022310134 -0.024216607 -0.065686025 -0.0007861076 -0.06022988 -0.008105347 -0.05435434
-0.03832561 0.0021207037 0.020719092 -0.03659526 -0.007816063 -0.036484584 -0.0008558418 -0.028431784
0.04236547 0.011345122 0.053943556 -0.06640994 0.042266965 -0.004382449 -0.066792935 0.043672465
-0.078388035 0.07166074 0.053231217 -0.017611071 -0.058640234 -0.06125833 -0.05094115 -0.034546755
-0.0062290374 -0.07458554 -0.038904157 -0.011708643 0.021983903 -0.06594029 -0.05010473 -0.0399478
0.025897514 0.024824204 -0.022526441 -0.0706148 -0.06980659 0.004532345 -0.029119458 -0.010656184
-0.03232645 0.020111874 0.0052716536 -0.016487326 0.06222948 0.027948588 -0.030230224 0.04053042
-0.047191385 0.050787315 -0.051471762 -0.035423778 0.05890948 -0.04943031 -0.06189584 0.05346683
-0.020588472 -0.043810643 -0.08249959 -0.055777267 0.04958579 -0.010179924 -0.00247047 -0.051789384
-0.046422545 -0.060735233 -0.053526174 -0.042016182 0.036614373 -0.047188513 0.06398408 -0.014323741
-0.010631517 -0.067605846 0.05507216 0.053489536 -0.013054935 -0.012396576 -0.041530635 -0.086268365
0.025752554 0.048256814 0.033537284 -0.02295357 0.04371043 -0.012691206 0.0071992436 -0.01802424
-0.048921708 0.04118339 0.0655213 -0.03478503 0.019075405 -0.010715408 -0.01781595 0.0015104352
0.03275446 0.021261353 0.02465621 -0.0632925 -0.04182323 -0.005308954 -0.06382679 0.055150878
0.053881057 0.009679757 0.009213266 0.021758776 -0.0066794604 0.03139257 0.010706084 -0.034668308
-0.080793075 0.014258387 -0.02005374 0.0036136992 -0.0016847111 0.0412679 0.06662915 -0.012894193
-0.014553475 0.016866596 -0.021332543 -0.001924966 -0.0059942384 0.024864882 -0.028676987 0.0055504423
-0.002525929 0.039718173 0.014881286 -0.05890707 -0.029781293 0.021284798 -0.020423036 0.02048868
0.046815567 -0.07171762 -0.0027667233 -0.058982257 -0.05207021 -0.0038802647 -0.05643142 -0.054005865
-0.015421171 -0.016859444 -0.040017728 -0.016353372 -0.020154346 0.060005955 -0.05347557 0.051201947
0.040658332 0.058525816 -0.062247533 0.052471086 0.046095967 -0.0660781 -0.010081324 -0.052922286
-0.017223751 0.051564425 0.06392121 -0.0040497677 -0.0016223053 0.018576011 -0.06894666 -0.045835253
0.04442068 0.025425617 -0.0717236 0.0041742753 -0.03674006 0.025729986 0.048098393 0.021563495
-0.065839216 -0.04145124 -0.069933705 -0.05531002 -0.0057013566 -0.01973184 0.059532955 -0.04088795
-0.03175236 0.008915536 -0.054349057 0.052056216 -0.054216724 0.0030923183 -0.04222779 -0.053801835
-0.018225309 -0.034991488 -0.0035848757 -0.05595076 0.014354192 -0.05829027 0.057858765 -0.00175373
-0.008163504 -0.027463146 -0.068831414 -0.033508074 -0.054754917 -0.024949241 -0.021013636 -0.0103514325
-0.07277713 0.0161619 -0.027045848 0.03639465 0.02674795 -0.02329028 0.008438286 -0.039291278
0.062776625 -0.065696746 -0.034011815 -0.044389453 -0.026984902 0.071743116 0.02217466 -0.061337724

net.9.bias f4 [64]
00000000: 5460 49bc 3a6c 8ebd fdf5 cbbc c12a c93d
00000010: a1fc 9bbd 9180 923d 2b49 b43d 7c03 8e3d
00000020: 7530 043e 558a a6bd da9c fb3d 58e3 b63d
00000030: 67d2 38bd c0db a53d 4f7c d43c 7a2f 5bba
00000040: 22c9 debc cbb4 a03d 304c 6cbc 6b1d 923c
00000050: 3fa5 94bc a565 b03d 4ad6 e6bc 3b83 22bc
00000060: b159 ca3c 7b4a 13bc f086 8839 0cd0 b33d
00000070: c3e2 f13d 80b5 803d 3cea 15bc 11d9 df3d
00000080: 9c94 a93d 2bd7 89bd 8195 05bd 1a06 80bc
00000090: c726 833b 6525 353d 82a6 003e 667d f03d
000000a0: 2d07 9d3c 764f 32bd 7fba 91bd 2bc1 943d
000000b0: 5b10 38bd a2de cb3d 5d9b ffba 9efe 3bbc
000000c0: e2e5 783d 0fd0 b2bc 2625 1c3c 85ba c73d
000000d0: 8142 d03c b573 42bd cdda c63d 2eb8 c43d
000000e0: db98 cc3d 3f21 31bd 2d76 e93d a788 f23c
000000f0: 099d a6bd 56e5 8d3c 0f42 52bd fa6e e53d
-0.012291033 -0.06954236 -0.02489757 0.09822608 -0.076165445 0.07153428 0.08803018 0.06934258
0.1290911 -0.081318535 0.122857764 0.08930081 -0.04512253 0.080985546 0.025938181 -0.00083612616
-0.027195517 0.078469835 -0.014422461 0.017836293 -0.018145202 0.08613137 -0.028178353 -0.009918983
0.024700971 -0.0089899255 0.00026040478 0.08779916 0.118108295 0.062846184 -0.009150084 0.10930074
0.08280298 -0.06730493 -0.03261328 -0.01562791 0.0040024254 0.044225115 0.12563518 0.11742668
0.01916846 -0.04353281 -0.071156494 0.07263406 -0.044937473 0.09954573 -0.0019501258 -0.01147428
0.06076611 -0.021827726 0.009530341 0.09752373 0.025422337 -0.047473628 0.09709702 0.09605442
0.09990092 -0.043244597 0.11399493 0.029606177 -0.08135421 0.01732127 -0.05133253 0.11202808

net.12.weight f4 [64, 64, 3]
00000000: bab9 05bd 6a2b a93b 8e99 47bc ddd7 3cbc
00000010: 36c3 0d3d 03a9 2bbd 574e 84bd 8e58 61bd
00000020: 5aac 653c 69ef 0ebc b2fd 283d ce27 f6bc
00000030: 6b8e 9a3a edf5 553c 3ab1 373d 549b 1d3d
00000040: 5e91 16bd 4ec2 6abd 8100 87bd ca0b 84bb
00000050: 005c 0cbd 1cb6 c1bc ac7b d83c fe39 d2bc
00000060: 98cb 823b 76d5 85bd 86f9 55bb 475c b93c
00000070: 1ca5 8d3d 8dd5 4bbd 6dfd a63b 4e3b e9bc
00000080: 949c e43b 5488 233d ee8f be3c 0a53 383d
00000090: ac70 5b3c 7abd 103c 0aba 8abc cf5f 183d
000000a0: 462b 4abd 0e15 77bd db58 b3bc 1a67 90bb
000000b0: 1a3f 273d cad2 033c de4c 18bd aab3 243d
000000c0: f77b f3bc e4d8 d13c 228b 5c3d 7c3f 12bd
000000d0: 3691 f23c 5267 ef3c e93c 993c c4d8 603d
000000e0: 1817 43bd dda6 19bd 981c c9bb 90fa 69bd
000000f0: 1e18 2b3d 029e 7dbd b8b0 44bd 12ff 19bc
00000100: cd12 91bd e064 8bbb 92ca abbb a4b8 cdbc
00000110: 23ff 69bd 8aca 1dbc 5027 643d 721e b5bc
00000120: 4aba 273d 38df 8b3c 6804 8a3d eaf8 16bd
00000130: 347e 9cbc 0ca8 75bd acde f93c 0484 cbbb
00000140: 9861 833d a302 1a3d 166f 903d 9a5f 2ebd
00000150: 48d4 23bd 1ad2 e5bb d428 813d 21fc 4f3c
00000160: 53eb f5ba 6851 44bd 1c14 34bd 8866 873d
00000170: 0efd 863d e96e 653d 334d 8e3d 4375 373d
00000180: d8ec b13c c627 803d 4450 333b 6e3e 0bbc
00000190: 9c5c 1bbc 98da 0b3c ef38 be3c 297f 27bd
000001a0: d4b2 73bc 7869 c1bc 4c5c 0c3d 5798 d7bc
000001b0: 7c64 8f3d 0356 fd3c 781f 983c aac7 893d
000001c0: 0469 553d 60a6 45bd 256c d63b a88d 8c3c
000001d0: f86a e8bc 96ea 043d 20ed a63c 0d13 6cbd
000001e0: a545 55bd 2cd2 3cbd ba61 41bb bc5e 4fbd
000001f0: 84bd 51bd ec62 813d fe1e 8d3c a8f8 473d
00000200: 14d9 8f3d ff67 22bd cc10 0d3d e6ad dabc
00000210: 981e 78bd 3676 a03b c882 05bc 8567 cebc
00000220: ac8d 503d 881c abbc f6b9 01bd 988c 083d
00000230: 10c8 043d 3828 8cbd 82f1 34bc 7690 843c
00000240: 091a 69bd 28c0 30bd 0649 4a3d 8bf1 7b3d
00000250: 04aa ebbc f861 87bd 2cc3 c5bc d426 773d
00000260: ec48 8a3d 35dd 80bd 70c3 8cbd adcf 52bd
00000270: e9ac c93b e550 8abd 6bb1 55bd 622a edbc
00000280: c64b 03bd ba62 693d 150f 833d dcad 3dbd
00000290: 4698 44bb 3dc4 babc 6cb1 1a3c 9ba8 bd3c
000002a0: 06a2 48bd e805 ddbc 8ca3 ea3c 9650 da3c
000002b0: b8ce 393d 663c 1a3d 193d 56bd a116 793d
000002c0: 908d d1bc 5651 9abb fe41 003d dfc0 07bd
000002d0: fea9 5b3d c413 0c3d ae54 2bbd a458 783d
000002e0: a239 53bd 0c45 363d 2311 213d 84c9 043d
000002f0: f49a 703d 0a46 343d 2c1b 58bd 10be 263d
00000300: 2cc4 09bd 31bb 6c3d 64b3 193d dcca 713d
00000310: c080 80bd da17 8a3d 9c4e 623d 128a 4fbd
00000320: 2824 3f3d 987b a53d 6c26 9ebc 5f70 48bd
00000330: a306 76bd f63d 603d e04a 2d3d 38c3 663d
00000340: 7876 b1bc cede a0bc 468b 41bd d29f bcbc
00000350: d089 36bb b5d7 5e3d d052 4dbd a2bb 303d
00000360: b162 c13c 5e95 babb 20a9 86bd e506 7cbd
00000370: 2aa6 093d 8e91 3abd 786e 823d 9002 3d3d
00000380: 3136 71bd 2ae8 f5bb 5cb8 67bd 5407 15bc
00000390: 6c50 6fbc 964a f73b fec1 543d 4f17 853d
000003a0: adc2 43bd e85b 433d 8f08 f6bc 603d 36bc
000003b0: a8c7 893d 5a4a cd3b 821d b1bc 1639 383b
000003c0: 3bd3 d33c 8c95 a2bc a798 22bd 01fe 94bc
000003d0: 3c3b 42bd 1a0d 293b d4db 923d 386f 873d
000003e0: 1846 7d3d 7da0 1ebd 005e f33c b4ad 8d3d
000003f0: b8f5 a73d b885 b03c 77b0 4ebd b350 943d
-0.032647826 0.005162646 -0.012182606 -0.011526075 0.034609996 -0.04190923 -0.06460255 -0.055016093
0.014018143 -0.008724072 0.041257568 -0.030048277 0.0011791711 0.013059122 0.04484675 0.03847821
-0.036759727 -0.05731421 -0.06591893 -0.0040297257 -0.034267426 -0.023646407 0.026426159 -0.025662418
0.0039915554 -0.06534855 -0.0032649948 0.02262701 0.06916258 -0.049764205 0.0050961287 -0.028470661
0.0069766734 0.039924935 0.02326199 0.045001067 0.013393562 0.008834237 -0.016934413 0.037200745
-0.049357675 -0.060322814 -0.021892956 -0.004406822 0.040831663 0.0080458615 -0.03718268 0.040210404
-0.029722197 0.025616117 0.053843625 -0.035705075 0.029610258 0.029224072 0.018705802 0.054894224
-0.047629446 -0.03751265 -0.006137442 -0.05712372 0.041771047 -0.061918266 -0.048020095 -0.009399192
-0.07083664 -0.0042539686 -0.005242654 -0.025112458 -0.057128083 -0.009630809 0.055701554 -0.022109244
0.040949143 0.017074212 0.06739122 -0.036858477 -0.019103147 -0.059974715 0.030501686 -0.006210806
0.06415099 0.03760017 0.07052438 -0.04257164 -0.03999737 -0.0070135714 0.063066155 0.01269439
-0.0018762149 -0.047929198 -0.04396449 0.06611353 0.06591235 0.056013975 0.06948318 0.044789564
0.021719381 0.06257586 0.0027361074 -0.008498771 -0.009482529 0.0085360035 0.023220507 -0.040892754
-0.014874179 -0.023609862 0.03426771 -0.026317758 0.07001588 0.030924803 0.018569693 0.06727536
0.052102104 -0.04825437 0.0065436536 0.01715739 -0.02837132 0.03245028 0.020376742 -0.057635356
-0.05206837 -0.046098873 -0.0029507712 -0.050627455 -0.051206127 0.06317696 0.017226692 0.04882112
0.07023826 -0.03964996 0.034439847 -0.02669425 -0.06057605 0.0048969043 -0.008148856 -0.025195846
0.05091636 -0.020887628 -0.031671487 0.033337206 0.032417357 -0.068436086 -0.011043908 0.016182166
-0.056909595 -0.043152004 0.049386047 0.06150965 -0.028767593 -0.06610483 -0.024140917 0.060339764
0.0675219 -0.06292192 -0.06873214 -0.051467586 0.0061546457 -0.06753711 -0.052171152 -0.028950874
-0.032054685 0.05697892 0.06399361 -0.046308383 -0.0029997989 -0.022798652 0.009441715 0.023151686
-0.048982643 -0.026980355 0.028642438 0.026649754 0.045363158 0.037655257 -0.05230436 0.060812596
-0.025580198 -0.004709403 0.031312935 -0.03314292 0.053628914 0.034198537 -0.041828804 0.06063141
-0.051568635 0.044499442 0.039322983 0.032418743 0.058741525 0.044012107 -0.052760288 0.0407086
-0.03363435 0.057795707 0.037524596 0.059031352 -0.06274557 0.067428306 0.05525075 -0.050668783
0.04666534 0.08080214 -0.01930543 -0.04893529 -0.060064923 0.05474659 0.042307734 0.05633852
-0.021662936 -0.019637492 -0.047251962 -0.023025427 -0.0027853139 0.054404933 -0.050127804 0.04314769
0.02360663 -0.0056940755 -0.06575227 -0.061530013 0.033605732 -0.045548968 0.063687265 0.046145022
-0.05888957 -0.0075044828 -0.056572303 -0.009095985 -0.014606576 0.007546733 0.051942818 0.064985864
-0.04779308 0.04769507 -0.030033378 -0.011123031 0.067275345 0.006264967 -0.021620516 0.0028110198
0.025857558 -0.0198467 -0.039696362 -0.018187525 -0.04741977 0.0025795163 0.07170835 0.0661301
0.061834425 -0.038727272 0.029707909 0.06917897 0.08201164 0.021548137 -0.05046126 0.07241955

net.12.bias f4 [64]
00000000: b7f4 81bd 176b 6a3c 74ce 983c 4303 923d
00000010: 5d41 cb3d 1399 43bd 3ec9 4d3c 0caa a3bd
00000020: 44f1 00bd 8462 c03d 6c0d 963d 67d1 b23d
00000030: 8511 50bd 858f 483d e2bd 083e 6651 283d
00000040: 5e87 223d f9a0 4b3c 9168 a1bc 3e2b 183d
00000050: 0ab5 943d 9b6a a93d 4ac0 8bbd 5041 b23d
00000060: 0085 a53d 8403 88bd 1f7c 213d 7b92 0f3e
00000070: eb13 713d d6ee a53d 4500 083e d409 9abd
00000080: 6058 f73d b868 f73d 8681 0a3d 0b8d da3d
00000090: 6720 88bd 6464 023e e974 09bd bc3d 913d
000000a0: 082b c83d 62d3 e33d 3a30 083e 0131 24bd
000000b0: eb65 03bd 138e b73d 538d b5bc 8e63 a33d
000000c0: cc52 f13d 89c1 253d 85d0 dabc da9c de3d
000000d0: a28d f63d f995 8c3c 8098 1abd 0714 de3d
000000e0: 2fda 8dbc 62df f03d 2d85 873d f443 033e
000000f0: 5f37 f63c 6f83 c33d 2aa4 99bc 3ae2 a03c
-0.06345504 0.014307759 0.018653132 0.071295284 0.099245764 -0.047753405 0.012560187 -0.07991418
-0.03148009 0.0939379 0.07326779 0.087313466 -0.050797958 0.048964996 0.13353685 0.041093253
0.039679877 0.012428516 -0.019703181 0.037150614 0.07261093 0.082722865 -0.068237856 0.087038636
0.08082008 -0.066412956 0.03942501 0.14020722 0.058856886 0.08102195 0.13281353 -0.07521406
0.12077403 0.120805204 0.03381493 0.10671433 -0.06646805 0.12733608 -0.03355876 0.07091853
0.097738326 0.111243024 0.13299647 -0.040085796 -0.03207962 0.089626454 -0.022162115 0.07977973
0.117833704 0.040467773 -0.026710758 0.10869761 0.12038733 0.017161356 -0.03774309 0.10843664
-0.017315952 0.11761357 0.06617198 0.12818891 0.0300557 0.09546553 -0.018755037 0.019639123

net.15.weight f4 [64, 64, 3]
00000000: 0228 c73c 5c91 23bc 4e84 133d 71d0 46ba
00000010: 487d 793d 0c4e 92bd e237 153c 24b8 90bc
00000020: 2c37 1f3c e40f a93c 06d0 fd3c dc07 ed3c
00000030: 2c67 1abd 083e f1bc 04af 973c b8bf 393d
00000040: 425d e63c 4854 793c ca32 3fba cd7a 11bd
00000050: c903 c2bc 6f3e 6e3d 4ce7 6c3c 24b6 e7bc
00000060: edc5 29bd fd3b 82bd 9313 05bd 044f 303d
00000070: 381d 80bb 74f4 08bc eb3c 7abd b689 53bc
00000080: 5e45 e4bc e64f 193d e7e0 e93c 3454 5fbd
00000090: 7ac4 7ebc 7a2e 7e3c 0c56 703c 1a5c b6bc
000000a0: 54c1 133d 5f3f eb3b 0edf bbbc 0413 43bd
000000b0: 15af 16bd 5ada 113c 8755 74bb 4ebe 76bd
000000c0: ab0d 0fbd 7a49 11bb 855d 8bbd c54a 76bd
000000d0: 18c2 4f3d 1e3d 803d a802 213d da8b 813d
000000e0: f987 143d a38d c93c c6af 87bb aa91 4e3d
000000f0: 0eaa 9fbc bbee 5b3d aeef 083d 1d64 08bc
00000100: 1096 86ba 44c6 64bb 1e18 8e3d 4931 16bd
00000110: 7a1e 8a3d 3578 9c3c fa37 5cbd 48bf f3bc
00000120: c2f0 cc3b a8c7 16bd d394 663d 377d 343b
00000130: 54e1 61bc 9053 2dbd 0f14 b7bb 2d78 1bbd
00000140: d6c3 e8bb cc7a 99bd 3072 8f3c 348a 3fbb
00000150: 2d02 83bc 3889 243d e2f1 683d bdeb aaba
00000160: 840d 463c f485 8c3d 36a6 9abd 1edb f73c
00000170: a276 3ebd 267a 01bc 1ee5 0fbd ec03 823d
00000180: 3b32 78bd e026 21bd 1e73 8d3d 12d7 65bd
00000190: 8ebc 6e3c 84b0 473d a888 b53c 36dd 10bd
000001a0: f96f 7abd d006 86bd 6a9e 053d 9053 34bd
000001b0: e259 343d fc87 c63c c697 41bd 9c15 9abd
000001c0: dc82 5dbd ae8b 23bd 138e 47bb 6eb6 803d
000001d0: ec93 153d 1be2 3c3d 41b5 43bd 981d 46bd
000001e0: b303 1d3b 4020 2abd 5ccf 123d 73e1 7a3c
000001f0: de96 c7bc e06a 493d 82b8 c6bc ae44 ca3b
00000200: 247f 3bbd 739c 76bd 095f 93bd 10be 72bd
00000210: ec18 8cbd c1b5 72bd 4821 423c fad3 363d
00000220: f809 a2bc a0a6 7fbd bcee 4dbd 89f5 953c
00000230: 0942 283d 6864 55bd f425 8f3c 107e 3c3d
00000240: 3028 053d 09a4 6cbd 463b e93c d8fb 82bd
00000250: 938b 663d 681b bd39 eeba 823d 6ec5 803d
00000260: 0a36 8e3c 601c adbc fee4 d6bc f8ca f9bc
00000270: 6b39 8ebd ae04 ce3c 067f 693c 64f3 a03c
00000280: d03d 433d 3320 03bd 9a04 593d 2c0a 46bc
00000290: b0f1 4f3c c217 3e3c 0a01 633d a0c9 2dbd
000002a0: 4fea 1c3d 7454 203d 140d 833d 64a7 bebc
000002b0: 7ce4 ddbb 920a 883d f15f 5c3c 7b8f 3abd
000002c0: 632c c83c ccd5 123d 4299 b4bc 1a3b 3ebd
000002d0: 439e 93bd 5e12 1c3d 4999 a03c b9a8 43bb
000002e0: d650 84bc e4f5 3f3c 3bd9 a5bc 0cab c53c
000002f0: a81f c8bc b11a 293d 10af 92bd ca27 23bd
00000300: 2a70 863d 96b8 113d 8216 93bc 4d5c 153d
00000310: bc02 8f3d 688d 8cbd 729f 29bc a400 5b3d
00000320: 5ed2 d03c edd7 d53d 2456 1cbd 6082 803d
00000330: 2189 e73c 0dee 4ebd f85d 7cbd 458b 9a3c
00000340: 00fe 543c 1e8d 743d e70c 9d3c e83d b2bc
00000350: 481b b6bc bf8f d83c 261b 803d 014d 8abd
00000360: d9fe 70ba 945b 82bd f42e bfbc ce73 cb3d
00000370: ee3e 6fbc d375 74ba f24c cc3d ec84 5b3d
00000380: 3a56 f2bb ab33 463d ab32 1bbd 1e86 4b3d
00000390: 70f5 53bd 41f7 1ebd 2e5c 013d 6b9a 60bc
000003a0: 6f54 91bc 5d58 ae3a c617 85bc 8237 443d
000003b0: 65ad 54bd 1561 c63c e4e2 a4bc c253 303d
000003c0: 6321 81bc 1deb 523d 381d 1f3d 5cc4 20bd
000003d0: c4f4 aa3c 8053 3d3c 1ea0 283d e479 023d
000003e0: f290 78ba e4b0 f83c c2a3 62bd 1ab2 c73c
000003f0: 736f cb3d 67c2 12bd 322b 003d 2ba8 a43c
0.02431107 -0.009983387 0.036014847 -0.0007584161 0.060910493 -0.071437925 0.009107562 -0.01766593
0.009717744 0.02063746 0.030982982 0.028934412 -0.03769605 -0.029448524 0.018516071 0.045348853
0.02812064 0.015217848 -0.000729364 -0.035517503 -0.023683446 0.05816501 0.014459442 -0.028285094
-0.041448522 -0.06359098 -0.03248937 0.043044105 -0.003909733 -0.008359063 -0.061093252 -0.012911251
-0.027865108 0.037429713 0.028549625 -0.05452366 -0.015549773 0.015514011 0.014668953 -0.022260714
0.036073044 0.0071791853 -0.02293351 -0.047625557 -0.036788065 0.008902157 -0.0037282424 -0.060240082
-0.034925144 -0.002216904 -0.06804947 -0.0601299 0.05072221 0.06261657 0.039309174 0.06325503
0.036262486 0.02460367 -0.004140827 0.050431885 -0.019490268 0.053694468 0.0334317 -0.00832465
-0.0010268111 -0.0034908215 0.06938194 -0.036668096 0.06744094 0.019100288 -0.05376432 -0.029754296
0.0062542865 -0.0368115 0.056294274 0.0027540454 -0.013786633 -0.04231602 -0.005587108 -0.037956405
-0.0071034236 -0.07494125 0.017510504 -0.0029226663 -0.015992248 0.040169924 0.056871302 -0.0013040226
0.012088183 0.06861487 -0.075512335 0.03025585 -0.046499856 -0.007902658 -0.035130613 0.06348404
-0.06059478 -0.039343715 0.069067225 -0.05611331 0.014571322 0.048752323 0.02215989 -0.035367213
-0.06114194 -0.06544268 0.03262178 -0.044025004 0.04403103 0.024234764 -0.047263883 -0.07523653
-0.054079875 -0.03992813 -0.0030449673 0.06284796 0.036518022 0.04611407 -0.04778028 -0.048368067
0.0023958504 -0.041534662 0.035842285 0.01531254 -0.024363931 0.04917419 -0.024257902 0.006172738
-0.045775548 -0.060207795 -0.07195861 -0.05926329 -0.06840691 -0.059255365 0.011848755 0.04463575
-0.019780144 -0.062414765 -0.050276503 0.018305557 0.0410786 -0.052097708 0.017474152 0.04601866
0.03250903 -0.057773624 0.028470647 -0.06395692 0.056285452 0.00036069308 0.0638331 0.06287657
0.017359752 -0.021131694 -0.026232239 -0.03049229 -0.06944545 0.025148716 0.014251476 0.019647308
0.04766637 -0.03201313 0.052982904 -0.012087386 0.0126919 0.011602344 0.055420913 -0.042428613
0.03830939 0.03914304 0.06398979 -0.023273177 -0.006771622 0.06642641 0.013450609 -0.04554699
0.024435228 0.035848424 -0.022045735 -0.046443082 -0.072079204 0.038103454 0.019604342 -0.0029855205
-0.016151827 0.01171634 -0.020245185 0.024129413 -0.024429157 0.04128522 -0.07162297 -0.039832868
0.06564362 0.035576425 -0.017955068 0.036464978 0.069829434 -0.068629086 -0.010352956 0.053467408
0.025490936 0.10441575 -0.038168088 0.06274867 0.02826363 -0.05051999 -0.061613053 0.018865237
0.013000011 0.059704892 0.019171191 -0.021758035 -0.022229806 0.026435731 0.06255178 -0.067529686
-0.00091932487 -0.063651234 -0.023337819 0.09934197 -0.014602406 -0.00093254185 0.09975614 0.05359356
-0.007395533 0.04838912 -0.037890118 0.04968845 -0.05174774 -0.03881002 0.03158205 -0.013708691
-0.017740456 0.0013301481 -0.016246688 0.0479045 -0.051923174 0.024216214 -0.020127721 0.043048628
-0.01576299 0.051493753 0.038846225 -0.039249763 0.020868666 0.0115555525 0.041168325 0.031854525
-0.0009482048 0.030357786 -0.055331953 0.024376918 0.099333666 -0.035829928 0.031291194 0.02009972

net.15.bias f4 [64]
00000000: e3bf 9dbc 8487 053e 8bc7 103e 3d11 9f3c
00000010: 0989 12bd bdb0 f9bb 8f5a 48bc dc23 ba3d
00000020: d161 743d 410e 173d a02d 933d d1ae d03d
00000030: 1878 313d 2702 b23d 0280 b53d d624 77bd
00000040: a8eb 95bc 5852 7e3d 1bc2 4d3d c3fc 8f3d
00000050: ae11 8d3d 7919 d53d 3611 19bb c804 04bd
00000060: 3c76 18bd 35ae 53bb e180 013e 897a fd3d
00000070: 12db 893d cd2d d53d 402b 10bd 3887 d63d
00000080: e8fe 473d 459e 003e 82a0 d2ba a9d2 92bd
00000090: 9fde 8c3d af9a fc3c 9ddc 39bd e0eb 063e
000000a0: 34bd c23d a488 ae3d 6f47 043e d998 fd3d
000000b0: 2a12 8bbd 4161 103e cad1 8d3c 5737 2f3d
000000c0: 2dc7 7bbd 45a1 d13d e01c 9e3c e335 b83d
000000d0: 18ae 7f3d 7d73 4d3d a96a fd3d 749b d6bc
000000e0: e698 4f3c 0b0b d23d 7f93 063e d5ee 7f3d
000000f0: 98de e4bc 7a7d 023e 7129 093e a8aa 383d
-0.019256538 0.13039976 0.1413862 0.0194174 -0.03577522 -0.007619946 -0.012228622 0.09088871
0.059663597 0.036878828 0.07186437 0.101895936 0.04332742 0.08691817 0.08862306 -0.060337864
-0.018300846 0.062090248 0.05023394 0.07030632 0.06888138 0.10405249 -0.0023356206 -0.032231122
-0.037222132 -0.003229988 0.1264682 0.12376887 0.067312375 0.104091264 -0.035197496 0.1047501
0.048827082 0.12560375 -0.0016069564 -0.071690865 0.06878399 0.030835478 -0.04537641 0.13175917
0.09508744 0.08522156 0.12917875 0.12382669 -0.06790574 0.140996 0.01731195 0.042777386
-0.061469246 0.10235838 0.019300878 0.08994653 0.062421888 0.050158966 0.123738594 -0.026197173
0.012670731 0.102560125 0.13142203 0.062483627 -0.027938172 0.12743178 0.13394715 0.045084625
