model_artifacts/dl_tcn_latest_22400_23900.pt (torch, 378521 bytes, 20 tensors)

net.0.weight f4 [64, 30, 3]
0.10058296 0.008930318 -0.104725905 0.07381683 -0.041671254 0.039650857 0.017090594 0.03475267
0.07879994 0.10074917 -0.099918224 0.030812666 0.09748758 -0.0933565 -0.050367426 0.11272881
-0.08859919 0.017258924 0.13588685 -0.06676294 -0.020614836 0.09661082 -0.032486275 0.018475894
0.017486325 -0.018638737 -0.07085861 -0.038411416 -0.040369734 0.06073001 -0.0332169 -0.079026796
-0.09013692 0.10579608 -0.035064712 0.09855815 -0.102380216 -0.09518808 0.028320529 0.09044823
-0.052698772 -0.0938026 -0.06471156 0.076943606 -0.044704527 -0.08624735 -0.013434745 0.036164194
-0.04697791 0.0033567774 -0.00015779745 -0.02716036 -0.085890785 -0.05539603 -0.023330841 0.019927409
0.036507197 0.10901031 -0.05270313 0.09164446 0.10281017 0.014825216 0.0014846995 -0.09343294
-0.013148714 0.032004677 -0.06385865 -0.05670114 0.004331908 -0.0651219 -0.06834297 0.068402685
0.031506464 0.067757435 -0.028165478 0.025410369 0.03822559 0.051453482 -0.035655875 -0.06276891
-0.047576994 -0.03396264 0.07068322 -0.05650564 -0.09085124 -0.012508718 -0.047519054 -0.10710926
-0.046404384 0.06958581 -0.10221505 0.011304114 0.09596769 0.090038106 0.06398203 -0.09360314
-0.0029524926 -0.043582443 0.055415004 -0.08225083 0.012279786 -0.0045375656 -0.080667645 0.017960068
-0.028450888 0.0712311 -0.056652628 0.051485144 -0.08051311 0.08039903 0.0878508 0.084855564
0.064203374 0.042373084 -0.060121614 0.0057257796 -0.06961952 0.092437215 -0.07980822 -0.030580524
-0.0067206933 -0.08320474 -0.0028495495 0.1325817 -0.034133844 -0.09761685 -0.047127336 -0.09420948
0.045169782 -0.006454375 -0.00980395 -0.09377802 -0.074763894 0.007953163 -0.050386287 0.09085377
-0.044902932 0.0045884633 -0.018926248 -0.07664545 -0.04042446 -0.013670636 0.028478373 -0.04679425
0.06741898 0.064598925 0.06947614 -0.116428584 0.0798945 0.0062650936 0.06332267 0.054867998
0.09242106 -0.05235383 0.03081137 -0.018917993 0.1059253 -0.0674507 -0.04045929 0.10047075
0.06282135 -0.070188746 -0.13713966 -0.047888555 0.07000505 -0.020780535 -0.03601122 0.009689987
-0.113621406 -0.10405614 -0.014337953 0.14331336 -0.009775741 -0.037232675 -0.061150517 -0.0045778584
0.007108654 -0.051238213 0.09600478 0.043663584 0.0906598 -0.079156525 0.09984525 0.025777427
0.054292284 -0.05582498 0.002692921 0.032352865 -0.06318268 -0.050773542 0.03399547 -0.0041504083
0.116504066 -0.06724924 0.10462258 -0.03546326 -0.011280132 0.05716262 -0.040723838 0.0516105
0.08998736 -0.116235085 -0.021336798 -0.030758992 0.10113502 0.049998067 0.049439907 -0.0020031615
-0.07986333 0.034765467 0.031003667 -0.002093873 0.060772084 -0.04717852 0.0838613 0.0551827
-0.08746597 -0.07215693 0.03739448 -0.04521228 0.072909854 -0.10495762 0.10008713 -0.0016796465
0.00984795 -0.1046065 0.018857045 -0.009491209 0.12086765 0.061404184 -0.08972067 -0.07800459
0.028897943 -0.08619365 0.044693906 0.059755325 -0.09948547 0.12661645 -0.08640511 -0.058177177
0.009477868 0.060707092 0.09852186 0.014542611 -0.043360393 0.09726105 0.057456765 0.030606989
-0.022958532 -0.038217142 -0.10009284 -0.05581132 0.02464932 -0.09079578 -0.050160043 -0.07032111
00000000: 70fe cd3d 7850 123c 897a d6bd 472d 973d
00000010: 7aaf 2abd f068 223d 9301 8c3c d158 0e3d
00000020: dd61 a13d 9555 ce3d eda1 ccbd d86a fc3c
00000030: 91a7 c73d b131 bfbd 134e 4ebd 5dde e63d
00000040: 7e73 b5bd 9662 8d3c ec25 0b3e 02bb 88bd
00000050: 72e0 a8bc e5db c53d 5410 05bd c25a 973c
00000060: 7b3f 8f3c 44b0 98bc 521e 91bd 4a55 1dbd
00000070: bc5a 25bd 08c0 783d 720e 08bd cdd8 a1bd
00000080: b599 b8bd 9dab d83d 04a0 0fbd dbd8 c93d
00000090: b8ac d1bd f8f1 c2bd 7400 e83c ec3c b93d
000000a0: abda 57bd 941b c0bd 7f87 84bd 9c94 9d3d
000000b0: 181c 37bd 73a2 b0bd 681d 5cbc e820 143d
000000c0: e96b 40bd 61fd 5b3b 6e76 25b9 677f debc
000000d0: 82e7 afbd f3e6 62bd 5220 bfbc ce3e a33c
000000e0: 9288 153d cc40 df3d 3ddf 57bd 17b0 bb3d
000000f0: 238e d23d 76e5 723c 409a c23a c559 bfbd
00000100: b46d 57bc 5617 033d 53c8 82bd 743f 68bd
00000110: aef2 8d3b a15e 85bd 66f7 8bbd b516 8c3d
00000120: ec0c 013d 69c4 8a3d 4abb e6bc 6829 d03c
00000130: 7092 1c3d e3c0 523d e50b 12bd fc8c 80bd
00000140: 18e0 42bd 691c 0bbd 5dc2 903d 7572 67bd
00000150: 3710 babd 5ef1 4cbc 57a3 42bd 1a5c dbbd
00000160: 8612 3ebd 0183 8e3d 2056 d1bd e434 393c
00000170: b58a c43d e665 b83d 0309 833d 01b3 bfbd
00000180: 9b7e 41bb 8183 32bd d8fa 623d 2073 a8bd
00000190: 2831 493c dcaf 94bb 1435 a5bd fe20 933c
000001a0: d611 e9bc 9ce1 913d 960c 68bd 16e2 523d
000001b0: 0fe4 a4bd 3fa8 a43d 1feb b33d c1c8 ad3d
000001c0: 0f7d 833d 668f 2d3d 1542 76bd 529f bb3b
000001d0: ae94 8ebd b94f bd3d 7e72 a3bd 0284 fabc
000001e0: 4339 dcbb 3f67 aabd 82bf 3abb 7fc3 073e
000001f0: eecf 0bbd 58eb c7bd 9808 41bd e6f0 c0bd
00000200: f303 393d 397f d3bb bfa0 20bc b10e c0bd
00000210: d01d 99bd fc4d 023c da61 4ebd 8b11 ba3d
00000220: 23ec 37bd d25a 963b 380b 9bbc 4af8 9cbd
00000230: 1e94 25bd cefa 5fbc 7a4b e93c 54ab 3fbd
00000240: f612 8a3d 714c 843d 8249 8e3d 1c72 eebd
00000250: ba9f a33d 6a4b cd3b 51af 813d 44bd 603d
00000260: 4147 bd3d f870 56bd 2068 fc3c e8f9 9abc
00000270: 5def d83d 9823 8abd a4b8 25bd 9cc3 cd3d
00000280: 7ba8 803d 1ebf 8fbd 576e 0cbe ca26 44bd
00000290: cf5e 8f3d f13b aabc 8080 13bd c0c2 1e3c
000002a0: 57b2 e8bd 631b d5bd bce9 6abc bdc0 123e
000002b0: 6e2a 20bc 4a81 18bd f778 7abd dc01 96bb
000002c0: b6ef e83b 29df 51bd 279e c43d 96d8 323d
000002d0: d8ab b93d d11c a2bd ab7b cc3d 2f2b d33c
000002e0: 9661 5e3d bca8 64bd b87b 303b 7084 043d
000002f0: ec65 81bd ebf7 4fbd d53e 0b3d 2600 88bb
00000300: af99 ee3d f8b9 89bd 5d44 d63d ec41 11bd
00000310: 4ed0 38bc 5a23 6a3d 0ace 26bd 8865 533d
00000320: 4b4b b83d a90c eebd 82ca aebc 48fa fbbc
00000330: e11f cf3d c6ca 4c3d 8081 4a3d 7947 03bb
00000340: 638f a3bd 3c66 0e3d 67fb fd3c 5c39 09bb
00000350: 26ec 783d 443e 41bd 79bf ab3d 4107 623d
00000360: 5c21 b3bd 03c7 93bd f42a 193d 8330 39bd
00000370: c351 953d 05f4 d6bd 7bfa cc3d 9627 dcba
00000380: 4c59 213c ef3b d6bd 177a 9a3c 0481 1bbc
00000390: 7589 f73d f482 7b3d 78bf b7bd dfc0 9fbd
000003a0: 61bb ec3c 4c86 b0bd f510 373d 00c2 743d
000003b0: 0abf cbbd bea7 013e 2af5 b0bd 314b 6ebd
000003c0: 0f49 1b3c 00a8 783d d4c5 c93d 2244 6e3c
000003d0: ab9a 31bd cd30 c73d c957 6b3d 82bb fa3c
000003e0: 8813 bcbc 9489 1cbd 7afd ccbd 699a 64bd
000003f0: 5fed c93c 23f3 b9bd 9e74 4dbd 8404 90bd

net.0.bias f4 [64]
0.07505265 0.018209202 -0.057505973 0.03887655 -0.033166565 0.07099704 0.09614612 -0.02641084
-0.050254405 0.047498863 0.08226181 0.073429115 -0.057392735 0.11523153 0.014026107 0.102616526
0.07178734 0.13328668 0.14606412 0.022143522 -0.017550407 0.1305277 0.020365654 0.002863455
-0.085387476 -0.02519 0.042751756 0.14051688 -0.06290637 0.14131454 0.09901581 0.005561426
0.115009375 0.07651078 -0.00089721975 0.017336784 0.13336322 0.084258124 -0.00035763247 0.08699056
-0.06194139 0.105360866 -0.0005014738 0.079912014 -0.026493449 0.11978285 0.044138357 0.08498234
0.037255913 0.05306857 0.022143237 0.025676185 0.058798492 0.0050760643 0.1044168 -0.029650262
-0.011599317 -0.031148897 0.16164126 -0.008218691 -0.016316306 0.13532826 0.16014007 -0.03805515
00000000: 34b5 993d 772b 953c 628b 6bbd 043d 1f3d
00000010: aad9 07bd e566 913d 42e8 c43d 8c5b d8bc
00000020: 90d7 4dbd 2b8e 423d e178 a83d 0162 963d
00000030: a514 6bbd 82fe eb3d c2cd 653c 9d28 d23d
00000040: 3e05 933d 4e7c 083e d591 153e 5566 b53c
00000050: dfc5 8fbc 0ea9 053e dfd5 a63c cea8 3b3b
00000060: a1df aebd 425b cebc 771c 2f3d a8e3 0f3e
00000070: 0ed5 80bd c2b4 103e cdc8 ca3d 9f3c b63b
00000080: 098a eb3d afb1 9c3d 6633 6bba df05 8e3c
00000090: 5e90 083e 868f ac3d 9e80 bbb9 1b28 b23d
000000a0: 41b6 7dbd 70c7 d73d 5675 03ba e9a8 a33d
000000b0: ca08 d9bc b650 f53d 6cca 343d 390b ae3d
000000c0: a899 183d 6e5e 593d bc65 b53c dd56 d23c
000000d0: b0d6 703d 1d55 a63b 7ad8 d53d 1be5 f2bc
000000e0: 100b 3ebc f92b ffbc 4985 253e b0a7 06bc
000000f0: c6a9 85bc 7e93 0a3e c2fb 233e b8df 1bbd

net.3.weight f4 [64, 64, 3]
-0.0529995 -0.06312437 0.06378339 -0.04581578 -0.01066404 0.06390275 -0.03704074 0.071289465
-0.00948609 0.027095892 -0.012079813 -0.03603804 0.03060716 0.03875009 -0.014072107 0.093718275
-0.068053715 -0.05017977 -0.03735935 0.051211752 -0.047169972 0.06422372 0.0056461697 0.053448662
0.037726477 0.064725816 0.038706653 -0.015399945 0.028550882 0.003252523 0.013188176 0.031107511
0.03995978 0.099164814 0.061057508 -0.046326227 0.030330202 -0.05023601 0.0052168146 0.0610569
0.0004101856 0.06423986 0.010289178 0.061590225 -0.02561238 0.019723454 0.0022792472 0.030960692
-0.048484877 0.042678215 0.020738417 0.08290018 -0.061145347 0.014991498 0.05832157 -0.05069942
-0.028799195 0.040171616 -0.0060550924 -0.007783618 0.015047326 0.009254731 0.06078431 -0.026789743
-0.06833487 -0.02940569 0.014489151 0.016370296 0.010050207 0.017220978 -0.044625655 0.040928535
0.07924886 0.011179596 -0.002917522 -0.05934176 0.03704132 0.019072842 -0.042608287 -0.00042602845
-0.053140163 0.0937543 -0.06403815 -0.03557289 0.04352892 0.03231314 0.022274807 0.04689653
0.046465136 0.060239837 -0.0047582486 0.016716883 -0.03926829 -0.0411176 -0.0026354538 0.047562987
0.040807877 0.015138777 -0.03416705 -0.027302783 0.071913645 0.047009356 0.009077911 -0.063557476
-0.04961514 0.04749958 -0.060306907 0.02606862 -0.010709962 -0.012186864 0.014926334 0.093723305
0.03947556 0.048891272 0.013503648 0.0009988253 0.06693846 -0.022113452 0.013911303 -0.069096334
-0.020080294 0.05561839 0.029824207 0.003333216 0.029527467 0.066118136 -0.009978667 0.015175844
0.06358649 -0.023018546 -0.0009339474 -0.035134103 0.032920815 0.012155043 0.057018314 0.0074150725
-0.0050739637 0.0036127989 -0.052966494 0.0055200504 0.005113179 0.04902941 0.036918163 0.03809527
0.07379312 0.032399684 0.07171576 0.09544094 -0.042149343 -0.03068728 0.03028339 0.019356064
-0.0109393485 0.11094548 -0.06619534 0.053975485 -0.0141272135 0.038974464 -0.018658914 -0.032946534
-0.036925692 -0.06516995 0.05853708 0.0662927 0.005352133 -0.0056073642 0.023706758 -0.028479919
0.0051290668 -0.07140655 0.055355065 0.026665293 0.017534152 0.045936707 0.019758865 -0.021985497
-0.029401097 0.072568946 -0.04809878 -0.036463026 -0.005145388 0.07203856 0.054889888 -5.1348892e-05
0.054703467 -0.0657982 0.020432688 -0.030295454 0.04010407 0.06936074 -0.019409928 0.021737952
-0.073075 0.0011151955 -0.010286236 0.0029856514 0.056777023 -0.062023323 -0.0072848406 -0.018070113
0.023488589 0.02305289 -0.04384238 -0.0678646 -0.047093 -0.041006297 -0.008427734 -0.004840788
-0.055980798 -0.049287096 -0.030257033 0.013097322 -0.031051781 -0.044849306 0.00054621627 -0.015827555
-0.093579404 0.052206732 -0.020290509 -0.07313882 0.03932739 -0.07088706 -0.035485778 0.02832329
-0.063390926 0.010289364 0.06551728 -0.015808687 -0.00600094 -0.008872778 0.043912202 -0.050035764
0.0068302685 0.06082021 0.01616894 0.019100491 0.023430556 -0.03500862 -0.061313245 0.012315427
-0.010801865 0.05291553 -0.01805732 -0.024056004 -0.045250192 0.05440995 0.015620423 -0.053389847
0.059588462 0.025749192 -0.07179848 0.037380416 -0.054841 0.045366086 -0.06790126 -0.04858937
00000000: 0116 59bd 5a47 81bd dea0 823d 54a9 3bbd
00000010: 3ab8 2ebc 72df 823d 08b8 17bd 3600 923d
00000020: 8c6b 1bbc 34f8 dd3c 68ea 45bc a09c 13bd
00000030: debb fa3c 6ab8 1e3d b28e 66bc 5eef bf3d
00000040: bf5f 8bbd 4d89 4dbd 1e06 19bd 6ac3 513d
00000050: 4d35 41bd ba87 833d 8103 b93b fcec 5a3d
00000060: 1487 1a3d f88e 843d de8a 1e3d 0d50 7cbc
00000070: 8ae3 e93c 4828 553b 3813 583c 2ed5 fe3c
00000080: deac 233d ec16 cb3d 7017 7a3d 92c0 3dbd
00000090: 0b77 f83c 46c4 4dbd d0f1 aa3b cd16 7a3d
000000a0: 2e0e d739 3090 833d f193 283c 0846 7c3d
000000b0: 0ed1 d1bc 1593 a13c 6c5f 153b 47a1 fd3c
000000c0: 1498 46bd 5acf 2e3d 9de3 a93c 92c7 a93d
000000d0: 8b73 7abd e69e 753c 99e2 6e3d 32aa 4fbd
000000e0: 4aec ebbc fe8a 243d cc69 c6bb b80d ffbb
000000f0: 0f89 763c 28a1 173c f8f8 783d 2a76 dbbc
00000100: 27f3 8bbd 34e4 f0bc e763 6d3c 001b 863c
00000110: a0a9 243c 0213 8d3c 64c9 36bd aea4 273d
00000120: 3a4d a23d a02a 373c e633 3fbb 5810 73bd
00000130: a4b8 173d a63e 9c3c 0786 2ebd 925c dfb9
00000140: 80a9 59bd 4102 c03d 6f26 83bd e1b4 11bd
00000150: 614b 323d c85a 043d a879 b63c 9316 403d
00000160: 3a52 3e3d 0cbe 763d 15eb 9bbb d8f1 883c
00000170: c9d7 20bd ee6a 28bd 94b7 2cbb 68d1 423d
00000180: 2926 273d a208 783c c0f2 0bbd 16aa dfbc
00000190: 7647 933d e28c 403d 85bb 143c 6c2a 82bd
000001a0: 3f39 4bbd eb8e 423d 6004 77bd dc8d d53c
000001b0: d678 2fbc 6aab 47bc 958d 743c 01f2 bf3d
000001c0: 20b1 213d 3742 483d 683e 5d3c 04eb 823a
000001d0: 0817 893d 4527 b5bc 3cec 633c 6182 8dbd
000001e0: 6e7f a4bc 1cd0 633d e551 f43c 1672 5a3b
000001f0: 96e3 f13c f268 873d 907d 23bc 1aa4 783c
00000200: a239 823d 6491 bcbc 26d4 74ba c7e8 0fbd
00000210: fad7 063d f225 473c 098c 693d 23fa f23b
00000220: 7e43 a6bb b5c4 6c3b 65f3 58bd 8ae1 b43b
00000230: 748c a73b 10d3 483d 8037 173d c909 1c3d
00000240: d920 973d 88b5 043d b6df 923d 8a76 c33d
00000250: caa4 2cbd e463 fbbc df14 f83c 9c90 9e3c
00000260: f43a 33bc 6237 e33d 6c91 87bd 6615 5d3d
00000270: d475 67bc b0a3 1f3d 94da 98bc f2f2 06bd
00000280: 653f 17bd d377 85bd 94c4 6f3d 78c4 873d
00000290: f260 af3b fbbd b7bb ad34 c23c b84e e9bc
000002a0: bb11 a83b 993d 92bd febb 623d 2c71 da3c
000002b0: c8a3 8f3c 2128 3c3d 58dd a13c ee1a b4bc
000002c0: 92da f0bc 079f 943d 3a03 45bd 415a 15bd
000002d0: a59a a8bb f488 933d 38d4 603d 745f 57b8
000002e0: be10 603d 35c1 86bd 7462 a73c 2c2e f8bc
000002f0: 2a44 243d 010d 8e3d 9201 9fbc ca13 b23c
00000300: 58a8 95bd c02b 923a 9a87 28bc ebaa 433b
00000310: 068f 683d 2b0c 7ebd acb5 eebb c607 94bc
00000320: 246b c03c 6ad9 bc3c 1194 33bd 98fc 8abd
00000330: 97e4 40bd 38f6 27bd 7a14 0abc 799f 9ebb
00000340: 1f4c 65bd 44e1 49bd 99dd f7bc 2696 563c
00000350: 4e60 febc e8b3 37bd f42f 0f3a caa8 81bc
00000360: 8fa6 bfbd bad6 553d 4838 a6bc cec9 95bd
00000370: c215 213d 3c2d 91bd 8959 11bd 3f06 e83c
00000380: 1ad3 81bd b894 283c ec2d 863d 3881 81bc
00000390: 89a3 c4bb 215f 11bc 48dd 333d 4df2 4cbd
000003a0: 72d0 df3b 9d1e 793d ba74 843c a278 9c3c
000003b0: 70f1 bf3c 3365 0fbd 9923 7bbd a5c6 493c
000003c0: 4efa 30bc f4bd 583d f2ec 93bc 1911 c5bc
000003d0: 4458 39bd f8dc 5e3d cdec 7f3c 50af 5abd
000003e0: 0813 743d f8ef d23c 150b 93bd 351c 193d
000003f0: f5a0 60bd cad1 393d d10f 8bbd a605 47bd

net.3.bias f4 [64]
-0.022812905 -0.07917362 0.06005831 -0.025766358 0.04570628 0.036207836 0.026392112 0.015928965
0.032905616 0.009858924 0.018575367 0.10034703 0.055147246 0.032287374 0.00024498728 0.0021658235
0.09904858 -0.014428199 0.06310131 0.008527754 0.020338755 0.1107149 0.02767602 0.12158285
-0.023518119 0.11921734 0.0373254 0.011469477 0.023938699 0.048890345 0.012651584 0.09199646
0.05502333 0.095948406 0.02141489 -0.04457339 -0.00999412 0.04571601 0.02594506 0.0931611
-0.0067016296 0.013966564 0.045358755 0.014707869 0.07591304 0.041486487 0.06691416 -0.01613257
0.039913908 0.011426296 0.05491323 0.032435678 0.08861117 -0.022278452 0.085144736 -0.039785713
0.06402165 0.049685936 -0.023555841 -0.055479106 0.035257168 0.048113387 0.11598654 -0.072771594
00000000: 21e2 babc c725 a2bd b4ff 753d f813 d3bc
00000010: 8236 3b3d ab4e 143d 4534 d83c 767d 823c
00000020: 0ac8 063d 5387 213c 5e2b 983c be82 cd3d
00000030: 14e2 613d c43f 043d a371 8039 7df0 0d3b
00000040: fbd9 ca3d 4164 6cbc 423b 813d feb7 0b3c
00000050: 769d a63c 7ebe e23d d2b8 e23c 6e00 f93d
00000060: 12a9 c0bc 3928 f43d 85e2 183d 79ea 3b3c
00000070: 171b c43c 3e41 483d 9748 4f3c a468 bc3d
00000080: 2560 613d 9980 c43d 486e af3c 9692 36bd
00000090: 61be 23bc b640 3b3d bc8a d43c 3fcb be3d
000000a0: 5899 dbbb 04d4 643c 1aca 393d 46f9 703c
000000b0: 4c78 9b3d bced 293d 4b0a 893d 7428 84bc
000000c0: c47c 233d 5c35 3b3c b2ec 603d 46db 043d
000000d0: c679 b53d 4d81 b6bc 5d60 ae3d 58f6 22bd
000000e0: c81d 833d 7b83 4b3d 2ef8 c0bc 0f3e 63bd
000000f0: d269 103d 8b12 453d 5a8a ed3d 4609 95bd

net.6.weight f4 [64, 64, 3]
0.07290072 -0.020119883 0.030349005 0.06764484 -0.042812906 0.00037047343 0.08730253 0.030090846
-0.05409582 0.08259105 -0.04855564 -0.0035951291 0.009924411 -0.05139445 0.032989524 -0.018179096
-0.005138189 0.010881258 0.024008224 -0.011519007 0.026910122 0.08595203 -0.06801683 0.042251855
0.07765271 0.043184496 -0.009453092 0.036947716 0.0038415561 0.04406054 0.019574026 -0.0046155313
-0.06322622 0.10451055 -0.02506879 0.04467126 0.029456265 -0.050738033 -0.028028797 0.06528434
-0.010795273 0.028455798 -0.0055068354 -0.007343637 -0.0508504 0.038992476 0.034500726 0.039920226
0.08397228 -0.038198967 -0.040522013 -0.022114163 0.03818325 -0.003981905 -0.022087695 -0.001430169
0.054527424 0.049714822 0.0015561399 -0.02239639 0.09924303 -0.06016854 0.059039555 -0.002594606
-0.066721655 0.019278295 0.038258716 0.02351174 -0.051419772 -0.03095723 0.031713232 -0.067485124
0.074144885 -0.052095238 0.03995916 -0.0057792272 0.037555568 -0.010438807 0.075672746 -0.007923869
0.011099181 0.08469434 0.07201384 0.059369072 0.035385143 -0.03926411 -0.06610251 0.07769543
0.044466287 0.029461714 -0.018997021 0.010110466 -0.039630555 0.038273223 0.04857055 -0.03627692
0.069571316 0.05947222 0.010202039 0.055426244 0.053940035 -0.062649384 0.09415089 0.030399997
0.06943546 0.022275899 -0.05019369 -0.037534107 0.09629401 -0.06455096 0.055421792 0.087572046
-0.024334744 0.03903038 -0.014946227 -0.057310667 -0.005195439 0.026889153 0.056073584 0.018310122
0.09665855 0.070147306 0.007500972 0.01999593 0.053528696 -0.055819206 0.104237005 0.0028166897
-0.016425733 0.064829074 0.024299655 -0.06018696 0.06982751 -0.013037343 0.0003613483 0.07220619
-0.05862139 0.019281551 0.08238666 0.05157362 -0.024304844 0.046148967 -0.05618711 0.065042675
0.05464815 -0.038534302 0.00317507 -0.009866965 0.054738976 -0.033603158 0.08720155 0.0536485
-0.018427242 0.049801737 -0.0030558594 -0.015138729 0.03895525 0.062008597 0.055653945 -0.0130693605
0.01069946 0.0534219 -0.028168928 0.029096963 -0.056433544 0.06317606 -0.035535254 -0.019618088
0.03870944 0.005880748 0.059727244 0.010496841 0.030824058 -0.034504652 0.017872004 0.05383212
0.028035004 0.04644809 0.06328584 -0.027387898 -0.029808244 0.0005443611 0.039018735 0.048863787
0.028653234 0.02484247 0.029696435 0.009984656 -0.03442988 0.0012932161 -0.06278429 0.04231599
0.09743916 0.0058702696 -0.055042215 -0.015441385 -0.056223672 0.0058430526 0.09852278 -0.05496274
0.051694304 0.07650831 0.021190807 0.03199151 0.07902619 -0.004784149 -0.058951765 0.04134521
-0.07010138 -0.012487959 0.03416116 -0.022245489 0.0020927107 0.06016729 -0.046937253 -0.02682243
0.02939643 -0.040002536 0.027450345 0.10126198 -0.021858793 0.02056783 -0.029358726 -0.033864215
0.0048245117 0.090823606 0.059583306 0.008385804 0.09493504 -0.0522754 -0.0656776 -0.02414158
0.037121065 0.018285781 0.079659306 0.027463287 0.024802834 0.09520116 0.007345842 -0.007390787
4.8342765e-05 -0.049384966 0.011134274 0.037078854 -0.016148087 0.043276157 0.0326521 0.03369552
0.03769046 0.10127397 -0.042507574 0.054618336 -0.011838912 -0.046288274 0.039340675 0.02970407
00000000: f94c 953d 74d2 a4bc 7a9e f83c 6189 8a3d
00000010: 965c 2fbd 1a3c c239 abcb b23d 1481 f63c
00000020: 9493 5dbd 7f25 a93d 47e2 46bd 429c 6bbb
00000030: ff99 223c fd82 52bd 0620 073d 54ec 94bc
00000040: 415e a8bb 4e47 323c e5ac c43c 38ba 3cbc
00000050: 9e72 dc3c 9e07 b03d 684c 8bbd 4810 2d3d
00000060: 6208 9f3d 3ae2 303d 24e1 1abc 7d56 173d
00000070: 9ec2 7b3b d378 343d b559 a03c e23d 97bb
00000080: c07c 81bd a109 d63d 105d cdbc 36f9 363d
00000090: 444e f13c afd2 4fbd a69c e5bc ccb3 853d
000000a0: a8de 30bc 221c e93c af72 b4bb e4a2 f0bb
000000b0: 8248 50bd 93b6 1f3d a250 0d3d 6483 233d
000000c0: a9f9 ab3d 8576 1cbd 69fa 25bd c328 b5bc
000000d0: 0a66 1c3d a47a 82bb 41f1 b4bc 8274 bbba
000000e0: 2658 5f3d c5a1 4b3d 64f7 cb3a a278 b7bc
000000f0: ee3f cb3d 4973 76bd 76d3 713d 440a 2abb
00000100: 5da5 88bd 84ed 9d3c 2cb5 1c3d b19b c03c
00000110: 8a9d 52bd 049a fdbc bce5 013d a435 8abd
00000120: 46d9 973d d161 55bd 37ac 233d ac5f bdbb
00000130: ded3 193d 8807 2bbc 50fa 9a3d 1ed3 01bc
00000140: 57d9 353c 3a74 ad3d fe7b 933d fc2c 733d
00000150: 03f0 103d 67d3 20bd c160 87bd c81e 9f3d
00000160: 4822 363d b159 f13c a49f 9bbc 5ea6 253c
00000170: a653 22bd 62c4 1c3d eaf1 463d 1c97 14bd
00000180: 687b 8e3d 2499 733d 7426 273c a106 633d
00000190: 3af0 5c3d 524e 80bd 2fd2 c03d 6a09 f93c
000001a0: 2e34 8e3d f27b b63c e697 4dbd 5dbd 19bd
000001b0: cb35 c53d 4b33 84bd f601 633d f958 b33d
000001c0: a859 c7bc 52de 1f3d 05e1 74bc 97be 6abd
000001d0: 803e aabb a446 dc3c 6aad 653d 1cff 953c
000001e0: ebf4 c53d 64a9 8f3d b7ca f53b 81ce a33c
000001f0: e840 5b3d aea2 64bd 367a d53d 3698 383b
00000200: 428f 86bc 1bc5 843d 1210 c73c 9a86 76bd
00000210: ba01 8f3d 949a 55bc 5973 bd39 d7e0 933d
00000220: fc1c 70bd 58f4 9d3c 56ba a83d dc3e 533d
00000230: f41a c7bc b306 3d3d 7424 66bd 1835 853d
00000240: bdd6 5f3d 25d6 1dbd d614 503b 0da9 21bc
00000250: fa35 603d 77a3 09bd ba96 b23d 88be 5b3d
00000260: baf4 96bc e8fc 4b3d d044 48bb 6e08 78bc
00000270: 8a8f 1f3d bafc 7d3d 64f5 633d df20 56bc
00000280: ca4c 2f3c ecd0 5a3d 86c2 e6bc c15c ee3c
00000290: dc26 67bd 7362 813d 6a8d 11bd 1db6 a0bc
000002a0: ca8d 1e3d 4ab3 c03b 8ea4 743d f1fa 2b3c
000002b0: bc82 fc3c c054 0dbd 4f68 923c 127f 5c3d
000002c0: aaa9 e53c 5a40 3e3d 029c 813d 965c e0bc
000002d0: 6b30 f4bc 74b3 0e3a 1cd2 1f3d 6525 483d
000002e0: 30ba ea3c 7082 cb3c f045 f33c af96 233c
000002f0: 5906 0dbd 2281 a93a 0d95 80bd 8853 2d3d
00000300: 2f8e c73d 645b c03b f273 61bd ddfd 7cbc
00000310: cb4a 66bd 1477 bf3b 50c6 c93d 9c20 61bd
00000320: 68bd 533d 64b0 9c3d 5898 ad3c 8809 033d
00000330: 7cd8 a13d 5ac4 9cbb 6877 71bd 9859 293d
00000340: 5091 8fbd 4c9a 4cbc 93ec 0b3d 2c3c b6bc
00000350: dc25 093b fa71 763d 4741 40bd b6ba dbbc
00000360: c8d0 f03c b3d9 23bd 8cdf e03c 7162 cf3d
00000370: 3611 b3bc de7d a83c b681 f0bc 34b5 0abd
00000380: f016 9e3b ba01 ba3d a00d 743d 9c64 093c
00000390: 4d6d c23d bb1e 56bd fa81 86bd 90c4 c5bc
000003a0: 420c 183d 10cc 953c 6b24 a33d b0fa e03c
000003b0: 502f cb3c d3f8 c23d 64b5 f03b 6a2e f2bb
000003c0: a6c3 4a38 e447 4abd 886c 363c ffdf 173d
000003d0: fe48 84bc 5742 313d 35be 053d 5004 0a3d
000003e0: 5061 1a3d ba68 cf3d 6c1c 2ebd 7ab7 5f3d
000003f0: fff7 41bc c698 3dbd b023 213d f355 f33c

net.6.bias f4 [64]
0.032690376 -0.00061714405 -0.009560045 0.07465687 0.03951689 0.08714448 0.12064015 0.023608362
0.091768846 0.04217509 -0.0012944973 -0.02475727 0.0058701127 -0.0066513335 0.065478094 0.018609643
0.106953315 0.022054182 0.058480557 0.055767845 0.1243088 0.1124867 0.017541733 -0.03961682
0.099877074 -0.027142404 0.11468069 0.10736206 -0.08005274 0.07100865 0.021192418 0.13417725
0.051334187 0.03133088 0.01453519 -0.03368159 -0.061126243 0.10313266 0.018212283 0.08914558
0.01679156 0.059594758 0.07339154 0.13071999 0.11686018 0.039350864 0.040079895 0.086140424
-0.07660418 0.050156727 -0.0769095 -0.0006360804 0.021674544 0.08594418 -0.0066731786 -0.048169233
0.039445244 -0.054387532 0.045223355 0.004130832 0.025694551 0.02004438 0.12624238 0.06387869
00000000: 58e6 053d d6c7 21ba bca1 1cbc b3e5 983d
00000010: 76dc 213d ce78 b23d 2f12 f73d 5366 c13c
00000020: 4ef1 bb3d cabf 2c3d 1fac a9ba c2cf cabc
00000030: 135a c03b 6ef3 d9bb 6119 863d 4073 983c
00000040: 570a db3d f9aa b43c 4f89 6f3d d36c 643d
00000050: 9d95 fe3d 6d5f e63d aeb3 8f3c 3f45 22bd
00000060: 5a8c cc3d bf59 debc b6dd ea3d a4e0 db3d
00000070: b1f2 a3bd fc6c 913d b99b ad3c c365 093e
00000080: cc43 523d cf54 003d 0125 6e3c b5f5 09bd
00000090: 835f 7abd 3737 d33d ed31 953c f591 b63d
000000a0: 748e 893c a219 743d 4e4e 963d 76db 053e
000000b0: 6454 ef3d 5f2e 213d d12a 243d 646a b03d
000000c0: a7e2 9cbd 2471 4d3d ba82 9dbd a2be 26ba
000000d0: d08e b13c 8103 b03d aeaa dabb 1a4d 45bd
000000e0: 5691 213d 76c5 5ebd 203c 393d ee5b 873b
000000f0: 617d d23c 1d34 a43c af45 013e d5d2 823d

net.9.weight f4 [64, 64, 3]
0.045309495 0.069263786 0.0071857655 0.051463936 -0.0024179406 -0.039222848 0.01672009 -0.061484065
0.033857167 0.08303798 0.013275506 -0.06944593 -0.030523134 0.0077113155 -0.016837388 0.069591545
0.062723726 -0.06417526 0.023970056 0.003529977 0.030475236 0.068895064 0.030950405 0.059144877
-0.024976518 0.046006314 0.0120616 0.04670761 -0.013578903 0.021233454 0.053804174 -0.06044347
0.029258065 -0.04579491 0.022441577 -0.053327944 -0.021870432 0.036899485 -0.008178517 0.035073288
-0.03346049 -0.057471793 0.037629385 0.004192723 -0.04582811 -0.017766908 -0.02732592 -0.067966685
0.012433755 -0.042019464 -0.042663485 0.00045897806 0.06478751 0.068355605 -0.0041687987 0.06559421
-0.042504445 0.03952384 0.043919645 0.05983556 0.03441501 0.058801666 0.012319768 0.06896296
-0.010595623 -0.054829426 0.067179546 -0.0028195581 0.056603476 0.013970207 0.05362144 -0.064036466
0.0435492 -0.008471066 -0.028528314 0.06532576 -0.01729625 -0.04674402 0.016300308 0.01225391
0.044069484 0.03681044 -0.037695955 -0.03091618 -0.016365623 -0.050754182 -0.025564035 0.086116955
-0.045442738 0.016816331 -0.015439055 0.046242207 -0.002595663 0.013302095 0.0049902583 -0.03637499
-0.031656343 -0.043335915 0.013662929 -0.015298269 -0.052240632 -0.071390755 -0.006086037 0.017143227
-0.026977815 0.012629176 0.049502045 -0.049604718 0.05067662 -0.0419352 -0.022794794 0.092393465
0.03375406 -0.03698966 0.051296186 0.0585681 -0.04684207 0.088030554 -0.0048906086 -0.067247495
-0.0232466 0.015449349 0.06499839 0.011070706 0.042472124 0.018460434 0.0901808 -0.031610336
0.018920034 0.025489539 -0.06333155 0.024982406 -0.010556317 -0.06474449 0.050620772 -0.0126081295
-0.02197729 0.06863724 0.045925703 0.052674025 0.012921387 0.069239244 -0.04994452 -0.0003793105
-0.05489218 -0.0011749414 0.067919105 0.07521304 0.042457797 0.0075532123 0.06098769 -0.01670723
-0.049189784 0.09461597 -0.043116618 0.049761377 0.03675887 0.0039186664 0.052663215 0.0524039
0.03727585 0.021039013 0.022485452 -0.06062962 0.04341334 0.012386435 0.014776634 0.02856338
-0.0013154561 -0.029965382 0.037471376 -0.013206481 -0.03240716 -0.06610086 0.0064546615 0.0036322717
-0.0449095 0.0034731054 -0.013706985 0.05176352 -0.005273461 0.06432039 0.06417997 0.037075244
-0.041429803 -0.064084254 0.03669704 0.05947335 0.03037727 0.099339224 -0.02297619 0.054408386
0.024883293 -0.005386781 0.0087710135 0.06540086 0.020121567 0.04971715 0.0038801783 -0.0037436946
-0.053035077 0.089444876 -0.027286716 0.06615695 0.07667493 -0.06551133 0.065577686 0.050201215
0.06205914 -0.04215324 0.03568 -0.015464386 -0.014013311 0.08459057 0.06677391 0.04858937
0.07377218 -0.04661523 -3.8459975e-06 -0.012305944 -0.06979091 -0.0027128826 -0.0067619453 -0.033665217
0.02698813 -0.034313932 -0.034695487 -0.02390533 0.025104593 0.0059166374 0.06923464 0.041963656
0.061617598 0.0040683965 -0.026843147 -0.002159189 -0.045166668 -0.032914642 -0.005265179 -0.06075442
0.06463319 -0.030492704 -0.037694864 0.1050104 0.05832515 -0.034845322 0.04688381 -0.04021776
-0.04532953 0.012667309 -0.0009880697 0.014978206 0.10612828 -0.024440061 0.013431009 0.017707877
00000000: 7396 393d 2cda 8d3d 9276 eb3b d9cb 523d
00000010: 5076 1ebb 23a8 20bd 92f8 883c b7d6 7bbd
00000020: d0ad 0a3d d10f aa3d 8281 593c ab39 8ebd
00000030: a70b fabc 34af fc3b 90ee 89bc 0386 8e3d
00000040: 4c75 803d 526e 83bd da5c c43c 3057 673b
00000050: 34a7 f93c db18 8d3d b48b fd3c e641 723d
00000060: 8e9b ccbc 1e71 3c3d 049e 453c 7b50 3f3d
00000070: 0c7a 5ebc c8f1 ad3c c461 5c3d 9293 77bd
00000080: 9cae ef3c 7293 3bbd 66d7 b73c 676e 5abd
00000090: 9f29 b3bc ea23 173d 30ff 05bc 02a9 0f3d
000000a0: de0d 09bd 8b67 6bbd 4521 1a3d 1c63 893b
000000b0: 42b6 3bbd e88b 91bc 9cda dfbc 1e32 8bbd
000000c0: f3b6 4b3c 9a1c 2cbd e8bf 2ebd fea2 f039
000000d0: 50af 843d 06fe 8b3d 6b9a 88bb 4256 863d
000000e0: 2419 2ebd c0e3 213d 16e5 333d 2216 753d
000000f0: c1f6 0c3d 04da 703d dad8 493c 743c 8d3d
00000100: 4499 2dbc d294 60bd 6e95 893d 56c8 38bb
00000110: 0cd9 673d 4ce3 643c 28a2 5b3d 8d25 83bd
00000120: a560 323d 3aca 0abc 36b4 e9bc 83c9 853d
00000130: deb0 8dbc a876 3fbd 3988 853c a0c4 483c
00000140: 3482 343d 8bc6 163d 1367 1abd ee43 fdbc
00000150: 3311 86bc 9ee3 4fbd ab6b d1bc 165e b03d
00000160: 2a22 3abd 67c2 893c 17f4 7cbc 7868 3d3d
00000170: 001c 2abb 08f1 593c 5285 a33b f1fd 14bd
00000180: 15aa 01bd 0081 31bd 7ada 5f3c 97a5 7abc
00000190: 46fa 55bd 5135 92bd 616d c7bb f46f 8c3c
000001a0: 9400 ddbc 9aea 4e3c a8c2 4a3d 512e 4bbd
000001b0: 4a92 4f3d 3fc4 2bbd 26bc babc c938 bd3d
000001c0: b241 0a3d 7882 17bd f31b 523d 1be5 6f3d
000001d0: 78dd 3fbd 5d49 b43d 6641 a0bb 0eb9 89bd
000001e0: a76f bebc 441f 7d3c e01d 853d e861 353c
000001f0: 40f7 2d3d 563a 973c b6b0 b83d d779 01bd
00000200: 30fe 9a3c 70cf d03c f9b3 81bd e7a7 cc3c
00000210: 67f4 2cbc c298 84bd ba57 4f3d 5492 4ebc
00000220: b809 b4bc ae91 8c3d 971c 3c3d b8c0 573d
00000230: 3ab4 533c 4ecd 8d3d a092 4cbd 32de c6b9
00000240: 9fd6 60bd 7e00 9aba 2c19 8b3d 4b09 9a3d
00000250: 3ae8 2d3d f080 f73b 3ace 793d 9add 88bc
00000260: 3a7b 49bd 05c6 c13d 0d9b 30bd 96d2 4b3d
00000270: 7890 163d 2868 803b 62b5 573d 79a5 563d
00000280: 90ae 183d 025a ac3c 6933 b83c c456 78bd
00000290: 30d2 313d 79f0 4a3c b219 723c c0fd e93c
000002a0: 626b acba f679 f5bc 967b 193d ff5f 58bc
000002b0: 5fbd 04bd e35f 87bd a081 d33b 680b 6e3b
000002c0: 06f3 37bd 0a9d 633b 4393 60bc fc05 543d
000002d0: ffcc acbb 69ba 833d ca70 833d 36dc 173d
000002e0: 4cb2 29bd 9b3e 83bd a34f 163d 549a 733d
000002f0: c1d9 f83c 5d72 cb3d 9038 bcbc 54db 5e3d
00000300: 0cd8 cb3c 9883 b0bb 4cb4 0f3c e3f0 853d
00000310: fcd5 a43c 36a4 4b3d 974a 7e3b c658 75bb
00000320: 4f3b 59bd e02e b73d 6488 dfbc 4c7d 873d
00000330: bf07 9d3d ce2a 86bd 984d 863d ca9f 4d3d
00000340: ba31 7e3d e0a8 2cbd 3125 123d 565e 7dbc
00000350: 1698 65bc d23d ad3d c2c0 883d a605 473d
00000360: de15 973d 9def 3ebd de0c 81b6 df9e 49bc
00000370: 89ee 8ebd 9eca 31bb 4f93 ddbb 8ae4 09bd
00000380: 3616 dd3c c48c 0cbd db1c 0ebd 1cd5 c3bc
00000390: 26a8 cd3c 5ae0 c13b e4ca 8d3d 15e2 2b3d
000003a0: bc62 7c3d 2f50 853b 29e6 dbbc 2e81 0dbb
000003b0: af00 39bd 81d1 06bd 8687 acbb a0d9 78bd
000003c0: 685e 843d d6cb f9bc ee65 1abd b10f d73d
000003d0: 5ae6 6e3d f8b9 0ebd 3d09 403d 61bb 24bd
000003e0: 75ab 39bd 8b8a 4f3c 1e82 81ba 2667 753c
000003f0: c959 d93d 8636 c8bc bc0d 5c3c 1c10 913c

net.9.bias f4 [64]
0.053585388 0.120426446 0.048788782 0.105466224 0.005511028 -0.0040441263 0.089185335 -0.000464641
-0.05912187 0.10245922 0.10684846 0.10784381 -0.05486937 0.018772464 0.0936767 -0.0036344896
-0.059730884 0.11804639 -0.018749174 0.13221833 0.0731906 -0.06403644 0.035027947 0.01874703
0.041903377 0.00027388748 -0.028642159 -0.04077908 0.009552886 0.075448945 0.105252445 -0.059768453
-0.060429987 0.07865433 0.0806537 -0.01854863 0.11500113 0.09924585 -0.047012698 0.0059887306
0.08217724 0.09311271 -0.09162918 0.0885792 -0.007990774 -0.06404092 0.08589891 0.040016655
0.0156094 0.05405787 -0.020231297 -0.020525262 -0.048633758 -0.005966376 0.07147456 0.13606796
0.11337218 -0.019751363 0.12333947 0.108255975 -1.180535e-05 0.104044475 0.06564644 -0.031434976
00000000: 5a7c 5b3d 24a2 f63d bfd6 473d adfe d73d
00000010: db95 b43b 9784 84bb cda6 b63d 0f9b f3b9
00000020: c629 72bd 24d6 d13d 5ed3 da3d 37dd dc3d
00000030: b4be 60bd b6c8 993c 92d9 bf3d 9e30 6ebb
00000040: 5fa8 74bd 4ec2 f13d de97 99bc 3e64 073e
00000050: f4e4 953d 8925 83bd 7779 0f3d 5f93 993c
00000060: e0a2 2b3d 8e98 8f39 f6a2 eabc f707 27bd
00000070: b583 1c3c fa84 9a3d 988e d73d c4cf 74bd
00000080: 6f85 77bd 8515 a13d c42d a53d 4cf3 97bc
00000090: b685 eb3d 6941 cb3d 6390 40bd 1d3d c43b
000000a0: 8a4c a83d e0b1 be3d 14a8 bbbd 0369 b53d
000000b0: bceb 02bc e327 83bd c5eb af3d 81e8 233d
000000c0: 92be 7f3c c96b 5d3d 1bbc a5bc 9824 a8bc
000000d0: 3134 47bd 9781 c3bb 4161 923d 6655 0b3e
000000e0: ac2f e83d 9ccd a1bc 6799 fc3d 4fb5 dd3d
000000f0: 980f 46b7 4515 d53d a471 863d f6c1 00bd

net.12.weight f4 [64, 64, 3]
0.07833489 0.018823054 0.0164034 0.07326929 -0.013789989 0.055594005 -0.0044048433 -0.003808273
0.04148063 0.005379413 0.0028736908 -0.0076159053 -0.018838812 0.014684442 0.0555558 0.07127234
0.050461307 0.058225833 0.084218115 -0.052371845 0.039352126 0.027721845 -0.022329938 -0.048564218
-0.06415837 0.06304802 0.046465993 0.065994106 0.054596193 -0.02248611 0.06471828 0.03698525
-0.03207264 -0.0028547412 -0.04317794 0.07125218 0.027827628 -0.006623696 -0.020575888 -0.025089538
0.045797206 -0.06189136 0.07961557 0.03429573 -0.059227385 0.015920967 -0.056121536 -0.040025875
0.04595324 0.032100193 0.00015925552 0.045965157 0.015198577 -0.03308515 0.043178 -0.03314243
-0.04333108 0.025726419 0.008417355 0.028074984 0.08308027 0.02610551 -0.064611614 -0.0096357325
-0.027291931 0.06886649 0.06596847 -0.0381558 -0.04009259 0.0073606353 -0.03406181 0.033688575
-0.033914387 0.06337887 -0.030684054 0.033954304 -0.05309879 -0.044143252 0.089851245 -0.010677392
-0.015797779 -0.053409625 -0.019719929 0.057713546 -0.009041362 -0.0064720595 -0.050754502 0.04422854
0.045080006 -0.07002281 0.013096804 -0.06169343 -0.012565022 -0.028039888 -0.065398395 0.056195
-0.016112547 0.04728909 0.026481695 0.034861993 -0.05743908 -0.004915936 0.018019384 -0.0069350367
-0.033661656 -0.014648146 0.007119472 0.001329062 0.026588865 0.0070298435 0.022054184 0.06788106
-0.032422364 0.0061962074 -0.04416021 0.060661472 0.059165113 0.005599168 -0.013592642 0.034277044
0.045640685 -0.019947067 -0.048527412 0.037117194 0.046951115 0.04461669 0.025004363 -0.071225174
-0.036454096 0.10730994 0.06410694 -0.07144709 0.052299455 -0.06887666 0.0032657865 0.006078886
0.0553144 0.04660715 0.067226015 0.0071956376 0.026137415 0.094079696 0.007930821 -0.053174283
0.060596123 -0.0071019186 -0.052452754 0.0901546 -0.00083173777 0.028517565 0.048770428 -0.034352724
-0.03700447 -0.009140637 -0.038703863 0.05036249 -0.070569314 -0.010826836 -0.06410808 0.072084025
0.017460756 -0.03437712 -0.022405928 0.06337321 0.026337259 0.090255395 -0.021140143 -0.030365355
-0.0110852895 -0.055903345 -8.391266e-05 -0.04380647 -0.066497765 -0.056377396 0.07567292 0.01401295
-0.03857048 0.008086127 -0.053615432 0.040875465 0.072382696 0.05901312 -0.055724926 0.044628475
-0.027776727 0.038260184 0.10786208 -0.019252993 -0.06734554 -0.040691163 -0.0036928789 0.0375596
0.065449186 0.017125145 0.018647507 0.076130114 -0.02610133 -0.0050480803 0.022260776 0.04489238
-0.04809141 0.01022117 0.07178153 -0.05074531 0.093761474 0.0060363244 -0.029834097 0.008262813
-0.05505732 -0.052135594 0.10495327 -0.047971934 -0.055731524 -0.028697643 0.056057625 0.059470132
0.004886004 -0.0034554745 -0.028836023 0.07460909 -0.037843205 0.0034860605 0.10602382 -0.035922907
0.010361651 0.0581235 0.035835087 -0.006750609 -0.001710273 -0.027425122 -0.03680652 0.06390444
0.03966763 0.0588049 -0.017324537 -0.06715072 -0.06922796 0.045871254 -0.012607034 0.04593249
-0.037140068 0.04234907 -0.027094662 0.10970712 -0.06685541 -0.03937663 -0.006548605 -0.059709582
0.022821661 0.025423707 -0.027269468 0.057750084 0.01344412 -0.05272308 0.0017337014 0.024164328
00000000: 0b6e a03d ce32 9a3c 6c60 863c 360e 963d
00000010: 68ef 61bc 8ab6 633d 8156 90bb 3894 79bb
00000020: 98e7 293d c945 b03b 8854 3c3b d88e f9bb
00000030: da53 9abc 0497 703c 7b8e 633d 3cf7 913d
00000040: 84b0 4e3d 367e 6e3d 8c7a ac3d dc83 56bd
00000050: b22f 213d ec18 e33c 46ed b6bc 46eb 46bd
00000060: 7765 83bd 521f 813d 2053 3e3d eb27 873d
00000070: 42a0 5f3d ca34 b8bc 058b 843d d87d 173d
00000080: 9a5e 03bd 9c16 3bbb 5adb 30bd aaec 913d
00000090: c4f6 e33c 970b d9bb c48e a8bc 9388 cdbc
000000a0: da95 3b3d cb81 7dbd 7d0d a33d ae79 0c3d
000000b0: 6a98 72bd b06c 823c b2df 65bd 2cf2 23bd
000000c0: 7739 3c3d 7e7b 033d d4fd 2639 f645 3c3d
000000d0: 7403 793c 4b84 07bd 6adb 303d 5bc0 07bd
000000e0: ee7b 31bd 36c0 d23c f2e8 093c 82fd e53c
000000f0: fd25 aa3d 39db d53c 1853 84bd 31df 1dbc
00000100: 5493 dfbc e009 8d3d 7a1a 873d 4249 1cbd
00000110: 2138 24bd 7c31 f13b 6584 0bbd 08fd 093d
00000120: d0e9 0abd c8cc 813d 205d fbbc ab13 0b3d
00000130: 1e7e 59bd 8ecf 34bd ee03 b83d 3af0 2ebc
00000140: 586a 81bc 0dc4 5abd b08b a1bc 0a65 6c3d
00000150: 3922 14bc 9213 d4bb f4e3 4fbd fc28 353d
00000160: d0a5 383d 1e68 8fbd fa93 563c 40b2 7cbd
00000170: 86dd 4dbc e8b3 e5bc 98ef 85bd ba2c 663d
00000180: 76fe 83bc 34b2 413d 24f0 d83c 73cb 0e3d
00000190: 3e45 6bbd dc15 a1bb 639d 933c 4e3f e3bb
000001a0: cee0 09bd c7fe 6fbc 764a e93b ec33 ae3a
000001b0: e4d0 d93c 9a5a e63b faaa b43c 3a05 8b3d
000001c0: 50cd 04bd 8e09 cb3b 56e1 34bd 2a78 783d
000001d0: 1e57 723d 3a79 b73b acb3 5ebc 1666 0c3d
000001e0: baf1 3a3d 0868 a3bc aec4 46bd 3308 183d
000001f0: d04f 403d febf 363d f3d5 cc3c 81de 91bd
00000200: e450 15bd 50c5 db3d 804a 833d da52 92bd
00000210: f437 563d 350f 8dbd ce06 563b 6431 c73b
00000220: 5a91 623d 24e7 3e3d cbad 893d 62c9 eb3b
00000230: 221e d63c dbac c03d 46f0 013c 47cd 59bd
00000240: a433 783d 36b7 e8bb b3d8 56bd faa2 b83d
00000250: fa08 5aba ab9d e93c 80c3 473d 71b5 0cbd
00000260: 0092 17bd 9cc2 15bc f187 1ebd e648 4e3d
00000270: a586 90bd 0b63 31bc 194b 83bd caa0 933d
00000280: dc09 8f3c 06cf 0cbd a38c b7bc d0c9 813d
00000290: 3cc1 d73c d2d7 b83d 182e adbc c4c0 f8bc
000002a0: 139f 35bc e8fa 64bd 44fa afb8 6a6e 33bd
000002b0: fb2f 88bd fceb 66bd 67fa 9a3d 9296 653c
000002c0: 14fc 1dbd ad7b 043c db9b 5bbd 086d 273d
000002d0: 613d 943d beb7 713d d23f 64bd 59cc 363d
000002e0: 058c e3bc b6b6 1c3d cbe6 dc3d 74b8 9dbc
000002f0: 75ec 89bd c7ab 26bd 3a04 72bb 18d8 193d
00000300: 390a 863d 084a 8c3c a8c2 983c 1bea 9b3d
00000310: 75d2 d5bc 5e6a a5bb 3b5c b63c 12e1 373d
00000320: 80fb 44bd b276 273c 3202 933d 50da 4fbd
00000330: 0406 c03d 5ccc c53b a366 f4bc c060 073c
00000340: c983 61bd 228c 55bd bdf1 d63d 387e 44bd
00000350: bd46 64bd 5217 ebbc ae9c 653d f496 733d
00000360: c61a a03b 3e75 62bb 8639 ecbc a7cc 983d
00000370: 7a01 1bbd 6476 643b 0423 d93d e623 13bd
00000380: eac3 293c e812 6e3d d0c7 123d 3634 ddbb
00000390: 3d2b e0ba a6aa e0bc 6fc2 16bd 55e0 823d
000003a0: 867a 223d 68dd 703d 30ec 8dbc 5186 89bd
000003b0: 64c7 8dbd 7fe3 3b3d bc8d 4ebc b523 3c3d
000003c0: 2f20 18bd 3876 2d3d a0f5 ddbc 20ae e03d
000003d0: 7deb 88bd 6449 21bd ae95 d6bb 0992 74bd
000003e0: 7ef4 ba3c 6145 d03c 3864 dfbc 5a8b 6c3d
000003f0: ba44 5c3c 28f4 57bd 5e3d e33a 45f4 c53c

net.12.bias f4 [64]
0.08986937 0.13959303 0.017118493 0.06221698 -0.018246531 -0.048184585 -0.046117045 0.10820148
0.109464616 -0.07347985 0.07992874 -0.041468114 -0.014130061 0.13614807 0.13726999 -0.05551723
0.042477123 0.0032106282 0.02178939 0.08777112 -0.007174949 -0.043401487 0.10729626 -0.0069798147
0.037217762 0.07945976 0.01145187 0.08621677 0.07509196 0.000109935034 -0.07536925 0.061054803
0.03261961 -0.06866446 0.09899816 -0.05343087 -0.03760978 -0.07612263 0.13078922 0.08858786
0.05282857 0.13647953 0.12064657 0.09852411 -0.07718363 0.017612606 0.091730766 0.11193852
-0.024737917 -0.047802556 0.09797769 0.1272852 -0.052571118 -0.040049337 -0.02261927 0.09717598
-0.06364433 0.10571479 0.123284295 0.010482354 0.05583091 0.11253536 -0.040472448 -0.021195337
00000000: 6f0d b83d 7af1 0e3e 153c 8c3c 3bd7 7e3d
00000010: c079 95bc 335d 45bd 3ae5 3cbd bd98 dd3d
00000020: fc2e e03d 9b7c 96bd aeb1 a33d 78da 29bd
00000030: c581 67bc 666a 0b3e 8190 0c3e 0966 63bd
00000040: 7efc 2d3d 6769 523b aa7f b23c 58c1 b33d
00000050: d61b ebbb c2c5 31bd 24be db3d eeb6 e4bb
00000060: a771 183d ccbb a23d a0a0 3b3c 6b92 b03d
00000070: d0c9 993d ec8c e638 315b 9abd 9a14 7a3d
00000080: 249c 053d f49f 8cbd 8cbf ca3d 54da 5abd
00000090: b60c 1abd 2ee6 9bbd 9ced 053e 8d6d b53d
000000a0: c562 583d 4ac1 0b3e 8d15 f73d 02c7 c93d
000000b0: 7312 9ebd 5048 903c 57dd bb3d 0640 e53d
000000c0: 2ca7 cabc 9dcc 43bd 87a8 c83d 0d57 023e
000000d0: d054 57bd c60a 24bd 0c4c b9bc 3304 c73d
000000e0: f557 82bd ff80 d83d 7a7c fc3d 2ebe 2b3c
000000f0: f4ae 643d f078 e63d 70c6 25bd d8a1 adbc

net.15.weight f4 [64, 64, 3]
0.028766703 0.04853304 -0.049646165 0.08669588 0.03595385 -0.022260338 -0.007999 0.07117066
-0.05531898 0.032450613 -0.04293675 -0.04013253 0.036989514 0.020320874 -0.03643097 -0.021747796
0.03194481 0.03862416 0.03222039 0.004336945 0.023782693 -0.038427465 -0.044583533 0.022814017
0.058018822 0.060890496 -0.02468383 -0.008485046 -0.029419191 0.015494714 0.004077518 0.015614405
-0.05892836 -0.04981535 -0.008743409 -0.015999846 0.07746583 -0.002371938 0.0414585 -0.036312364
-0.030035313 0.017912604 0.033803955 0.010272827 0.05414766 0.0021502455 0.06940651 0.030510925
-0.035319835 0.05883147 -0.0027977985 0.05286217 0.022346385 0.070910856 0.051288266 -0.04915443
-0.04343278 0.073386975 0.055986002 0.0436394 -0.04411353 0.02078262 0.046115838 0.07186693
-0.0069228774 0.0036630454 -0.009167679 -0.0016481155 0.054862794 -0.017438596 0.018002491 -0.038426556
0.03129648 -0.0634692 0.01576076 0.058787268 -0.029817346 0.014192617 0.011275607 -0.0688828
-0.06328276 0.025642937 -0.035474785 0.07180542 0.0070822216 0.052944094 -0.030012649 0.011408329
-0.01782243 0.045507606 0.033065945 -0.018755764 -0.014695812 0.08730454 -0.033839826 -0.046237025
-0.013643661 0.039031915 0.054382935 -0.042830426 -0.011624107 0.05852697 0.032987386 0.030872509
0.03079985 -0.009476045 -0.043864455 -0.051473275 0.07912116 0.05718586 -0.012324488 0.045353666
-0.016574755 0.037905455 0.055778455 -0.013067277 0.0109883435 0.025186513 -0.013893905 0.007890632
-0.022626042 -0.0611671 -0.049374342 -0.05487123 0.04994248 0.05471202 -0.052766096 0.06796704
0.021679204 0.014786017 -0.06973283 0.021511808 0.04762164 0.033090584 -0.06775985 0.031134991
0.00024005302 0.04849216 -0.03609902 0.05580741 -0.050634295 0.019004121 -0.0176148 -0.0058384333
0.007902512 0.009508226 -0.038013898 0.012974206 0.068701744 -0.03903588 -0.0069012595 0.0072767637
-0.045415208 0.045871384 -0.05297511 -0.048242066 -0.039346024 0.035831727 -0.028014507 -0.017977558
0.007971097 -0.05921762 0.009310756 -0.05152697 0.06854217 -0.02954556 0.030187385 0.029837511
0.038686506 0.061335824 -0.015376589 -0.051168412 0.058352895 0.066137746 0.01409671 -0.047780562
0.045109697 0.05879335 0.06274104 0.013937388 0.005704356 0.06826338 -0.048049264 0.08664479
0.059963845 -0.05330327 -0.039126135 -0.040716104 -0.07087109 0.008925426 -0.018896054 0.0013445606
0.021301378 -0.06855518 -0.069998436 0.0077158627 -0.0075518056 -0.034562852 0.05295533 0.0691476
-0.02730554 -0.03135631 0.005183694 -0.056634776 -0.015810361 -0.015127284 -0.029026669 -0.04303584
-0.05922785 -0.019517481 -0.017787108 0.06108761 0.04146818 -0.05260919 0.07185526 -0.04988927
0.0077672508 0.008467728 0.04327623 0.05664804 0.0012972094 0.024160914 0.0384307 -0.00465535
-0.00028380041 0.026408918 0.0069909506 0.037451796 -0.06025094 -0.05390649 -0.039433833 -0.0389685
-0.060735285 -0.029575463 0.05091861 -0.0010416093 -0.047851756 0.041063555 0.054769434 0.010022901
-0.05345816 0.00119798 0.04901374 0.055534393 0.07134406 -0.03852005 -0.013448505 0.029868465
-0.05128987 0.017325198 0.039986588 0.048413783 -0.06911268 -0.010729494 -0.041907355 -0.0073509533
00000000: 26a8 eb3c 95ca 463d c759 4bbd 9c8d b13d
00000010: 5844 133d 505b b6bc 3d0e 03bc ecc1 913d
00000020: 2896 62bd efea 043d 72de 2fbd 0262 24bd
00000030: 5182 173d f677 a63c a438 15bd 6f28 b2bc
00000040: 90d8 023d 5e34 1e3d 87f9 033d ee1c 8e3b
00000050: ecd3 c23c 1e66 1dbd 399d 36bd 76e4 ba3c
00000060: 25a5 6d3d 5068 793d be35 cabc dd04 0bbc
00000070: 8400 f1bc 8add 7d3c b39c 853b 90d3 7f3c
00000080: dd5e 71bd 2e0b 4cbd 8440 0fbc 1c12 83bc
00000090: 68a6 9e3d 8472 1bbb 63d0 293d 46bc 14bd
000000a0: 9e0c f6bc 74bd 923c 0476 0a3d 5c4f 283c
000000b0: f0c9 5d3d 22eb 0c3b 0025 8e3d 0cf2 f93c
000000c0: 88ab 10bd 44f9 703d 455b 37bb 0186 583d
000000d0: c40f b73c b639 913d a513 523d 2856 49bd
000000e0: 92e6 31bd e94b 963d 9451 653d 3abf 323d
000000f0: 64b0 34bd 5040 aa3c f6e3 3c3d f82e 933d
00000100: 4ed9 e2bb b40f 703b 0834 16bc 9405 d8ba
00000110: cfb7 603d 63db 8ebc f679 933c 2a65 1dbd
00000120: bd30 003d 24fc 81bd b61c 813c ebca 703d
00000130: 8243 f4bc 2688 683c 53bd 383c 6d12 8dbd
00000140: 649a 81bd 2311 d23c 024e 11bd b80e 933d
00000150: fb11 e83b e8db 583d 16dd f5bc 00ea 3a3c
00000160: 5800 92bc 2f66 3a3d 2870 073d b0a5 99bc
00000170: b4c6 70bc b9cc b23d a19b 0abd 0963 3dbd
00000180: a989 5fbc eedf 1f3d a4c0 5e3d f56e 2fbd
00000190: 0a73 3ebc fab9 6f3d c81d 073d 58e8 fc3c
000001a0: f84f fc3c 6a41 1bbc 37ab 33bd a4d5 52bd
000001b0: 460a a23d b83b 6a3d a6ec 49bc c4c4 393d
000001c0: c8c7 87bc c042 1b3d f377 643d 2218 56bc
000001d0: 7408 343c f253 ce3c 43a3 63bc b647 013c
000001e0: 405a b9bc 5a8a 7abd c03c 4abd a8c0 60bd
000001f0: 7c90 4c3d b619 603d 4321 58bd 4e32 8b3d
00000200: 9698 b13c 0d41 723c 16d0 8ebd 8839 b03c
00000210: e90e 433d fe89 073d adc5 8abd cf0e ff3c
00000220: beb6 7b39 b79f 463d 91dc 13bd 5096 643d
00000230: e865 4fbd 88ae 9b3c ea4c 90bc 5450 bfbb
00000240: 8a79 013c 64c8 1b3c 76b4 1bbd c491 543c
00000250: 80b3 8c3d 16e4 1fbd f623 e2bb eb71 ee3b
00000260: 4c05 3abd a2e3 3b3d 6efc 58bd 7999 45bd
00000270: 4c29 21bd 4ac4 123d ae7e e5bc ac45 93bc
00000280: 3499 023c 2d8e 72bd 248c 183c f20d 53bd
00000290: d65f 8c3d 8809 f2bc 894b f73c cc6d f43c
000002a0: be75 1e3d 463b 7b3d 17ee 7bbc f895 51bd
000002b0: 7203 6f3d 3a73 873d e3f5 663c 8db5 43bd
000002c0: f2c4 383d 4cd1 703d 607e 803d a459 643c
000002d0: 9beb ba3b accd 8b3d 4ecf 44bd d372 b13d
000002e0: a69c 753d 8854 5abd ba42 20bd eec5 26bd
000002f0: dd24 91bd f33b 123c e6cb 9abc f83b b03a
00000300: 3a80 ae3c a966 8cbd 575b 8fbd 59d5 fc3b
00000310: 2375 f7bb c791 0dbd b0e7 583d 429d 8d3d
00000320: deaf dfbc 796f 00bd fadb a93b def9 67bd
00000330: bb84 81bc 6ed8 77bc 56c9 edbc 5946 30bd
00000340: e798 72bd 20e3 9fbc 45b6 91bc 0037 7a3d
00000350: 8ada 293d bc7c 57bd da28 933d b158 4cbd
00000360: 6c84 fe3b 3abc 0a3c 6b42 313d c607 683d
00000370: 2007 aa3a 1ced c53c 8269 1d3d e88b 98bb
00000380: 0ccb 94b9 8457 d83c 5814 e53b 0e67 193d
00000390: b1c9 76bd 0dcd 5cbd 5f85 21bd 6f9d 1fbd
000003a0: 90c5 78bd 3e48 f2bc 0890 503d 9c86 88ba
000003b0: 3400 44bd 4232 283d ea55 603d 1837 243c
000003c0: f2f6 5abd 8a05 9d3a a2c2 483d 0878 633d
000003d0: d61c 923d 33c7 1dbd 1e57 5cbc b6ae f43c
000003e0: 5415 52bd 93ed 8d3c fac8 233d 884d 463d
000003f0: f38a 8dbd c2ca 2fbc 0ca7 2bbd 44e0 f0bb

net.15.bias f4 [64]
0.10558573 -0.035249993 0.085663535 0.09515102 0.089574 0.11443952 -0.07268867 0.0867539
0.09806087 -0.030115925 0.06102139 -0.040260475 0.022265377 0.0041759345 0.0764149 -0.055135835
-0.01824817 0.007469982 0.0016331553 0.030944362 0.13634814 0.07702951 0.009149328 -0.027645497
-0.063617855 0.0941805 0.013468307 -0.031906642 0.053980574 0.08805014 -0.059726667 0.05130216
0.10390064 0.070830345 0.00097118184 0.13675246 0.11109733 0.025207216 -0.06643937 -0.034208853
0.0987878 0.115819104 0.10622081 0.14052846 -0.02918186 0.07309406 -0.012949488 0.14146633
0.030422287 0.038999513 -0.019035133 0.026172817 0.1401433 0.12092439 0.02334506 0.025526911
-0.034510113 0.10205068 0.124584556 0.036362253 0.05627892 0.08439258 -0.047215052 0.04149838
00000000: 553d d83d 4c62 10bd 5d70 af3d 8ade c23d
00000010: 9372 b73d 445f ea3d ccdd 94bd 07ac b13d
00000020: 23d4 c83d acb5 f6bc 91f1 793d 2be8 24bd
00000030: e165 b63c 47d6 883b 6a7f 9c3d 1dd6 61bd
00000040: 307d 95bc c0c6 f43b 990f d63a 087f fd3c
00000050: d99e 0b3e a6c1 9d3d 10e7 153c cf78 e2bc
00000060: 144a 82bd b5e1 c03d 2daa 5c3c 8ab0 02bd
00000070: bc1a 5d3d a253 b43d f3a3 74bd 3722 523d
00000080: dcc9 d43d 800f 913d e996 7e3a d608 0c3e
00000090: ff86 e33d 5d7f ce3c 5d11 88bd 951e 0cbd
000000a0: 4251 ca3d 9132 ed3d 4c8a d93d b1e6 0f3e
000000b0: cc0e efbc 57b2 953d 172a 54bc 8ddc 103e
000000c0: 2938 f93c f4bd 1f3d 91ef 9bbc 6068 d63c
000000d0: ba81 0f3e 35a7 f73d 243e bf3c d01d d13c
000000e0: 7a5a 0dbd f2ff d03d 3026 ff3d 96f0 143d
000000f0: ba84 663d 04d6 ac3d 9264 41bd 35fa 293d
