model_artifacts/dl_tcn_latest_40400_41900.pt (torch, 378521 bytes, 20 tensors)

net.0.weight f4 [64, 30, 3]
-0.04143717 -0.06968126 0.07590028 -0.10821968 0.053290352 0.003917571 -0.080500245 -0.03887002
-0.03026199 -0.14416574 0.070275895 0.0566229 -0.14174868 0.08568714 0.041678898 -0.08698039
-0.06879407 0.102989934 -0.09946062 -0.010949831 0.07982919 0.03808086 -0.09320548 0.08857641
0.014427008 -0.06293601 -0.06514007 0.018974049 -0.006858706 -0.066136494 -0.0058670207 -0.08879079
-0.016769595 -0.08484761 0.066889055 0.08283823 0.08795132 0.029070135 0.057393514 -0.06935854
0.10050038 0.03286708 0.05066783 0.092747025 -0.035883598 -0.009733263 -0.07885943 -0.0006141474
0.086827666 0.091354646 0.039176524 -0.11377786 0.085652344 -0.020735005 0.02823368 -0.08102634
0.026003323 -0.067702316 -0.05827139 -0.04069016 -0.086197026 -0.061675455 0.062530436 0.07397686
-0.0050688153 0.01025347 -0.08794069 0.07403801 -0.02683305 -0.07322013 -0.08619642 0.002683558
-0.048399497 -0.034365967 -0.08293921 0.1113014 -0.06956031 -0.03652975 -0.123988025 -0.04887287
0.03229089 0.118967384 -0.04255741 -0.09774867 0.041895643 -0.074406214 -0.04630138 0.090808034
0.05223562 0.054135866 -0.14269902 -0.10024519 0.033499487 -0.036525663 -0.035334505 -0.006256585
-0.12618016 0.09255904 -0.08882394 -0.02442721 -0.06115416 -0.06018074 -0.033597864 -0.020114414
0.063254856 -0.09353691 -0.07676971 -0.015096917 -0.13039927 -0.08992395 0.084261246 -0.01780384
0.03548808 -0.023377746 0.04298838 0.023861222 -0.044009835 0.078314714 -0.00096447975 0.099955745
-0.14155348 0.0032919096 -0.04269725 0.017831462 -0.034553476 0.08998742 -0.00010573464 -0.045124505
0.06413541 -0.09859783 -0.008722704 0.025524575 0.10621334 0.045481674 -0.07304983 -0.040183462
0.00042182038 0.015667439 -0.108836636 0.014007116 0.07088251 0.052827086 0.0062506096 0.082303755
-0.0997942 -0.010317007 0.052228976 -0.010229268 0.054086864 -0.10248143 0.033108022 -0.06817457
-0.099529654 0.105929345 -0.007879382 0.07102107 -0.10594296 -0.018263444 -0.09472879 -0.039664045
-0.046707775 -0.0848615 -0.10396172 -0.08755958 -0.009108309 0.03886867 0.02426636 -0.0148412585
0.0868474 0.07254877 0.08495114 -0.019575575 -0.05826117 -0.051400147 -0.0112558985 -0.04435988
-0.07512074 -0.01973906 -0.06547232 0.018788267 -0.06528355 -0.022680834 -0.07278197 0.06506439
-0.089979276 0.010172824 0.0024784 0.042639405 -0.0926255 0.10371032 0.065660365 0.040471405
0.010757327 -0.021003451 -0.027893238 -0.017135974 -0.1030454 -0.06328195 -0.009025008 -0.09443131
-0.06906704 0.034873765 -0.0701123 0.032751076 -0.042648666 -0.096079856 -0.049150974 -0.038948245
0.082908146 -0.10167385 -0.14815123 0.08511353 -0.028073724 -0.015260915 0.0010487842 0.034849785
-0.039614167 0.05912818 -0.092754394 0.10069325 -0.040910326 -0.0014217007 0.00091685797 -0.067477286
0.087857105 0.024595255 -0.04729044 0.09676298 -0.11332574 -0.0010206867 -0.0929269 0.07086821
0.028081309 -0.06230687 0.010900723 -0.052714378 -0.033459432 -0.024769338 -0.01817596 0.057079982
0.05679163 0.048884112 -0.093114816 -0.1087396 0.011523627 -0.08007626 0.11555564 -0.021561995
-0.09874803 0.016174281 0.094297014 -0.087622344 0.057707768 -0.08359592 -0.080738455 -0.017426174
00000000: 06ba 29bd 0cb5 8ebd 9b71 9b3d 48a2 ddbd
00000010: fc46 5a3d f85e 803b 50dd a4bd 2c36 1fbd
00000020: fee7 f7bc 2fa0 13be cfec 8f3d 6aed 673d
00000030: 9126 11be bd7c af3d 7eb7 2a3d c622 b2bd
00000040: e8e3 8cbd 63ec d23d 02b2 cbbd ec66 33bc
00000050: 7d7d a33d adfa 1b3d 84e2 bebd 8d67 b53d
00000060: 425f 6c3c 98e4 80bd 2868 85bd 776f 9b3c
00000070: ffbe e0bb 9272 87bd 2340 c0bb f2d7 b5bd
00000080: 6460 89bc 95c4 adbd 21fd 883d 17a7 a93d
00000090: d21f b43d 7e24 ee3c 7615 6b3d da0b 8ebd
000000a0: 25d3 cd3d a29f 063d 1289 4f3d 27f2 bd3d
000000b0: aefa 12bd 4478 1fbc 0e81 a1bd bcfe 20ba
000000c0: b4d2 b13d 2518 bb3d 9077 203d 5e04 e9bd
000000d0: 7f6a af3d 75dc a9bc 524a e73c 23f1 a5bd
000000e0: ec04 d53c 83a7 8abd fbad 6ebd baaa 26bd
000000f0: 1188 b0bd 679f 7cbd f50f 803d 2e81 973d
00000100: 4e18 a6bb 2cfe 273c 401a b4bd 3da1 973d
00000110: fcd0 dbbc 6ff4 95bd c087 b0bd a2de 2f3b
00000120: 8d3e 46bd 54c3 0cbd 08dc a9bd fdf1 e33d
00000130: a375 8ebd 38a0 15bd 6fed fdbd eb2e 48bd
00000140: 7443 043d 2ca5 f33d ae50 2ebd 7430 c8bd
00000150: c49a 2b3d 4962 98bd 84a6 3dbd 90f9 b93d
00000160: 04f5 553d 92bd 5d3d b11f 12be 5a4d cdbd
00000170: c236 093d ef9b 15bd eaba 10bd 0a04 cdbb
00000180: 5f35 01be 988f bd3d 53e9 b5bd 931b c8bc
00000190: c97c 7abd 1480 76bd ea9d 09bd fcc6 a4bc
000001a0: c38b 813d 4890 bfbd 7039 9dbd 0f59 77bc
000001b0: 6387 05be 0c2a b8bd 2991 ac3d 5cd9 91bc
000001c0: f35b 113d b082 bfbc 9514 303d 9c78 c33c
000001d0: a843 34bd 7763 a03d 24d5 7cba 99b5 cc3d
000001e0: 65f3 10be 14bd 573b 50e3 2ebd 4913 923c
000001f0: f287 0dbd 534b b83d dabd ddb8 79d4 38bd
00000200: 6d59 833d a9ed c9bd ace9 0ebc ea18 d13c
00000210: 6186 d93d fe4a 3a3d 269b 95bd 6a97 24bd
00000220: c627 dd39 0059 803c bee5 debd 1a7e 653c
00000230: d92a 913d 3761 583d ead1 cc3b df8e a83d
00000240: e760 ccbd aa08 29bc 0dee 553d a998 27bc
00000250: 308a 5d3d c9e1 d1bd 479c 073d 1c9f 8bbd
00000260: 34d6 cbbd 7cf1 d83d 8618 01bc 7f73 913d
00000270: 9ff8 d8bd 389d 95bc 2b01 c2bd c476 22bd
00000280: a750 3fbd decb adbd e2e9 d4bd 7052 b3bd
00000290: 043b 15bc c134 1f3d 3fca c63c c028 73bc
000002a0: 0ddd b13d 7394 943d ddfa ad3d f55c a0bc
000002b0: 44a3 6ebd f688 52bd a96a 38bc b5b2 35bd
000002c0: e7d8 99bd cfb3 a1bc 5a16 86bd dae9 993c
000002d0: 62b3 85bd 28cd b9bc b70e 95bd 7b40 853d
000002e0: 0e47 b8bd ebab 263c a76c 223b a8a6 2e3d
000002f0: 70b2 bdbd 1466 d43d f178 863d 58c5 253d
00000300: 803f 303c 6e0f acbc 5c80 e4bc be60 8cbc
00000310: 7709 d3bd f899 81bd a1dd 13bc 3465 c1bd
00000320: 0573 8dbd cbd7 0e3d 0a97 8fbd fe25 063d
00000330: 5eb0 2ebd 84c5 c4bd 8852 49bd 3288 1fbd
00000340: bfcb a93d 613a d0bd f5b4 17be 0150 ae3d
00000350: defa e5bc eb08 7abc 5c77 893a a6be 0e3d
00000360: 7742 22bd 6430 723d 04f6 bdbd 4338 ce3d
00000370: 9691 27bd 5c58 baba 4c59 703a 8831 8abd
00000380: 6dee b33d fd7b c93c 9fb3 41bd ab2b c63d
00000390: 5317 e8bd 90c8 85ba 7550 bebd 5a23 913d
000003a0: c60a e63c 7d35 7fbd f298 323c 08eb 57bd
000003b0: c20c 09bd 11e9 cabc c0e5 94bc b3cc 693d
000003c0: 579e 683d b53a 483d fbb2 bebd deb2 debd
000003d0: 98cd 3c3c 06ff a3bd 6fa8 ec3d c8a2 b0bc
000003e0: 683c cabd ed7f 843c cb1e c13d 5873 b3bd
000003f0: fb5e 6c3d 5634 abbd 345a a5bd 56c1 8ebc

net.0.bias f4 [64]
0.06796212 -0.033132978 -0.014421232 0.0498429 -0.018073004 0.060447752 -0.021219892 0.0019586773
-0.046747763 0.026788654 0.065484725 0.15296309 0.071975715 0.07510843 0.06532267 0.13491939
0.13046993 -0.056784026 0.1359388 0.0012671631 0.10725364 0.048975065 0.030378621 0.15450941
-0.015503778 0.1034114 0.05274453 -0.045340892 -0.037528705 0.07704395 0.0660222 0.0724595
0.16731645 0.003264973 -0.042722754 -0.0050441227 0.13928317 0.02513357 0.058018405 0.106223516
0.074251786 -0.013934262 0.12299919 0.12817197 0.16922268 0.0076031573 0.04349197 -0.045596417
0.14942333 -0.025310267 0.11438608 0.1331389 0.14006966 0.110564314 0.114567205 -0.0032440997
0.09059419 0.088580295 0.010397794 -0.08673116 0.011054718 0.015167168 0.06814982 0.021435937
00000000: b92f 8b3d 72b6 07bd 0847 6cbc 1228 4c3d
00000010: d60d 94bc 1098 773d 57d5 adbc 275d 003b
00000020: 957a 3fbd e173 db3c db1c 863d 5ba2 1c3e
00000030: 0168 933d 73d2 993d e4c7 853d 4f28 0a3e
00000040: e999 053e 5e96 68bd 8a33 0b3e f016 a63a
00000050: cca7 db3d 149a 483d 96dc f83c b737 1e3e
00000060: 8f03 7ebc 5bc9 d33d a60a 583d 5fb7 39bd
00000070: b3b7 19bd 38c9 9d3d a636 873d a565 943d
00000080: 0155 2b3e 28f9 553b 0efe 2ebd 2b49 a5bb
00000090: 3fa0 0e3e ebe4 cd3c b5a4 6d3d b78b d93d
000000a0: 5211 983d 884c 64bc 00e7 fb3d 833f 033e
000000b0: b648 2d3e e823 f93b a324 323d 4fc3 3abd
000000c0: 6e02 193e 7a57 cfbc 4043 ea3d 9055 083e
000000d0: 6c6e 0f3e 8b6f e23d 36a2 ea3d f69a 54bb
000000e0: 7289 b93d 9669 b53d 825b 2a3c 1ba0 b1bd
000000f0: d91e 353c b77f 783c 2292 8b3d 6b9a af3c

net.3.weight f4 [64, 64, 3]
0.05149198 -0.008242307 0.004153545 0.07104686 0.040254503 0.006595472 -0.0010559813 0.059352413
-0.066305734 -0.01381031 0.06925547 -0.06199459 0.10540921 0.005450695 0.0115813 -0.017651744
-0.07201563 -0.058777273 0.052619763 0.01012448 0.025407363 -0.008597291 0.025023092 0.022215674
-0.030965844 0.04813546 0.06271224 0.039565276 0.009056792 0.023072049 0.06734028 -0.042953365
0.05629996 0.10610253 -0.062244568 -0.04725892 0.068391904 0.025214419 -0.03787735 0.09506684
-0.059511475 0.05348806 0.0498677 -0.057369616 -0.05998836 0.097478636 -0.0074098497 -0.018678656
0.09836052 -0.038229723 0.01704415 0.015914155 0.027148262 0.06796412 0.030521072 -0.040213477
-0.02075433 0.053692266 0.06499088 -0.013941437 0.00930284 0.06119434 -0.06386895 0.10406865
0.038127623 -0.058283318 0.032663755 0.0023759017 0.020257782 0.012282224 -0.03281663 0.02994905
-0.0001309662 0.023130141 0.06127409 0.016601622 0.07139516 0.02596324 -0.046533257 0.06747465
0.06636226 0.096157596 0.055007547 0.0033844588 -0.0066534188 0.028669633 0.0036549899 0.08299225
-0.05133723 0.0050216876 0.0036643113 0.017111994 0.024480917 -0.049032267 -0.06360967 0.028220132
0.07417562 -0.0035893149 -0.00092559087 0.011646636 -0.031336356 -0.021486115 0.06820607 0.03194739
0.034085535 -0.007506786 -0.00863119 -0.041712705 0.0037017188 -0.037110265 -0.060553286 0.040159196
-0.03135432 -0.016337618 0.079467595 0.052155256 0.035090685 0.02210121 0.05702573 -0.03943268
0.070843734 -0.06359725 -0.033842534 0.06329669 -0.039285876 -0.014349413 0.007627398 0.008945063
0.0064720893 -0.038189802 0.020785809 0.06691629 0.07437338 -0.0371934 0.0579883 -0.030344496
0.018888608 0.05078718 0.03778492 -0.029002655 0.0611351 0.03694957 -0.06848505 -0.04832778
0.056077715 0.0009022915 -0.07053435 0.067673184 -0.07196934 0.032971874 0.03880264 -0.04640598
-0.011403436 0.03545405 0.06649586 0.0023631463 0.10467791 -0.035241865 -0.034485508 -0.02999571
0.020710992 0.026506703 0.014933972 -0.06589595 -0.07080391 0.07588981 0.056368813 -0.03638281
0.02037901 -0.009461645 -0.06709721 0.07832986 0.0089477 -0.055619407 0.033765115 0.06953743
0.0029227333 -0.04910705 -0.042540163 0.06034717 0.07723306 -0.0110920835 -0.034929875 0.024074905
0.03892982 -0.039529122 0.0143420575 0.02367903 -0.019952398 0.007060878 0.027316418 -0.0029937862
-0.08425075 -0.05626569 -0.015037905 -0.0687753 -0.049209967 0.04274322 -0.0028981778 0.057044886
-0.015422635 0.0039112438 -0.017364085 -0.049193576 -0.08130011 0.020537503 0.0007499963 -0.07270955
-0.0073623485 -0.047010053 -0.053983625 -0.01221446 -0.016927995 -0.043882653 0.04715564 0.030379226
0.020162223 0.010862006 -0.013269378 -0.098072015 -0.060187124 0.041002177 -0.06912932 -0.046314552
0.061472543 -0.0017746204 0.060620986 0.040507533 -0.07969361 0.0200596 -0.020196244 -0.0718692
-0.021479318 -0.06223482 -0.028029447 0.0026360445 0.03357476 -0.03613832 0.043676417 0.0595465
0.03964424 0.04844542 0.024209283 0.002359833 0.05818134 0.028428804 0.015773572 -0.06179615
-0.04082275 -0.001087016 0.050884478 0.015813705 0.034159094 0.0305444 -0.04321914 -0.019389242
00000000: 41e9 523d be0a 07bc 761a 883b 0481 913d
00000010: e8e1 243d d41e d83b da68 8aba 841b 733d
00000020: 4dcb 87bd a344 62bc d0d5 8d3d 0aee 7dbd
00000030: c9e0 d73d be9b b23b 7ebf 3d3c 649a 90bc
00000040: ee7c 93bd 70c0 70bd d287 573d 26e1 253c
00000050: 1a23 d03c a7db 0cbc 3afd cc3c a5fd b53c
00000060: 15ac fdbc b029 453d 466f 803d 330f 223d
00000070: f062 143c 9801 bd3c b3e9 893d deef 2fbd
00000080: c99a 663d 494c d93d 29f4 7ebd 9292 41bd
00000090: 0e11 8c3d 788e ce3c 4825 1bbd 67b2 c23d
000000a0: 4ec2 73bd 4c16 5b3d 1342 4c3d 67fc 6abd
000000b0: 5bb6 75bd e1a2 c73d 53ce f2bb fb03 99bc
000000c0: 3e71 c93d c596 1cbd 2ca0 8b3c 675e 823c
000000d0: 0866 de3c c630 8b3d 5407 fa3c e3b6 24bd
000000e0: fc04 aabc 6cec 5b3d f019 853d a06a 64bc
000000f0: f06a 183c eba6 7a3d b9cd 82bd f221 d53d
00000100: b62b 1c3d 7dba 6ebd 6eca 053d 04b5 1b3b
00000110: a6f3 a53c 623b 493c bb6a 06bd b657 f53c
00000120: f953 09b9 6c7b bd3c 8afa 7a3d 2000 883c
00000130: a037 923d dcb0 d43c a899 3ebd 2630 8a3d
00000140: f0e8 873d 46ee c43d 984f 613d cccd 5d3b
00000150: ec04 dabb 94dc ea3c 8e88 6f3b d7f7 a93d
00000160: fd46 52bd f88c a43b f124 703b 742e 8c3c
00000170: 348c c83c 0fd6 48bd c945 82bd e82d e73c
00000180: 63e9 973d b63a 6bbb 5aa3 72ba 88d1 3e3c
00000190: 8d5a 00bd a603 b0bc a0af 8b3d 44db 023d
000001a0: 469d 0b3d 7cfb f5bb d669 0dbc f1da 2abd
000001b0: 8998 723b ef00 18bd b906 78bd f87d 243d
000001c0: 636d 00bd 78d6 85bc e8bf a23d c0a0 553d
000001d0: 40bb 0f3d 990d b53c d093 693d 2984 21bd
000001e0: 8516 913d 463f 82bd 789e 0abd b2a1 813d
000001f0: 3aea 20bd cd19 6bbc 40ef f93b 508e 123c
00000200: d213 d43b e96c 1cbd 0047 aa3c 680b 893d
00000210: 1251 983d 1b58 18bd 2485 6d3d 0595 f8bc
00000220: 48bc 9a3c 3806 503d 5cc4 1a3d fa96 edbc
00000230: cc68 7a3d 6f58 173d e441 8cbd 5af3 45bd
00000240: bfb1 653d c287 6c3a 5074 90bd 3d98 8a3d
00000250: a964 93bd 840d 073d 84ef 1e3d 3214 3ebd
00000260: 7ad5 3abc 4438 113d fb2e 883d 04df 1a3b
00000270: 5f61 d63d c659 10bd ad40 0dbd 90b9 f5bc
00000280: 19aa a93c 9624 d93c 9ead 743c 75f4 86bd
00000290: a401 91bd 1e6c 9b3d fce2 663d 2406 15bd
000002a0: e2f1 a63c 0405 1bbc 436a 89bd 686b a03d
000002b0: 6099 123c 2dd1 63bd 4a4d 0a3d a469 8e3d
000002c0: 548b 3f3b 7924 49bd 983e 2ebd 982e 773d
000002d0: 5e2c 9e3d 92bb 35bc a112 0fbd bc38 c53c
000002e0: e074 1f3d 4ae9 21bd f3fa 6a3c 86fa c13c
000002f0: 3673 a3bc f05e e73b aec6 df3c 6633 44bb
00000300: a88b acbd da76 66bd 8c61 76bc 11da 8cbd
00000310: 6490 49bd 8413 2f3d 5bef 3dbb e6a7 693d
00000320: 38af 7cbc e429 803b 203f 8ebc 347f 49bd
00000330: ac80 a6bd 443e a83c 669b 443a bfe8 94bd
00000340: db3f f1bb 9d8d 40bd ef1d 5dbd 291f 48bc
00000350: 94ac 8abc 4cbe 33bd 4626 413d dbdd f83c
00000360: 3f2b a53c 8ef6 313c ce67 59bc fbd9 c8bd
00000370: c686 76bd e6f1 273d ac93 8dbd 54b4 3dbd
00000380: a2ca 7b3d 619a e8ba b64d 783d 3aeb 253d
00000390: 6736 a3bd 0854 a43c 9872 a5bc 2930 93bd
000003a0: 65f5 afbc f0e9 7ebd 039e e5bc 7dc1 2c3b
000003b0: b085 093d c605 14bd 0be6 323d 08e7 733d
000003c0: 0062 223d b46e 463d 8c52 c63c 6ea7 1a3b
000003d0: 8f4f 6e3d 86e3 e83c 9437 813c f61d 7dbd
000003e0: c235 27bd 347a 8eba 3e6c 503d be8b 813c
000003f0: 68ea 0b3d 4038 fa3c 8e06 31bd 30d6 9ebc

net.3.bias f4 [64]
0.08549947 -0.0039665475 0.053154003 0.13066892 0.027262375 -0.08326253 0.05740568 0.04337513
0.02544665 0.10747098 0.108358644 0.010263702 0.08518067 0.045392558 -0.08580482 0.13179474
0.03279068 -0.010393008 0.13208649 0.053056598 0.06456384 0.01852291 0.014690004 0.079507634
0.12395865 0.13259022 0.10993534 0.07477463 0.06916383 0.0010994616 0.015631093 0.00094743556
0.11417451 0.0074237254 0.015218853 0.084421635 -0.022822112 0.10770552 0.11426374 0.11381599
0.0553666 0.029954216 0.021475157 0.08620447 -0.008146083 0.017761638 0.010631797 0.108580776
0.121325366 -6.1141036e-05 0.10202273 0.0027054334 0.07192134 -0.0033941355 0.0008697283 0.121505715
0.12977053 0.0036688165 0.14166827 -0.014650519 -0.07646375 0.10373443 0.08301944 0.0883196
00000000: 591a af3d d0f9 81bb 03b8 593d 13ce 053e
00000010: 5855 df3c 8c85 aabd 3822 6b3d 1faa 313d
00000020: 7e75 d03c bf19 dc3d 23eb dd3d 1629 283c
00000030: 3473 ae3d 8ced 393d 70ba afbd 33f5 063e
00000040: 854f 063d 6f47 2abc ae41 073e e051 593d
00000050: 0c3a 843d 5cbd 973c 58ae 703c e6d4 a23d
00000060: 08de fd3d bbc5 073e c825 e13d 7123 993d
00000070: c4a5 8d3d cf1b 903a c70c 803c 535d 783a
00000080: 53d4 e93d b942 f33b 7f58 793c 40e5 ac3d
00000090: 70f5 babc b694 dc3d 1c03 ea3d 5c18 e93d
000000a0: 17c8 623d 8b62 f53c abec af3c f88b b03d
000000b0: 2677 05bc db80 913c fd30 2e3c 995f de3d
000000c0: 6f79 f83d d838 80b8 4bf1 d03d a44d 313b
000000d0: 7f4b 933d 2570 5ebb 7afe 633a fdd7 f83d
000000e0: 91e2 043e 8770 703b 7d11 113e bb08 70bc
000000f0: 0799 9cbd b872 d43d 1906 aa3d e8e0 b43d

net.6.weight f4 [64, 64, 3]
0.077558 -0.06091267 0.06512673 -0.05334724 -0.038753305 -0.042601474 0.06266442 -0.00291248
0.05695004 -0.019162364 0.061747715 -0.016430344 0.0013239054 -0.05977648 -0.042163104 0.060839295
-0.021171536 0.037940368 0.009582238 -0.0067431135 -0.013980044 0.11020737 0.048109636 -0.045642413
0.0689788 -0.04300897 0.055340238 0.082675844 -0.01590455 0.04550385 0.08219297 0.05223083
-0.014811022 0.046548292 -0.0038037132 -0.067138344 0.098667264 -0.06367876 -0.030878648 0.003887536
-0.06606819 0.029947136 0.027698489 -0.04978567 -0.061778776 0.039769825 -0.027301747 0.021907508
0.014288352 -0.056435607 0.042617053 0.09832706 -0.0017043671 -0.024580918 -0.028597644 -0.0021624374
-0.028205093 0.0843078 0.024534248 0.04466661 0.02200062 0.00048761768 -0.0009508482 -0.022170909
-0.000585351 -0.045889784 0.0630469 -0.020706475 -0.024931364 0.03775462 0.046154983 -0.054473788
0.07587677 0.069963425 0.05952771 -0.008485015 0.07031813 -0.059101142 0.026436115 0.028029848
-0.028001413 -0.001635019 0.016553443 0.04694873 0.09580199 -0.053417705 -0.028908402 0.020035863
-0.0012523169 0.051369987 0.08872531 -0.0034256899 -0.015986685 0.0061955997 -0.050486602 -0.056425765
0.08301543 -0.033262145 0.008501791 0.06586048 -0.047589853 -0.042998873 0.02405881 -0.03605709
0.04259552 0.0016118649 0.010939021 -0.062803835 -0.04969528 0.032907363 0.027054276 -0.033518847
0.011607116 0.048846293 0.034269214 0.05667536 -0.014901012 0.089303374 0.04276669 -0.06299738
-0.012217245 -0.056802414 -0.047465503 0.00099795 -0.015335275 -0.039443605 0.053957596 0.040273204
-0.011973476 0.014656467 -0.05098465 0.07113725 -0.019651145 -0.041820344 -0.005497122 0.065842316
0.014864184 0.06718254 -0.034873806 0.03367997 -0.047315367 -0.0076613068 -0.03099525 0.04396934
0.06688616 0.02582552 -0.05934315 0.054778654 0.021353904 -0.014213024 0.10089027 -0.0054550385
0.04803563 -0.042501647 -0.06561088 0.00707639 0.104280844 -0.032324698 0.008167036 0.10268237
0.012664244 0.013565104 0.035311725 -0.047424197 0.034452766 0.035422597 -0.039559368 -0.07104316
-0.01057156 -0.0005168611 0.0055463137 0.017585887 0.025455106 -0.042758957 0.045198698 -0.02046251
0.017477266 0.05160553 0.043511793 -0.008351389 -0.046274364 0.026705861 0.031136952 0.096785784
0.021053951 -0.026318856 0.023076814 -0.04950159 -0.06863641 -0.019324984 -0.029334303 -0.04317518
0.038935885 0.026230995 0.0035759201 -0.034262657 -0.019368347 -0.0541152 -0.058692496 -0.021174125
-0.058366958 -0.03785684 0.02768289 0.04011491 0.017692529 -0.047930896 0.012877294 -0.07182252
0.03810132 -0.019696716 0.009156105 -0.025357423 0.018487062 -0.08117098 -0.011657257 -0.05343628
-0.07514762 0.025448937 0.026922096 0.027562479 0.0713934 0.049558252 0.018616043 0.051750153
-0.024163835 -0.063653186 -0.044014324 0.051320165 -0.050936993 -0.0016733222 -0.05235333 -0.039959278
0.05277294 0.021528944 0.0026681242 -0.0020116665 -0.029843142 0.056757964 -0.013693193 0.050423957
-0.049944907 -0.02759531 -0.0014183554 -0.03881108 0.0047748955 0.056463182 0.03581696 -0.046678446
-0.015922468 0.044493094 -0.044872068 0.036161758 0.022739898 0.005597725 0.017997954 0.040697612
00000000: bbd6 9e3d 907f 79bd 2a61 853d a382 5abd
00000010: c9bb 1ebd e27e 2ebd 3456 803d 4edf 3ebb
00000020: 7244 693d 64fa 9cbc 2ceb 7c3d ee98 86bc
00000030: e586 ad3a 2fd8 74bd 38b3 2cbd a032 793d
00000040: ee6f adbc 5c67 1b3d d2fe 1c3c 56f5 dcbb
00000050: 8e0c 65bc 67b4 e13d 9c0e 453d 8af3 3abd
00000060: c244 8d3d 2c2a 30bd 72ac 623d f451 a93d
00000070: 424a 82bc 3f62 3a3d ca54 a83d ffef 553d
00000080: eea9 72bc 6ca9 3e3d b847 79bb d47f 89bd
00000090: 1012 ca3d 026a 82bd 38f5 fcbc 08c6 7e3b
000000a0: c24e 87bd b253 f53c f1e7 e23c 0fec 4bbd
000000b0: be0b 7dbd afe5 223d eaa7 dfbc 6077 b33c
000000c0: b119 6a3c 0629 67bd 388f 2e3d b35f c93d
000000d0: 1265 dfba ec5d c9bc 9b45 eabc aeb7 0dbb
000000e0: 5e0e e7bc 91a9 ac3d 0cfc c83c 56f4 363d
000000f0: a53a b43c f0a6 ff39 5842 79ba c49f b5bc
00000100: 3e72 19ba edf6 3bbd bc1e 813d a0a0 a9bc
00000110: dc3c ccbc 97a4 1a3d 020d 3d3d e81f 5fbd
00000120: 4865 9b3d fc48 8f3d 54d3 733d bb04 0bbc
00000130: f402 903d 0a14 72bd 8d90 d83c da9e e53c
00000140: 3863 e5bc 224e d6ba 169b 873c 504d 403d
00000150: d533 c43d 86cc 5abd 50d1 ecbc 4022 a43c
00000160: c824 a4ba 5669 523d 9eb5 b53d 8a81 60bb
00000170: 82f6 82bc 7504 cb3b 0acb 4ebd b41e 67bd
00000180: fe03 aa3d e33d 08bd 194b 0b3c dce1 863d
00000190: 94ed 42bd 961f 30bd fb16 c53c 99b0 13bd
000001a0: a478 2e3d 3645 d33a 9439 333c 4c9f 80bd
000001b0: 478d 4bbd dfc9 063d eea0 dd3c 0f4b 09bd
000001c0: c62b 3e3c 0d13 483d e05d 0c3d 6c24 683d
000001d0: 6023 74bc b0e4 b63d 202c 2f3d c504 81bd
000001e0: d72a 48bc a6a9 68bd 306b 42bd a5cd 823a
000001f0: ce40 7bbc 9e8f 21bd a402 5d3d 84f5 243d
00000200: 662c 44bc ae21 703c 48d5 50bd 68b0 913d
00000210: 70fb a0bc cf4b 2bbd 3421 b4bb 56d8 863d
00000220: e888 733c 0097 893d d6d7 0ebd 02f4 093d
00000230: c2cd 41bd b30b fbbb c0e9 fdbc 3219 343d
00000240: 9cfb 883d 0a90 d33c ce11 73bd 955f 603d
00000250: 62ee ae3c bedd 68bc 8f9f ce3d 2ec0 b2bb
00000260: 02c1 443d 3516 2ebd ff5e 86bd 10e1 e73b
00000270: 3291 d53d e766 04bd 08cf 053c 224b d23d
00000280: b07d 4f3c 2c40 5e3c 07a3 103d e03f 42bd
00000290: 581e 0d3d 4917 113d 0109 22bd 147f 91bd
000002a0: 5634 2dbc f67d 07ba dabd b53b 4710 903c
000002b0: 3a87 d03c 0424 2fbd 4522 393d fea0 a7bc
000002c0: 7c2c 8f3c 5260 533d 6c39 323d 44d4 08bc
000002d0: 308a 3dbd 40c6 da3c ec12 ff3c a037 c63d
000002e0: 5679 ac3c a49a d7bc 960b bd3c 2ec2 4abd
000002f0: 3f91 8cbd 6e4f 9ebc 7e4e f0bc 75d8 30bd
00000300: 3c7b 1f3d 62e2 d63c fc59 6a3b 0057 0cbd
00000310: 5eaa 9ebc e6a7 5dbd 8b67 70bd 5c75 adbc
00000320: 3112 6fbd c60f 1bbd 3ac7 e23c 884f 243d
00000330: ecef 903c 3053 44bd 49fb 523c af17 93bd
00000340: 2110 1c3d 025b a1bc 7d03 163c 5fba cfbc
00000350: 2e72 973c f93c a6bd 14fe 3ebc 00e0 5abd
00000360: ffe6 99bd 4a7a d03c ba8b dc3c b5ca e13c
00000370: b436 923d 98fd 4a3d ac80 983c f8f7 533d
00000380: 3cf3 c5bc 9a5c 82bd 5d48 34bd 1835 523d
00000390: 4fa3 50bd 6053 dbba 7270 56bd 57ac 23bd
000003a0: 7028 583d 785d b03c b2db 2e3b 2ad6 03bb
000003b0: 9b79 f4bc 0a7b 683d 6a59 60bc 5a89 4e3d
000003c0: 0893 4cbd 8f0f e2bc 1ce8 b9ba 5ef8 1ebd
000003d0: ba76 9c3b f045 673d ceb4 123d e631 3fbd
000003e0: d66f 82bc 643e 363d c6cb 37bd 5a1e 143d
000003f0: 0649 ba3c 1f6d b73b 7270 933c 8ab2 263d

net.6.bias f4 [64]
0.086746804 -0.05035117 0.1143267 -0.054924324 0.117609896 -0.029405335 0.11403972 0.06953054
0.09780659 0.04573469 0.11461036 0.016580392 0.009388252 0.04092296 0.09912872 -0.04085501
0.055196587 0.050530452 -0.0016820799 -0.07010463 0.06955663 0.029741168 -0.015000845 -0.009376301
0.04665717 0.026536616 -0.025107037 0.10803159 -0.010410814 0.09633303 0.024511045 -0.008484099
0.09008537 -0.064298764 -0.07033457 0.01845452 0.09243337 0.027186545 0.05128218 0.10218072
0.09599028 -0.015407334 0.013635467 -0.07811875 0.13773568 0.008847902 -0.047734853 0.024959633
0.075360686 0.04450861 0.024239775 0.0005053354 0.068728864 0.010776815 0.027228953 0.017626151
0.007214577 -0.03345101 0.10470752 0.075021744 0.010434956 0.10430974 0.0011801975 0.089820504
00000000: 4fa8 b13d 073d 4ebd 1e24 ea3d 54f8 60bd
00000010: 75dd f03d 75e3 f0bc a88d e93d 0766 8e3d
00000020: d24e c83d 4c54 3b3d d6b8 ea3d 9ad3 873c
00000030: 2fd1 193c d59e 273d 0004 cb3d 9557 27bd
00000040: d115 623d 05f9 4e3d 3c79 dcba 0493 8fbd
00000050: b573 8e3d c0a3 f33c 1bc6 75bc 0f9f 19bc
00000060: 971b 3f3d 5163 d93c 46ad cdbc ab3f dd3d
00000070: 1e92 2abc 404a c53d 63cb c83c e400 0bbc
00000080: ae7e b83d 12af 83bd 920b 90bd ef2d 973c
00000090: b54d bd3d 51b6 de3c 430d 523d 2044 d13d
000000a0: 8d96 c43d 0b6f 7cbc 4b67 5f3c b9fc 9fbd
000000b0: 950a 0d3e caf6 103c 9f85 43bd 2578 cc3c
000000c0: b456 9a3d a94e 363d 7e92 c63c 7c78 043a
000000d0: b8c1 8c3d 3d91 303c 410f df3c b864 903c
000000e0: 4268 ec3b ed03 09bd e570 d63d 00a5 993d
000000f0: 61f7 2a3c 58a0 d53d dbb0 9a3a d0f3 b73d

net.9.weight f4 [64, 64, 3]
0.007456712 0.0104127675 -0.06645726 0.039255694 -0.004890862 -0.063267045 0.02202257 -0.03765726
-0.030047704 0.007091741 0.04988648 0.021530725 -0.036809854 -0.03898164 -0.042443696 -0.06226818
-0.05520044 0.04070427 -0.05729237 0.040759116 -0.0032126447 -0.004734667 0.06103219 -0.044070728
-0.014908094 0.0349627 -0.06063413 0.03997841 -0.04178355 -0.040691413 -0.07037021 -0.052471656
-0.008315004 -0.010157129 0.036213927 0.046305303 -0.00619056 0.025357109 -0.0140114855 0.06880782
-0.052302577 0.034924008 -0.07328895 -0.0050054975 -0.058821622 -0.032660674 0.02414672 0.020715283
0.04783912 0.013575714 0.06283447 0.014392782 0.015896719 -0.06754455 -0.040189903 -0.025649555
0.051190645 0.018386211 0.06785032 0.050946034 -0.06088759 -0.0042943843 -0.0014809475 -0.034023877
0.039898932 0.06090668 -0.053227983 -0.0413141 -0.04926844 0.053540558 0.006405389 0.06510934
-0.041667625 0.024557374 0.05369281 0.0031181807 0.068229824 -0.065932974 0.04729893 -0.03240618
-0.032890793 -0.05293945 -0.05131057 0.06280754 -0.062332354 0.05895344 -0.041710064 -0.0075086583
-0.026861044 -0.052431077 -0.019004928 -0.054194167 -0.014236612 0.063303284 -0.06623131 -0.055798523
0.008774216 0.008024942 -0.05657668 0.028341189 0.058344565 0.06388071 -0.032499738 -0.030856732
0.032250717 -0.051700573 -0.03206479 -0.015774764 0.010418168 0.045341283 -0.06458188 -0.033337787
0.04756383 -0.05954999 0.02135349 -0.014010737 0.020372905 -0.06171226 -0.017655503 0.021160565
-0.0015668462 0.059824638 0.05791816 -0.039970715 -0.02239297 0.04934825 -0.070274316 0.07102761
-0.0006678599 -0.05676942 0.01399156 -0.021511074 -0.03719992 0.021840854 -0.06788539 -0.063673705
0.028304398 0.01817859 0.041788813 -0.0474033 0.046611637 0.071752496 -0.0025371718 -0.049813423
-0.0023893612 0.01770487 -0.034076303 -0.063037395 0.059865035 -0.07030965 0.018190384 0.0037529184
0.023587685 0.03403392 0.0369623 -0.020722633 -0.0008317685 0.022140685 -0.026268631 0.030095104
-0.05068297 0.03257171 0.009050969 -0.06785154 -0.0063547892 -0.05163987 0.0028603752 -0.0056253476
0.01709438 -0.03704669 0.024720524 0.052616052 -0.044838764 -0.05244592 0.027344665 -0.019466713
0.059112333 0.039304353 0.0049674893 -0.053613618 -0.030295707 -0.030105669 -0.00015920337 -0.01614776
0.017430075 0.033115946 -0.04191651 0.033419795 0.037519626 0.02575638 -0.01768706 0.046873517
0.08937625 -0.008005213 -0.027550306 0.0371282 -0.064776555 -0.020923885 0.009901316 -0.042025022
0.0623271 0.031157687 -0.053159907 -0.056466233 0.07197004 -0.058075935 -0.06853713 -0.039216828
0.03131988 0.04094801 0.09684437 -0.06591161 -0.031424694 -0.00889738 0.006292911 0.016853813
0.075151734 -0.0644556 0.04787925 0.062059704 -0.023787528 -0.05051304 0.026641337 -0.0026659784
0.047774773 -0.04137483 0.0004089041 -0.064591035 0.060795538 0.0016512447 0.0149755385 -0.026376843
0.02652352 -0.05780037 0.014664822 0.031728283 0.030501127 0.02686321 -0.055704854 0.03250282
0.08757179 -0.009745611 0.04628828 0.07172297 0.04119721 -0.032815497 0.074406594 -0.050237477
-0.071545705 -0.048591852 -0.05090539 -0.017009394 0.020367552 -0.021904334 0.035956487 0.06227851
00000000: 6f57 f43b 509a 2a3c be1a 88bd 94ca 203d
00000010: 8643 a0bb 2792 81bd ad68 b43c 803e 1abd
00000020: 9a26 f6bc d661 e83b c455 4c3d 3461 b03c
00000030: eec5 16bd 36ab 1fbd 71d9 2dbd eb0c 7fbd
00000040: db19 62bd 85b9 263d 67ab 6abd 08f3 263d
00000050: 3c8b 52bb 4425 9bbb e4fc 793d 8283 34bd
00000060: 1441 74bc 0c35 0f3d 7e5b 78bd 67c0 233d
00000070: 3a25 2bbd 0aac 26bd 421e 90bd 85ec 56bd
00000080: a83b 08bc 166a 26bc 0e55 143d a1aa 3d3d
00000090: 2eda cabb b6b9 cf3c 6e90 65bc 1deb 8c3d
000000a0: 3a3b 56bd 7a0c 0f3d 8418 96bd 2805 a4bb
000000b0: f1ee 70bd 33c7 05bd 58cf c53c 19b3 a93c
000000c0: f4f2 433d ac6c 5e3c 5caf 803d b4cf 6b3c
000000d0: d639 823c cc54 8abd 2b9e 24bd 041f d2bc
000000e0: 48ad 513d ae9e 963c 1cf5 8a3d caac 503d
000000f0: 4465 79bd e8b7 8cbb 5a1c c2ba 9f5c 0bbd
00000100: 106d 233d 4879 793d 9605 5abd f938 29bd
00000110: b4cd 49bd 584d 5b3d 4ce4 d13b 0c58 853d
00000120: acab 2abd 8c2c c93c feec 5b3d 645a 4c3b
00000130: 14bc 8b3d de07 87bd 86bc 413d 58bc 04bd
00000140: 7fb8 06bd 09d7 58bd 082b 52bd 3da1 803d
00000150: 3650 7fbd 2a79 713d 2cd8 2abd 310b f6bb
00000160: b10b dcbc f8c1 56bd 39b0 9bbc b4fa 5dbd
00000170: ae40 69bc 27a5 813d 48a4 87bd fe8c 64bd
00000180: bbc1 0f3c 0c7b 033c f3bc 67bd c82b e83c
00000190: b6fa 6e3d e4d3 823d 721e 05bd 42c7 fcbc
000001a0: 5419 043d fbc3 53bd 5f56 03bd 143a 81bc
000001b0: f7b0 2a3c c8b7 393d 8143 84bd 348d 08bd
000001c0: 4ad2 423d b1ea 73bd 84ed ae3c 4a8d 65bc
000001d0: 14e5 a63c ffc5 7cbd 46a2 90bc ec58 ad3c
000001e0: a25e cdba ae0a 753d 983b 6d3d 55b8 23bd
000001f0: 7671 b7bc 6421 4a3d fbeb 8fbd ec76 913d
00000200: 5213 2fba 0d87 68bd db3c 653c fe37 b0bc
00000210: f15e 18bd 97eb b23c 7f07 8bbd 5c67 82bd
00000220: a0de e73c 44eb 943c bf2a 2b3d f629 42bd
00000230: d8eb 3e3d f9f2 923d ae46 26bb 2909 4cbd
00000240: d496 1cbb ce09 913c 9893 0bbd c019 81bd
00000250: 0a35 753d 81fe 8fbd 0004 953c 86f3 753b
00000260: f63a c13c 2767 0b3d c865 173d 83c2 a9bc
00000270: 0a0b 5aba 6260 b53c 5031 d7bc 028a f63c
00000280: f298 4fbd ea69 053d 844a 143c c0f5 8abd
00000290: d63b d0bb 5484 53bd 2275 3b3b d654 b8bb
000002a0: 8309 8c3c 45be 17bd b282 ca3c ee83 573d
000002b0: daa8 37bd 88d1 56bd eb01 e03c a878 9fbc
000002c0: c61f 723d 9afd 203d 52c6 a23b f499 5bbd
000002d0: b42e f8bc 2aa0 f6bc d4ef 26b9 4f48 84bc
000002e0: 84c9 8e3c 96a4 073d a5b0 2bbd 32e3 083d
000002f0: 2eae 193d 0bff d23c 74e4 90bc 72fe 3f3d
00000300: e50a b73d 4c28 03bc 2eb1 e1bc bd13 183d
00000310: 92a9 84bd 9168 abbc 2139 223c 6e22 2cbd
00000320: b44a 7f3d 683e ff3c 34be 59bd 2349 67bd
00000330: 0765 933d 08e1 6dbd 325d 8cbd d3a1 20bd
00000340: 4649 003d 1ab9 273d 5756 c63d abfc 86bd
00000350: 2eb7 00bd 51c6 11bc c334 ce3b 0211 8a3c
00000360: 27e9 993d 4c01 84bd 081d 443d 5132 7e3d
00000370: 10de c2bc c3e6 4ebd ef3e da3c b2b7 2ebb
00000380: 7baf 433d a778 29bd 2e62 d639 4e48 84bd
00000390: be04 793d 946e d83a f65b 753c 4014 d8bc
000003a0: da47 d93c 15c0 6cbd b944 703c 84f5 013d
000003b0: 80dd f93c 3c10 dc3c c62a 64bd ad21 053d
000003c0: d758 b33d 0eac 1fbc c898 3d3d 7ee3 923d
000003d0: 68be 283d 8b69 06bd 7c62 983d d0c5 4dbd
000003e0: 8e86 92bd 4008 47bd 2c82 50bd 4957 8bbc
000003f0: dad9 a63c b870 b3bc 1c47 133d c017 7f3d

net.9.bias f4 [64]
-0.0004490508 0.115388356 -0.07257562 0.058056753 0.038370676 0.06386536 0.030347932 0.063149646
0.068277225 -0.0058603743 0.09172404 0.1290279 0.039511073 0.11012282 0.09296109 0.06116502
-0.016086562 0.042267025 -0.045363754 0.057818662 0.13819039 0.034653537 0.02192108 0.021799853
0.0732484 -0.016698675 -0.0020529716 -0.07691433 0.033537503 -0.05480048 -0.045182332 0.06816761
0.049242944 0.13515908 -0.007027735 0.08734262 0.098710045 0.13574423 0.10885039 0.0633889
-0.042791363 0.0038188267 0.10618406 0.08115249 0.005299294 0.036320437 0.08498511 0.13687973
0.063676246 0.08639822 0.12594168 -0.027465818 -0.01768026 -0.01987184 0.08993395 0.10508583
-0.016964313 0.13791697 0.0050702346 -0.06516917 -0.08999422 0.00045110396 0.12288783 0.028394416
00000000: 946e ebb9 bb50 ec3d 87a2 94bd ebcc 6d3d
00000010: 922a 1d3d d8cb 823d 3a9c f83c 9a54 813d
00000020: eed4 8b3d 6208 c0bb d0d9 bb3d e41f 043e
00000030: 5dd6 213d 1388 e13d 6262 be3d 2c88 7a3d
00000040: f7c7 83bc 3020 2d3d 58cf 39bd 43d3 6c3d
00000050: c881 0d3e def0 0d3d d693 b33c 9b95 b23c
00000060: 4203 963d a9cb 88bc 268b 06bb 4385 9dbd
00000070: 9f5e 093d 7876 60bd 1c11 39bd 769b 8b3d
00000080: f8b2 493d 2467 0a3e ea48 e6bb b0e0 b23d
00000090: 7e28 ca3d 8900 0b3e f4ec de3d 0ad2 813d
000000a0: ff45 2fbd 4845 7a3b 0777 d93d 4733 a63d
000000b0: b3a5 ad3b bdc4 143d ac0c ae3d 332a 0c3e
000000c0: b168 823d 8df1 b03d dbf6 003e ffff e0bc
000000d0: 31d6 90bc 45ca a2bc 4a2f b83d 3d37 d73d
000000e0: bef8 8abc 1b3a 0d3e 3624 a63b 6a77 85bd
000000f0: e44e b8bd 2682 ec39 9dac fb3d 689b e83c

net.12.weight f4 [64, 64, 3]
-0.035181306 0.012959734 0.0646265 0.040455356 -0.043216225 -0.02271958 -0.029681502 -0.051687762
-0.018262409 0.035958003 -0.012391558 -0.030400142 0.07951429 0.032103583 -0.014761122 0.044204146
-0.0040868 -0.057915762 -0.02560573 0.021998271 0.03245984 -0.027576564 -0.029947203 -0.0138217565
0.06115549 0.005522658 0.07070278 0.08116495 0.032468744 0.05946678 0.07502882 -0.039389208
-0.0059598535 0.066461936 0.004180072 -0.05502016 0.021604422 -0.01176651 -0.02870577 0.07796261
0.046624046 -0.056006856 0.061620817 0.03225097 -0.034945264 -0.009874684 -0.07073448 -0.022593865
-0.021923479 -0.07081881 0.048158113 0.08087255 -0.04039979 -0.029853445 -0.006601663 0.02552345
-0.061057005 -0.0026350513 -0.019413423 -0.049012877 0.020240884 0.05886194 0.031302907 0.10115977
0.05888271 0.05144591 0.07689749 0.05228235 -0.068014376 0.052430198 -0.004602776 0.033501416
0.09842206 0.01235324 0.010667907 -0.021793427 -0.060616028 -0.008449862 0.048111077 -0.036831316
0.028440613 0.0383965 -0.0013071299 -0.052189738 0.08735694 -0.0013774327 -0.0067497445 -0.0018064932
-0.018348023 -0.0185653 0.066229224 0.030053295 -0.019963186 0.025255987 -0.06820075 -0.054951064
-0.02794675 0.023843475 -0.016659476 -0.011128102 0.036081694 0.047038857 0.011434477 -0.032935333
0.024130993 -0.026695767 -0.071548514 0.061797768 0.0119123515 0.0010990233 -0.021089697 0.008414572
0.05960688 -0.066616885 0.045894086 0.038256764 -0.0023550536 0.013366732 -0.026787207 -0.023160692
-0.06065048 -0.054326862 0.05300256 0.036644854 -0.022921707 0.061226152 0.071112946 0.05703236
0.03844887 -0.02319114 -0.065396346 0.045866176 -0.00812941 -0.030059412 -0.042345613 -0.032688763
0.049939223 0.05832862 0.03003614 0.007825397 -0.02614287 0.08752867 -0.06824178 -0.0667451
0.059587188 -0.06637234 0.058218844 0.031407416 0.024117477 -0.042946935 0.09635174 -0.017325614
0.06422198 0.009080945 -0.006439812 -0.049538232 0.054285727 -0.006088511 -0.035411563 0.03275268
-0.06890935 0.004351044 -0.0077993637 0.059320673 0.032323882 0.07379904 0.008816088 -0.057737768
-0.036839593 0.07000737 0.03438988 -0.0018143487 -0.010064781 0.0705363 -0.0522466 -0.052253164
0.038077578 -0.066958755 -0.035721734 -0.06560716 0.04181554 0.06742737 0.0074030505 0.0044511403
-0.005481275 -0.05575528 0.030711882 0.046431176 -0.04796823 0.09647532 -0.06568129 0.04075753
-0.0018902777 -0.01031726 -0.041837912 -0.04671574 -0.05339426 -0.0063332766 -0.016544469 -0.017394554
-0.014454112 -0.06982319 -0.0440064 0.03852486 0.05167909 0.05710551 0.009842288 0.04196843
-0.04465287 0.00749744 -0.059910215 -0.006896142 -0.04820219 0.024465654 -0.053131588 -0.04510986
-0.038903926 -0.047298737 0.07179519 0.026540998 -0.0054804105 -0.02740153 0.062070172 0.035543837
-0.06911272 0.04247871 -0.04952027 -0.006541311 0.042685486 0.02205487 0.063078955 -0.048312813
0.07109305 0.053162836 -0.014414691 -0.031793993 -0.058420435 0.009891042 0.034238167 -0.054862764
0.034579284 -0.03921183 0.016321741 0.06428546 0.064298876 -0.0417413 0.020806558 -0.035153426
-0.0704517 0.055797227 0.03883362 -0.055727154 -0.0028064025 -0.07045583 -0.04110292 0.041331515
00000000: 461a 10bd 1055 543c e65a 843d 84b4 253d
00000010: 7f03 31bd 6a1e babc 9f26 f3bc 8cb6 53bd
00000020: 0c9b 95bc b348 133d f605 4bbc b809 f9bc
00000030: 63d8 a23d 0c7f 033d a2d8 71bc 680f 353d
00000040: 90ea 85bb 1439 6dbd 1cc3 d1bc b835 b43c
00000050: 9cf4 043d 3fe8 e1bc d653 f5bc a674 62bc
00000060: 2e7e 7a3d 6af7 b43b 9ecc 903d cf39 a63d
00000070: f2fd 043d 7093 733d b6a8 993d 9456 21bd
00000080: e04a c3bb 321d 883d fcf8 883b d25c 61bd
00000090: c2fb b03c 52c8 40bc 5d28 ebbc dcaa 9f3d
000000a0: dbf8 3e3d 7267 65bd 1c66 7c3d 9819 043d
000000b0: c422 0fbd 6dc9 21bc 3ddd 90bd c516 b9bc
000000c0: de98 b3bc 7409 91bd 7141 453d 82a0 a53d
000000d0: 407a 25bd 368f f4bc c352 d8bb 8e16 d13c
000000e0: e916 7abd d3b0 2cbb e608 9fbc bac1 48bd
000000f0: 36d0 a53c 3819 713d 7a37 003d da2c cf3d
00000100: ff2e 713d f2b8 523d 6e7c 9d3d 0426 563d
00000110: 1f4b 8bbd 0cc1 563d e2d2 96bb c838 093d
00000120: 8191 c93d 3e65 4a3c 72c8 2e3c 2188 b2bc
00000130: 8348 78bd 4a71 0abc 1f10 453d 6fdc 16bd
00000140: 4afc e83c a645 1d3d 0054 abba e8c4 55bd
00000150: 32e8 b23d f98a b4ba f62c ddbb dac7 ecba
00000160: 984e 96bc 4216 98bc 30a3 873d 5432 f63c
00000170: d689 a3bc a5e5 ce3c d6ac 8bbd 5e14 61bd
00000180: 95f0 e4bc 6453 c33c 7479 88bc a552 36bc
00000190: 66ca 133d d1ab 403d ac57 3b3c 33e7 06bd
000001a0: 5cae c53c 15b1 dabc 0788 92bd a81f 7d3d
000001b0: 062c 433c 1a0d 903a 4dc4 acbc 46dd 093c
000001c0: 5826 743d 6f6e 88bd 70fb 3b3d 20b3 1c3d
000001d0: 3e57 1abb 2300 5b3c d870 dbbc 7ebb bdbc
000001e0: a36c 78bd d885 5ebd 3619 593d ea18 163d
000001f0: 4ec6 bbbc 46c8 7a3d aaa3 913d c49a 693d
00000200: 907c 1d3d 58fb bdbc 85ee 85bd 2cde 3b3d
00000210: 3831 05bc 283f f6bc 9872 2dbd a7e4 05bd
00000220: 128d 4c3d fee9 6e3d 5a0e f63c 1836 003c
00000230: 9229 d6bc 3b42 b33d 59c2 8bbd a8b1 88bd
00000240: b211 743d 39ee 87bd e276 6e3d 10a5 003d
00000250: 0492 c53c 20e9 2fbd 1054 c53d 72ee 8dbc
00000260: d086 833d 3ec8 143c 0f05 d3bb 9ae8 4abd
00000270: b65a 5e3d 2282 c7bb b70b 11bd ad27 063d
00000280: 5820 8dbd 3493 8e3b ce91 ffbb 3cfa 723d
00000290: 0c66 043d f323 973d 5a71 103c 707e 6cbd
000002a0: 1de5 16bd 0660 8f3d 67dc 0c3d 71cf edba
000002b0: c0e6 24bc 5675 903d 8800 56bd 6a07 56bd
000002c0: 3cf7 1b3d ac21 89bd f450 12bd 0c5d 86bd
000002d0: c646 2b3d 5c17 8a3d 4a95 f23b dfda 913b
000002e0: 449c b3bb a65f 64bd 7c97 fb3c 9e2e 3e3d
000002f0: 567a 44bd da94 c53d ea83 86bd 5ef1 263d
00000300: 32c3 f7ba ba09 29bc 3b5e 2bbd 0159 3fbd
00000310: f1b3 5abd 6087 cfbb 4488 87bc 067f 8ebc
00000320: f1d0 6cbc 76ff 8ebd 0e40 34bd 3ecc 1d3d
00000330: 74ad 533d 78e7 693d 8c41 213c 17e7 2b3d
00000340: eee5 36bd 16ad f53b 6a64 75bd 08f9 e1bb
00000350: a96f 45bd 326c c83c 82a0 59bd 1ec5 38bd
00000360: b959 1fbd 52bc 41bd 5b09 933d 826c d93c
00000370: 0495 b3bb 2c79 e0bc 4b3d 7e3d 6a96 113d
00000380: f88a 8dbd 28fe 2d3d c4d5 4abd 7e58 d6bb
00000390: fad6 2e3d 6aac b43c 8a2f 813d a8e3 45bd
000003a0: 3c99 913d 46c1 593d 992b 6cbc 6b3a 02bd
000003b0: 444a 6fbd 090e 223c 523d 0c3d c7b7 60bd
000003c0: 02a3 0d3d 959c 20bd 2cb5 853c 18a8 833d
000003d0: 21af 833d edf8 2abd 8472 aa3c 0afd 0fbd
000003e0: fb48 90bd a28b 643d 0010 1f3d 2842 64bd
000003f0: 9feb 37bb 254b 90bd 895b 28bd 3c4b 293d

net.12.bias f4 [64]
0.13785632 -0.005172727 -0.024791848 0.09795939 0.04601791 0.14171067 -0.04898514 0.08393824
0.14225782 0.025192833 0.03850226 0.12445612 -0.022838667 0.011940331 -0.0472052 0.03274811
0.12975995 -0.043525685 0.0016821283 0.042540416 0.13758568 -0.06914807 0.10529783 -0.046705235
0.09705287 0.10481963 0.043657877 0.02322123 0.09440167 0.03638005 -0.0046582934 0.07556427
0.051082887 -0.047293145 0.060385726 0.10703354 -0.0010364116 0.028518157 -0.018252058 0.109622024
0.033043027 0.10266952 0.11075699 -0.04464096 0.14748655 0.07412228 0.05704662 -0.06086082
0.09318605 0.00980381 0.12138661 0.00023382054 0.03622143 0.041853175 0.0018903546 -0.0685331
-0.053141292 -0.035657573 0.06391926 -0.014884092 0.058080982 -0.06550338 -0.004958033 0.017583175
00000000: 352a 0d3e fb7f a9bb 4618 cbbc ef9e c83d
00000010: 477d 3c3d 9a1c 113e a4a4 48bd d0e7 ab3d
00000020: 09ac 113e 3361 ce3c 8cb4 1d3d dae2 fe3d
00000030: 2818 bbbc 61a1 433c 3d5a 41bd e222 063d
00000040: cbdf 043e fd47 32bd dc7a dc3a dc3e 2e3d
00000050: 43e3 0c3e 819d 8dbd 64a6 d73d fd4d 3fbd
00000060: a8c3 c63d adab d63d 9ad2 323d 733a be3c
00000070: aa55 c13d 3f03 153d 99a4 98bb 71c1 9a3d
00000080: 4a3c 513d 75b6 41bd 0657 773d 6734 db3d
00000090: 34d8 87ba e99e e93c 5785 95bc 8381 e03d
000000a0: 2058 073d 6644 d23d 90d4 e23d 70d9 36bd
000000b0: b706 173e 6ccd 973d b7a9 693d 3249 79bd
000000c0: 54d8 be3d 29a0 203c 8b99 f83d b92d 7539
000000d0: ec5c 143d 3c6e 2b3d c6c5 f73a 155b 8cbd
000000e0: afaa 59bd ad0d 12bd 1ae8 823d 68dc 73bc
000000f0: 53e6 6d3d a326 86bd ff76 a2bb 970a 903c

net.15.weight f4 [64, 64, 3]
-0.0014000254 -0.07115367 -0.058419015 0.06273853 0.06399751 0.012998767 0.07155045 -0.00038552278
-0.057056386 0.10444707 -0.032538176 0.01649693 0.06683095 0.065504 0.035207592 0.000116101
0.011386451 0.0123320725 0.036156133 0.011758058 -0.03988151 0.034090415 -0.0041414974 0.016531397
0.01540913 0.025899041 0.043367177 0.04786333 -0.0066175847 0.0037434935 0.013667136 0.068317324
0.050202146 0.06885673 0.027270954 0.008150689 -0.026596801 0.037388794 0.020820946 -0.03380788
0.040336724 0.022632793 -0.016737834 0.040298924 -0.039772794 -0.03180073 -0.048499495 0.069189265
-0.024658775 0.06318459 0.030237813 0.070528924 0.05329659 -0.02045646 -0.030408839 -0.04498248
-0.07179688 0.01463412 0.015509406 -0.011719227 0.09868632 -0.02675473 -0.022049278 -0.019642627
-0.011206474 -0.0055313976 -0.028003698 0.027553268 -0.062025215 0.04057263 0.06622662 0.04451874
0.078616954 0.047523126 0.05737646 -0.02629463 -0.012276903 -0.048846956 0.0015587189 0.05630496
0.026489293 0.08513309 -0.05212958 -0.06628719 0.041505463 -0.033866953 0.0017943651 0.02839725
0.006965691 0.02105062 0.0054540806 0.0048227236 0.033348277 0.068446346 0.030328508 -0.023758579
-0.008272337 -0.070373744 -0.053524025 0.07389355 -0.0267349 -0.0071944306 0.033616696 0.053847827
-0.0029155633 0.10190188 0.009408167 -0.048732333 0.039137997 0.0037415265 -0.062314924 0.012949038
-0.029141165 -0.009342432 0.035239663 0.014836326 -0.059070576 0.07616688 0.047977485 -0.070840046
-0.0022026186 0.008222341 -0.050882466 -0.03972742 -0.014071448 0.04540079 -0.023065725 -0.049884047
-0.057999797 0.0073778047 -0.066763446 -0.051720783 -0.031433582 0.009072479 -0.05302623 0.058753397
-0.015205864 -0.017491039 -0.018681124 0.011795649 -0.047924478 0.040442266 -0.026449725 0.04185588
0.019557606 -0.059535384 0.0027727135 -0.05144768 -0.048527353 0.0021817135 -0.002780962 0.05268448
-0.025889177 -0.046213064 -0.047086067 0.048673943 0.0124165965 -0.058394317 -0.055861287 -0.01410327
0.041080683 0.026007295 0.05678083 -0.02984426 0.055138692 -0.0055166753 -0.008681243 -0.0049323644
0.032259777 -0.0564449 0.0057307268 0.042787313 -0.0072711594 -0.048333906 -0.038670056 -0.016289588
0.056737565 0.08443249 0.012398588 0.047008425 0.06614663 0.01917312 0.0021973313 -0.050418917
-0.06571433 -0.00934072 0.07005318 -0.023299556 -0.050989747 -0.040296853 0.042582344 0.011925831
-0.0032894958 -0.037445836 0.019962486 0.07917738 0.023761906 0.02156572 -0.057927955 0.02570445
0.02659851 0.104204744 0.004902477 0.06551081 -0.0018471834 -0.030153953 -0.04573982 0.034213312
0.057689257 -0.008023452 0.004575299 -0.046389535 0.047883302 0.080739826 0.04447069 -0.032221735
0.09665474 0.0061454214 0.030891128 0.07509497 0.03739532 -0.047163434 -0.042997044 -0.0035290085
0.068888515 0.038441412 -0.064340584 -0.058978446 -0.028829666 0.05842329 -0.01660245 -0.028723044
-0.04242432 0.038089152 -0.0037733677 0.05448134 0.05870931 -0.010289073 -0.047711156 -0.0023394222
0.014521562 0.03799659 0.0202219 0.029340008 -0.038843602 -0.049012445 0.0043763244 0.04354705
-0.028560232 0.0012311052 0.0032459218 0.012527132 -0.03317093 0.0010784806 -0.0076204725 0.020555036
00000000: 0f81 b7ba 04b9 91bd c748 6fbd 0f7d 803d
00000010: 2011 833d c8f8 543c 0b89 923d fe1f cab9
00000020: f5b3 69bd 58e8 d53d c046 05bd 9224 873c
00000030: aade 883d f626 863d d635 103d 407b f338
00000040: 3d8e 3a3c 760c 4a3c 7418 143d dfa4 403c
00000050: cb5a 23bd 64a2 0b3d 66b5 87bb da6c 873c
00000060: 9376 7c3c 3a2a d43c c8a1 313d 570c 443d
00000070: 53d8 d8bb 6655 753b 20ec 5f3c f4e9 8b3d
00000080: c4a0 4d3d c204 8d3d 5667 df3c 788a 053c
00000090: 89e1 d9bc fe24 193d b090 aa3c 227a 0abd
000000a0: 1f38 253d 6868 b93c c81d 89bc 7c10 253d
000000b0: cce8 22bd 7b41 02bd 68a7 46bd 1ab3 8d3d
000000c0: 3301 cabc ec66 813d 4ab5 f73c 7871 903d
000000d0: 864d 5a3d 4e94 a7bc f51b f9bc 8d3f 38bd
000000e0: 3e0a 93bd f3c3 6f3c 2a1b 7e3c 0002 40bc
000000f0: 0e1c ca3d bc2c dbbc b0a0 b4bc 93e9 a0bc
00000100: 5c9b 37bc ba40 b5bb 0368 e5bc 64b7 e13c
00000110: 270e 7ebd 7c2f 263d d2a1 873d 4859 363d
00000120: ed01 a13d 9ca7 423d 9403 6b3d d667 d7bc
00000130: 1025 49bc bf13 48bd ed4d cc3a 08a0 663d
00000140: 1300 d93c 425a ae3d d485 55bd 94c1 87bd
00000150: a201 2a3d 13b8 0abd e730 eb3a 5aa1 e83c
00000160: 7440 e43b 5a72 ac3c 25b8 b23b f007 9e3b
00000170: 3498 083d 992d 8c3d 7e73 f83c 5aa1 c2bc
00000180: b288 07bc 1c20 90bd 023c 5bbd 8055 973d
00000190: 2603 dbbc 42bf ebbb a9b1 093d 8a8f 5c3d
000001a0: 0913 3fbb efb1 d03d b624 1a3c 8e9b 47bd
000001b0: 2a4f 203d 6634 753b ef3d 7fbd 3428 543c
000001c0: 74b9 eebc 0011 19bc 7757 103d 1014 733c
000001d0: fdf3 71bd 62fd 9b3d 0a84 443d 9614 91bd
000001e0: cf59 10bb ffb6 063c 226a 50bd 38b9 22bd
000001f0: ee8b 66bc 2ef6 393d 55f4 bcbc 3753 4cbd
00000200: 3291 6dbd 83c1 f13b 46bb 88bd 2cd9 53bd
00000210: 80c0 00bd bca4 143c 0832 59bd 67a7 703d
00000220: 0422 79bc 5e49 8fbc 2809 99bc 8a42 413c
00000230: 754c 44bd caa6 253d 18ad d8bc 1271 2b3d
00000240: 4637 a03c 60db 73bd 6ab6 353b cdba 52bd
00000250: 9ec4 46bd 14fb 0e3b cd40 36bb aecb 573d
00000260: 8a15 d4bc e949 3dbd 52dd 40bd 545e 473d
00000270: fb6e 4b3c e12e 6fbd cece 64bd 6711 67bc
00000280: 3844 283d 400d d53c 0493 683d f37b f4bc
00000290: 1cd9 613d 3ac5 b4bb c63b 0ebc ac9f a1bb
000002a0: d422 043d c432 67bd d2c8 bb3b c041 2f3d
000002b0: e842 eebb c6f9 45bd 7e64 1ebd be71 85bc
000002c0: a665 683d f1ea ac3d 7223 4b3c e88b 403d
000002d0: e277 873d f210 9d3c 1a01 103b 1184 4ebd
000002e0: 3c95 86bd d209 19bc 0b78 8f3d b6de bebc
000002f0: a0da 50bd 500e 25bd d36a 2e3d 9064 433c
00000300: 9594 57bb ce60 19bd 5e88 a33c c027 a23d
00000310: 54a8 c23c 98aa b03c dd45 6dbd 2492 d23c
00000320: 1ee5 d93c 4c69 d53d f5a4 a03b 882a 863d
00000330: 311d f2ba 6c05 f7bc ad59 3bbd 4223 0c3d
00000340: 924b 6c3d cc74 03bc 64ec 953b f402 3ebd
00000350: 4821 443d ec5a a53d e626 363d f0fa 03bd
00000360: ecf2 c53d 885f c93b 640f fd3c 64cb 993d
00000370: d62b 193d 722e 41bd ab1d 30bd f046 67bb
00000380: 6c15 8d3d be74 1d3d ffc4 83bd 6293 71bd
00000390: 312c ecbc 424d 6f3d dc01 88bc 974c ebbc
000003a0: 20c5 2dbd 5f03 1c3d 9b4a 77bb d327 5f3d
000003b0: 2c79 703d 8093 28bc c66c 43bd fe50 19bb
000003c0: d8eb 6d3c 50a2 1b3d 66a8 a53c 755a f03c
000003d0: 781a 1fbd 46c1 48bd 4567 8f3b 645e 323d
000003e0: 26f7 e9bc 095d a13a 88b9 543b 9a3e 4d3c
000003f0: 3ede 07bd ce5b 8d3a 28b5 f9bb 0963 a83c

net.15.bias f4 [64]
0.06430988 0.1114698 0.06863658 0.10779601 0.13426194 0.08032138 0.092118874 -0.02704365
0.10641558 0.12989715 -0.005085567 0.08288019 0.13854514 0.13377394 0.035877414 0.078424
-0.0836985 -0.048532184 -0.011921272 0.03139535 -0.0056351083 0.01442407 0.015362659 -0.0057045384
0.13371867 0.10998664 0.017000966 0.11405761 0.093513265 -0.010018494 -0.06482602 -0.033489432
-0.012450204 -0.023282245 -0.049622502 0.13665104 -0.0019440353 0.08965877 0.033225324 0.006260566
0.0694691 0.12416651 -0.027378473 -0.01732646 0.08561498 0.104587495 0.11490932 -0.01815372
0.08881881 -0.015969032 0.06869057 0.12961563 -0.004353392 0.03511405 0.051970728 0.044859204
0.03849232 0.13514334 0.067567356 0.036253057 0.10125349 0.06603327 0.07639051 -0.05402696
00000000: e6b4 833d 474a e43d 5691 8c3d 28c4 dc3d
00000010: f67b 093e 897f a43d d2a8 bc3d a58a ddbc
00000020: 69f0 d93d c203 053e d4a4 a6bb 17bd a93d
00000030: c7de 0d3e 09fc 083e 32f4 123d c39c a03d
00000040: 1f6a abbd afc9 46bd 7051 43bc 6998 003d
00000050: b7a6 b8bb ef52 6c3c a9b3 7b3c 23ed babb
00000060: 8ced 083e ad40 e13d 9c45 8b3c 0997 e93d
00000070: e283 bf3d 9c24 24bc 81c3 84bd 372c 09bd
00000080: f1fb 4bbc 68ba bebc f740 4bbd 40ee 0b3e
00000090: 00cf feba 049f b73d 4717 083d 6f25 cd3b
000000a0: d145 8e3d 034b fe3d d248 e0bc 38f0 8dbc
000000b0: e856 af3d f831 d63d 9455 eb3d 1cb7 94bc
000000c0: a3e6 b53d 7dd1 82bc a4ad 8c3d f6b9 043e
000000d0: e6a6 8ebb c0d3 0f3d 42df 543d 49be 373d
000000e0: 1faa 1d3d 0463 0a3e c160 8a3d 167e 143d
000000f0: fd5d cf3d 733c 873d a172 9c3d 604b 5dbd
