model_artifacts/dl_tcn_latest_42800_44300.pt (torch, 378521 bytes, 20 tensors)

net.0.weight f4 [64, 30, 3]
0	0xbde0fa5a	-0.10985251
1	0x3dd46e7c	0.10372636
2	0xbd3c48bd	-0.045967806
3	0xbd9d24ea	-0.076730564
4	0xbd9e88f2	-0.07740964
5	0xbccfc97c	-0.02536463
6	0xbdc31355	-0.09525172
7	0x3cbe190a	0.023205299
8	0xbd2c0acc	-0.042002484
9	0xbd7beae3	-0.061503302
10	0x3d2a4a36	0.04157468
11	0xbc5900ba	-0.013244802
12	0xbbbff39d	-0.0058578984
13	0xbcd9d306	-0.026589882
14	0xbd45b1a1	-0.048265103
15	0xbe05e23a	-0.1307458
16	0xbc96bbd2	-0.018400107
17	0xbd8db78a	-0.06919773
18	0xbd83959c	-0.0642502
19	0x3cb9cc98	0.022680566
20	0x3b0d72ee	0.0021583396
21	0xbc316d9b	-0.010829355
22	0xbd344475	-0.0440106
23	0xbd5883c9	-0.052860055
24	0x3df24790	0.11830056
25	0x3dd4ef35	0.103971876
26	0xbcf5134a	-0.029916424
27	0xbd13b49f	-0.036060926
28	0x3d49784a	0.049186982
29	0xbd8d41be	-0.06897305
30	0xbdf95536	-0.12174456
31	0xbd74796e	-0.059686117
32	0x3d17c04e	0.03704863
33	0x3d1225a1	0.035680417
34	0xbd703343	-0.058642637
35	0x3d23fbda	0.040035106
36	0x3d829874	0.063767344
37	0x3c2c53f6	0.010518065
38	0x3d3204c0	0.04346156
39	0x3d93bbcb	0.07213553
40	0xbdca0411	-0.09864057
41	0xbcae5538	-0.02128087
42	0x3d5b303c	0.053512797
43	0x3d042ab8	0.032267302
44	0xba66ef10	-0.0008809427
45	0xbd950675	-0.07276622
46	0xbd1812fa	-0.037127472
47	0x3dbe3ed9	0.09289331
48	0xbdbe5846	-0.092941806
49	0xbd7e3582	-0.062062748
50	0x3c2e4a6c	0.010637861
51	0xbd496f29	-0.049178276
52	0xbca210ca	-0.019783396
53	0x3dc97157	0.09836071
54	0x3d3f2494	0.046665743
55	0xbdb6a5ae	-0.0891832
56	0x3d611e6e	0.05496066
57	0xbe0fce66	-0.14043579
58	0xbd169a56	-0.03676828
59	0x3da91d0f	0.082574956
60	0x3c7bb01a	0.01536181
61	0xbdcf4da7	-0.10122233
62	0xbcd42e4a	-0.025900979
63	0xbdb19b92	-0.08672251
64	0xbc6952ae	-0.014240904
65	0x3c09496c	0.008379322
66	0xbe168f9a	-0.14703217
67	0xbdc3b5c6	-0.09556155
68	0xbcdd0e1e	-0.02698427
69	0xbc8430a5	-0.016136477
70	0xbc910e0e	-0.017706897
71	0xbdccb3be	-0.099952206
72	0x3db7d186	0.0897551
73	0x3c4f7470	0.012662038
74	0x3d57dc9e	0.05270063
75	0x3cf6e926	0.03014047
76	0xbdab129a	-0.08353157
77	0xbd93213e	-0.07184075
78	0x3ca2f5cd	0.019892598
79	0xbb9b9d04	-0.0047489423
80	0xbd1f02e2	-0.03882111
81	0xbdb64ad7	-0.08900993
82	0xbd024b80	-0.031810284
83	0xbd884dfa	-0.06655498
84	0x3d1ff54b	0.03905229
85	0xba290e3a	-0.00064489583
86	0xbdb3377b	-0.087508164
87	0xbcfe1a9f	-0.031018553
88	0x3cbb0da6	0.022833657
89	0x3c9e504c	0.019325398
90	0x3dc87150	0.09787238
91	0x3c936dd6	0.01799671
92	0x3d9202f5	0.0712947
93	0xbd3f9d72	-0.04678101
94	0x3d6cbce4	0.057797328
95	0x3d5bc136	0.053651057
96	0xbcf7b923	-0.030239647
97	0x3da2cd2d	0.079492904
98	0xbc0d95be	-0.008641658
99	0x3cd8a183	0.026444202
100	0xbd6cbabe	-0.05779528
101	0xbc9e0b94	-0.01929263
102	0x3d425000	0.047439575
103	0xbd25931c	-0.040423498
104	0xbd2499f2	-0.040185876
105	0x3dacff80	0.0844717
106	0x3c085e15	0.008323212
107	0x3d9900e2	0.074708715
108	0x3d9e4942	0.077288166
109	0x3dbc2ad9	0.0918786
110	0xbdcdbe9a	-0.1004612
111	0xbcf5e333	-0.030015564
112	0x3d8fcc73	0.070214175
113	0x3cce2b31	0.02516708
114	0x3df83483	0.12119391
115	0xbcb2305e	-0.021751579
116	0xbdcf45f0	-0.101207614
117	0x3d1ccc17	0.038280573
118	0x3c783d7a	0.015151376
119	0xbd862d31	-0.06551588
120	0xbd8570c0	-0.06515646
121	0xbd6a19a1	-0.057153348
122	0x3c1c6a7a	0.00954687
123	0xbbc02b6f	-0.0058645527
124	0x3d61d56a	0.055135168
125	0xbd30aa40	-0.043131113
126	0x3d5c4760	0.053779006
127	0x3ca66a52	0.02031437
128	0x3d84644f	0.06464445
129	0x3d87c0d1	0.06628574
130	0xbd8fa3ce	-0.07013665
131	0xbcdbbd04	-0.026823528
132	0x3cca9da7	0.024733378
133	0xbd84b198	-0.06479186
134	0xbdc6952a	-0.096964195
135	0xbd74b342	-0.059741266
136	0x3b953d3c	0.004554419
137	0x3b563f0e	0.0032691392
138	0x3da6be71	0.081417926
139	0xbd917f36	-0.07104342
140	0x3d7ea8d0	0.06217271
141	0x3d5c881e	0.05384075
142	0x3c549fe0	0.01297757
143	0x3c80e64e	0.015734818
144	0x3bdf268c	0.006810015
145	0x3d87c3ef	0.06629168
146	0x3ca82464	0.020525165
147	0x3dec151f	0.11527466
148	0x3d99c55d	0.07508347
149	0xbd319fb3	-0.04336519
150	0x3d4135d1	0.047170464
151	0xbd946db7	-0.07247489
152	0x3d6e04ea	0.058110155
153	0xbcfe3c5e	-0.031034645
154	0xbcedcb10	-0.029027492
155	0xbd44dc11	-0.048061434
156	0xbd15f6e0	-0.03661239
157	0xbdb57bc8	-0.088615
158	0x3d27d4ae	0.04097431
159	0xbb559eef	-0.0032595953
160	0xbdcf466d	-0.101208545
161	0x3dab26ed	0.08357034
162	0xbdb78441	-0.08960772
163	0xbdd2afa7	-0.10287409
164	0xbd501c0b	-0.050807994
165	0x3d2e04b1	0.042484943
166	0xbc81386a	-0.01577397
167	0x3d24c532	0.040227123
168	0xbdf1930e	-0.117956266
169	0x3d31a064	0.04336585
170	0xbdcef504	-0.10105327
171	0xbe17bd1f	-0.14818238
172	0xbdc67917	-0.09691065
173	0xbd82c5da	-0.063853934
174	0xbdccd169	-0.10000879
175	0xbd6cc611	-0.05780608
176	0x3ced21b4	0.028946735
177	0xbe033555	-0.12813313
178	0xbd55e380	-0.052218914
179	0xbd83de4c	-0.06438884
180	0x3b56fa61	0.0032803046
181	0x3d97e163	0.07416036
182	0x3d69fe4a	0.057127275
183	0xbd619ac3	-0.055079233
184	0xbdaff3ab	-0.08591398
185	0x3d34119a	0.0439621
186	0xbda53c66	-0.08068161
187	0x3dd3426d	0.10315404
188	0xbcbd73dc	-0.023126535
189	0x3ce828b7	0.028339727
190	0xba8856fa	-0.0010401898
191	0xbcf319a4	-0.029675312
192	0xbe0446f6	-0.12917694
193	0x3da6195f	0.08110308
194	0xbdb44585	-0.08802322
195	0xbe2447bb	-0.16042988
196	0xbc92d014	-0.017921485
197	0x3cf3bdec	0.029753648
198	0xbd945f19	-0.07244701
199	0x3dd57c07	0.10424047
200	0xbdd513eb	-0.1040419
201	0xbd3f2f74	-0.046676114
202	0xbda7c9e0	-0.081928015
203	0x3c85b9b8	0.01632391
204	0xbda5ef65	-0.081023015
205	0x3daa636f	0.08319747
206	0xbd959881	-0.073044784
207	0xbcababae	-0.020955887
208	0x3d9da683	0.07697775
209	0x3ca596fa	0.020213593
210	0xbda53fdb	-0.0806882
211	0xbd3a7807	-0.045524623
212	0x3d98a1c7	0.074527316
213	0xbc78205c	-0.015144434
214	0xbdbc9162	-0.09207417
215	0xbaaee092	-0.0013342074
216	0x3d95403e	0.07287644
217	0xbdc0f52e	-0.09421764
218	0x3ca708f8	0.020390019
219	0x3c2aa33a	0.010414893
220	0x3d04a298	0.032381624
221	0x3d71ea9c	0.05906163
222	0xbdffc57b	-0.12488838
223	0xbdc236f6	-0.09483139
224	0xbdc6616f	-0.09686553
225	0xbd824c37	-0.06362193
226	0x3d292348	0.041293412
227	0x3d4d7c2c	0.050167248
228	0xbdd51f6f	-0.10406386
229	0x3d29feda	0.04150281
230	0xbd5f885d	-0.054573406
231	0x3dc16a68	0.094441235
232	0x3dc3434d	0.09534321
233	0xbc65d1f2	-0.014027106
234	0x3c8fd13c	0.017555825
235	0x3d8778dd	0.0661485
236	0x3d8319f1	0.06401432
237	0xbd213481	-0.039356712
238	0x3d594f28	0.053054005
239	0x3bfa0378	0.007629808
240	0xbc416f58	-0.011806332
241	0x3d80f357	0.062964134
242	0x3d0c71be	0.03428816
243	0x3c914a25	0.01773555
244	0xbdcfa148	-0.10138184
245	0xbcd9e4ba	-0.026598323
246	0xbd15b3d4	-0.03654845
247	0x3dcfe0fb	0.101503335
248	0xbcaeeae6	-0.021352243
249	0x3bc3c762	0.005974696
250	0xbdce091b	-0.100603305
251	0xbd9d5371	-0.07681931
252	0xbd88abc0	-0.06673384
253	0xbd1e03ac	-0.03857772
254	0xbca709bc	-0.020390384
255	0xbd86f60b	-0.06589898

net.0.bias f4 [64]
0	0xbc859c66	-0.016309928
1	0x3e0202ae	0.12696335
2	0x3d996d97	0.07491606
3	0x3e001205	0.12506874
4	0xbd835a08	-0.064136565
5	0xbd489ed6	-0.048979603
6	0xbd443c79	-0.047909234
7	0x3e170c9e	0.14750907
8	0x3c1e0f16	0.009647151
9	0x3ce97938	0.028500184
10	0x3c4ccd8a	0.012500176
11	0x3c849964	0.016186424
12	0x3da82847	0.08210807
13	0x3e119cb3	0.14219932
14	0x3d9e2efc	0.07723805
15	0x3e18278c	0.14858836
16	0x3df104a4	0.11768463
17	0x3e1d5ed6	0.15368208
18	0xbd420be6	-0.04737463
19	0x3d905d85	0.070490874
20	0x3db1dbb9	0.08684487
21	0xba177d14	-0.0005778831
22	0xbb4d219f	-0.0031300557
23	0x3d8c4fdc	0.068511695
24	0xbd4c1ec2	-0.04983402
25	0x3d30a512	0.043126173
26	0x3cab9800	0.020946503
27	0x3db6b4b2	0.08921184
28	0x3d956ca1	0.0729611
29	0x3ceaa675	0.028643826
30	0x3e0f936f	0.14021085
31	0x3d43f260	0.04783857
32	0xbca9d5e8	-0.020731881
33	0x3d59f24b	0.053209584
34	0x3dd5df55	0.10442988
35	0x3d2fc3f2	0.042911477
36	0x3cce8d72	0.02521393
37	0xbd1c4802	-0.03815461
38	0x3d8de675	0.06928722
39	0x3deb49c9	0.11488683
40	0x3db410aa	0.08792241
41	0x3e11a529	0.1422316
42	0xbb54dce0	-0.0032480285
43	0xbd1a580b	-0.03768162
44	0x3d035576	0.032063924
45	0x3deda352	0.116034165
46	0xbba4ba7e	-0.0050271144
47	0xbd80a049	-0.06280572
48	0x3d8e9552	0.06962074
49	0xbd0f58eb	-0.03499691
50	0x3e14fd2c	0.14549702
51	0xbbd022a1	-0.0063517843
52	0x3ca43ece	0.020049479
53	0x3e26051d	0.16212888
54	0x3d9fc5f0	0.078014255
55	0x3d9565ff	0.07294845
56	0x3e09da15	0.13462098
57	0x3df1cfe0	0.11807227
58	0x3dfd0cfb	0.123559915
59	0x3e0f1a06	0.13974771
60	0x3d8b16d9	0.06791467
61	0x3e1cb1c4	0.15302187
62	0x3e04c403	0.12965398
63	0x3d2b0a22	0.04175771

net.3.weight f4 [64, 64, 3]
0	0x3d7a3c12	0.061092444
1	0x3d4dcc1e	0.05024349
2	0x3c367060	0.011135191
3	0x3d9d3da6	0.07677774
4	0xbb6d82a8	-0.0036241207
5	0xbd7ecf73	-0.062209558
6	0x3d87e7a2	0.06635977
7	0xbd3e3e1b	-0.046445947
8	0xbc258f52	-0.010104971
9	0x3d4329c9	0.04764727
10	0xbd749682	-0.059713848
11	0xbcb4bece	-0.022063639
12	0x3d0a834a	0.033816613
13	0xbd82898b	-0.063738905
14	0x3cd4fb68	0.025998786
15	0x3d09b979	0.033624146
16	0x3d6f3a5a	0.058405258
17	0xbce76fc6	-0.02825154
18	0x3d83b22f	0.0643047
19	0x3cf0f4d4	0.029413618
20	0x3c149dcc	0.009070825
21	0x3d135486	0.03596928
22	0x3d3fd26a	0.046831526
23	0x3cf86662	0.030322257
24	0xbbaafaf1	-0.005217903
25	0x3d6acd38	0.057324618
26	0xbb932726	-0.004490751
27	0x3bc30d7b	0.0059525347
28	0xbd74976a	-0.059714712
29	0x3d848db2	0.06472339
30	0x3dedc3c1	0.11609603
31	0x3d07afdc	0.033126697
32	0x3d09dac4	0.033655897
33	0x3dad424b	0.0845991
34	0x3cd88038	0.026428327
35	0x3d4605c4	0.048345342
36	0x3c6c0cc2	0.014407339
37	0x3ca5b932	0.02022991
38	0x3bd27c4c	0.0064235087
39	0x3daf89b6	0.08571188
40	0xbcc47a1e	-0.023984011
41	0x3c986058	0.018600628
42	0x3c598d4d	0.013278318
43	0x3ca82807	0.020526899
44	0xbcdc8dde	-0.026923116
45	0x3d243f20	0.040099263
46	0x3d3088f8	0.043099374
47	0xbd6256e4	-0.055258647
48	0x3d831b79	0.06401724
49	0x3d653544	0.055959
50	0x3ce023b2	0.02736077
51	0x3dddcf29	0.10830528
52	0xbd684b9a	-0.056712724
53	0xbd793693	-0.06084306
54	0x3c411f34	0.011787225
55	0x3d0ef650	0.03490287
56	0x3d5d36e6	0.054007433
57	0xbd046156	-0.03231939
58	0xbc0ac93a	-0.008470828
59	0xbd7ac582	-0.061223514
60	0x3de89cf9	0.11358065
61	0xbd33fd30	-0.04394263
62	0xbcdf26ce	-0.027240183
63	0xbd01b5a8	-0.03166738
64	0x3d51f19e	0.051255815
65	0x3d4a841e	0.049442403
66	0x3d39ff9e	0.04540979
67	0xbd8f1c25	-0.0698779
68	0x3d028004	0.031860366
69	0x3b16fccc	0.0023038862
70	0x3d2de5e4	0.04245557
71	0x3d8ea954	0.069658905
72	0xbb96604e	-0.004589117
73	0xbc232a26	-0.009958779
74	0x3d6e805a	0.058227874
75	0xbbb55aca	-0.0055345045
76	0xbd5315e0	-0.051534534
77	0x3d5fdf1a	0.054656126
78	0xbc3b9a6e	-0.011450393
79	0x3c4da0ca	0.012550542
80	0xbc96c210	-0.018403083
81	0x3db44dd1	0.08803905
82	0xbd3d2565	-0.04617824
83	0xbce729ae	-0.028218117
84	0x3c26f11b	0.01018932
85	0xbcf130aa	-0.02944215
86	0xbd8a4ef7	-0.067533426
87	0x3dab5583	0.083659194
88	0xbd8184df	-0.06324171
89	0xbd01ad40	-0.031659365
90	0x3da74409	0.081672736
91	0xbc7e934a	-0.015538046
92	0x3d1934a6	0.037403725
93	0xbcb78d68	-0.022406295
94	0x3d3d54b0	0.046223342
95	0xbbd91f23	-0.0066260262
96	0x3afc4eb2	0.0019249527
97	0xbc73c7b8	-0.01487916
98	0x3d163d80	0.036679745
99	0x3ca95101	0.020668508
100	0xbcf4127a	-0.029793967
101	0xbd3c80c0	-0.046021223
102	0xbc466604	-0.012109283
103	0x3d825c9e	0.063653216
104	0xbd071663	-0.032980334
105	0x3daf919c	0.08572695
106	0xbd2e93e4	-0.04262151
107	0x3cae94ea	0.021311242
108	0x3d8ecd11	0.06972707
109	0xbbcc0654	-0.0062263403
110	0xbd89cc73	-0.06728449
111	0xbc0637c1	-0.008192004
112	0x3d759266	0.05995407
113	0xbd25c61c	-0.040472135
114	0x39b6f1ae	0.0003489381
115	0x3cdc500a	0.026893634
116	0x3d8a0a32	0.06740226
117	0x3cad9a7e	0.021191832
118	0xbc939b7c	-0.018018477
119	0xbc87b422	-0.016565386
120	0x3dc98b99	0.09841079
121	0x3d0e9574	0.0348105
122	0x3ccc45e8	0.024935678
123	0x3dbf124f	0.09329664
124	0x3c9ddcbc	0.019270293
125	0x3d2d2028	0.042266995
126	0x3d83bc9c	0.06432459
127	0xbcec2658	-0.028826877
128	0x3d8cc96b	0.06874355
129	0xbc62bdad	-0.013839168
130	0x3c930bfe	0.017950054
131	0x3d191fe3	0.037383925
132	0x3c83e9a1	0.016102614
133	0x3cdabc0c	0.026700996
134	0x3d8ea328	0.06964713
135	0x3cc4e94c	0.024037026
136	0xbd2179fa	-0.039422967
137	0xbd561249	-0.05226353
138	0xbc9f8c3d	-0.01947605
139	0xbcefcce9	-0.029272513
140	0x3d43bf9f	0.047790166
141	0x3c9cb291	0.019128116
142	0x3d2da1f2	0.04239077
143	0xbc1e7840	-0.0096722245
144	0x3db43199	0.087985225
145	0xbd0bd269	-0.03413621
146	0x3cdf1313	0.027230775
147	0x3d64da7e	0.055872433
148	0xbd781a0e	-0.060571723
149	0x3d8a3022	0.06747462
150	0x3ceb98ac	0.028759323
151	0xbd2ae46e	-0.041721754
152	0xbb6ce421	-0.0036146718
153	0x3d53cbcb	0.051708024
154	0xbd7f2b6a	-0.062297262
155	0x3d8ffb78	0.07030386
156	0x3dca3c11	0.09874738
157	0xbd0814a6	-0.033222817
158	0xbd4cd036	-0.050003253
159	0x3dcc8478	0.09986204
160	0xbcd7d1d4	-0.026345171
161	0xbcb55f0e	-0.022140052
162	0xbce27bd0	-0.027646929
163	0x3c5d0df6	0.013492098
164	0x3d2f0280	0.042726994
165	0x3db178d8	0.08665627
166	0xbd077949	-0.03307465
167	0x3c5358fa	0.012899632
168	0x3da62852	0.08113159
169	0x3d3c6668	0.0459961
170	0xbd371554	-0.044698074
171	0xbc62c97d	-0.013841984
172	0xbc1e9fc4	-0.009681646
173	0x3c328776	0.010896554
174	0x3d3b7f82	0.045775898
175	0xbd0fb9da	-0.03508935
176	0x3d7263e6	0.0591773
177	0x3d591206	0.052995704
178	0xbcb7b1a0	-0.022423565
179	0x3c1546b4	0.009111095
180	0x3deaf4e2	0.11472489
181	0xbd11795e	-0.035516135
182	0xbd88a766	-0.06672554
183	0x3c0228f1	0.0079443315
184	0xbd749c5d	-0.059719432
185	0x3c94b618	0.018153235
186	0x3d813819	0.06309528
187	0x3cb5ccca	0.022192378
188	0x3d8fa52c	0.07013926
189	0xbc23f352	-0.010006743
190	0xbd0f6e3b	-0.035017233
191	0x38ccc326	9.763827e-05
192	0xbcf40aa6	-0.029790234
193	0xba25c7ee	-0.00063240423
194	0x3d03dfa4	0.032195702
195	0x3c7aca04	0.015306953
196	0xbcc5df4c	-0.024154328
197	0xbb7f8030	-0.0038986318
198	0xbcfd0c44	-0.030889638
199	0xbd802498	-0.0625698
200	0x3d2fccf9	0.042920087
201	0xbd0ad4b7	-0.033894267
202	0xbd92d097	-0.071686916
203	0xbb88dc2c	-0.004176637
204	0xbcd95260	-0.026528537
205	0x3c59594a	0.013265917
206	0x3c2c28c6	0.010507768
207	0x3d2c1b4c	0.04201822
208	0x3d85b8b8	0.06529373
209	0xbd80fa08	-0.0629769
210	0xbb096e95	-0.0020970453
211	0x3d893220	0.06699014
212	0x3a83e96a	0.001006407
213	0xbcf3ca7f	-0.029759644
214	0xbd3c191e	-0.04592239
215	0xbcaa6638	-0.020800695
216	0x3d873aa2	0.0660298
217	0xbc17ef98	-0.009273432
218	0x3cfb150a	0.03064968
219	0x3d64d417	0.055866327
220	0xbb4c2924	-0.0031152451
221	0x3d7d8e78	0.061903447
222	0x3d92a17f	0.07159709
223	0xbd408ee7	-0.047011282
224	0x3d653a4c	0.0559638
225	0xbc0cb5e1	-0.008588285
226	0xbd83bd1d	-0.06432555
227	0xbd29b073	-0.04142804
228	0xbd39791e	-0.045281522
229	0xbc66483e	-0.01405531
230	0xbc54707a	-0.01296627
231	0xbc4de3ed	-0.012566549
232	0xbc9d00e2	-0.01916546
233	0x3d6d9878	0.058006734
234	0x3c92bb9c	0.017911725
235	0xbd5917ab	-0.053001087
236	0xbd671bee	-0.05642312
237	0xbccc33c5	-0.02492703
238	0xbc93193c	-0.017956369
239	0xbce7df46	-0.028304707
240	0x3da029c2	0.07820465
241	0x3c0a909a	0.008457327
242	0xbc9fb284	-0.019494303
243	0xbc354b2b	-0.011065285
244	0x3c20418e	0.009781254
245	0x3d39aa58	0.045328468
246	0xbb121e97	-0.0022296065
247	0x3d67e784	0.056617275
248	0x3d6d19e4	0.05788602
249	0x3da053f2	0.07828511
250	0x3d33b950	0.0438779
251	0xbd665ffe	-0.05624389
252	0x3d407dc4	0.04699494
253	0xbb6a397c	-0.003573983
254	0x3c880b02	0.016606811
255	0x3d33af63	0.043868434

net.3.bias f4 [64]
0	0xbc2f45ce	-0.010697795
1	0x3d123ba9	0.035701428
2	0x3c133cd1	0.008986668
3	0x3de4880f	0.111587636
4	0x3df04355	0.117315926
5	0x3d5bfa17	0.0537053
6	0x3e021eca	0.12707058
7	0x3cf5728b	0.029961845
8	0x3d786aca	0.060648717
9	0x3d3ed3d9	0.046588752
10	0x3ae4af68	0.0017447295
11	0xbbba5c77	-0.005687292
12	0x3cf5c210	0.029999763
13	0x3d00269e	0.03128683
14	0xbd19bf2c	-0.03753583
15	0x3df1f959	0.118151374
16	0xbcbffba6	-0.023435425
17	0xbaef7b1f	-0.0018270946
18	0x3c96dae6	0.018414926
19	0x3dad1fd1	0.08453334
20	0x3c8973bd	0.016778821
21	0x3dc40d51	0.095728524
22	0xbd888448	-0.06665856
23	0x3d7c7811	0.06163794
24	0x3dbf4c95	0.09340779
25	0x3b146ecf	0.0022649055
26	0x3d898aaa	0.06715901
27	0xbc91c7de	-0.0177955
28	0x3d15c94b	0.03656892
29	0x3d9ac3e5	0.07556895
30	0x3e01b3c1	0.12666227
31	0xbd97112f	-0.073763244
32	0x3d2e1148	0.04249695
33	0x3dcf492e	0.1012138
34	0x3dc4664e	0.095898256
35	0x3d4ab7df	0.04949176
36	0x3e0076b8	0.12545288
37	0x3ba15b71	0.0049242307
38	0x3d601337	0.054705825
39	0x3d929c71	0.07158745
40	0xb746b952	-1.1844868e-05
41	0x3d2d7fae	0.042358093
42	0x3d99b998	0.07506102
43	0x3dc851d5	0.09781233
44	0x3e012d9c	0.12615055
45	0x3d09ac46	0.03361156
46	0x3cdca58c	0.026934408
47	0x3da8fed6	0.08251731
48	0xbc603906	-0.01368547
49	0xbd02df3d	-0.031951178
50	0x3de9e2b7	0.114201955
51	0x3d555fa5	0.052093167
52	0x3cf1d73d	0.029521579
53	0x3db4a8b6	0.088212416
54	0x3db50866	0.088394925
55	0x3b5da7ea	0.0033822008
56	0x3dfb8742	0.12281658
57	0x3dcfd652	0.101483
58	0x3db50abd	0.08839939
59	0x3b87c8ed	0.0041438253
60	0x3de0e3b7	0.10980933
61	0x3da6c233	0.08142509
62	0x3c582b24	0.013193879
63	0x3d5147a9	0.05109373

net.6.weight f4 [64, 64, 3]
0	0x3cdbec5f	0.026846109
1	0xbd224469	-0.039616022
2	0x3d870796	0.06593244
3	0xbcf9a2ad	-0.030473078
4	0x3d6d21a8	0.057893425
5	0x3cfeafd6	0.031089704
6	0x3d4e8d07	0.050427463
7	0x3d2ef6f4	0.04271598
8	0x3d51ef6c	0.05125372
9	0x3db5242f	0.08844792
10	0x3d47ff9e	0.04882776
11	0xbd53f654	-0.05174859
12	0x3de0304b	0.10946711
13	0x3d800358	0.06250638
14	0xb7f070f4	-2.8662827e-05
15	0xbd3ef405	-0.046619434
16	0xbd936c1d	-0.07198355
17	0xbd300418	-0.042972654
18	0x3d53f139	0.05174372
19	0x3c62dbde	0.013846366
20	0x3c0a9a2a	0.008459607
21	0x3d0276ac	0.031851456
22	0xbced347c	-0.02895569
23	0xbd05f630	-0.032705486
24	0x3dac91ca	0.084262446
25	0xbd0a4fac	-0.033767387
26	0xbd8efabf	-0.0698142
27	0x3d7285a1	0.05920947
28	0x3d831278	0.06400007
29	0x3c723672	0.014783489
30	0x3d8dffcd	0.06933556
31	0xbbd8ee1c	-0.0066201817
32	0xbb025964	-0.0019889707
33	0x3c2f764e	0.010709358
34	0x3d7679c8	0.060174733
35	0x3c8a2caa	0.016867
36	0x3dcc134f	0.0996462
37	0xbd4e4765	-0.050361056
38	0x3d26813c	0.04065059
39	0x3d6c37cf	0.05767041
40	0xbc499d91	-0.012305633
41	0xbd150ce1	-0.036389235
42	0x3d4d7f0a	0.050169982
43	0xbc406fb8	-0.011745386
44	0xbc609980	-0.013708472
45	0xbbc8226a	-0.006107618
46	0x3cce6d63	0.025198644
47	0xbcd1a2e2	-0.025590364
48	0x3bbe8345	0.0058139884
49	0x3d1e440c	0.038639113
50	0x3d92907c	0.071564645
51	0xbb91b6fc	-0.0044468623
52	0xbc44c03a	-0.012008721
53	0x3d8d8826	0.06910734
54	0x3d04f621	0.03246129
55	0xbd0cf93d	-0.03441738
56	0x3d35fba3	0.044429433
57	0x3d4e3bcb	0.05034999
58	0x3cc3a72a	0.023883421
59	0xbcb79cf5	-0.02241371
60	0x3d88419e	0.066531405
61	0x3d769d74	0.060208753
62	0xbd6572b2	-0.056017585
63	0x3d22fef1	0.039793912
64	0xbcabf92a	-0.020992834
65	0x3d060780	0.032721996
66	0xbd40408b	-0.046936553
67	0x3d19a2d8	0.037508816
68	0x3d292842	0.04129816
69	0x3d2cdb2b	0.042201202
70	0xbd0bac42	-0.034099825
71	0x3cf67bf0	0.030088395
72	0x3d4c4e04	0.04987909
73	0x3bb7c4d6	0.0056081815
74	0x3d6f0422	0.05835355
75	0x3d217dea	0.03942672
76	0xbcd230ea	-0.02565809
77	0xbd54d1e7	-0.05195799
78	0x3c3fb266	0.011700248
79	0x3c64e124	0.013969693
80	0xbd3a2b75	-0.0454516
81	0x3d7203b3	0.05908556
82	0xbcb0710e	-0.021538284
83	0xbc877da4	-0.016539402
84	0xbac16523	-0.0014754873
85	0xbc32c13a	-0.010910327
86	0xbd89d99f	-0.06730961
87	0x3dacf5a2	0.08445288
88	0xbceb2927	-0.028706146
89	0x3cecbda5	0.028899023
90	0x3db5a9bd	0.08870266
91	0xbcbb472a	-0.022861082
92	0xbcc8344e	-0.024439003
93	0x3d771563	0.06032313
94	0xbd563f35	-0.052306373
95	0x3d1873b4	0.037219718
96	0x3dd80296	0.10547368
97	0xbcccd336	-0.025003057
98	0x3d8e1410	0.0693742
99	0xbc75154d	-0.014958692
100	0xbd48ea0a	-0.049051322
101	0x3d8bd9dc	0.06828663
102	0x3d7d3e2c	0.06182687
103	0xbd37eb1b	-0.04490195
104	0xbd243ca6	-0.0400969
105	0xbcbd55e9	-0.023112254
106	0xbd5826cc	-0.052771375
107	0xbd8cd38f	-0.06876289
108	0x3dc0a918	0.09407252
109	0x3d7fac14	0.062419966
110	0x3d78448e	0.060612254
111	0x3dbe91ce	0.09305154
112	0xbcac881c	-0.021060996
113	0x3d187b88	0.037227184
114	0xbd0f95cc	-0.035054967
115	0x392ee6d2	0.0001667992
116	0x3cbc2845	0.02296842
117	0x3ce7a441	0.028276565
118	0x3d67c78c	0.056586787
119	0x3bfb9f7e	0.007678925
120	0xbd2a017c	-0.04150532
121	0xbc437f48	-0.011932202
122	0xbcc937ac	-0.02456268
123	0xbcd25378	-0.025674567
124	0x3bb2957e	0.0054499498
125	0xbc36a680	-0.011148095
126	0xbb04b385	-0.0020248604
127	0xbd918de9	-0.07107145
128	0x3d162888	0.036659747
129	0x3c68e49b	0.01421466
130	0xbcc40458	-0.023927853
131	0x3d1427ac	0.036170647
132	0x3da32e45	0.079678096
133	0xbcb7f80a	-0.022457141
134	0x3cccd0a9	0.02500184
135	0x3dd03789	0.101668425
136	0x3c748121	0.014923365
137	0x3d8633fc	0.06552884
138	0x3d8f8d4a	0.070093706
139	0x3b0c06e8	0.002136642
140	0x3b3b4b42	0.0028578793
141	0x3da1b0dc	0.078950614
142	0xbcdc7a58	-0.026913807
143	0xbd104b16	-0.035227858
144	0xbb228bde	-0.0024802606
145	0xbd1e5c35	-0.038662154
146	0x3d87b95c	0.06627151
147	0xbd035203	-0.032060634
148	0xbd476a5a	-0.04868541
149	0x3d7e161e	0.06203281
150	0x3dd81fb1	0.1055292
151	0x3d221838	0.039573878
152	0x3ca35ce2	0.01994175
153	0x3d185806	0.03719332
154	0x3cf1e4da	0.02952807
155	0xbd4c991a	-0.049950697
156	0x3c57400b	0.013137828
157	0x3d2d1f8e	0.04226642
158	0xbd1b250c	-0.037877128
159	0x3d0cfa8b	0.034418624
160	0xbc7560e6	-0.014976716
161	0xbc92bda0	-0.017912686
162	0x3bd4a097	0.0064888704
163	0xbd7584f4	-0.059941247
164	0xbd05100a	-0.032486
165	0x3dc79060	0.09744334
166	0x3b82d244	0.003992351
167	0x3cb5f2a5	0.022210428
168	0x3dcde19d	0.10052798
169	0xbcb52396	-0.022111695
170	0xbd0a7e5b	-0.03381191
171	0x3d59f3c0	0.053210974
172	0xbd20be0d	-0.039243747
173	0xb8c7dd32	-9.53026e-05
174	0x3dc59ef0	0.096494555
175	0x3d8758aa	0.06608708
176	0x3d92cb44	0.07167676
177	0xbcddcb36	-0.027074438
178	0xbd4ef882	-0.050529964
179	0xbcd29ae4	-0.025708623
180	0x3cdda9d8	0.027058527
181	0x3d887d80	0.06664562
182	0xbb115fe6	-0.0022182404
183	0x3d3a793b	0.04552577
184	0x3d876ce8	0.06612569
185	0xbd7a54d2	-0.061116047
186	0x3dc2d314	0.09512916
187	0xbd5bf3ea	-0.05369941
188	0xbd03a28a	-0.03213743
189	0x3d895c48	0.067070544
190	0xbd90375a	-0.070418075
191	0xbd66b8c6	-0.056328557
192	0x3d035cdb	0.032070976
193	0x3c64fd30	0.01397638
194	0xbc8823b0	-0.01661858
195	0xbd483594	-0.04887922
196	0xbc74d32a	-0.014942924
197	0x3b7b26de	0.0038322727
198	0x3d5b09da	0.053476192
199	0xbcc91f80	-0.024551153
200	0xbd0752d2	-0.033037968
201	0xbb122e9e	-0.0022305618
202	0x3babc716	0.0052422388
203	0x3d1439dc	0.03618799
204	0xbca05a5d	-0.019574339
205	0xbb523efc	-0.0032080999
206	0xbc944064	-0.01809711
207	0x3da3c3f2	0.07996358
208	0xbcf592ae	-0.029977169
209	0x3ba35b72	0.0049852664
210	0x3d0ac797	0.03388175
211	0xbd438cd0	-0.04774171
212	0x3c190953	0.009340602
213	0xbd02768b	-0.031851333
214	0x3d505060	0.0508579
215	0xbbacf3ec	-0.005278101
216	0x3d92f818	0.071762264
217	0xbce9e411	-0.028551133
218	0xbd0db720	-0.03459847
219	0x3d505cb8	0.050869673
220	0x3d4d24f6	0.050084077
221	0x3d5ddc8c	0.054165408
222	0x3d8e602d	0.06951938
223	0x3c4d979a	0.012548352
224	0x3d27740e	0.040882163
225	0xbd274953	-0.04084141
226	0x3d06e982	0.032937534
227	0x3d20872a	0.039191402
228	0x3cc6e715	0.02428011
229	0x3d82924c	0.0637556
230	0x3bc2a4c0	0.00594005
231	0xbafe84d2	-0.0019418246
232	0xbd476a58	-0.0486854
233	0x3ca0dca8	0.019636467
234	0xbc356042	-0.011070313
235	0x3cc33834	0.02383051
236	0x3cdb03f4	0.026735283
237	0xbd203a2d	-0.03911798
238	0x3bb9b0fc	0.00566685
239	0x3bcf4ea0	0.0063265115
240	0x3c9da479	0.019243466
241	0x3c3e0f66	0.011600351
242	0x3c451582	0.012029054
243	0x3cf19f8d	0.029495025
244	0x3cac2516	0.021013778
245	0x3adc0298	0.0016785441
246	0x3c6fdf7c	0.014640685
247	0x3d6c8b76	0.057750188
248	0x3ce57432	0.028009508
249	0xbcffc8d0	-0.031223685
250	0xbcec6e56	-0.028861206
251	0x3d88c5f4	0.066783816
252	0x3d9d80fa	0.07690616
253	0x3d49de40	0.04928422
254	0x3d84cb68	0.06484109
255	0x3b972b0a	0.004613285

net.6.bias f4 [64]
0	0x3da88615	0.08228699
1	0x3d414d67	0.047192957
2	0x3de35621	0.11100412
3	0xbb70c26b	-0.0036736976
4	0x3dbf29aa	0.09334119
5	0x3e0335df	0.12813519
6	0x3df83632	0.12119712
7	0x3d07de73	0.03317113
8	0xbdafb622	-0.08579661
9	0x3bf62066	0.0075111864
10	0x3b1559fb	0.0022789228
11	0x3dcccc7a	0.09999938
12	0x3d310811	0.043220583
13	0xb963c2ca	-0.00021720972
14	0x3d696645	0.056982297
15	0x3dc24e39	0.09487576
16	0x3c0b3237	0.008495859
17	0x3d946cea	0.07247336
18	0x3d88a94f	0.06672918
19	0x3c8c4ac7	0.0171255
20	0x3d3f404d	0.04669218
21	0xbcccf733	-0.025020218
22	0xbcac584c	-0.021038197
23	0xbd62602b	-0.055267494
24	0x3dbd8fcf	0.09255945
25	0x3cfbd56c	0.030741416
26	0x3bfb055e	0.007660552
27	0x3d00b820	0.031425595
28	0x3d996157	0.07489269
29	0xbd66288f	-0.056191023
30	0xbc451cd0	-0.012030795
31	0x3c72652f	0.014794632
32	0x3d3f39da	0.04668603
33	0x3de6a159	0.112612434
34	0x3db917a0	0.09037709
35	0xbdaf9dd2	-0.08575024
36	0x3da10d46	0.0786386
37	0xbbdc7a29	-0.00672843
38	0xbd6c6733	-0.057715606
39	0xbb5fe08a	-0.0034160935
40	0x3ce5f855	0.028072516
41	0x3c998555	0.018740335
42	0x3d84a0b1	0.06475962
43	0x3d314a47	0.043283727
44	0x3d86a752	0.065748826
45	0x3a7805da	0.0009461321
46	0xbd80e79c	-0.06294176
47	0xbbcb318e	-0.0062009757
48	0x3da64d33	0.08120193
49	0x3d95b127	0.0730918
50	0x3df5038b	0.119635664
51	0x3e080821	0.13284351
52	0xbc905414	-0.017618217
53	0xbd1f26db	-0.038855415
54	0x3d95c3a3	0.07312705
55	0xbda4f5ff	-0.080547325
56	0x3d3981c0	0.045289755
57	0x3d1d28dd	0.03836905
58	0x3cc1ce82	0.02365804
59	0xb9061126	-0.00012785624
60	0x3d803db3	0.06261768
61	0x3dbddd7a	0.09270759
62	0x3cd7a79d	0.026325041
63	0xbd7d0c7b	-0.06177948

net.9.weight f4 [64, 64, 3]
0	0x3d3c41e8	0.04596129
1	0xbd498207	-0.04919627
2	0xbcfd3b2e	-0.030912008
3	0x3bbe2858	0.005803149
4	0x3cb587c2	0.022159461
5	0xbd433485	-0.04765751
6	0x3d41eed9	0.047346924
7	0xbd2149e0	-0.039377093
8	0x3d5e04e8	0.054203898
9	0x3bf5c504	0.0075002927
10	0xbc9184b5	-0.017763475
11	0x3d8c1db2	0.068416014
12	0x3d504b1f	0.05085289
13	0xbd7689e9	-0.060190115
14	0x3cfa7388	0.030572668
15	0xbcb1f20d	-0.021721864
16	0x3d8da380	0.06915951
17	0x3cfb4226	0.03067119
18	0xbc356ade	-0.011072842
19	0xbd8712ec	-0.06595406
20	0xbd809c47	-0.062798075
21	0xbd115698	-0.035482973
22	0xbba893ca	-0.005144571
23	0x3d083cc1	0.033261064
24	0x3d5db8f3	0.05413146
25	0xbd5e1bc8	-0.054225713
26	0x3c8ccf2f	0.017188637
27	0xbb8f7bca	-0.0043787705
28	0x3d053534	0.03252144
29	0x3d5ff842	0.054680116
30	0x3dd29bf2	0.102836505
31	0xbd6dbd86	-0.05804207
32	0xbd89c808	-0.06727606
33	0xbcc62a3b	-0.024190059
34	0xbd59506d	-0.053055216
35	0xbd8c6b60	-0.06856418
36	0x3c54a1e5	0.012978052
37	0x3bf2b5db	0.007406933
38	0xbd925ce7	-0.07146626
39	0xbd35023f	-0.044191595
40	0xbd8a9353	-0.06766381
41	0x3d0e5683	0.034750473
42	0x3d8967c1	0.067092426
43	0xbd8197da	-0.063277915
44	0xbd34814e	-0.044068627
45	0x3d986e4f	0.07442915
46	0xbb7b2d9e	-0.003832675
47	0x3c8db796	0.017299455
48	0x3ce5e7d2	0.028064642
49	0x3cd8ca9c	0.0264638
50	0xbc6d5e28	-0.014487781
51	0x3d48e096	0.049042307
52	0xbbef437e	-0.007301747
53	0xbc933742	-0.017970685
54	0x3d9b2aba	0.07576509
55	0x3c9f2f3b	0.0194317
56	0x3d59dc56	0.053188644
57	0xbd063396	-0.03276404
58	0x3d015b20	0.031581044
59	0xbce1a42c	-0.027544104
60	0xbc77ccae	-0.015124483
61	0x3d63bff6	0.05560299
62	0xbcf5a390	-0.02998522
63	0x39b6f5aa	0.0003489678
64	0xb9bd4468	-0.00036099856
65	0x3d161243	0.03663851
66	0x3d88871f	0.06666397
67	0xbd0a914f	-0.033829983
68	0xbc88980e	-0.016674068
69	0x3d851205	0.064975776
70	0x3bded85c	0.0068006944
71	0x3c5d83fd	0.013520238
72	0x3ce1f579	0.02758287
73	0x3c36fd20	0.011168748
74	0x3d1dfc9e	0.038570993
75	0x3d0136fb	0.031546574
76	0xbd908193	-0.07055964
77	0x3c8eaa94	0.017415322
78	0x3cbc4215	0.02298073
79	0x3d00fba4	0.031489983
80	0xbc5e64bc	-0.013573822
81	0xbcc73745	-0.024318347
82	0x3d87f190	0.06637871
83	0xbd8dbd93	-0.06920924
84	0x3d7b36f7	0.061331715
85	0xbc780b1a	-0.015139366
86	0xbd61524e	-0.055010132
87	0xbbaddcfc	-0.0053058844
88	0xbd2b2c25	-0.041790146
89	0x3cef9e9a	0.029250432
90	0x3cdc269c	0.02687388
91	0x3d91e74e	0.07124196
92	0xbd8811ab	-0.06643995
93	0x3d290055	0.041260082
94	0xbbeb1ec5	-0.007175299
95	0x3cec221a	0.028824855
96	0x3cf5f035	0.030021766
97	0xbd87cd4c	-0.06630954
98	0x3d606316	0.054781996
99	0x3ba3d45b	0.00499968
100	0x3d90bcb4	0.07067242
101	0x3d1aa750	0.037757218
102	0x3dc6b5f6	0.09702675
103	0xbd83847d	-0.064217545
104	0x3d6d0ddc	0.057874545
105	0x3d2a03ac	0.041507408
106	0x3d5207ca	0.05127696
107	0xbcca0c22	-0.024663989
108	0x3ba44726	0.0050133644
109	0xbd4778d9	-0.048699234
110	0xbadda58a	-0.0016910296
111	0xbc9e924d	-0.019356871
112	0x3d4e286e	0.050331526
113	0x3d478884	0.048714176
114	0x3d2458d0	0.04012376
115	0xbd67a16b	-0.056550425
116	0x3d376fc7	0.044784334
117	0x3d28554d	0.041096974
118	0xbd532c1c	-0.051555738
119	0x3d0422b6	0.032259665
120	0x3d2ae23d	0.041719664
121	0x3ce70ec0	0.028205276
122	0x3d17a2c2	0.037020452
123	0xbcd6d0e1	-0.026222648
124	0xbd5a5d1f	-0.053311463
125	0x3cdc4e76	0.026892882
126	0x3c513aac	0.012770336
127	0xbd3b1b62	-0.04568041
128	0xbd607b8a	-0.054805316
129	0x3dc39385	0.095496215
130	0xbc600b82	-0.013674619
131	0xbcbfc7c0	-0.023410678
132	0x3d6eec59	0.058330867
133	0xbd1de9c9	-0.038553033
134	0x3ac0f35a	0.0014720962
135	0xbcce080f	-0.025150327
136	0xbd6e8e50	-0.05824119
137	0xbd61ba4c	-0.055109307
138	0xbcece831	-0.028919311
139	0xbd795306	-0.060870193
140	0xbc789a46	-0.0151735
141	0x3d99ae54	0.075039536
142	0x3d321b48	0.04348305
143	0xbd26c5bb	-0.040715914
144	0xbc205526	-0.009785926
145	0x3cd36bde	0.025808271
146	0xbd21fae1	-0.039545897
147	0x3d85e4e5	0.06537799
148	0x3d612338	0.054965228
149	0xbd3a43e0	-0.045474887
150	0xbc3a4e59	-0.011371219
151	0x3c0b1552	0.00848897
152	0x3c997356	0.018731754
153	0xbcd25ae3	-0.025678104
154	0xbcf89060	-0.03034228
155	0xbd88b195	-0.06674496
156	0xbd48e76a	-0.04904882
157	0x3c8a3d3e	0.016874906
158	0x3c32e9df	0.010920017
159	0x3c21aece	0.009868337
160	0xbc9ede78	-0.01939319
161	0x3d5580fa	0.052124955
162	0x3cf32ed8	0.029685423
163	0x3d7aae86	0.061201595
164	0xbc061550	-0.008183792
165	0xbcffe51a	-0.031237174
166	0xbd002f93	-0.03129537
167	0xbafe810a	-0.0019417119
168	0x3c3ff1d4	0.011715371
169	0x3d59441a	0.053043462
170	0x3c8c064c	0.017092846
171	0xbc5e63a5	-0.013573562
172	0xbd7674eb	-0.060170095
173	0x3d58fe9a	0.052977182
174	0xbd3bfff5	-0.045898397
175	0x3d5c13f5	0.05372997
176	0xbd138596	-0.03601607
177	0xbc90faf3	-0.017697787
178	0x3ca2cdfa	0.019873608
179	0x3d090592	0.033452578
180	0x3d39dcc0	0.04537654
181	0x3d0a69e0	0.033792377
182	0xbd8a73e4	-0.06760386
183	0x3d1da1db	0.038484436
184	0xbc6a7404	-0.014309887
185	0x3d177fb7	0.036987033
186	0x3d91a8f3	0.07112303
187	0xbb171252	-0.0023051691
188	0x3d313204	0.04326059
189	0x3d9cb017	0.07650774
190	0x3d83c6f4	0.06434432
191	0x3d065d86	0.032804035
192	0x3d3d20a8	0.04617372
193	0xbc16e2aa	-0.009209314
194	0xbd576bff	-0.052593227
195	0xbcb1a936	-0.021687131
196	0xbc877db2	-0.016539428
197	0x3d0f6ce2	0.035015948
198	0x3dcf57fb	0.10124203
199	0xbd0f3779	-0.034965012
200	0x3d844c50	0.06459868
201	0x3bd0ed70	0.006375961
202	0xbba0e6fc	-0.004910348
203	0x3d4495d6	0.047994457
204	0x3db228df	0.08699202
205	0x3d88d0c6	0.066804454
206	0x3c747ef4	0.014922846
207	0x3d5d5b16	0.054041944
208	0xbd1dc53d	-0.03851818
209	0xbd82772e	-0.06370388
210	0x3d8aa5e9	0.06769926
211	0xbd48a224	-0.048982754
212	0x3aa97bba	0.001293055
213	0x3d6ad6ab	0.05733363
214	0xbd6134d3	-0.054982018
215	0x3d0bb792	0.034110613
216	0xbd3af88c	-0.04564719
217	0x3d02bec4	0.03192021
218	0xbd8d0b4d	-0.06886921
219	0xbd3fda82	-0.046839245
220	0x3c3699c8	0.011145063
221	0xbd07d80b	-0.03316502
222	0xbcd7f127	-0.026360108
223	0xbd8bc439	-0.06824536
224	0x3d17b40e	0.037036948
225	0x3dc00e37	0.09377711
226	0xbce0afc7	-0.027427567
227	0xbd31588e	-0.043297343
228	0x3d978386	0.07398133
229	0x3cfc70ac	0.030815445
230	0xbd0767f5	-0.033058126
231	0x3da757d5	0.081710495
232	0x3d09177a	0.033469655
233	0xbd4d5225	-0.050127167
234	0x3dbb1065	0.091339864
235	0x3d25bcac	0.040463135
236	0x3d2ce3d0	0.042209446
237	0xbce1f7ef	-0.027584044
238	0x3c3552aa	0.011067072
239	0xbb8b666c	-0.004254153
240	0x3da936aa	0.082623795
241	0x3d46ba35	0.048517425
242	0xbd8d9bfe	-0.06914519
243	0x3d4e9fe5	0.050445456
244	0xbd868110	-0.065675855
245	0x3c5358e2	0.012899609
246	0xbc6a9aac	-0.014319103
247	0xbd90abba	-0.07064004
248	0x3d8e7ba0	0.06957173
249	0x3c83f46d	0.016107762
250	0x3d802b18	0.062582195
251	0x3c9b0610	0.01892379
252	0x3d0052c8	0.031328946
253	0xbbef8bee	-0.007310382
254	0xbcbae93c	-0.022816293
255	0x3da4e63c	0.08051726

net.9.bias f4 [64]
0	0x3de5b805	0.112167396
1	0x3e0411bb	0.12897389
2	0x3bfe47ce	0.0077600246
3	0x3dfd84b8	0.1237883
4	0x3de1dcae	0.110284194
5	0xbd7dd29a	-0.061968423
6	0x3c5d6c9e	0.013514666
7	0x3de4f78c	0.11180028
8	0x3ca7b247	0.020470751
9	0x3d379138	0.044816226
10	0x3dd3c3b4	0.10340062
11	0x3cf08bff	0.02936363
12	0x3cb261f9	0.021775233
13	0xbce2b66f	-0.027674882
14	0x3de94e47	0.11391883
15	0x3dbbdcbc	0.09172961
16	0x3da84ff9	0.082183786
17	0x3d0a8889	0.033821616
18	0xbc6f76f8	-0.014615767
19	0x3df9cbb0	0.121970534
20	0x3d053979	0.032525513
21	0x3dc69fa3	0.09698417
22	0x3c9b5a7d	0.018964047
23	0x3e09de65	0.13463743
24	0x3cc34832	0.023838136
25	0x3d13b4ef	0.036061224
26	0xbb473932	-0.0030399081
27	0x3de3d61b	0.11124822
28	0x3d967888	0.07347208
29	0xbc5c89e6	-0.013460612
30	0xbbd78feb	-0.0065784357
31	0x3dd8ff66	0.105955884
32	0x3df9c9ec	0.12196717
33	0x3db1a9cb	0.086749636
34	0x3d65b625	0.05608191
35	0x3da020df	0.0781877
36	0x3c7a4646	0.015275544
37	0xbd9d257f	-0.076731674
38	0xbdaacb9b	-0.08339616
39	0xbd8b7691	-0.06809724
40	0xbc3c0c86	-0.011477595
41	0x3e0667db	0.13125555
42	0xbc3cd470	-0.011525258
43	0xbd23a0a1	-0.03994811
44	0x3dfbe1a5	0.12298898
45	0x3bd94755	0.006630818
46	0xbc8d8530	-0.017275423
47	0x3d151a48	0.036402017
48	0x3d85cae0	0.06532836
49	0x3e0388e2	0.12845185
50	0x3d5ff33f	0.054675337
51	0x3dede909	0.116167136
52	0x3d8bf187	0.06833177
53	0x3df1db20	0.11809373
54	0x3e0b844c	0.13624686
55	0xbc878f0b	-0.0165477
56	0xbd1f8ddb	-0.038953643
57	0x3d079f56	0.03311094
58	0x3dba06d3	0.09083333
59	0x3d7594b2	0.05995626
60	0x3e08a975	0.13345893
61	0xbd99a71c	-0.07502577
62	0xbd932530	-0.07184827
63	0x3c52333c	0.012829598

net.12.weight f4 [64, 64, 3]
0	0xbc5378af	-0.012907191
1	0xbc2a9d8c	-0.010413539
2	0xbd4c5bc0	-0.049892187
3	0x3dd4251a	0.10358639
4	0x3d504b52	0.05085308
5	0xbd1f5bbe	-0.03890585
6	0xbc078e70	-0.008273706
7	0xbba318e2	-0.0049773315
8	0x3c67cc38	0.014147811
9	0x3db5f8fa	0.08885379
10	0xbd6fbfd5	-0.058532555
11	0x3c4cb1a0	0.012493521
12	0xbc1c6ce8	-0.00954745
13	0xbd4bea88	-0.049784213
14	0x3d036c56	0.03208574
15	0x3d406d93	0.046979498
16	0xbd2ceac7	-0.04221609
17	0xbcdf138a	-0.027230997
18	0x3d693400	0.056934357
19	0xbc1ac1f4	-0.009445656
20	0xbc226fe2	-0.00991437
21	0x3d1ba175	0.037995774
22	0x3cd2ffe8	0.025756791
23	0x3d4731c6	0.048631452
24	0xbc2e7a29	-0.010649242
25	0x3d890d0a	0.0669194
26	0x3bb2358e	0.005438513
27	0x3d8e98cb	0.06962737
28	0xbb03ed6a	-0.0020130523
29	0xbd210864	-0.039314643
30	0x3dbb8499	0.0915615
31	0xbd7db172	-0.061936803
32	0x3b2afe80	0.0026091635
33	0xbc71918f	-0.0147441765
34	0x3c97d4a0	0.018534005
35	0x3d2e5d8f	0.042569693
36	0x3cba3459	0.02273004
37	0x3c0224a9	0.007943311
38	0xbae6bd82	-0.0017604085
39	0xbd5366a3	-0.051611554
40	0x3ccb4eeb	0.024817904
41	0x3c57d9c4	0.013174478
42	0x3cf2a205	0.029618273
43	0xba66cc29	-0.0008804226
44	0xbcd4ea86	-0.025990736
45	0x3d8a7c6e	0.06762014
46	0x3d49764a	0.049185075
47	0xbd6a57a4	-0.057212487
48	0xbc23cb8b	-0.009997259
49	0xbc8dbb70	-0.017301291
50	0x3c690e9e	0.014224676
51	0x3da89d86	0.0823317
52	0x3c1388ee	0.009004815
53	0xbd55b682	-0.052176006
54	0xbd179c1b	-0.03701411
55	0xbd7eb340	-0.062182665
56	0x3d7c30a4	0.061569825
57	0x3ccd5d08	0.025068775
58	0x3c9aad54	0.018881477
59	0xbb0d8d0e	-0.0021598968
60	0x3dafae0d	0.085781194
61	0x3aba4edc	0.0014214176
62	0xbb7eca0a	-0.003887775
63	0x395b1cb0	0.00020896154
64	0xbb28a3ba	-0.0025732354
65	0x3bb06a38	0.005383756
66	0x3cd43ea8	0.025908783
67	0x3c7e68ba	0.015527898
68	0x3d814854	0.063126236
69	0x3d4324ee	0.04764264
70	0x3d06f082	0.03294421
71	0xbd33d280	-0.04390192
72	0x3d36cde8	0.04462996
73	0x3c88f248	0.016717091
74	0xbced2e26	-0.02895267
75	0xbc512828	-0.012765922
76	0x3d8f7e7a	0.07006545
77	0x3cfb9c2a	0.030714113
78	0x3d825d9e	0.06365512
79	0xbb66f8b0	-0.0035243444
80	0x3cbf20b1	0.023331018
81	0x3d59b455	0.053150494
82	0x3b9706e2	0.004608975
83	0xbcd48f9a	-0.02594738
84	0x3ddef798	0.108870685
85	0xbd409d6e	-0.047025137
86	0x3cc992f4	0.024606206
87	0x3ce05077	0.027382119
88	0xbd0f65ce	-0.035009198
89	0x3c5ad038	0.013355307
90	0x3d735571	0.059407655
91	0xbd00e4d2	-0.03146822
92	0x3d3b26a0	0.045691133
93	0xba17673d	-0.00057755766
94	0x3d82265a	0.06354971
95	0x3d540a5c	0.051767692
96	0x3cf3bf21	0.029754223
97	0xbbfd9a65	-0.0077393525
98	0xbc8c68f4	-0.01713989
99	0x3a9bbcee	0.0011881867
100	0xbd6446f2	-0.05573172
101	0xbc2ae9a0	-0.010431677
102	0x3d78afa6	0.060714386
103	0xbc0d98c6	-0.008642381
104	0x3ccabdc2	0.024748687
105	0xba8ff749	-0.0010983731
106	0x3d4ea360	0.050448775
107	0x3d12dff9	0.03585813
108	0x3d994861	0.07484508
109	0x3caf8a66	0.021428298
110	0xbd1fba1a	-0.03899584
111	0x3d24f48b	0.040272277
112	0x3ca6e014	0.02037052
113	0x3d4bc774	0.04975076
114	0x3d574800	0.0525589
115	0xbd6453e2	-0.05574406
116	0x3c7b0e46	0.015323227
117	0xbb7943e9	-0.0038034862
118	0xbd7188c1	-0.05896831
119	0xbd06b69d	-0.032888997
120	0x3c969edd	0.018386299
121	0x3c68421a	0.014175916
122	0x3d11b2de	0.03557097
123	0x3a2e3a53	0.0006646264
124	0x3d10ef10	0.035384238
125	0xbd2d499c	-0.042306527
126	0x3d647d2a	0.05578343
127	0xbcd64fc4	-0.026161082
128	0x3d061e70	0.03274387
129	0x3d934a50	0.07191908
130	0xbc90cfe8	-0.017677262
131	0xbd3aeffc	-0.045639023
132	0x3d231d13	0.03982265
133	0xbd3bc5d9	-0.04584298
134	0x3c8614ec	0.016367398
135	0xbcee271e	-0.029071387
136	0x3be1f322	0.006895439
137	0x3c59710a	0.0132715795
138	0xbd7c360a	-0.061574973
139	0xbc8df3d6	-0.017328184
140	0x3c314711	0.010820166
141	0x3da02d09	0.0782109
142	0x3d7c1fea	0.061553873
143	0x3d251e16	0.040311895
144	0x3c1c955e	0.009557096
145	0x3d931886	0.07182412
146	0xbc2dd948	-0.010610886
147	0x3d3d055a	0.04614768
148	0x3c21cad4	0.009875018
149	0xbce8f1d2	-0.028435621
150	0x3d54e359	0.051974628
151	0x3d77deaa	0.060515083
152	0xbc800f9c	-0.015632443
153	0x3da7b3e3	0.081886075
154	0x3aaa89a0	0.0013010986
155	0xbc2b9dce	-0.010474635
156	0x3d96e9a7	0.073687844
157	0xbbf4b866	-0.007468271
158	0x3d847f8e	0.064696416
159	0x3d307bb5	0.043086726
160	0x3d8c0160	0.068362
161	0x3d903ac6	0.0704246
162	0x3dd853bd	0.10562847
163	0xbd3edb0c	-0.046595618
164	0xbd3179d6	-0.043329082
165	0x3d95d405	0.0731583
166	0x3d0945b8	0.033513755
167	0x3d3d67ac	0.046241447
168	0x3d6594a0	0.056049943
169	0x3c43c375	0.011948456
170	0xbd4877d0	-0.048942387
171	0xbcc9a9be	-0.024617072
172	0xbd238b7b	-0.03992794
173	0xbc8717ec	-0.016490899
174	0x3da9dd29	0.08294136
175	0xbd7b39c1	-0.061334375
176	0xbd289b18	-0.041163534
177	0xbc4a7b71	-0.012358532
178	0xbab18520	-0.0013543703
179	0x3d8779ca	0.06615026
180	0xbbf443c8	-0.007454369
181	0x3d64c284	0.055849567
182	0x3b0e8414	0.0021746205
183	0x3c32192e	0.010870261
184	0xbd8746a4	-0.066052705
185	0x3d7dcbfa	0.061962105
186	0xbd5af83c	-0.05345939
187	0x3d242148	0.040070802
188	0xbc632a2e	-0.013865037
189	0x3bc4b065	0.006002473
190	0xbd2c6a2a	-0.042093433
191	0xbd348d06	-0.044079803
192	0x3dbda770	0.09260452
193	0x3cd1f3ac	0.025628887
194	0x3cc35b84	0.023847349
195	0x3c3a0fde	0.011356322
196	0x3d435c8e	0.04769569
197	0xbd6d1523	-0.057881486
198	0x3b8f1225	0.0043661767
199	0x3d542494	0.051792696
200	0x3d5efb74	0.054439023
201	0x3cae010a	0.02124073
202	0x3d2567b0	0.040382087
203	0x3d2f584c	0.042808816
204	0x3de08189	0.10962207
205	0xbd1e9eb2	-0.038725562
206	0x3cdd03a6	0.026979279
207	0x3bce8ac6	0.006303164
208	0xbd5c351a	-0.05376158
209	0xbd5de730	-0.054175556
210	0x3da4d80d	0.08049021
211	0xbcfc6d00	-0.030813694
212	0x3cc0b034	0.02352152
213	0x3bda2c95	0.0066581466
214	0xbd08f508	-0.033436805
215	0x3d371374	0.044696286
216	0xbd237760	-0.039908767
217	0x3d51bf80	0.05120802
218	0xbd12ff4c	-0.035888
219	0x3ccb0215	0.024781266
220	0x3d510782	0.05103255
221	0x3c954c30	0.018224806
222	0xb9ae9ec5	-0.0003330616
223	0xbcea388a	-0.028591413
224	0x3c3721a0	0.01117745
225	0x3d9b5132	0.07583846
226	0x3c5d6dc5	0.013514941
227	0x3d54c9d2	0.051950283
228	0x3acdcf0d	0.0015701965
229	0x3d70baf4	0.058772042
230	0xbc5f3b05	-0.013624911
231	0x3c63c26c	0.013901334
232	0x3d3a785f	0.04552495
233	0x3c133a3e	0.008986054
234	0xbc62a077	-0.013832203
235	0x3d3c0094	0.04589899
236	0x3c6482ec	0.01394723
237	0x3d3b695a	0.045754768
238	0xbd6346a0	-0.055487275
239	0xbd78c99f	-0.060739156
240	0x3dc95d1c	0.09832212
241	0xbd0b9feb	-0.034088057
242	0xbd4a63d2	-0.049411602
243	0x3c22c219	0.009933972
244	0xbd3e8060	-0.046509147
245	0xbd8cade1	-0.06869102
246	0xbc54fab2	-0.012999224
247	0x3d333f24	0.043761387
248	0xbbb0f6e8	-0.0054005273
249	0x3d686cec	0.0567445
250	0xbd8622ae	-0.065495834
251	0xbd277a20	-0.04088795
252	0x3d63c573	0.055608224
253	0x3d1779d6	0.036981426
254	0x3cc4cb66	0.02402277
255	0x3da4ca5f	0.08046412

net.12.bias f4 [64]
0	0x3e07f2d3	0.13276224
1	0x3d9badc5	0.07601503
2	0x3d9c8ef7	0.07644456
3	0x3db8b260	0.09018397
4	0xbbe22d94	-0.006902406
5	0x3d403305	0.046923656
6	0xbcfb255f	-0.030657468
7	0x3d2975db	0.04137216
8	0x3c8bafdd	0.017051632
9	0x3dd76bab	0.10518583
10	0x3d6add70	0.057340086
11	0x3d5c07c7	0.053718355
12	0xbd5edc65	-0.054409403
13	0x3dbd8b23	0.09255054
14	0xbd6bea12	-0.057596274
15	0x3da400ff	0.080080025
16	0x3dc0746d	0.093972065
17	0xbd83291b	-0.064043246
18	0xbd905c46	-0.0704885
19	0x3d930e6a	0.07180484
20	0xbcb41106	-0.021980774
21	0x3dec7682	0.11546041
22	0xbb4d7cfc	-0.0031355014
23	0x3db68d71	0.089136966
24	0x3e08b2ab	0.13349406
25	0x3d3043bc	0.043033347
26	0x3d31dc51	0.043423
27	0x3d2d1126	0.042252682
28	0x3ce289e6	0.027653646
29	0x3daf0f41	0.08547831
30	0xbca7d134	-0.020485498
31	0xbd68ccd9	-0.056835983
32	0x3a442a97	0.0007483153
33	0xbd1f6934	-0.03891869
34	0x3dd579b6	0.10423605
35	0x3e0d6530	0.13808131
36	0x3df54ae4	0.11977175
37	0x3c7e6e8b	0.015529285
38	0x3dd911af	0.10599076
39	0x3defb169	0.1170376
40	0x3db59367	0.088660054
41	0xbcb3827f	-0.021912811
42	0xbd0a4421	-0.03375638
43	0xbd74df10	-0.05978304
44	0xbd11a142	-0.035554178
45	0x3df1fd44	0.11815885
46	0x3d8ee75c	0.06977722
47	0xbd664de5	-0.05622663
48	0xbd24843c	-0.04016517
49	0x3d1fafce	0.03898602
50	0xbd02dba8	-0.03194776
51	0xbbc2e5ee	-0.00594782
52	0xbd1fe185	-0.03903343
53	0xbbc38d41	-0.0059677665
54	0x3dd1c65e	0.10242914
55	0x3dbba99c	0.0916321
56	0xbd78cb4a	-0.060740747
57	0x3dc4654b	0.095896326
58	0xbd11ad19	-0.03556547
59	0x3de7ce9f	0.11318707
60	0x3cc71d32	0.024305914
61	0x3e05f456	0.13081488
62	0xbb5b838b	-0.0033495154
63	0x3ccfef3e	0.025382634

net.15.weight f4 [64, 64, 3]
0	0xbd8fae50	-0.07015669
1	0xbd17179a	-0.036887743
2	0xbceab650	-0.028651386
3	0x3d78e7eb	0.06076805
4	0x3c833b94	0.01601962
5	0xbd82a7b4	-0.06379643
6	0xbd4a0401	-0.049320225
7	0xbc57a540	-0.013161957
8	0x3d09c127	0.03363147
9	0x3d349a34	0.044092372
10	0x3c1f191e	0.009710578
11	0xbd6ea66f	-0.058264192
12	0xbcc77c70	-0.024351329
13	0x3d89c1f3	0.06726446
14	0x3d63384a	0.055473603
15	0x3d87519f	0.06607365
16	0xbcecfb00	-0.02892828
17	0xbcaf219a	-0.021378327
18	0xbd206174	-0.03915544
19	0x3d8c106e	0.06839071
20	0x3c0e4864	0.008684251
21	0x3cb8ec8d	0.022573734
22	0xbcdb79ca	-0.026791472
23	0x3d148327	0.03625789
24	0xbd88a185	-0.066714324
25	0x3d3e4e3c	0.04646133
26	0x3d500548	0.050786287
27	0xbda0face	-0.07860337
28	0xbbaab9e0	-0.0052101463
29	0x3d2d6c96	0.042339884
30	0xbc0885e0	-0.0083327
31	0xbd0f646f	-0.03500789
32	0xbd80b6fc	-0.062849015
33	0xbd42ed52	-0.047589608
34	0xbc14c30c	-0.009079706
35	0x3d15c0c0	0.036560774
36	0x3d58f068	0.052963644
37	0x3d5b5840	0.05355096
38	0x3cba01b0	0.022705883
39	0xbc329625	-0.010900055
40	0x3c44e3ae	0.012017174
41	0x3d88f746	0.06687789
42	0xbd870f27	-0.06594687
43	0x3c7c588c	0.015401971
44	0xbc64566c	-0.01393662
45	0xbc58b949	-0.013227769
46	0x3cc32140	0.023819566
47	0x3c4413a6	0.011967575
48	0x3ce0b833	0.027431583
49	0xbd916604	-0.07099536
50	0xbc561058	-0.01306542
51	0xbc99ecf0	-0.018789738
52	0xbba15a0c	-0.0049240645
53	0xbd054bb1	-0.032542888
54	0x3d17fe6e	0.037107877
55	0x3c82fd40	0.0159899
56	0x3d8eaeea	0.06966956
57	0xbd91b98c	-0.071154684
58	0xbccef8e2	-0.025265161
59	0xbd1e0e0f	-0.038587626
60	0xbcc80103	-0.024414545
61	0x3d2a9d64	0.041654006
62	0xbd28f2ee	-0.0412473
63	0xbd27c1e5	-0.040956397
64	0x3d849efe	0.06475638
65	0xbd390226	-0.045168065
66	0x3caab284	0.020837076
67	0x3c104552	0.00880559
68	0xbd815bf8	-0.0631637
69	0xbcab95bc	-0.020945422
70	0x3d9076ae	0.07053886
71	0x3c4261a8	0.011864103
72	0xbd5aa238	-0.05337736
73	0x3d043526	0.03227725
74	0xbd77f3b0	-0.060535133
75	0xbd2f2c17	-0.042766657
76	0xbbea8eec	-0.007158151
77	0xbcdd6c75	-0.027029255
78	0x3d18e3c4	0.03732659
79	0x3cba274c	0.022723816
80	0xbc6c387e	-0.014417766
81	0xbc8ad9bb	-0.016949525
82	0xbd84cb73	-0.06484117
83	0xbc885ef9	-0.016646849
84	0xbc15eb18	-0.009150289
85	0xbd2a0b18	-0.041514486
86	0xbc881598	-0.01661186
87	0xbd83f11c	-0.06442472
88	0x3d6de748	0.058081895
89	0xbd677735	-0.05651017
90	0x3bde937c	0.006792484
91	0x3ccbcf94	0.024879254
92	0xba986198	-0.0011625765
93	0x3d8723bc	0.06598613
94	0xbc7e8d9a	-0.01553669
95	0x3c5b7038	0.013393454
96	0xbd933dca	-0.0718952
97	0xbd8976d6	-0.06712119
98	0x3d55e9af	0.05222481
99	0xbd742644	-0.059606805
100	0x3b97ce28	0.00463273
101	0x3cf67570	0.030085295
102	0xbd989b2a	-0.0745147
103	0xbb4f34f0	-0.0031617247
104	0xbd847730	-0.06468046
105	0xbd8be248	-0.06830269
106	0x3d88edee	0.066860065
107	0xbd3606f5	-0.04444023
108	0x3d57f8bf	0.052727457
109	0xbd0c3769	-0.03423253
110	0x3d88cf54	0.0668017
111	0xbc832186	-0.016007196
112	0xbd63483c	-0.05548881
113	0xbcdedd6e	-0.027205195
114	0xbd9fb776	-0.07798664
115	0x3cdcd21e	0.02695566
116	0xbd0851b6	-0.03328105
117	0x3caf2578	0.021380171
118	0xbd61675e	-0.05503022
119	0xbc95fc88	-0.018308893
120	0xbc639508	-0.013890512
121	0xbacd528a	-0.0015664857
122	0x3d21707c	0.039413914
123	0x3c8d87b2	0.017276619
124	0xbc75049a	-0.01495471
125	0xb97f0545	-0.00024320658
126	0x3d8ae540	0.06782007
127	0xbd050d71	-0.03248352
128	0xbb9bac44	-0.0047507603
129	0xbcf788f2	-0.030216668
130	0xbd8515e4	-0.06498316
131	0x3d68eb6e	0.05686515
132	0x3cb2ef96	0.02184276
133	0x3d037dda	0.032102443
134	0x3d2a95e0	0.04164684
135	0xbd30df36	-0.04318162
136	0x3d5c6962	0.05381144
137	0xbd681443	-0.056659948
138	0xbcdf50d1	-0.027260216
139	0x3b96c082	0.0046005854
140	0xbb701e34	-0.0036639096
141	0xbc83adbf	-0.01607406
142	0x3d53e7ec	0.05173485
143	0x3be4deb4	0.006984556
144	0xbc5f3140	-0.013622582
145	0x3d1805ae	0.03711479
146	0xbd815537	-0.063150816
147	0xbd6d46bf	-0.057928797
148	0x3d82daa2	0.06389357
149	0xbc5a1572	-0.013310777
150	0xbcc9cb76	-0.02463315
151	0xbcc00eee	-0.023444619
152	0xbd55373f	-0.05205464
153	0x3cdcf586	0.026972543
154	0xbbde3dac	-0.006782254
155	0xbd398502	-0.04529286
156	0x3d81ae12	0.063320294
157	0xbd841f26	-0.064512536
158	0x39774c73	0.00023584235
159	0xbda92a59	-0.0826003
160	0x3d3dc650	0.046331704
161	0xbc30be38	-0.010787539
162	0x3d231804	0.039817825
163	0xbd0b1789	-0.03395799
164	0xbcb09074	-0.021553256
165	0x3aea3baf	0.001787057
166	0x3aa1d6bc	0.0012347321
167	0x3d8be2d8	0.068303764
168	0xbc8f1040	-0.017463803
169	0xbd8564c0	-0.06513357
170	0xbd5f3f90	-0.054503977
171	0xbd01490b	-0.0315638
172	0x3d89683e	0.06709336
173	0xbd64c59e	-0.055852525
174	0xbc8165b8	-0.015795574
175	0xbd935ec7	-0.07195812
176	0xbd0b9d01	-0.034085277
177	0xbd95b9b7	-0.07310813
178	0xbc967dfe	-0.018370625
179	0xbd492842	-0.04911066
180	0x3d5a5c53	0.053310703
181	0x3d6bd632	0.05757732
182	0x3d4d9fcc	0.050201222
183	0xbd4ec36d	-0.05047934
184	0xbd8cb87f	-0.06871127
185	0x3d01e57a	0.031712987
186	0x3d3b80c8	0.045777112
187	0xbd3d9846	-0.046287797
188	0x3cb622e4	0.022233434
189	0xbd530e1e	-0.051527135
190	0x3baa7f30	0.00520315
191	0xbce9bb4a	-0.02853169
192	0x3d9ac14d	0.075564004
193	0x3d79c524	0.060979024
194	0xbcc1ec98	-0.023672387
195	0x3c7d7562	0.015469881
196	0xb9385f36	-0.00017583076
197	0x3d4ec4e0	0.050480723
198	0xbd041d4a	-0.032254495
199	0xbceac2e2	-0.02865738
200	0xbd912da3	-0.07088783
201	0xbc28b269	-0.010296443
202	0xbd151b6e	-0.036403112
203	0xbcf4d90a	-0.029888649
204	0xbcb400e6	-0.021973085
205	0x3cb8667a	0.022509802
206	0x3d21ddf0	0.039518297
207	0xbd119507	-0.035542514
208	0x3d0084b8	0.03137657
209	0xbd796e02	-0.060895927
210	0x3c8eb0b9	0.017418252
211	0x3d52ae1a	0.051435567
212	0x3d83b07d	0.06430147
213	0x3d91801f	0.07104515
214	0xbd81bda2	-0.06334998
215	0xbd76b305	-0.06022932
216	0x3d8e51f5	0.06949226
217	0xbc82baf8	-0.015958294
218	0xbce7e4d4	-0.028307356
219	0x3d6d7e81	0.05798197
220	0xbd72d88f	-0.059288558
221	0xbd3d9a64	-0.046289816
222	0x3dba0f37	0.09084933
223	0x3ca1d040	0.019752622
224	0xbd40d972	-0.047082372
225	0x3cdb29ff	0.026753424
226	0x3d49a734	0.049231723
227	0xbcf1fc98	-0.029539391
228	0xba8eb31e	-0.0010887121
229	0x3d442e46	0.047895692
230	0x3d323c98	0.043514818
231	0xbbdde634	-0.006771827
232	0x3d7bb256	0.06144937
233	0xbd7a5e3d	-0.06112503
234	0xbb576e53	-0.0032872155
235	0xbd467af4	-0.0484571
236	0x3c841a5a	0.016125847
237	0xbc14a9aa	-0.009073654
238	0x3be68f60	0.0070361346
239	0x3ca1f878	0.0197718
240	0x3cf1b613	0.029505765
241	0x3d358b5c	0.044322357
242	0xbd5ec6d5	-0.05438884
243	0x3c01dbfe	0.007925985
244	0x3c939dc6	0.018019568
245	0xbc14f7dc	-0.009092297
246	0x3d81d706	0.063398406
247	0xbcd42e70	-0.02590105
248	0x3cb9fc5c	0.022703342
249	0xbd55dca4	-0.052212372
250	0x3d2d722c	0.04234521
251	0x3c1f687e	0.009729503
252	0xbd56cd41	-0.05244184
253	0x3d5d855b	0.054082256
254	0x3d04b930	0.03240317
255	0xbba2ed0b	-0.0049721054
