model_artifacts/dl_tcn_latest_27600_29100.pt (torch, 378521 bytes, 20 tensors)

net.0.weight f4 [64, 30, 3]
0	0xbe0b43d4	-0.13600093
1	0xbd701fe5	-0.058624167
2	0x3dc51a31	0.09624136
3	0xbdbac586	-0.09119706
4	0x3cf69dfc	0.03010463
5	0xbd8c2048	-0.06842095
6	0x3d41e282	0.047335155
7	0x3c8804ac	0.01660379
8	0x3cc3ca3a	0.02390014
9	0xbe0113bc	-0.12605184
10	0x3bcbfd78	0.006225284
11	0x3d05e47e	0.03268861
12	0x3c7a2c91	0.0152694145
13	0x3d6c001a	0.057617284
14	0x3dbf59c9	0.09343297
15	0xbd75cd11	-0.06001002
16	0xbc7e6244	-0.015526358
17	0x3d90f1e1	0.07077385
18	0xbd010bfe	-0.031505577
19	0x3ca9b250	0.020714909
20	0xbd365d43	-0.044522535
21	0xbbcb08a5	-0.006196099
22	0xbdc47a46	-0.09593634
23	0x3d4bc7f2	0.04975123
24	0x3df7e930	0.12105024
25	0x3da7740d	0.08176432
26	0x3db273c3	0.08713486
27	0xbd2b8696	-0.041876398
28	0x3d286d32	0.04111976
29	0xbd8dd0dc	-0.069246024
30	0x3be7340a	0.007055764
31	0x3da0559b	0.07828828
32	0x3d5c683a	0.053810336
33	0x3ddb692b	0.107134186
34	0xbda46f08	-0.0802899
35	0xbd376db7	-0.044782367
36	0xbdb8c5cb	-0.09022101
37	0xbdc80d6c	-0.09768185
38	0x3bbcd920	0.005763188
39	0xbe1233e0	-0.14277601
40	0x3d6e7683	0.05821849
41	0xbc08329c	-0.008312847
42	0x3c27aff6	0.010234823
43	0x3d67e50e	0.056614928
44	0x3b1a1534	0.0023511173
45	0x3d8b84e9	0.0681246
46	0x3d0eaf3a	0.034835078
47	0xbd323ae5	-0.043513197
48	0x3d7d653d	0.061864126
49	0xbcc5aab0	-0.024129242
50	0x38735e80	5.8023725e-05
51	0xbc588d57	-0.013217292
52	0xbd4e76ac	-0.050406143
53	0xbdce1771	-0.10063065
54	0xbd03af45	-0.032149572
55	0xbcf9715c	-0.030449562
56	0xbda5dad4	-0.08098379
57	0xbd1f23b0	-0.038852394
58	0xbcea6640	-0.02861321
59	0x3d67e362	0.056613334
60	0xbd63d6b9	-0.055624697
61	0x3dca7821	0.09886194
62	0xbd2f1a0e	-0.042749457
63	0x3d5c6698	0.05380878
64	0x3da77d85	0.08178238
65	0xbd9e26d3	-0.07722249
66	0xbd9753ed	-0.073890544
67	0xbd34bc95	-0.04412516
68	0x3da75327	0.08170157
69	0xbdc47c03	-0.09593966
70	0xbd5e1115	-0.05421551
71	0xbdaf5d24	-0.08562687
72	0xbce8e858	-0.028431103
73	0x3d38df42	0.04513479
74	0x3d3b8282	0.04577876
75	0x3e0ea9ba	0.13931933
76	0xbd16dd7c	-0.036832318
77	0xbad4b6b0	-0.0016228762
78	0x3d8bdcb8	0.06829208
79	0xbd4b5548	-0.049641877
80	0x3c1f70bc	0.009731468
81	0x3d591e92	0.05300767
82	0xbdbf58e3	-0.09343126
83	0xbd4dfc67	-0.050289538
84	0x3cafb9d8	0.021450922
85	0xbd65784f	-0.05602294
86	0xbda1b425	-0.07895688
87	0x3d2c3593	0.04204328
88	0x3d431b5a	0.047633506
89	0xbab527fc	-0.001382112
90	0x3d612e94	0.05497606
91	0x3d6cc87d	0.057808388
92	0xbd934042	-0.071899906
93	0x3e08bad9	0.13352527
94	0xbd889c3f	-0.066704266
95	0xbdb67ef5	-0.08910934
96	0x3c793c21	0.01521209
97	0x3d745316	0.05964955
98	0x3ce11eac	0.027480446
99	0x3e0b3c3d	0.13597198
100	0x3dbb4c09	0.09145362
101	0x3d50d7ca	0.050987042
102	0xbd932c24	-0.071861535
103	0xbd704c5a	-0.058666565
104	0xbd9ac1eb	-0.07556518
105	0x3df3b82d	0.11900363
106	0x3d45af66	0.048262976
107	0x3d42c546	0.047551416
108	0x3de490d8	0.11160439
109	0x3cf51ed8	0.029921934
110	0xbbbdaf73	-0.0057887374
111	0xbd4fdcf2	-0.05074782
112	0xbcee452a	-0.029085714
113	0xbcc29100	-0.023750782
114	0x3d989719	0.074506946
115	0x3dc940e7	0.09826832
116	0x3d95c7b5	0.07313482
117	0x3dd30e9e	0.103055224
118	0x3db5934f	0.088659875
119	0x3d3d2c0e	0.046184592
120	0xbc66166c	-0.014043432
121	0x3cc7de80	0.024398088
122	0xbda41604	-0.08012012
123	0x3d2a1460	0.041523337
124	0xbc9a16f4	-0.018809773
125	0x3d882717	0.06648081
126	0x3bc4c2d6	0.0060046716
127	0x3cd881b4	0.026429035
128	0x3d9e4db5	0.07729665
129	0xbd1f5b34	-0.038905337
130	0x3db0367d	0.08604143
131	0x3cb36104	0.021896847
132	0x3db216a5	0.08695725
133	0xbdc89d56	-0.097956344
134	0xbdd73153	-0.10507455
135	0x3dcd512f	0.1002525
136	0xbdbfd6ac	-0.09367117
137	0xbca59730	-0.020213693
138	0xbda9040a	-0.082527235
139	0xbdcd1890	-0.100144506
140	0x3dcc38af	0.09971749
141	0x3c7c30b8	0.015392475
142	0x3dd3121b	0.10306188
143	0xbda62fea	-0.08114608
144	0xbd999246	-0.074986026
145	0x3bd4b990	0.0064918473
146	0xbdc34715	-0.09535042
147	0xbd6f2045	-0.058380384
148	0xbca7f4f0	-0.020502537
149	0x3dd4c169	0.103884526
150	0x3d6ca644	0.05777575
151	0xbdbf722e	-0.0934795
152	0x3dadcc21	0.084862
153	0x3daec0dc	0.08532879
154	0x3d4352de	0.04768645
155	0xbca0eb3c	-0.019643418
156	0x3dde0405	0.108406104
157	0x3d8f63e3	0.07001474
158	0x3d12da2a	0.03585259
159	0x3de22862	0.11042859
160	0x3d2f037e	0.04272794
161	0xbd0fcd32	-0.0351078
162	0x3d68c16d	0.05682509
163	0xbdd32297	-0.10309332
164	0x3cc0ded8	0.02354376
165	0x3c1f6d28	0.009730615
166	0xbd01d80a	-0.03170017
167	0xbdd27924	-0.10277012
168	0xbdc4fb91	-0.09618295
169	0xbd44a552	-0.048009224
170	0xbdb9f7c0	-0.09080458
171	0x3c68b9d8	0.014204465
172	0xbd17094c	-0.0368741
173	0xbce7ada8	-0.028281048
174	0x3d78abe8	0.060710818
175	0xbd3cc2d8	-0.046084255
176	0x3da37729	0.07981712
177	0xbd6a924f	-0.057268437
178	0x3c996c88	0.01872851
179	0xbcb1dbf0	-0.02171132
180	0x3ccda0f4	0.025101162
181	0xbbabd104	-0.0052434225
182	0xbd8c51e4	-0.06851557
183	0x3cf8e421	0.030382218
184	0xbd6f87f0	-0.05847925
185	0x3d45fc9e	0.048336618
186	0xbe1af7d6	-0.15133604
187	0xbdc83be8	-0.09777051
188	0x3db29b41	0.087210186
189	0xbd852953	-0.065020226
190	0xbdd305d6	-0.103038475
191	0x3d124a8e	0.035715632
192	0xbe1bd15b	-0.15216582
193	0xbcefb83c	-0.029262654
194	0x3d713a96	0.058893763
195	0xbda6a833	-0.0813755
196	0x3d431992	0.047631808
197	0xbd24c8a8	-0.040230423
198	0xbdc703ad	-0.09717498
199	0x3d69506a	0.056961454
200	0xbd9dcdc8	-0.07705265
201	0x3b1fce9f	0.002438463
202	0xbcda902b	-0.026680073
203	0x3d5547b2	0.052070327
204	0xbd744535	-0.059636313
205	0x3cae33dc	0.021264963
206	0x3d0b706e	0.03404277
207	0x3c08932d	0.008335871
208	0xbd1d3b3e	-0.038386576
209	0xbd067798	-0.032828897
210	0xbd73324d	-0.059374142
211	0x3d4433d2	0.047900982
212	0xbd68d3e0	-0.056842685
213	0xbccd3c4b	-0.025053164
214	0xbb5f321e	-0.0034056972
215	0x3dc9a84f	0.098465554
216	0xbbc022c4	-0.0058635194
217	0xbd17219c	-0.036897287
218	0xbc88e444	-0.016710408
219	0xbc8027c8	-0.01564397
220	0x3d6689ea	0.05628387
221	0xbd67bf42	-0.056578882
222	0x3d76c214	0.06024368
223	0x3d2cd6af	0.042196926
224	0xbdc9cc2c	-0.09853396
225	0x3d1ed0e6	0.03877344
226	0xbc6dc6d0	-0.014512733
227	0x3d89cc97	0.067284755
228	0xbcd3455d	-0.02578991
229	0xbdcc0769	-0.09962351
230	0xbbe390f4	-0.00694477
231	0x3c0a57bd	0.00844377
232	0xbd9a4f26	-0.075346276
233	0xbdd15ff2	-0.10223378
234	0xbdd846b7	-0.10560363
235	0xbdc9f1a7	-0.09860545
236	0x3d5e287a	0.05423782
237	0xbd5d0014	-0.053955153
238	0xbcc6beac	-0.024260841
239	0x3db85741	0.09001017
240	0xbe056f9c	-0.13030857
241	0x3d905ca9	0.070489235
242	0xbc65bb44	-0.014021698
243	0x3d5e4dd3	0.054273438
244	0xbaed5130	-0.0018105861
245	0x3d7b6efa	0.061385132
246	0x3caced07	0.021109117
247	0xbda6f4ec	-0.08152184
248	0xbd0b4694	-0.034002855
249	0xbded7363	-0.11594274
250	0xbd515d9c	-0.051114663
251	0xbce685bc	-0.028139941
252	0xbcccc7f1	-0.024997683
253	0xbdc4070e	-0.09571658
254	0x3cabf2f8	0.02098988
255	0x3c011dcc	0.007880639

net.0.bias f4 [64]
0	0xbd5b448d	-0.053532172
1	0xbd57f193	-0.052720618
2	0x3bdb4cc3	0.0066925003
3	0x3deb6940	0.11494684
4	0xbc9a0f4e	-0.018806126
5	0x3d810c2c	0.0630115
6	0x3ddad02f	0.10684239
7	0x3de1d05d	0.1102607
8	0x3e17c087	0.14819537
9	0x3c78dfcc	0.015190076
10	0x3dc5eb05	0.09663967
11	0x3ddab8b9	0.10679764
12	0x3cc2adf4	0.023764588
13	0x3dcddaca	0.10051496
14	0x3df5c151	0.11999763
15	0x3dd4db0d	0.10393343
16	0xbbaf3a5f	-0.0053475345
17	0x3d001289	0.031267677
18	0x3cbb9749	0.022899287
19	0x3db9d0f0	0.09073055
20	0x3d70e568	0.05881253
21	0x3e036def	0.12834905
22	0xbcb40905	-0.021976957
23	0xbd8ac026	-0.06774931
24	0xbc9179cd	-0.017758274
25	0x3dcd5036	0.10025065
26	0x3da6a190	0.08136284
27	0x3d9fcf96	0.07803266
28	0x3ca6cb06	0.020360481
29	0x3b1c3ce2	0.002384
30	0x3dbbf7cf	0.09178125
31	0x3dcf94c9	0.101358004
32	0xbd665d0f	-0.05624109
33	0x3da46e14	0.08028808
34	0x3dc59b7c	0.09648797
35	0x3d647293	0.05577333
36	0x3c9a076a	0.018802363
37	0x3dd4434d	0.10364399
38	0xbd12cec0	-0.035841703
39	0x3e056ef7	0.13030611
40	0xbcc79761	-0.024364175
41	0x3deb340a	0.11484535
42	0xbc94d3f2	-0.01816747
43	0x3d395593	0.045247626
44	0x3dda41f0	0.10657108
45	0x3c9e8b49	0.019353526
46	0xbcbb1cd5	-0.022840897
47	0xbd833e7b	-0.064084016
48	0x3d6b2b9b	0.057414632
49	0xbd093542	-0.033498056
50	0x3c93e76a	0.018054683
51	0x3e073336	0.13203129
52	0x3d15c1b0	0.036561668
53	0x3d84b826	0.06480436
54	0x3dcb7a5a	0.09935446
55	0xbd88acbe	-0.06673573
56	0x3dd5e24a	0.10443552
57	0x3e0011e8	0.1250683
58	0x3de2f564	0.11081961
59	0xbd62c8c2	-0.05536724
60	0x3ca7cd62	0.020483676
61	0xbdac3034	-0.084076315
62	0xbcbec9c9	-0.023289578
63	0x3d3ae513	0.04562862

net.3.weight f4 [64, 64, 3]
0	0x3daec058	0.085327804
1	0xbd2665af	-0.040624317
2	0xbbfb2014	-0.007663736
3	0x3d1897f3	0.037254285
4	0xbd2160ec	-0.039399073
5	0x3d899496	0.06717794
6	0x3df3a685	0.118969955
7	0x3d113640	0.035452127
8	0xbcbc1e66	-0.022963714
9	0xbcbda7ba	-0.023151267
10	0xbba2cc8c	-0.0049682315
11	0xbd20a014	-0.039215162
12	0x3dd8a171	0.105776675
13	0xbd88c22e	-0.06677662
14	0x3b72fb9a	0.0037076236
15	0xbb0e9c0b	-0.002176049
16	0xbd6cad95	-0.05778273
17	0x3d1f5152	0.038895912
18	0x3d9586fc	0.07301137
19	0xbcaee24a	-0.021348137
20	0x3d1fe7c8	0.039039403
21	0x3c49e1f0	0.012321934
22	0xbcb2f3f7	-0.021844847
23	0xbd91beee	-0.07116495
24	0x3dcccc8b	0.09999951
25	0xbd7ee09c	-0.062225923
26	0xbd342156	-0.043977104
27	0x3d5fd7e3	0.054649245
28	0xbd8cbb6a	-0.06871684
29	0xbbc0a4e9	-0.005879034
30	0x3bc2586a	0.00593095
31	0xbd9141aa	-0.070926026
32	0x3c8290a4	0.01593811
33	0xbcbf3e4a	-0.023345131
34	0xbc7e8db4	-0.015536714
35	0x3cd1c76c	0.025607787
36	0x3d3915c1	0.04518676
37	0x3d68ffd4	0.0568846
38	0x3c0d80b4	0.008636642
39	0x3c2358d5	0.00996991
40	0x3d61f0d0	0.055161297
41	0xbd51bdb4	-0.051206306
42	0x3d851cee	0.064996585
43	0xbd60d26f	-0.054888185
44	0x3c8d1988	0.017224088
45	0x3df311f2	0.11868657
46	0x3d7f35a3	0.06230701
47	0xbcf28b68	-0.02960749
48	0xbca07a06	-0.019589435
49	0xbd51cb33	-0.051219177
50	0x3d91d586	0.071208045
51	0x3c65ee38	0.014033847
52	0xbd36b395	-0.044604857
53	0x3ca264b4	0.01982341
54	0x3c3f2c9e	0.011668352
55	0x3c855b2c	0.016278826
56	0x3d37764f	0.044790562
57	0x3cf61594	0.030039586
58	0x3d63bee0	0.055601954
59	0xbd83676d	-0.06416211
60	0x3bd305f4	0.0064399187
61	0x3c3a7628	0.01138071
62	0xbd528c1c	-0.05140315
63	0xbd18ace7	-0.037274268
64	0x3c05e200	0.008171558
65	0x3d7ba244	0.061434045
66	0xbc912ea3	-0.017722433
67	0xbb487a10	-0.0030590333
68	0xbd152fc4	-0.036422506
69	0xbbeaf4a0	-0.007170275
70	0xbb388864	-0.0028157467
71	0xbd4db334	-0.05021973
72	0xbcdbca41	-0.02682984
73	0xbd63d9df	-0.0556277
74	0x3d6bbed0	0.05755502
75	0x3daa2b75	0.0830907
76	0x3d5af20c	0.05345349
77	0xbd67e34c	-0.05661325
78	0x3dd75e9b	0.105160914
79	0xbb31de94	-0.0027140724
80	0xbd8e8acf	-0.069600694
81	0xbd19fada	-0.037592746
82	0x3cf368a8	0.02971299
83	0xbb2bba64	-0.0026203627
84	0x3d996727	0.07490378
85	0x3bf102f8	0.00735509
86	0x3d14aa12	0.036295004
87	0x3ddadeb2	0.10687007
88	0xbd4a25ab	-0.04935233
89	0x3cc79530	0.02436313
90	0xbae7eeae	-0.0017695033
91	0xbd44676c	-0.047950193
92	0x3bae2998	0.005315017
93	0x3d31386f	0.04326671
94	0x3ca6022c	0.020264708
95	0x3ce9ffb4	0.028564312
96	0x3c83f2e4	0.01610703
97	0xbc912e44	-0.017722256
98	0x3d3259ae	0.043542556
99	0xbcc592c2	-0.024117831
100	0xbc8c30bc	-0.017113082
101	0x3d2f9b10	0.04287249
102	0x3d34884f	0.044075307
103	0xbd8d432f	-0.0689758
104	0xbd2e2fc0	-0.042526007
105	0x3dd45490	0.103676915
106	0xbba5fee4	-0.0050657857
107	0x3d4d7764	0.050162688
108	0x3dc73f78	0.097289026
109	0x3d7522bc	0.05984758
110	0xbd89e2c2	-0.06732704
111	0x3d5ddcfa	0.054165818
112	0x3c1e2c70	0.009654149
113	0x3d3b4898	0.045723528
114	0x3da92bdf	0.08260321
115	0xbd2b7ac4	-0.041865125
116	0xbd2154ef	-0.03938764
117	0x3d49d450	0.049274743
118	0x3d49ea34	0.04929562
119	0x3d74d6f4	0.059775308
120	0xbc0c2022	-0.008552583
121	0xbcdf53e0	-0.027261674
122	0x3d22617e	0.039643757
123	0x3dacb2f3	0.08432569
124	0x3d593cb0	0.05303639
125	0x3d725ba8	0.05916944
126	0x3da5cfca	0.08096273
127	0x3cd0027c	0.02539181
128	0x3c695abc	0.014242824
129	0x3b80a0bf	0.0039254124
130	0xbb383a84	-0.002811105
131	0x3cb39d90	0.021925718
132	0x3d02859a	0.031865694
133	0xbc0c4400	-0.008561134
134	0xbbe1e610	-0.0068938807
135	0xbaf0218e	-0.0018320547
136	0xbd21fb1f	-0.03954613
137	0x3d716bfa	0.058940865
138	0x3ddd4ce4	0.10805681
139	0xbd3f8b74	-0.046763852
140	0xbd8437f1	-0.064559825
141	0x3d7a6011	0.061126772
142	0x3d4fda31	0.050745193
143	0xba879744	-0.0010344763
144	0x3d40fadd	0.047114242
145	0x3cee3740	0.02907908
146	0x386559bc	5.4681426e-05
147	0xbae0fcb8	-0.001716516
148	0xbd91c226	-0.07117109
149	0xbcf88d8a	-0.030340929
150	0x3d97c48f	0.074105375
151	0x3b2748f8	0.002552567
152	0xbd81af36	-0.06332247
153	0x3d59897c	0.05310963
154	0xbd4d1315	-0.050067026
155	0x3c9e8c8c	0.019354127
156	0x3d443317	0.047900286
157	0xbd1e2450	-0.03860885
158	0xbd3c3144	-0.04594542
159	0xbb9e443e	-0.0048299124
160	0xbc87dd68	-0.016585067
161	0xbd41dfa4	-0.04733242
162	0x3c1eeba7	0.009699739
163	0x3d703ee0	0.058653712
164	0x3d2c6bec	0.04209511
165	0x3c7eaf55	0.015544732
166	0x3cf609a7	0.0300339
167	0xbd3978b0	-0.045281112
168	0xbcb544fc	-0.02212762
169	0x3d5bc430	0.053653896
170	0x3d6054d4	0.0547684
171	0x3d07b063	0.0331272
172	0x3cc22148	0.02369751
173	0x3d1bb520	0.03801453
174	0xbd172aa5	-0.036905903
175	0x3ba6b134	0.005087042
176	0x3b1544a8	0.0022776518
177	0x3cb27d45	0.021788249
178	0x3d555126	0.052079342
179	0xbd897be8	-0.06713086
180	0xbd28f225	-0.041246552
181	0xbd9001b5	-0.070315756
182	0x3d2bd55e	0.04195153
183	0x3aeba790	0.0017979015
184	0x3d78f25e	0.060778014
185	0xbca6d8d8	-0.020367071
186	0xbbe21290	-0.0068991855
187	0x3d85fa1e	0.06541847
188	0x3cc013dc	0.02344697
189	0x3daee631	0.08539999
190	0xbd89dd13	-0.0673162
191	0x3cca76c8	0.024714842
192	0x3db722c3	0.08942177
193	0x3d20435a	0.03912673
194	0xb827f078	-4.0039857e-05
195	0xbcb0ff29	-0.021606045
196	0x3ce7ae9c	0.028281502
197	0x3d279cb2	0.04092092
198	0x3d6eed63	0.05833186
199	0x3c83cdac	0.016089283
200	0x3d53879c	0.051643
201	0xbca7cb71	-0.02048275
202	0x3d44a9e0	0.048013568
203	0x3d784914	0.060616568
204	0x3d8b825a	0.06811972
205	0x3ce1175c	0.027476959
206	0xbc7eb368	-0.0155457035
207	0x3d6d25e8	0.05789748
208	0xbc2c596c	-0.010519367
209	0xbd57b122	-0.05265916
210	0x3dce0a4d	0.100605585
211	0xbd352056	-0.04422029
212	0xbd21dc40	-0.039516687
213	0x3dbcbd6f	0.09215819
214	0x3c12cd68	0.0089601055
215	0xbd3b9eee	-0.045805864
216	0xbcf086a0	-0.02936107
217	0x3d2444ea	0.040104784
218	0xbb20fa88	-0.002456339
219	0xbad83f40	-0.0016498342
220	0x3ac56608	0.0015060315
221	0xbc93116c	-0.017952643
222	0x3d16f524	0.036854878
223	0x3cbd8040	0.023132443
224	0xbd7a903b	-0.061172705
225	0x3bb1aae8	0.005421985
226	0xbd0172d0	-0.031603634
227	0xbd2945ac	-0.04132621
228	0x3cb95a80	0.022626162
229	0xbc764f00	-0.0150334835
230	0x3d2130a2	0.03935302
231	0x3d7baa3d	0.06144165
232	0x3d597cbc	0.05309747
233	0xbc9a9aa4	-0.018872567
234	0x3db8997d	0.090136506
235	0x3d6723f8	0.056430787
236	0x3d4e4d72	0.050366826
237	0x3ddfe904	0.10933116
238	0xbc0194a4	-0.007908974
239	0xbcd6dc26	-0.026228022
240	0x3d8df98f	0.06932365
241	0x3d9176db	0.07102748
242	0x3c5a06d4	0.013307292
243	0xbbeb2ba6	-0.007176834
244	0x3c94ea84	0.018178232
245	0xbd62312a	-0.055222668
246	0x3d3f80f5	0.046753842
247	0xbd766f58	-0.06016478
248	0x3c58e9c8	0.013239332
249	0x3d919f51	0.07110465
250	0xbd909d1d	-0.07061217
251	0x3cc408ac	0.023929916
252	0xbd0b056f	-0.03394073
253	0x3947c0ec	0.00019049988
254	0x3d8ecc6c	0.06972584
255	0x3d1ad4f6	0.03780075

net.3.bias f4 [64]
0	0x3d8048a7	0.06263857
1	0x3ce43272	0.027856085
2	0x3de42339	0.11139531
3	0xbc57270f	-0.013131871
4	0x3dc4f45e	0.09616922
5	0x3d00ecf6	0.031475984
6	0x3ddd22d2	0.10797657
7	0x3db9560f	0.090496175
8	0x3ca7c343	0.02047885
9	0x3d74c4b0	0.05975789
10	0x3e029fbe	0.1275625
11	0xbc2d0166	-0.010559415
12	0xbc56650f	-0.013085618
13	0x3d3237b4	0.043510154
14	0x3d97db63	0.074148916
15	0x3dcc5c46	0.09978537
16	0x3d6f73f8	0.058460206
17	0x3dee1e3b	0.1162686
18	0x3d568ba2	0.052379258
19	0x3a9e45e7	0.0012075276
20	0x3da23567	0.07920342
21	0x3dc0ccbb	0.09414049
22	0x3c5a441e	0.013321904
23	0x3cd70e04	0.0262518
24	0x3cbb61f2	0.022873852
25	0x3dbdc058	0.09265202
26	0x3d6bf0e6	0.057602786
27	0x3ce7bf2f	0.028289406
28	0xbd2f0a0b	-0.042734187
29	0xbc85d086	-0.016334783
30	0x3cd2cb48	0.025731698
31	0xbd9c202c	-0.07623324
32	0x3d5b4762	0.053534873
33	0x3ddd54e4	0.10807207
34	0x3bf42ed9	0.0074518737
35	0x3da977bc	0.08274791
36	0x3d60250d	0.054722834
37	0x3c88080f	0.016605405
38	0x3d9e7ecc	0.07739028
39	0x3d79e927	0.061013367
40	0x3db2a7b8	0.08723396
41	0x3c6e8e49	0.014560291
42	0x3da4d748	0.08048874
43	0x3ddba4fa	0.10724826
44	0x3c748ab2	0.014925646
45	0xbc2e36fd	-0.010633227
46	0x3d548a5d	0.051889766
47	0xbc2176fc	-0.009855028
48	0xbb6a5f13	-0.0035762235
49	0x3d1609b6	0.036630355
50	0x3d3e7c16	0.046505056
51	0x3d8b9779	0.068160005
52	0x3dfefad4	0.124501854
53	0x3bc40125	0.0059815818
54	0x3db7e8ed	0.08979974
55	0xbc736606	-0.014855867
56	0x3d6cb577	0.057790246
57	0x3de1352f	0.10996472
58	0x3d070897	0.032967176
59	0x3d17c42f	0.03705233
60	0x3db03c7e	0.08605288
61	0x3c8579fa	0.016293515
62	0x3dbb4a1e	0.09144996
63	0x3d6f6d45	0.058453817

net.6.weight f4 [64, 64, 3]
0	0xbc092c60	-0.008372396
1	0xbd8f5770	-0.06999099
2	0xbd1c4e2e	-0.038160495
3	0x3d8a9fba	0.06768747
4	0x3cd666d4	0.02617208
5	0xbcb84df6	-0.022498112
6	0x3d875ea7	0.066098504
7	0x3ad6f0d4	0.0016398677
8	0xbd51233a	-0.051058985
9	0x3dacdd70	0.08440673
10	0xbd0d4a23	-0.03449453
11	0x3b57d7f8	0.0032935124
12	0x3c440069	0.011962988
13	0x3c5166fa	0.012780899
14	0xbd34c118	-0.04412946
15	0x3da6286f	0.08113181
16	0x3d7de410	0.061985075
17	0xbd33cf5f	-0.043898936
18	0xbcb2e91d	-0.021839673
19	0x3b66bb76	0.003520695
20	0x3d8b26ea	0.06794532
21	0x3d897cb8	0.06713241
22	0x3d8ad3e0	0.06778693
23	0xbbf586c4	-0.007492872
24	0x3aa4a410	0.0012561101
25	0xbd836801	-0.064163215
26	0x3d2cc3c4	0.042178884
27	0x3d41583b	0.047203284
28	0xbd75f986	-0.060052417
29	0xbce0c406	-0.027437221
30	0x3dd25e2a	0.102718666
31	0x3d0a69ca	0.033792295
32	0xbccf2f62	-0.025291149
33	0x3db55a53	0.088551186
34	0x3cdc869c	0.026919656
35	0x3d7a5cb0	0.06112355
36	0xbd8e804e	-0.06958066
37	0xbc0154ac	-0.0078937225
38	0x3d48b642	0.04900194
39	0xbd118821	-0.035530213
40	0x3d87a6b6	0.066235945
41	0xbd8a7c33	-0.0676197
42	0x3dae7995	0.08519284
43	0xbd5cd7e4	-0.053916827
44	0xbd2ad810	-0.04170996
45	0xbcd96581	-0.026537659
46	0x3bfe49fc	0.0077602845
47	0x3d8f5ae0	0.06999755
48	0x3d884e82	0.06655599
49	0xbce3cd7e	-0.027807947
50	0x3b893598	0.004187297
51	0x3b7091f5	0.003670809
52	0xbc7c5f54	-0.015403587
53	0xbc9c5b72	-0.019086573
54	0x3d9dcdd1	0.07705272
55	0xbd3d4374	-0.046206906
56	0x3d82a4cc	0.06379089
57	0x3d5a407c	0.053284153
58	0x3d5b7cb4	0.053585723
59	0xbc451af0	-0.012030348
60	0x3d8e10eb	0.069368206
61	0x3c127ef8	0.0089414045
62	0x3d801590	0.06254113
63	0xbcd85f5c	-0.026412658
64	0xbd8b60a2	-0.068055406
65	0x3d6e207c	0.05813645
66	0xbc8f3008	-0.017478958
67	0xbcab1c4a	-0.020887513
68	0x3cb43390	0.021997243
69	0xbd037217	-0.032091226
70	0x3d7b6068	0.061371237
71	0x3cf3d7b8	0.029765949
72	0xbd35af34	-0.04435654
73	0x3d561e1a	0.0522748
74	0x3c0f5c78	0.008750074
75	0x3db9a9af	0.09065568
76	0xbd1c02f5	-0.038088758
77	0xbd7e06da	-0.062018253
78	0x3ad21752	0.0016028679
79	0x3d7bb51c	0.061452016
80	0xbc449344	-0.0119980015
81	0xbc0ae111	-0.008476512
82	0xbd92a542	-0.07160427
83	0x3c499978	0.012304656
84	0x3d163fb1	0.036681835
85	0xbd4a1e3a	-0.049345233
86	0x3cc2165c	0.023692302
87	0x3cc2fa25	0.023800919
88	0x3d84d6a4	0.06486252
89	0xbcf6297e	-0.030049082
90	0x3d5e4891	0.054268423
91	0x3d895e78	0.067074716
92	0x3c996484	0.018724687
93	0x3b619a21	0.0034424143
94	0xbd0ee653	-0.034887623
95	0xbd67bf1f	-0.05657875
96	0x3cdbe0f6	0.026840668
97	0x3aa942dc	0.0012913602
98	0xbcad80c4	-0.021179564
99	0xbadae4b6	-0.0016700241
100	0xbd1a4f84	-0.03767349
101	0xbab905e8	-0.001411614
102	0x3d405690	0.046957552
103	0xbcbd29b0	-0.023091167
104	0x3d55841a	0.052127935
105	0x3db9138e	0.09036933
106	0xbd0337d3	-0.03203566
107	0xbd638ec8	-0.05555609
108	0x3db63f48	0.08898789
109	0xbd3ba41c	-0.045810804
110	0x3d882720	0.066480875
111	0x3bfd31ee	0.0077268993
112	0xbd0b0681	-0.03394175
113	0xbd8b5aa3	-0.06804397
114	0x3d818c2e	0.06325565
115	0x3b9243a0	0.004463628
116	0x3ae74e20	0.0017647184
117	0xbc4619de	-0.012091128
118	0x3d825b72	0.06365098
119	0xba6d5470	-0.00090534147
120	0x3da35845	0.079758205
121	0xbd8f20c5	-0.06988672
122	0xbd2b4661	-0.041815165
123	0xbceacbd4	-0.028661646
124	0x3bdf74ec	0.006819358
125	0xbb511fe4	-0.0031909877
126	0x3cf3621e	0.029709872
127	0xbcd0b98e	-0.025479104
128	0xbc870d3c	-0.016485803
129	0xbbee9ffa	-0.0072822543
130	0xbd9024fb	-0.070383035
131	0xbd094ea9	-0.03352228
132	0x3c7dd6d3	0.015493113
133	0xbcf5acdc	-0.029989652
134	0xbd46a72e	-0.04849928
135	0x3d80cc5a	0.06288977
136	0x3d8272de	0.063695654
137	0x3c971014	0.018440284
138	0x3d22f79e	0.039786927
139	0xbcb77f38	-0.02239953
140	0x3bdaa539	0.006672528
141	0x3d19ee78	0.037580937
142	0xbc809822	-0.015697543
143	0x3d81b9ca	0.063342646
144	0x3d2f614e	0.042817406
145	0xbcd1db2a	-0.0256172
146	0xbd4fc0b2	-0.050720878
147	0x3c056a87	0.008143074
148	0xbc16149d	-0.009160188
149	0xbd8aab8b	-0.067710005
150	0xbb9b7256	-0.0047438545
151	0xbc89cf2d	-0.016822422
152	0x3d8bc2ba	0.068242505
153	0xbcf63de9	-0.030058818
154	0xbd481f32	-0.048857875
155	0xbc3ec960	-0.011644691
156	0xbd101fa1	-0.035186414
157	0x3d24e8d6	0.040261112
158	0xbd8e8d79	-0.069605775
159	0x3d6b631b	0.05746756
160	0x3d91c67e	0.071179375
161	0xbcd7f73c	-0.026363008
162	0x3d613371	0.0549807
163	0xbc100aa4	-0.008791599
164	0x3d5f6eac	0.054548904
165	0x3d911920	0.0708487
166	0xbbb94598	-0.005654048
167	0xbd032158	-0.03201422
168	0xbcc95ba7	-0.024579836
169	0xbd81a198	-0.0632965
170	0xbd252190	-0.04031521
171	0x3d8a7a2d	0.067615844
172	0xbca355a2	-0.019938294
173	0x3d37fe50	0.044920266
174	0xbd114ce3	-0.035473716
175	0x3d4534b6	0.048145972
176	0x3c6c67f4	0.014429081
177	0x3b917aeb	0.004439702
178	0xbd918066	-0.07104568
179	0x3d65de54	0.05612023
180	0x3d2e3109	0.042527232
181	0x3b19ddd4	0.0023478167
182	0x3d92b5d2	0.07163586
183	0x3c129a47	0.008947915
184	0xbd258fc7	-0.04042032
185	0xbd3b01c4	-0.04565598
186	0xbd17f113	-0.03709514
187	0x3d53d706	0.051718734
188	0xbd332b32	-0.043742366
189	0x3d081e6a	0.03323213
190	0xbd4043ed	-0.04693978
191	0xbc99744a	-0.018732209
192	0x3d1e8193	0.03869779
193	0xbc2e7307	-0.010647542
194	0xbd4db584	-0.050221935
195	0xbd3af740	-0.045645952
196	0x3d341978	0.0439696
197	0x3c9bd80c	0.019023918
198	0xbd001d24	-0.03127779
199	0xbc87baf6	-0.016568642
200	0x3d589110	0.052872717
201	0x3d572a3b	0.05253051
202	0xbc9258c8	-0.0178646
203	0x3c103474	0.008801568
204	0x3bd22c55	0.006413976
205	0x3d651bfc	0.05593489
206	0x3bdcda74	0.006739909
207	0xbcb6e9eb	-0.022328338
208	0xbd3e3b88	-0.046443492
209	0xbcf6acb2	-0.030111644
210	0xbce927e6	-0.028461408
211	0x3bd79ea8	0.0065801926
212	0xbd5a2b92	-0.05326421
213	0x3d01188b	0.031517547
214	0xbd172704	-0.036902443
215	0xbd50e766	-0.05100193
216	0xbcf29eec	-0.029616795
217	0x3d55f08e	0.052231364
218	0xbbac6fa4	-0.005262332
219	0xbc6af394	-0.0143403
220	0x3d8a91c8	0.06766087
221	0x3d190c3a	0.037365176
222	0x3cb3a5ee	0.021929707
223	0xbc3eb834	-0.011640597
224	0xbd931d03	-0.07183268
225	0xbd8d85c4	-0.069102794
226	0x3d14535a	0.036212303
227	0xbafce558	-0.0019294424
228	0xbc6f2c26	-0.014597928
229	0xbcb0c39a	-0.021577645
230	0x3d0f34fc	0.03496264
231	0xbc80b04d	-0.015709067
232	0xbd8d351e	-0.06894897
233	0x3d8aba96	0.0677387
234	0xbd7c2866	-0.061561964
235	0x3c8cb3e0	0.017175615
236	0xbd3a1241	-0.045427565
237	0x3d569bc9	0.052394662
238	0x3b379d07	0.002801718
239	0xbce2fbc4	-0.027707942
240	0xbd4dd2bc	-0.0502498
241	0xbd3ed2ba	-0.046587683
242	0xbcf069aa	-0.02934726
243	0x3d0014fe	0.03127002
244	0x3d885fda	0.06658907
245	0x3d2006e6	0.03906908
246	0x3d1322ef	0.035921987
247	0xbc0278b8	-0.007963352
248	0xbc0a7624	-0.0084510185
249	0xbd8e419d	-0.069461085
250	0xbd20efe6	-0.039291285
251	0x3cf65c78	0.03007339
252	0x3d75ac3a	0.0599787
253	0x3d84e608	0.064891875
254	0x3d500bdc	0.05079256
255	0xbd5dc689	-0.054144416

net.6.bias f4 [64]
0	0x3c6e033b	0.014527137
1	0x3c2a83ac	0.01040737
2	0x3cea3210	0.028588325
3	0x3d69bb71	0.057063524
4	0x3df42baa	0.11922391
5	0x3d80c329	0.06287224
6	0x3ce9c988	0.02853848
7	0x3db2056a	0.08692439
8	0x3d091467	0.033466723
9	0x3df732b0	0.12070215
10	0x3cb4e4db	0.022081783
11	0x3ddf2d75	0.10897342
12	0x3da99828	0.082809746
13	0x3d8f3b7d	0.06993768
14	0x3d70666f	0.05869144
15	0x3dad1679	0.08451552
16	0x3de1d445	0.11026815
17	0x3e006dfc	0.12541956
18	0x3dcdbb48	0.10045487
19	0x3ba7c96f	0.0051204483
20	0x3de5bd66	0.112177655
21	0x3d50eb83	0.05100585
22	0x3cd4c144	0.025971062
23	0x3db19fed	0.086730815
24	0xbbad9212	-0.005296954
25	0x3cf417bc	0.029796474
26	0x3c4d8d3c	0.01254588
27	0xbd56b2a6	-0.052416466
28	0x3d221114	0.03956707
29	0x3dda7249	0.106663294
30	0x3df63fff	0.12023925
31	0x3d8af13c	0.06784293
32	0xbd6ba03d	-0.057525862
33	0x3d86523c	0.06558654
34	0x3ccc9d3e	0.024977323
35	0xbc08de26	-0.008353746
36	0x3da9666d	0.08271489
37	0xbcf2141b	-0.029550603
38	0x3d8155cf	0.06315195
39	0x3dde7202	0.10861589
40	0x3d5c129e	0.053728692
41	0x3de5cc99	0.112206645
42	0x3d003ad9	0.03130612
43	0xbca83735	-0.020534137
44	0x3c4b6ec3	0.012416544
45	0x3d9709fc	0.07374951
46	0xbd0a73cd	-0.033801842
47	0xbd57d6f0	-0.052695215
48	0x3da75ee0	0.08172393
49	0xbb1f8b50	-0.0024344511
50	0xbd7bd37e	-0.06148099
51	0x3d2e9b32	0.042628475
52	0xbc86f4b4	-0.016474105
53	0xbad13559	-0.0015961333
54	0xbd40a102	-0.04702855
55	0x3c635e00	0.013877392
56	0x3dd7099f	0.10499882
57	0x3ddcefb9	0.10787911
58	0x3d9ccaf9	0.076559015
59	0xbccd79b6	-0.02508245
60	0x3ddf7724	0.10911396
61	0x3d951831	0.07280005
62	0x3d84b906	0.06480603
63	0xbc056d64	-0.008143757

net.9.weight f4 [64, 64, 3]
0	0x3c19057d	0.009339687
1	0xbc0efa58	-0.008726679
2	0xbbbf0594	-0.0058295224
3	0xbd834dae	-0.064113006
4	0xbcb10a5e	-0.021611389
5	0xba1d1d7c	-0.0005993468
6	0xbd5a8cd6	-0.053356968
7	0xbcbe1bb0	-0.023206562
8	0xbd7ab346	-0.061206125
9	0xbc8f4ce7	-0.017492725
10	0xbc490e10	-0.012271419
11	0xbb8999e8	-0.0041992553
12	0x3bb26d58	0.0054451637
13	0x3d30752c	0.043080494
14	0x3c8c7e64	0.017150111
15	0x3d1af407	0.03783038
16	0xbd10742a	-0.035267033
17	0x3d74e584	0.059789196
18	0xbad5de58	-0.0016316874
19	0x3d61ec04	0.055156723
20	0x3cf3af08	0.029746547
21	0x3d020cb9	0.031750415
22	0xbd1c13c5	-0.03810479
23	0x3d19be6a	0.03753511
24	0xbd9bace6	-0.07601337
25	0x3ceec7a0	0.029147923
26	0xbd6783ca	-0.05652217
27	0xbca3ad9b	-0.019980242
28	0xbc0d6b6c	-0.008631568
29	0xbce17d5c	-0.027525596
30	0x3ca03c17	0.019559903
31	0xbd6bdf02	-0.057585724
32	0xbd758ecd	-0.05995064
33	0xbd89cc03	-0.06728365
34	0xbd3b3012	-0.04570014
35	0x3cbd0854	0.02307526
36	0x3c31aced	0.010844451
37	0xbd2a83f5	-0.04162975
38	0x3cebe640	0.028796315
39	0x3bdce46b	0.0067410967
40	0x3d860dc8	0.06545597
41	0x3d847d58	0.0646922
42	0xbd80e49d	-0.062936045
43	0x3d167180	0.036729336
44	0x3d17c7d4	0.037055805
45	0xbd9b5f87	-0.0758658
46	0xbaf8d7ac	-0.0018985174
47	0xbd53513a	-0.051591136
48	0xbd132827	-0.035926964
49	0x3d6138ac	0.054985687
50	0x3d5ba020	0.053619504
51	0xbc01a3ee	-0.007912619
52	0x3d4d2ec2	0.05009342
53	0xbd3aae95	-0.04557665
54	0xbc01044c	-0.00787456
55	0xbd243adc	-0.040095195
56	0xbd540cda	-0.05177007
57	0xbd062968	-0.03275433
58	0x3d6dba10	0.05803877
59	0x3d8154f6	0.06315033
60	0xbd0dea86	-0.034647487
61	0xbd031466	-0.032001875
62	0x3a614250	0.000859295
63	0xbd1c370f	-0.038138445
64	0x3d346d5c	0.044049606
65	0xbcc69aa6	-0.024243664
66	0x3d2e8532	0.042607494
67	0xbd902076	-0.070374414
68	0x3d7735dc	0.0603541
69	0x3b4247f8	0.0029644947
70	0xba8cfed4	-0.0010757097
71	0xbd451a8e	-0.048121028
72	0xbcbe0278	-0.023194537
73	0xbcdf99f8	-0.027295098
74	0x3d36adc8	0.044599324
75	0xbc7a4cd3	-0.015277105
76	0x3cec3ad4	0.028836645
77	0x3d5b1d88	0.05349496
78	0xbce077f6	-0.027400952
79	0x3d2169cc	0.039407536
80	0x3cdb111c	0.026741557
81	0xbb5cd324	-0.0033695186
82	0xbd6f8209	-0.05847362
83	0x3d743d70	0.059628904
84	0x3cc227cb	0.023700615
85	0xbc52d1ac	-0.0128673725
86	0x3c8a8e40	0.016913533
87	0x3c9a247a	0.018816222
88	0x3cabaeb0	0.02095732
89	0xbd1d8420	-0.038456082
90	0xbda28e20	-0.079372644
91	0x3d8eb258	0.0696761
92	0xbd8af1d4	-0.06784406
93	0xbd8d4098	-0.06897086
94	0x3d2aee0e	0.041730933
95	0xbd6d5713	-0.05794437
96	0x3cc5d704	0.024150379
97	0x3d7a1de4	0.061063662
98	0x3c87c964	0.016575523
99	0xbd08a545	-0.03336074
100	0xbd19572f	-0.03743666
101	0x3d18f278	0.03734061
102	0x3cae852a	0.021303732
103	0x3d8f74fa	0.070047334
104	0x38a64cd4	7.929807e-05
105	0x3bd74ec7	0.0065706703
106	0xbcd765b8	-0.02629362
107	0x3d644d00	0.055737495
108	0x3d310b33	0.04322357
109	0xbd6c12f4	-0.057635263
110	0x3a99018d	0.0011673436
111	0x3d2956e7	0.041342642
112	0x3d14dab8	0.0363414
113	0x3d402206	0.046907447
114	0xbd7235c2	-0.0591333
115	0xbd791206	-0.060808204
116	0xbc45e998	-0.012079619
117	0x3c351619	0.011052632
118	0xbbc8bc30	-0.0061259493
119	0xbb5aff40	-0.00334163
120	0xbcef5fbc	-0.029220454
121	0x3ca274f0	0.01983115
122	0xbbac6334	-0.0052608494
123	0xbd2e641f	-0.04257595
124	0xbd66802c	-0.056274578
125	0xbd439333	-0.047747802
126	0x3d1368e1	0.035988692
127	0x3cc66274	0.024216868
128	0xbd891c62	-0.06694867
129	0xbd24a2c1	-0.040194277
130	0x3d0acad2	0.03388483
131	0x3ce0c021	0.027435364
132	0x3d069e91	0.032866064
133	0x3d2f7216	0.04283341
134	0x3d3b0b5c	0.04566513
135	0xbd32fdf3	-0.043699216
136	0x3ce9c946	0.028538357
137	0x3cedb4c0	0.029016852
138	0x3d59117a	0.052995183
139	0x3d4df1dc	0.050279483
140	0x3b97faa0	0.004638031
141	0x3cd4e0f4	0.025986172
142	0x3c2f3b14	0.010695238
143	0xbd3110fa	-0.04322908
144	0x3d577812	0.052604742
145	0xbbb2c824	-0.0054559875
146	0xbca99174	-0.02069924
147	0xbd7a511b	-0.061112504
148	0x3cc50b7c	0.024053328
149	0xbd0c8698	-0.034308046
150	0xbd04b542	-0.032399423
151	0x3d7135f8	0.05888936
152	0xbb6bae2c	-0.0035961969
153	0xbda6847f	-0.081307404
154	0x3d4778a2	0.04869903
155	0x3d849480	0.064736366
156	0xbcc9ec69	-0.024648862
157	0xbccf956a	-0.0253398
158	0x3d5d6398	0.054050058
159	0x3d161cb2	0.03664846
160	0x3d123628	0.03569618
161	0xbd833ffd	-0.06408689
162	0xbcfd227c	-0.030900232
163	0xbd5b3d06	-0.053524993
164	0x3d7bda34	0.06148739
165	0x3cd07c70	0.025449961
166	0xbc392d30	-0.011302277
167	0xbd88c543	-0.0667825
168	0x3bfd1e1a	0.0077245357
169	0x3ca42198	0.02003555
170	0x3bf66248	0.0075190403
171	0x3d5498d8	0.051903576
172	0xbc8b3d3c	-0.016996972
173	0xbd08f753	-0.03343899
174	0xbdac62b1	-0.084172614
175	0xbc365874	-0.011129487
176	0xbd8bd621	-0.06827951
177	0x3d444429	0.047916565
178	0xbcbb0664	-0.022830196
179	0xbcb59c48	-0.022169247
180	0x3cee0f9f	0.029060183
181	0x3d4fe38d	0.05075412
182	0x3b2a9040	0.002602592
183	0x3d2c97bb	0.04213689
184	0xbc876a72	-0.01653025
185	0xbcdaf766	-0.026729297
186	0xbd5c883a	-0.053840853
187	0x3d5d458c	0.054021403
188	0x3d05fd02	0.03271199
189	0x3d0146d7	0.0315617
190	0x3d493cea	0.049130358
191	0x3d894f66	0.06704597
192	0xbca188ac	-0.01971849
193	0x3d5f1150	0.05445987
194	0xbd07d430	-0.033161342
195	0xbd6042e6	-0.0547513
196	0xbd281b94	-0.041041926
197	0x3a87e644	0.0010368307
198	0xbd394e49	-0.045240674
199	0x3d8ad418	0.06778735
200	0xbd71cfb1	-0.05903596
201	0xbd2d8318	-0.04236135
202	0x3c36f340	0.011166394
203	0x3d4af49c	0.049549684
204	0x3caf8410	0.021425277
205	0x3c736510	0.014855638
206	0x3cc1929c	0.02362948
207	0x3d5c0ce4	0.05372323
208	0xbbe85bfd	-0.007091044
209	0x3c44421c	0.011978652
210	0x3d80f95f	0.06297564
211	0xbd14612e	-0.03622549
212	0xbd3e521d	-0.046465028
213	0x3cb34ab8	0.021886215
214	0x3d5fb118	0.05461225
215	0x3d3c1811	0.04592139
216	0x3c19ff0d	0.009399188
217	0xbcb49daa	-0.022047836
218	0x3d65f0b8	0.05613777
219	0xbc7bf454	-0.015378077
220	0xbd1424e0	-0.03616798
221	0xbcc27956	-0.023739498
222	0xbd5dd886	-0.05416157
223	0x3ce9717c	0.028496496
224	0xbd5cf48e	-0.053944163
225	0x3c3abdbe	0.011397777
226	0x3cd0b760	0.025478065
227	0x3c952bc4	0.018209346
228	0xbca96944	-0.020680077
229	0xbb4ee440	-0.0031569153
230	0x3d63c952	0.055611916
231	0x3d5ac7ff	0.053413387
232	0x3c949a1c	0.018139891
233	0x3cecb8d8	0.028896734
234	0x3b7c4fae	0.0038499641
235	0xbc942586	-0.018084299
236	0x3d0289d6	0.03186973
237	0x3daa076a	0.08302195
238	0x3cc761ec	0.024338685
239	0xbca0f102	-0.019646171
240	0x3d6b6f5f	0.05747926
241	0x3d4bc47c	0.04974793
242	0x3d3a7854	0.04552491
243	0xbd2b327e	-0.0417962
244	0xbc1ce2f4	-0.009575594
245	0xbc9356b4	-0.01798568
246	0xbcb0dee3	-0.021590656
247	0xbd65b376	-0.05607935
248	0x3cf19414	0.029489554
249	0x3d8b835c	0.06812164
250	0x3c559c08	0.013037689
251	0x3d4a78fc	0.049431786
252	0xbcfd4ce2	-0.03092045
253	0xbd7abdba	-0.061216094
254	0x3d83b2b8	0.06430572
255	0xbd5c9198	-0.053849787

net.9.bias f4 [64]
0	0xbd7a46fa	-0.061102845
1	0xbcd8e0a9	-0.026474314
2	0x3d8b46ac	0.06800589
3	0xbc4aaf62	-0.012370916
4	0x3da47314	0.08029762
5	0x3e01adf1	0.1266401
6	0xba8ef317	-0.0010906187
7	0x3d93f8a1	0.072251566
8	0x3dcd517d	0.10025308
9	0x3ceec307	0.02914573
10	0x3d9e9647	0.07743507
11	0x3d76876b	0.06018774
12	0xbd052033	-0.03250141
13	0xbc68511e	-0.014179496
14	0x3dab04e7	0.083505444
15	0x3df53e0c	0.11974725
16	0xbcccb932	-0.024990652
17	0xbaeeb0d4	-0.0018210658
18	0x3c03fd9a	0.008056069
19	0x3d268ad4	0.04065974
20	0x3d9d1f12	0.07671942
21	0x3c9c4adc	0.019078664
22	0x3da19fda	0.078918174
23	0xbc58b7c7	-0.01322741
24	0x3dc34d13	0.09536185
25	0x3c3fb577	0.011700979
26	0xbcf03346	-0.029321324
27	0xbda09cbc	-0.07842395
28	0x3d40ab96	0.047038637
29	0x3d8e8c88	0.06960398
30	0x3b421149	0.0029612354
31	0x3ced1d57	0.028944654
32	0x3dc5ffe1	0.09667946
33	0x3dad4c04	0.084617645
34	0x3ca21243	0.019784098
35	0xbd1b03c1	-0.037845377
36	0x3b4e85d6	0.0031512878
37	0x3d163928	0.036675602
38	0xbc5ac4b9	-0.013352566
39	0xbc401685	-0.011724119
40	0x3db89243	0.09012272
41	0xbd3b28a8	-0.04569307
42	0xbd7a3f72	-0.061095662
43	0xbd83b7b0	-0.0643152
44	0x3def053d	0.11670921
45	0x3d6f7144	0.058457628
46	0xbd2b0b28	-0.041758686
47	0x3d9a3b7a	0.075308755
48	0x3dc2b174	0.09506503
49	0xbcfc9cf6	-0.030836564
50	0x3dafeef6	0.085905
51	0x3cfcb5ad	0.030848349
52	0x3da04540	0.078257084
53	0x3dacc595	0.08436123
54	0x3dcfca4e	0.101460084
55	0x3c5ca504	0.013467077
56	0xbc1686e3	-0.009187433
57	0x3d839444	0.06424764
58	0x3cca2ec1	0.024680497
59	0xbd6f4660	-0.058416724
60	0xbc332ffb	-0.010936732
61	0x3dfacfde	0.12246679
62	0x3da5bb54	0.08092371
63	0xba4ae360	-0.000773957

net.12.weight f4 [64, 64, 3]
0	0xbd3f89e0	-0.046762347
1	0x3d836720	0.06416154
2	0xbad99f9c	-0.0016603353
3	0x3c8590d7	0.016304417
4	0xbcc157b4	-0.02360139
5	0xbcf155f9	-0.02945994
6	0x3b52a8ae	0.0032143998
7	0x3d0f23a8	0.034946114
8	0x3d2568b8	0.04038307
9	0x3cd1a0a2	0.025589291
10	0xbd5cb8d0	-0.05388719
11	0x3d7026e0	0.058630824
12	0x3dc96523	0.098337434
13	0xbc88948a	-0.016672391
14	0x3bad91f8	0.005296942
15	0x3d65291a	0.0559474
16	0x3be5a42c	0.007008096
17	0xbcf1da1e	-0.029522952
18	0x3da8fdac	0.08251509
19	0xbca38256	-0.01995961
20	0x3d2c6b4c	0.042094514
21	0x3d80811c	0.06274626
22	0x3d6d50ec	0.0579385
23	0xbd4f44b1	-0.05060262
24	0x3d8855bf	0.0665698
25	0x3c18a738	0.009317212
26	0x3c4b0454	0.012391169
27	0x3dd19a15	0.10234467
28	0xbcacdb1f	-0.021100579
29	0x3beced2a	0.0072304206
30	0x3ce9da90	0.028546602
31	0x3d8dc3ae	0.069220886
32	0xbd869dd9	-0.06573076
33	0x3b67d878	0.0035376828
34	0xbc6aed54	-0.01433881
35	0xbcaa8468	-0.02081509
36	0xbc945744	-0.018108018
37	0x3d6d6c0c	0.05796437
38	0xbd77e1cf	-0.060518082
39	0xbbbd1616	-0.005770455
40	0xbcbe31dc	-0.023217134
41	0xbd109eea	-0.035307802
42	0x3d08e574	0.03342195
43	0x3d348356	0.044070564
44	0xbd3d4ed6	-0.046217762
45	0x3d073942	0.03301359
46	0x3d46dbb4	0.04854937
47	0xbbab3ff0	-0.005226128
48	0x3c9fbd74	0.019499518
49	0xbd84abc8	-0.06478077
50	0xba359ebc	-0.00069282553
51	0xbc077ddc	-0.008269753
52	0xbc160c33	-0.009158182
53	0xbcc0d186	-0.023537409
54	0x3d19c848	0.03754452
55	0xbb902e6c	-0.004400065
56	0xbcabde64	-0.020980068
57	0x3d37804b	0.044800084
58	0x3d932bbc	0.07186076
59	0xbce6625a	-0.02812307
60	0x3be219ba	0.0069000395
61	0x3d8d763a	0.069073156
62	0xbd472e27	-0.048628
63	0x3d5d9c2b	0.05410401
64	0xbcfdf190	-0.030998975
65	0x3cd83c08	0.026395813
66	0x3d412909	0.047158275
67	0xbcab4e87	-0.020911468
68	0x3d5f9588	0.054585963
69	0xbbf57b37	-0.007491495
70	0x3d84a0ec	0.06476006
71	0x3d0dd066	0.034622572
72	0x3da4f546	0.08054595
73	0x3d4c7b96	0.04992255
74	0x3d76fc50	0.060299218
75	0x3db4a3d0	0.08820307
76	0x3d753a3c	0.05986999
77	0xbcc7d6ac	-0.024394356
78	0x3c77526f	0.015095337
79	0xbcb85e42	-0.022505883
80	0xbc91d544	-0.017801888
81	0xbd5d2992	-0.053994723
82	0x3d3f7fec	0.046752855
83	0x3c098e20	0.008395702
84	0xbaf9e630	-0.0019065794
85	0xbc25d0dc	-0.010120597
86	0x3d48fe76	0.049070798
87	0xbcf71aa3	-0.030164069
88	0xbd716019	-0.058929536
89	0xbd6da2d3	-0.05801661
90	0x3db0a437	0.086250715
91	0xbc62ff50	-0.013854817
92	0xbd1fcbfb	-0.03901289
93	0xbd6d15d5	-0.05788215
94	0x3c373480	0.011181951
95	0xbd44a8c6	-0.048012517
96	0x3de0cba0	0.109763384
97	0xbbe186b0	-0.006882511
98	0x3d550080	0.05200243
99	0x3dc54239	0.096317716
100	0x3cef4998	0.029209897
101	0xbc0b6192	-0.008507149
102	0xbc370289	-0.011170038
103	0x3d3e0304	0.046389595
104	0xbd3c2e8e	-0.045942836
105	0x3d1582af	0.036501583
106	0x3c6d35d0	0.014478162
107	0xbbb87dd4	-0.0056302343
108	0x3bba991b	0.005694521
109	0xbd8fd80e	-0.07023631
110	0xbccb3276	-0.024804335
111	0xbb1da5a8	-0.0024055038
112	0x3d156fa4	0.036483422
113	0x3d60cf64	0.054885283
114	0x3cdf7486	0.027277242
115	0x3c058fb0	0.008151934
116	0x3d62b814	0.05535133
117	0x3d8edf30	0.069761634
118	0x3d08bfa6	0.033385895
119	0xbd07aaa7	-0.03312173
120	0x3dc4abd9	0.0960309
121	0xbd655984	-0.055993572
122	0xbd0e4504	-0.034733787
123	0x3ca5b530	0.020227998
124	0xbd83465a	-0.06409903
125	0x3c8ad7d0	0.01694861
126	0xbd6d69a0	-0.05796206
127	0xbd57457d	-0.052556504
128	0x3d48ee96	0.04905566
129	0x3d86f824	0.06590298
130	0xbcd1fdea	-0.025633771
131	0xbd0dc0ab	-0.03460757
132	0x3dce086e	0.100602016
133	0xbcc8d27a	-0.024514426
134	0x3d925bba	0.07146402
135	0x3da44649	0.08021218
136	0x3d565ac2	0.052332647
137	0xbbdb3730	-0.0066899285
138	0xbc2edb38	-0.010672383
139	0x3d03027c	0.03198479
140	0x3cbcc29c	0.023042016
141	0x3c625989	0.013815292
142	0xbc01846c	-0.007905107
143	0x3cee7f40	0.029113412
144	0x3dc4a7e2	0.096023336
145	0x3bae0b78	0.005311426
146	0x3c8acdb8	0.016943797
147	0xbce24f98	-0.027625844
148	0x3c8b2c60	0.016988933
149	0xbd8adf0e	-0.067808256
150	0x3dc77bd0	0.09740412
151	0xbd683554	-0.056691483
152	0x3cc51790	0.024059087
153	0x3d934d58	0.071924865
154	0x3d7684cc	0.06018524
155	0xbd126b43	-0.035746824
156	0x3db704bb	0.08936449
157	0xbaafe44d	-0.0013419479
158	0x3d4ceacf	0.05002862
159	0x3de4a3ab	0.1116403
160	0xbd0453ad	-0.032306362
161	0xbd8a7870	-0.06761253
162	0xbcf55d36	-0.029951673
163	0x3d33ab1c	0.043864354
164	0x3bc5efc8	0.006040547
165	0x3c9d77c6	0.019222151
166	0xba82de58	-0.0009984476
167	0x3cce955c	0.025217704
168	0xbd1ee5f8	-0.038793534
169	0x3d070b58	0.032969803
170	0x3c821d04	0.015882976
171	0xbc01c150	-0.007919624
172	0x3d014878	0.031563252
173	0xbb7f0811	-0.003891472
174	0x3d33cff4	0.04389949
175	0xbd3dffb2	-0.04638643
176	0xbcc8edb4	-0.024527408
177	0x3d82abe2	0.0638044
178	0xbcac1e50	-0.021010548
179	0xbd6397cd	-0.05556469
180	0xbc668704	-0.014070276
181	0xbd82d81e	-0.06388877
182	0x3c495f08	0.012290724
183	0x3b20d74b	0.0024542387
184	0xbcc4728e	-0.023980405
185	0x3d35104a	0.044204988
186	0x3daac87f	0.08339023
187	0xbc837eca	-0.016051669
188	0x3d1be8ec	0.03806393
189	0xb9143d38	-0.00014137186
190	0xbd5ad896	-0.05342921
191	0xbd386309	-0.045016322
192	0xbbd3d079	-0.006464061
193	0xbd8dbf38	-0.06921238
194	0x3d78c7c0	0.06073737
195	0x3db2da09	0.08732993
196	0x3c92d258	0.017922565
197	0xbcbc363a	-0.022975076
198	0x3d7231d5	0.059129555
199	0xbd8c68ff	-0.06855964
200	0xbd34de18	-0.044157118
201	0xbd55e1f0	-0.052217424
202	0x3a854bbc	0.0010169665
203	0xbc83d568	-0.016092971
204	0x3c98fd57	0.01867549
205	0x3d8d2298	0.06891364
206	0x3d68cd3c	0.05683635
207	0x3bd71c15	0.006564627
208	0xbd30c970	-0.043160856
209	0xbd7fc84a	-0.06244687
210	0x3cecfe64	0.028929897
211	0xbd1e965e	-0.03871762
212	0x3d61a480	0.05508852
213	0x3dd7b9e7	0.10533505
214	0xbcc44536	-0.023958784
215	0x3bf239fc	0.007392166
216	0x3dd53135	0.10409776
217	0x3c90d190	0.017678052
218	0x3bfdaccb	0.007741546
219	0xbd11314d	-0.035447408
220	0x3bcfa880	0.0063372254
221	0x3d413f16	0.047179304
222	0x3d93245b	0.07184669
223	0xbbf32f90	-0.0074214414
224	0xbd8bcadd	-0.068258025
225	0x3d938506	0.072031066
226	0x3c291374	0.010319579
227	0xbd1eb91c	-0.038750753
228	0x3be3b3dd	0.0069489316
229	0xbd6a1fa7	-0.057159092
230	0x3cfd4d04	0.030920513
231	0x3bf5ed2a	0.007505079
232	0x3d5040e8	0.05084315
233	0x3cc5bcc4	0.024137862
234	0xbc862555	-0.016375223
235	0xbd303389	-0.043017898
236	0xbcbcc7ca	-0.023044486
237	0xbc70ace3	-0.014689657
238	0x3cc9ff54	0.024657883
239	0xbd910106	-0.07080273
240	0xbd361ea9	-0.044462834
241	0xbd425720	-0.04744637
242	0x3d84c7a2	0.064833894
243	0xbd6588f8	-0.056038827
244	0x3d8ff679	0.07029433
245	0xbce9d7a6	-0.028545212
246	0x3da834f2	0.082132235
247	0xbd68fcc8	-0.056881696
248	0xbbf6d868	-0.007533122
249	0x3c85f25c	0.016350918
250	0x3d4c5164	0.049882308
251	0xbd836e0b	-0.064174734
252	0x3dc734a3	0.097268365
253	0xbcd6492e	-0.026157942
254	0x3d3c2393	0.045932364
255	0xbcc10f8c	-0.023566984

net.12.bias f4 [64]
0	0x3de0415f	0.109499685
1	0x3dfe2396	0.12409131
2	0x3d48814d	0.048951436
3	0x3df97876	0.12181179
4	0xbd7eed11	-0.062237803
5	0xb98413c9	-0.00025191743
6	0x3dd727e9	0.10505659
7	0x3dd76fcf	0.10519373
8	0x3ca545df	0.020174919
9	0xbd8ad69e	-0.06779216
10	0xbd0a3ee2	-0.033751376
11	0xbd139b18	-0.03603658
12	0x3c1791aa	0.009251038
13	0x3ddd26b2	0.10798396
14	0xbc2d3da9	-0.010573783
15	0x3dc1be57	0.094601326
16	0x3d00adc9	0.031415734
17	0xbd2fe8f6	-0.04294678
18	0x3dbf6f14	0.09347358
19	0x3da409dc	0.08009693
20	0xbce764c8	-0.028246298
21	0x3caf18b1	0.021374078
22	0x3dbfae31	0.09359396
23	0x3d3127ad	0.04325073
24	0x3d72c3fc	0.059268937
25	0xbb1c65c7	-0.0023864375
26	0xbb99745a	-0.0046830596
27	0xbc81fad2	-0.01586667
28	0x3dc5d526	0.096597955
29	0x3caa36f6	0.02077816
30	0x3dc420bf	0.09576558
31	0x3dc03100	0.09384346
32	0xbcdd3d73	-0.02700684
33	0x3b521f5a	0.0032062144
34	0xbd01ff15	-0.031737406
35	0x3db3879b	0.08766099
36	0x3dea5f67	0.11443978
37	0x3d5e62c3	0.054293405
38	0x3df157b4	0.11784306
39	0xbc32d8de	-0.010915963
40	0xbd91408a	-0.07092388
41	0x3b2b0fbf	0.0026101915
42	0x3c44450d	0.011979354
43	0xbb7a85c0	-0.0038226694
44	0xbc4a0e53	-0.012332517
45	0xbd1357d8	-0.035972446
46	0x3dac1d68	0.08404046
47	0x3dcaa886	0.098954245
48	0x3d2f0087	0.042725112
49	0x3e032b79	0.12809552
50	0x3c8234b9	0.01589428
51	0xbb8eecf3	-0.0043617426
52	0x3d989ae9	0.07451422
53	0xbd207b41	-0.039180044
54	0x3d02e6dc	0.031958446
55	0xbb77116a	-0.0037699589
56	0x3dec14a9	0.11527378
57	0xbd659cc5	-0.05605771
58	0x3dabe981	0.08394147
59	0x3db94cd7	0.09047859
60	0x3cab6c91	0.020925792
61	0x3df621ee	0.1201819
62	0x3b421832	0.0029616472
63	0xbd5dee33	-0.054182243

net.15.weight f4 [64, 64, 3]
0	0x3d733102	0.05937291
1	0xbc0292b0	-0.007969543
2	0x3ccb8040	0.024841428
3	0x3dac3454	0.08408418
4	0xbd0817d1	-0.033225838
5	0xbcedb082	-0.02901483
6	0x3d94444b	0.07239588
7	0xbc5e4f64	-0.013568733
8	0x3d2b7488	0.04185918
9	0x3d9cc365	0.07654456
10	0xbc9d444c	-0.019197606
11	0x3d31fab6	0.043451987
12	0xbcdca9b0	-0.026936382
13	0xbc911904	-0.017712124
14	0x3d3a99a7	0.04555669
15	0x3d431599	0.04762802
16	0xbd91c4d0	-0.07117617
17	0xbbdaccf0	-0.0066772625
18	0xbcc9bcea	-0.024626214
19	0x3cb93758	0.022609398
20	0xbd85e517	-0.06537836
21	0x3c4eb0af	0.012615367
22	0xbd158e0b	-0.036512416
23	0xbd846330	-0.06464231
24	0x3da7d812	0.08195509
25	0x3d07c0c6	0.033142827
26	0xbd090b00	-0.033457756
27	0x3b8ba039	0.0042610434
28	0xbd5816b8	-0.05275604
29	0xbd8f9f98	-0.07012862
30	0xbb376037	-0.0027980933
31	0xbd5d21ad	-0.053987194
32	0xbbea9a28	-0.00715949
33	0xbc6096b7	-0.013707808
34	0x3cb7e1ac	0.022446476
35	0xbc786314	-0.015160341
36	0x3d9adb84	0.075614005
37	0x3ccc191c	0.024914317
38	0xbd303216	-0.043016516
39	0x3d9686db	0.073499404
40	0xbd6e4dde	-0.05817973
41	0xbb0f4c58	-0.0021865573
42	0xbcbbebaf	-0.022939531
43	0x3d17d308	0.03706649
44	0x3d2101f0	0.03930849
45	0x3d1a6ab4	0.037699416
46	0x3d17fe06	0.03710749
47	0xbd8d98d8	-0.06913918
48	0x3c1c8519	0.009553217
49	0x3ce51930	0.027966112
50	0x3cd8bcbc	0.026457183
51	0xbd50cfe0	-0.050979495
52	0xbd59387a	-0.053032376
53	0xbd8f7c2d	-0.070061065
54	0x3d723989	0.0591369
55	0x3c1c9c6c	0.009558778
56	0x3d7c1655	0.061544735
57	0x3dafa66f	0.085766666
58	0xbd361dde	-0.044462077
59	0xbd48a35c	-0.048983917
60	0x3d38895c	0.04505287
61	0xbd732be8	-0.059368044
62	0x3d4f0f1c	0.05055152
63	0x3c3b7f9b	0.011443998
64	0x3d8649e0	0.06557059
65	0x3d492bd2	0.049114056
66	0x3d9e32ba	0.07724519
67	0xbd172305	-0.03689863
68	0xbd19e96f	-0.037576135
69	0x3c998b89	0.018743293
70	0x3be50b18	0.006989848
71	0xbd55018a	-0.05200342
72	0x3d9c9ca1	0.07647062
73	0x3d3d013c	0.046143755
74	0x3cbbf498	0.02294378
75	0x3cc9d92e	0.024639692
76	0x3d60f590	0.054921687
77	0xbd21416c	-0.03936903
78	0x3d801f57	0.062559776
79	0xbcfb4b10	-0.030675441
80	0x3d86e74a	0.06587084
81	0x3d7a786e	0.061150007
82	0x3d883892	0.06651415
83	0xbd80fedc	-0.062986106
84	0x3c96dbeb	0.018415412
85	0xbc2adb5c	-0.010428276
86	0x3c97b994	0.018521108
87	0x3c95e3fc	0.018297188
88	0x3a4622c8	0.00075582834
89	0x3bc9b050	0.0061550513
90	0x3c7102a1	0.014710099
91	0xbcdedcfe	-0.027204987
92	0x3d2cee0b	0.042219203
93	0x3b7a1681	0.0038160386
94	0xbd482e20	-0.048872113
95	0x3d462bc4	0.048381582
96	0xbd451363	-0.04811419
97	0xbd8a1aad	-0.06743369
98	0xb9f3b980	-0.0004648678
99	0xbab2d0da	-0.0013642565
100	0xbc65f014	-0.01403429
101	0xbc5806d4	-0.013185222
102	0x3d5e26fa	0.05423639
103	0xbcc29c40	-0.023756146
104	0x3d763e18	0.06011781
105	0x3d008d03	0.03138448
106	0x3d398646	0.04529407
107	0x3d688c40	0.056774378
108	0xbc716171	-0.0147327045
109	0x3d9310a4	0.07180908
110	0xbd3b0a16	-0.045663916
111	0x3ce64abe	0.028111812
112	0xbcc5a8b4	-0.024128295
113	0x3d6a2610	0.057165205
114	0xbc2ec8f0	-0.010668024
115	0xbb799590	-0.003808353
116	0x3d78d274	0.06074758
117	0x3cbda753	0.023151075
118	0x3d82532c	0.0636352
119	0x3d8ff0bf	0.070283405
120	0xbd00abe0	-0.031413913
121	0xbc2ab994	-0.010420222
122	0x3cce7e6c	0.025206767
123	0x3dbfd46c	0.09366688
124	0xbd727b5d	-0.05919968
125	0x3c701650	0.014653757
126	0x3d012d02	0.031537063
127	0xbc34e960	-0.011041969
128	0x3d10a382	0.035312183
129	0xbd3b4046	-0.045715593
130	0xbd8f1f05	-0.069883384
131	0xbd0f38a4	-0.034966126
132	0x3db312e0	0.087438345
133	0x3d3a6742	0.04550863
134	0xbcae1976	-0.021252375
135	0x3d83e70e	0.064405546
136	0xbbfcffa8	-0.0077209063
137	0x3c844d74	0.016150214
138	0xba3b899d	-0.000715399
139	0x3c8c74e4	0.017145582
140	0x3b3dfe14	0.0028990554
141	0x3c80c699	0.015719699
142	0xba935ea4	-0.0011243415
143	0xbce5cca8	-0.02805169
144	0xbc708d57	-0.014682136
145	0xbd841b05	-0.06450466
146	0xbc694a3c	-0.01423889
147	0xbd1c7218	-0.038194746
148	0x3ca1ddd8	0.019759104
149	0x3d5a8933	0.0533535
150	0xbcc4d77c	-0.024028532
151	0xbd3b279a	-0.045692064
152	0x3d2ebc52	0.042660065
153	0xbcb8212d	-0.022476757
154	0xbd076f0d	-0.03306489
155	0x3d7385f8	0.059453934
156	0x3d657bc6	0.056026243
157	0x3cb4bbe0	0.022062242
158	0xbb9077ec	-0.004408827
159	0xbcf87eb8	-0.030333862
160	0xbd3b6d12	-0.045758314
161	0x3c0d39f4	0.008619774
162	0x3d2f2d18	0.042767614
163	0x3cefe1fc	0.029282562
164	0x3d3583f2	0.044315286
165	0xbc6fff07	-0.014648206
166	0x3d06163e	0.032736056
167	0x3a180610	0.0005799243
168	0xbd24633c	-0.0401337
169	0xbc7ea09c	-0.015541222
170	0x3d066616	0.0328122
171	0xbc99dacc	-0.018781088
172	0xbc5789e5	-0.013155435
173	0xbd5c305a	-0.05375705
174	0xbd30b831	-0.04314441
175	0x3d660db0	0.056165397
176	0xbd84ec8c	-0.0649043
177	0xbc349825	-0.011022602
178	0xbd46b8bf	-0.04851603
179	0x3d2f6af0	0.042826593
180	0x3d15e89e	0.036598794
181	0x3cb4b350	0.02205816
182	0x3d373e62	0.044737227
183	0xbcac2fe1	-0.021018924
184	0xbd00b2b8	-0.03142044
185	0x3ca74178	0.02041696
186	0x3c2a5920	0.010397226
187	0x3cf69334	0.030099489
188	0x3d0b5503	0.03401662
189	0x3d14210d	0.036164332
190	0x3c205efc	0.009788271
191	0xbd63961a	-0.05556307
192	0x3dabd2d2	0.0838982
193	0xbd8892cc	-0.06668624
194	0x3d803d3a	0.06261678
195	0xbc8fd7f5	-0.017559031
196	0xbd35d423	-0.044391762
197	0x3d91be34	0.071163565
198	0x3b08a707	0.002085151
199	0xbcb64dec	-0.022253953
200	0xbd148238	-0.036257
201	0xbc2cadce	-0.010539485
202	0x3d767b34	0.06017609
203	0x3d50103c	0.050796732
204	0xbd825b78	-0.063651025
205	0x3c25d8d4	0.010122497
206	0x3c07b184	0.008282069
207	0xbc0ff8e2	-0.008787366
208	0xbc67af0c	-0.0141408555
209	0x3ced3154	0.028954186
210	0x3bd32855	0.006444017
211	0x3cf6385c	0.030056171
212	0x3d1edd92	0.038785525
213	0x3da77691	0.081769116
214	0xbbe9e988	-0.007138435
215	0xbd012aa2	-0.0315348
216	0x3d1158ba	0.035485007
217	0x3d6b6bdb	0.057475906
218	0xbd1c1af3	-0.03811164
219	0xbccdfcbf	-0.025144933
220	0x3d8cef07	0.06881528
221	0xbd60bd65	-0.05486812
222	0xbd785843	-0.060631048
223	0xbd3fc9d4	-0.046823338
224	0xbd867f4b	-0.06567248
225	0x3c8adbd2	0.016950522
226	0x3bf32c00	0.0074210167
227	0xbd28a201	-0.041170124
228	0xbd49e364	-0.049289122
229	0xbc0417cc	-0.008062314
230	0x3d1895ce	0.03725224
231	0xbc5c7970	-0.013456687
232	0xbc524550	-0.012833908
233	0x3bc8e7d0	0.00613115
234	0x3b281290	0.002564583
235	0xbd463534	-0.048390582
236	0x3c80dfc4	0.0157317
237	0x3da2062e	0.07911335
238	0xbcd87792	-0.026424203
239	0xbd212196	-0.03933867
240	0x3b815a2f	0.0039475183
241	0x3c6393e4	0.01389024
242	0x3d5c5898	0.053795427
243	0xbd496322	-0.049166806
244	0xbd8004d5	-0.06250922
245	0x3d6b3ad8	0.057429165
246	0x3d5de0e1	0.05416954
247	0x3c4275c8	0.011868902
248	0xbd920224	-0.071293145
249	0xbc65bab0	-0.014021561
250	0x3c5dfdc8	0.013549276
251	0xbd85b4f9	-0.065286584
252	0x3cb762ea	0.022386033
253	0x3bf657e8	0.0075178035
254	0xbd295f0d	-0.041350413
255	0x3dbfa982	0.09358503
