model_artifacts/dl_tcn_latest_21200_22700.pt (torch, 378521 bytes, 20 tensors)

net.0.weight f4 [64, 30, 3]
00000000: 0ab5 34bd 8575 ce3d a03f c7bd 6d6a f7bb
00000010: bebf 44bc b05d 12bd 261a eebd 00bf bf3c
00000020: bc96 97bb 5e59 b2bc 543d 25bd 122d 4f3d
00000030: c10a 11be 77eb d2bd e7c7 a53d 7d2b 6e3c
00000040: 09c5 a43d c35e b4bd 5e0c 11bd e6e6 b43c
00000050: dce0 003d e3d3 4bbd d456 a2bd e257 90bc
00000060: dd72 513c 7a33 7cbd 136d ae3d 8cb7 bf3d
00000070: b83b 883b 671d 983d 8624 fe3d 7cdc e63c
00000080: 783a 433c 1754 8abd 4a7b b13d 32c2 32bd
00000090: bfc7 4a3c 6608 0dbc 1a6f 06bd a5c7 863d
000000a0: 24be 3b3d 8ce2 a9bd f195 ebbc b7cd 6bbd
000000b0: b326 a5bd 0e09 d93c ca8d 153d c0b5 8e3c
000000c0: 657a 8ebd cd20 9fbd 94e5 0bbd 0e2c a03d
000000d0: d0d0 96bd a6b8 38bc c5bf 523c 77c0 96bd
000000e0: 6d33 cd3d c705 a8bc 8793 823d 8e81 523d
000000f0: 535f 0dbe b601 813c 7aa3 11bd c1c5 c23d
00000100: 50a6 36ba eac9 dc3c 375d bc3c 110c 5cbd
00000110: 75af 993d 91ed 38bb a0bd 283d 1ce2 4f3d
00000120: e0a0 a7bc e5e2 8b3d 1a67 be3c 09c5 843d
00000130: 990e a0bd f19c bb3d 9113 8bbd d922 82bd
00000140: 7b61 bd3d 4fb4 e03d 8465 623d d655 0dbd
00000150: e08f eb3c a090 2abb 32b1 223c 4c45 adbd
00000160: 8d86 873d 685c 89bc b01c ebbc 919f 493c
00000170: daed 89bc fa30 7ebd 1add d8bc da47 a4bd
00000180: e392 783d 05ea b23d 4457 a8bd 81b1 ba3d
00000190: e623 02bd c2d8 d5bd 85d7 65bd d0f1 aabb
000001a0: da35 21bd 37ed 033e d6b8 a1bd 68a2 1a3c
000001b0: 56a4 f73b 8eb7 b3bd f480 8f3b e752 0abd
000001c0: cb0f c83d 40c2 773d 8ae6 a3bc 4cc8 b8bd
000001d0: c3ba 813d 6de5 c73d d03f 73bc 324e 0b3d
000001e0: 463b a8bb 7284 c33d 98f9 6cbc 4d33 b3bc
000001f0: 7849 4d3d ad64 ba3d 8888 e13c 02cc 53bb
00000200: bbe1 a53d 896e c13c 8a65 2a3d 06ba 9c3c
00000210: 45f8 4f3c 4c3b 693d 0449 13bd e8ad 9abc
00000220: 391e 34bd 864e 14bc 17ac b83d 1ea0 9f3c
00000230: bc08 85bd c438 c83d a8b6 ec3c 4c13 cbbd
00000240: 00b3 77bc 5818 8cbc 245a 91bd 84b1 b5bc
00000250: 9cf0 953d 4088 503d 4262 fa3d 8d86 92bd
00000260: b2e2 7dbc 9893 41bd 0e0a 0f3d 68c0 7d3d
00000270: e233 a6ba c597 70bd 6092 a4bd 6fc1 6f3d
00000280: 5600 c4bc 3d24 af3d 0a68 903d 66fd e53c
00000290: 357f 883d abff 763c d24e 9c3c 1034 bcbd
000002a0: e078 3d3d d447 d0bd 46c1 5c3a 2f41 003e
000002b0: ec58 7cbd fb03 863d 8587 963c 99d9 b03d
000002c0: f8ca 423c 3755 08be 993c 8d3d 1c2f 423c
000002d0: 91fa 753d 4b75 c23d 8522 8ebd 02e6 5abd
000002e0: 92e6 bebc 90e5 f33b 7386 ab3b 5c9e 3e3d
000002f0: 2b7b 923d d9b9 0e3e 6e87 273d ce58 a8ba
00000300: 7224 043e e827 d83c bca8 21bc a54e 0b3e
00000310: 8eb2 c3bd d833 d5bc a007 ca3c 4deb 853d
00000320: 328e 9bbd d0c6 6a3d d2e0 c93d f4e9 4c3c
00000330: 8e0a 94bc 0619 b8bd 3c5b d53c 98b4 e13a
00000340: 37bd b4bd 6a4c c4bd 84a6 933b 789f c5bd
00000350: ac0b de3a 9ea2 9bbd 7e32 2e3d 283b 5d3d
00000360: e143 a8bd cd4f 993d 7ea1 2bbd e77d 44bd
00000370: 3026 b7bc 40ae cebb df84 86bd e730 cebd
00000380: fab3 4bbd f7f9 32bd ca5f b53b 002d f63c
00000390: 7194 863d edb2 adbd 913a ab3d adb2 b63c
000003a0: 6618 13bc 96ae 81bd ccb3 9bbc dc32 c53c
000003b0: dc42 82bd e7dd cb3c 248a 463c bc07 213c
000003c0: edf4 053d 10b4 2a3c f119 d03d adf6 8bbc
000003d0: 72b6 993c 235d 3ebd e611 ef3d c223 2f3c
000003e0: 4b05 bd3d 45bf 91bb 1b1e ccbd 45fb 84bd
000003f0: f590 aebc db77 c53d ee11 3a3d 0116 e9bd
-0.044117965 0.10081009 -0.097289324 -0.0075505287 -0.0120086055 -0.03573388 -0.11626081 0.023406506
-0.0046261232 -0.02177113 -0.04034169 0.05058009 -0.14164259 -0.102988176 0.08094769 0.014536736
0.08045394 -0.08807137 -0.035412185 0.022082757 0.031464443 -0.049762618 -0.079267174 -0.01762003
0.012783733 -0.06157253 0.08516898 0.09361181 0.0041575097 0.07427483 0.1240931 0.028181307
0.0119157955 -0.0675432 0.08666094 -0.04364223 0.012376725 -0.008607959 -0.0328208 0.06581048
0.04583563 -0.082951635 -0.028758021 -0.05756923 -0.08064022 0.026493575 0.036512174 0.01742065
-0.06956939 -0.07769928 -0.03415449 0.07820903 -0.073640466 -0.011274492 0.012863104 -0.073609285
0.10019574 -0.020510567 0.06375795 0.051393084 -0.13805895 0.015747886 -0.035556294 0.09510375
-0.00069675315 0.026951749 0.022993667 -0.053722445 0.07504169 -0.0028217772 0.041196465 0.050752744
-0.020462453 0.06830386 0.023242522 0.06482894 -0.07815284 0.091607936 -0.06790841 -0.06354303
0.092471085 0.10971891 0.055272594 -0.034505688 0.028755128 -0.0026026145 0.009929942 -0.08460483
0.066174604 -0.016767696 -0.028700203 0.01230611 -0.01683705 -0.062058426 -0.026472617 -0.08021517
0.060686957 0.08736042 -0.082197696 0.091158874 -0.031772517 -0.10441734 -0.05611374 -0.0052168146
-0.039357997 0.12883459 -0.07896583 0.009438135 0.007557432 -0.08775245 0.004379386 -0.033770468
0.09768637 0.060487986 -0.02000739 -0.090225786 0.0633445 0.09760556 -0.014846757 0.03401012
-0.005134019 0.09546746 -0.014463805 -0.021875048 0.050118893 0.09101234 0.027530923 -0.0032317643
0.08099695 0.023612278 0.04160074 0.019131672 0.012693469 0.056941316 -0.035958305 -0.018881753
-0.043974135 -0.009051925 0.090171985 0.01948553 -0.064958066 0.09776452 0.028895691 -0.0991579
-0.0151183605 -0.017101452 -0.07097271 -0.022179373 0.07321283 0.050911188 0.122257724 -0.0715457
-0.015495943 -0.047259897 0.0349217 0.06195107 -0.0012680257 -0.05873849 -0.08035731 0.058534082
-0.023925941 0.08551834 0.07051094 0.028074931 0.06664888 0.015075604 0.019080553 -0.09189618
0.046257854 -0.1016995 0.0008421134 0.12524866 -0.06160824 0.06543728 0.018375168 0.086352535
0.011889212 -0.13313757 0.06896324 0.011852052 0.060053412 0.09495028 -0.06940178 -0.05344201
-0.023303304 0.0074431375 0.0052345335 0.046537742 0.07152399 0.13938083 0.04090064 -0.0012843849
0.12904528 0.026386216 -0.00986689 0.1360422 -0.09555541 -0.026025698 0.024661839 0.06539021
-0.07595481 0.05731851 0.09857334 0.012506951 -0.01807144 -0.08989148 0.02604448 0.0017219959
-0.08825152 -0.09584887 0.004505934 -0.09649557 0.0016940734 -0.07599376 0.04252862 0.054011494
-0.08216072 0.07485924 -0.041902058 -0.047971632 -0.022357076 -0.0063073933 -0.06568312 -0.10067921
-0.049732186 -0.043695416 0.0055351006 0.030050755 0.06571282 -0.08481393 0.0836078 0.022301996
-0.008977985 -0.06332128 -0.019006632 0.024072103 -0.06360409 0.024886085 0.012117896 0.009828504
0.032704283 0.010418907 0.10161198 -0.017085398 0.018763755 -0.04647554 0.11673336 0.010689678
0.09229525 -0.00444785 -0.0996668 -0.06493238 -0.021309355 0.09642001 0.045427255 -0.1138115

net.0.bias f4 [64]
00000000: 2980 fcbc 847d a2bd a842 18bd d5d6 4dbd
00000010: 8bc4 693d cbb1 4ebc a16a 783d f56f 223d
00000020: efa7 35bd 9e96 0ebc b35d 4f3d 174c 023e
00000030: 340f f23d 00d0 0b3e 5615 403d 655f 0d3d
00000040: 6957 feba 2576 59bd c695 233d 0885 58bd
00000050: 79a5 dcbc a50f 64bd 90a7 9d3d 8d1a b6bc
00000060: d67e 113d a2f2 853d dab6 453d 78f8 f93d
00000070: 0010 1e3e f15c c8bc cb54 253e e994 bd3d
00000080: d4d1 533d 2442 8f3c 3ff2 cc3d f7bd 42bd
00000090: 8be1 5d3d 6d58 02bb 612b 923d 7b61 663d
000000a0: b14d af3d 5863 dc3d a00e 0a3e af49 1c3e
000000b0: 1a95 bbbb 6e94 263e 4d69 f7ba 4544 6dbc
000000c0: e550 fdbc 18ae 8a3d 4026 e93c 9065 3d3d
000000d0: f70f 20bd 404c 713c e9a6 163e 4313 cd3c
000000e0: 42d3 ef3d 2451 44bd f415 63bd 3bb5 16bc
000000f0: ac2a 0b3d a1c2 323b 39ea 043d ef7f 983d
-0.03082283 -0.079340965 -0.037172943 -0.050253708 0.057072204 -0.012615631 0.060648564 0.03965755
-0.044349607 -0.008702902 0.050626468 0.12724338 0.11819306 0.13653564 0.046895348 0.034514803
-0.0019404712 -0.053091187 0.039937757 -0.052861243 -0.026934372 -0.055678982 0.07697976 -0.022229457
0.03552135 0.06540419 0.048270084 0.12205595 0.15435791 -0.02445838 0.16145627 0.09256918
0.05171378 0.017487593 0.10007142 -0.047544446 0.054170173 -0.0019889132 0.0713718 0.05624531
0.0855974 0.10761136 0.13482141 0.15262483 -0.0057245614 0.16267559 -0.0018875987 -0.014481609
-0.030922363 0.06771487 0.028460622 0.046239436 -0.039077725 0.014727652 0.14712109 0.025033599
0.11710216 -0.047928944 -0.055440858 -0.009198482 0.033976242 0.0027276652 0.032449935 0.074462764

net.3.weight f4 [64, 64, 3]
00000000: 4c8f 1a3d c4bc 7cbb 8c27 4e3d 1ed2 30bc
00000010: 6733 a8bc fab2 3fbd b8b4 933d 894c 8abd
00000020: cc52 953b 63d1 233c 4b03 25bd ac57 5e3d
00000030: b630 0ebd 30d0 cb3c 6c15 8fbc 987f 04bc
00000040: d097 7f3c 50e8 b1bc 1e1b 423d dad9 923d
00000050: fb34 92bd b361 743a d4a2 62bd 9c36 e73c
00000060: e6b9 e63d 7e80 663d 1e44 d0bc 7c0f a63d
00000070: 6cb5 423d ee46 023d 026a 7cbc a783 85bd
00000080: ac30 53bd 97e7 da39 2698 f9bc a88e 55bb
00000090: 420c 653d d1d1 32bd 68b2 ebbc 6268 c23c
000000a0: ed63 8ebd e33e 88bd e730 593d 20fe 6d3d
000000b0: 59d4 f23c c99b bbbc a375 67bd 50f8 5ebd
000000c0: c80f c73d 94b0 debc a220 55bd 094b 6b3d
000000d0: 620d 0bbc cb1b 423c 4b8a b73c 874c 05bd
000000e0: 664c 58bd ed0a cf3c e431 813d 5bf7 6bbd
000000f0: 22e7 9f3d 4710 8abd 510b b9ba 3614 a53c
00000100: 2ce6 b93b 5c07 093c bb9e bb3c ec65 7c3d
00000110: 4ae6 1fbd 0d6d 82bb b2fa 09bc 9c54 b93a
00000120: 631d a03b 92ec 4a3d 2abf 0abc 8e71 5b3c
00000130: 4afd 67bd 244f 393c 2383 093c c226 a33c
00000140: 17fa 11bd 0c2e 7b3d 18cb 4abd 58ce 263d
00000150: b77d 083d 6625 88bb 90d0 973c 1ba7 263d
00000160: 8944 8b3d 8e0d 91bd 45de b13d de5e 6e3d
00000170: 9ca6 883c 12ad 813d 88d9 8fbc 5ef8 00ba
00000180: 4ef7 bd3d 2261 a3bc c60e bf3c d72b a93d
00000190: f2a4 903d a1d3 753d d4d7 e33c 6e31 8a3d
000001a0: d04c 553c 23a2 b33d e8d6 883d ae1e e83c
000001b0: 2424 d03d 6c17 153b d454 923d aca4 383c
000001c0: 7ab3 863d e62d a33c 0d57 2f3a 0e1e 5fbd
000001d0: 559e 5cbd d341 993c 94ee 3ebd 5ed2 d63b
000001e0: 9282 413d 2623 a0bb bb8c 89bd 18fd 263c
000001f0: d417 4a3d 4a3a 253d 7074 bd3d c25f 003d
00000200: 6e46 633d a5f2 1ebc c987 24bd 3cb4 f4bc
00000210: a28c 7d3d 0877 a13c 3a38 313d 0d88 f73d
00000220: 85f1 d53b 42fc e3bc e9a6 773c fc6b 59bd
00000230: 8a66 e63b 068f 4ebc d422 5abd b419 a83b
00000240: 95e4 a13d 708f 233d 15a4 663d b75b d23c
00000250: fe4d 34bb 568a ccbc 9c16 cf3d a3d1 82bd
00000260: 92da 37bd dbec 26bc 81c8 8ebd a27a 853d
00000270: c633 043e f06b 013d ec6b 2bbd cb9f aa3c
00000280: 971c 3c3d 5208 83bd d6f6 ce3c a414 8bbd
00000290: 260e 7cbd 6259 923d bbd0 8c3c 588e e1bc
000002a0: d9c2 fb3c e26f cbbc 28f2 853d e7a3 013d
000002b0: c2ab 5c3d 2ed4 9abc b2f8 25bd e822 f73c
000002c0: 3a1f 413b a181 7b3d 793c 7abd fec7 53bd
000002d0: 3139 b13d ca23 633d 4c05 29bd 3490 213d
000002e0: ae47 143c 7803 53bd 1c6b 9b3c f25d 753d
000002f0: 6db1 85bd ff90 dfbc 8a4d 943c ca9c 5abd
00000300: 9c15 9fbc e8c1 793d ecd3 453d 87a2 dc3c
00000310: 28ea 6cbd 79dc 923d 5e09 613d 0254 9bbc
00000320: 7bd9 80bd 5acc 943d 2916 fc3c ceb4 7a3d
00000330: ad3b bf3d aa6c 37bd db0f 49bd 79c9 823b
00000340: 89d5 fb3c 12d5 883d 2536 063c 6886 763d
00000350: 1830 c93b fb36 81bc aad5 d33c 04bb f53c
00000360: db23 d93d 8d19 8bbd c6de 5ebd 2780 04bd
00000370: 2fec 88bd e48f 05bd ed41 19bd 0ecc 3ebd
00000380: 9aba 4d3d 6cd1 d23d 853b 883d fb1c 91bd
00000390: 52c0 d7bc b42a 93bd a042 1c3d f759 eebc
000003a0: 7b85 5dbc 5859 0a3d 955a 903c b5a7 05bd
000003b0: 0466 7dbd 2dae 903c 8c63 a5bc c4bc a33c
000003c0: 4a59 6b3c 6c97 93bc 0023 f63c 17e4 0a3d
000003d0: 4c7d 183d 22ee 353d 51bb a83d e2da 79bd
000003e0: 763c 8b3d fc8b 563d ee6d d3bc a4fc 50bd
000003f0: c7f1 44bd e479 92bc cc15 33bd 8d4d 21bd
0.037734315 -0.0038564662 0.050330684 -0.010792283 -0.020532323 -0.046801545 0.07212204 -0.06752879
0.0045569893 0.009998652 -0.040286344 0.05428283 -0.034714423 0.024879545 -0.01746627 -0.008087061
0.01560016 -0.02171722 0.047389142 0.07170458 -0.071390115 0.00093224196 -0.055331066 0.028224282
0.11265926 0.056274883 -0.025423106 0.08108422 0.0475363 0.031805925 -0.015406134 -0.06519251
-0.05156009 0.00041752748 -0.030468058 -0.003258625 0.055919893 -0.043657128 -0.028771594 0.023731414
-0.06952653 -0.0665262 0.053025153 0.05810368 0.02964227 -0.022901433 -0.05650867 -0.054436028
0.09719807 -0.027183808 -0.052033074 0.057444606 -0.008487077 0.011847447 0.02240481 -0.032543685
-0.052807234 0.025273765 0.06308344 -0.057608943 0.07807757 -0.06741386 -0.0014117752 0.020151239
0.0056731906 0.008363571 0.022902837 0.061620638 -0.03903798 -0.003980285 -0.008421587 0.0014139595
0.0048863157 0.049542017 -0.008468429 0.013393773 -0.05663804 0.0113103725 0.008393082 0.019915942
-0.035638895 0.06132321 -0.04951009 0.04072413 0.033323016 -0.004154849 0.018532068 0.040686708
0.068001814 -0.070826635 0.08684973 0.05819594 0.016681008 0.06331839 -0.017559782 -0.0004919822
0.09275685 -0.019943777 0.023322474 0.08260315 0.07062711 0.06001628 0.027812876 0.06747709
0.013018802 0.087711595 0.06681615 0.028334942 0.10163143 0.0022749556 0.07145086 0.01126973
0.06577201 0.019919347 0.0006688692 -0.05447202 -0.053861935 0.018708145 -0.046614245 0.0065558394
0.047243662 -0.0048870025 -0.06716295 0.010192178 0.04933913 0.040338792 0.09250724 0.03134132
0.05548709 -0.009701406 -0.040168557 -0.029871099 0.061901696 0.019710079 0.043266512 0.120864965
0.0065290355 -0.027830247 0.015115478 -0.053081498 0.0070312666 -0.012607342 -0.05325587 0.005130017
0.07904927 0.039931715 0.056308825 0.025678499 -0.0027512307 -0.024968307 0.10111734 -0.06387641
-0.04488618 -0.010188307 -0.06971837 0.06517531 0.12910375 0.031597078 -0.04185097 0.020828148
0.045925703 -0.06398071 0.025264185 -0.06791046 -0.06153693 0.07145955 0.017189374 -0.027533695
0.030732559 -0.024833623 0.06540328 0.03165045 0.05387474 -0.018900003 -0.040520377 0.030168012
0.0029468075 0.06140292 -0.061092827 -0.0517044 0.086534865 0.055454053 -0.041264817 0.039444163
0.009050293 -0.05151698 0.018971972 0.059904046 -0.06527982 -0.02729082 0.01810338 -0.053372182
-0.019419484 0.06097594 0.048297808 0.026932968 -0.057840496 0.07170958 0.054940574 -0.018960956
-0.06291481 0.072655395 0.030772286 0.061207585 0.09337554 -0.044781365 -0.049087387 0.0039913026
0.03074147 0.06681265 0.00819162 0.060186774 0.0061397664 -0.015773287 0.025858719 0.029996403
0.10602542 -0.06791983 -0.054411672 -0.032348778 -0.066856734 -0.032607928 -0.037416387 -0.04658132
0.050226785 0.1029385 0.066519774 -0.07085606 -0.026336823 -0.07185879 0.038149476 -0.029095633
-0.013520594 0.03377661 0.017621318 -0.03263064 -0.061864868 0.017661178 -0.02018907 0.019987471
0.01436455 -0.01801654 0.030045986 0.03390893 0.037228867 0.044416554 0.08238853 -0.06099976
0.067986414 0.052379593 -0.025809254 -0.051022187 -0.04808214 -0.017880388 -0.04372196 -0.0393806

net.3.bias f4 [64]
00000000: 355f 7f3c 28a2 4abb ea22 a83d 5d3d 253d
00000010: d600 ce3d 23ec 2c3b c11e 3e3b 7d84 453d
00000020: 8fd6 883d c6dd 1abd 84f1 b23b a6ba afbb
00000030: 5f36 4a3d 5c0a a83d aaed c63d 56c2 bb3c
00000040: f6fe 323d c046 0a3d 9969 483d 297c d43d
00000050: 27e5 d23b 0dcd 5e3d 2004 a33d 65c0 943d
00000060: 1cd9 483c 1fbb 4a3c fcaf 61bd 414f a93d
00000070: 448a 21bd 7e33 4b3d 76d0 de3c 2fa4 6f3c
00000080: 0fec 863d 6312 e13c 1e59 f73d bc71 3f3d
00000090: ce88 a03d 334f 873d 9b9a 653d 180e b63c
000000a0: e825 6b3d 9f04 be3d 9169 293d ca39 103d
000000b0: 8e27 ae3d c47d 453d 88b9 dc3d f144 7b3d
000000c0: d601 3abb 141c 913c dc10 b23c 6d1b a73d
000000d0: 1ebe f13d 3e8d 7fbd e543 96bc 1fde b53c
000000e0: 6d29 493d da3d bd3d 85a9 273d b3e5 413d
000000f0: d425 7c3d 95c1 7c3d edb0 193d 1e64 973d
0.015586664 -0.0030919407 0.08209784 0.040341724 0.10058753 0.0026385866 0.002901003 0.048222054
0.06681549 -0.037809156 0.00546092 -0.0053628264 0.04936826 0.08205101 0.097132996 0.022919815
0.04370018 0.03375888 0.04892883 0.10375244 0.0064360085 0.05439477 0.07959771 0.07263259
0.012258794 0.012373715 -0.055099472 0.082670696 -0.0394385 0.049609654 0.027199011 0.014626547
0.06587993 0.027474588 0.12077545 0.046739325 0.078385934 0.06606903 0.056055646 0.022223517
0.057409197 0.09278225 0.04136044 0.035211362 0.08503638 0.048215643 0.10777575 0.061345045
-0.0028382442 0.017713584 0.021736555 0.08159528 0.1180384 -0.06239056 -0.018342922 0.022200642
0.049111772 0.09240313 0.04093315 0.0473382 0.061559513 0.06170805 0.037522245 0.07392143

net.6.weight f4 [64, 64, 3]
00000000: 1617 863d 9c20 cabc f7ec 07bd 8e45 15bd
00000010: c25c 2fbd d817 85bc 9571 753d d8b6 413d
00000020: ecf5 53bd 0adf 323d 426d ffbc 5628 413d
00000030: 844f 5c3c 40fb 5fbd 26aa b8bb 1fa5 493d
00000040: 58d5 a3bc 18a1 183b a38a 4a3c 58e9 45bd
00000050: fce1 14bd 9fbc c63c 36f7 6e3d 2005 2fbd
00000060: eee5 acbc 2dfa 0cbd 230a 3bbd 99fe bb3c
00000070: 2e6f 253b 4a49 b6bc 45cd 69bc 2456 56bd
00000080: 930b 8fbd fe71 dc3c 12fe 6dbd a923 423d
00000090: a456 f1bc 24af 703d f3e6 6abd a302 953d
000000a0: 0b8e 3bbd 5ecc 78bc 7f03 ec3b d245 b53c
000000b0: 5d97 433c d989 25bd 0a15 ccbc 367f 293d
000000c0: e3d4 823b 7688 803d f7ef 86bd 1f46 343d
000000d0: e029 5e3d 8acd 713d d467 783c bdbb 6abd
000000e0: 7072 15bd a511 843d 1467 bd3c 0297 113d
000000f0: 4f52 c1bc e010 84bd 6ce5 c7bc cc44 bb3c
00000100: 12e7 683d 2220 233d 453f 35bb 3eed 86bd
00000110: 22a2 373d d6f3 e33c 0a04 813c bf29 87bd
00000120: 5024 193d 9ac9 3ebd 5ab5 27bd 0636 333c
00000130: c40d 3dbd 88cd 4e3c 988c 13bd 6ccc ea3b
00000140: 2078 2aba 88d2 613d 3ebd 713d 250b 5abd
00000150: e72e 2c3d 3ee5 263d 349f 763c 3ead 2c3d
00000160: 12bd fabc 6011 5bbb 0e3d 573c 64c3 323d
00000170: e0f0 733d 9143 25bd fc58 86bd 309f 733c
00000180: 81f0 92bc 7c60 93bd 3cb9 2abc 868d 09bd
00000190: 1051 a8bc ee15 fb3c d913 8b3c f4e1 26bb
000001a0: be04 94bc bfde 403c 12c9 77bc 089c 4ebd
000001b0: f6f6 0abd e80a 5b3c 8106 78bd 9937 eeba
000001c0: 7419 8b3d e4dc 8ebb 5c55 5c3c 7082 cfba
000001d0: 2c5c 78bd ab30 b23d 08ee 5ebc 7a2f e63b
000001e0: 5808 eabc 38cf 693d cc10 95ba ace7 ac3d
000001f0: 3bf2 8fbd 95a8 1abd 1410 2f3c 47f1 8cbd
00000200: bf6c 3dbd 1e0d 0a3d 8a50 df3c 9477 5e3c
00000210: df7c 5fbc 0c10 70bc e11d bfbc a2e5 c03d
00000220: d968 943c 6a95 4b3d d8b1 fd3b a442 61bc
00000230: e19b 43bd 6482 9e3c da6f 6c3d 42e7 0bbd
00000240: e3cb 243c fbc7 74bd ce5b e6bc a71a 3fbd
00000250: a66e 443d 60c4 9b3c 6bf9 2abc c600 64bd
00000260: 1613 503d 90d1 8fbc 7cb4 23bd 082b 8ebd
00000270: 6e95 d5bc 587c 203d 9001 39bd 934f 8b3d
00000280: a844 493d d7a4 1cbd b155 9a3d 9c79 a0bc
00000290: 4dd8 86bd d444 23bd 8c68 e73c 4ff6 ef3c
000002a0: 9690 b43a d29e 363d 043d 583c f71f 933c
000002b0: cc50 29bd c87f 2abd aedb 963d 2cf2 5db9
000002c0: 10fc 26bc 5ff0 663d 36d1 803d 89a6 233b
000002d0: 4886 21bd f0b9 e8bc adb8 493d aba3 dbbc
000002e0: f68c b83b 87d3 6cbd e343 933c ed71 84bd
000002f0: f818 3dbc fe8c 303d f810 f1bc a093 2dbd
00000300: ed09 af3d 54a3 823d f205 8abd cb51 773d
00000310: 98e7 8fbd 4aac 723d 529f ad3d caa3 b83c
00000320: 107a 0abd 52b7 d53d 0ecf 7d3d e312 19bd
00000330: 3eac 533c 6ce3 b33c 342d e4bb 98ce a03d
00000340: 7410 6ebc 2c47 a1bb 5cee 6e3d 9d92 4fbd
00000350: 1ecd 003b 8185 f33d 0d29 4ebd 1c63 8c3d
00000360: 9285 84bc fc21 3abd ca6a 8d3d 94e3 fdbc
00000370: 7208 5abd 6a24 633d 3852 0d3d 3008 253d
00000380: 884c 883d a4bb 94bc 90b7 c63c 7a72 c7bc
00000390: 769b a03d b662 f4bc 5ad2 a7bc b137 05bd
000003a0: 1670 383d 3c8d 4dbd 10d5 b43d 6cbf adb8
000003b0: 3597 86bd 0013 0b3d de60 663d bea9 393d
000003c0: b2dc edbc 5554 24bd b8d1 5a3d b4ce 323d
000003d0: e44d 583d 5214 2b3d c2c8 893d 9e27 373d
000003e0: 68c9 e2bc 25ed 563d b1d2 79bd 78bb 123c
000003f0: fcb3 043c 326f 893d 60ac 7c3d 6224 133d
0.06547372 -0.024673752 -0.03318497 -0.036443286 -0.04281307 -0.016246721 0.059922773 0.047293514
-0.0517482 0.043669738 -0.031180028 0.047157608 0.013446692 -0.05468297 -0.0056355176 0.049229737
-0.019999191 0.0023289379 0.012362155 -0.048318237 -0.036348328 0.024259863 0.058341227 -0.042729497
-0.021105733 -0.034418274 -0.045663964 0.02294855 0.002524327 -0.022251744 -0.0142701315 -0.052328244
-0.069846295 0.026909824 -0.05810363 0.04739729 -0.029460259 0.058760777 -0.057349157 0.072758935
-0.04578976 -0.015185444 0.007202565 0.02212802 0.011937943 -0.040414665 -0.024912376 0.041381083
0.003992663 0.06276028 -0.065887384 0.044012185 0.054239154 0.059033908 0.015161473 -0.057307947
-0.03648609 0.06448678 0.02312044 0.035544403 -0.023598818 -0.06448531 -0.024401389 0.022859953
0.05686099 0.039825566 -0.002765612 -0.06588219 0.044832356 0.027826231 0.015748996 -0.06599759
0.037388146 -0.04657898 -0.040944435 0.010938173 -0.046155706 0.012622245 -0.036022753 0.0071654823
-0.00065028854 0.05513242 0.059018366 -0.053233285 0.042036917 0.040745966 0.015052605 0.042157404
-0.030607734 -0.0033427104 0.013137115 0.04364337 0.05955589 -0.04034764 -0.06559941 0.014869496
-0.017936947 -0.07196137 -0.01042014 -0.033582233 -0.020546466 0.030650105 0.016977238 -0.0025464268
-0.018068668 0.011771857 -0.0151236225 -0.05044177 -0.033926927 0.0133692995 -0.060553078 -0.0018174528
0.06791964 -0.0043598283 0.013448086 -0.001583172 -0.060634777 0.08700689 -0.013606556 0.0070247026
-0.028568432 0.057082385 -0.0011372804 0.084426254 -0.07028624 -0.03775843 0.010684986 -0.068819575
-0.046246286 0.033703916 0.027260084 0.013578314 -0.013640611 -0.014652263 -0.023329677 0.09418799
0.018116402 0.04970304 0.007742148 -0.0137487985 -0.04775608 0.019349284 0.057723857 -0.03415609
0.010058376 -0.05976103 -0.028119948 -0.046656277 0.047957085 0.019014537 -0.010435442 -0.0556648
0.05079945 -0.017555982 -0.039967045 -0.06941801 -0.02607223 0.039181083 -0.045167506 0.06802287
0.04913774 -0.03824314 0.075358756 -0.019589238 -0.06584225 -0.03986056 0.028248094 0.029292254
0.0013776 0.044585057 0.013198141 0.017959578 -0.04133682 -0.041625768 0.07366119 -0.00021166418
-0.010191932 0.05638158 0.06289904 0.002497109 -0.0394347 -0.028408974 0.049248386 -0.026811441
0.005632038 -0.057818916 0.017976707 -0.06467042 -0.011541598 0.04310321 -0.029427037 -0.042377114
0.08546815 0.063788086 -0.06739415 0.06038074 -0.07026595 0.05924634 0.084776536 0.022539038
-0.033807814 0.10435356 0.06196504 -0.037371527 0.012919484 0.02195903 -0.0069633964 0.07851905
-0.01453029 -0.0049218144 0.058332786 -0.05067693 0.001965351 0.11890698 -0.050332118 0.06854841
-0.016176973 -0.045442566 0.06905134 -0.030992307 -0.05323071 0.05545465 0.034502238 0.04029101
0.06655222 -0.01815588 0.024257451 -0.024346579 0.07842152 -0.029832225 -0.020486046 -0.032523815
0.04502877 -0.05018352 0.08829701 -8.284938e-05 -0.06571809 0.033953667 0.056244723 0.045327894
-0.0290359 -0.040119488 0.05342266 0.04365416 0.052808657 0.041767426 0.06727745 0.044715516
-0.027683929 0.052472252 -0.060991947 0.008955829 0.008099552 0.06710662 0.061687827 0.03592337

net.6.bias f4 [64]
00000000: 9308 813d 29d7 2e3d d795 81bc 402e 9c3c
00000010: 69a3 71bc 3747 a53d 5c4f 1d3d cea5 043e
00000020: 4a61 6f3c bc32 ed3d ef0f 9c3c a058 923d
00000030: 0116 253d 604d 1b3d c706 0cbc 4841 5abd
00000040: ed70 a73c d6bf 0bbd 4acc d43d efd8 003e
00000050: 723b 86bd cd8a e43d 6dfe 7dbd 4b02 1a3d
00000060: 2ded 0b3e e3d4 aebc e205 b6bb ba4c b63d
00000070: 3baf a83d 0d6c 2b3d 0ac9 873d cdd0 c33d
00000080: f295 3e3b 6d14 383d 7f47 f83c 2f5e 973d
00000090: f868 de3d 6ffa 75bd 0180 4b3d f913 05bc
000000a0: 34dd d03d f7fe 873d fd48 303d 4b88 0fbc
000000b0: b65b d43d 2471 f53d 7a15 49bd 807e bb3d
000000c0: 388e cd3d 3ace c33d 1d26 613d 03ef 6739
000000d0: 2890 1e3d 4d93 703d feb8 913d 1476 003e
000000e0: 6e93 c33c e04f ba3d f72f b63d 1e1d c33b
000000f0: 4b2b 0a3d 04b7 d83d a733 ca3d f4c5 64bd
0.063004635 0.04268566 -0.01581852 0.019065022 -0.014748433 0.08070224 0.03840576 0.12953874
0.014610598 0.115819424 0.019050566 0.0714581 0.040304188 0.037915587 -0.008546538 -0.053284913
0.02043959 -0.034118496 0.103905275 0.12582754 -0.06554307 0.11159287 -0.062010217 0.037599843
0.13664694 -0.021341747 -0.0055549005 0.08901353 0.082365476 0.041851092 0.06630142 0.0956131
0.0029081074 0.044941355 0.03030753 0.07391011 0.10859865 -0.060053285 0.04968262 -0.008122438
0.10198441 0.066404276 0.043038357 -0.008760522 0.10369055 0.119844705 -0.049092747 0.09154987
0.10036892 0.09560819 0.05496799 0.00022118916 0.038711697 0.058734227 0.071153626 0.12545043
0.02387401 0.09097266 0.08895867 0.005954399 0.033732694 0.105817825 0.09873133 -0.055852845

net.9.weight f4 [64, 64, 3]
00000000: 8663 913d 2a7e a93b a5c8 2cbd f19e a63d
00000010: 88cf 8c3d 9633 3dbd b70c 4d3d 9e58 193b
00000020: 6e78 593d 7f05 3e3c b445 343c 0a62 6fbd
00000030: 1321 4f3c b200 3a3d c466 1bbb 04a8 da3d
00000040: cc45 cabc 8819 553c 55cb 253c 2013 c3bb
00000050: ac52 413d 07d5 28bc 9f46 883d aa5a 183d
00000060: 7dbf 95bc 4e77 22bc 1246 abbc 1591 e23d
00000070: 6edf 51bd 625b 6dbd da5d 2dbc 944d 0fbb
00000080: 18a5 a13c 089c bb3b 752a 10bd bc73 0b3d
00000090: 87e2 093c 26e7 19bc d63d 9bbc 986c 9a3d
000000a0: 0a6a 6cbc 6821 063c a38e 3dbd 3ab6 3f3d
000000b0: b4aa 3f3b 566f c03c cd69 08bd 2e9e 773d
000000c0: fbef 873d be55 90bc 3a33 5bbd f022 4fbb
000000d0: fe70 7b3d aed4 803d ffd4 dabc fc32 bf3c
000000e0: 58a9 ccb9 22a6 343d a695 1e3d 5a7b 8b3d
000000f0: 4ff1 183d d0c0 573d 6c87 8b3d eebb 1f3d
00000100: ba1c c1bb f2a8 8f3d 2caf a63d 0a59 84bb
00000110: c202 46bd 23f6 1fbd 6bff 89bd 318c 08bd
00000120: 1b32 cb3d ec71 273c 5699 f53c 4528 d1bb
00000130: da19 543d 5d3a 8fbd 6339 753d aa6f 2cbc
00000140: e2f5 833d 9e46 6e3d 981a 81bc 4818 9fbc
00000150: 3d67 393d fac2 823d 20b8 85bc a716 b43c
00000160: 125e af3a 2046 4f3c 48f0 713d e968 59bd
00000170: 868f 313c fbf5 833d c850 013d 1451 15bc
00000180: c567 873c 0ac0 5cbc 7ebf bb3c d8dd bc3d
00000190: eac3 3c3d 597f 8cbd 8a4f 923d 5782 03bd
000001a0: c6de 4abc 29df 473d 8757 aebc 9852 11bd
000001b0: a170 9e3c 66d0 a23c f6db 51bd 2d00 103d
000001c0: e9de 15bd ae00 8a3c ae57 ad3c f11d 3f3d
000001d0: 5bf5 febc 1e60 e13c 707d 12bd 6e8c 63bc
000001e0: 8dfb acbc 3d16 5f3d 4840 c93c b647 85bc
000001f0: b2ee 64bd 987a 46bd 560c 953c d59e e9b9
00000200: 1088 3cbc 8d5f 9e3d 90e8 303d 7070 e13c
00000210: 2238 c03c a472 5d3c 22cb aebc f8bd 6f3d
00000220: 965b dd3c e882 303c 2f6c 603d 5cfd bdbc
00000230: 5887 483c b93c 4b3d f873 89bd ee0a 6c3d
00000240: 6551 5c3c b9df 2f3d 1eed 3bbd 26e1 8dbc
00000250: d5a8 08bd 41d7 8abd 27a0 753d f09e d23c
00000260: e69d 123d 08bd 563d 006b 45bc 16f4 4e3d
00000270: 2c85 fa3c c84f 7d3d 34b6 4cbd d2af 6b3c
00000280: 0440 83bd 1e21 6c3d e837 ae3d dc59 3abb
00000290: 765c 9d3c a8c9 053d f9d9 1abd 1c3f 40bd
000002a0: 0c3e a2bc a25e 6c3d 24bd 063d 1ab7 d93d
000002b0: f062 933d ecf4 6dbc f1d7 113d 243d a73b
000002c0: 40c9 123a 40c2 04bd b82b 2b3d b050 cc3c
000002d0: 6456 6b3c 4f6e 7dbd 1792 a03c 5e64 873d
000002e0: 6aa7 65bb 1a5a 30bd a6e5 733d 2256 9cbc
000002f0: 26a5 1cbd aaab 3f3d 6abf 683d bac0 7d3d
00000300: c0ed 0d3b 0c92 52bd 4f28 a83c 252a e03c
00000310: 3a22 90bb f299 df3c 5d58 533d 62ae 3b3d
00000320: 162b 053d 0c5d 603d 510a 3bbd d015 b739
00000330: a6bb 1abd e2fc a5bc a00a ae3c 2e9c fa3c
00000340: 2005 2cbd 15cf e93c db63 b43d a4a3 013d
00000350: c82a d7bc 32eb 973d e312 483d 30e4 8ebc
00000360: 86e8 ae3d 901e a83c c34f ee3c 1205 8bbc
00000370: ef82 97bc 8076 4a3d f392 8f3d 48f7 193d
00000380: ec11 103d faf4 c3bc 82ac 0a3d 600d 2abb
00000390: 043f bdbc 7884 4ebd 7865 9dbc 5033 113d
000003a0: d026 36bb 3e85 933c 1f9d edba 90ca 6bbd
000003b0: 601d b2bc 7844 68bc 8062 823d c01f 3d3c
000003c0: cf86 813d 8cc2 62bd a67a 873c b12e 7bbd
000003d0: a212 9a3c 5eed e6bc 8906 983d 3c67 423d
000003e0: 769e c6bc 08ee ffbc 227d 5f3d fe75 003d
000003f0: a517 8c3d 981d 38bd 969c 353d e855 d9bb
0.07099061 0.0051725106 -0.042183537 0.081357844 0.06875521 -0.046191774 0.050060954 0.0023398767
0.053093366 0.01159799 0.011002947 -0.058443107 0.012642163 0.04541082 -0.0023712376 0.10676578
-0.024691485 0.013006575 0.010119279 -0.0059532076 0.047197983 -0.010304696 0.06654095 0.03719584
-0.018279785 -0.00991614 -0.020907436 0.110628285 -0.05123847 -0.057948478 -0.010581458 -0.0021866309
0.019732043 0.0057253875 -0.03519674 0.03404592 0.008415825 -0.009393489 -0.018950384 0.07540244
-0.014429579 0.008186676 -0.046278607 0.046804644 0.0029246034 0.02349059 -0.033304024 0.060453586
0.066375695 -0.01761901 -0.05351565 -0.0031606518 0.061387055 0.062905654 -0.026712893 0.023339741
-0.00039036083 0.04410375 0.038716935 0.06810637 0.037339505 0.052674115 0.06812939 0.038997583
-0.005893317 0.07014646 0.0813888 -0.0040389346 -0.048342474 -0.039053094 -0.0673817 -0.033336822
0.09921666 0.010220032 0.029980343 -0.0063829743 0.051782466 -0.06993554 0.05986918 -0.01052467
0.06443383 0.058172815 -0.015759751 -0.019420758 0.04526447 0.06384845 -0.01632315 0.021983458
0.0013379476 0.012650996 0.05906704 -0.053078566 0.010837441 0.064434014 0.03157118 -0.009113569
0.016528973 -0.01347352 0.022918459 0.09222001 0.046085276 -0.06860227 0.07144077 -0.032106724
-0.012382215 0.048796806 -0.02128197 -0.03547916 0.019340815 0.019874763 -0.05123516 0.035156418
-0.036589537 0.016846027 0.021159973 0.046659414 -0.031122854 0.027511653 -0.035764158 -0.0138884615
-0.021116043 0.054464567 0.024566785 -0.016269546 -0.0558917 -0.04845676 0.018194359 -0.00044559562
-0.011507049 0.077330686 0.04319054 0.027519435 0.023464266 0.013516102 -0.021337096 0.058530778
0.02702121 0.010773398 0.054790672 -0.0231921 0.0122393 0.049618457 -0.067115724 0.05762761
0.01344714 0.042937968 -0.04588043 -0.017319273 -0.033364136 -0.06779338 0.059967186 0.025710553
0.035795115 0.052426368 -0.012049437 0.050525747 0.03058108 0.061843663 -0.04997845 0.014385181
-0.064086944 0.05764877 0.08506757 -0.0028434908 0.019209128 0.032663018 -0.03780553 -0.046935186
-0.019804977 0.057707436 0.032895222 0.10630627 0.07196605 -0.014523726 0.03560633 0.005103724
0.00055994466 -0.032411814 0.04178974 0.024940819 0.014363859 -0.061872777 0.019600911 0.066109404
-0.0035042414 -0.043054678 0.05954518 -0.01908404 -0.038243435 0.04679457 0.05682317 0.061951376
0.0021656603 -0.051408812 0.020527033 0.027363846 -0.0043986114 0.027295087 0.05159794 0.0458206
0.032511793 0.054776236 -0.045664135 0.00034920732 -0.03777661 -0.020262185 0.0212453 0.03059205
-0.041997075 0.028541127 0.088081084 0.0316502 -0.026265517 0.07417907 0.048846137 -0.017442793
0.08540444 0.020522386 0.029090768 -0.016970191 -0.018495051 0.049429417 0.0701045 0.03758934
0.03517334 -0.023920525 0.033855923 -0.0025947914 -0.023101337 -0.0504193 -0.019213423 0.035449326
-0.002779413 0.01800787 -0.0018128491 -0.057566226 -0.021742523 -0.0141764805 0.06366444 0.011543214
0.06324541 -0.055361316 0.016537976 -0.061323825 0.018807713 -0.028189357 0.074231215 0.047461733
-0.024245482 -0.031241432 0.054562695 0.031362526 0.06840447 -0.044950098 0.044338785 -0.0066325553

net.9.bias f4 [64]
00000000: 7920 f03d ff9b 9c3d 10f6 fe3d ad7b 043e
00000010: ea65 f9bc 22cb 1fbd 58b6 003e 9332 133e
00000020: b9bb 053d c3fe a6bd 6e2a a13c 6b2b 23bd
00000030: 8420 9dbb 238e c03d e0ca 993c 3c16 d53d
00000040: a089 b93d 66ef 4ebc 237e 7d3c 5852 7e3d
00000050: 95c2 a33d a9be 123e cb63 99bc a2cb 823d
00000060: c082 d43d dc1d 023e 75a2 a03d 44e0 be3d
00000070: 1810 1abd ded0 ff3b 81c5 54bc 104f 283d
00000080: 7838 d43d 4e9a 373d 43ea b93d afb9 28bd
00000090: 04a3 113d b3cf fc3d 9403 583c caad 973d
000000a0: 9801 8fbd 727b 1ebd 0b2b 033e 71aa 9c3d
000000b0: c5d3 073e ed27 f33d d587 033e 74d5 733b
000000c0: f8bc 9d3d 41dd dcbc 8240 a4bc 90bb 3fbd
000000d0: f91c a23c 76e1 8abc b33a c23d fad9 443d
000000e0: 6cc0 693d a5bb 0d3e c233 dd3d 20f3 943d
000000f0: 394d 56bb 3ba2 df3d 13b5 883a b61d c73d
0.11724944 0.076469414 0.124492764 0.12937804 -0.030444104 -0.039012082 0.12569559 0.14374761
0.03264973 -0.08154061 0.019673552 -0.03983633 -0.004795136 0.094021104 0.018773496 0.104046315
0.09059453 -0.012630319 0.015471968 0.062090248 0.07996098 0.14330544 -0.018724343 0.06386496
0.10376501 0.12706703 0.07843486 0.09320119 -0.037613004 0.0078068813 -0.012986542 0.041091025
0.10362333 0.04482489 0.09077885 -0.041192707 0.035555854 0.12344303 0.013184447 0.074061945
-0.06982726 -0.038691945 0.12809388 0.076496966 0.13264377 0.118728496 0.12844785 0.0037206085
0.077020586 -0.02696097 -0.020050291 -0.046809733 0.019789206 -0.016953211 0.09483852 0.04805944
0.057068273 0.13841112 0.10800888 0.07272935 -0.0032699837 0.10919615 0.0010429941 0.09722464

net.12.weight f4 [64, 64, 3]
00000000: f461 a13d 6cf9 803d c807 6fbd 7510 1ebd
00000010: f8a2 373d 1600 88bb cf5b dcbc e881 8bbd
00000020: 24cd c7bc d131 c43d 50ef 47bd d85d 49bb
00000030: 9866 ba3c 3cec 9dbc 338d 543d e1cf 373d
00000040: 8005 143d daf7 713b 0450 a73d d09b 4e3c
00000050: 345d 933d eb18 713b 5080 18bd 9826 673d
00000060: 3770 f1bc 4485 8c3c c40f 833b 46c3 37bc
00000070: a432 93bc 32d5 3f3d af89 073d 0cf4 a33c
00000080: 80aa 893c c1ce 85bc f8e1 523d e2a0 873d
00000090: 53c5 febb 6a72 56bc 9abb febc 4f72 cc3d
000000a0: 6e22 063d 2dac a9bc 894a 7fbc 51e9 383d
000000b0: 5e42 c4bc b49d 943c 205d 1a3d 260b 34bd
000000c0: fe11 563d 94bb d9bc cc01 5e3d 57e8 ca3b
000000d0: d04a 62bd f9f7 febb 6cb3 703d a7d3 f23c
000000e0: 9274 2f3b 3f10 f3bc 4ca8 1a3d 04b5 32bd
000000f0: fcf0 a23d d81b 6e3d e2ae f8bc 8da0 893d
00000100: 1835 4b3d 445b 2f3d 4ee1 883c 1437 1f3c
00000110: 9adb 4a3d 6ca0 c33d 403f 5cbd a51f 15bd
00000120: 84b7 1b3d c1d8 59bd 6e76 133d efea 963d
00000130: f482 acbc 466f 423d e29f 743d febb cab9
00000140: a812 6e3d 7247 003d d060 66bd aace 773c
00000150: 5065 2bbc 1854 1c3d 900c 30bd 7e39 a0bb
00000160: 5c70 e5bc 9a34 b5bb e8bb 553b dcf7 b9ba
00000170: 49b0 4cbd 6926 2abc 8283 93bd 1857 ff3c
00000180: 77df 813a 553c 3fbc 1208 31bd 245c 473d
00000190: f208 8cbd 1b61 313d 13a4 ca3c f6b6 143d
000001a0: 8af3 3a3d 222f 0dbd 14b7 0f3c ce07 44bd
000001b0: 25f4 58bd 9ab7 783d 6693 51bd adfd 363b
000001c0: 569b 4c3d 3ac7 623d a73f 83bb b5f8 0fbd
000001d0: c03d 9e3c 218e 863d a855 eabc 2684 833d
000001e0: 3221 163d 2dac 89bd a1c8 32bd 0fb5 2cbd
000001f0: 20f6 1e3d d664 933b f1b8 cd3d 52d0 ca3c
00000200: 2781 5abd d631 21bd 1ab5 a83c d4bf c23c
00000210: 81d9 953c 7ae3 7d3c 604f aabc a088 c03d
00000220: 1878 a6bc b2f4 c43c 2c2e c83d e24d 473c
00000230: 28e9 8b3a 2842 4e3d 466a 933b 8297 e9bb
00000240: 3529 253c de6d 56bc a41e 2abc 5cbd 73bc
00000250: e44f 92bd 9854 76bc bbd0 17bd 7e6b 843d
00000260: b5c0 803b 5ac8 37bd c2df 53bb 186e 7a3d
00000270: 2b66 a33d f598 25bd 70e0 7abd 4908 46bd
00000280: 3b81 b43c ba4c 10bc 0a19 713b f0e9 7cbd
00000290: b6f6 003d 8df7 d63c caaf 25bd f8ef 603a
000002a0: 1698 fd3c f088 e2bc 7b8e e33c 1514 c93d
000002b0: 26fb 813c a3ea 8ebd a754 14bd 6e1a 87bc
000002c0: 9b3a 88bd acdb f03c d713 80bd 4048 743d
000002d0: 3403 28bb ba15 e6bb 2011 3b3d 2c11 833d
000002e0: fb33 823d 20bc 733b fb35 17bd c62c 5a3d
000002f0: 2048 72bd 2810 ae3d 81e2 2fbc 7244 173c
00000300: 1d56 c4bc 1079 40bb 4e2f 193c bced 463d
00000310: 88a3 e2bc c23a 303d e439 123d d422 65bc
00000320: 20b8 18bd d15e 73bd 10ee 133d 0aef ae3c
00000330: be60 573d 341c 153d b12f 50bd 2cc3 dd3c
00000340: 208d 2f3d 4c0a 683d 9ce7 213c 22cc 7a3d
00000350: 807d 5e3d f855 a4bc 1698 d03a 34da 8f3c
00000360: b06e e3bb 62de 773d 2c0f 28bd 286c 203d
00000370: 4b4c 0e3d 20ec 483d 91b6 8bbc 14f2 3fbb
00000380: 86f3 2b3a b82d 8cbc 105f 9dbc cae2 34bb
00000390: 1c3b 8bbd 8645 eabc 0f5a 91bd 7dfa 343d
000003a0: 545d 803d aa98 34bd 1ba3 5f3d 8afb 8dbc
000003b0: f0dd 40bd 2965 59bd f4ec e73c d046 e43c
000003c0: 8367 323d 423c 843c 8437 30bc 7ea7 913c
000003d0: 3c11 55bc 5070 e13c e053 053d efa1 da3b
000003e0: 7ed3 353d e7d3 803c d8ac 68bd 0f70 84bd
000003f0: f339 35bd 73f9 383d 8e1e 1dbd bf46 f1bc
0.07880011 0.062975734 -0.05835703 -0.038589913 0.044833153 -0.004150401 -0.026899246 -0.06811887
-0.02438981 0.09579814 -0.04881221 -0.0030726101 0.022753999 -0.019277684 0.05189247 0.044875983
0.036138058 0.0036921413 0.08169559 0.012610391 0.071955115 0.0036788534 -0.037231743 0.05643329
-0.029472454 0.01715339 0.003999682 -0.01121599 -0.017968483 0.04683418 0.03309029 0.020013832
0.016804934 -0.01633394 0.05148503 0.06622483 -0.0077749877 -0.013088802 -0.031095315 0.0998274
0.03274768 -0.020711983 -0.015581735 0.045144383 -0.023957428 0.018141605 0.037686467 -0.043955944
0.052263252 -0.026578702 0.054200932 0.006192248 -0.055247128 -0.0077810255 0.05876486 0.02964194
0.0026772362 -0.029670833 0.037758157 -0.04362966 0.0795612 0.058132023 -0.030356828 0.06720076
0.04961118 0.042811647 0.016708996 0.0097177215 0.049525835 0.095520824 -0.053771257 -0.03640713
0.03801681 -0.05318523 0.036001615 0.07369029 -0.021058537 0.0474694 0.05972279 -0.00038668507
0.05812326 0.031318136 -0.05624467 0.015124956 -0.0104611665 0.038166136 -0.04298073 -0.004889666
-0.028007679 -0.0055299522 0.0032613222 -0.0014188248 -0.049972806 -0.010385134 -0.072028175 0.03116946
0.0009908517 -0.011672099 -0.043220587 0.048671857 -0.06837644 0.043305498 0.02473644 0.036307298
0.045642413 -0.034468777 0.008771677 -0.047859006 -0.05296721 0.06072197 -0.05116596 0.0027922199
0.049952827 0.05536578 -0.0040053907 -0.035149295 0.019316554 0.06570078 -0.028605297 0.0642169
0.03665275 -0.06722293 -0.043648366 -0.04216486 0.03880894 0.0044981046 0.100450404 0.024757538
-0.053345826 -0.039354168 0.020594168 0.023773111 0.01829219 0.015496129 -0.020789802 0.09401059
-0.020320937 0.024042461 0.097744316 0.012164565 0.0010674344 0.05035606 0.0044987528 -0.007128657
0.010080625 -0.013087718 -0.010383282 -0.01487669 -0.07144144 -0.015034817 -0.037064295 0.06465815
0.0039292225 -0.044868805 -0.0032329415 0.06114015 0.07978471 -0.040429074 -0.061249197 -0.048347745
0.022034278 -0.008807356 0.0036788606 -0.061746538 0.031485282 0.026241088 -0.04045085 0.000858068
0.03095631 -0.027653188 0.0277779 0.098182835 0.015866827 -0.06978347 -0.036213543 -0.016492095
-0.06651803 0.029401623 -0.06253784 0.059639215 -0.0025636675 -0.007021633 0.04567063 0.0639976
0.06357571 0.0037190989 -0.036916714 0.053265356 -0.059150815 0.08499175 -0.010735155 0.009232627
-0.023966843 -0.0029369034 0.009349657 0.048566565 -0.027665868 0.043024786 0.03569974 -0.013985354
-0.03728497 -0.059416596 0.036115706 0.021354217 0.052582495 0.03640385 -0.050826732 0.027070604
0.042859197 0.056650445 0.00988188 0.061229832 0.054318905 -0.020060524 0.0015914466 0.017560102
-0.006940685 0.060514815 -0.041030094 0.039165646 0.034740727 0.04905331 -0.017054828 -0.0029288577
0.000655942 -0.017111644 -0.019210368 -0.0027600997 -0.067983836 -0.028597604 -0.070972554 0.044184197
0.06267801 -0.044090904 0.05459891 -0.017331857 -0.047086656 -0.05307499 0.02831123 0.027865797
0.043555748 0.016142014 -0.010755423 0.017780062 -0.013004597 0.027519375 0.032550693 0.006672136
0.044391148 0.015726043 -0.05680546 -0.06466686 -0.044244718 0.04515977 -0.038359217 -0.02945268

net.12.bias f4 [64]
00000000: 5a0a 043d 932d 86bd 9940 b93d 7b14 033e
00000010: fcb7 11bd ce1d 9b3c bac3 bb3d c582 b83d
00000020: 316a b83d 8542 a53d 82d6 a93c baa4 133e
00000030: 7447 013e 2c68 4abd f689 ff3b 8d81 80bd
00000040: 819c 593b 1d56 a93c 8a94 de3d 60d1 fc3d
00000050: c350 103b 1c93 533c f53f b43d 20bb 083d
00000060: 73f5 8f3d 90bc c23d 5929 703b 36fa 8cbd
00000070: 8c32 9b3d 7484 2e3d 695b 6ebd 1f3b 0f3b
00000080: f844 2e3d 14db 873c 096b 133d 8427 93bd
00000090: bbb6 1bbd 935f e43d dbe1 c8bb 1666 9c3d
000000a0: f06d 0cbc 8a6a d53d 853f 083d 910a 4c3d
000000b0: 25fa 9f3c ce78 d6bc 9c40 e93d cee7 033c
000000c0: b071 d03d 606f 653d 8427 6e3d c746 8b3c
000000d0: aed6 963b ea58 913d bb4b 4b3c f347 d33d
000000e0: 181e c73d 8d4d 743c 82cd b9bc a789 b2ba
000000f0: b1de ce3d a7c0 073e 6c3c b73d a96f 8ebd
0.032236435 -0.06551661 0.09045524 0.12800781 -0.03557585 0.01893511 0.09168191 0.09009317
0.090046294 0.08069328 0.020732168 0.14418307 0.12624913 -0.049415752 0.0077984286 -0.0627471
0.0033204856 0.020670945 0.10868175 0.123446226 0.0022020794 0.012913492 0.08801261 0.03338158
0.070292376 0.09508622 0.003664574 -0.068836614 0.075780004 0.042606786 -0.058192644 0.0021855307
0.042546242 0.016583957 0.03599075 -0.071852714 -0.038016062 0.11151042 -0.0061304397 0.07636659
-0.008571133 0.10420711 0.033263702 0.049814764 0.019528458 -0.026180651 0.113892764 0.008050872
0.10177934 0.05601442 0.058143154 0.017001523 0.0046032285 0.07097037 0.012408192 0.103164576
0.09722537 0.014911068 -0.022681002 -0.0013621346 0.10101069 0.13257085 0.089470714 -0.06954891

net.15.weight f4 [64, 64, 3]
00000000: 5b27 81bd a33a 223d 4017 f0bc 6f08 f03c
00000010: fcd4 14bd 2cb7 573d 121f 2ebd f3e8 bbbc
00000020: dc0e 33bc 34f3 8fbc c484 3b3d 7e66 5c3d
00000030: d6d4 8cbd eeb0 4abd 260d 083c 64f4 f63c
00000040: b256 ac3c 1ac2 c3bc 8fff 083d 9a8c 503d
00000050: 2638 63bc fc38 373d 2225 04bc 202f 3b3d
00000060: 6a7a 283d 68f9 f0bc 24e7 f5bc f671 683d
00000070: 804d 8bbc aadf 8c3c c4a5 c23c 669e 7b3d
00000080: 7603 a8bc 7ae2 90bd d61c 4b3d 9ee0 823d
00000090: 29d7 483d 1ec7 113d 50d7 923d c652 52bd
000000a0: 4ff7 28bd 9a54 903c e64a 89bd c81b 0bbd
000000b0: 6a14 893d 20f6 8c3d 4641 813d a004 d3bb
000000c0: b5f5 dcba ec4a 763b 7591 00bc 2971 2cbd
000000d0: 34c1 553d 4c57 353d f70e 26bd b047 9eba
000000e0: d489 8b3d acef ffbc d5cf 893c 6606 283d
000000f0: 21a4 8dbd bb4a 07bd 08a8 0c3d 33f1 b23c
00000100: 70f0 48bc 505e 4cbd 7d79 753d c448 58bd
00000110: e4bf 6a3d 1566 04bd 5a06 2fbd 9a57 80bc
00000120: f4a6 203d 687b 6dbb 0a5f af3c 4a71 14bd
00000130: 761d 38bd 8eb6 0d3b b4df ba3b 4eb4 283d
00000140: 031a 9c3c abb9 233d a291 4fbd 54ae e13c
00000150: d57f 5a3d caf3 e53b b63f 0f3d 42ba 773d
00000160: a2e3 6bbc 4460 5e3d 307c c53c 57b1 3dbd
00000170: b62b 813c 142b 373d a8a0 0cbd ac22 013d
00000180: 17bb 65bd 6c4f bdbc f4b7 c8bc c0d2 b6bb
00000190: d46b 50bd 3ac2 963c f695 4dbd a686 183d
000001a0: 5f8c 743d 3dd1 8fbd f07f 273d 6ce1 8a3d
000001b0: 56a1 b83c 2636 313d ec08 ae3a b9de 203c
000001c0: bc1c 17bd 12c9 cabc a21d 4bbd 9565 90bd
000001d0: 70fa 643d 0b94 1abc 98f4 853d 6626 ac3c
000001e0: 6b79 8abd b73a e8ba afdb 89bd 6892 6fbc
000001f0: 0716 26bd 303b 4f3d 8629 423b f708 73bd
00000200: 7a5a 59ba 909f f33c 0449 cf3c ce75 6cbc
00000210: db6b 633c 7eb7 313d 9a40 9a3c fae6 9dbd
00000220: 547f 57bc 0669 753d 85e3 1b3d e233 a33a
00000230: 4cd2 853d 31cd b13c 2cb0 76bb 7e54 71bd
00000240: d6b8 eb3a cef8 2ebc cb04 80bd dc57 93bd
00000250: 90f9 843d cc63 293d 2fcc 76bd 0286 c6bc
00000260: 1cf8 56bd 7384 85bd d6c2 9fb9 a7e5 1dbd
00000270: c483 5cbd 4447 b8bc 4618 d0bb 2677 75b9
00000280: 44d7 89bc 3eec 0b3d 64d8 09bd daa1 eabc
00000290: 9fa7 3d3d fa7c 99bc e883 643d 280e 703d
000002a0: 7dc8 48bd 1655 a0bb c276 413c d624 32bd
000002b0: 12df 5f3c 7034 3dbc 1dd6 113d d4a3 f6bc
000002c0: 5e9f 8d3c f1ce 38bd a2b9 bebc d6e8 1f38
000002d0: 1e2c 60bd 0669 c73c befb 5f3d c553 9ebc
000002e0: 4c8d 663d 8ebf 3fbd bdb1 143c b94b 4bbc
000002f0: d03e 84bc 845b 03bd 0841 1ebc 8c7c 5fbd
00000300: 201e 013c bcb9 8c3c eeb7 3bbd f06c 3fbd
00000310: 8f0b 7f3d b89c 923d 3ab9 bcbc 1e1e 56bd
00000320: 0abc 0c3d 0e66 533d 3bd8 18bd 0bdc 88bd
00000330: 3ca9 03bc ae92 b13b 3ec4 8c3d a2ac 9d3d
00000340: 1eb3 333d eeab b4bc c0f7 b93d 3a41 59bd
00000350: 9eb5 033d 8c2d c53c fc7f bfbc 461e 423d
00000360: 274c 8c3d ca4a 7abd fece 1f3c 6ed7 80bc
00000370: 2809 fbbc e621 093d 5674 a03d 0f62 913d
00000380: 4439 66bd e65d 823d e4e9 43bd caa2 343b
00000390: cb85 d4bc a2fd 52bd 1a79 693d 13d7 843d
000003a0: 645a 62bd f6ee 403d 5589 c73c 8ccf 5ebd
000003b0: 4b76 fdbc 6026 f53c 82c5 bd3c 399e 3dbd
000003c0: 4e90 2a3d 0b2c 7c3d ba56 3f3d 1071 023d
000003d0: bcda dfbc 95a1 ba3c f99c 83bc 2bf7 8ebd
000003e0: 7fe5 58bd 2a1d 4c3d 8cab 093c 82e0 2a3d
000003f0: f655 5abd eab4 913d 820a f7bc 032e 0e3d
-0.063063346 0.0396067 -0.029307961 0.029300896 -0.03633593 0.05266492 -0.0425101 -0.022938227
-0.010928836 -0.017572023 0.045780912 0.05380868 -0.06876533 -0.04948514 0.008303916 0.030145831
0.021037433 -0.023896266 0.033446845 0.050915338 -0.013868367 0.04473208 -0.008065494 0.04569924
0.04113237 -0.029415801 -0.030017443 0.056749307 -0.017004728 0.017196495 0.023760684 0.061430357
-0.020509463 -0.07074447 0.049588047 0.063904986 0.049033318 0.035590284 0.07169974 -0.05134847
-0.041251477 0.017618466 -0.06703739 -0.03396204 0.06693347 0.06882882 0.06311278 -0.0064397603
-0.0016857894 0.0037581278 -0.00784718 -0.042100105 0.052186206 0.044272706 -0.040541615 -0.0012075808
0.06813398 -0.031242214 0.016822735 0.041021727 -0.06916071 -0.033030253 0.034339935 0.021843528
-0.012264356 -0.04989463 0.059930313 -0.05280377 0.057311907 -0.032323916 -0.042730667 -0.015666772
0.03922172 -0.0036236886 0.021407623 -0.036240853 -0.04494997 0.0021623704 0.005702937 0.041187577
0.019055372 0.03997199 -0.050675996 0.027548946 0.053344566 0.0070175873 0.03497287 0.060480364
-0.014397534 0.054291025 0.024107069 -0.046311703 0.015767913 0.044718817 -0.0343329 0.031527206
-0.056086626 -0.02310916 -0.024501778 -0.0055793226 -0.050884083 0.018403161 -0.050191842 0.037237786
0.05970418 -0.07022331 0.040893495 0.06781277 0.022537868 0.04326453 0.0013277805 0.009818726
-0.036892638 -0.02475408 -0.049588807 -0.07050625 0.0559029 -0.00943471 0.06540793 0.021014404
-0.0676144 -0.0017717694 -0.067313544 -0.014622308 -0.04054835 0.050593555 0.00296268 -0.05933472
-0.0008291375 0.029739171 0.025303371 -0.014432384 0.013880695 0.043387882 0.018829633 -0.07710071
-0.013152916 0.05991461 0.038058776 0.0012451375 0.065342516 0.021704288 -0.0037641628 -0.05891847
0.0017984163 -0.010679437 -0.06250914 -0.07194492 0.06492913 0.04135494 -0.06025332 -0.024233822
-0.05248271 -0.06519403 -0.00030472007 -0.03854909 -0.0538366 -0.02249492 -0.00635055 -0.00023409407
-0.01682628 0.034160845 -0.03365363 -0.02864163 0.046302434 -0.018736351 0.055789858 0.05860725
-0.049019326 -0.0048929555 0.011808099 -0.04349216 0.013664024 -0.011548147 0.035604585 -0.030107416
0.017287906 -0.04511923 -0.023281876 3.81254e-05 -0.054729573 0.024342071 0.05468344 -0.019327054
0.056287095 -0.04681354 0.009075579 -0.01240819 -0.016143233 -0.032069698 -0.009659059 -0.054562137
0.0078807175 0.017178409 -0.045829706 -0.04673475 0.062266883 0.07158798 -0.023037542 -0.052274816
0.034359016 0.051611 -0.03731559 -0.06682595 -0.008035954 0.005419097 0.06873368 0.07698943
0.04387199 -0.022054639 0.09080458 -0.05304072 0.032155626 0.02406957 -0.023376457 0.047392152
0.068504624 -0.06110648 0.009753941 -0.015727725 -0.030644014 0.033479594 0.07834689 0.07098781
-0.056206957 0.06365566 -0.047830477 0.002756285 -0.025942704 -0.051511414 0.057000257 0.06486335
-0.055261984 0.04710289 0.024357477 -0.05439715 -0.030940196 0.029925525 0.023165468 -0.04629347
0.041641526 0.06156544 0.04671357 0.031846106 -0.02732598 0.022782126 -0.016066061 -0.06980737
-0.05295324 0.0498325 0.008402716 0.041718014 -0.053304635 0.07114585 -0.030156378 0.03471185

net.15.bias f4 [64]
00000000: 707b 55bd a354 d43d ee22 013d da32 a63d
00000010: 4bde a73d da6c 973c bdea cabc af98 053e
00000020: 55d2 373b 7a85 183c 44ac b0bc fe2c 493c
00000030: 61db 4c3d 7ccc 2b3d 163a b83c 94dc 9e3d
00000040: 56c3 2f3d 8a1d fc3d 8b0a fe3d 87ba 13bc
00000050: 9f7d 83bd 48d3 4bbd 866a 9e3d da49 9abc
00000060: 5790 ab3d 4b74 113d 4bb0 833b d7ae 6e3d
00000070: f66d 38bc 4159 093e 14b0 c03d bbe7 48bd
00000080: dc23 993d f5bf 063e 89e8 b3bc 2184 db3d
00000090: 5bb1 f23c 8d7a 3eba 5db8 b83d 0e9b 2a3d
000000a0: cd0b b43c 468c 063e 2aec 883b 2e4f 65bd
000000b0: 05ca a93b b43e 0e3d 4bad 123d a30f a83c
000000c0: 85ee 103e 1fab 1f3b ff6d 65bd 7a38 df3c
000000d0: 5c39 113e 50a3 943d 58d2 0a3e 522e 083e
000000e0: 6d37 3bbd 76e5 783c 1667 0cbd 98fd 553d
000000f0: 2491 51bb e9aa a03d 85e5 513d bcc0 e53d
-0.052119672 0.10367706 0.031527452 0.08115168 0.08196696 0.018484522 -0.024770135 0.13046525
0.0028048952 0.009309167 -0.021566518 0.012278793 0.050013904 0.04194306 0.022488635 0.07756916
0.042910896 0.12310322 0.12404355 -0.00901664 -0.06420445 -0.04976204 0.077351615 -0.018834043
0.0837714 0.035511296 0.0040188185 0.05827221 -0.0112566855 0.13412954 0.09408584 -0.04904912
0.07477543 0.13159163 -0.021961467 0.10718561 0.029625585 -0.00072661863 0.090195395 0.041651778
0.021978283 0.13139448 0.0041785436 -0.055983715 0.0051815533 0.034727767 0.035809796 0.020515269
0.14153488 0.002436347 -0.056013104 0.02724861 0.14182037 0.07257712 0.13556802 0.1329892
-0.045707155 0.0151914265 -0.034277998 0.0522438 -0.003197738 0.078450985 0.051244278 0.11218402
