model_artifacts/dl_tcn_h24_ret20cls2_48000_49500.pt (torch, 378717 bytes, 20 tensors)

net.0.weight f4 [64, 30, 3]
0.052244324 -0.07806872 -0.0058503877 0.0005420065 -0.053726207 -0.018695336 0.091373935 0.024393681
-0.023374029 0.115148336 0.10259981 -0.065736346 0.063644126 0.018143065 -0.051159088 0.019880338
0.011341456 -0.07470775 0.09285673 -0.097184226 -0.10212515 -0.023327524 0.051579967 0.09566947
0.022246044 0.09595806 0.049751632 0.03106772 0.03160879 -0.08290478 0.13503508 -0.086460866
-0.0009657636 0.109604396 -0.010440692 0.041712977 -0.01892114 0.043047853 -0.004458986 0.028804488
-0.074584745 0.020235147 -0.070050895 -0.061839588 -0.10191452 -0.077347584 -0.039709307 0.1010719
0.065567896 -0.09197199 0.03506995 -0.07973703 -0.0035744281 0.012105066 -0.089803256 -0.053211395
0.033012435 0.0704928 0.067097194 -0.0007298959 -0.03428988 -0.02028906 0.06737853 0.10098535
0.0008268737 0.103793085 0.080459796 0.00065753807 -0.07508364 -0.0735902 -0.09996078 0.068630956
0.0027302434 -0.092603534 -0.07233672 -0.0152444625 -0.0010162686 0.032235086 -0.045005128 0.086062126
0.017585073 0.11799863 0.089620754 0.055266842 -0.08309622 0.03206054 -0.018514179 0.017828697
-0.007900851 0.02055781 0.010143058 -0.033717297 -0.044372655 -0.060220297 -0.09814651 -0.10294933
-0.14442801 -0.0668346 -0.104510844 -0.12154803 -0.08901143 0.07830999 -0.1358372 -0.078097865
-0.020675298 -0.065597646 0.01972188 0.08849215 -0.14524373 -0.07175974 -0.026945848 0.093525365
0.057610944 0.06315116 -0.07708398 0.0894722 -0.044703122 0.054163888 0.07679119 -0.02402782
-0.039461885 -0.011768287 -0.01793404 -0.01507043 0.042648822 0.014296774 0.07351 0.024048563
-0.0952442 -0.043389544 0.049247757 0.03744766 -0.037677757 -0.07977064 0.08792416 -0.011219404
-0.09155627 -0.013024583 0.07058914 0.08768176 0.0081010815 -0.067694396 -0.015742023 0.0026675775
-0.010837701 0.093700014 0.1035239 -0.08197293 0.059142023 0.010531211 -0.03161394 0.095733754
-0.012867127 0.082303144 -0.00083191495 0.0792203 -0.14600734 -0.03411045 -0.09495934 -0.09299512
0.0123403985 -0.08279325 -0.02342486 0.10207216 0.016111162 0.09330499 -0.013813401 0.059728786
-0.0007511879 0.025258355 0.071225606 -0.011356447 -0.08767047 -0.025169631 -0.022502024 0.044162557
-0.014084652 0.049810804 -0.06338288 0.023649309 0.08327758 -0.04966883 -0.02405674 0.03785783
-0.02331883 0.078079246 0.03758257 0.079126 -0.07979596 0.0371846 0.10464505 -0.034588575
0.080582514 0.04355891 -0.07529987 0.014740047 0.03359694 -0.033354476 0.042431615 0.033365317
-0.09615943 -0.098981544 -0.102052025 -0.069192395 -0.008510592 -0.080734655 0.10239489 0.031133015
0.09697778 0.025602043 -0.104250275 -0.037095167 0.019724429 -0.07217206 0.03973317 -0.046756633
-0.0263309 -0.047759783 0.058614947 -0.031711288 -0.09853447 0.05750236 -0.07620013 0.06623965
-0.0673718 -0.069583386 0.044403646 -0.10484607 0.022069303 -0.06699206 0.086077325 0.086537264
0.07436619 -0.0018080389 0.090023234 0.05029972 0.082798 0.05681519 -0.0913957 -0.008252369
0.08033089 -0.07676841 0.027072713 0.059829473 0.04953003 0.03925974 0.064751975 0.057589576
-0.007343499 0.010461941 -0.06751688 0.016559657 -0.06766939 -0.044424437 0.021431524 0.016252412
00000000: 25fe 553d 7ee2 9fbd 9cb4 bfbb 7115 0e3a
00000010: 0310 5cbd f626 99bc 4222 bb3d 42d5 c73c
00000020: e47a bfbc e4d2 eb3d d91f d23d c7a0 86bd
00000030: da57 823d c4a0 943c 318c 51bd 17dc a23c
00000040: 84d1 393c 6000 99bd ab2b be3d 8608 c7bd
00000050: fe26 d1bd 5d19 bfbc 8445 533d 5bee c33d
00000060: 563d b63c a985 c43d 5ec8 4b3d bb81 fe3c
00000070: 3878 013d fbc9 a9bd a346 0a3e 6512 b1bd
00000080: 4c2b 7dba 4578 e03d 700f 2bbc 3adb 2a3d
00000090: 8200 9bbc f252 303d b01c 92bb 64f7 eb3c
000000a0: e3bf 98bd 2ec4 a53c d876 8fbd 824b 7dbd
000000b0: 8fb8 d0bd 6968 9ebd 3aa6 22bd c9fe ce3d
000000c0: 7648 863d d05b bcbd 82a5 0f3d 2b4d a3bd
000000d0: f440 6abb 5454 463c c5ea b7bd 31f4 59bd
000000e0: 0c38 073d 875e 903d 416a 893d 7c56 3fba
000000f0: 8c73 0cbd 3e35 a6bc c1fd 893d 68d1 ce3d
00000100: 8ec2 583a 7891 d43d 1bc8 a43d a25e 2c3a
00000110: 74c5 99bd 75b6 96bd 3db8 ccbd 638e 8c3d
00000120: e2ed 323b eca6 bdbd 4625 94bd e9c3 79bc
00000130: 5134 85ba f008 043d 4c57 38bd 5741 b03d
00000140: 920e 903c 44a9 f13d 168b b73d 7c5f 623d
00000150: 5a2e aabd ea51 033d 0cab 97bc 7d0d 923c
00000160: 9272 01bc da68 a83c 122f 263c 261b 0abd
00000170: 1ac0 35bd 8fa9 76bd 0a01 c9bd 19d7 d2bd
00000180: f0e4 13be 94e0 88bd c809 d6bd 2cee f8bd
00000190: a04b b6bd fd60 a03d e818 0bbe c6f1 9fbd
000001a0: 3e5f a9bc 0f58 86bd c88f a13c 5f3b b53d
000001b0: c6ba 14be c5f6 92bd 8abd dcbc 3a8a bf3d
000001c0: 74f9 6b3d 6555 813d 35de 9dbd 333d b73d
000001d0: 9f1a 37bd f4da 5d3d b344 9d3d fed5 c4bc
000001e0: c9a2 21bd c6cf 40bc 68ea 92bc f7e9 76bc
000001f0: 88b0 2e3d 043d 6a3c 698c 963d 7e01 c53c
00000200: 640f c3bd 3cb9 31bd 04b8 493d b862 193d
00000210: fe53 1abd ca5e a3bd 9511 b43d 97d1 37bc
00000220: db81 bbbd 1065 55bc 0a91 903d 7f92 b33d
00000230: 66ba 043c 5ca3 8abd 6af5 80bc 86d2 2e3b
00000240: 9d90 31bc cbe5 bf3d 5704 d43d 6ce1 a7bd
00000250: e83e 723d 1a8b 2c3c 9e7d 01bd 0f10 c43d
00000260: a4d0 52bc 8d8e a83d de14 5aba 413e a23d
00000270: f382 15be 66b7 0bbd 0b7a c2bd 3a74 bebd
00000280: 622f 4a3c 828f a9bd 7ee5 bfbc 350b d13d
00000290: 8efb 833c b016 bf3d 9a51 62bc 2ca6 743d
000002a0: 5eeb 44ba 9cea ce3c bbde 913d 6410 3abc
000002b0: 938c b3bd 8b30 cebc 2a56 b8bc cce3 343d
000002c0: 50c3 66bc 6a06 4c3d e2ce 81bd 32bc c13c
000002d0: 708d aa3d 8b71 4bbd a412 c5bc d010 1b3d
000002e0: 2207 bfbc 03e8 9f3d 2ef0 193d d00c a23d
000002f0: 106c a3bd e14e 183d 2550 d63d c0ac 0dbd
00000300: 7208 a53d d46a 323d d136 9abd 3d80 713c
00000310: f29c 093d b49e 08bd c6cc 2d3d 12aa 083d
00000320: 3cef c4bd d6b6 cabd a700 d1bd beb4 8dbd
00000330: 0370 0bbc 3658 a5bd 69b4 d13d aa0a ff3c
00000340: 499c c63d 60bb d13c 2b81 d5bd 1af1 17bd
00000350: 2095 a13c f2ce 93bd 40bf 223d e283 3fbd
00000360: e6b3 d7bc c39f 43bd 3a16 703d b2e3 01bd
00000370: 71cc c9bd 9887 6b3d d00e 9cbd a7a8 873d
00000380: 3afa 89bd bc81 8ebd 99e0 353d 89b9 d6bd
00000390: afca b43c 2233 89bd 4f49 b03d 733a b13d
000003a0: 4d4d 983d b8fb ecba 1a5e b83d 1407 4e3d
000003b0: ff91 a93d 0bb7 683d ab2d bbbd f234 07bc
000003c0: 8684 a43d c238 9dbd 98c7 dd3c c00f 753d
000003d0: 00e0 4a3d d2ce 203d af9c 843d 0ce3 6b3d
000003e0: bca1 f0bb 9068 2b3c 4a46 8abd 1ea8 873c
000003f0: 4096 8abd 66f6 35bd 2a91 af3c c723 853c

net.0.bias f4 [64]
0.07207402 0.124655634 0.08191207 0.13825078 -0.04444651 -0.033051662 -0.037044574 -0.033922847
0.1640304 0.043508567 0.031356756 0.04153936 0.11347498 0.05986221 0.02434151 -0.026259819
0.10811655 0.025417488 -0.0375265 0.09909225 -0.025716163 0.04914848 -0.036077756 0.08186296
-0.048087757 -0.010280849 0.027605841 -0.0016948254 0.15568864 0.07717618 -0.04261542 0.002996373
0.16437113 0.021820413 0.0052946256 0.099534854 0.023138009 0.12652747 0.1425143 -0.054419912
0.10285623 0.044736877 0.0021754103 0.010749832 0.09397667 -0.034306612 0.14352901 0.038234457
0.14187732 0.03413035 0.08174088 0.0845477 -0.033737637 0.06790898 0.014966344 0.047999743
0.035650842 0.1546171 0.1106101 0.02488967 0.12310338 0.008495218 0.14334679 -0.06731924
00000000: 8b9b 933d 744b ff3d 84c1 a73d 9d91 0d3e
00000010: 8b0d 36bd 2e61 07bd 0dbc 17bd aff2 0abd
00000020: 96f7 273e 0a36 323d f16f 003d 2d25 2a3d
00000030: 9265 e83d 1432 753d d967 c73c d51e d7bc
00000040: 366c dd3d 5638 d03c 63b5 19bd e1f0 ca3d
00000050: b4aa d2bc eb4f 493d 45c6 13bd c4a7 a73d
00000060: abf7 44bd 0271 28bc a525 e23c e724 deba
00000070: d86c 1f3e 8c0e 9e3d 828d 2ebd cc5e 443b
00000080: e850 283e b9c0 b23c 8a7e ad3b eed8 cb3d
00000090: ec8b bd3c 6b90 013e 45ef 113e 6ae7 5ebd
000000a0: 4aa6 d23d 043e 373d 5491 0e3b 1020 303c
000000b0: d776 c03d 1785 0cbd 45f9 123e bc9b 1c3d
000000c0: 4a48 113e 44cc 0b3d c367 a73d 5827 ad3d
000000d0: 7a30 0abd dd13 8b3d 6635 753c 619b 443d
000000e0: 9e06 123d f253 1e3e 8c87 e23d 6ce5 cb3c
000000f0: a01d fc3d 872f 0b3c 80c9 123e abde 89bd

net.3.weight f4 [64, 64, 3]
-0.03623633 0.038731307 -0.029351816 -0.013168854 -0.05322347 -0.031798355 0.07313738 -0.019053707
0.04886472 -0.030204758 0.04431825 -0.031532865 -0.010971685 0.040670685 -0.03999073 -0.021248095
0.017066546 0.049232457 0.045621082 0.045018353 -0.06767033 0.03491202 0.029147867 -0.027949862
0.09511262 0.015479109 -0.067629956 0.019113628 0.02268628 0.0484641 0.04526918 -0.0011661211
0.04649949 -0.03729124 -0.04319137 -0.018569954 -0.031101247 0.00112123 -0.058024205 0.08130834
0.007828124 -0.013885886 -0.014639608 -0.041482992 0.037781946 0.020589268 0.06707014 -0.016564123
-0.040970284 0.039553322 0.06871358 0.07305251 -0.04793787 0.059706535 0.07668925 -0.06258301
-0.018018387 0.06827784 -0.06185908 0.016458781 -0.048686057 -0.00093106553 0.069355905 0.0016587831
0.045988873 -0.03337865 0.0869706 -0.03427533 -0.051161002 0.049169805 0.05293307 0.044733822
-0.050018683 -0.07026704 0.008465497 0.012326355 -0.06555646 0.04705071 0.03198478 -0.019102015
-0.009015085 -0.028782401 -0.02854767 0.018228047 0.0767661 -0.05547023 -0.051793367 -0.06019745
0.008173242 0.0061055445 0.015491802 0.067951895 -0.027608305 -0.045869056 -0.014607707 0.034971096
-0.018040748 0.029433468 0.047860086 0.08003898 0.050181143 0.050939538 0.017829755 -0.012572935
-0.003554244 0.06829979 -0.039225165 -0.009089451 -0.015393291 0.052362993 -0.068633355 -0.010266851
0.01083224 0.050853834 0.007931362 0.067068905 -0.04761996 0.03192595 0.058547016 -0.037539754
0.034115642 0.040392585 0.066366464 -0.0050380775 -0.030321553 0.06482051 0.064285696 0.0007448867
0.060235113 0.023834696 -0.06735547 -0.009502102 0.05961467 0.0039013214 0.004585567 -0.053515956
-0.022819892 0.07185052 0.005054529 0.0146633275 -0.06596086 -0.00074030383 -0.04416559 0.06759216
0.021551233 0.00356537 0.0034362245 -0.017161546 -0.036280047 9.540214e-05 0.0064791725 -0.009366931
0.02373875 0.021345928 -0.038897 -0.052859858 0.040724047 0.01598902 0.037854373 0.034508906
-0.022627838 0.03221845 0.07818793 -0.06699577 0.04279434 0.036972776 -0.052292805 0.027709495
-0.010752058 0.026480675 0.019779727 0.075470835 0.0023079826 0.03552412 -0.0064704986 0.062074117
-0.04608722 0.072882794 -0.05233305 0.034757793 0.02947508 -0.050140746 -0.024841972 0.07230332
0.0065393345 0.03376498 -0.04267728 0.057885736 0.06805448 0.050468307 -0.052141003 -0.045667112
0.06675848 -0.0529715 0.032004207 0.025046814 0.06199611 0.050141178 0.04242418 0.03825172
-0.06772394 0.10509927 0.060709707 -0.05943481 0.020423768 -0.0030138576 -0.007862249 0.07510343
-0.061262287 -0.052793834 0.058404386 -0.059202198 0.0142391715 0.095402054 0.069452696 0.051372528
0.10402962 -0.06235942 0.071708225 0.09561354 -0.03942799 0.01155597 0.005805499 0.057494067
-0.05352621 0.04311221 -0.051817402 0.059975818 0.04898189 -0.0032867272 0.02044449 0.018132214
0.042245902 0.015643395 0.033867605 0.0122443065 0.031500496 0.032937396 -0.016180974 0.057188183
0.057828963 -0.008878441 0.04113535 -0.03758419 -0.043688074 0.0059982548 -0.020242635 -0.027403712
0.04056424 -0.02655592 -0.019564863 0.025406893 -0.041228864 -0.006409729 -0.048557565 0.052809022
00000000: 8c6c 14bd b8a4 1e3d 3873 f0bc 2dc2 57bc
00000010: da00 5abd fe3e 02bd 0dc9 953d 8516 9cbc
00000020: 5f26 483d f86f f7bc 0e87 353d 9b28 01bd
00000030: 95c2 33bc 4e96 263d 52cd 23bd 7c10 aebc
00000040: 24cf 8b3c f9a7 493d 2cdd 3a3d 2a65 383d
00000050: be96 8abd e8ff 0e3d 82c7 ee3c 1cf7 e4bc
00000060: 68ca c23d 179c 7d3c 9381 8abd 2f94 9c3c
00000070: 94d8 b93c 4b82 463d 2d6c 393d 88d8 98ba
00000080: 4076 3e3d b3be 18bd 6fe9 30bd 0420 98bc
00000090: 0bc8 febc 3cf6 923a caaa 6dbd fd84 a63d
000000a0: 8841 003c a181 63bc f7da 6fbc 12ea 29bd
000000b0: 3ec1 1a3d d3aa a83c 125c 893d 7cb1 87bc
000000c0: 75d0 27bd aa02 223d b5b9 8c3d 8e9c 953d
000000d0: 805a 44bd d78e 743d 410f 9d3d 852b 80bd
000000e0: 4c9b 93bc 41d5 8b3d f25f 7dbd 91d4 863c
000000f0: 086b 47bd c012 74ba 780a 8e3d 866b d93a
00000100: d45e 3c3d 0db8 08bd a41d b23d 4a64 0cbd
00000110: 338e 51bd 4766 493d 59d0 583d d03a 373d
00000120: 64e0 4cbd 2ae8 8fbd deb2 0a3c 7bf4 493c
00000130: 7742 86bd 3fb8 403d 7902 033d d47b 9cbc
00000140: 02b4 13bc 12c9 ebbc cedc e9bc fc52 953c
00000150: 8c37 9d3d c034 63bd 4825 54bd 9a91 76bd
00000160: 10e9 053c 0511 c83b 54d1 7d3c 5d2a 8b3d
00000170: d02a e2bc 31e1 3bbd 2a55 6fbc da3d 0f3d
00000180: 31ca 93bc 751e f13c f008 443d 7aeb a33d
00000190: be8a 4d3d faa5 503d b50f 923c b6fe 4dbc
000001a0: 52ee 68bb c3e0 8b3d 91aa 20bd eceb 14bc
000001b0: 2434 7cbc 947a 563d a58f 8cbd 4b36 28bc
000001c0: b579 313c 1c4c 503d 8bf2 013c 6c5b 893d
000001d0: 260d 43bd c9c4 023d ffce 6f3d 49c3 19bd
000001e0: d8bc 0b3d b272 253d 24eb 873d 7516 a5bb
000001f0: e864 f8bc 9ec0 843d 38a8 833d 8044 433a
00000200: 18b9 763d fb40 c33c aaf1 89bd b4ae 1bbc
00000210: 832e 743d 50ad 7f3b 8642 963b 8c33 5bbd
00000220: c8f0 babc 5e26 933d 76a0 a53b 743e 703c
00000230: 7d16 87bd f310 42ba fae6 34bd c26d 8a3d
00000240: 368c b03c fca8 693b 4832 613b 5f96 8cbc
00000250: 639a 14bd a212 c838 3d4f d43b c277 19bc
00000260: c477 c23c a8dd ae3c 7652 1fbd 9483 58bd
00000270: 42ce 263d 68fb 823c 300d 1b3d 3659 0d3d
00000280: 045e b9bc 7ef7 033d fe20 a03d 1435 89bd
00000290: 1e49 2f3d c470 173d fb30 56bd 06ff e23c
000002a0: 6629 30bc 00ee d83c 1809 a23c 7490 9a3d
000002b0: 8641 173b bd81 113d 7a06 d4bb 6e41 7e3d
000002c0: f4c5 3cbd 9343 953d 2e5b 56bd 305e 0e3d
000002d0: b975 f13c 6260 4dbd 6481 cbbc c313 943d
000002e0: ea47 d63b 264d 0a3d 5fce 2ebd 9819 6d3d
000002f0: 2660 8b3d dbb7 4e3d ce91 55bd 700d 3bbd
00000300: acb8 883d a5f8 58bd d816 033d fa2e cd3c
00000310: a2ef 7d3d d660 4d3d fac4 2d3d d6ad 1c3d
00000320: d9b2 8abd 493e d73d beaa 783d ea71 73bd
00000330: bf4f a73c 2484 45bb aad0 00bc d4cf 993d
00000340: 2aee 7abd 593e 58bd 7039 6f3d 017e 72bd
00000350: 6a4b 693c 2762 c33d 373d 8e3d 006c 523d
00000360: 7b0d d53d 976c 7fbd c3db 923d 08d1 c33d
00000370: 3e7f 21bd 4055 3d3c 0e3c be3b e67e 6b3d
00000380: 4d3e 5bbd 6e96 303d 7c3e 54bd 34a9 753d
00000390: 3ca1 483d 2266 57bb 347b a73c 028a 943c
000003a0: 0a0a 2d3d 9426 803c c2b8 0a3d 589c 483c
000003b0: aa06 013d 5de9 063d f68d 84bc 283e 6a3d
000003c0: 10de 6c3d e176 11bc 8a7d 283d e1f1 19bd
000003d0: 44f2 32bd 028d c43b e2d3 a5bc c07d e0bc
000003e0: b026 263d cd8b d9bc 7e46 a0bc 1e22 d03c
000003f0: 99df 28bd b408 d2bb 4ce4 46bd 464e 583d

net.3.bias f4 [64]
-0.027616566 0.086227804 -0.020142697 -0.017975362 0.10054032 0.03499981 0.0031218182 0.0948896
0.0004915904 0.052308552 0.08621808 0.10040585 -0.066206135 0.10383366 0.09890759 0.062393934
0.047474965 0.005199818 0.05021295 0.09710848 0.0284997 0.10231336 0.11441213 0.042217873
0.043034527 -0.0076634022 0.01387002 0.03966688 0.038774617 0.08918966 0.094633594 0.02989092
-0.015697526 0.056154937 0.05634264 0.014897277 0.08743369 0.043638542 0.07690426 0.09945562
0.10680303 -0.029773332 0.11559234 0.083975665 0.05618158 -0.0060221734 0.034176838 -0.035660792
0.0302827 0.013246246 0.10817028 0.06610888 0.019890398 0.05848407 0.11647627 0.068406664
0.027211668 0.024890356 -0.088547245 -0.04360624 0.066096626 0.10757749 0.10990407 0.019830449
00000000: 233c e2bc 3498 b03d 4c02 a5bc 1141 93bc
00000010: 15e8 cd3d f65b 0f3d 6b97 4c3b 7b55 c23d
00000020: 13de 003a 7e41 563d 1b93 b03d 95a1 cd3d
00000030: 1597 87bd bea6 d43d 1090 ca3d c890 7f3d
00000040: 1c75 423d 3c63 aa3b 18ac 4d3d d0e0 c63d
00000050: 3478 e93c ab89 d13d e850 ea3d a6ec 2c3d
00000060: f944 303d 471d fbbb 153f 633c bd79 223d
00000070: 22d2 1e3d 12a9 b63d 42cf c13d cddd f43c
00000080: 1998 80bc b802 663d 8ac7 663d b513 743c
00000090: 6f10 b33d 54be 323d fb7f 9d3d 63af cb3d
000000a0: 8cbb da3d 34e7 f3bc adbb ec3d 6ffb ab3d
000000b0: a81e 663d a755 c5bb 03fd 0b3d 0d11 12bd
000000c0: 6d13 f83c c806 593c 6188 dd3d 1864 873d
000000d0: 30f1 a23c fe8c 6f3d 1c8b ee3d cb18 8c3d
000000e0: 01eb de3c dce6 cb3c 4258 b5bd 759c 32bd
000000f0: ab5d 873d 9651 dc3d 6315 e13d 7773 a23c

net.6.weight f4 [64, 64, 3]
0.031199915 -0.051195063 -0.06421021 0.068536595 0.037778415 -0.04267228 -0.021812776 0.04303795
0.0031208051 -0.037660543 0.019264087 0.031744204 0.092149585 0.027062712 0.03851249 0.0835994
0.052318953 0.037007414 0.032639395 -0.015433706 -0.021844875 0.022375863 -0.05013544 -0.012935711
0.047261175 0.025848825 0.06466369 -0.010731326 0.06415185 0.0387386 0.105548844 0.022414494
0.049129263 0.058321588 0.031633645 -0.02984734 0.014798459 -0.046705052 -0.06704976 -0.025948461
-0.04334095 0.024072066 0.097293265 -0.0056453757 0.040665355 0.08567272 0.040384226 0.05783845
0.06448104 -0.031322792 -0.05916056 -0.03713529 -0.062004395 0.054394856 -0.028309964 -0.054603685
-0.044254277 0.056766883 0.07048567 -0.009040402 0.058212224 0.028137337 0.021745738 0.111038074
0.060089022 -0.039548803 0.098802224 0.032969005 -0.028474167 0.016960192 -0.03421515 0.041921936
-0.002132707 -0.039080497 -0.053407703 0.065243736 -0.009406852 0.036196552 0.037786998 -0.016353346
0.020343302 0.0659399 0.0472141 0.0090505425 0.013328115 0.06855576 -0.026608724 0.036008507
-0.04653268 0.063682035 0.035220798 -0.06812202 -0.023377739 -0.03430706 -0.034713455 -0.050217867
-0.03043295 -0.026323821 -0.035142384 0.07725125 0.024357926 -0.024869375 0.09061892 0.013969477
0.003534142 0.07465227 0.0467337 -0.016837273 0.01851186 0.0107168015 0.010359901 -0.032802228
0.04792273 0.04717482 0.026618859 -0.047295332 0.06744264 -0.022960478 0.028953336 -0.0025606593
-0.014945588 0.02919064 -0.05888595 0.016393071 -0.0071728206 0.06274532 0.059580106 0.042104334
0.055167746 0.060276493 -0.04540959 0.012922956 0.061106727 -0.06985451 0.052770063 0.00706584
-0.012021052 0.048964143 -0.019715345 -0.024572264 -0.05989014 0.069491066 -0.04489065 -0.006909688
0.014495995 -0.0029519196 -0.05795958 0.03506069 -0.05607385 -0.03684298 0.020264504 -0.033503447
-0.02086994 0.032317854 -0.068817765 0.033703864 0.10377259 0.019593656 -0.040399022 0.057541408
-0.0558182 0.012130726 0.069693126 0.03775988 -0.003743433 -0.036482316 0.019706152 0.049946107
0.04668971 -0.025706649 -0.05732958 0.029153772 -0.032249007 -0.01202627 0.040287904 -0.03695375
0.07152608 -0.049800817 -0.06450164 -0.07118835 0.08001756 0.06574627 -0.034690283 -0.012632631
-0.00454239 0.008260699 0.0454958 -0.019283488 0.022065442 0.034128454 0.06317824 0.062274273
-0.010375261 0.053338762 0.024211846 0.06791284 0.045506172 -0.03989463 -0.0538669 0.06569147
0.013599213 0.05561363 0.05634268 -0.054330003 0.004827679 -0.013782695 0.055708334 0.023029478
0.011343714 0.06067779 0.009038586 -0.03695802 -0.059684224 -0.052721504 0.02331617 -0.07060249
0.01119375 -0.065089054 0.054825675 0.049603943 -0.06647116 -0.01773388 -0.045173656 -0.03288888
0.010511765 -0.043248925 -0.0064763715 0.005456289 0.047663182 -0.03990474 0.044084143 0.0028412002
-0.0375598 -0.044697426 -0.039806843 -0.07047595 -0.030196218 0.027525773 -0.049962975 -0.005589299
-0.008084677 -0.05684662 -0.024154652 0.037878104 -0.062981814 0.0012458812 -0.007134076 -0.0009485561
0.054876253 0.03515582 0.05563727 -0.030044325 -0.032450624 0.054700844 0.040445574 0.032864258
00000000: f796 ff3c eab1 51bd a580 83bd ea5c 8c3d
00000010: 8abd 1a3d 21c9 2ebd b5b0 b2bc 9048 303d
00000020: 6c86 4c3b f141 1abd b8cf 9d3c 3606 023d
00000030: ecb8 bc3d 9fb2 dd3c 46bf 1d3d 2a36 ab3d
00000040: 664c 563d 1695 173d e3b0 053d a8dd 7cbc
00000050: 06f4 b2bc 964d b73c d25a 4dbd 4ef0 53bc
00000060: ef94 413d eac0 d33c 666e 843d 72d2 2fbc
00000070: 0c62 833d 5eac 1e3d fe29 d83d 9a9e b73c
00000080: c43b 493d 9ee2 6e3d 4892 013d 6982 f4bc
00000090: 3c75 723c cc4d 3fbd 6251 89bd de91 d4bc
000000a0: 4886 31bd c832 c53c b141 c73d d8fc b8bb
000000b0: b790 263d 2e75 af3d ee69 253d 03e8 6c3d
000000c0: a30e 843d 544c 00bd 5852 72bd 2d1b 18bd
000000d0: 52f8 7dbd 24cd 5e3d 4cea e7bc 1da8 5fbd
000000e0: f943 35bd 6484 683d ca5a 903d 321e 14bc
000000f0: f16f 6e3d 4680 e63c 1e24 b23c ee67 e33d
00000100: e81f 763d edfd 21bd d258 ca3d 820a 073d
00000110: a842 e9bc 1af0 8a3c 2f25 0cbd 56b6 2b3d
00000120: e3c4 0bbb df12 20bd 09c2 5abd 829e 853d
00000130: 321f 1abc d642 143d 8ac6 1a3d 74f7 85bc
00000140: ffa6 a63c 800b 873d 9263 413d ba48 143c
00000150: 2b5e 5a3c f666 8c3d 8afa d9bc a87d 133d
00000160: 0d99 3ebd ba6b 823d af43 103d 8f83 8bbd
00000170: ac82 bfbc 8f85 0cbd b22f 0ebd 40b1 4dbd
00000180: 864e f9bc 0ea5 d7bc 76f1 0fbd e735 9e3d
00000190: 468a c73c dcba cbbc 6a96 b93d 3ce0 643c
000001a0: 109d 673b 4ae3 983d d66b 3f3d 52ee 89bc
000001b0: 2fa6 973c 8695 2f3c 93bc 293c a15b 06bd
000001c0: a04a 443d 623a 413d cb0f da3c c0b8 41bd
000001d0: 5e1f 8a3d 9d17 bcbc 8c2f ed3c bcd0 27bb
000001e0: 57de 74bc 3621 ef3c 6532 71bd c34a 863c
000001f0: fb09 ebbb 9e80 803d 450a 743d 9875 2c3d
00000200: 93f7 613d 7ce4 763d 68ff 39bd ceba 533c
00000210: 0c4b 7a3d e20f 8fbd 6c25 583d 9088 e73b
00000220: f2f3 44bc a08e 483d 1382 a1bc c64b c9bc
00000230: 5d4f 75bd 5551 8e3d 42df 37bd aa6a e2bb
00000240: 9c80 6d3c fe74 41bb 0667 6dbd cc9b 0f3d
00000250: b1ad 65bd aae8 16bd bf01 a63c e93a 09bd
00000260: 70f7 aabc ba5f 043d 54f0 8cbd 100d 0a3d
00000270: b986 d43d e082 a03c 7279 25bd 8ab0 6b3d
00000280: a0a1 64bd f4bf 463c 45bb 8e3d 1baa 1a3d
00000290: 6254 75bb 7b6e 15bd cc6e a13c 4a94 4c3d
000002a0: b63d 3f3d c096 d2bc 6cd2 6abd e4d3 ee3c
000002b0: 8917 04bd d509 45bc ee04 253d d15c 17bd
000002c0: 447c 923d f1fb 4bbd 7019 84bd 33cb 91bd
000002d0: 3fe0 a33d fba5 863d 6617 0ebd 18f9 4ebc
000002e0: 54d8 94bb e257 073c ce59 3a3d 68f8 9dbc
000002f0: 96c2 b43c 47ca 0b3d 9863 813d 4f13 7f3d
00000300: 00fd 29bc bf79 5a3d ec57 c63c e315 8b3d
00000310: ae64 3a3d 8d68 23bd 8aa3 5cbd 4089 863d
00000320: 3ccf 5e3c 1ecb 633d 95c7 663d 2389 5ebd
00000330: 8231 9e3b d0d0 61bc 6c2e 643d 51a8 bc3c
00000340: fcda 393c 4689 783d 9416 143c 4b61 17bd
00000350: 7277 74bd 81f2 57bd 8d01 bf3c 0a98 90bd
00000360: fe65 373c 694d 85bd e390 603d 812d 4b3d
00000370: 0822 88bd a446 91bc 0308 39bd 7eb6 06bd
00000380: 8a39 2c3c c925 31bd be37 d4bb abca b23b
00000390: 783a 433d 2773 23bd 9391 343d 6e33 3a3b
000003a0: 4ed8 19bd a614 37bd 800c 23bd b255 90bd
000003b0: 0f5e f7bc bb7d e13c faa5 4cbd 7026 b7bb
000003c0: 9875 04bc 00d8 68bd fadf c5bc 1226 1b3d
000003d0: 9cfc 80bd d64c a33a f8c4 e9bb 86a8 78ba
000003e0: ecc5 603d 8dff 0f3d e8e3 633d 841f f6bc
000003f0: f2ea 04bd fe0d 603d 42aa 253d ac9c 063d

net.6.bias f4 [64]
0.06547672 0.056723136 0.09698718 0.07459547 0.09403745 -0.028389357 -0.0021200234 0.12098414
-0.010022816 0.039100666 0.12191886 0.037427038 0.1396 0.030240266 -0.08180929 0.070156746
0.008187537 0.031651307 0.03987375 0.039032303 0.012725488 0.009155959 -0.083518274 0.0457018
0.11467182 -0.065729074 0.05666583 0.019846866 0.006536962 0.05135449 0.029171927 -0.0032386135
0.0153611265 0.097783975 0.10316088 0.07724113 0.07222515 0.10364826 0.11653002 0.11979716
0.045041386 0.07314153 -0.06859258 -0.034661345 0.06318661 0.089365005 0.10078095 0.081686534
0.024640976 -0.07035644 0.08836145 0.015320511 0.023999358 0.0041679563 -0.021291956 0.068235844
0.0423804 0.077859454 -0.074401006 0.107276164 0.009362085 0.09671833 0.1419368 -0.00031367887
00000000: a918 863d 8556 683d 37a1 c63d 83c5 983d
00000010: b596 c03d cc90 e8bc 17f0 0abb 88c6 f73d
00000020: bd36 24bc 0528 203d 98b0 f93d 184d 193d
00000030: 4df3 0e3e 6fba f73c a18b a7bd 57ae 8f3d
00000040: 0525 063c cda4 013d a852 233d 56e0 1f3d
00000050: 917e 503c e002 163c a10b abbd d031 3b3d
00000060: 0fd9 ea3d f79c 86bd 6e1a 683d e595 a23c
00000070: 0334 d63b 1659 523d f7f9 ee3c eb3e 54bb
00000080: 3cad 7b3c f742 c83d 0346 d33d 9930 9e3d
00000090: c8ea 933d 8a45 d43d 4ba7 ee3d 3758 f53d
000000a0: 517d 383d 3acb 953d 447a 8cbd 0ef9 0dbd
000000b0: fb67 813d 0005 b73d 3e66 ce3d 454b a73d
000000c0: dfdb c93c 0a17 90bd d9f6 b43d e102 7b3c
000000d0: 4d9a c43c 5a93 883b 786c aebc 3cbf 8b3d
000000e0: 1297 2d3d c774 9f3d 8e5f 98bd 9bb3 db3d
000000f0: 6e63 193c 4314 c63d e157 113e 4475 a4b9

net.9.weight f4 [64, 64, 3]
-0.09344654 0.05835315 -0.014947651 -0.022159632 -0.0380429 -0.007358271 0.03155664 -0.0062336233
0.056822248 0.028264917 0.037794404 0.065200254 -0.027952416 0.044545554 0.037497535 -0.023376584
0.059385985 -0.03501265 0.059918538 -0.06774179 -0.04692751 -0.05554935 -0.059882853 0.027503818
0.03211298 0.028635822 -0.022318725 -0.051883895 -0.0317274 0.022309586 -0.05031376 0.042555086
0.020643275 0.03163121 0.026458656 -0.024309888 0.029591272 0.014810503 -0.05904081 -0.04809527
0.027831092 -0.040031075 0.0075992327 0.03192368 -0.037507113 -0.066088155 0.053830095 -0.02633873
-0.04017751 -0.021927215 0.057744063 -0.0613139 -0.01690805 0.06210742 0.0060882657 -0.07155811
0.049665436 0.020262877 0.04523872 -0.031070773 -0.018385183 0.06991726 -0.023217116 -0.012634272
-0.0544466 0.020911885 0.027934708 0.041249767 -0.045625728 -0.009212766 0.02154421 0.011891253
0.050813317 -0.07047339 -0.05139838 0.022863602 0.06904307 0.04451412 0.048293818 -0.06637927
-0.01216506 0.01474136 -0.032871835 0.03432811 0.035181485 -0.0065859463 -0.04324145 0.015881589
0.004298508 0.067847714 -0.017658154 -0.059445865 0.047285028 0.045081038 0.03748063 0.03227041
-0.068685174 -0.04519535 -0.033951852 0.007930119 -0.035240892 0.029656673 0.01972523 -0.006044129
-0.021773383 -0.030113194 -0.029358767 0.032974705 -0.0042122356 -0.03787445 -0.01609946 -0.02682792
-0.055480614 0.03657119 -0.0802447 -0.016572863 0.03938839 0.010710918 -0.00038594223 0.06219306
0.020342737 -0.069812104 0.015902631 -0.00078707526 -0.06400733 0.05071526 -0.0193437 -0.03487311
-0.034442153 -0.02249677 0.04884993 -0.055998098 0.0060515804 0.003650433 -0.06635043 -0.064431325
-0.06144374 -0.047284905 0.056737874 0.00070325576 -0.029023707 -0.038467173 -0.032706812 0.029257644
-0.07013318 0.06401406 -0.05817221 0.029524097 -0.028849866 0.04680738 0.027889457 -0.041026495
0.017882466 0.031136053 -0.01180028 -0.013696076 -0.07797736 -0.071783565 0.0031445506 0.00779527
0.028966434 0.048528567 -0.05129631 0.0010455237 -0.05307508 -0.005212866 0.003074007 -0.032464825
0.025412122 0.06434392 -0.059171356 -0.07057407 0.025042761 -0.025564875 0.037784822 -0.019806601
-0.07024805 -0.049073517 -0.06485451 0.031605996 0.0053162733 0.0018369476 -0.06355804 -0.023766916
0.06852695 -0.007916072 -0.08163466 0.040283717 0.021730218 0.04192933 -0.011586914 0.041697532
0.01959662 -0.06250023 -0.055957634 -0.028173575 -0.0019269004 0.04722015 0.0639819 9.109617e-05
-0.013124319 0.01265789 0.037559763 0.022439126 -0.026312258 -0.010362415 0.042974144 -0.065092616
0.0699604 -0.0115908515 0.01338926 -0.06267837 -0.036915354 -0.046895936 -0.0026843373 -0.025006836
-0.033752333 -0.051636264 0.038319588 -0.006501214 0.040027335 -0.044455465 -0.03696295 0.020050041
0.030258458 0.046454996 0.05744774 0.06290418 -0.04037976 0.04325507 0.025960848 -0.0075022415
-0.06637112 -0.0025548553 -0.029690675 -0.039631125 0.0099742245 0.029904531 0.0074124187 -0.0032382007
-0.017852135 -0.04926055 -0.032114428 -0.033192083 0.021761838 -0.049683224 0.058629908 0.069909304
-0.01887564 -0.03442726 0.040025964 0.03136812 -0.016379677 0.052717052 -0.06975989 -0.069651
00000000: e660 bfbd b603 6f3d fee6 74bc 1e88 b5bc
00000010: dfd2 1bbd a71d f1bb 8941 013d 6c43 ccbb
00000020: 72be 683d d48b e73c 4ece 1a3d b687 853d
00000030: 77fc e4bc 6675 363d 0497 193d 4080 bfbc
00000040: b83e 733d 6d69 0fbd 246d 753d 35bc 8abd
00000050: 1037 40bd b787 63bd b947 75bd b04f e13c
00000060: e688 033d ac95 ea3c c2d5 b6bc 3584 54bd
00000070: 97f4 01bd 98c2 b63c cd15 4ebd 3e4e 2e3d
00000080: 161c a93c ba8f 013d d3bf d83c 8825 c7bc
00000090: 6569 f23c c1a7 723c c7d4 71bd 8cff 44bd
000000a0: 08fe e33c a0f7 23bd fc02 f93b 68c2 023d
000000b0: 0fa1 19bd 3a59 87bd f27c 5c3d 52c4 d7bc
000000c0: 2c91 24bd b4a0 b3bc 0a85 6c3d 4924 7bbd
000000d0: c082 8abc 5a64 7e3d 1380 c73b 0f8d 92bd
000000e0: fc6d 4b3d 55fe a53c 3c4c 393d 2288 febc
000000f0: 869c 96bc c830 8f3d d231 bebc faff 4ebc
00000100: 6603 5fbd 674f ab3c 54d7 e43c 84f5 283d
00000110: 0be2 3abd 24f1 16bc 7c7d b03c 88d3 423c
00000120: a021 503d 5a54 90bd 1c87 52bd 734c bb3c
00000130: 7466 8d3d 7054 363d bdcf 453d dbf1 87bd
00000140: f64f 47bc bf85 713c 9ea4 06bd a29b 0c3d
00000150: 761a 103d ecce d7bb f21d 31bd 1b1a 823c
00000160: 80da 8c3b bef3 8a3d d5a7 90bc 827d 73bd
00000170: f2ad 413d e5a6 383d 4a85 193d fa2d 043d
00000180: d0aa 8cbd c21e 39bd 1911 0bbd 54ed 013c
00000190: c158 10bd 8df2 f23c ce96 a13c d40d c6bb
000001a0: 185e b2bc f2af f6bc cc81 f0bc 7c10 073d
000001b0: cb06 8abb 3d22 1bbd 04e3 83bc 3ac6 dbbc
000001c0: a43f 63bd accb 153d 5557 a4bd d0c3 87bc
000001d0: b855 213d d97c 2f3c 4a58 cab9 26be 7e3d
000001e0: d0a5 a63c a6f9 8ebd 3c46 823c ba53 4eba
000001f0: 4616 83bd ceba 4f3d ae76 9ebc 1bd7 0ebd
00000200: 3713 0dbd 254b b8bc dd16 483d 435e 65bd
00000210: 564c c63b 1a3c 6f3b bce2 87bd 92f4 83bd
00000220: 6eac 7bbd d1ad 41bd f965 683d b25a 383a
00000230: 20c3 edbc c18f 1dbd 94f7 05bd baad ef3c
00000240: fca1 8fbd ce19 833d fc45 6ebd 85dc f13c
00000250: 8e56 ecbc 18b9 3f3d 6e78 e43c 660b 28bd
00000260: 407e 923c 0911 ff3c f655 41bc 8265 60bc
00000270: 98b2 9fbd 4303 93bd ce14 4e3b 776f ff3b
00000280: 044b ed3c e4c5 463d 141c 52bd f409 893a
00000290: 4165 59bd b0d0 aabb 4875 493b d6f9 04bd
000002a0: 152d d03c bfc6 833d aa5d 72bd 2389 90bd
000002b0: 7a26 cd3c 6e6d d1bc 42c4 1a3d 7441 a2bc
000002c0: 36de 8fbd 5001 49bd 71d2 84bd 4a75 013d
000002d0: 2234 ae3b bcc5 f03a b82a 82bd d6b2 c2bc
000002e0: dc57 8c3d 6ab2 01bc 1330 a7bd 8a00 253d
000002f0: 9203 b23c 17be 2b3d 0ad7 3dbc 08cb 2a3d
00000300: 1789 a03c 1f00 80bd d533 65bd 45cc e6bc
00000310: 0c90 fcba ea69 413d f108 833d e20a bf38
00000320: 6207 57bc 0a63 4f3c 44d8 193d 42d2 b73c
00000330: ce8c d7bc 1ec7 29bc a805 303d 474f 85bd
00000340: 6647 8f3d 8ee7 3dbc a05e 5b3c 845d 80bd
00000350: 8e34 17bd f415 40bd b5eb 2fbb 23db ccbc
00000360: e33f 0abd 8c80 53bd 00f5 1c3d 2308 d5bb
00000370: b4f3 233d ef16 36bd 7666 17bd fc3f a43c
00000380: 96e0 f73c 9847 3e3d 524e 6b3d e8d3 803d
00000390: 3f65 25bd 3a2c 313d d8ab d43c 5dd5 f5bb
000003a0: 95ed 87bd 5c6f 27bb dc39 f3bc 3f54 22bd
000003b0: ee6a 233c 59fa f43c e0e3 f23b fe37 54bb
000003c0: a43e 92bc 6ec5 49bd 6b8a 03bd 6cf4 07bd
000003d0: e245 b23c a380 4bbd ea25 703d 9c2c 8f3d
000003e0: 16a1 9abc 9903 0dbd 44f2 233d dc7b 003d
000003f0: ac2e 86bc d6ed 573d 46de 8ebd 2fa5 8ebd

net.9.bias f4 [64]
-0.017219312 -0.03499248 0.108674094 0.014197203 0.01488138 -0.019681267 -0.04624638 0.113396116
-0.035204787 0.10781473 0.120599456 -0.006532134 -0.014505749 0.095438525 0.007382689 0.1285203
0.10372671 0.034820627 0.1455323 -0.065808006 -0.06467126 -0.041913904 0.11064539 0.064197764
-0.054279935 0.06575888 0.13807374 0.065213956 0.106923506 0.13857855 -0.059994355 0.0570287
-0.01038651 0.021734698 0.11276396 -0.0062038098 -0.083931066 0.107138604 0.105485745 0.0145130195
0.025917912 0.11332003 0.0707745 0.10121389 0.06821979 -0.0025406133 -0.0032506145 -0.03082168
0.019225718 0.07475166 0.107596226 -0.023397684 -0.02931971 0.0017188374 0.11941539 0.14266737
0.008708302 -0.009303961 0.04606111 -0.02026483 -0.023325868 0.11414802 0.006074407 -0.03801949
00000000: 840f 8dbc 4654 0fbd 8690 de3d 639b 683c
00000010: 08d1 733c 9c3a a1bc d86c 3dbd 393c e83d
00000020: e532 10bd f8cd dc3d d9fc f63d 830b d6bb
00000030: 85a9 6dbc 4675 c33d 7cea f13b d39a 033e
00000040: ab6e d43d 13a0 0e3d 6b06 153e 59c6 86bd
00000050: 5e72 84bd eaad 2bbd 0d9a e23d 1e7a 833d
00000060: a354 5ebd 97ac 863d 3463 0d3e e58e 853d
00000070: b6fa da3d 89e7 0d3e a4bc 75bd ed96 693d
00000080: 2e2c 2abc f70c b23c cbf0 e63d 5449 cbbb
00000090: 0de4 abbd 7c6b db3d e908 d83d 04c8 6d3c
000000a0: cd51 d43c 5514 e83d 39f2 903d 3a49 cf3d
000000b0: d1b6 8b3d 6b80 26bb 4308 55bb bf7d fcbc
000000c0: 417f 9d3c 6617 993d 695b dc3d 80ac bfbc
000000d0: e32f f0bc 9d4a e13a 0e90 f43d 6517 123e
000000e0: 44ad 0e3c a46f 18bc 93aa 3c3d 6e02 a6bc
000000f0: e415 bfbc 70c6 e93d d20b c73b 53ba 1bbd

net.12.weight f4 [64, 64, 3]
0.03804158 -0.012524309 0.065711364 0.04695952 -0.03354905 -0.06702333 -0.05856763 0.049865887
0.04262396 -0.081106156 -0.009813406 0.045375615 0.014367494 0.0657661 -0.028648809 -0.02120106
-0.028295532 0.03970938 -0.0010219049 -0.009562446 -0.03218002 -0.047897603 0.068380386 0.023078538
0.06292239 0.027865373 -0.061601974 -0.07532415 0.05386444 -0.039386485 0.02297088 0.019680075
0.026053376 -0.052722543 -0.06423413 -0.07122481 0.005611197 -0.04437339 0.034567386 0.00044144035
-0.071047224 0.03826621 0.039058976 0.010215681 0.00518125 -0.023522329 0.0044017797 0.065038644
-0.0051745577 0.008726653 -0.025734475 -0.0435546 -0.06548842 -0.037084382 -0.07782574 -0.051040217
0.067992665 -0.030073177 -0.04667547 0.06598607 -0.028752062 0.0038865763 -0.007229588 -0.050210394
-0.038393117 0.056918435 -0.04569135 -0.04327559 0.05888044 0.033970084 0.042999037 -0.0008472225
-0.0031375545 0.05108087 0.05433029 0.005817188 -0.0319866 -0.06579912 -0.0632716 0.0478146
0.022380142 -0.010280653 -0.032564938 -0.05432566 0.034592517 -0.040784787 -0.015988719 -0.03175235
-0.04795439 -0.0171755 0.06075272 -0.016181558 0.06419988 -0.040449955 0.06730622 -0.036759276
-0.03029643 0.044419143 0.03431803 0.02611634 0.005611495 0.012576541 -0.05323794 -0.018692214
0.0027643102 0.046064984 0.020142369 0.032775998 0.021987312 0.005361746 -0.0053572236 -0.05676938
0.046661478 0.043794006 -0.006611646 0.05490303 0.053086765 -0.051557694 0.06520873 -0.020982958
-0.08808923 -0.055693097 0.020718044 -0.08312836 0.0057602115 0.059229754 0.039625023 0.015038308
-0.031043787 0.046089046 -0.00922077 0.04519727 -0.06866546 -0.010098802 0.029896881 -0.02648004
0.03303981 0.0719679 0.0025708512 -0.016857937 -0.071276374 -0.0009099268 -0.071302585 0.018540427
0.05337312 -0.035379414 0.02069242 -0.0087837195 -0.0054636244 0.01833262 -0.059839703 -0.06578202
-0.040428564 -0.009126142 -0.05654324 -0.043186888 0.0031582974 -0.038826507 -0.031368237 0.05031336
-0.028798532 0.06962468 -0.08129403 0.042342447 0.0676866 -0.061148588 -0.027544983 -0.053450298
0.0033890689 0.030686524 0.061954 -0.06943688 0.04923052 -0.039097197 0.0077945837 -0.017549288
0.064320385 -0.051182896 0.013237741 0.010716138 -0.040024295 -0.007729223 -0.06599115 0.0038627617
0.055239353 -0.053063378 0.021797167 -0.0422666 0.034448296 -0.009340854 0.01448226 -0.013742518
0.026954671 0.048148178 0.029591087 0.02213501 -0.010862408 0.05507399 -0.030535992 -0.059031177
0.033458315 0.01989517 0.022998571 0.058800712 0.03907225 0.067211635 0.014899312 0.048953705
0.0161882 -0.015984237 -0.02812402 -0.0041739885 0.044547856 0.08070012 0.02932252 0.047780614
0.04306334 0.0028718617 0.061549652 -0.0007155028 0.0028897545 -0.028779447 0.030049426 0.012655273
-0.070342824 0.007316929 0.055276014 -0.022407012 0.047591127 -0.065531336 -0.07146604 -0.04113737
0.008933477 0.025064435 -0.0141242305 -0.012209769 0.004870535 0.013137437 -0.07077169 0.041598104
0.027942311 0.070760414 -0.06929988 0.081712335 -0.03342953 -0.05623773 0.040310964 -0.06582684
-0.041286986 0.062108845 0.06354003 0.025363868 -0.02649576 0.057247296 0.0440168 -0.057482712
00000000: 7dd1 1b3d c232 4dbc ae93 863d a058 403d
00000010: bb6a 09bd 8743 89bd 9ce4 6fbd 2c40 4c3d
00000020: 7696 2e3d fc1a a6bd 68c8 20bc c8db 393d
00000030: a365 6b3c 61b0 863d e8b0 eabc d8ad adbc
00000040: 08cc e7bc 4ea6 223d 70f1 85ba ceab 1cbc
00000050: 32cf 03bd 4730 44bd 040b 8c3d 340f bd3c
00000060: 74dd 803d ec45 e43c 5a52 7cbd 8c43 9abd
00000070: f6a0 5c3d b953 21bd 6d2d bc3c 1c38 a13c
00000080: e46d d53c 98f3 57bd 2f8d 83bd 50de 91bd
00000090: 22de b73b dfc0 35bd 8896 0d3d 1f71 e739
000000a0: 3581 91bd 08bd 1c3d 4efc 1f3d ac5f 273c
000000b0: 7ac7 a93b e6b1 c0bc ce3c 903b fb32 853d
000000c0: 568f a9bb 3cfa 0e3c 1bd1 d2bc 4f66 32bd
000000d0: cb1e 86bd cbe5 17bd 1a63 9fbd 8c0f 51bd
000000e0: bd3f 8b3d 065c f6bc c72e 3fbd b423 873d
000000f0: 7289 ebbc eeb5 7e3b 2ee6 ecbb 6aa9 4dbd
00000100: 1a42 1dbd 4e23 693d da26 3bbd bf41 31bd
00000110: 9e2c 713d 3724 0b3d c21f 303d 2418 5eba
00000120: 6e9f 4dbb 2d3a 513d 7089 5e3d 1c9e be3b
00000130: 6204 03bd b0c1 86bd 8a94 81bd 3ed9 433d
00000140: 8f56 b73c 2f70 28bc d062 05bd 9584 5ebd
00000150: e2b0 0d3d f30d 27bd c6fa 82bc c10e 02bd
00000160: d36b 44bd a2b3 8cbc d8d7 783d 308f 84bc
00000170: 3a7b 833d daae 25bd d8d7 893d e590 16bd
00000180: 3830 f8bc d9f0 353d 1091 0c3d eff1 d53c
00000190: a2e0 b73b d60d 4e3c 0710 5abd 6a20 99bc
000001a0: 6e29 353b a3ae 3c3d 9c01 a53c 2040 063d
000001b0: bc1e b43c 96b1 af3b a68b afbb 0287 68bd
000001c0: 1b20 3f3d 5861 333d 82a6 d8bb 00e2 603d
000001d0: 8271 593d 292e 53bd 288c 853d 74e4 abbc
000001e0: 2068 b4bd 721e 64bd e3b8 a93c 343f aabd
000001f0: 28c0 bc3b e69a 723d d94d 223d 3c63 763c
00000200: 8a4f febc dec7 3c3d b612 17bc c620 393d
00000210: 7aa0 8cbd 7275 25bc 4eea f43c abec d8bc
00000220: c054 073d e863 933d ba7b 283b a819 8abc
00000230: 59f9 91bd 2788 6eba 1707 92bd 18e2 973c
00000240: c69d 5a3d 01ea 10bd 2683 a93c 97e9 0fbc
00000250: 3408 b3bb 4a2e 963c 7a1a 75bd b9b8 86bd
00000260: 6c98 25bd d085 15bc e299 67bd bce4 30bd
00000270: 70fb 4e3b 8b08 1fbd fb7b 00bd 6215 4e3d
00000280: e6ea ebbc 6297 8e3d 7c7d a6bd 466f 2d3d
00000290: 469f 8a3d f176 7abd 04a6 e1bc b3ee 5abd
000002a0: 241b 5e3b 4e62 fb3c 7ac3 7d3d ec34 8ebd
000002b0: f1a5 493d 6224 20bd b569 ff3b 86c3 8fbc
000002c0: 68ba 833d 28a5 51bd 1ce3 583c be92 2f3c
000002d0: 84f0 23bd 6c45 fdbb 5e26 87bd 6326 7d3b
000002e0: a942 623d fc58 59bd f98f b23c be1f 2dbd
000002f0: a819 0d3d 620a 19bc 0047 6d3c 4c28 61bc
00000300: 0bd0 dc3c 0637 453d 0269 f23c 7b54 b53c
00000310: 3ef8 31bc 4495 613d 9e26 fabc adca 71bd
00000320: 960b 093d 32fb a23c 8067 bc3c 04d9 703d
00000330: 390a 203d 41a6 893d 3e1c 743c ae83 483d
00000340: 1e9d 843c 60f1 82bc 5864 e6bc f4c5 88bb
00000350: d077 363d 1b46 a53d c835 f03c 9bb5 433d
00000360: 2f63 303d d835 3c3b 7d1b 7c3d 9590 3bba
00000370: 0962 3d3b e0c2 ebbc 372a f63c 1058 4f3c
00000380: e60f 90bd d9c2 ef3b 1a69 623d e98e b7bc
00000390: eaee 423d 4b35 86bd ca5c 92bd a97f 28bd
000003a0: b85d 123c ee53 cd3c 5169 67bc 7c0b 48bc
000003b0: 0299 9f3b 683e 573c bff0 90bd c662 2a3d
000003c0: 46e7 e43c d6ea 903d 18ed 8dbd cc58 a73d
000003d0: 67ed 08bd 8959 66bd 1c1d 253d 39d0 86bd
000003e0: 8b1c 29bd d865 7e3d 4621 823d e3c7 cf3c
000003f0: a30d d9bc 247c 6a3d f64a 343d fe72 6bbd

net.12.bias f4 [64]
0.022670949 0.039161354 0.052039318 0.099121906 0.008746763 0.13898785 0.05802679 0.097040236
-0.064813696 0.027505778 0.098402224 0.09028411 0.051658023 0.030727351 0.059258956 0.015561756
-0.001246842 0.10316046 0.070202656 0.07857584 0.11636861 0.057249174 0.02414762 0.070746355
-0.017847022 0.1284063 0.047835965 0.12021629 -0.028356679 0.12598626 -0.00032342685 0.1270072
0.039598648 -0.015173508 0.086113915 0.115600444 -0.03921899 0.10186569 -0.004823883 0.06877719
0.030860743 0.013162227 0.08495775 -0.0027318296 -0.012525415 0.06041048 0.13599668 0.018319419
0.112846404 0.12688923 0.022488164 0.016020566 -0.021577042 0.047006607 0.12860861 0.10275031
0.033244662 0.10094384 0.07514402 -0.032348827 0.080868416 0.14620982 0.108960055 0.034050584
00000000: 6db8 b93c a867 203d 2e27 553d 6d00 cb3d
00000010: 954e 0f3c d552 0e3e 80ad 6d3d 08bd c63d
00000020: 0bbd 84bd cc53 e13c 1b87 c93d e0e6 b83d
00000030: 5d97 533d edb7 fb3c 85b9 723d bcf6 7e3c
00000040: 136d a3ba cb45 d33d 69c6 8f3d 5fec a03d
00000050: aa52 ee3d 1c7e 6a3d 3bd1 c53c 77e3 903d
00000060: eb33 92bc f17c 033e a5ef 433d f533 f63d
00000070: 444c e8bc 8b02 013e 9e91 a9b9 2d0e 023e
00000080: 3132 223d 4e9a 78bc 7e5c b03d edbf ec3d
00000090: 17a4 20bd f59e d03d aa11 9ebb 0edb 8c3d
000000a0: abcf fc3c 62a6 573c 54fe ad3d 7f08 33bb
000000b0: 6637 4dbc fb70 773d b742 0b3e 9b12 963c
000000c0: 041c e73d 40ef 013e 1939 b83c 903d 833c
000000d0: 56c2 b0bc 008a 403d fab1 033e c16e d23d
000000e0: 8e2b 083d a5bb ce3d 1ce5 993d 3480 04bd
000000f0: 579e a53d 07b8 153e 7326 df3d a078 0b3d

net.15.weight f4 [64, 64, 3]
0.038582034 0.062596336 0.06257126 0.058782756 -0.043000884 -0.05240284 -0.054727715 -0.062423468
-0.060416088 0.009140607 -0.033963542 -0.010474382 -0.031278472 -0.044522263 0.05760657 -0.04306657
0.016848665 -0.008800825 0.03888406 -0.028384313 0.014726708 0.005853135 0.04223384 0.04581488
0.02392402 0.015523581 -0.00096811436 -0.0075970674 0.044660226 -0.05442776 0.027399618 0.022544872
0.041984364 -0.03004942 -0.029844563 -0.06544813 -0.050364975 -0.06943527 -0.05890898 -0.07833519
-0.04948667 -0.06169587 -0.06297931 -0.040401395 -0.058105033 0.006463321 0.024835654 0.036423318
0.06632304 -0.06471424 -0.042378202 -0.06677868 0.013949271 0.062372923 -0.028783496 0.04403261
-0.03281122 0.0146652805 -0.059714694 -0.02427195 -0.0029199559 0.023074605 0.004651215 -0.022247404
-0.027221356 -0.023098007 -0.024827605 0.05786881 -0.06619849 -0.037752077 0.05658692 -0.04678144
-0.06917214 -0.015053775 0.037790343 -0.06668171 -0.054955155 -0.028870815 -0.0477777 -0.035494
0.0049919295 0.023694796 0.05628684 0.00828095 -0.044116326 0.02599588 0.04105255 -0.08425632
0.06690174 -0.020356841 0.047389187 0.039953586 0.050060257 0.002563931 0.035016432 0.009039016
0.022672825 -0.05762268 -0.03617024 0.058724046 -0.04394068 -0.026438285 -0.07874669 0.027077027
-0.06520733 -0.0042419764 -0.050689727 -0.0081966 0.031663783 0.00825038 -0.011374672 0.049157914
-0.028273799 -0.07027407 -0.051252477 -0.0116697075 -0.015404101 -0.000104117644 -0.059180785 0.059943013
-0.07018262 -0.045193456 -0.06710815 0.028368529 0.028046895 -0.018945944 0.055081148 -0.039634995
-0.0639252 0.016679201 0.023820847 0.027956173 0.027407937 0.007498858 0.06591159 -0.001064553
-0.06269116 0.025007667 0.040375277 0.041576594 0.021935217 -0.019660797 -0.018314458 0.07188672
0.005589711 0.06588924 0.055654794 -0.034772135 -0.024422182 0.041556522 0.031620275 0.044834368
0.033315986 0.0014818165 0.027530216 0.048914675 0.032960087 -0.06704442 0.055929087 0.043781843
0.024035502 0.05025579 -0.04045268 0.04345887 0.0013589461 -0.033545356 -0.025357656 -0.011608282
0.029872322 -0.045430385 -0.03262733 -0.043006174 -0.0011548232 0.04838317 0.03616932 0.06363027
0.032413743 -0.02267512 -0.051935226 -0.0039385976 -0.069588214 -0.0035774233 0.007854583 -0.02669594
-0.053692196 0.009124499 0.057632077 0.070432186 0.042556666 -0.035911813 0.06883964 -0.04436647
0.064911306 0.03396862 0.010673536 0.018108157 0.044315748 -0.004729813 -0.07486391 -0.06720648
0.0265706 0.0009608623 -0.01556949 -0.010823774 -0.028792776 0.05557886 -0.06651234 0.0012335958
-0.023245584 -0.047944866 -0.022690786 0.009378152 -0.024694052 -0.052010436 0.043104112 -0.042222243
-0.012166103 0.04794185 0.018194057 0.008838074 -0.009798566 0.021439042 0.04867199 0.055906203
-0.07097945 -0.005281736 0.03392794 0.0004586036 0.020190543 0.032379575 -0.012165258 0.0462348
0.059393466 -0.058232907 0.05874811 -0.020380955 -0.027476579 -0.0732139 -0.0012414034 0.037177294
0.03666895 0.014759241 0.012470011 0.023125954 -0.05681346 0.04318951 -0.0047109756 0.03151156
0.035376213 -0.06337875 -0.018298738 -0.020206433 -0.0286701 -0.020434733 -0.03413509 -0.01371901
00000000: 3208 1e3d 8232 803d 5c25 803d 30c6 703d
00000010: b221 30bd 5ca4 56bd 2b2a 60bd c0af 7fbd
00000020: dc76 77bd 7cc2 153c 5b1d 0bbd be9c 2bbc
00000030: db1d 00bd fa5c 36bd def4 6b3d 9266 30bd
00000040: 3606 8a3c 5631 10bc e444 1f3d 3886 e8bc
00000050: 4a48 713c a8cb bf3b 64fd 2c3d 62a8 3b3d
00000060: 4efc c33c 9e56 7e3c 0ec9 7dba d2f0 f8bb
00000070: a4ed 363d a5ef 5ebd 2a75 e03c 06b0 b83c
00000080: ccf7 2b3d 342a f6bc 967c f4bc ab09 86bd
00000090: 814b 4ebd 1434 8ebd 8b4a 71bd 336e a0bd
000000a0: 89b2 4abd cfb4 7cbd 4cfb 80bd ef7b 25bd
000000b0: 8bff 6dbd 44ca d33b 2474 cb3c 9e30 153d
000000c0: 60d4 873d e688 84bd c494 2dbd 43c3 88bd
000000d0: 7c8b 643c c07a 7f3d 5ecb ebbc 8a5b 343d
000000e0: 0f65 06bd a546 703c 6597 74bd f8d5 c6bc
000000f0: bb5c 3fbb f406 bd3c 3869 983b 3040 b6bc
00000100: 52ff debc 0838 bdbc 4363 cbbc d807 6d3d
00000110: 1393 87bd eca1 1abd b0c7 673d e59d 3fbd
00000120: 1faa 8dbd 1ca4 76bc 0cca 1a3d 6c90 88bd
00000130: a818 61bd 7d82 ecbc 8db2 43bd 2862 11bd
00000140: 5793 a33b 971b c23c 088d 663d d2ac 073c
00000150: 52b3 34bd 50f5 d43c b826 283d 948e acbd
00000160: c803 893d 64c3 a6bc 2a1b 423d 5fa6 233d
00000170: fc0b 4d3d a007 283b 646d 0f3d 6218 143c
00000180: 5cbc b93c c205 6cbd 3f27 14bd a088 703d
00000190: 24fb 33bd 1a95 d8bc f245 a1bd a4d0 dd3c
000001a0: 6c8b 85bd 4700 8bbb 08a0 4fbd 084b 06bc
000001b0: e2b1 013d 9a2c 073c d55c 3abc cf59 493d
000001c0: 749e e7bc daeb 8fbd 1eee 51bd 4d32 3fbc
000001d0: 7c61 7cbc bc59 dab8 8d67 72bd ce86 753d
000001e0: e8bb 8fbd c61c 39bd ff6f 89bd 1e65 e83c
000001f0: 9ac2 e53c 8634 9bbc c59c 613d 4e58 22bd
00000200: 37eb 82bd d2a2 883c f023 c33c 5804 e53c
00000210: 9c86 e03c fbb8 f53b a8fc 863d 7988 8bba
00000220: 3964 80bd e1dc cc3c 8c60 253d 384c 2a3d
00000230: 7cb1 b33c ae0f a1bc 3408 96bc 5839 933d
00000240: e529 b73b f0f0 863d 48f6 633d 3a6d 0ebd
00000250: 0711 c8bc 2c37 2a3d 4384 013d 3ea4 373d
00000260: 5876 083d 8339 c23a 0c87 e13c c15a 483d
00000270: 2801 073d 964e 89bd e615 653d 9754 333d
00000280: 1ae6 c43c 04d9 4d3d b6b1 25bd ee01 323d
00000290: aa1e b23a db66 09bd dcba cfbc aa30 3ebc
000002a0: cdb6 f43c 3615 3abd 3ca4 05bd 3e27 30bd
000002b0: 705d 97ba 6e2d 463d 4826 143d 9650 823d
000002c0: 46c4 043d 2cc1 b9bc 08ba 54bd 5a0f 81bb
000002d0: 4484 8ebd 3473 6abb 82b0 003c 72b1 dabc
000002e0: 59ec 5bbd ec7e 153c 9d0f 6c3d c03e 903d
000002f0: e64f 2e3d 4418 13bd ccfb 8c3d 9eb9 35bd
00000300: 38f0 843d ae22 0b3d 0ee0 2e3c 8f57 943c
00000310: 6e84 353d 8cfc 9abb 4052 99bd 8da3 89bd
00000320: 96aa d93c 61e2 7b3a 2d17 7fbc 3356 31bc
00000330: d4de ebbc a9a6 633d 9f37 88bd 9bb0 a13a
00000340: 866d bebc d661 44bd 07e2 b9bc d2a6 193c
00000350: 2e4b cabc e508 55bd f08d 303d 3bf1 2cbd
00000360: 5654 47bc ac5e 443d b40b 953c 92cd 103c
00000370: 2a8a 20bc eea0 af3c 485c 473d e7fd 643d
00000380: ad5d 91bd 6a12 adbb 06f8 0a3d bc70 f039
00000390: a366 a53c 72a0 043d ca50 47bc b460 3d3d
000003a0: 9046 733d a185 6ebd dca1 703d f6f5 a6bc
000003b0: 9016 e1bc 2bf1 95bd 96b6 a2ba 3847 183d
000003c0: 2e32 163d bed0 713c 044f 4c3c a472 bd3c
000003d0: 3bb5 68bd 7ce7 303d 875e 9abb 4412 013d
000003e0: a6e6 103d b8cc 81bd 3ce7 95bc f687 a5bc
000003f0: 8fdd eabc be66 a7bc 3cd1 0bbd b3c5 60bc

net.15.bias f4 [64]
-0.030061396 -0.059547514 0.049735133 0.10688054 0.14979467 0.10185281 -0.0073348293 0.011784916
0.073664844 0.13059509 -0.0049003493 -0.07050785 0.11267017 -0.07742179 -0.01646425 0.123412445
0.050275523 0.092936866 0.027770285 0.13907374 0.121639736 0.13335 -0.01688129 -0.010472385
0.10301736 0.1000429 0.016777022 0.037812896 0.012499199 -0.04199491 0.07512024 0.1220164
0.019825948 -0.033207163 0.116033964 0.14500232 0.118696876 0.09673698 0.12235085 -0.017064054
0.1394628 -0.04806841 0.047972202 0.02491012 0.078413755 0.09136164 0.13415416 -0.06719168
0.14224035 0.08401146 -0.012258514 -0.011487965 0.114904515 0.040892236 0.10912687 0.14640574
0.052356023 0.017494155 0.08815492 0.10394764 0.12522088 0.07255235 -0.021158949 0.13207519
00000000: 5143 f6bc 18e8 73bd 11b7 4b3d 2fe4 da3d
00000010: c663 193e 3598 d03d 0259 f0bb 8515 413c
00000020: 98dd 963d b8ba 053e 1c93 a0bb 6b66 90bd
00000030: 9ebf e63d 518f 9ebd 09e0 86bc aabf fc3d
00000040: b5ed 4d3d af55 be3d 827e e33c 5969 0e3e
00000050: 411e f93d e78c 083e a24a 8abc 5e94 2bbc
00000060: c4fa d23d 4be3 cc3d f76f 893c b2e1 1a3d
00000070: 71c9 4c3c db02 2cbd a4d8 993d bce3 f93d
00000080: 076a a23c 3c04 08bd 37a3 ed3d 7d7b 143e
00000090: 5917 f33d 0a1e c63d 1593 fa3d eac9 8bbc
000000a0: 56cf 0e3e 62e3 44bd 807e 443d 4f10 cc3c
000000b0: 6497 a03d d01b bb3d b55f 093e cb9b 89bd
000000c0: 74a7 113e 330e ac3d efd7 48bc 0438 3cbc
000000d0: 0f53 eb3d 9e7e 273d e97d df3d 63eb 153e
000000e0: 4573 563d e74f 8f3c 918a b43d 80e2 d43d
000000f0: e739 003e 5496 943d 8855 adbc b83e 073e
