model_artifacts/dl_tx_tx_h12_44000_45500.pt (torch, 420809 bytes, 30 tensors)

proj.weight f4 [64, 30]
000000 4f 72 93 3d a9 20 13 be 5c 84 79 bd 8c b2 8d 3d
       0.07199537 -0.14367928 -0.060917243 0.06918821
000010 c4 78 a9 bc a4 5b 08 3e 23 85 7b 3d 01 5d ba bd
       -0.020687468 0.13316208 0.061406266 -0.0909977
000020 53 b2 55 bd 0f c2 28 3e 47 18 0f bd d1 c8 34 be
       -0.052172016 0.16480277 -0.034935262 -0.1765473
000030 a1 5b 8c 3d 94 24 4e bc 9d 66 b4 3c 82 de ff 3d
       0.06853414 -0.012581963 0.022021586 0.12493612
000040 1a b7 62 ba 56 5f 13 be 52 2d 50 bd 32 27 0f 3e
       -0.00086485 -0.14391837 -0.05082447 0.13979796
000050 b6 07 06 3d 31 b1 0d 3e 22 98 56 3e c3 68 a3 3d
       0.032722197 0.13837124 0.20956472 0.07978966
000060 b5 08 29 be 98 ed 19 3e 1c 92 dd bd 27 0d 4f bd
       -0.16507228 0.15032041 -0.10818884 -0.050549652
000070 ef ca 0e be 91 c5 97 3c cd 26 bd bd 79 be 29 bd
       -0.139446 0.018526824 -0.09235916 -0.041441415
000080 5e ce c1 3d e6 c2 8d bb c3 42 38 bc 65 33 37 3d
       0.094631895 -0.004326212 -0.011246386 0.044726748
000090 64 1e b1 bd 0b 24 90 3d b0 ef 84 bd a1 0a 12 3d
       -0.08648375 0.07038125 -0.06491029 0.035654668
0000a0 6f d5 2d be d0 5f 9c ba 9c 76 4d 3d 44 80 6e 3d
       -0.1697595 -0.001193041 0.050161943 0.058227792
0000b0 48 38 a6 3d 4b 0d 24 3e 5b 7b 2b bd 5b dc b7 bd
       0.081162035 0.16020696 -0.041865688 -0.08977576
0000c0 51 08 fb bd d9 0e 11 be d7 0f 15 3e 40 bf 11 bd
       -0.122574456 -0.1416582 0.14556824 -0.03558278
0000d0 9a ca b8 3d fc 43 4b bd 9b 9f 57 3d 91 44 6e bd
       0.09023018 -0.04962538 0.052642446 -0.05817086
0000e0 e9 9a 1a be 67 0c 98 bd e0 78 ab bd 33 74 65 3d
       -0.15098156 -0.074242406 -0.083726645 0.05601902
0000f0 4d 22 96 bd 03 41 de 3d 49 7e 7d 3d 94 c4 36 be
       -0.07330761 0.10852244 0.061888013 -0.17848426
000100 cc 9e dc bd dc f8 39 3c 52 9b 52 bd 20 64 2b 3e
       -0.107724756 0.011350837 -0.051417656 0.16737413
000110 e6 7e 10 be 0b 3c 83 3d 05 ac 2d 3b 2a 76 b7 bc
       -0.14110908 0.06407937 0.0026500237 -0.022395212
000120 c0 eb 70 bc f3 0e c2 3d 49 8f 00 bd 2d 57 9e 3d
       -0.014704645 0.094755076 -0.031386647 0.07731471
000130 b6 2c 30 3e 2e 22 1d 3e 6c e5 db bd 97 6a 74 3d
       0.17204556 0.1534507 -0.10737118 0.059671964
000140 66 c3 13 bd f8 7d 3a 3e 7a 0d c3 bd ef 19 06 be
       -0.03607502 0.18212116 -0.09524055 -0.1309583
000150 6f b8 94 bd 24 a0 10 be 5e 35 b9 bd 53 91 1e 3c
       -0.072617404 -0.14123589 -0.09043382 0.009678203
000160 c5 69 11 3e 96 04 45 3e 1f d4 d5 bd b3 13 2c 3e
       0.14200504 0.1924003 -0.104408495 0.1680439
000170 f7 87 17 be 26 2c b3 3d 66 27 3f 3e cf fe 03 bd
       -0.1479796 0.08748655 0.18667373 -0.032225426
000180 85 7a d8 3d 39 59 54 bc 3a bf 8d 3d 3e 4e 49 3d
       0.10570244 -0.012960725 0.06921239 0.049146883
000190 25 66 12 bd 1f 4a 9f bd 1f 76 07 3e 3e e8 10 be
       -0.035741944 -0.07777809 0.13228653 -0.14151093
0001a0 fa e7 30 3d ae a7 d1 bd 0c 83 58 3b f8 26 c5 bd
       0.04318998 -0.102370605 0.0033037094 -0.09626573
0001b0 4f 62 05 3c 29 0b 63 bd 79 4e 08 3e 92 49 c0 bd
       0.008141114 -0.055430565 0.13311185 -0.093890324
0001c0 4a 94 d7 3d f5 1a 73 3d 56 04 80 3d 91 ad 9f bc
       0.10526331 0.05935188 0.06250827 -0.019491943
0001d0 a0 4f 9c bd 4f 2b 0b be 52 75 11 3d 7e c9 07 3e
       -0.07632375 -0.1359074 0.035512276 0.13260457
0001e0 51 e5 b1 bc 83 e1 12 3e 25 6e 2a be b4 c3 fa bd
       -0.021715792 0.14343838 -0.1664358 -0.12244359
0001f0 44 d5 89 bd 75 f9 d2 bd f4 d0 05 3e a2 68 94 3d
       -0.0673013 -0.103014864 0.1306799 0.072465196
000200 60 34 80 bc 23 b4 8c bd 17 37 8a 3d 90 23 5e 3d
       -0.015649974 -0.06870296 0.06748789 0.054233134
000210 49 05 3e bd 2b 90 aa bd 55 eb 21 be 19 51 f2 3d
       -0.04639176 -0.08328279 -0.15812428 0.118318744
000220 75 0b 48 3d d2 62 a6 bd e5 84 0c be 42 7a 4c bd
       0.04883905 -0.08124317 -0.1372257 -0.04992128
000230 d1 e6 74 bc 19 81 95 3d 07 f3 40 3e db 5c dc bd
       -0.014947609 0.07300014 0.18842708 -0.10759898
000240 e9 65 bf bd 19 c3 f2 3b 41 b2 9f 3d fe 3e cb 3d
       -0.0934561 0.0074085114 0.07797671 0.09924124
000250 3d 36 a9 bd 5d b9 08 3e ee 7a b8 bc 3f 2b 0c 3e
       -0.08262298 0.1335196 -0.022519555 0.13688372
000260 40 7c f2 bd 45 ac bb bd c2 4e 2f bd 66 4d 2d 3c
       -0.11840105 -0.09163717 -0.04279972 0.010577535
000270 e1 77 c5 bd 89 62 e7 3d f5 07 f1 bd c6 94 ee 3d
       -0.09642006 0.11298091 -0.11769096 0.1164947
000280 bf a0 ea bd 7a 18 d8 3d 94 ed b0 bd f7 c1 5b bd
       -0.11456441 0.105515435 -0.086390644 -0.053651776
000290 a4 bf f1 bd 93 30 27 3d 5d 0a b3 bc 07 f4 e6 bd
       -0.11804131 0.04081781 -0.021855528 -0.11277013
0002a0 c8 97 42 3c 7d 55 23 3e 2a 68 03 3d 15 07 60 3d
       0.011877008 0.1595058 0.03208176 0.054694254
0002b0 0f 88 2b 3e 2d 44 3b bd a7 8e a7 3d 7d 7c c1 bd
       0.16751121 -0.045719314 0.08181506 -0.094475724
0002c0 85 b6 9e 3d 3e d9 a7 3d 6b 29 31 bd c0 b6 c0 bd
       0.077496566 0.081957325 -0.04325239 -0.09409857
0002d0 73 fc 04 be e1 fd 19 be 40 cc 1e 3e 2a ed a1 3d
       -0.12986927 -0.15038253 0.15507603 0.079065636
0002e0 34 6c 82 bd ca 3b 48 bd d6 28 20 3e ce 8c e1 bd
       -0.06368294 -0.048885144 0.15640578 -0.110131845
0002f0 93 df 62 bd dc 05 9d bd 29 9e bd ba 82 10 15 3b
       -0.055389 -0.07667133 -0.0014466691 0.0022745435
000300 21 8e 14 3c ba 5d 07 be 43 d1 04 be d3 48 46 3d
       0.009067089 -0.13219348 -0.12970452 0.048409294
000310 bd 9f 6c bd 7c 3a 1f be d6 a3 0b bd ba 23 a5 bd
       -0.057769526 -0.15549654 -0.034091793 -0.08063455
000320 e8 13 24 3e 47 b9 2f be ea 2d 0b be 9e 2a fa 3d
       0.16023219 -0.17160521 -0.13591734 0.1221516
000330 5c 11 63 bd 03 c2 93 3d ed 80 db bd 26 86 f1 3b
       -0.055436477 0.07214739 -0.1071795 0.007370728
000340 6d 5f 70 bd 41 14 d8 3d 8f 42 96 3d 10 b2 4d bd
       -0.058684755 0.10550738 0.07336914 -0.05021864
000350 8b 0f 48 3d 3b 3a ee bd d2 41 33 be b7 35 07 be
       0.048842948 -0.116322 -0.17505577 -0.13204084
000360 7b bd 25 be 67 ed 35 3d 67 7e fb bd 0c b6 3e bd
       -0.16185562 0.044415858 -0.12279969 -0.046560332
000370 4c db 8a bd 69 84 00 3e ad d0 18 be e2 b4 31 be
       -0.06780109 0.1255051 -0.14923353 -0.17354158
000380 e2 e6 e8 3c c4 d6 12 be 9b dd 7f 3c 16 5f 55 bd
       0.028430406 -0.14339739 0.0156168 -0.052092634
000390 af d3 50 3d 74 01 73 3d f6 7c c3 3c 7b 2a e1 bc
       0.050983127 0.059327558 0.023863297 -0.027486077
0003a0 a3 74 07 3d 85 28 1a be 56 d8 86 bc e7 3a 1a 3e
       0.033070218 -0.1505452 -0.016460579 0.15061532
0003b0 63 1b 10 bd 73 23 be 3d c9 3d 06 be de ee 16 be
       -0.035182368 0.09284105 -0.13109507 -0.14739558
0003c0 9c bf 24 be 0f 51 15 3e c2 9f f5 bd 63 a6 a3 3d
       -0.16088718 0.14581703 -0.11993362 0.0799072
0003d0 46 4c 65 bd ea c8 7c 3c 6e 9b 3b 3e 11 4d ee 3d
       -0.055980943 0.015428761 0.1832101 0.11635793
0003e0 47 28 0a 3e df 70 f6 3c 55 dc fa 3d ef a8 4f bb
       0.13491927 0.030083118 0.12249056 -0.0031686386
0003f0 46 0a 5e 3d 41 c3 b8 bd 1c fa e9 bd 01 34 33 bd
       0.054209016 -0.09021617 -0.11424658 -0.043750767

proj.bias f4 [64]
000000 ed dc 25 bc 10 25 88 3d 56 40 ba bd a3 1f 38 be
       -0.010123474 0.06647694 -0.09094302 -0.17980818
000010 59 59 f1 3d 9b 10 00 bd 02 78 1c 3e ae bd 75 3c
       0.1178462 -0.031265836 0.15280154 0.014998836
000020 3e f2 11 be a4 b8 b7 bd f1 c5 d6 3d a7 a3 25 3e
       -0.14252564 -0.08970764 0.10486973 0.1617571
000030 60 a9 56 3e b0 dd c2 3d 30 6d cf bd 4e 70 37 be
       0.20963049 0.0951494 -0.10128248 -0.17913935
000040 fb 51 f6 bd 86 a2 46 3d 6b 95 4d bc af f7 0e be
       -0.12027355 0.04849484 -0.012547831 -0.13961671
000050 b6 66 13 be c6 48 32 be 79 95 09 be 81 cd 53 be
       -0.1439465 -0.17410573 -0.13435926 -0.20683862
000060 02 99 21 be 31 44 2b 3e f8 d5 15 be 03 60 2a be
       -0.15781024 0.16725232 -0.14632404 -0.16638188
000070 4e 5a a0 bc b1 ba 25 3e bc a4 88 bd d4 87 38 3e
       -0.01957431 0.16184498 -0.066720456 0.18020564
000080 20 bd 14 3e 90 30 61 bd 28 77 af b8 dc e2 27 3e
       0.1452527 -0.054977953 -8.366845e-05 0.16395134
000090 af 4b 1e 3e 7d 17 7b bd 54 a0 7d bd b8 62 16 be
       0.15458558 -0.061301697 -0.06192048 -0.14686096
0000a0 b7 e4 51 3e 3b 6e dc bd 93 07 12 3d f8 64 66 bb
       0.20497404 -0.10763212 0.035651755 -0.0035155397
0000b0 b7 dd b3 3d d9 3e e9 bd b5 e7 8b 3d 1e 06 f6 bd
       0.08782523 -0.1138894 0.06831304 -0.120128855
0000c0 e0 b4 e4 3c 68 a7 15 3d 20 c7 72 3d 4b 8a 97 bd
       0.02791828 0.036536604 0.05927193 -0.07399424
0000d0 e2 50 0f 3e 64 7f 09 3e 45 46 a7 3d 93 9d c1 3c
       0.13995698 0.13427502 0.081677 0.023634708
0000e0 67 37 13 3d d2 de ef bd 11 39 0c be 94 75 ad bd
       0.035941508 -0.117124215 -0.13693644 -0.08469692
0000f0 df ef 1b bd 42 99 01 be a5 d8 19 3e c2 7c 28 3e
       -0.038070556 -0.1265612 0.1502405 0.16453841

enc.layers.0.self_attn.in_proj_weight f4 [192, 64]
000000 82 df eb 3c 4b 6a 77 3d ee f9 43 bd 4f d9 00 be
       0.0287931 0.060404103 -0.047845773 -0.12582897
000010 62 94 66 3d d8 08 4b 3c c5 fa 33 bc b6 76 3a 3e
       0.056293853 0.012392245 -0.010985081 0.18209347
000020 dd 48 11 3e a9 a6 26 3d 1b e1 02 bd a6 5e ad 3d
       0.14187951 0.040686283 -0.03195296 0.084653184
000030 63 b4 eb bd 85 f0 e3 bd a6 46 da bd 25 ef 63 3e
       -0.115090154 -0.1112986 -0.10658006 0.22259195
000040 63 67 b2 3c e4 39 13 be 1c 1c b5 3c ca 86 ff 3c
       0.021777814 -0.14377552 0.02210813 0.031192202
000050 da ca 78 bd c9 fb 11 3e 6e 1e a6 3d 0d 4a 63 3d
       -0.06074033 0.14256205 0.08111273 0.055490542
000060 02 0f d0 bc 8e 01 9e bd f5 d2 d2 bd cf f7 f4 3d
       -0.025397781 -0.0771514 -0.10294143 0.11961328
000070 0e 73 0e be 2f a2 c6 3d 24 b1 9b bd 31 fc 89 bd
       -0.13911077 0.09698903 -0.07602146 -0.06737555
000080 06 ca 1b 3d 46 04 76 bc 35 b3 5b bd 72 ce 54 be
       0.03803446 -0.015015667 -0.053637702 -0.20781878
000090 9e 2c 6c bd 76 0e 47 3e e7 eb 85 bd ea 44 0f bd
       -0.057659738 0.1943911 -0.065391354 -0.03497783
0000a0 22 64 7c bc 27 53 1b 3e 0a 8f 00 3d 80 e1 ef 3d
       -0.015404733 0.15168439 0.031386413 0.117129326
0000b0 2a 0e 4f bd d2 d9 ea 3d e9 df cb bd 89 b3 19 3d
       -0.050550617 0.11467327 -0.09954817 0.037524734
0000c0 e1 b8 c4 3b a5 bb 35 3c 9b f4 90 3a 5e 75 9f 3d
       0.0060034846 0.011092101 0.0011059226 0.07786058
0000d0 86 cf fe bd 86 76 9b 3d 36 d9 bd bd 89 87 53 3d
       -0.12441926 0.07590966 -0.09269945 0.05164293
0000e0 95 ba a6 bd 0e 35 11 3d 90 71 95 3d cb b3 15 be
       -0.081410564 0.035450988 0.07297051 -0.14619367
0000f0 a0 75 19 3e b9 66 14 bd 28 51 7e b8 b6 6a 79 bd
       0.14986277 -0.036230776 -6.06339e-05 -0.060892783
000100 3e 5e 1f bd 87 d0 b1 bd 34 d8 1e 3e 49 19 b0 bd
       -0.038908236 -0.086823516 0.15512162 -0.08598573
000110 4f 4e b1 3d 92 8d 56 bd 69 33 65 be 7b 75 65 3d
       0.08657514 -0.052381106 -0.22382893 0.05602024
000120 d4 56 e9 3d 84 b9 51 3e a3 cd eb 3d a0 2a 30 be
       0.11393514 0.20480925 0.115138315 -0.1720376
000130 0c d6 93 bd 70 7d 78 3d 31 95 a2 bd c7 1d 78 3d
       -0.072185606 0.0606665 -0.07938612 0.060575273
000140 16 c5 bf 3d 46 7d b4 3d 9a 8b 5c 3d 95 58 47 bc
       0.09363763 0.088129565 0.053844072 -0.012167116
000150 db 9d d5 3d 9b 4d d9 3b b7 2a 0b 3e 9a c8 46 3e
       0.10430499 0.0066315657 0.13590513 0.19412461
000160 98 48 70 3e 78 fa 0e be 93 f5 1b 3e 03 97 58 3e
       0.23465192 -0.13962734 0.15230398 0.21151356
000170 8e 12 ba bd 1b 05 b5 3d a4 6f 58 bd d6 45 35 be
       -0.0908557 0.088388644 -0.052840844 -0.17702422
000180 58 80 3e bd 74 8e bf bd c8 b2 c0 bd 8c 29 3e be
       -0.046509117 -0.09353343 -0.094091 -0.18570536
000190 50 f2 1d be a7 40 cf 3b 08 44 1a 3e bd 71 fe 3d
       -0.15424466 0.006324846 0.15065014 0.124240376
0001a0 14 5c 19 be a3 13 84 3c 58 fa 0e be bd d2 9c bd
       -0.14976531 0.016122645 -0.13962686 -0.07657383
0001b0 97 15 1e be 3b c1 b0 3d 3a bc bc 3c a6 c0 3d 3e
       -0.15437923 0.08630606 0.023038972 0.18530521
0001c0 1c 30 52 3c 95 84 1c be 7b 6e 08 3e 8f a0 01 be
       0.012828853 -0.15284951 0.13323395 -0.12658904
0001d0 b8 bb 24 3d 85 4f 96 bd 13 de 46 be 5b b1 6c bc
       0.040218085 -0.07339386 -0.19420652 -0.014446582
0001e0 44 7c 1e 3e 85 06 c4 bd 87 58 d1 3d 9c 34 31 3e
       0.15477091 -0.09571556 0.102219634 0.17305225
0001f0 97 8c b2 3d ad cb e5 3d 25 b7 72 be 8f 27 96 3d
       0.08718222 0.11220489 -0.23702677 0.07331764
000200 0a 53 a1 bd a2 86 b9 bd 45 9f 65 bd df 78 0b bd
       -0.078771666 -0.09058882 -0.056060094 -0.03405082
000210 6c 9f a2 3d ba 11 fc 3d 2c 7d 0d be d1 77 9c 3d
       0.079405636 0.123080686 -0.1381728 0.07640041
000220 62 84 84 bc 20 e5 11 3d f3 8d 7a bd 0c db f6 bd
       -0.016176406 0.0356189 -0.06117053 -0.120534986
000230 2d d4 de 3d 70 20 56 3d 54 12 45 3e 1d 8f bc 3d
       0.10880313 0.05227703 0.19245273 0.09206984
000240 d7 14 22 be 3f 36 8e 3d e5 9f bc bd a4 26 06 3e
       -0.15828262 0.0694394 -0.09210185 0.13100678
000250 01 d8 b1 3d 5e c3 92 3c 82 95 41 3d 6f 97 13 3e
       0.086837776 0.017915424 0.047261722 0.14413236
000260 7f 9f 74 3d fc 4b 7c bd 9d f4 a2 3d 90 da a6 3d
       0.05972242 -0.0615959 0.079568125 0.08147156
000270 3a d8 17 3e 34 f9 b3 bd a2 f5 49 3d 95 96 9b bd
       0.14828578 -0.08787766 0.04930652 -0.075970806
000280 a3 55 91 3d a4 e2 01 3e 71 98 33 be a1 d1 1a be
       0.07096412 0.12684113 -0.1753862 -0.1511903
000290 6b a3 82 bc 0b ac c5 3d c2 31 a6 bd db 3b fd 3d
       -0.015947064 0.09651955 -0.08114959 0.12364932
0002a0 3e 08 a1 3c 46 e2 27 3e 9c 08 b5 bc 7b 7c 1d bd
       0.01965725 0.1639491 -0.022098832 -0.038448792
0002b0 15 84 df 3d 21 c2 43 3d da 36 47 3d 88 a6 a0 bd
       0.109138645 0.047792558 0.048636295 -0.07844263
0002c0 ee e4 cf bd 54 8c ed bc 34 e4 bc 3d 13 d0 92 3c
       -0.10151087 -0.028997578 0.09223214 0.017921483
0002d0 fa ce ad bd 31 65 5f bd 48 b9 92 3b a2 81 bf bd
       -0.08486743 -0.054539863 0.0044776537 -0.09350897
0002e0 35 c1 24 3e b1 ff e9 3d ed ef 77 bd ec 67 5b bc
       0.16089328 0.114257224 -0.060531545 -0.013391476
0002f0 b5 7d 16 bd 6a 1c 88 3d a6 ab 94 3d 61 d4 59 3d
       -0.036740977 0.066460446 0.07259302 0.053181056
000300 14 87 0d 3e 11 ee b6 bd 9e 0f 58 3c bf 25 3f 3d
       0.1382106 -0.08932126 0.013187317 0.046666857
000310 c6 a9 ff bd 59 e6 e3 bb a0 c3 ad bc 4b 9a ac bd
       -0.124835536 -0.00695495 -0.021211445 -0.084278665
000320 fa e5 30 be 22 9a 15 bc 55 48 20 3e b9 f4 8e 3d
       -0.17275229 -0.009130986 0.15652592 0.06980271
000330 b0 69 f9 3d 9f 37 a3 bd 1b bb 19 3b cf b1 84 3c
       0.121783614 -0.07969593 0.002345747 0.016198067
000340 89 01 a0 3c 05 72 8b 3d 1a d2 a5 bd dd 85 ac bd
       0.019531982 0.06808857 -0.08096714 -0.0842397
000350 a8 23 6a 3d a3 b7 cb 3b 2f 94 15 be 02 d1 6e bd
       0.05716291 0.0062169596 -0.14607309 -0.058304794
000360 ee df 6b be 1a 4d c9 3d 57 31 8e 3d 16 1c af 3d
       -0.23034641 0.09829159 0.069430046 0.08550279
000370 e4 87 8e 3d f9 fe 3c 3e c4 b1 40 3d 9a ab 31 3e
       0.06959513 0.1845664 0.04704453 0.17350617
000380 ad 57 80 3d 07 ab 06 be 9a 1a 0f 3e 1c 74 39 3e
       0.06266723 -0.13151179 0.13974991 0.18110698
000390 de c0 b6 3c 0b aa 09 be 7e 0c b8 3d 96 10 c3 3d
       0.022308763 -0.13443772 0.08986758 0.09524648
0003a0 3b c5 31 3e b6 2b 86 bd e3 e7 ed 3c 34 c4 c0 bd
       0.17360394 -0.06551306 0.029041236 -0.09412423
0003b0 15 78 7f bd c6 a1 e3 bd b9 86 f8 bd 8c ca 21 bd
       -0.06237038 -0.1111484 -0.12135071 -0.039499804
0003c0 3c ef 4f bc 32 1e 07 be 97 af 86 3d 2b 48 94 bb
       -0.012691315 -0.13195112 0.0657646 -0.0045252047
0003d0 18 e3 d2 3d d9 86 85 bd 11 2e aa 3d 07 fe 5f 3c
       0.10297221 -0.06519861 0.08309568 0.013671405
0003e0 14 bb 46 3d 2a e4 15 3e b2 8d 97 3d 0c 8a a3 bd
       0.048518255 0.14637819 0.07400073 -0.07985315
0003f0 fa 43 de 3d ce 36 02 be 7e ac 01 bc 2d 56 48 bd
       0.10852809 -0.12716219 -0.0079146605 -0.04891031

enc.layers.0.self_attn.in_proj_bias f4 [192]
000000 43 23 8c bd 14 be e6 bd 54 22 65 bd b9 5f a4 3d
       -0.06842663 -0.11266723 -0.05594094 0.0802607
000010 f8 ab 00 3e f1 d1 ab 3d 18 17 52 bd 4b 6b 0d 3d
       0.12565601 0.083896525 -0.051291555 0.03452615
000020 4a 4f 20 bd 1b 03 b7 bd e0 8d 0a 3e 48 4a 8a bb
       -0.039138116 -0.08936139 0.13530684 -0.004220281
000030 9e 9e e6 bd 81 9e 10 3e ae 5f ae 3c 43 6d 37 bc
       -0.112607226 0.14122964 0.021285858 -0.011195484
000040 17 0b 84 bd e7 1d bc 3d a4 a2 bf 3d 92 35 7a bd
       -0.06447428 0.09185391 0.09357193 -0.061086245
000050 eb 31 51 3d ca 7f 5a 3d f7 46 8b 3d 6e 41 99 3d
       0.051072996 0.053344525 0.06800645 0.07483183
000060 81 c8 fc 3d d6 e6 39 3d 79 d6 21 3d 65 a6 91 3d
       0.123429306 0.045386158 0.039511178 0.07111815
000070 63 5d cf bd fd 04 9d 3d ee de e3 3d fd 22 9b 3d
       -0.10125234 0.07666967 0.11126505 0.07575033
000080 95 e2 0c bc cd 1a 1b 3d ea aa a3 3c ef a6 de 3c
       -0.008598943 0.037867356 0.01997896 0.02717921
000090 80 90 ae 3d ee a0 99 bd b8 c3 bb bd 19 a3 00 bc
       0.08523655 -0.07501398 -0.0916819 -0.0078513855
0000a0 68 de ca 3d a0 2a 1e 3c 2b 66 4b bd 8d 2b 70 3d
       0.09905702 0.009653717 -0.04965798 0.058635283
0000b0 26 56 19 3c 1e 0a 3c be dc 3c 13 3e 13 8c c7 3d
       0.009358918 -0.18363234 0.14378685 0.09743514
0000c0 8e 38 87 bc 82 cb 8a 3c 9c 3b ce 3c 04 89 35 3c
       -0.01650646 0.016942743 0.025174908 0.01108003
0000d0 b5 29 1e bc 32 f5 59 3b c9 6f 8c 3c 98 1e df bb
       -0.009653498 0.003325772 0.017143147 -0.006809067
0000e0 54 3b 26 3c b6 a5 15 3c 87 6c 80 3b 8b b4 98 ba
       0.010145981 0.009133747 0.0039191875 -0.0011650486
0000f0 eb 93 bb bc f8 07 10 bd 9f 30 9b 3c ac 4d 1b bb
       -0.022897681 -0.03516385 0.018944083 -0.002369742
000100 d5 a7 99 38 e2 73 95 39 91 38 d1 39 43 be 34 3a
       7.32687e-05 0.00028505834 0.00039905732 0.0006894806
000110 ca 6d c2 b9 94 bb 3f 3a 91 80 be b9 f3 20 07 b9
       -0.00037084363 0.0007314023 -0.00036335413 -0.00012886878
000120 8e 8e 03 3a 94 9d 64 ba e9 bf ff b9 06 9a ac ba
       0.0005018496 -0.0008720991 -0.00048780374 -0.0013168461
000130 46 4c 11 37 3b 60 bd 37 6f 23 a5 b9 62 1c b3 39
       8.660432e-06 2.2575367e-05 -0.00031497653 0.00034162687
000140 d7 c1 dd b7 39 3a 88 39 2f fc 98 39 58 c0 df b9
       -2.6435517e-05 0.0002598332 0.0002917959 -0.00042677182
000150 af 43 dd b9 99 88 1c ba 50 bb ed b8 cd 20 2e 3a
       -0.00042202833 -0.00059712824 -0.0001133593 0.0006642461
000160 51 64 81 39 1d 23 03 ba ea 83 b2 b8 65 18 71 3a
       0.0002467954 -0.00050024857 -8.512272e-05 0.00091970555
000170 74 e6 cf b9 33 89 81 3a 01 85 16 38 65 07 45 ba
       -0.00039653818 0.0009882807 3.5886656e-05 -0.00075160555
000180 29 60 3a 39 32 34 1d 39 8a 3d c6 b8 10 a3 93 39
       0.00017774165 0.00014992131 -9.452838e-05 0.00028159516
000190 3f 42 a2 b9 de 3a 7e 38 29 9f d4 b9 75 18 2c 3a
       -0.00030948405 6.0613143e-05 -0.00040554375 0.00065649237
0001a0 24 5a 55 39 fa f6 40 3a c8 b3 ae b9 e0 4f 81 39
       0.00020346843 0.0007361021 -0.00033321814 0.0002466431
0001b0 4f f1 8f b9 7e 45 4c 39 b1 b8 80 b9 10 d1 3c 39
       -0.00027454874 0.00019480844 -0.00024551668 0.00018006959
0001c0 48 d1 cc b9 04 90 a0 38 c5 d2 06 ba b1 86 f2 b7
       -0.0003906584 7.6562195e-05 -0.00051431014 -2.8911369e-05
0001d0 ca ea 37 39 39 5a 8d b9 97 0e 41 ba c3 fc a4 39
       0.00017539706 -0.00026960837 -0.000736454 0.0003146884
0001e0 fc 4c 40 ba 91 ec 23 3a 8b 52 02 38 2f 13 d9 b8
       -0.00073356903 0.00062532077 3.107129e-05 -0.000103509396
0001f0 bc 44 5f b9 73 0f 3f ba fa 93 45 b9 ba ee 8c 38
       -0.00021292543 -0.0007288374 -0.0001884251 6.7201865e-05
000200 eb d5 b9 bc 91 15 87 3d 67 8b 2f bd db 81 9a 3c
       -0.022685012 0.0659591 -0.042857554 0.018860748
000210 13 21 ab bc 9e 7a b7 bc 2f ea 82 bc 09 a4 90 bc
       -0.020889794 -0.022397336 -0.015980808 -0.017656343
000220 18 0f 96 3a 32 f7 86 bc c1 14 c4 3c 2c 93 09 bd
       0.001144859 -0.016475294 0.023935677 -0.03358762
000230 82 ef c4 bc ff 51 42 3c 6a cb c4 3c e6 7b c6 3c
       -0.024039987 0.01186037 0.024022777 0.024229001
000240 9d de d8 bc 51 a5 3d 3d c0 48 99 3c 87 3e 62 bc
       -0.026473338 0.046300236 0.018711448 -0.013808853
000250 20 5f 8a bc 55 88 87 3c a7 03 45 3c d3 a8 ad 3b
       -0.016891062 0.0165445 0.012024797 0.0052996664
000260 a4 c7 dd 3c 42 45 b2 3c eb 73 db 3c 98 2f 2e bc
       0.027072735 0.02176154 0.026788672 -0.010631464
000270 b2 5b 5f 3c f1 71 bd bc 97 cd 62 3c ac 50 3c bc
       0.013632702 -0.02312562 0.013842962 -0.011493843
000280 a2 15 63 bc 5f 5b de 3c 9a 62 f3 3c 8e 4d 96 3c
       -0.013860138 0.027143179 0.029710103 0.018347528
000290 fc f3 a0 bc a7 36 04 bd 35 56 03 bd 45 cb ae bc
       -0.01964759 -0.032278683 -0.032064635 -0.02133716
0002a0 6d d4 12 3d 9d 47 f7 bc 63 26 83 3c a8 90 5d 3b
       0.035847116 -0.030185515 0.016009515 0.0033808146
0002b0 ac 2d 22 bc 2f d9 d7 bc cd 07 f8 3c 9f 48 b8 3c
       -0.009898584 -0.026348678 0.030277157 0.022495566
0002c0 6f 6d d1 bc bd bb 94 bc b5 f7 c2 bc d1 c4 30 bc
       -0.025564877 -0.018155927 -0.023799757 -0.010789112
0002d0 59 43 e8 ba 32 8f cf bc 7d 86 de bc 88 41 a6 bc
       -0.0017720266 -0.025336836 -0.027163738 -0.02029492
0002e0 66 fb be bc 27 41 cc bc bc bb c3 3c 47 dd c9 3c
       -0.023313235 -0.02493341 0.02389323 0.024641646
0002f0 25 8d a2 3c a3 98 de 3c 5b ec 8c bc 0d 6b 10 3c
       0.019842694 0.027172392 -0.017202547 0.008814585

enc.layers.0.self_attn.out_proj.weight f4 [64, 64]
000000 3e 4c 8a bd 2a e8 19 3e d1 9c 72 bd 9f 01 34 bd
       -0.06752823 0.1502997 -0.059231583 -0.04394686
000010 78 47 0b 3d 06 68 86 3d 0b 2a a1 bd f9 39 9e bd
       0.034003705 0.0656281 -0.07869347 -0.07725901
000020 92 07 f5 3b 4c b3 5f bd 24 83 ab 3d 47 96 4e 3c
       0.007477709 -0.05461435 0.083746225 0.012609071
000030 a9 ce 00 bd d2 3e 0f bd e4 ae 41 bd 27 c1 93 3d
       -0.031447086 -0.03497202 -0.04728593 0.07214575
000040 01 67 01 be e7 ce f9 3d de 50 a0 bc 74 a8 32 3c
       -0.12636949 0.121976666 -0.01956981 0.01090442
000050 1a cd e7 bd db 5d 07 3d 1e 51 f8 3c 26 2a d9 b9
       -0.11318417 0.033048492 0.030312117 -0.00041420868
000060 bd 62 c9 bc 3c 49 e0 3c 47 9c 49 3c da d1 ee bd
       -0.024583215 0.02737867 0.012305326 -0.1166112
000070 e3 c9 28 bc aa 1c 6a 3d 1f 4a fa 3d bb 2e 53 3b
       -0.01030204 0.057156242 0.12221169 0.0032223898
000080 65 7e d5 bd e9 bb ee 3c b9 b0 4a 3d 7b d2 33 3c
       -0.104244985 0.029142337 0.049484942 0.010975475
000090 2d 56 0c 3d 77 de 57 3d ce b4 ec ba 65 10 fa bd
       0.03426187 0.052702393 -0.0018059255 -0.12210158
0000a0 ae df 66 bb 42 e0 fd bd 6a de f0 3d 32 4e 40 3d
       -0.0035228538 -0.123962894 0.11761172 0.046949573
0000b0 e6 a0 ed bd 4a 2c 77 bd 40 d1 01 bd 46 0d 9f bc
       -0.116029546 -0.06034497 -0.031693697 -0.019415509
0000c0 9f 84 41 bc 0d 63 3d 3d ea 43 89 bd 71 ca 84 3d
       -0.0118114045 0.04623704 -0.06702407 0.06483925
0000d0 ad 31 d0 3d 74 13 21 3d 77 c3 c9 3d a0 c5 b7 bb
       0.10165725 0.039325193 0.09851735 -0.0056082755
0000e0 26 ff 43 bd 38 0d b4 bd bd db 6c bc 6e 92 d3 3d
       -0.04785075 -0.08791584 -0.014456687 0.103306636
0000f0 df de b3 3d 7b 25 4b 3d a6 82 db bd b8 48 d3 bc
       0.08782744 0.04959629 -0.107182786 -0.025791511
000100 e2 a0 56 3c 36 d4 8a 3d d7 1b 49 3d da 31 88 bd
       0.013099881 0.06778757 0.049098816 -0.066501334
000110 24 9b 87 bc 33 9b e9 bd 82 64 5a 3d 45 6e da bd
       -0.016553469 -0.11406555 0.053318508 -0.106655635
000120 3e 3d b9 bd 20 2d ad 3c d1 31 df bc 4c ba 8b 3d
       -0.09044884 0.021139681 -0.027245434 0.06822643
000130 e1 6c 2c bd eb 6b d5 3d ce 06 30 bd 55 14 bf 3d
       -0.042096023 0.10420974 -0.04297524 0.0933005
000140 a5 d9 7f bd be 98 5d 3b 7e bb b5 3d f6 73 8a bd
       -0.06246342 0.0033812965 0.08873652 -0.06760399
000150 89 94 82 3d 61 56 d5 bd 11 3a 8c 3d 7d fb b7 3d
       0.06375987 -0.10416866 0.06847013 0.089835145
000160 64 bf 0f 3e 57 3e bd 3c ed ba bc 3d 8a 8c 31 bd
       0.14037853 0.023101015 0.09215341 -0.04334692
000170 f7 96 af bd f9 53 79 bd e3 9e 77 3c b1 a5 a0 bd
       -0.08573716 -0.0608711 0.015113565 -0.07844103
000180 b1 95 13 be ed 88 6b 3d 4d 72 13 3d cf be 5a bc
       -0.14412571 0.05750363 0.035997678 -0.013351156
000190 9b be d6 bd 03 67 81 bd a4 cf 61 bd 0f fb 90 3b
       -0.10485574 -0.06318476 -0.055129662 0.0044244598
0001a0 69 41 5a bc 1a 06 ed bc 16 fc cd bd c3 75 a2 bd
       -0.013321259 -0.028933574 -0.10057847 -0.079326175
0001b0 12 06 d1 bc e9 96 3f be d0 ee d6 3d 02 a0 1b bc
       -0.02551559 -0.18709911 0.104947686 -0.009498598
0001c0 01 38 e0 bd c9 1d 7f bd 61 1a ab bd 69 2b 7f 3d
       -0.10948182 -0.062284265 -0.08354641 0.06229726
0001d0 ef cc a6 bc 9c ed a3 bd 42 28 be bd 23 63 d4 b9
       -0.020361392 -0.08004305 -0.09285022 -0.00040509654
0001e0 d1 1f 96 3c 3e 6a 27 bc 3b 23 83 bd f5 34 f7 3d
       0.018325718 -0.010218201 -0.06403204 0.120706476
0001f0 c7 ff 2a 3d c9 a7 81 3d 03 45 48 bc 30 87 3c bd
       0.041747835 0.063308306 -0.012223485 -0.046027362
000200 9d 56 f3 3d c0 c2 85 bc 05 fd ea 3d 21 14 8a 3c
       0.118817545 -0.016328216 0.11474041 0.016855301
000210 b2 6c 19 3e 3d 6f 9e 3d 10 59 02 3e 25 b6 cb bc
       0.1498287 0.07736061 0.12729287 -0.024867127
000220 bb 04 71 3c 0e 5b ec bc 8e 52 95 3d 25 a9 cc bc
       0.0147106005 -0.028852012 0.07291137 -0.024982998
000230 ef d1 af 3d 31 06 8c bd 5d 73 1a be ed b6 01 be
       0.085849635 -0.068371184 -0.1508307 -0.12667437
000240 97 5b 07 3e d8 f7 2e be 6f fc 04 bc 0d c7 5b bd
       0.13218533 -0.17086732 -0.0081168255 -0.053656626
000250 5f 6d cd 3d 35 5a a6 bd 8a 22 7b 3d 69 8b fc bc
       0.100306265 -0.081226744 0.061312236 -0.030828195
000260 c8 66 1a be e7 e1 a1 bd 53 93 cf bd 3b a6 90 3c
       -0.1507827 -0.079044156 -0.10135522 0.01765739
000270 ff 2a c6 3c 6d 96 67 3d f3 b6 5a bc 8c d5 ad bb
       0.024190424 0.05653994 -0.013349283 -0.005304998
000280 5d ee 2d 3a 89 c2 16 be 9d e8 de 3c bc 9e 0c bd
       0.0006634945 -0.14722647 0.027210528 -0.03433107
000290 e4 36 b1 3d ae 2a 1d 3e 60 8c 0b bd 7e 3d af bc
       0.08653048 0.15348312 -0.03406942 -0.021391626
0002a0 88 8d 41 3d 41 be 39 bd 84 5c f3 bc 32 bd 8c b9
       0.047254115 -0.045347456 -0.0297072 -0.00026843842
0002b0 2e f9 64 3d 5a fb f3 3c 09 67 05 be 9c 56 50 bb
       0.0559017 0.02978294 -0.13027586 -0.0031789904
0002c0 03 40 1f 3e 16 a7 9a bd 92 c7 84 3d 5a e1 f0 bd
       0.15551762 -0.075514 0.064833775 -0.117617324
0002d0 08 e9 89 bd 70 d7 c4 bc 6e 13 49 3d 53 66 be 3c
       -0.067339 -0.02402851 0.049090795 0.023242151
0002e0 a2 e7 cc bc b1 1c 14 3e 61 40 51 bd 8d 17 c4 3c
       -0.025012795 0.1446407 -0.051086787 0.023937011
0002f0 8b 2d c5 3c 65 a4 96 bd 8b 7b 11 b9 4b 6a a3 bc
       0.024069568 -0.073555745 -0.00013874301 -0.019948145
000300 cc dd 7c 3d cb 18 b6 bd 66 7a dc 3d 2d c9 67 bd
       0.06173496 -0.08891448 0.10765533 -0.05658834
000310 83 9f 90 3d 61 73 82 bd 98 b9 55 bd c3 21 0d 3e
       0.070616744 -0.06369663 -0.05217895 0.1378241
000320 0e d4 d6 bc 21 5b 2a bd 74 19 08 bd 7e b2 19 3d
       -0.026224162 -0.041590814 -0.0332274 0.03752374
000330 ff 5a 81 bd 91 dd 4e 3d 57 e3 0d be 34 ca 10 3d
       -0.06316184 0.05050427 -0.13856255 0.035349086
000340 c4 0e 97 3b d6 72 17 bd 83 9d cb 3d 3b 0d 52 3d
       0.0046099145 -0.03697475 0.09942152 0.05128215
000350 72 2d db 3d 01 5a 86 3d de f8 c1 bd db 16 f1 bb
       0.107020274 0.06560136 -0.09471296 -0.007357461
000360 b1 e0 e3 3c 24 32 7a 3d 2d c9 12 3c 44 aa 68 3d
       0.027817102 0.061082974 0.008959097 0.056803003
000370 ae 2a c8 3c fd 38 47 bd c8 4b 03 3d 2a 04 8c bd
       0.024434414 -0.048638333 0.032054693 -0.06836732
000380 f7 19 af 3d a3 a0 ad 3b b6 ca 13 3c ab 83 03 be
       0.08549874 0.0052986904 0.009020498 -0.12843196
000390 6e 3c 5a 3d 8e ad bc bb ca 35 8d 3d f0 40 60 3d
       0.053280286 -0.005757994 0.06895025 0.05474943
0003a0 32 06 43 bc ff 96 cd 3d e9 57 09 3e 87 cc 07 be
       -0.011903333 0.10038566 0.13412441 -0.13261615
0003b0 f6 00 5d 3d ab 6e 30 3d 80 6d f5 3c ac 0b a5 3c
       0.053955995 0.04307429 0.02995944 0.020147167
0003c0 a9 a3 80 bd 57 98 07 3e 6e 29 5a 3d 40 71 cd bd
       -0.06281216 0.13241707 0.053262167 -0.10031366
0003d0 23 48 ce bd 4d 89 11 3e 10 d7 21 3e de bf 16 bd
       -0.10072353 0.14212532 0.15804696 -0.036804073
0003e0 10 f7 8c 3d 54 35 b2 3d 35 b2 73 bd 22 8c 8c bd
       0.06883061 0.08701578 -0.059496123 -0.06862666
0003f0 84 61 72 3c c6 7c 44 bd 4a 04 0b bd 7c 6a 29 3d
       0.014793757 -0.047970556 -0.033939637 0.041361317

enc.layers.0.self_attn.out_proj.bias f4 [64]
000000 87 39 de bb 23 03 a7 3c ff 75 cb bc d0 7f a4 bc
       -0.00678176 0.020387238 -0.024836538 -0.020080477
000010 a6 df 9b bb 90 df 97 bc bc 19 ae 3c ee 12 8f 3c
       -0.0047568856 -0.01853922 0.021252505 0.017465081
000020 a2 51 96 bc a0 2a 8d bc 24 89 93 3c 07 04 cc bb
       -0.018349472 -0.01723224 0.01800973 -0.006226066
000030 68 2a 01 3a 01 dd 89 bc 66 8e d1 b8 df eb a4 bc
       0.00049272785 -0.016829016 -9.9924204e-05 -0.020132003
000040 47 12 a5 bc 67 2f c7 3c 1c 46 9f bc 9c 83 5c 3c
       -0.020150317 0.024314595 -0.01944261 0.0134591125
000050 f7 17 9d bc db dc 86 bb 02 d2 8c 3c 88 d3 55 bc
       -0.019176466 -0.0041156835 0.017189983 -0.013050921
000060 cc 41 ab bc b4 c0 c1 3c 30 cb ad bc 00 24 a5 bc
       -0.020905398 0.023651458 -0.021215051 -0.020158768
000070 f5 80 b6 3b 6f d4 e8 bb 14 c8 99 3c f4 37 ac 3c
       0.005569572 -0.007105402 0.018772162 0.021022774
000080 b4 b3 9c bc fa d7 9b 3c 38 d7 8b 3c e9 f2 53 bc
       -0.019128658 0.019023884 0.017070398 -0.012936332
000090 af aa 9b 3c 77 bb 9d bc 53 a2 9a 3c 75 e9 98 3c
       0.019002287 -0.01925443 0.01887623 0.018666008
0000a0 8a ac 96 3c 94 90 87 3c 17 41 a7 3c 99 a7 a1 bc
       0.01839282 0.016548432 0.02041678 -0.019733237
0000b0 8f 69 df 3b 29 ff 51 bc ab df 89 bc 4f 6d 8b bc
       0.0068180035 -0.012817183 -0.016830286 -0.017019896
0000c0 62 ef 8a 3c 9e bf cc bc fb 64 99 bc c6 6a 00 39
       0.01695985 -0.024993714 -0.018724909 0.00012246807
0000d0 14 0f 32 3c f5 47 97 bc 32 a8 9b 3c 2d bd 84 bc
       0.010867853 -0.018466929 0.0190011 -0.016203487
0000e0 0a ac 52 3c 93 63 b5 bc 90 e8 9e bc 77 a2 98 bc
       0.0128584 -0.022142207 -0.019398004 -0.018632157
0000f0 6b 86 b1 bc 8d 5c 20 3c 9c a7 71 bc 29 6c 9d 3c
       -0.02167054 0.009787691 -0.014749434 0.019216614

enc.layers.0.linear1.weight f4 [256, 64]
000000 d3 f9 07 3e 13 fd db ba b8 42 78 3d 1b df e6 3d
       0.13278894 -0.0016783796 0.060610503 0.11273023
000010 30 1d c7 bd 31 48 b7 bd 05 3f 01 be 00 25 32 bd
       -0.09722364 -0.08949316 -0.12621696 -0.043492317
000020 bb 61 6a 3d 8c 2e 02 bd b2 9a ad 3d b9 89 cc bd
       0.05722211 -0.03178267 0.084767714 -0.09987206
000030 5c 1b 2c 3d 76 c5 26 3d f0 b5 7d 3d 6f 81 c1 3a
       0.04201828 0.040715657 0.061941087 0.0014763306
000040 fd 8f 77 3d 13 a7 05 3e 4f 05 da 3d 0f c9 b1 bc
       0.060440052 0.13052015 0.10645544 -0.021702318
000050 cb 5e af 3d 37 d9 51 bd d4 76 b1 bd c3 16 aa bc
       0.08563002 -0.051232543 -0.08665243 -0.020762807
000060 2a 93 52 3c 87 3c e4 bd ac 20 6f bd 1b ff dd 3c
       0.012852469 -0.11144357 -0.058380768 0.027099183
000070 03 0a b5 bd 02 e4 4c 3b 71 dd e1 bd d5 51 38 ba
       -0.088398 0.0031263833 -0.11028565 -0.0007031237
000080 52 6b 38 bd 98 38 69 3b be 2d ad bd 66 54 dd 3c
       -0.045024224 0.003558671 -0.0845599 0.027017783
000090 1c 84 91 bc c9 22 ce 3d 04 e4 93 3d 19 92 e6 bd
       -0.01776319 0.100652285 0.07221225 -0.11258335
0000a0 10 7e 91 bd c9 18 29 bd 23 54 6e 3d a9 7f a6 3b
       -0.07104123 -0.041283403 0.058185708 0.0050811362
0000b0 36 77 30 3d 51 42 9e 3c 17 e1 77 bd a2 ed 65 3b
       0.04308244 0.019318732 -0.060517397 0.0035084267
0000c0 01 02 b2 3c ec 25 37 3d 99 5c e9 3d 6a 8a 87 3d
       0.021729471 0.0447139 0.11394615 0.06618197
0000d0 3e a3 57 bc d7 89 96 3d 81 4e ca 3d 23 da 04 bc
       -0.013161479 0.073505096 0.09878255 -0.0081086485
0000e0 11 46 03 3e 4a 76 c8 3c 8c 3a f3 3d 9b 11 e8 bd
       0.12819697 0.024470467 0.11876401 -0.11331483
0000f0 b4 7f b3 3d 51 95 ce 3d 64 19 2d bd f9 5e 85 bd
       0.08764592 0.100870736 -0.042260543 -0.06512255
000100 95 00 38 bd e9 02 26 bd e0 a4 6a 3d 6d 64 c6 3c
       -0.04492243 -0.04053012 0.057286143 0.024217809
000110 cd c1 5b 3d e9 e5 c6 bd 81 56 da bd ee 83 55 3d
       0.05365162 -0.09711821 -0.106610306 0.05212777
000120 59 f6 b2 bd 1b d1 b6 bd b0 ab be 3d b1 81 7f bd
       -0.08738393 -0.089266025 0.093100905 -0.062379543
000130 57 aa 7a 3d a9 e8 da bd cd 5f 1b bd 7a cf 10 bd
       0.061197605 -0.10688908 -0.03793316 -0.035354115
000140 e5 1e d3 3d e7 31 b8 bd 3e 0d 33 bd 3f 41 ce 3d
       0.10308627 -0.08993893 -0.0437138 0.100710385
000150 96 70 1f bd ec 07 d5 bd 44 ae 3b 3d 73 9d 22 3d
       -0.03892573 -0.104019016 0.04582049 0.039700937
000160 89 9e cb 3c 5b 14 5b 3d c4 47 c4 bd ee f2 07 3e
       0.024855869 0.05348621 -0.09584001 0.13276264
000170 61 26 90 bb 53 fc de 3d 4b 67 c3 3d be e6 48 3d
       -0.0043991064 0.10887971 0.09541186 0.049048178
000180 14 67 f2 bd 00 14 b7 3d a4 30 ba 3d 7b 95 c6 3d
       -0.11836067 0.089393616 0.09091309 0.0969648
000190 68 0f 58 3d 45 2a 08 3c 51 1a c5 bd 1e 49 ac 3d
       0.052749068 0.008310859 -0.0962416 0.084123835
0001a0 3d 9f 4d 3d 80 f2 27 bc 3f 5b a9 3d 24 9f b5 3d
       0.05020069 -0.010250688 0.08269357 0.08868244
0001b0 aa 1b 86 3d b5 34 32 3d ba 52 01 3d 20 6d 55 3d
       0.06548245 0.043507297 0.031573035 0.052106023
0001c0 7a 94 bd bd f5 f2 87 bd 05 7a 98 bd 29 ee 5b 3d
       -0.09256835 -0.06638137 -0.074451484 0.053693924
0001d0 40 68 ca 3d 1a 8c 76 3c 6b a9 f9 3c e9 47 2b 3d
       0.09883165 0.015048051 0.030476293 0.041816626
0001e0 5a 3c 12 3d 43 82 ef 3d 99 99 b0 3b e6 91 e7 3d
       0.035702087 0.11694767 0.005389404 0.11307125
0001f0 6a 49 64 3c 8c ed 21 3e ed 25 86 3d fa 78 ad 3d
       0.013933519 0.15813273 0.065502025 0.0847034
000200 0f 34 95 bd b9 ce 09 3d 84 8b e2 bc df 44 8a bd
       -0.0728532 0.03364441 -0.027654417 -0.06751417
000210 59 4c 64 3d cd f5 12 be f7 d4 90 3d c1 7f 0f 3e
       0.055736873 -0.14351578 0.0707187 0.14013578
000220 2d 86 9e 3c 66 b8 20 3d f3 b7 4d 3d 02 04 12 3e
       0.01935109 0.039238356 0.050224256 0.14259341
000230 32 6f 7b 3d 5e c4 b3 bd da 5c d7 bd b0 fa df bc
       0.06138534 -0.087776884 -0.10515757 -0.027341217
000240 cf f3 6e 3d 35 39 e7 bc 7c 14 23 ba eb 68 82 3d
       0.058337983 -0.02822552 -0.0006221009 0.06367668
000250 73 e6 ca bd fd f0 e5 bc e7 61 c6 3c 20 91 ab 3c
       -0.09907236 -0.028069014 0.024216605 0.020943224
000260 fd 4c 27 bb 9a 8b d5 3d ab 4d b5 bc e9 2b 9e bd
       -0.0025528066 0.104270175 -0.022131762 -0.07723219
000270 de 5c f6 3d f1 24 84 3d 68 f3 e3 bd 53 66 ad 3d
       0.12029432 0.064523585 -0.111304104 0.084667824
000280 b4 a6 40 3d 6a 26 1c 3e f1 67 f0 3d 5d 7e 4c bc
       0.04703398 0.15249029 0.11738575 -0.012481299
000290 c5 c1 2e 3d 16 6c 8e bc 40 30 1e 3e 09 ce dd bd
       0.04266526 -0.017385524 0.15448093 -0.10830314
0002a0 31 18 c1 3d 37 29 09 3e 76 ff 62 3d ba ad bd 3a
       0.09428442 0.13394628 0.055419408 0.001447133
0002b0 42 e2 fc 3c 56 07 24 bc 26 92 66 bd bc 83 f7 3d
       0.030869607 -0.010011515 -0.05629172 0.12085673
0002c0 be c7 65 3d 7b d4 4e 3d 75 98 08 bd 91 a1 ae bd
       0.056098692 0.050495606 -0.03334852 -0.0852691
0002d0 5c b2 ea bc f5 3b a0 3c 22 73 b5 3d a5 99 d3 bc
       -0.028649502 0.01955984 0.088598505 -0.0258301
0002e0 a2 b3 81 3d 83 5c 1b be 9a db 88 bb 32 d4 e0 bc
       0.0633309 -0.15172009 -0.004176569 -0.027444933
0002f0 56 1f d7 bc a4 87 8d 3b 42 1f ec 3c c8 28 62 bc
       -0.02626006 0.004319148 0.028823499 -0.013803668
000300 d9 2e b1 bb c2 f7 98 bd a1 1e 00 3e 41 31 37 3b
       -0.005407196 -0.07469131 0.12511684 0.0027952942
000310 5f 2e da bd e2 40 e5 bd 89 ab e7 3d 5c d7 85 bd
       -0.10653376 -0.11194016 0.113120146 -0.06535217
000320 ae 88 8f 3c fe 4f bc bd 94 03 c0 3d 2c a4 42 3d
       0.017521229 -0.09194945 0.093756825 0.047519848
000330 df da 97 3c 78 7e 91 bd 81 0b 93 3d 0d a3 f1 bd
       0.018536983 -0.071042 0.071799286 -0.117986776
000340 49 2b cf bd f0 88 44 bc f9 72 6b bd 05 40 06 be
       -0.10115678 -0.011995539 -0.057482693 -0.13110359
000350 47 92 72 bd 8c 84 47 bc 9b c8 6b 3d 5b 3e 85 3d
       -0.059221532 -0.012177598 0.05756436 0.06506034
000360 0b fc ab bd c4 3d d2 bc 15 a3 4a bc 9d 47 b6 bd
       -0.08397683 -0.025664218 -0.012367983 -0.08900378
000370 66 b0 0d be 6f 63 7f 3d af 69 39 3d e3 61 6b 3d
       -0.13836822 0.062350687 0.045266803 0.0574664
000380 71 67 22 bd 50 73 68 3d 44 28 f8 bd 32 d8 2c bc
       -0.03964943 0.056750596 -0.12117055 -0.010549592
000390 75 9c 90 3d 8e 39 01 be 60 cb f6 bc 76 29 93 bc
       0.07061092 -0.12619612 -0.030126274 -0.017964106
0003a0 c5 89 d0 3c 3d 11 64 3d 93 eb 4f bc 0d 37 f4 3d
       0.025456319 0.055680502 -0.012690443 0.119245626
0003b0 cf ea be bd 58 57 0c be 18 14 83 3d 94 c4 a3 3d
       -0.0932213 -0.13705194 0.06400317 0.07996479
0003c0 ec 0b 4f 3d ed 07 2a bd e6 30 e4 3d d2 cc 08 3e
       0.05054848 -0.041511465 0.11142139 0.13359383
0003d0 90 9f 43 bd 71 72 42 3d 31 e9 9f 3d 6b fa 12 3d
       -0.047759593 0.04747242 0.078081496 0.03588335
0003e0 23 1c 57 bd aa 99 db 3d fd da db 3d 8b 21 ae bd
       -0.052517068 0.107226685 0.10735128 -0.085024916
0003f0 62 ec 8f 3d a1 ae 7b bd df cf b7 3d fc b3 95 bd
       0.07027508 -0.061445836 0.08975195 -0.0730972

enc.layers.0.linear1.bias f4 [256]
000000 14 17 e0 bd f0 32 18 3d aa 3e 09 3c 11 87 b2 3d
       -0.10941902 0.037157953 0.008376757 0.08717168
000010 83 9c a0 3d a2 f6 69 3d 8d 38 ec 3d 71 74 8a 3d
       0.07842352 0.057119973 0.11534224 0.06760491
000020 41 d6 c2 3d 0b 63 ab 3d b6 95 a0 3c d3 51 d1 bd
       0.09513522 0.083685 0.019602638 -0.10220685
000030 2b 15 e1 bd bc 1c 09 3d 68 66 3d bc 6d 56 61 bd
       -0.109903656 0.03347467 -0.01156006 -0.055014063
000040 39 63 8a 3d 55 f0 87 bc 89 b4 43 bd 6e 8a 04 3e
       0.067572065 -0.016594091 -0.047779594 0.12943432
000050 b7 94 0a 3e 2c 47 c2 bd b0 31 bd bd 5d 7c fd bc
       0.13533293 -0.09486231 -0.09237993 -0.03094309
000060 9b 4b 98 3d 80 a0 c1 bb 4a 91 f3 3d 08 dc bd bc
       0.074362956 -0.0059090257 0.11892946 -0.023176208
000070 b9 ab 94 3a 8d e6 bb 3d f8 94 fc 3c c1 69 4a 3d
       0.0011342681 0.091748334 0.030832753 0.04941726
000080 63 22 ac 3d 79 5f da 3d 65 d5 04 3e ff 1f 61 3d
       0.08404996 0.10662741 0.12972029 0.054962154
000090 f9 1a 32 3d 22 e8 94 bd ff 84 86 3d 86 2e 66 3d
       0.043482754 -0.07270838 0.06568336 0.056196712
0000a0 33 ad d3 3d 9f 56 ca bc c7 74 be bd a6 c8 ac bd
       0.103357695 -0.024699507 -0.09299617 -0.08436708
0000b0 e5 c3 a4 3d 67 29 c1 bd 9d 7b 96 3c 3d 86 8d 3d
       0.080451764 -0.09431725 0.01836949 0.069103695
0000c0 a3 79 c4 3d d2 9d bf bd 9b ff d1 3c f6 dc 2a 3d
       0.09593513 -0.09356274 0.025634577 0.04171463
0000d0 0a 81 a9 3d 3c b3 81 3b ab 1d 67 bd ea b6 c2 3c
       0.082765654 0.003958134 -0.056424778 0.02376886
0000e0 14 2c 83 bd fb 14 ee bd b5 a0 45 bd c6 c6 32 bd
       -0.064048916 -0.116250955 -0.048248965 -0.043646596
0000f0 fe 55 f6 bc 70 91 50 bd 67 1d 99 3d e0 63 a6 3d
       -0.030070301 -0.05091995 0.07476311 0.081245184
000100 20 60 26 3d d5 05 d8 3b 63 f0 07 3e 7f 9f 42 bb
       0.040619016 0.006592492 0.13275294 -0.0029697118
000110 08 74 e0 3d 30 bc fa 3d 8d 6e ad bd 8d cd 74 bc
       0.10959631 0.12242925 -0.084683515 -0.014941585
000120 54 ab a5 ba d0 26 b8 bb 21 ca 15 3e 81 1b 20 3d
       -0.0012639561 -0.005619861 0.14627887 0.03908873
000130 7c fd 03 3d 97 42 95 3d dc ae 0a 3e a7 72 c6 bd
       0.032224163 0.07288092 0.13543266 -0.09689837
000140 7c c2 15 bd 62 9c 14 3d 99 25 ec 3b fa 8c 7e bc
       -0.036562428 0.03628195 0.0072066304 -0.015536541
000150 15 b5 1c bd 5e d5 35 bd 74 4e d1 3d 53 7c 87 bd
       -0.03825863 -0.044392936 0.10220042 -0.0661551
000160 06 d9 b5 bc 92 83 88 3d 8e 44 fb bd d5 41 e0 3c
       -0.022198211 0.0666572 -0.12268935 0.027375141
000170 c7 1a f5 3d c8 85 95 3d d7 a3 66 3d cd bc d1 3d
       0.11967998 0.073009074 0.056308594 0.10241089
000180 8b c0 ed bb a8 ee b3 bd 85 42 1a bc 62 a0 0b 3b
       -0.007255619 -0.087857544 -0.009415274 0.0021305312
000190 f0 ae 06 be 98 1a 92 bd 33 08 27 3d fc 29 09 3e
       -0.13152671 -0.071339786 0.040779304 0.13394922
0001a0 c5 ac ff 3d f2 07 84 3d 62 c0 24 bd 70 a9 e4 bc
       0.12484125 0.06446828 -0.040222533 -0.027912825
0001b0 9e 60 e8 3d e5 61 14 3e 32 ea f3 3d 60 8a 69 3b
       0.11346553 0.14490469 0.119099036 0.0035635456
0001c0 a6 26 83 3d 16 06 de 3d d4 57 e7 bb 75 af 3f bd
       0.06403856 0.108410046 -0.0070600305 -0.04679819
0001d0 2d e3 9f bc 3b 90 d7 bd 6b 35 dd bd ab f3 96 3b
       -0.019517506 -0.10525557 -0.10801204 0.004606684
0001e0 dd d7 db 3d 0b bd c8 bd 6c c7 b3 bd 2d 17 3e bd
       0.10734532 -0.09801682 -0.08778271 -0.04640882
0001f0 56 e5 d0 3d 01 6b 09 bd 36 b9 19 bd 55 a3 98 bd
       0.10199992 -0.033549313 -0.037530147 -0.07453028
000200 e5 29 68 bd 23 ff d7 3c ad 49 d3 bc bb 06 f5 3d
       -0.05668058 0.026366776 -0.025791967 0.11964174
000210 07 63 23 3d 40 ee 09 3c e3 0f 6b 3b 08 16 0c 3c
       0.03988936 0.00841862 0.0035867624 0.0085501745
000220 5b 5c b5 3d ed e8 4d bd 96 2c b5 3d c8 66 51 bc
       0.08855506 -0.050270963 0.08846395 -0.012780853
000230 37 9c 1d bc e0 58 a3 3c 11 2a d3 3d 41 99 0f bd
       -0.009619764 0.01993984 0.10310758 -0.035058264
000240 99 b6 52 3d cb 6d 61 bb 03 c1 61 bd d7 c4 1d 3d
       0.05144367 -0.0034397717 -0.05511571 0.0385178
000250 e0 0e 07 be 13 ec 52 bc 88 0e bd 3d a9 57 bd 3c
       -0.13189268 -0.012873667 0.09231287 0.023113089
000260 7f b7 ac 3d a3 27 26 bc 98 3e b8 3d ec 6e b6 3d
       0.084334366 -0.010141286 0.08996314 0.089078754
000270 51 9c 49 bd 9c 20 58 bc 4e e8 00 bd c8 f4 a2 bd
       -0.04922134 -0.013191368 -0.031471543 -0.079568446
000280 0d 48 11 bd e9 00 56 3d ee 69 15 3b fe bc 89 3d
       -0.035469104 0.05224696 0.0022798735 0.067255005
000290 83 1a 13 3d 8c 49 0d 3e c4 76 a7 3d 07 b0 b6 3d
       0.035913955 0.13797587 0.081769496 0.08920293
0002a0 6e e4 77 bc 7d f2 01 3e 8a 98 01 be ef fc f7 bc
       -0.0151301455 0.12690158 -0.12655845 -0.030271975
0002b0 3e 3e 9c 3d 85 62 34 3d da dd 82 bd 01 44 7d 3d
       0.07629059 0.044039268 -0.06389971 0.06183243
0002c0 ff 6b a5 bd b8 d7 c2 3c c3 ce 61 3c f8 df 08 be
       -0.08077239 0.023784503 0.013782206 -0.13366687
0002d0 ca ba 12 bd d4 68 b6 bd 0b cb 8a 3d cb 38 8b bd
       -0.035822667 -0.08906713 0.067770086 -0.06797942
0002e0 e8 35 64 bd 83 94 1f bc cd a2 03 3e 14 a4 28 bc
       -0.05571547 -0.009739998 0.12855072 -0.0102930255
0002f0 eb 20 31 3c 58 68 aa bb 81 6d 17 3d 6e 7f bb bd
       0.010811071 -0.005200427 0.036969665 -0.09155165
000300 f4 c7 3f 3d d1 28 f3 3d fc 30 ba bc 40 71 3c 3d
       0.04682155 0.118730195 -0.022728436 0.04600644
000310 5b 25 02 3e 17 a1 a2 bd 2b bd f2 3d 85 86 f8 3c
       0.12709562 -0.07940882 0.11852487 0.030337581
000320 b6 61 45 bc aa 78 88 bd 9b d5 85 bc 4e 8e af bc
       -0.012047222 -0.0666364 -0.016337207 -0.02143016
000330 79 6f b9 bd 9a 26 ac 3d a5 ea d5 3d 36 2c c2 bd
       -0.09054465 0.084058 0.104451455 -0.09481089
000340 16 1c 0b 3e 4c 7c d4 bd 15 f3 f7 3d 89 9c d1 3d
       0.13584933 -0.1037527 0.12106911 0.10234935
000350 d4 21 c6 bd f1 db a6 bd 39 d1 89 bd 4e 1d 3b 3d
       -0.09674421 -0.08147419 -0.06729359 0.045682244
000360 46 05 33 bc ba 34 f8 3d af 9a e8 3c e7 70 a6 3d
       -0.01092655 0.12119432 0.028394071 0.08127003
000370 1f 52 0d 3e cf 07 42 bd 9f e2 99 bd 22 f3 eb 3d
       0.13800858 -0.047370728 -0.07513928 0.11520983
000380 25 b2 4b 3d a1 2f d1 3d 5f ff d8 3d 1c 20 04 3e
       0.04973044 0.102141626 0.10595583 0.12902874
000390 f0 ac 05 3e 0e 2d eb 3b 77 a9 59 3d 16 9a 86 3c
       0.13054252 0.007177002 0.05314013 0.016430896
0003a0 ad dc cf 3d d4 be 8c 3d ce 7b d7 3d 0b 3b d9 3d
       0.101495124 0.06872335 0.10521661 0.10606965
0003b0 ce 5a ef 3d 07 48 de bd 4c b8 ac bd 65 37 47 bd
       0.116872415 -0.10853582 -0.08433589 -0.048636813
0003c0 ad 2b b0 3d 65 08 05 bd db 12 0e 3e 5c d9 46 3d
       0.086020805 -0.03247871 0.1387438 0.048547134
0003d0 53 2f 44 3c f2 be 49 3d dc 1f ae 3c 6e b1 bd 3d
       0.011974174 0.049254365 0.021255426 0.09262358
0003e0 59 da 13 3e 6b 22 cb 3d e0 d4 4a bd b6 f3 f5 bd
       0.14438762 0.09918674 -0.04951942 -0.12009375
0003f0 4c 76 ba bd ea f0 9b bd a1 b0 32 3d 1f 39 20 bd
       -0.091045946 -0.0761431 0.043625478 -0.039116975
