model_artifacts/dl_tcn_latest_28400_29900.pt (torch, 378521 bytes, 20 tensors)

net.0.weight f4 [64, 30, 3]
000000 64 45 aa 3d f0 7e 23 3d 19 e5 b0 3d fa 34 53 3c
       0.083140165 0.03991598 0.08637447 0.012891049
000010 95 e0 c4 3d 0a 92 7e 3a 44 9f 26 3d 32 73 9d bc
       0.09613148 0.00097110926 0.04067923 -0.019219968
000020 bc d3 af bd 74 4d df 3d 6a 03 d3 bc a8 39 ac bd
       -0.08585307 0.10903445 -0.025758464 -0.084094346
000030 dd 22 7f 3d 20 b9 97 bc 1e 15 d6 3d da f4 a6 bc
       0.062289108 -0.018520892 0.104532465 -0.020380426
000040 1e 27 9d bc 09 3e d5 3d ed e9 5f 3d a4 e1 1a 3b
       -0.019183692 0.10412223 0.05466645 0.0023633027
000050 64 2b 03 bd c2 36 d9 3d 5c c4 cd bd aa ea 6d bd
       -0.032023802 0.10606147 -0.10047218 -0.05808512
000060 a2 8d 11 3d 8a 68 92 bd 9f 3b 88 bd 6c da 3c 3b
       0.035535462 -0.071488455 -0.06651997 0.0028816713
000070 f5 e8 90 3d bd 32 4b 3c f7 9b 90 bc 99 c8 ca 3d
       0.07075683 0.012402234 -0.017652495 0.09901542
000080 38 9c 75 bd 04 f8 99 bd d3 2f cd 3d ce c3 9e bd
       -0.059963435 -0.07518008 0.10018887 -0.077521905
000090 b9 0a e2 3d ca a0 ab bd a0 32 32 3d f4 fe 94 3c
       0.110372014 -0.083802775 0.04350531 0.018187977
0000a0 a9 ac 84 3d 28 30 54 bd 59 cd d6 bd b6 7c 15 bd
       0.06478245 -0.051803738 -0.10488386 -0.036495887
0000b0 29 f3 3e 3d 81 4b 08 3e 13 c3 a9 3d ae 86 94 bd
       0.046618614 0.13310052 0.082891606 -0.072522506
0000c0 96 d9 b9 3c 18 09 92 3c 62 c5 6d 3d f3 a0 5d 3d
       0.02268676 0.017826602 0.058049567 0.05410857
0000d0 30 17 b7 bc 63 51 b4 3d 45 ad c8 bd da af 98 bd
       -0.022349924 0.08804586 -0.097986735 -0.07455416
0000e0 09 91 85 3d 83 ce 87 bd f6 92 06 3d 07 48 a4 3d
       0.06521804 -0.06631186 0.032854997 0.080215506
0000f0 64 e7 de bc bd f4 a2 bd e9 1a ae 3d 8f 2c ca bd
       -0.027209945 -0.079568364 0.085012265 -0.0987178
000100 ac e7 7a 3d 7c 9e 2b 3d 87 eb 75 bb 8d 5a bc 3d
       0.061256096 0.04189919 -0.0037524418 0.09196959
000110 69 e3 91 3d 8d 96 37 bd 62 5b 1e 3d a7 26 81 bd
       0.07123453 -0.04482131 0.03866137 -0.063062005
000120 7f 70 09 be d3 e0 c3 3d 78 51 85 bd c2 fc 1f be
       -0.1342182 0.09564366 -0.065096796 -0.15623763
000130 f8 6b 83 bc 14 b9 86 3d de e3 f6 bd 75 1b 54 bd
       -0.016042694 0.065782696 -0.12055181 -0.051783998
000140 84 ca 0e bd 01 9f e5 3d bb fb ad bd 6c 06 0d bd
       -0.034861103 0.11211968 -0.084952794 -0.034429953
000150 8b a8 15 be 22 47 84 bd 26 22 9f 3d ca 3f a1 3c
       -0.14615075 -0.0645888 0.07770185 0.019683737
000160 64 f9 43 3d fb 12 b4 bd dc 21 c1 bd d0 8d 73 bc
       0.04784526 -0.08792683 -0.09430286 -0.014865354
000170 05 b9 4e bd e4 73 75 bc 27 96 3a bd 3d 2c 8c 3d
       -0.050469417 -0.014981244 -0.045553353 0.06844375
000180 3e d9 b8 bd eb 7a c4 3d 66 56 9a bc bd 68 27 be
       -0.09025811 0.09593757 -0.018840026 -0.16348548
000190 c7 da d6 bd 4a 21 0a bc b3 0d 7d 3c f5 c1 ca 3d
       -0.10490947 -0.008430788 0.015445161 0.099002756
0001a0 77 84 8e 3d ff aa d3 bd 07 20 a8 bd 41 0c d0 3d
       0.069588594 -0.10335349 -0.08209234 0.10158587
0001b0 58 88 fd bd dc 2b 35 3d 74 d8 26 3d b5 5f d8 3d
       -0.12379521 0.04423128 0.04073377 0.1056513
0001c0 85 84 9b 3d da fd 30 bd 79 4f 42 bc c7 7e 9f 3d
       0.075936355 -0.04321084 -0.011859768 0.07787853
0001d0 fc 48 02 bc ba 3d 72 3d d0 7c 29 bd be 4b 75 bc
       -0.007951971 0.0591409 -0.041378796 -0.014971672
0001e0 59 98 1f 3d 1f 62 62 bd aa 24 95 bd 9b c8 b9 3d
       0.03896365 -0.055269357 -0.07282384 0.090714656
0001f0 72 6f fb 3c be 95 b2 3b 00 b1 b3 bd 7a 9b df bc
       0.03069279 0.0054499796 -0.087739944 -0.027295817
000200 38 57 55 bc e3 df 2f bd f6 a2 7c bd af 46 94 bd
       -0.013021283 -0.042938124 -0.06167885 -0.07240044
000210 40 c3 8e 3d ce bb b2 bd 0a 39 1c bc 6a da 93 bc
       0.06970835 -0.08727227 -0.009535084 -0.018048484
000220 01 9b a2 bd c3 f7 7e bd 03 82 95 bd de 8c 45 3d
       -0.07939721 -0.062248003 -0.073001884 0.048230045
000230 f7 14 6b 3d 27 ce 75 3d 6a c6 be bc 3c 0f 0b 3d
       0.05739304 0.060011055 -0.02328797 0.033950076
000240 6b e8 c2 bc 2a b4 2e bc 99 29 7e bd 63 df d0 bd
       -0.023792466 -0.010663072 -0.06205139 -0.10198858
000250 1f 4a 80 3d 4a be cf 3d b0 76 97 bd 18 89 b9 3c
       0.062641375 0.10143717 -0.07395685 0.02264838
000260 e8 f5 13 3d fc c0 d1 3c da 69 7f 3d af 6d 3d 3d
       0.036123186 0.025604717 0.062356807 0.04624718
000270 fe 65 e1 bd 92 4f 99 bc 9a e7 ab bd 98 91 75 3b
       -0.110057816 -0.0187147 -0.08393784 0.0037470814
000280 34 30 5b bd b7 3d 08 bd 8e 84 e5 bd 7a 84 96 bd
       -0.053512767 -0.03326198 -0.112069234 -0.07349487
000290 12 b3 b7 3c 8e 33 48 ba c6 dd 95 3d a8 c2 c5 bc
       0.022424255 -0.0007637077 0.073176906 -0.02414067
0002a0 e1 94 a1 3c 0b 3d 4b bd fe 5d 14 3c 9a 91 92 bb
       0.019724311 -0.049618762 0.009055613 -0.0044729235
0002b0 a2 fc 96 bc 8c ce 0d 3d a7 91 c8 bd c4 4f 3a bd
       -0.018431012 0.034620807 -0.09793406 -0.045486227
0002c0 71 70 b6 bd 23 c6 8d 3d e4 2d 52 3c 1d 35 73 bd
       -0.08908165 0.06922557 0.012828324 -0.059376825
0002d0 f4 9a c4 bc 79 e6 c5 bd c5 79 33 bd 66 d7 c0 3b
       -0.023999669 -0.096631 -0.0438173 0.0058850525
0002e0 6a 33 a8 3d fe 0d c7 3c cb cc 87 bc 98 47 af bd
       0.082129315 0.024298664 -0.016577145 -0.08558577
0002f0 8a 0d 4e 3c 2f a9 67 3d 22 f3 b7 3c ec 96 b3 bc
       0.01257647 0.05655783 0.022454802 -0.021922551
000300 5d 5f d8 3d 72 58 2f bb 2b 49 93 3d 20 77 d7 3d
       0.10565064 -0.0026755598 0.0719169 0.10520768
000310 8b e8 cc bd 00 18 82 bc ab 88 98 3d 06 e4 c6 3c
       -0.100052916 -0.015880585 0.07447942 0.024278652
000320 93 e4 c7 3d cb 06 64 3c 93 91 a4 bd a6 14 1e 3d
       0.09760394 0.013917635 -0.080355786 0.03859391
000330 33 4d 9b 3d b9 3b aa 3d e0 51 0c bd ef 51 c1 3d
       0.07583084 0.083121724 -0.03425777 0.09439456
000340 b3 2c 38 bd a8 a5 53 3d e7 44 c1 bd 68 46 35 3d
       -0.044964503 0.051671654 -0.0943697 0.044256598
000350 28 f8 d4 bd cb 6e a0 3d 11 47 96 bd 88 36 b9 bc
       -0.103988945 0.07833632 -0.073377736 -0.02260901
000360 ce 70 a3 bd 3e 4b ca 3a 45 fb c7 bd 38 1d 83 bb
       -0.079805 0.0015433801 -0.09764723 -0.004001286
000370 ba fc 10 3b ac 80 8a bd 1d 94 93 bd fa 35 8d bc
       0.0022123293 -0.067628235 -0.07205985 -0.017237652
000380 88 8f 10 3d 7a dd b9 bd 42 c3 ee 3c 47 89 c0 bd
       0.035293132 -0.090754464 0.02914584 -0.094011836
000390 22 4f fb bd 64 21 21 3c 27 43 54 3d 2d 3f 79 3d
       -0.12270953 0.009834621 0.051821854 0.060851265
0003a0 9e c4 fa bb 56 41 03 3d c5 d1 95 bc ef 64 31 3c
       -0.007652833 0.03204473 -0.018288502 0.010827287
0003b0 2a be e5 bb a5 75 1a 3d 12 ac d3 bc 76 e3 e5 3c
       -0.0070111947 0.03770985 -0.025838885 0.028062563
0003c0 1f 5c 50 3d 09 71 a6 3d e5 19 ca 3d 42 66 13 3d
       0.050869104 0.081270285 0.0986822 0.035986193
0003d0 e4 0a 8c bc b1 af cd 3d 3b 47 d8 bc df dc 4f bd
       -0.017095037 0.10043276 -0.026401153 -0.05074775
0003e0 2b 7f 82 3d 0d b0 60 bc b7 84 d4 3d bf f9 8d 3d
       0.063719116 -0.013713849 0.10376876 0.06932401
0003f0 c6 d2 1d be 09 a7 e3 ba 96 e5 16 bd 06 59 d2 3b
       -0.15412435 -0.0017368506 -0.036840044 0.006419304

net.0.bias f4 [64]
000000 f1 de 04 3e ff 45 ab 3c e9 0b 14 3e ac 75 a1 3d
       0.1297567 0.0209074 0.14457668 0.07883772
000010 d0 b1 27 3e 30 3d 10 bd 73 35 48 3d b9 b8 2b 3d
       0.16376424 -0.035214603 0.0488791 0.041924212
000020 40 77 dd 3b 78 74 bf 3d 4b 46 13 3e fc 3a 08 3d
       0.0067586005 0.093483865 0.14382283 0.033259377
000030 f4 dc c9 3d 68 4c 65 bd 4d c8 0a 3e fa c1 a1 3d
       0.098565966 -0.05598107 0.13552971 0.07898326
000040 48 cf b0 3c a3 20 58 bd 87 a5 81 3d 4c fe 43 3d
       0.021583214 -0.0527655 0.063304 0.04784994
000050 86 18 13 3e 97 12 20 3e 1b d6 22 bc 1a 03 2e bd
       0.14364824 0.15632091 -0.009938742 -0.042483427
000060 73 f6 0f 3e 92 32 e8 3d 5f 56 28 3e f6 46 9e 3d
       0.14058857 0.113377705 0.16439198 0.077283785
000070 a3 0d 44 3d cc 91 0e 3d 30 61 74 3d 04 67 d9 3c
       0.047864567 0.03480701 0.059662998 0.02653838
000080 8d 05 98 3d ad 83 ab 3d a3 5d ea 3b ec f2 47 bd
       0.07422934 0.083747245 0.0071522756 -0.048815653
000090 da 66 d7 bb a8 6b e0 bc ce 15 8d 3d 7e 03 1b bc
       -0.00657354 -0.027395085 0.068889245 -0.009461282
0000a0 ac 67 8e 3b 8e bb 1b 3e e5 5e 4b 3d 77 e6 c6 3c
       0.0043458547 0.15208265 0.049651045 0.024279816
0000b0 01 91 0c 3d f5 5b 0d 3d 56 6f 68 bd fa 93 48 3d
       0.034317974 0.034511525 -0.056746803 0.048969246
0000c0 c4 bd 29 3e 7f 84 97 3d 49 3f 8a 3c a6 44 0f bd
       0.16576296 0.073983185 0.01687588 -0.034977578
0000d0 d9 21 cd 3b fa ce 22 3d cd 50 02 3e c6 47 1d 3e
       0.0062601385 0.03974817 0.12726136 0.1535941
0000e0 f8 db 1e bd 99 8e 20 bd 12 33 72 3d 8e e1 94 3d
       -0.038783997 -0.03919849 0.059130736 0.07269584
0000f0 f1 1b d2 3d da f2 85 bc 9e a8 a5 3d a6 b9 bf 3c
       0.10259236 -0.016351152 0.08088802 0.023403954

net.3.weight f4 [64, 64, 3]
000000 02 84 9c bb d4 79 92 3d 74 98 21 3d 84 35 3b 3d
       -0.0047764787 0.07152143 0.03945203 0.045705333
000010 5a 57 90 3b c4 4e 3f 3c 95 ff 40 bc 88 6c a0 bc
       0.0044049444 0.011676494 -0.0117796855 -0.019583002
000020 9c 6f 13 3d 65 85 fb 3d d7 b9 06 3b 7a 14 5a bc
       0.03599511 0.12281302 0.0020557547 -0.013310546
000030 fa 10 a3 3d 88 9c 55 3c d0 22 7d 3d 57 86 a5 3d
       0.079622224 0.013037808 0.061800778 0.08082264
000040 2a 9b 26 3b 1e 80 65 bd 8e 0c 8c bc 17 50 85 3d
       0.0025422075 -0.056030385 -0.01709583 0.065094166
000050 1b ba 54 bd 2b d9 3d bb af b1 fd bc 7d 68 91 3d
       -0.051935297 -0.0028968554 -0.030968515 0.07100008
000060 a5 9f 57 3d bd 58 8e bd 12 55 60 3c df 93 e7 39
       0.052642483 -0.06950519 0.013692157 0.00044169926
000070 3a 50 cd bb ed f3 3a bd 24 2e 32 3d e4 58 e9 bc
       -0.0062656673 -0.045642782 0.043501034 -0.02848477
000080 92 be 19 bd 86 64 3b 3d aa c5 29 bd 36 fb c3 bb
       -0.037535258 0.045750163 -0.041448273 -0.0059808744
000090 80 28 35 3d 53 d2 2c 3d bd c5 6e bd e1 fc b2 bc
       0.044228077 0.04219277 -0.058294047 -0.021849098
0000a0 5a 0c 02 bd 16 95 90 3d 89 09 d1 3c e6 78 d3 bc
       -0.03175006 0.07059686 0.025517242 -0.025814485
0000b0 5c 79 91 bc b6 a0 67 bc c2 8b ae bb 24 c8 ec 3c
       -0.017758064 -0.014137438 -0.005326719 0.028904028
0000c0 c6 cb 9f 3d 87 b8 40 3c 6c d5 00 bd 4b 3f 0f 3d
       0.078025386 0.011762745 -0.031453535 0.03497247
0000d0 30 59 aa 3c 3b 06 3b bd 9e 74 89 3c 60 6c 82 3c
       0.020794481 -0.04566024 0.01677924 0.015920818
0000e0 08 e2 14 3d e3 2c d4 3d 3a f0 7c bd 5b a5 57 bd
       0.036348373 0.10360124 -0.061752535 -0.05264793
0000f0 b2 b3 24 3d 78 f4 8c bd fc bd 29 bd 0c 32 c8 3d
       0.040210433 -0.06882566 -0.04144095 0.09775171
000100 d6 9a 6f 3c 54 43 d8 3c 21 3a a6 3d 34 91 7e bd
       0.014624318 0.026399292 0.08116556 -0.062150195
000110 7c 72 ea bb 85 f7 c0 3d 3c 91 30 bd 52 13 4e 3d
       -0.007154761 0.094222106 -0.043107256 0.050311394
000120 fe c9 0a 3d 78 d9 8e 3d 8a 9d ef 3c e3 cb 04 3e
       0.03388404 0.069750726 0.029249925 0.12968402
000130 a3 f8 4f 3b e0 a6 05 3d b4 b5 dc 3c 76 51 27 bd
       0.0031733892 0.032629848 0.026942112 -0.04084917
000140 3b db fe bc 4c aa 03 3e 7f c9 78 3d d6 f2 2d bd
       -0.031110397 0.12857932 0.060739037 -0.042467915
000150 cc d4 9d 3d 42 5d 2e 3d cc 8f de bb 1e 9e 90 bc
       0.077066034 0.042569406 -0.0067920443 -0.017653521
000160 4c f9 5e bd a6 97 53 bc 7c 0e 63 3d a4 be 82 3d
       -0.054436967 -0.012914574 0.055433735 0.06384018
000170 7a 9b cd 3b be fc b8 3d 0a 55 81 3c ff cd 49 3d
       0.0062746378 0.09032582 0.01578762 0.04926872
000180 df 25 6b 3d b4 22 d2 3c 76 2e f6 bc 21 95 5a 3c
       0.057409164 0.025651313 -0.030051451 0.013341219
000190 fc b3 ac bb a4 d8 63 3c 16 18 da bb 36 00 8b 3d
       -0.0052704792 0.013906632 -0.0066557033 0.067871496
0001a0 74 a2 2f 3d 86 22 8f 3d 58 9b 39 3d 9c 81 9a 3c
       0.042879537 0.06989007 0.045314163 0.01886063
0001b0 8e c0 8b bc a6 20 91 3d ca fd 4d bb 5d 25 b1 3d
       -0.01705959 0.07086305 -0.0031431788 0.086497046
0001c0 e6 45 5f bc bb 7a 22 bd 92 8a 8b 3d 74 84 ce 3c
       -0.013627505 -0.039667826 0.068135396 0.025209643
0001d0 04 24 ce bc 95 8d 22 3d c2 ba 8d 3d 48 e4 3c 3c
       -0.025163658 0.039685804 0.06920387 0.011529036
0001e0 67 79 b0 3c 4c 5b 1d 3d dc f0 1f 3d 40 e8 c4 3d
       0.021542264 0.038417146 0.03904806 0.09614611
0001f0 bc 8b 06 3d 4e 88 3e 3b e0 68 45 3d 98 05 24 3d
       0.032848105 0.0029072943 0.04819572 0.040044397
000200 52 b1 4e 3d fd 69 f2 3c 33 b8 69 3d f7 4d 30 bd
       0.050462075 0.029591555 0.05706043 -0.043043103
000210 0f d8 10 3d fd cc 2b bd 18 cd 0e bd a2 80 b2 bc
       0.0353623 -0.04194354 -0.03486356 -0.021789853
000220 f4 31 39 bd 92 99 82 bc 50 5c 8e 3d 57 77 d1 bb
       -0.045213655 -0.015942369 0.06951201 -0.0063924002
000230 c8 5b fc 3c 04 a4 fd 3d 3e 5b 00 3d 32 d3 bd 3c
       0.030805483 0.12384799 0.031337015 0.023171995
000240 67 86 7b 3d 26 a7 78 3d e2 e7 18 3d bd 1d d4 3c
       0.061407473 0.06070628 0.037330516 0.025893087
000250 06 71 4c bd 41 a3 23 3c aa 4a 4a bc 6c f0 e7 3c
       -0.049912475 0.009987653 -0.012346903 0.028312884
000260 b0 8c 93 bc f8 53 85 3d db a0 46 3d 46 f5 32 bd
       -0.018011421 0.065101564 0.048493247 -0.043690942
000270 7a f1 45 3d b9 c4 8c 3d d0 5c ac bc cb 1e 84 bc
       0.048325993 0.06873459 -0.02104035 -0.016127964
000280 60 f2 02 3d d9 e3 95 bc bd ac ac 3d 8c 2a 2c 3d
       0.031969428 -0.018297123 0.08431385 0.042032763
000290 5e bc 06 3d a7 a7 b0 3d f0 be 85 3c 2d d4 69 bd
       0.032894485 0.08625727 0.016326398 -0.057087112
0002a0 fe 62 72 bc 55 fc 40 bd 06 1c 7b 3c 50 3b 70 bc
       -0.014794109 -0.047115643 0.0153265055 -0.014662579
0002b0 8a 13 17 3d 88 c9 74 bd b5 59 d1 3d 62 52 7e 3c
       0.03688387 -0.059762508 0.102221884 0.015522571
0002c0 74 9b 67 bc c8 b2 d5 3c 58 d4 e0 bb 08 98 c9 bb
       -0.014136184 0.026086226 -0.006861251 -0.0061521567
0002d0 13 3f 51 3b ea c8 20 3d 14 b1 44 3d f1 19 ce 3c
       0.0031928464 0.039254107 0.048020437 0.025158854
0002e0 38 c0 fe bc d6 42 91 3c ae d4 c8 3d ac d6 1d 3d
       -0.031097516 0.017732065 0.098061904 0.038534805
0002f0 66 4f 06 bd 95 81 f7 3d 40 1b c3 ba 28 e1 8f bc
       -0.032790564 0.12085263 -0.001488544 -0.017563418
000300 57 40 6e bc ac 33 8f 3d 28 d5 ca bc cb dd d0 3d
       -0.014541707 0.069922775 -0.024759844 0.10198554
000310 4d dc 91 bd 82 c9 05 bd 8d 71 be 3c 78 dc 88 3d
       -0.07122097 -0.032662876 0.023247505 0.06682676
000320 29 ea 03 bd 12 b3 db 3c 8e 68 46 bd 75 f0 d2 3b
       -0.032205734 0.026818786 -0.048439555 0.006437356
000330 7f 74 ea bc ba 92 1b 3d 18 52 31 3c 37 2d ea bc
       -0.028620003 0.037981726 0.010822795 -0.028586013
000340 d6 e0 2e 3d 66 7c fa bc f8 96 c3 3d e0 b4 4d 3d
       0.04269489 -0.030576896 0.095502794 0.050221324
000350 88 67 34 bd c3 ca 1a bd 67 24 60 bd 34 52 80 bd
       -0.044044048 -0.037791025 -0.054722216 -0.06265679
000360 49 74 81 3d ba 8f 16 bd 42 b1 ba 3c 67 15 bf 3d
       0.06321008 -0.036758162 0.022789601 0.09330254
000370 94 fb de 3c 3e 3c 34 3d 73 b4 a5 3c ea 1c 52 3d
       0.027219571 0.044002764 0.020227646 0.051297106
000380 8c 6b 8d 3d af d8 d7 3d e0 2c ac bc 00 e6 81 bd
       0.069052786 0.10539376 -0.021017492 -0.06342697
000390 ec a3 5d 3d 0a 13 25 3d 7a ce 91 bd 30 04 2c 3d
       0.054111406 0.04030136 -0.071194604 0.04199618
0003a0 42 37 75 3d 08 fe 2a 3c 4c 69 16 3c 02 08 62 bd
       0.05986715 0.010436542 0.009180378 -0.055183418
0003b0 19 9d 92 bd 87 cd 13 3d 17 48 8a bd fc ab f6 bc
       -0.0715887 0.036084678 -0.06752031 -0.030111305
0003c0 b1 da a3 3d 1c 84 76 3d 98 b2 48 bc d1 0d 0e bd
       0.080006965 0.060184583 -0.012249611 -0.034681145
0003d0 20 53 8c 3d 79 7c 20 bd de fe 82 3d e5 75 84 bd
       0.06851792 -0.039181206 0.06396268 -0.06467799
0003e0 1c 56 88 3c 49 3f c3 3d f6 68 42 3d 1e 2e 44 3c
       0.016642623 0.09533555 0.04746338 0.011973886
0003f0 89 0a b0 3c 89 c7 2f 3d 10 bb 24 bd aa cb ea 3d
       0.021489399 0.0429149 -0.04021746 0.11464627

net.3.bias f4 [64]
000000 07 f1 bb 3c 14 f0 df 3d fe 31 64 3d 7d 0e b1 3d
       0.02294208 0.10934463 0.05571174 0.086453415
000010 98 9f 83 3d 20 60 b3 3d 70 3e 81 3b 32 92 14 3d
       0.064269245 0.08758569 0.0039442107 0.036272235
000020 a3 46 d0 3d 5b 11 01 3d 68 fd 16 bc f2 26 13 3d
       0.10169723 0.031510692 -0.00921569 0.035925813
000030 d4 c1 83 3d 56 73 3a bc 66 e1 02 3d b0 47 a1 bd
       0.06433454 -0.011380037 0.031953238 -0.078750014
000040 59 56 2e 3d ef ad 00 3e 60 a7 58 3b d1 f3 70 3d
       0.042562816 0.1256635 0.0033058748 0.05882627
000050 68 95 96 3d fb be 5e 3a f1 e8 84 3c f2 35 de bc
       0.07352716 0.0008497086 0.016224356 -0.027125333
000060 29 70 a7 3d 92 a3 4b bd 6f 8e e0 3c 16 11 0e 3d
       0.0817569 -0.04971654 0.027411668 0.034684263
000070 cb e3 a9 bd 01 86 f7 3d 39 3d 18 3d d7 c6 11 3b
       -0.08295401 0.12086106 0.03716776 0.0022243762
000080 b7 b6 59 bd 06 35 80 3d 51 7e 1a bd 0b c6 f0 3d
       -0.053152766 0.062601134 -0.03771812 0.11756524
000090 ee 4e 05 3e 10 f3 63 3d 13 41 bf 3d ef e2 04 3d
       0.1301839 0.055651724 0.09338584 0.032442983
0000a0 93 98 9a 3c 8f 81 9e 3d 85 87 53 3d 9b 17 00 3e
       0.018871581 0.07739555 0.051642913 0.12509005
0000b0 03 f9 a1 3c f1 d7 a4 bd af 88 56 bc cb 77 c0 3d
       0.019772058 -0.08049 -0.013094111 0.09397849
0000c0 d3 25 ab 3d 84 66 b7 3c f9 7d d4 3d d9 cc 84 3d
       0.08356824 0.02238775 0.1037559 0.06484384
0000d0 45 94 4e 39 d7 5e 11 bd 1c f7 b1 3d c6 84 08 3d
       0.00019700926 -0.035490837 0.086897105 0.033329748
0000e0 34 c5 d6 3d 62 5c 90 3d c0 a1 a5 3d f9 97 11 3c
       0.10486832 0.070488706 0.08087492 0.008886331
0000f0 77 86 28 3d fb 32 29 3d 13 17 22 3b d1 91 b5 3d
       0.04114386 0.041308384 0.0024732992 0.08865703

net.6.weight f4 [64, 64, 3]
000000 35 6b 6e 3d 9b 18 8a bd 3a aa 2d 3d a0 97 8f 3b
       0.05820771 -0.06742974 0.04239867 0.004382089
000010 30 2c 84 bd b6 49 38 3c a7 ff 97 3d 2e 7d 56 3a
       -0.064537406 0.011248043 0.07421809 0.00081821054
000020 c2 ad 06 3c da 22 b6 3d a2 78 90 bc 42 6a 0a 3c
       0.008220138 0.08893366 -0.017635647 0.008448185
000030 1c 60 f4 bc 74 2c 81 3d ae 5b e5 3c 0e 2f cc 3d
       -0.029830985 0.06307307 0.027997818 0.099699125
000040 78 5d bc 3b 30 5c 7b bd 17 da da 3b 8f 63 91 bc
       0.005748447 -0.061367214 0.0066788304 -0.017747669
000050 80 31 8e bd 8c b8 b8 3d fd cf ac bb be 57 a5 3b
       -0.06943035 0.090195745 -0.0052738176 0.00504586
000060 92 da 83 3d ac 40 81 3d 48 46 8d 3d 6a dd 9e 3d
       0.06438173 0.06311163 0.06898171 0.07757075
000070 f0 fb 6e bd a4 86 bf bb a8 63 b1 bc 10 7a b1 3c
       -0.058345735 -0.005844908 -0.021653965 0.02166465
000080 ac ff 6a 3d 4d 58 ff 3c 96 53 2c bd 0e 29 d3 3c
       0.057372734 0.031170035 -0.0420719 0.025776412
000090 1d 88 39 3d c0 c0 8e 3d 1e 1c 84 3c b1 de 5c 3d
       0.045295823 0.06970358 0.016126689 0.053923313
0000a0 fe 43 a3 3c 93 27 5b bd 65 77 cc 3c 94 3d b3 3b
       0.019929882 -0.053504538 0.024959275 0.005469987
0000b0 16 04 27 bd 93 3f 8d bb f2 46 84 3d 70 d6 af 3c
       -0.04077538 -0.004310557 0.06458844 0.021464556
0000c0 00 71 70 bc 26 e3 5c bc 2a 19 38 3d f9 c8 36 3d
       -0.014675379 -0.013481891 0.044945873 0.044625256
0000d0 52 d9 22 bc 9c 52 85 bd 79 b4 ee bc b2 76 65 3d
       -0.0099395085 -0.06509897 -0.02913879 0.0560214
0000e0 ae 42 34 3d 5f 61 81 3d d4 ee 60 3d 4c d2 dd bb
       0.044008903 0.063174 0.054915264 -0.006769454
0000f0 83 55 16 3d ef eb d5 3b 08 72 89 3d 1a 27 d8 3c
       0.036702644 0.0065283696 0.06711203 0.026385833
000100 1a 59 1a bd c4 56 1a 3d dd a2 9d 3d bb 2b 31 bd
       -0.03768263 0.037680402 0.07697079 -0.043254595
000110 7e d7 7b 3c d4 94 1a bd 8a 8f 2b 3d 7a ad bb 3c
       0.015371202 -0.03773959 0.041884936 0.022909869
000120 cd 2a 1d 3d b0 c5 34 3d 8c c9 c5 3b b9 bf 90 3d
       0.038370896 0.044133842 0.006035989 0.07067818
000130 e2 d2 82 3d 7c 27 87 bd ce f8 93 3d 82 ab 74 bc
       0.06387879 -0.06599328 0.0722519 -0.014933469
000140 a1 ee 87 bd bc c1 dc 3b 77 0a 8a bd ce e0 84 bd
       -0.06637312 0.006736962 -0.06740277 -0.064881906
000150 10 25 34 3d 10 c2 79 3d 54 15 fd 3b 88 53 61 bc
       0.043980658 0.060976088 0.00772349 -0.013752826
000160 36 29 92 bd 56 be 01 bc ab c8 dc 3d e6 3a c4 3a
       -0.071367666 -0.007918915 0.10780462 0.0014971166
000170 16 e4 54 3d ea 90 89 bc 72 5b a0 3c e6 60 02 3d
       0.051975332 -0.016792733 0.019574855 0.03183069
000180 49 a7 84 3d 04 5b de 3c 9e dc ec 3c 8d 37 63 3d
       0.064772196 0.027143009 0.028913792 0.0554729
000190 ee 90 c1 3c ed 61 31 b9 7e 51 9e 3c be 52 55 bd
       0.023628678 -0.00016916516 0.019325968 -0.052080862
0001a0 6a 49 6b 3d dc b8 99 3d 08 6e fc 3c 9e c6 4d bd
       0.05744306 0.07505962 0.030814186 -0.050238244
0001b0 77 1e cc 3c 2b 04 0c bd f0 1d 4d bd 33 08 a3 3c
       0.02491687 -0.034183662 -0.05007738 0.01990137
0001c0 f0 fd 3c bd e3 6f 88 bd 7b 3c 26 3d 06 c2 d3 bc
       -0.04614061 -0.06661966 0.040585022 -0.025849354
0001d0 40 72 20 3d 6f e4 a6 3d 6e 43 91 bd 49 ed 4b bd
       0.039171457 0.08149039 -0.07092939 -0.04978684
0001e0 bf e4 d5 3d 70 18 69 bd 28 6e 71 3c 3f f9 07 3d
       0.104440205 -0.05690807 0.014735736 0.033196684
0001f0 7f 2c 37 bd 28 f7 87 3d f0 8f b4 3d d1 80 85 bd
       -0.04472017 0.06638938 0.088165164 -0.065187104
000200 28 fa 5b bd b4 e3 93 3d 29 41 92 bd a4 17 8f bc
       -0.053705364 0.07221165 -0.071413346 -0.017467327
000210 c3 2f 83 3d a2 9c 47 bd 5c 30 3e 3d 4a 66 b1 3c
       0.06405594 -0.04873336 0.046432838 0.02165522
000220 3a 5b 2f 3c 4b c4 28 bd d7 a2 2c 3d e3 24 58 bd
       0.010702902 -0.041202825 0.042147484 -0.052769553
000230 28 36 6d 3d de d1 8e bb 3a 5d 91 3d b0 1b b7 3c
       0.057912976 -0.004358514 0.0709786 0.02235207
000240 f8 fc d3 3d ee 56 c1 3c 35 22 b9 3c e8 6c 20 3d
       0.10350984 0.023601022 0.022599319 0.03916636
000250 2a 34 1e bd ab f1 8c bd b5 fd 92 3d 1b 00 d9 bc
       -0.038623966 -0.06882032 0.07177297 -0.026489308
000260 ac 36 6c bd 21 10 85 3d 7c 6e d2 ba 60 3b 7c 3d
       -0.057669327 0.06497217 -0.0016054655 0.061580062
000270 e4 bd 88 3d ec c2 0e bc 7c aa 2e 3d 21 50 8f 3d
       0.06676844 -0.008713465 0.042643055 0.06997705
000280 98 f5 44 bd 10 8b 42 bc a2 43 de 3d ea ce 81 bd
       -0.04808578 -0.011873975 0.10852744 -0.06338294
000290 f7 96 1d bd 6e 0f e2 3c c2 b7 22 3d 2a f0 17 bd
       -0.03847405 0.027595248 0.039726026 -0.037094273
0002a0 a7 59 92 3b b8 5f 18 bc 92 42 df 3a 68 16 c9 3d
       0.004466254 -0.009300165 0.0017033389 0.09818727
0002b0 9f ed 12 3d 36 1d 56 3c f6 72 df 3b 66 e3 5f bd
       0.035871144 0.013068488 0.0068191243 -0.054660223
0002c0 36 6e 85 3d c8 65 99 3d 4c 67 2b bc e7 c6 23 3d
       0.06515162 0.07490116 -0.01046164 0.03998461
0002d0 30 85 86 3c be 86 1e bd 34 a7 70 3d 90 5d 65 3c
       0.01642093 -0.03870272 0.058753207 0.013999358
0002e0 be 2b ee 3b 1e 55 4a 3d 24 94 4d 3d b6 d1 00 bc
       0.007268398 0.04939758 0.050190106 -0.007862499
0002f0 19 7a fa 3c da 3d c6 3d 3c 67 35 3d 26 d8 79 bd
       0.030575799 0.09679766 0.044287905 -0.06099715
000300 4e 72 18 3d 72 dc dc 3c dc d7 51 3c 51 44 77 bc
       0.037218384 0.026960585 0.012807813 -0.0150919715
000310 7a 04 5d 3d 5c 09 9a bc 1a 87 f8 bc 0a a5 aa bc
       0.053959347 -0.018803291 -0.030337859 -0.02083065
000320 88 e6 f6 bc 38 7d 09 3c f6 0b 93 bd 80 80 a7 3c
       -0.030139223 0.008391671 -0.07180016 0.020447016
000330 e7 7b ac bc de 33 65 bd de f3 e3 bc d7 d9 3b bd
       -0.021055175 -0.055957668 -0.027826246 -0.045862045
000340 6d 90 20 3d c2 36 81 3d dc bb 82 3c ea 78 84 bb
       0.039200235 0.06309272 0.015958719 -0.0040427344
000350 32 ef 83 bc 92 89 78 3d e8 94 45 3d fa 55 52 3d
       -0.016105268 0.060678072 0.04823771 0.051351525
000360 31 6e 68 3d 84 54 8f 3c 86 44 81 bd 9a 1e c6 3c
       0.05674571 0.017496355 -0.06311898 0.024184514
000370 f8 ca 60 3d 62 7d 4c 3d bc c5 3e 3c 6c b2 84 3d
       0.054881066 0.049924262 0.011643823 0.06479344
000380 6e 21 2a bd 0e 1c 6c 3d e8 f6 0b bd 5c af 06 3d
       -0.041535787 0.057643943 -0.034171015 0.03288208
000390 00 9a 38 bd d6 02 ce bc b3 7e 57 bd e5 ce a2 3c
       -0.04506874 -0.025147837 -0.052611064 0.019874046
0003a0 55 b1 ec bc 42 44 81 3c cf e0 2d bd c1 c4 26 3d
       -0.028893152 0.015779618 -0.042450722 0.040714983
0003b0 40 b2 6a bd d3 81 41 3d 1a 96 2f 3d 80 54 49 bc
       -0.0572989 0.04724295 0.042867757 -0.012288213
0003c0 5d cf 69 3b 7d 8b 4b bd 98 2f c9 bb e3 c3 96 3d
       0.0035676577 -0.049693573 -0.006139707 0.07361581
0003d0 b6 03 36 bd 3e e2 01 3b 30 52 00 bb 1e 35 d8 bc
       -0.044437133 0.0019818689 -0.0019580238 -0.026392516
0003e0 98 78 92 3d b8 3a 17 bd 42 e2 75 bb 8a 92 65 3d
       0.07151908 -0.036921233 -0.0037518893 0.056047954
0003f0 31 6e 5d 3d ca 41 fb bc f6 56 35 3d f9 a1 ab 3d
       0.054060165 -0.03067102 0.044272386 0.08380503

net.6.bias f4 [64]
000000 99 ec d8 3d c8 52 71 bc e6 0d 72 3d 5e 55 b4 3d
       0.105920024 -0.014729209 0.059095286 0.08805345
000010 6f 1b 86 3d 43 3e a6 bd 7d 20 ba 3d b0 30 69 bd
       0.06548201 -0.08117344 0.09088228 -0.056931198
000020 7c 4e 8a 3d 1a f1 43 3d 80 ad d4 3c 00 38 6b 3d
       0.06753251 0.047837354 0.025961637 0.057426453
000030 b4 3b a3 3d fb 8b e8 3d fb da be 39 74 f4 da 3c
       0.07970372 0.11354824 0.00036402777 0.026727892
000040 05 9d 9f 3d d1 37 9e 3d d0 de 15 3d 62 e0 a3 bc
       0.07793621 0.0772549 0.036589444 -0.020004455
000050 12 0f ec 3d 80 69 82 3d 8c a0 4c bb a7 7d 05 3e
       0.11526312 0.06367779 -0.0031223623 0.13036214
000060 9e 87 db 3d bf 51 65 3c 71 29 06 3e d8 54 13 3d
       0.10719226 0.013996541 0.13101746 0.035969585
000070 a4 7c 90 3d 97 64 e3 3d 53 6a d8 bb 95 2c 87 bd
       0.07055023 0.1110317 -0.0066044717 -0.066003
000080 29 16 a9 3d 8d 21 bb 3d cf ea a7 3d 64 6d 3e 3d
       0.0825618 0.09137259 0.08199083 0.04649104
000090 cc c5 8d bd 1f 4b 7f 3d 2f e1 a1 3d 00 ed bc ba
       -0.069224924 0.0623275 0.079042785 -0.0014413893
0000a0 91 1b 61 3d 52 4e 3b 3d 01 94 d2 3d 1e 6c 8e bd
       0.05495793 0.04572899 0.10282136 -0.069542155
0000b0 ab 58 a6 3d 32 38 35 bd 16 59 b6 3d 22 27 03 3e
       0.08122381 -0.044243045 0.089037105 0.12807897
0000c0 44 30 56 bb a1 69 88 bd 20 7c 97 3d 3c 88 e3 3d
       -0.0032682577 -0.06660772 0.07396722 0.11109969
0000d0 70 5d 53 3d cd 67 9b 3c 89 10 e6 3d d1 64 ae 3c
       0.05160278 0.018970395 0.112336226 0.021288307
0000e0 da 8c 83 bd c3 7d 49 3d 63 5c c3 3d a5 2e 11 3e
       -0.0642335 0.0491922 0.09539106 0.1417795
0000f0 22 94 fc 3d 63 f1 1c 3d 15 74 2a bd 4c f1 c7 3d
       0.123329416 0.03831614 -0.04161461 0.097628206

net.9.weight f4 [64, 64, 3]
000000 de 70 a8 3c 5e 31 b2 3b 42 d2 86 3d 14 7e 64 3c
       0.020561632 0.005438014 0.06583072 0.013946075
000010 38 ad ff 3c ea dc bf bc 5d 12 8e bd f2 83 48 bd
       0.031210527 -0.02342077 -0.06937096 -0.048953958
000020 20 2d 91 3d 84 6b b3 ba 45 24 18 bd 1d 65 8e 3d
       0.07088685 -0.0013688658 -0.037143964 0.069528796
000030 0e c7 82 bd 4c ce 57 3c fc 25 92 3d d6 b8 53 bd
       -0.06385623 0.013171744 0.07136151 -0.051689945
000040 04 9d bf 3c 2e 88 a2 3c 4d 29 7f bd 2c 60 8b bc
       0.0233903 0.019840326 -0.062295247 -0.017013632
000050 40 0e ba bc c0 3c 87 3d 22 b6 b8 3c 65 09 7c 3d
       -0.022711873 0.06603384 0.022547785 0.061532397
000060 48 d1 9e bc c6 ff 2d bd 0b cd 0b bd 44 4a 8b bd
       -0.019386902 -0.042480253 -0.03413109 -0.068012744
000070 06 0c 85 bd d0 16 e0 bc 9a 8c 6b 3d dc 01 40 bd
       -0.06496434 -0.027354628 0.057507135 -0.046876773
000080 54 f1 92 bd 5a 0f 9d bc 60 df d9 bc e8 61 2d 3d
       -0.07174936 -0.01917236 -0.026595771 0.0423297
000090 ce 99 82 bc 78 06 91 3d a4 e9 30 3d 6a a8 84 bd
       -0.01594248 0.07081312 0.043191567 -0.06477435
0000a0 59 02 6e bd 44 ac 58 bd 1e 65 93 3d 40 ba fc 3c
       -0.058107708 -0.05289866 0.07197021 0.03085053
0000b0 40 53 36 bd 1b 58 6f bd 50 af db 3c 5f eb 8b bd
       -0.044512987 -0.058433633 0.026816994 -0.06832003
0000c0 f8 78 0c 3c 8f 7c 51 bd 2c 74 81 3d 2c d8 5a bc
       0.008573763 -0.05114418 0.06320986 -0.013357203
0000d0 1c cd 7d bd 79 5b 7a bb 5e a3 72 3d a8 8f 0c ba
       -0.061963186 -0.0038201495 0.05923783 -0.00053619826
0000e0 f4 6b 49 3d c6 2e d4 3c 80 32 3f bd dc 51 4a bd
       0.049175218 0.02590121 -0.04667902 -0.049394473
0000f0 d6 5e 0b bd 45 73 bd 3c 9c c7 ea bb 27 19 8e bd
       -0.03402599 0.023126254 -0.0071649086 -0.06938391
000100 e6 76 51 bd 54 57 22 3d 3f af 72 bd 0d 1b 48 3d
       -0.05113878 0.039634064 -0.05924916 0.048853923
000110 ea 2e 12 3d c6 ab 50 bc fd ab 26 3d 2d 8c 40 bc
       0.035689272 -0.0127362665 0.040691365 -0.0117521705
000120 1a e5 90 bd 3c 53 b6 3c 56 ec 82 bd 44 60 46 3d
       -0.07074948 0.022256486 -0.06392734 0.04843165
000130 28 bd 67 bc 02 6b 04 3d 08 c8 92 3c 1e 3f 83 3d
       -0.014144219 0.032328613 0.017917648 0.06408523
000140 ea b5 29 3c f4 eb 9a 3c c6 cc b4 3c 78 b1 dc bc
       0.010358313 0.01891134 0.0220703 -0.026940092
000150 c0 fb df bc f8 3b 5b bd 02 a3 72 bd 16 65 91 bc
       -0.027341723 -0.053523988 -0.059237488 -0.017748397
000160 58 c4 61 3d 68 70 06 bd 42 11 69 bc 3a d5 6b 3d
       0.05511889 -0.032822043 -0.014225306 0.057576396
000170 12 b2 e2 3c fc 37 80 3d 18 e3 97 3a 4e 4a 32 3c
       0.027672801 0.06260678 0.0011588065 0.010881973
000180 58 35 74 bd 14 c2 11 3d d2 f6 31 3d cb 57 27 bd
       -0.059621185 0.035585478 0.043448277 -0.04085521
000190 58 a7 09 bd 80 bf 87 3d 66 6b 4c bd 30 91 08 bd
       -0.033606857 0.066283226 -0.04990711 -0.033341587
0001a0 d0 c1 55 bd c4 ce 2b bd a6 4c 33 3d 0a 6c 83 3d
       -0.052186787 -0.041945234 0.04377427 0.06417091
0001b0 0c 03 40 3d 08 07 77 bc 24 69 fa 38 2f 8e 3d bd
       0.046877906 -0.01507736 0.00011940513 -0.046278175
0001c0 11 ff 85 bd c4 ac 9b bb e4 f6 f2 bc 9c 20 6c bd
       -0.06542791 -0.00475082 -0.029658742 -0.057648286
0001d0 65 3f 8d bd ee 71 99 3b 6c 1e 5b 3d ac ac 2a bd
       -0.06896857 0.004682771 0.05349581 -0.04166858
0001e0 83 dc 0c bd 30 72 ba 3c 51 f3 03 bd 7f 7e 9a 3c
       -0.034389984 0.022759527 -0.032214466 0.018859146
0001f0 13 e2 12 bd 72 3c 03 bd 78 70 88 3d f5 4c 90 bd
       -0.035860132 -0.032040067 0.06662077 -0.070459284
000200 15 f9 52 3c c2 b5 6b bc ea e8 86 3d 06 b7 f1 bc
       0.012876769 -0.014386596 0.065873936 -0.029506218
000210 56 7b 46 3d 82 14 46 3d c4 9d 86 3d 1a 6e 7e bd
       0.048457466 0.0483594 0.0657306 -0.06211672
000220 63 81 00 bd b4 9a 51 3d b8 9c 70 3d cd e9 0f bd
       -0.031373393 0.051172927 0.05874321 -0.03513508
000230 68 3d 43 3c 08 d3 7b bd 2a 92 32 3d c0 00 1e 3d
       0.011916496 -0.061480552 0.043596424 0.038574934
000240 6e 05 92 bc 5e 1c 86 3d 08 f2 6d 3b 72 9c 84 3d
       -0.017824855 0.06548379 0.0036307592 0.06475152
000250 ac e8 1a bc 0d ad 1c bd 2a 86 6c 3d e6 9f 7e bd
       -0.009454887 -0.03825097 0.057745136 -0.06216421
000260 4e c3 0f 3d 74 72 80 3d 4c 86 27 3c c1 c3 8e bd
       0.035098366 0.0627183 0.01022489 -0.06970931
000270 0c b0 52 3c 66 39 6f 3c 5e d6 80 bb 92 47 f9 bc
       0.012859356 0.014601087 -0.0039318046 -0.030429635
000280 90 dc 8b 3d f2 e5 12 bd f0 95 fc bc 3a 3c 5c bd
       0.06829178 -0.035863824 -0.030833215 -0.053768374
000290 2c 5b 97 bc 56 b6 c1 bc 10 d6 0c 3c 8f 9b 46 3c
       -0.018476091 -0.023646515 0.008595958 0.012122049
0002a0 e4 12 c3 bc 10 f3 19 3d e7 7e 1d 3d be 16 8a bc
       -0.023812719 0.037585318 0.0384511 -0.016856547
0002b0 3c 8d b4 3c c4 fe fc 3c 75 07 15 bd 4a 42 24 bd
       0.022040002 0.0308832 -0.036384065 -0.04010228
0002c0 a8 ac 8d 3d 4a ba 47 bd de 00 51 bd 7a 81 02 bd
       0.06917697 -0.048761643 -0.051026218 -0.03186176
0002d0 3a 87 8e bd 80 eb 5a 3d 5e 63 e6 3c 5e 87 1f bd
       -0.06959386 0.053447247 0.028123554 -0.038947456
0002e0 7e 2a 88 bd be 32 63 3c c2 d8 21 3d 7a e8 3d bd
       -0.0664873 0.013867078 0.039513357 -0.046364285
0002f0 b6 29 5b bd 2c 3b 06 bd f0 74 6d 3d 2a ba 0e 3d
       -0.053506576 -0.032771274 0.05797285 0.03484551
000300 08 4b 31 3d 1a db c1 bb 40 f8 85 bd 94 e5 4e 3d
       0.043284446 -0.0059160115 -0.065414906 0.05051191
000310 ae 37 d7 3c b0 0d 5e bc e9 8a cb 3c b4 60 dd bc
       0.026271667 -0.013553068 0.024846511 -0.02702365
000320 58 2f 47 bd 38 81 57 bd 5b da 7a bd 70 c1 9e 35
       -0.048629135 -0.052613467 -0.061243396 1.1828215e-06
000330 5d 58 12 bc 99 3a 62 bd 5a 59 5c 3d 31 4b 16 3d
       -0.0089322 -0.055231664 0.05379615 0.036692802
000340 66 93 93 bc 2a b6 8c 3d a1 36 f8 bc e8 92 0d bd
       -0.018014621 0.068706825 -0.030299487 -0.03456393
000350 b2 dd 19 bd 3d 68 4c bc 47 b0 66 bd f4 ca 60 bd
       -0.03756494 -0.012476024 -0.056320455 -0.05488105
000360 4a 57 f1 bc 36 95 9b bc 5e 5c c6 bc af b5 cd bc
       -0.029460568 -0.018992048 -0.024213966 -0.025111048
000370 14 b4 53 bd 66 60 dc bb 63 64 1b 3d 90 b2 cd bc
       -0.051685408 -0.006725359 0.037937533 -0.02510956
000380 ee 0a 2a 3d dc b7 3e bd ac 39 27 3d e4 bf 70 3c
       0.04151433 -0.04656206 0.040826485 0.014694188
000390 e7 fd c7 3c 3a 7e 8d 3d 92 c6 00 3d 39 8f 9b 3d
       0.024413062 0.069088414 0.03143937 0.07595677
0003a0 d0 8e 61 3c e2 39 c1 bc 28 24 ba 3c d0 2f 86 3b
       0.013766959 -0.023587171 0.022722319 0.004095055
0003b0 a4 c1 9d 3c 16 00 35 bc 45 f5 18 bd 83 dd 8c bd
       0.019257374 -0.011047384 -0.037343282 -0.068781875
0003c0 3f 52 52 3d 9a ec d3 3c de 13 df bc a3 5d 01 3d
       0.051347967 0.025869656 -0.027231153 0.03158344
0003d0 c4 11 70 3c 30 59 4f bb 61 64 75 3d 65 9d 1a 3d
       0.014652673 -0.0031638853 0.059910182 0.03774776
0003e0 38 e5 8b bd dd 44 08 bd fa 5c 07 3d c2 18 16 3c
       -0.068308294 -0.0332688 0.033047654 0.009161176
0003f0 03 c3 56 3d d8 75 93 bd fa 59 eb bc c3 69 17 3c
       0.05243207 -0.07200211 -0.028729428 0.009241524

net.9.bias f4 [64]
000000 b7 86 8a bd da fd 3d 3d 20 25 d6 3d e7 6c b7 3c
       -0.06763976 0.04638467 0.104563 0.022390796
000010 ce 76 86 bb 1f 03 9a bd 10 72 d1 3c 75 3f 48 bc
       -0.004103518 -0.075201266 0.025567085 -0.012222161
000020 d2 2f 04 3d d3 34 f0 3d 08 66 08 3e e2 ee a6 bb
       0.032272168 0.117288254 0.13320172 -0.005094395
000030 e7 e5 32 3d 27 30 b4 3d f8 be c3 3d 11 3d f8 bb
       0.043676283 0.08798247 0.09557909 -0.007575639
000040 d5 07 ea 3b 1c e6 59 3d 46 04 de 3d 1d d7 cd 3d
       0.007142047 0.053197965 0.10840659 0.10050795
000050 4c f3 1a bc e3 01 ed bb c6 e7 ce bc 66 c8 0f 3e
       -0.009457421 -0.007232891 -0.025257003 0.1404129
000060 c6 0d c9 3d cf 37 22 bb a4 d0 f4 3c bd ff cd 3c
       0.0981708 -0.0024752503 0.029884644 0.02514636
000070 8c b5 02 3e 4e 5d 81 bd 8c f7 9c 3c 0b 5b 0a 3e
       0.12764567 -0.063166246 0.019161008 0.13511293
000080 21 9a c2 3d e2 0e 35 3d 2b 8d e2 3d f0 75 65 3d
       0.09502054 0.044203646 0.11062082 0.056020677
000090 f0 eb a5 3d 8a ab e9 3b 0c d8 1f 3d 23 75 fc 3d
       0.08101642 0.0071310448 0.039024398 0.123270296
0000a0 28 18 b6 3d 34 f9 6d 3d 4c 86 e4 3d d6 e7 84 bd
       0.08891326 0.058098987 0.111584276 -0.06489532
0000b0 97 fb a5 3d 14 89 f1 3d 7a 5a a1 3d 6f 23 28 3d
       0.081046276 0.11793724 0.07878585 0.041049417
0000c0 35 dd fc 3d bf 52 13 3e e4 c1 eb 3b 65 66 08 3d
       0.123468794 0.14387034 0.0071947444 0.033300776
0000d0 a8 ff 9c bd 1e 68 08 3e 00 ec cc bc d6 2f d0 3d
       -0.0766595 0.13320968 -0.025014877 0.10165374
0000e0 dc 66 eb 3d e5 39 ae 3d ba a8 26 3d cf 3d 4e 3c
       0.11494228 0.08507136 0.040688254 0.0125879785
0000f0 87 84 26 3d 9b c1 9e 3d e4 26 b4 3d 45 07 0f 3e
       0.04065373 0.07751771 0.0879648 0.13967617

net.12.weight f4 [64, 64, 3]
000000 4e 08 76 bd 22 38 1d bc dc 0c 8c 3d 6f f1 77 3d
       -0.060066514 -0.009595903 0.0683839 0.060532983
000010 b8 04 84 bc ee 9c b1 3c 33 be 34 3c 3e ef 19 bc
       -0.016115531 0.021681275 0.011031675 -0.009395419
000020 8a 09 05 3d 93 27 16 bd eb 9f 49 3d bb 96 8b bd
       0.0324798 -0.036658835 0.049224775 -0.06815859
000030 b1 81 55 3d 0d 82 88 bd 06 f6 cd 3c 68 4d 3c 3a
       0.052125636 -0.0666543 0.025141727 0.0007183165
000040 33 a2 83 bd e3 d2 8d bd 98 c9 72 3c c7 69 84 bd
       -0.064274214 -0.06924989 0.0148185715 -0.06465488
000050 c6 fb b7 3b 81 68 c4 ba ce cd 62 bd e3 6b 0d bd
       0.0056147305 -0.0014984758 -0.055372052 -0.034526717
000060 2b b6 7e bc 0a eb 59 bd b2 ae 32 3d ce b4 3a bc
       -0.015546362 -0.053202666 0.043623634 -0.011395646
000070 34 19 a8 bc 22 86 84 bd 4a 65 17 bd 65 da 6c 3d
       -0.02051983 -0.06470896 -0.03696183 0.057825465
000080 7a bd 12 bd 20 7a e2 bc 06 55 aa bc 13 78 13 bd
       -0.03582523 -0.027646124 -0.020792495 -0.036003184
000090 12 47 e5 3c c8 9c 8a 3d 46 cc bb 3c bb 37 79 bd
       0.02798799 0.06768185 0.022924554 -0.060844164
0000a0 6c ce bc 3c ca b1 84 bb d3 d8 30 bd f1 a2 84 bd
       0.023047648 -0.0040495144 -0.04317553 -0.06476391
0000b0 52 5b 1e 3d 56 6a 7b bd 1c 2b 80 bc 41 53 ce bc
       0.03866131 -0.061380707 -0.015645556 -0.025186183
0000c0 46 7d 8f 3d 2c 8a d2 3b 4e b0 1c 3d bf c5 54 bd
       0.07006316 0.006425163 0.038254075 -0.051946398
0000d0 2c 85 03 bc e8 b3 c8 3b 70 97 aa bc fe dc 81 3d
       -0.008027356 0.006124962 -0.020824164 0.06340979
0000e0 9e 4c 56 3d b2 79 2d bd 64 ed 46 3d f8 4b 87 3d
       0.05231916 -0.042352386 0.048566237 0.06606287
0000f0 a7 7b 45 bd fc 97 4c 3c 5e 88 26 3d 16 d6 ed 3c
       -0.048213627 0.012487408 0.040657394 0.029032748
000100 a4 2d 87 3d 60 5c 4d bd 94 43 ba bc 46 fa 7e bd
       0.06600502 -0.050136924 -0.022737302 -0.062250398
000110 41 b7 81 bd 26 78 77 bc 12 ee d1 bc 08 aa f6 3c
       -0.06333781 -0.015104329 -0.025626216 0.030110374
000120 0b 80 d3 3b 48 f5 42 bd a0 16 38 3d 81 27 28 bb
       0.006454473 -0.0475972 0.044943452 -0.0025658312
000130 16 31 08 bd c8 78 cc bc f2 45 6f 3d a1 d6 81 bd
       -0.033249937 -0.024959937 0.058416314 -0.06339765
000140 74 f2 a6 bc 28 f9 93 3d 84 00 ea 3c 44 22 88 bd
       -0.020379283 0.07225257 0.028564699 -0.06647161
000150 b4 9b 60 bc f6 83 2d 3d d4 42 1b bc f6 fe b0 bc
       -0.0137089975 0.042362176 -0.009476382 -0.02160595
000160 f6 08 8b 3d e0 32 53 3d 9a 00 7e 3d 30 af 73 bc
       0.067888185 0.05156219 0.062012292 -0.014873311
000170 c2 f5 16 3c 47 ab 38 3b 98 46 40 3d bb 76 36 bd
       0.009213867 0.002817826 0.046942323 -0.044546824
000180 0f 95 22 3d e6 09 04 3d 9c 9b a0 b9 7c 04 8f bd
       0.039692935 0.032236002 -0.00030633516 -0.06983277
000190 fc 13 b3 bc 2e 5c 27 bd 00 f6 ee bc 34 c4 0e 3c
       -0.021860115 -0.040859394 -0.029170036 0.008713771
0001a0 ac 5f f6 3c a6 b2 64 3d c4 90 8d 3d 92 4d 49 bd
       0.030074917 0.055834435 0.069123775 -0.049146242
0001b0 20 32 70 bd ad de 55 3d a8 1a bd 3c 36 73 92 3d
       -0.058641553 0.052214313 0.023084 0.07150881
0001c0 e6 b4 06 3d 48 39 18 bd ba 54 d3 bc 50 0b 4f 3d
       0.032887362 -0.037164003 -0.025797237 0.050547898
0001d0 e4 fe ff 3c 30 07 18 bc 85 4a 6e bd 56 5a c8 bb
       0.031249471 -0.009279057 -0.058176536 -0.0061142845
0001e0 4f 65 af 3c 78 08 70 3d 0e 05 3f 3c 53 81 21 bb
       0.021410612 0.058601826 0.01165892 -0.0024643734
0001f0 9c f6 f3 3c 74 19 42 bd 84 d9 02 3d be b8 47 3d
       0.029780678 -0.047387555 0.03194572 0.04876017
000200 50 3e 33 3d 06 92 40 bb 4e 61 d6 3b 78 8a 5b 3d
       0.043760598 -0.0029383912 0.0065423613 0.05359885
000210 45 a7 16 3d b6 fe 27 bd a6 97 91 bd c4 1b dd 3c
       0.036780614 -0.041014396 -0.07109003 0.026990779
000220 82 0b 43 bd cc 85 db 3c 99 70 fa ba 40 2d 1f 3d
       -0.047618397 0.026797198 -0.0019107043 0.038861513
000230 24 4f 4d 3d 1c d2 13 3d 46 da dc 3c 1c 06 3f bd
       0.050124303 0.036089048 0.02695955 -0.046636686
000240 e9 d8 45 3d fa 2e 05 3d ca c6 1a 3d f8 d4 1a 3d
       0.048302565 0.032515503 0.037787236 0.03780076
000250 3d 1d 8c bd ac 74 21 3d 76 3f df bc ec eb 80 bc
       -0.06841514 0.039417908 -0.02725194 -0.015737496
000260 6c da 32 bd 0f 17 6a bd e2 ef 6e 3d 3e 01 8f 3d
       -0.043665335 -0.057150897 0.05833424 0.06982659
000270 87 6f 95 bc e0 9b 67 3d 5c a3 84 3d 49 8f 85 bc
       -0.018241657 0.05654514 0.06476471 -0.016303675
000280 c0 7b ad 3c d0 ed 65 bd 74 75 3b 3d ee 14 5d bd
       0.021177173 -0.056135 0.04576631 -0.05397504
000290 78 0b 10 bd f8 0c e8 3a 09 05 85 bd 60 57 d2 3c
       -0.035167187 0.001770406 -0.06495101 0.02567643
0002a0 9e ba 61 bd da 2b 1d bd 00 04 86 bb ec 5c 1a bd
       -0.055109613 -0.0383719 -0.0040898323 -0.037686273
0002b0 ec 2f 60 bd c2 50 c4 3c 73 7e 87 3d 43 ec 73 bd
       -0.0547332 0.02396429 0.06615915 -0.05955149
0002c0 e0 c9 42 bb 4f 82 9c bc 40 72 4a 3d 9c 3d 81 3d
       -0.0029722378 -0.019105105 0.049425364 0.06310579
0002d0 66 c7 50 3d c4 99 33 3b 0a 49 81 bd 99 03 45 bd
       0.05097141 0.0027404884 -0.06312759 -0.048099134
0002e0 ca 2a 0b 3c 2f a3 7b bd 5a 63 fd bc 88 6d 43 bc
       0.008494088 -0.06143492 -0.030931164 -0.01192797
0002f0 40 00 58 3d ae 9d ee bc f6 bb 27 bd e2 d9 39 3d
       0.052734613 -0.029127922 -0.040950738 0.045373805
000300 72 d8 55 3c 44 20 8f bc 3f 8b 34 bd 05 77 18 bd
       0.013052093 -0.01747144 -0.044078108 -0.03722288
000310 e7 e9 90 bd c8 29 e7 3c 0b 35 04 bd e8 70 4c 3d
       -0.07075863 0.028218165 -0.03227715 0.049912363
000320 de 8d 36 3d 4e 98 55 3c 9a d1 59 3c a6 43 95 bc
       0.04456889 0.013036801 0.013294602 -0.018220734
000330 41 b4 3c 3d ff 43 8e bd 86 6b 4d bc 89 95 3b 3d
       0.04607034 -0.06946563 -0.012537843 0.045796905
000340 e4 a1 1d bd de 3b 36 bd 00 39 65 3d 68 e8 cb 3c
       -0.03848447 -0.044490688 0.055962563 0.024891093
000350 15 52 8e 3d 7b 15 09 bc 28 9d 98 3b a8 5c c0 3c
       0.0694925 -0.008366938 0.0046574064 0.023481682
000360 6e f4 19 bc 83 ba 26 bd 16 ce ec 3b 64 0e 24 3d
       -0.0093966555 -0.040705215 0.007226716 0.040052786
000370 06 29 89 bd a4 24 0b 3d c7 98 37 3d 76 79 dc bc
       -0.06697278 0.03397049 0.044823434 -0.026913386
000380 0b 50 23 bd be 9c 23 3c 62 1e de bc 24 cb 87 3d
       -0.039871257 0.009986101 -0.027114097 0.06630543
000390 f3 03 75 3d ac e8 4e 3d 5e df da bc 06 f4 9d 3d
       0.05981822 0.050514862 -0.026717838 0.077125594
0003a0 e8 21 8e 3d 59 1a 91 bd c5 fb be 3d aa f2 d5 3c
       0.06940061 -0.070851035 0.09325365 0.026116688
0003b0 90 22 3f 3d f6 86 13 bd 2e 63 11 bc 34 97 c5 bc
       0.04666382 -0.03601738 -0.008873744 -0.02411995
0003c0 71 ae f2 bc e6 07 8b 3c 72 ba 42 bd 91 0e a9 3d
       -0.029624196 0.01697154 -0.04754109 0.082547314
0003d0 bb 98 71 bd 7e e9 da bc 05 f0 be 3d 60 1e e1 3c
       -0.058983546 -0.026722666 0.09323124 0.027480304
0003e0 e2 83 7f bd bd 05 45 bc c4 7e 86 3d 6c 2b 4f bd
       -0.062381633 -0.012025294 0.065671474 -0.05057852
0003f0 1c 6e 11 3d b1 61 eb 3c 48 40 7d 3d dd a3 9a bc
       0.0355054 0.028733106 0.06182888 -0.018876964

net.12.bias f4 [64]
000000 55 dd db bc af d6 d9 3d 42 c9 00 3e a4 7e 6a 3d
       -0.026838938 0.10636651 0.12576774 0.05724968
000010 aa 94 6c bd e2 e3 f2 3d 7c e3 97 bb da 83 47 3d
       -0.057758965 0.118598714 -0.0046352725 0.048709728
000020 f7 67 c9 3d 14 6a 84 bd 5c a3 cd 3d 8e 0a 4e 3d
       0.09834283 -0.06465545 0.10040924 0.050303034
000030 a2 1f 1e bd d8 f6 b2 3d b1 06 0a 3e 77 a0 c3 3d
       -0.038604386 0.08738488 0.13479115 0.095520906
000040 de 63 9d bc ff 64 2b 3d 46 32 d1 bc ee 87 2b 3d
       -0.01921266 0.041844364 -0.025536668 0.04187768
000050 7f 09 36 3d 28 91 47 bd f5 94 12 3e cd 76 bd 3d
       0.04444265 -0.048722416 0.14314635 0.09251175
000060 3d 02 42 bc 27 32 08 bd 8e fc 99 bd 6d c3 24 3b
       -0.011841354 -0.033250954 -0.07518874 0.0025140897
000070 88 8d 5b bd f4 29 0a 3d ef dc 98 bd 63 c0 dd 3d
       -0.05360177 0.033731416 -0.07464015 0.108277105
000080 90 29 87 3d c2 73 ca 3d e1 d9 51 3d 72 e4 03 3e
       0.06599724 0.0988536 0.051233176 0.12880114
000090 c7 60 8e 3d 25 26 8e 3d 4e af 05 3e fd 96 12 3e
       0.069520526 0.06940869 0.13055155 0.1431541
0000a0 ed 0b 86 bd 58 8d 36 3d 20 e2 ec 3c 6d c6 ce 3d
       -0.065452434 0.04456839 0.028916419 0.100964405
0000b0 ef 6f 1b 3d fa cf 26 3d 38 3d fb b7 45 f4 d4 bc
       0.037948545 0.040725686 -2.9950039e-05 -0.025995383
0000c0 70 9a fc 3d 23 e8 d3 bc 47 b1 ad 3c 70 ca d4 3c
       0.12334144 -0.025867527 0.021202696 0.025975436
0000d0 7a 04 10 3e 24 d0 e2 3d d4 8b 1d bd 90 52 71 3b
       0.14064208 0.11074856 -0.03846343 0.0036822893
0000e0 33 bb 84 3c 66 e9 37 bd aa 5b 16 3e 8f 71 1d bd
       0.016202545 -0.04490032 0.14683405 -0.038438376
0000f0 3e 84 ec bc ed 08 e7 3d 22 e0 dc 3d b1 f4 0e 3e
       -0.028871652 0.11280999 0.107849374 0.1396053
