model_artifacts/dl_tx_tx_h12_48000_49500.pt (torch, 420809 bytes, 30 tensors)

proj.weight f4 [64, 30]
0	0xbd2cae36	-0.042158328
1	0xbdb68cd8	-0.089135826
2	0xbb61a204	-0.0034428844
3	0x3ded9d43	0.11602261
4	0x3e0d3e2b	0.13793246
5	0x3d1ccce0	0.03828132
6	0x3d3e88bb	0.046517115
7	0x3d3da389	0.046298537
8	0x3bfeefcd	0.0077800513
9	0xbd22c49e	-0.03973829
10	0x3dbf7edd	0.09350369
11	0xbda7deff	-0.0819683
12	0xbdf496cf	-0.11942827
13	0xbcd1bd5b	-0.025602987
14	0xbe2a54f5	-0.16633971
15	0x3e3308b9	0.17483796
16	0xbe1b2f18	-0.15154684
17	0xbe1ac024	-0.15112358
18	0x3d96729c	0.07346079
19	0x3d1e1545	0.038594503
20	0x3dc5dba9	0.096610375
21	0xbbd00533	-0.006348276
22	0xbde761d4	-0.11297956
23	0x3e1605ee	0.146507
24	0x3d128b91	0.035777632
25	0x3d73e665	0.059545893
26	0xbe42255b	-0.18959562
27	0x3e2a81ba	0.1665105
28	0xbe0b6f55	-0.13616689
29	0x3daf4b81	0.08559323
30	0xbdf0f0b5	-0.11764661
31	0xbddffeea	-0.10937293
32	0xbceb7cf6	-0.02874611
33	0xbe32e342	-0.17469504
34	0x3c2414a2	0.010014685
35	0xbde37285	-0.11105827
36	0x3e38b94e	0.18039438
37	0x3e1629c9	0.14664377
38	0x3de84cd3	0.11342778
39	0x3d42cccd	0.047558594
40	0x3e0feae2	0.14054444
41	0x3e2a5df5	0.16637404
42	0x3dcecf50	0.100981355
43	0x3d47b14c	0.048753068
44	0x3da7394b	0.08165225
45	0xbc17baae	-0.0092608165
46	0xbd67f181	-0.0566268
47	0xbdb6cf14	-0.08926216
48	0x3e173a7d	0.14768405
49	0xbdcd0e54	-0.100124985
50	0x3c9258da	0.017864633
51	0x3d7ced29	0.06174961
52	0xbd8e4cce	-0.06948243
53	0xbd9c146d	-0.076210834
54	0x3e1c662d	0.15273352
55	0xbb0ceeb5	-0.0021504585
56	0xbe10beee	-0.14135334
57	0xbcc52bfa	-0.024068821
58	0xbd6dd6f7	-0.058066335
59	0xbdcfe160	-0.10150409
60	0xbbae5a96	-0.0053208573
61	0x3df20dc2	0.1181903
62	0x3e0b3b16	0.13596758
63	0xbd169323	-0.036761414
64	0xbdc4d2d5	-0.096105255
65	0xbe1cc9bb	-0.15311329
66	0xbd444a7e	-0.047922604
67	0x3e0951a7	0.13410054
68	0xbe1b3375	-0.15156348
69	0x3c8dfb69	0.017331796
70	0x3ced95b9	0.029002057
71	0xbdf67747	-0.12034469
72	0x3c0a7344	0.008450333
73	0x3dcaf003	0.0990906
74	0x3d0d531f	0.0345031
75	0xbc57c67b	-0.01316988
76	0xbe00ddb6	-0.12584576
77	0x3dd2affd	0.10287473
78	0x3d418915	0.047249872
79	0x3e088bc2	0.13334563
80	0x3def4d2c	0.11684641
81	0x3e1e4cbf	0.15458964
82	0x3d1bb31c	0.03801261
83	0xbd4f9e69	-0.05068818
84	0xbd84c1e7	-0.064822964
85	0x3e28bbb3	0.16477852
86	0x3e1cca8b	0.15311639
87	0x3cf9ffb6	0.03051744
88	0xbe2c1e61	-0.16808464
89	0x3e038ebb	0.12847416
90	0xbdaea052	-0.085266724
91	0x3d5969ee	0.053079538
92	0xbe1bfce3	-0.15233187
93	0xbccbbdbe	-0.02487075
94	0x3e43c6ec	0.19118851
95	0x3e21c895	0.15799172
96	0x3d38317e	0.044969074
97	0xbe053efb	-0.13012306
98	0xbdb78446	-0.08960776
99	0xbd77d8d3	-0.060509514
100	0x3d1f0f40	0.038832903
101	0xba38ec4c	-0.0007054254
102	0xbd809ffe	-0.06280516
103	0xbcf6b9dc	-0.030117922
104	0xbca42d9c	-0.02004128
105	0x3d47830f	0.04870897
106	0x3dd54265	0.104130544
107	0x3d39a8e1	0.04532707
108	0xbd723fa7	-0.059142735
109	0x3dad3bae	0.084586486
110	0xbde51d0c	-0.11187181
111	0x3d29eff1	0.04148859
112	0x3e2f99a8	0.17148459
113	0x3d963021	0.073333986
114	0x3da622d2	0.0811211
115	0x3de2a9cc	0.110675424
116	0xbca7422c	-0.020417295
117	0x3d20004f	0.039062794
118	0x3df404f7	0.119150095
119	0xbdacbf8d	-0.08434973
120	0x3d5a53c2	0.053302534
121	0x3d96c9fe	0.07362746
122	0xbe29c4bc	-0.16578954
123	0xbde08323	-0.10962512
124	0x3e253bcb	0.1613609
125	0x3e1fc9bf	0.15604304
126	0x3dcc7228	0.09982711
127	0xbceaeaca	-0.02867641
128	0xbe26ade2	-0.16277269
129	0x3d64e2a6	0.05588021
130	0xbc900681	-0.017581226
131	0x3da556e8	0.08073217
132	0x3d36842d	0.044559646
133	0x3e070008	0.13183606
134	0x3de7e111	0.11322225
135	0xbe07ec1f	-0.13273667
136	0xbd74cb9c	-0.05976449
137	0xbdacaf5d	-0.084318854
138	0xbdce111f	-0.10061859
139	0xbdfefaa8	-0.12450153
140	0x3cd2b4cd	0.025720978
141	0xbe234acc	-0.15946501
142	0x3e2e484c	0.17019767
143	0x3cb79154	0.022408165
144	0x3e0ad31f	0.13557099
145	0xbdb4110e	-0.087923154
146	0x3d856ffc	0.065155
147	0xbdd71567	-0.10502129
148	0x3dc1f162	0.09469868
149	0xbce7ece8	-0.028311208
150	0xbd86e276	-0.06586163
151	0xbc448a95	-0.011995931
152	0xbe0cb027	-0.13739072
153	0xbe004928	-0.12527907
154	0xbdc4e20e	-0.09613429
155	0xbde759ae	-0.11296402
156	0xbcafacd6	-0.02144472
157	0x3cb210de	0.021736559
158	0x3e1aefdb	0.1513056
159	0xbe0a67d4	-0.1351617
160	0x3da2cab0	0.07948816
161	0x3d98d0e6	0.07461719
162	0x3e15dab5	0.14634211
163	0x3e13beff	0.14428328
164	0x3dabfb3a	0.08397527
165	0xbc8707e0	-0.016483247
166	0xbe175354	-0.14777881
167	0x3e0e5ea3	0.13903289
168	0x3cf30b38	0.029668435
169	0x3dfa18f1	0.122117884
170	0xbe29d6ab	-0.16585796
171	0xbd6d9b6f	-0.05800956
172	0x3d412542	0.047154672
173	0xbe42b663	-0.19014888
174	0xbc1a9239	-0.009434276
175	0xbdbc7ba6	-0.092032716
176	0x3e44c313	0.1921504
177	0xbdc6d22b	-0.09708055
178	0x3e2ebe44	0.17064768
179	0xbce91577	-0.028452618
180	0xbda1adbf	-0.078944676
181	0x3cc72e08	0.024313942
182	0xbd5a9ecc	-0.053374097
183	0x3d6b288b	0.05741171
184	0x3d408b70	0.047007978
185	0xbe4c5d8a	-0.19957557
186	0x3dd10a9c	0.10207102
187	0x3d6306e1	0.055426482
188	0x3ca0c6d0	0.019626051
189	0xbe020fc3	-0.12701325
190	0x3dafea75	0.08589641
191	0x3dcc2030	0.09967077
192	0xbdf8440b	-0.12122353
193	0xbd7a3276	-0.06108328
194	0x3dffa1cc	0.12482032
195	0x3e135d6d	0.14391108
196	0x3dae2927	0.08503943
197	0xbe2359ac	-0.15952176
198	0x3d2a558e	0.041585498
199	0x3c8122f9	0.015763747
200	0xbe11f541	-0.14253713
201	0x3e20e90f	0.15713905
202	0xbdab126c	-0.08353123
203	0xbe404c17	-0.18779026
204	0xbe0fd71d	-0.14046903
205	0xbe1d281a	-0.15347329
206	0xbe018886	-0.12649736
207	0xbe212150	-0.15735364
208	0xbd9297a8	-0.071578324
209	0xbca244bc	-0.019808166
210	0x3d3a0a0e	0.045419745
211	0x3d04c13e	0.032410853
212	0xbe02c30e	-0.1276972
213	0xbc2b9a9f	-0.010473876
214	0x3d3e46e0	0.04645431
215	0x3c287cca	0.010283658
216	0x3cc8dc67	0.024519159
217	0x3e1978e6	0.14987525
218	0x3ddd7db3	0.10814991
219	0x3df6cff2	0.12051381
220	0xbd867988	-0.06566149
221	0x3d580451	0.05273849
222	0xbca01ec0	-0.019545913
223	0xbda3c9c4	-0.07997468
224	0x3de4f850	0.11180174
225	0xbdefaa09	-0.117023535
226	0xbcfbaebe	-0.030722972
227	0x3d352df4	0.044233277
228	0xbd85971e	-0.06522964
229	0x3d8c2e08	0.06844717
230	0xbc931ef8	-0.017959103
231	0xbd1ee125	-0.038788933
232	0x3c9039d0	0.017605692
233	0x3d204a6d	0.039133478
234	0xbce810cd	-0.028328324
235	0x3d80cff3	0.06289663
236	0xbe084a53	-0.13309602
237	0xbe0a7a41	-0.13523199
238	0xbe311d73	-0.1729639
239	0x3e07e8c3	0.13272385
240	0xbe0d2ccf	-0.13786624
241	0xbe3af140	-0.18256092
242	0x3da3691b	0.07979032
243	0xbe2b7372	-0.16743258
244	0xbe1b0f92	-0.15142658
245	0x3db2ac54	0.08724275
246	0xbe48c9a7	-0.19608174
247	0xbddc80d5	-0.1076676
248	0x3c8e7f7f	0.01739478
249	0xbcdf077d	-0.02722525
250	0xbe0c5b8c	-0.13706797
251	0x3d8bd1b0	0.06827104
252	0xbe165af1	-0.14683129
253	0x3d6e6fd1	0.058212105
254	0x3e103e31	0.14086224
255	0xbd6bc22e	-0.05755823

proj.bias f4 [64]
0	0xbe0fe980	-0.14053917
1	0xbccf8f13	-0.025336778
2	0xbd3d2b93	-0.046184134
3	0x3d71c3f4	0.059024766
4	0x3dc50d24	0.09621647
5	0x3da7fbbc	0.082023114
6	0x3e4ade12	0.19811276
7	0x3e1e15af	0.15437959
8	0xbda39ed9	-0.07989282
9	0x3e0a17a2	0.13485578
10	0x3d867835	0.065658964
11	0x3db4aed2	0.08822407
12	0xbddbd268	-0.10733491
13	0x3e28f50b	0.16499726
14	0xbd4983d2	-0.04919798
15	0x3d0428fe	0.032265656
16	0xbe3cb923	-0.18429999
17	0xbd1a5926	-0.037682675
18	0xbe47e487	-0.1952077
19	0x3d5e80a6	0.054321907
20	0x3e2d8ac4	0.16947466
21	0xbbc76241	-0.006084711
22	0xbdca1ad3	-0.098683976
23	0xbd5f08d9	-0.054451797
24	0x3dbdfeee	0.092771396
25	0x3df88109	0.121339865
26	0xbe22855b	-0.15871184
27	0xbcc7d8a5	-0.024395296
28	0x3af2de57	0.0018529397
29	0x3d835c3f	0.06414079
30	0x3e1378cc	0.14401549
31	0xbc94e550	-0.018175751
32	0xbde1a5ec	-0.11017975
33	0xbd86ce11	-0.06582273
34	0x3da34ec9	0.079740115
35	0xbc6ec760	-0.014573902
36	0x3d122267	0.03567734
37	0x3e1c8306	0.15284356
38	0x3d48d546	0.04903152
39	0x3d621997	0.055200186
40	0xbd92b3ca	-0.07163198
41	0xbe423949	-0.18967165
42	0x3bbb7d96	0.005721758
43	0x3e2e968c	0.17049617
44	0x3e235d4c	0.15953559
45	0xbe29167a	-0.1651248
46	0x3e27d766	0.16390762
47	0x3dc55819	0.09635944
48	0xbd78e2b8	-0.06076309
49	0x3e2e35eb	0.17012756
50	0xbdf2466f	-0.118298404
51	0x3e1cc498	0.1530937
52	0x3e5006cc	0.20315093
53	0xbe4e68f5	-0.20157225
54	0xbd5c5d82	-0.053800113
55	0xbdbe8564	-0.09302786
56	0x3d6967e0	0.05698383
57	0x3d656449	0.056003843
58	0x3daa0620	0.083019495
59	0x3dcfc80a	0.10145576
60	0x3ddb86cd	0.107190706
61	0xbe43dd61	-0.19127418
62	0x3deab823	0.114609025
63	0xbe21bae4	-0.1579395

enc.layers.0.self_attn.in_proj_weight f4 [192, 64]
0	0x3dd6c09c	0.10485956
1	0x3e01bc65	0.12669523
2	0x3bf48738	0.0074624084
3	0xbc946e61	-0.018119039
4	0x3d4298aa	0.047508873
5	0x3e06e17d	0.13171954
6	0xbd85156f	-0.06498229
7	0xbdcf943f	-0.101356976
8	0x3da64589	0.081187315
9	0xbe0f41ab	-0.13989894
10	0xbd06414e	-0.032777123
11	0xbc115bef	-0.008872016
12	0xbc71141a	-0.014714265
13	0x3d8d5a0d	0.069019414
14	0x3d26c043	0.0407107
15	0xbd2db9fc	-0.042413697
16	0x3d9b94a3	0.075967096
17	0xbbb688bc	-0.005570499
18	0xbe2d61f4	-0.16931897
19	0xba6ada20	-0.0008958895
20	0xbbdafc74	-0.006682927
21	0x3d5040cb	0.05084304
22	0xbe1d2065	-0.15344389
23	0x3cf10514	0.029421367
24	0xbe003b15	-0.12522538
25	0xbd97fcde	-0.074212775
26	0xbbcc1697	-0.006228279
27	0xbd84bb71	-0.06481064
28	0x3c44aac8	0.012003608
29	0x3e124bab	0.14286678
30	0xbc221d69	-0.009894707
31	0xbde887c0	-0.11354017
32	0x3e08ad05	0.13347252
33	0x3dd767af	0.10517823
34	0xbdf56c1a	-0.11983509
35	0xbd93343b	-0.071876965
36	0xbd28ddeb	-0.041227262
37	0x3deffd21	0.117182024
38	0x3ca85989	0.020550506
39	0x3d9e04eb	0.07715782
40	0xbd94917d	-0.07254312
41	0xbd5d4e0d	-0.054029513
42	0xbb6e9aa1	-0.0036408084
43	0xbbe0b998	-0.006858062
44	0x3e253d11	0.16136576
45	0x3d34538d	0.044024993
46	0x3de1ef4f	0.110319726
47	0x3e15293f	0.14566515
48	0x3d0ee884	0.034889713
49	0x3e1a17c6	0.15048131
50	0xbdb837c4	-0.089950114
51	0xbd87fefe	-0.06640433
52	0x3d066a60	0.03281629
53	0xbe054b3e	-0.13016984
54	0xbdd98360	-0.10620761
55	0x3dd9d8f9	0.106370874
56	0x3df7f847	0.12107902
57	0x3d61a5d2	0.05508978
58	0x3e28b753	0.16476183
59	0xbdf4f5f1	-0.11960972
60	0x3da33563	0.07969167
61	0xbd1a4499	-0.037663076
62	0x3e1bba9f	0.15207909
63	0x3dbbde2d	0.09173236
64	0xbc98c771	-0.018649789
65	0x3d3fd6ab	0.046835583
66	0x3e1ecd0f	0.15507911
67	0x3ddaa351	0.106756814
68	0x3e01f689	0.12691702
69	0xbe1d2cd4	-0.15349132
70	0xbd7cb33c	-0.06169437
71	0x3df2f67b	0.11863419
72	0x3e1c4b4b	0.15263097
73	0x3d9ed759	0.07755918
74	0x3dbbfe44	0.09179357
75	0xbde995c0	-0.11405516
76	0xbd3b74f1	-0.04576582
77	0xbdb20905	-0.086931266
78	0xbe0f1862	-0.13974145
79	0xbd164bdf	-0.03669345
80	0x3e0149a0	0.12625742
81	0x3e2ae338	0.1668824
82	0x3d755d91	0.059903685
83	0x3d7afce8	0.061276346
84	0xbe24e0ba	-0.16101351
85	0x3e1d9d58	0.15392053
86	0xbcea8ded	-0.028632129
87	0x3dfbe919	0.12300319
88	0x3da80b60	0.082052946
89	0xbd2bc1b4	-0.041932777
90	0x3dde79e3	0.10863092
91	0x3e1dc6b8	0.15407836
92	0xbdc90e59	-0.0981719
93	0xbd2d84bb	-0.04236291
94	0x3e0199dd	0.1265635
95	0x3e15fc71	0.1464708
96	0xbdcaa6a2	-0.09895064
97	0xbbbadd0c	-0.0057026204
98	0xbc2cf6a8	-0.010556854
99	0xbdaca529	-0.08429939
100	0x3e1619e6	0.14658317
101	0xbe17cdda	-0.1482462
102	0x3e0f03a7	0.13966237
103	0x3c5d6db6	0.013514927
104	0x3e2b552b	0.16731708
105	0x3d93eb1e	0.072225794
106	0xbdf6d526	-0.120523736
107	0x3d7e3354	0.06206067
108	0x3d035528	0.032063633
109	0x3e26e7d5	0.16299374
110	0x3d9d9113	0.07693686
111	0xbc4d1692	-0.012517588
112	0xbde4a3af	-0.11164033
113	0xbdd26b6f	-0.102743976
114	0x3c985311	0.018594297
115	0x3d71fb51	0.059077565
116	0xbe181328	-0.14851058
117	0xbd08438b	-0.03326754
118	0xbd13917d	-0.03602742
119	0x3d809c59	0.06279821
120	0x3c4dc23c	0.012558516
121	0xbdfda468	-0.12384874
122	0x3dcbb9a4	0.099475175
123	0x3c616a9f	0.013758331
124	0x3cdd9cb0	0.027052253
125	0xbdbba9df	-0.0916326
126	0x3d8b934f	0.06815206
127	0xbd464abf	-0.048411127
128	0x3e3ed998	0.18637693
129	0xbddbb788	-0.10728365
130	0x3cd3b0ea	0.025841195
131	0xbe063a44	-0.13108164
132	0x3dbb773a	0.091536
133	0x39973f13	0.00028847958
134	0xbdd7c499	-0.10535545
135	0xbdf64a66	-0.12025909
136	0x3e0a69bf	0.13516901
137	0xbe21aac8	-0.15787804
138	0x3e01a8fb	0.12662117
139	0xbd72b735	-0.05925675
140	0x3d1f9033	0.03895588
141	0xbe09a937	-0.13443457
142	0xbdb37b04	-0.08763698
143	0xbe1429b8	-0.1446904
144	0x3dbdbef8	0.0926494
145	0xbce47aae	-0.02789053
146	0x3df1c007	0.118042044
147	0xbd87650a	-0.066110685
148	0x3c2cb482	0.010541083
149	0xbdf03dc5	-0.117305316
150	0xbde33e4a	-0.11095865
151	0xbb3d0ba5	-0.0028846052
152	0xbe21d0aa	-0.15802255
153	0x3df404cd	0.11914978
154	0x3d457c68	0.048214346
155	0x3dd188fd	0.102312066
156	0xbe053ddc	-0.13011879
157	0x3d9706e0	0.07374358
158	0xbde00d06	-0.10939984
159	0xbddce8ed	-0.107866146
160	0x3e09752b	0.13423602
161	0x3e190d13	0.14946394
162	0xbc48b112	-0.012249248
163	0xba4abd73	-0.00077339186
164	0x3dd93367	0.10605507
165	0xbe0c109b	-0.1367821
166	0x3d1fb949	0.03899506
167	0xbe2640c1	-0.16235639
168	0xbdd5aa12	-0.10432829
169	0x3d3b5fe3	0.04574574
170	0xbe0612ed	-0.13093157
171	0x3d86f3db	0.065894805
172	0x3db85dc3	0.09002259
173	0x3df0f799	0.117659755
174	0xbdf1c279	-0.11804671
175	0x3d9c7a9a	0.07640572
176	0xbd7d2d70	-0.06181091
177	0x3dce579c	0.10075304
178	0x3ce4abdb	0.027913978
179	0x3da88bda	0.082297996
180	0xbdf44353	-0.119269036
181	0x3e38fc96	0.18065104
182	0x3e235fe8	0.15954554
183	0xbd1d3c8f	-0.03838783
184	0x3dc90cba	0.098168805
185	0xbdb1d06b	-0.08682331
186	0x3d63ac55	0.05558427
187	0xbdf27679	-0.11839003
188	0x3de9d30f	0.11417209
189	0xbdb1fc9f	-0.08690762
190	0xbcc4abac	-0.02400764
191	0x3e28d7ee	0.1648862
192	0xbd8bb5c7	-0.06821781
193	0xbdd08606	-0.10181813
194	0x3cbdeae4	0.023183294
195	0x3d8dabe0	0.06917548
196	0xbd913b4b	-0.07091387
197	0x3cf2307c	0.029564135
198	0x3e04e01c	0.12976116
199	0xbdfebe15	-0.12438599
200	0xbda60b56	-0.08107631
201	0x3b942add	0.0045217113
202	0x3b80af29	0.0039271307
203	0x3c7875bb	0.015164788
204	0x3db352c3	0.0875602
205	0x3d4b9412	0.049701758
206	0x3da2d5be	0.07950924
207	0x3d5e2046	0.054229997
208	0x3c979155	0.018501917
209	0x3b848f8e	0.0040454334
210	0xbc6ca4be	-0.0144435745
211	0x3d110f20	0.035414815
212	0x3e040326	0.12891826
213	0xbd7816d4	-0.060568646
214	0xbb5226e7	-0.0032066645
215	0xbd954f10	-0.072904706
216	0x3db10cb4	0.08645001
217	0xbd8ce2c7	-0.06879192
218	0xbe0abca0	-0.13548517
219	0x3dc3eb77	0.09566396
220	0x3e1c569c	0.15267414
221	0x3c9a4932	0.01883373
222	0x3c26cb93	0.010180372
223	0x3cc0b9ff	0.02352619
224	0xbd501c64	-0.050808325
225	0xbd01ccea	-0.031689562
226	0x3cd81b7e	0.026380297
227	0x3dc82a64	0.0977371
228	0xbd6f01b9	-0.058351252
229	0xbe0e2ca8	-0.13884223
230	0xbcf20d42	-0.029547337
231	0xbdc486de	-0.095960364
232	0x3d6602aa	0.056154884
233	0x3dd0a97b	0.10188576
234	0x3d6c2ce0	0.057659984
235	0x3b410e79	0.002945809
236	0x3db7ac52	0.08968414
237	0x3dff830e	0.124761686
238	0x3db5e496	0.0888149
239	0x3d71e8ac	0.059059784
240	0xbdc16a16	-0.094440624
241	0x3dec2cae	0.115319595
242	0xbdec70cf	-0.11544954
243	0x3d33b0f1	0.043869916
244	0x3d82a218	0.06378573
245	0x3de99463	0.11405256
246	0xba8d629b	-0.0010786833
247	0xbd8a2889	-0.06746013
248	0x3d11b705	0.03557493
249	0x3ce39426	0.027780604
250	0x3c933272	0.01796839
251	0xbe14a852	-0.14517334
252	0xbcc94777	-0.02457021
253	0x3d27c22f	0.040956672
254	0xbd8a414b	-0.06750735
255	0x3dcd42c0	0.10022497

enc.layers.0.self_attn.in_proj_bias f4 [192]
0	0x3cde2504	0.02711726
1	0xbc9e364c	-0.019313
2	0xbcf9f369	-0.030511575
3	0xbc632d4d	-0.013865781
4	0xbd19f15c	-0.037583694
5	0xbcba336b	-0.022729596
6	0xbcf15dc8	-0.029463664
7	0x3dbdf119	0.09274501
8	0x3c2eae36	0.010661652
9	0xbbfafa54	-0.007659236
10	0xbc667ca2	-0.014067801
11	0xbc8dc040	-0.017303586
12	0xbcc8562a	-0.024455149
13	0x3cb874bf	0.022516606
14	0x3d424b47	0.04743507
15	0x3d0da6d4	0.034582928
16	0x3ce2d1e9	0.027687984
17	0x3ca60eb2	0.02027068
18	0x3befb1e7	0.007314909
19	0x3cf782bf	0.030213712
20	0x3ce9166e	0.028453078
21	0x3d07a412	0.033115454
22	0xbcdccb63	-0.026952451
23	0x3d01a515	0.031651575
24	0x3d2fe3e2	0.042941935
25	0xbcd8d303	-0.026467806
26	0x3d697400	0.05699539
27	0xbd24939c	-0.040179834
28	0x3d6d84af	0.057987865
29	0xbca2463b	-0.01980888
30	0xbd2922e6	-0.041293047
31	0x3d14cc4c	0.036327645
32	0xbc32b6a1	-0.0109078
33	0x3c5a7154	0.013332684
34	0xbcdb5f08	-0.026778713
35	0xbbaff1bf	-0.0053693946
36	0xb9969983	-0.00028724605
37	0x3c10f11d	0.008846548
38	0x3ad4e51c	0.0016242596
39	0x3ce867f8	0.028369889
40	0xbc1f1db1	-0.009711669
41	0x3a6dff4f	0.00090788765
42	0x3bac1550	0.005251564
43	0x3ba35366	0.004984307
44	0x3d17b052	0.037033387
45	0xbd395a1c	-0.04525195
46	0xbaddc99c	-0.0016921046
47	0xbcefc758	-0.02926986
48	0xbdf55129	-0.11978371
49	0x3daca891	0.08430589
50	0xbbe540db	-0.0069962568
51	0xbd69b65d	-0.05705868
52	0x3da328cf	0.07966768
53	0xbc7a0c9b	-0.015261794
54	0xbdb8a32b	-0.09015497
55	0x3b7d29a8	0.0038629565
56	0xbd8054c2	-0.06266166
57	0xbcbc96bd	-0.023021096
58	0xbd73b6bd	-0.059500445
59	0xbd94ad22	-0.07259585
60	0x3cc7bef6	0.02438305
61	0xbd8847f3	-0.06654348
62	0x3d47fa85	0.0488229
63	0xbd906de9	-0.07052214
64	0x39a32d43	0.00031123505
65	0x39edc06d	0.0004534753
66	0xba1773a2	-0.00057774235
67	0xbaf5f46c	-0.001876486
68	0x39059af9	0.000127416
69	0x3a919387	0.0011106589
70	0x3996c0ef	0.00028753976
71	0xba5352e3	-0.00080613623
72	0x3a18e57c	0.00058325357
73	0xba557002	-0.00081419956
74	0x3a04b7ee	0.0005062808
75	0x37fd5cfc	3.020325e-05
76	0x377d05fc	1.50813685e-05
77	0xba40ebfc	-0.0007359383
78	0xba85ab88	-0.0010198215
79	0x39adb3b5	0.00033131024
80	0xb96f3c6a	-0.00022815322
81	0xb9f47adb	-0.0004663084
82	0xb7837037	-1.5668671e-05
83	0x3ade18d0	0.001694465
84	0x3985d7d4	0.0002552854
85	0xba3d6bb4	-0.0007225827
86	0xbad42ac9	-0.0016187067
87	0x39e9a6ac	0.00044565403
88	0xb910ce0a	-0.00013809666
89	0xba35c54e	-0.0006934003
90	0x3ac96e82	0.0015368017
91	0x39fd6fc5	0.00048339195
92	0x39099cca	0.00013123747
93	0x3a65b5e7	0.00087627623
94	0x3a06b1c7	0.0005138185
95	0xba4e816e	-0.0007877563
96	0x39e37ef3	0.00043391399
97	0xb9760f0b	-0.00023465992
98	0x3a095167	0.0005238265
99	0xb827f464	-4.004351e-05
100	0xba2e15f8	-0.0006640847
101	0x39f4d762	0.0004669978
102	0xba08da4e	-0.0005220518
103	0xba4915ab	-0.000767077
104	0xb9c37990	-0.0003728387
105	0x3a65bf6a	0.00087641797
106	0x3967a440	0.00022091065
107	0x3a4407e9	0.00074779853
108	0xb925613c	-0.00015771849
109	0x391d4e12	0.0001500177
110	0x39e562cb	0.0004375189
111	0xb91e8007	-0.00015115748
112	0x3a8b1dcd	0.001061374
113	0xba6924d8	-0.0008893735
114	0x39fe2d10	0.0004848023
115	0x399daf4f	0.0003007599
116	0x3afc67dc	0.0019257027
117	0x3a3f9b74	0.0007309236
118	0xb8b76c57	-8.7463e-05
119	0xbaae68eb	-0.0013306414
120	0xb9a5e4b2	-0.00031641644
121	0x3a14c4d6	0.0005675083
122	0x399c7898	0.00029844488
123	0x39ba6ff7	0.00035560105
124	0xb93b9b33	-0.00017891526
125	0xba0efeb8	-0.0005454826
126	0xb9456155	-0.00018823643
127	0x39dc7573	0.00042049176
128	0xbca84db2	-0.02054486
129	0x3c72f3bb	0.014828618
130	0xbc6855cf	-0.014180615
131	0x3c8dddf1	0.017317744
132	0xbc8149cb	-0.015782258
133	0xbcf76deb	-0.03020378
134	0x3c8496e1	0.016185226
135	0x3c0892fa	0.008335823
136	0x3c9baa31	0.019002052
137	0xbc676283	-0.014122608
138	0x3cd64bf0	0.026159257
139	0x3c798af7	0.015230886
140	0xbc7df046	-0.01549918
141	0x3cdde1b7	0.027085168
142	0xbcb7176d	-0.022350037
143	0x3cbb6aec	0.022878133
144	0x3cbc9bdf	0.023023544
145	0xbc4d2ba8	-0.0125226155
146	0xbcb231fa	-0.021752346
147	0xbbe96108	-0.0071221627
148	0x3d0481a4	0.032350197
149	0xbcd46f9a	-0.025932122
150	0xbcb20e35	-0.02173529
151	0x3cd971e7	0.02654357
152	0xbc21ac5a	-0.009867752
153	0x3cc8aa47	0.024495257
154	0x3d0a3e67	0.033750918
155	0xbc8dc6ff	-0.017306803
156	0xbc9e4534	-0.019320108
157	0xbcc4a907	-0.02400638
158	0xbcb891f5	-0.022530535
159	0xbd0f1be2	-0.0349387
160	0x3b677168	0.0035315398
161	0xbc930517	-0.017946763
162	0x3cd09dd6	0.025465887
163	0xbcd7a8eb	-0.026325664
164	0x3c498595	0.012299915
165	0xbcc4d187	-0.024025692
166	0x3cd5dec5	0.026107201
167	0xbce76b41	-0.028249385
168	0x3c96ebbf	0.01842296
169	0x3cbda2c9	0.023148911
170	0x3ce6649e	0.02812415
171	0xbcc2bf8c	-0.023772977
172	0xbce36d74	-0.027762152
173	0xbc7d10ae	-0.015445871
174	0xbc4e18f3	-0.012579191
175	0xbbdb98f6	-0.006701584
176	0xbcb6fb3c	-0.022336595
177	0x3cc7413f	0.024323104
178	0x3cb8005a	0.022461105
179	0x3cfb70da	0.03069346
180	0xbcf4232e	-0.029801931
181	0x3941b62a	0.00018473776
182	0xbd0e6ac0	-0.034769773
183	0xbcc5e201	-0.024155619
184	0xbcdbb059	-0.026817488
185	0x3be9c5f1	0.007134192
186	0xbcacd692	-0.021098409
187	0x3cd7f034	0.026359655
188	0xbd422ead	-0.047407795
189	0x3ceae0d0	0.028671652
190	0xbc82dce7	-0.015974475
191	0x3ca0307a	0.019554365

enc.layers.0.self_attn.out_proj.weight f4 [64, 64]
0	0xbd9a6f4e	-0.07540761
1	0xbb85668f	-0.004071064
2	0x3d011644	0.031515375
3	0x3da21822	0.07914759
4	0xbd697f85	-0.057006378
5	0xbd990142	-0.07470943
6	0xbdb756ca	-0.089521006
7	0xbd2146f9	-0.039374325
8	0x3dbdcbc9	0.092673846
9	0xbbafa7b1	-0.0053605665
10	0xbc43b19c	-0.011944201
11	0x3cc693ef	0.024240462
12	0x3cb44327	0.022004677
13	0x3d957133	0.07296982
14	0x3d8a4549	0.06751496
15	0xbb87bb7c	-0.004142223
16	0xbe069dcc	-0.13146132
17	0xbdb9e191	-0.090762265
18	0x3e16efaa	0.14739862
19	0xbc65603d	-0.013999996
20	0x3d67c73a	0.05658648
21	0x3dfc7c68	0.12328416
22	0xbc7a8590	-0.015290633
23	0xbd1f10a0	-0.038834214
24	0x3d668d33	0.056287
25	0xbcb142e8	-0.021638349
26	0xbd292286	-0.04129269
27	0xbd9effbe	-0.07763623
28	0x3e0894ab	0.13337962
29	0x3dc377f6	0.09544365
30	0x3e16456d	0.14674921
31	0x3d04b97d	0.032403458
32	0xbdbcb03b	-0.09213301
33	0x3d82934e	0.063757524
34	0x3dce84cc	0.10083923
35	0xbd620282	-0.055178173
36	0xbc39b73d	-0.011335191
37	0x3ddab166	0.10678367
38	0xbe045dec	-0.12926453
39	0x3e2264c7	0.15858756
40	0x3cae7993	0.021298205
41	0x3b47d85e	0.0030493955
42	0x3db2e208	0.08734518
43	0x3d296ec0	0.041365385
44	0x3c902a3a	0.01759826
45	0x3dc62bbc	0.096763104
46	0x3c5c2982	0.013437631
47	0xbde8c630	-0.11365926
48	0xbd8fbaba	-0.07018037
49	0xbd9ed630	-0.07755697
50	0xbc5a923d	-0.01334053
51	0xbdd2de7a	-0.1029634
52	0x39dd8f7c	0.0004225931
53	0xbe119cd9	-0.14219989
54	0xbdb65c50	-0.08904326
55	0x3d3d06b6	0.04614898
56	0x3d23540b	0.03987507
57	0x3bff401a	0.007789624
58	0x3d312619	0.043249223
59	0x3da36834	0.079788595
60	0x3dc68580	0.09693432
61	0xbd636d4e	-0.055524163
62	0x3d8757d0	0.06608546
63	0x3db5c1fc	0.0887489
64	0xbd6ab434	-0.05730076
65	0xbd352859	-0.04422793
66	0xbdf0c34e	-0.117560014
67	0xbde3132a	-0.1108764
68	0x3d2e29f8	0.042520493
69	0x3b87d23d	0.0041449354
70	0x3e05bf8e	0.13061354
71	0x3d3a9ce5	0.045559783
72	0x3db537ba	0.088485196
73	0xbdbce4a8	-0.092233
74	0xbcf3b064	-0.029747196
75	0xbd505a0c	-0.050867125
76	0xbc319b40	-0.010840237
77	0x3d384fa6	0.044997834
78	0x3db9e7bf	0.09077405
79	0xbdbcf4b8	-0.09226364
80	0xbd5dc0da	-0.054138996
81	0x3d6e084c	0.05811338
82	0xbd18f541	-0.037343267
83	0x3d33abf7	0.04386517
84	0xbe0ef545	-0.1396075
85	0xbc841796	-0.016124528
86	0xbd4f6d5d	-0.050641406
87	0xbe1c7bf2	-0.15281656
88	0xbde48b37	-0.111593656
89	0x3ca5f315	0.020257512
90	0xbc9b7ee8	-0.018981412
91	0x3d14c0dc	0.036316738
92	0x3da416bf	0.08012151
93	0xbd294776	-0.041327916
94	0x3e1f0d70	0.1553247
95	0xbd3a5885	-0.045494575
96	0x3d9bfc14	0.076164395
97	0xbe001f38	-0.12511909
98	0xbe04082b	-0.12893741
99	0x3c8d955d	0.017283136
100	0xbdb40d5a	-0.08791609
101	0xbce2daf9	-0.027692305
102	0xbd59491b	-0.053048234
103	0x3cabb356	0.020959537
104	0xbd4adddf	-0.049528
105	0xbd3d5f65	-0.046233553
106	0xbdaf8640	-0.08570528
107	0x3dd15acf	0.102223985
108	0xbd3b5bbb	-0.045741778
109	0xbb4da223	-0.0031377159
110	0xbd674825	-0.056465287
111	0xbda1ab85	-0.07894043
112	0xbd83073e	-0.06397866
113	0x3d260066	0.040527724
114	0xbd02e384	-0.031955257
115	0xbe2bcbd0	-0.16776967
116	0x3e4002fd	0.1875114
117	0x3d8da9b2	0.069171324
118	0x3da7575d	0.0817096
119	0xbd867395	-0.06565014
120	0x3c8c740c	0.01714518
121	0xbe0c5c2f	-0.1370704
122	0xbdc57562	-0.096415296
123	0x3d820471	0.063485034
124	0x3dc01482	0.093789116
125	0x3d63fc9c	0.05566083
126	0x3dc7afd4	0.097503334
127	0xbcd2d4a4	-0.02573616
128	0xbb943379	-0.0045227376
129	0x3c68beeb	0.014205675
130	0xbda67166	-0.08127098
131	0x3db2c873	0.08729639
132	0xbcdd9609	-0.027049081
133	0xbdd5eff2	-0.104461566
134	0x3d9f242f	0.07770573
135	0xbc7726ef	-0.015084966
136	0x3c8bd8f3	0.017071223
137	0xbddfa49a	-0.10920067
138	0x3d615b4d	0.05501871
139	0xbc90b9bc	-0.01766669
140	0x3dc4be06	0.096065566
141	0xbcdfdceb	-0.027327022
142	0xbd813061	-0.06308056
143	0x3d0d0ef0	0.034438074
144	0x3dd3822d	0.103275634
145	0xbcd4a082	-0.025955442
146	0xbc6a63ea	-0.014306048
147	0xbde73243	-0.112888835
148	0xbc40f0b9	-0.011776143
149	0xbd837e73	-0.06420603
150	0xbe1daf57	-0.15398918
151	0xbd3a8432	-0.045536228
152	0xbc41cb88	-0.011828311
153	0x3afea4ec	0.0019427813
154	0x3d894ac4	0.067037135
155	0xbc76d086	-0.015064364
156	0x3c6b150f	0.0143482825
157	0xbdfed3ae	-0.124427184
158	0xbd204d11	-0.039135996
159	0x3dbe9fcb	0.09307822
160	0x3c85a235	0.016312698
161	0x3d769d65	0.060208697
162	0x3e02407a	0.12719908
163	0xbde5e1f6	-0.11224739
164	0x3d7a4e8f	0.061110076
165	0x3d2514f9	0.040303204
166	0xbd6acc13	-0.057323527
167	0x3cc47593	0.023981845
168	0xbdd50e6d	-0.10403142
169	0xbcbab32f	-0.02279052
170	0x3de5e18e	0.11224662
171	0x3dc1c68b	0.09461697
172	0x3d70cff7	0.05879208
173	0x3d766375	0.060153443
174	0x3e0116e3	0.12606387
175	0xbcb1d400	-0.021707535
176	0x3cf9f1be	0.03051078
177	0xbcb0826f	-0.02154657
178	0x3d8f46a6	0.06995897
179	0x3da07a90	0.07835877
180	0xbe08875d	-0.13332887
181	0x3d68c271	0.05682606
182	0xbc79a788	-0.0152376965
183	0x3d9f09ae	0.07765518
184	0xbde35b82	-0.11101438
185	0xbc948a38	-0.018132314
186	0x3dc6c228	0.09705001
187	0x3e142ec8	0.1447097
188	0xbdc4e0d8	-0.09613198
189	0x3dd63819	0.104599185
190	0x3bd80507	0.006592396
191	0x3d8f4f1d	0.069975115
192	0x3deb4c4a	0.1148916
193	0xbd664258	-0.056215614
194	0x3d25d1ae	0.04048317
195	0xbd8a28a5	-0.067460336
196	0x3ccfd378	0.02536939
197	0x3ce50b73	0.027959561
198	0x3dfb9270	0.1228379
199	0x3dbb806b	0.09155353
200	0xbd0d18e7	-0.034447577
201	0xbdb2b383	-0.087256454
202	0x3d672b56	0.056437813
203	0xbcc9ab98	-0.024617955
204	0x3a26a91e	0.0006357598
205	0xbd32b608	-0.04363063
206	0x3d6c519f	0.057695027
207	0x3da89aef	0.08232676
208	0xbd96a5cc	-0.07355842
209	0xbd15f743	-0.03661276
210	0x3d640cd0	0.05567628
211	0x3d41c182	0.047303684
212	0x3dda7d12	0.106683865
213	0x3d65a7db	0.056068283
214	0xbd8983fd	-0.06714628
215	0xbdcf37ca	-0.10118063
216	0xbdffc167	-0.124880604
217	0xbdfacf6f	-0.12246596
218	0x3dad2b32	0.084555045
219	0xbe13a24b	-0.14417379
220	0xbcbaa771	-0.02278492
221	0xbdc22214	-0.09479156
222	0x3c7df7eb	0.015501003
223	0xbd279a37	-0.040918555
224	0x3ccf7705	0.025325308
225	0x3c9c9c97	0.019117637
226	0xbd18b815	-0.03728493
227	0x3e0494cc	0.12947387
228	0x3da3362c	0.07969317
229	0x3dd98db3	0.1062273
230	0xbd3a63f7	-0.04550549
231	0x3d58964d	0.052877713
232	0xbd150d56	-0.03638967
233	0x3dc7f582	0.09763624
234	0x3dda8f77	0.10671895
235	0x3dcd6f64	0.10031012
236	0xbd6a7cb7	-0.057247844
237	0x3d8a51d2	0.06753887
238	0x3db6ca21	0.08925272
239	0xbcbcd5fe	-0.023051258
240	0x3d2dca78	0.042429417
241	0xbc77b9a9	-0.015119948
242	0x3d9458b1	0.07243479
243	0x3e3a03b2	0.18165472
244	0x3ca9ba67	0.020718766
245	0x3d9c71de	0.07638906
246	0xbd89d6ff	-0.067304604
247	0x3cb2162c	0.021739088
248	0xbd55607a	-0.05209396
249	0x3b81f6f6	0.0039662076
250	0x3dcfd327	0.10147696
251	0xbd2c57e3	-0.042076003
252	0xbdf85aeb	-0.12126716
253	0x3d8decf5	0.069299616
254	0xbdb01ef4	-0.08599654
255	0x3d076cc9	0.03306273

enc.layers.0.self_attn.out_proj.bias f4 [64]
0	0xbc9a7ee5	-0.018859336
1	0xbca25879	-0.019817578
2	0x3c82f335	0.01598511
3	0xbc74aed7	-0.014934263
4	0xbca49580	-0.020090818
5	0x3c9c32f3	0.019067263
6	0xbb42f17d	-0.002974599
7	0xbc9f1130	-0.019417375
8	0x3ca13dec	0.019682847
9	0x3cad3e2e	0.021147814
10	0xbc8c31b7	-0.01711355
11	0xbce8f3fe	-0.028436657
12	0x3bc9d7c7	0.006159756
13	0x3d1081b3	0.03527994
14	0x3c6df5f3	0.014523971
15	0xbc8dcb65	-0.0173089
16	0xbcbefaa0	-0.023312867
17	0x3c952ebf	0.018210767
18	0xbcd04d31	-0.025427433
19	0xbc9a5df9	-0.018843638
20	0x3c9b3236	0.01894484
21	0xbc9342a4	-0.017976113
22	0xbca344c9	-0.01993026
23	0x3c98e2e3	0.018662876
24	0xbb3a9203	-0.0028468377
25	0xbc60526b	-0.013691525
26	0x3c8f9d30	0.017531008
27	0xbcb50d22	-0.022100989
28	0x3c9d3895	0.01919202
29	0x3cc11bc8	0.023572817
30	0x3ca4ce71	0.02011797
31	0xbc99a257	-0.018754167
32	0xbc9a597c	-0.018841498
33	0xbc9555a7	-0.018229319
34	0x3cc48485	0.023988971
35	0xbc9423c6	-0.018083464
36	0xbc8ea8f3	-0.017414546
37	0xbc915d01	-0.017744543
38	0x3c8f6d85	0.017508278
39	0x3ca73c77	0.020414574
40	0x3c8194d2	0.015818033
41	0xbc8bd65c	-0.017069988
42	0x3c73b5cd	0.014874888
43	0xbc61b5cb	-0.013776253
44	0xbc777b0b	-0.015105019
45	0x3c940971	0.018070908
46	0x3cc04383	0.023469692
47	0xbc89f876	-0.016842108
48	0x3c46fdb3	0.012145448
49	0x3ba78e01	0.0051133637
50	0x3c6ffdaa	0.014647881
51	0xbb203d7d	-0.0024450712
52	0xbc9f390a	-0.019436378
53	0xbcade387	-0.021226658
54	0x3c8b5df7	0.01701258
55	0x3c879388	0.01654984
56	0xbc8ae93e	-0.016956922
57	0x3c91f79d	0.017818267
58	0x3c9e1ff2	0.019302342
59	0xbcb5babc	-0.022183768
60	0x3c9aed37	0.018911941
61	0xbcb9c71d	-0.022677952
62	0x3c9b9c69	0.01899548
63	0x3c63ea45	0.013910835

enc.layers.0.linear1.weight f4 [256, 64]
0	0xbd3786d2	-0.04480631
1	0x3c003ae2	0.007826539
2	0x3da2d28b	0.07950314
3	0xbccac155	-0.024750391
4	0xbdb9d9a7	-0.09074717
5	0x3da1ec7f	0.07906436
6	0x3d2295a8	0.039693505
7	0xbd7b59ad	-0.06136482
8	0xbcd52173	-0.026016926
9	0x3dba3c37	0.09093516
10	0xbd9468e2	-0.07246567
11	0xbbeb7bc8	-0.0071863867
12	0xbdf5f2a5	-0.120091714
13	0xbd950f3c	-0.07278296
14	0x3d375ae5	0.04476442
15	0xbda4f13b	-0.080538236
16	0xbdf4b04b	-0.11947688
17	0x3c22a21c	0.009926345
18	0xbdd2d9c9	-0.102954455
19	0xbd07d0f1	-0.033158246
20	0x3cb7d174	0.022438742
21	0x3d07dc12	0.03316886
22	0xbd883903	-0.06651499
23	0xbdf2b299	-0.11850471
24	0x3d8cefce	0.068816766
25	0xbcfd82c0	-0.030946136
26	0x3d479e62	0.04873503
27	0xbdc16e4a	-0.09444864
28	0x3dc0a832	0.09407081
29	0xbdbc80cc	-0.092042536
30	0x3dcc8c48	0.09987694
31	0xbd85d7d6	-0.06535308
32	0xbdb9bd31	-0.090692885
33	0xbcca294a	-0.024677891
34	0x3dd06edf	0.10177397
35	0x3da2731a	0.0793211
36	0x3d14498b	0.03620295
37	0x3e08e4e6	0.13368568
38	0xbde3b939	-0.11119313
39	0xbce76131	-0.028244587
40	0x3d2bad59	0.041913364
41	0x3c0c9f8f	0.008582964
42	0x3bbebb4b	0.005820667
43	0x3de5b87f	0.112168305
44	0x3e01c995	0.12674554
45	0xbdcb7ca9	-0.099358864
46	0x3d54637e	0.051852696
47	0xbc51e150	-0.012810066
48	0xbd69d6e8	-0.057089716
49	0xbdf3e9b4	-0.1190981
50	0xbdd9350b	-0.1060582
51	0x3d690178	0.056886166
52	0x3e0f3b4e	0.13987467
53	0xbdd96d9b	-0.10616609
54	0x3c1cec20	0.009577781
55	0xbd834c9b	-0.06411096
56	0xbd6e550a	-0.05818657
57	0x3d8ac504	0.06775859
58	0xbd9c2fbc	-0.07626292
59	0xbdc96331	-0.098333724
60	0x3b1c67f0	0.0023865663
61	0xbd9953e5	-0.07486705
62	0x3df5df49	0.12005479
63	0x3cbcfc95	0.02306966
64	0x3caf42ce	0.02139416
65	0xbc4ed0dd	-0.012623039
66	0x3d422b2a	0.047404446
67	0x3d1a213d	0.037629355
68	0x3d44d7a8	0.04805723
69	0x3badb634	0.0053012613
70	0xbd60da05	-0.05489542
71	0x3dfe2449	0.124092646
72	0x3cc7cb27	0.024388863
73	0x3c765bb6	0.015036514
74	0xbdbc87b3	-0.0920557
75	0x3dcadc37	0.09905284
76	0xbd80ebca	-0.06294973
77	0xbd79abb3	-0.06095476
78	0xbdb9a4e6	-0.09064655
79	0x3dfc8459	0.12329931
80	0xbd783dec	-0.06060593
81	0xbd56d6c3	-0.052450906
82	0x3d879470	0.06620109
83	0x3d131c7b	0.035915833
84	0x3d99f018	0.075164974
85	0x3d105d2e	0.035245113
86	0x3d06294f	0.03275424
87	0x3de77381	0.113013275
88	0x3c7d81b0	0.015472814
89	0xbc552f6c	-0.013011795
90	0xbdd1b3a3	-0.10239341
91	0xbcb3a5c6	-0.021929633
92	0xbdfc53a7	-0.12320643
93	0x3e13f3ec	0.14448518
94	0x3dc12343	0.09430554
95	0xbb4b2949	-0.003099995
96	0x3d2d76ea	0.042349733
97	0x3df76bd8	0.120811164
98	0x3e0d85ec	0.13820618
99	0xbe13013f	-0.14355944
100	0xbd18c758	-0.037299484
101	0x3d9f61cb	0.077823244
102	0x3da5ba42	0.080921665
103	0xbcba00ad	-0.0227054
104	0xbd8bca3b	-0.06825682
105	0x3d9b83c0	0.07593489
106	0x3bba7b82	0.005690993
107	0x3e083e78	0.1330508
108	0x3dc55cfa	0.096368745
109	0xbd93abba	-0.072104886
110	0xbd83e202	-0.06439592
111	0xbd9f5961	-0.077807195
112	0xbcffc44e	-0.031221535
113	0x3deec9cb	0.11659583
114	0x3bb109f5	0.0054027983
115	0xbbbf9d26	-0.005847591
116	0xbd9cbfbd	-0.07653759
117	0xbc7b328f	-0.015331878
118	0xbd99b1c3	-0.075046085
119	0xbdecd520	-0.11564088
120	0xbde2f989	-0.11082751
121	0x3db201ee	0.08691774
122	0xbd5de828	-0.05417648
123	0x3d92c6bf	0.07166814
124	0xbd9bffd4	-0.07617155
125	0xbd8a5411	-0.06754316
126	0xbe04e68c	-0.12978572
127	0xbdf4644d	-0.11933193
128	0xbd844019	-0.06457538
129	0xbdfa3e2c	-0.122188896
130	0x3ca81d0c	0.020521663
131	0xbe0735a6	-0.13204059
132	0x3dccc768	0.09998971
133	0xbdc4e5b4	-0.09614125
134	0xbcbf224b	-0.023331782
135	0xbc090747	-0.008363551
136	0xbdd376df	-0.10325407
137	0x3da4a924	0.080400735
138	0xbdff71b3	-0.12472858
139	0xbe08d5cc	-0.13362807
140	0x3d8dc160	0.06921649
141	0xbd14bca0	-0.0363127
142	0xbcb09a24	-0.021557875
143	0xbd4f47c0	-0.050605536
144	0xbd78dc3b	-0.060756903
145	0xbdcdab75	-0.100424685
146	0xbd39f91e	-0.045403592
147	0xbe143d5f	-0.14476536
148	0x3ddf0fb7	0.10891669
149	0xbd81a66b	-0.0633057
150	0xbb479444	-0.0030453363
151	0x3de15184	0.11001876
152	0x3d2eb470	0.042652547
153	0xbc69c767	-0.014268733
154	0x3de05d4d	0.10955296
155	0xba53a782	-0.0008073972
156	0x3d0421b8	0.03225872
157	0x3ddbd39f	0.10733723
158	0x3d331542	0.043721445
159	0x3d2c224c	0.042024896
160	0x3ddce833	0.10786476
161	0x3cfd3c38	0.030912504
162	0xbace0461	-0.0015717858
163	0x3d855edd	0.06512234
164	0x3d6e9a47	0.0582526
165	0x3e0cf0cb	0.1376373
166	0x3cb5fb72	0.022214625
167	0xbb9afb55	-0.004729668
168	0x3c999602	0.018748287
169	0xbaefc2fe	-0.0018292365
170	0xbc69cb40	-0.01426965
171	0xbd011982	-0.031518467
172	0x3aa010a2	0.0012211988
173	0x3d4a4255	0.049379665
174	0x3df5fd63	0.1201122
175	0x3d9c7cbf	0.07640981
176	0x3dd0f61d	0.102031924
177	0x3d850038	0.06494182
178	0x3da98ee1	0.08279205
179	0x3d1462ba	0.036226965
180	0x3db339d4	0.08751264
181	0xbc065507	-0.008198983
182	0xbd4374e8	-0.047718912
183	0xbe02ac23	-0.12760977
184	0xbde49e75	-0.11163036
185	0x3cbdd2ec	0.023171864
186	0xbd8a07d8	-0.06739777
187	0x3d23b403	0.039966594
188	0x3dc16bad	0.09444366
189	0x3d8c9824	0.06864956
190	0x3ce25751	0.027629526
191	0xbe154614	-0.14577514
192	0x3b99a2f6	0.004688616
193	0x3da4a78d	0.0803977
194	0x3cc253ed	0.02372166
195	0xbcb67fcc	-0.022277735
196	0x3b20a71c	0.0024513667
197	0x3e11fcab	0.14256541
198	0x3e0d7c8e	0.13817045
199	0x3d20f172	0.03929276
200	0xbdaa3c73	-0.08312311
201	0xbde2cda4	-0.11074379
202	0xbd309a1d	-0.043115724
203	0x3c283a9a	0.010267878
204	0x3db34cae	0.0875486
205	0xbe15c5fb	-0.14626305
206	0x3df52366	0.11969642
207	0xbdd8f381	-0.1059332
208	0x3d3d35f0	0.046194017
209	0x3c65d790	0.014028445
210	0xbdbb6972	-0.091509715
211	0xbc8037a2	-0.015651528
212	0x3e0c1478	0.13679683
213	0x3db9900e	0.090606794
214	0xbcc4d904	-0.024029262
215	0xbd73ee4d	-0.059553433
216	0xbd07890b	-0.03308968
217	0x3de7c9f8	0.11317819
218	0xbded6fa7	-0.115935616
219	0x3d383ffc	0.044982895
220	0xbd846a7f	-0.06465625
221	0x3d8b8d0e	0.068140134
222	0xbd8393c5	-0.06424669
223	0xbd6e5e3e	-0.058195345
224	0xbdcea37d	-0.10089777
225	0xbdbce63b	-0.092236005
226	0x3d4806e8	0.04883471
227	0xbdaa9735	-0.08329622
228	0x3d39b7b0	0.045341194
229	0x3dcdab06	0.10042386
230	0x3dfe75ef	0.12424838
231	0x3ddde11f	0.10833954
232	0x3e13f143	0.14447503
233	0x3ca41bff	0.02003288
234	0x3dd2a2c1	0.10284949
235	0xbc128be5	-0.008944486
236	0x3d39a03b	0.045318823
237	0xbd6c247f	-0.057651993
238	0xbc2bcd15	-0.010485907
239	0xbdb63510	-0.088968396
240	0xbd51dce9	-0.051236067
241	0x3db06641	0.086132534
242	0xbdf08aef	-0.117452495
243	0x3e09cc96	0.1345695
244	0xbd947854	-0.07249513
245	0x3d806b19	0.06270427
246	0xbd238af6	-0.039927445
247	0xbe0d152d	-0.13777609
248	0x3e039ca2	0.1285272
249	0xbcd82cb2	-0.0263885
250	0xbd00c015	-0.031433184
251	0x3d3dad94	0.046308115
252	0x3c651827	0.013982809
253	0xbc01b6f9	-0.007917159
254	0x3da92fa3	0.08261039
255	0x3e03cc79	0.12870969

enc.layers.0.linear1.bias f4 [256]
0	0x3d17f2c1	0.037096743
1	0xbd8e0466	-0.06934433
2	0x3e0e6033	0.13903885
3	0xbda06e44	-0.078335315
4	0x3daad410	0.08341229
5	0x3cdcae41	0.02693856
6	0x3dca2e7e	0.09872149
7	0xbda8d19b	-0.08243104
8	0x3c50c955	0.012743314
9	0xbdb8e289	-0.09027583
10	0xbd888eb5	-0.06667844
11	0x3d309179	0.043107484
12	0xbdab8b64	-0.08376196
13	0xbdfc424b	-0.12317332
14	0x3e08f9c5	0.1337653
15	0xbd095c8d	-0.03353553
16	0xbc559413	-0.013035792
17	0xbdc877a4	-0.09788445
18	0x3deffcbc	0.11718127
19	0x3d362853	0.04447205
20	0x3da422b6	0.08014433
21	0x3d60708b	0.05479483
22	0x3c574b5a	0.013140524
23	0xbdb9f94d	-0.090807535
24	0xbc832a81	-0.016011478
25	0x3deb51ac	0.11490187
26	0x3da77b1f	0.0817778
27	0xbda2b18b	-0.0794402
28	0xbd997773	-0.07493486
29	0x3dc4a14c	0.096010774
30	0x3de140ea	0.109987095
31	0x3da234ec	0.0792025
32	0xbb03b7d1	-0.0020098577
33	0xbd9ad0d8	-0.07559365
34	0xbd8ae60a	-0.06782158
35	0x3d2a624b	0.041597646
36	0x3dd10e53	0.1020781
37	0xbd402b57	-0.046916332
38	0xbdc0e105	-0.09417919
39	0xbdc1c373	-0.09461107
40	0x3d7eea4b	0.062235158
41	0x3ddd6261	0.1080978
42	0x3d976792	0.07392801
43	0x3dc2110c	0.09475908
44	0x3dbe0064	0.09277418
45	0xbd8462b7	-0.06464141
46	0xbd376943	-0.04477812
47	0x3dbf84b9	0.09351487
48	0x3d89f689	0.06736476
49	0x3abf1138	0.0014577275
50	0x3b853a42	0.0040657828
51	0xbd64ad46	-0.05582931
52	0xbd1a5b89	-0.03768495
53	0x3d0ebdc7	0.034848955
54	0xbcbc3dc7	-0.022978676
55	0x3df50eb4	0.11965695
56	0xbdb30f15	-0.08743111
57	0xbd66f35c	-0.05638443
58	0xbc360c8c	-0.01111139
59	0x3db50029	0.08837921
60	0xbce1fd88	-0.027586713
61	0x3d3f418d	0.046693373
62	0x3d57e807	0.052711513
63	0xbdde7b13	-0.10863318
64	0x3ccb57b2	0.02482209
65	0xbc02b738	-0.007978253
66	0x3d8f32c6	0.06992106
67	0xbc755cbe	-0.014975725
68	0xba9ca49f	-0.0011950916
69	0x3dff0d6c	0.12453732
70	0xbdd8f032	-0.105926886
71	0x3be83d09	0.007087354
72	0xbd84a68f	-0.06477081
73	0xbcd9ca68	-0.026585773
74	0x3cf015c2	0.02930725
75	0x3d2434e7	0.040089514
76	0x3d63cc12	0.05561454
77	0xbc3dae67	-0.011577225
78	0x3cff24b9	0.03114544
79	0x3da95fa2	0.08270194
80	0xbd0a0f49	-0.033705983
81	0x3d8f7736	0.070051596
82	0x3ca4afba	0.020103324
83	0xbcff185c	-0.031139545
84	0xbd433736	-0.047660075
85	0xbd9e657b	-0.077341996
86	0xbaedd91c	-0.0018146369
87	0xbd4783e6	-0.048709773
88	0x3da9c4f4	0.08289519
89	0xbc97f888	-0.018551126
90	0x3db924d7	0.0904023
91	0xbc8ae17b	-0.01695322
92	0xbd41dd9a	-0.047330476
93	0x3cf644f0	0.030062169
94	0xbd5fd417	-0.054645624
95	0x3da5375c	0.080671996
96	0xbdd27366	-0.10275917
97	0xbdef1a53	-0.11674943
98	0xbdba782c	-0.09104952
99	0xbd11201e	-0.03543102
100	0xbdee8949	-0.11647279
101	0xbdbf419e	-0.09338687
102	0x3d316512	0.04330928
103	0xbd58feec	-0.052977487
104	0x3d86f0f3	0.06588926
105	0xbb919277	-0.004442509
106	0x3d8d9282	0.0691271
107	0x3ced9518	0.029001758
108	0xbc90533c	-0.017617814
109	0xbda83bd1	-0.08214534
110	0x3e0d6b23	0.138104
111	0x3db7934c	0.089636415
112	0xbd557921	-0.05211747
113	0xbd6841f0	-0.056703508
114	0x3ddeb5ac	0.10874495
115	0xbd693d29	-0.056943092
116	0x3dbc0a3b	0.09181639
117	0xba855373	-0.0010171965
118	0x3d10dddf	0.035367843
119	0x3e04a96f	0.12955259
120	0x3ce94486	0.028475057
121	0x3cfb09b1	0.03064427
122	0xbdbce78d	-0.09223852
123	0x3dd16d2c	0.10225901
124	0xbd2da0c5	-0.04238965
125	0x3e03f407	0.12886058
126	0x3dc00c28	0.093773186
127	0x3c5b01ee	0.013367159
128	0x3e091b3a	0.13389292
129	0x3bfb42f5	0.007667894
130	0xbd89f141	-0.06735469
131	0x3dffae54	0.12484422
132	0x3cbf9fe9	0.02339168
133	0x3ce7cc88	0.02829577
134	0x3bb9d252	0.005670824
135	0x3e0a89af	0.13529085
136	0x3d323a51	0.043512646
137	0xbd864588	-0.06556231
138	0xbd00d492	-0.031452723
139	0xbd1c71ac	-0.038194343
140	0x3d2517b9	0.040305827
141	0xbc025785	-0.007955437
142	0x3d5d1dcb	0.05398349
143	0x3c8e10ef	0.017342059
144	0x3db25763	0.08708074
145	0x3d88b898	0.066758335
146	0xbdc6f335	-0.09714357
147	0x3c338533	0.01095705
148	0x3dc913bb	0.098182164
149	0xbd56360c	-0.052297637
150	0x3d2e3c72	0.042538114
151	0x3dce94e2	0.10086991
152	0x3df0ce43	0.11758091
153	0xbd2da581	-0.042394165
154	0xb84835eb	-4.773393e-05
155	0xbdc7abc0	-0.097495556
156	0x3d9df474	0.07712641
157	0x3d9c9925	0.076463975
158	0x3d8e1496	0.0693752
159	0x3bf2e7b7	0.0074128765
160	0xbbebecd9	-0.0071998653
161	0x3d6ef0d7	0.05833515
162	0x3dcef2ff	0.101049416
163	0x3d89f32f	0.06735837
164	0xbdc7b8b3	-0.097520255
165	0x3dd2c82f	0.10292088
166	0x3e10d5c5	0.14144047
167	0x3d5ecae9	0.05439273
168	0xbddeaab8	-0.10872406
169	0xbd23e1fc	-0.040010437
170	0x3d1a9239	0.037737105
171	0x3dcb2ad9	0.09920282
172	0xbc636540	-0.01387912
173	0x3db9e4d2	0.09076847
174	0x3deb917f	0.115023606
175	0x3c2f1e5a	0.010688389
176	0x3c91c331	0.01779327
177	0x3ccc872c	0.024966799
178	0x3d6a7487	0.057240035
179	0x3dc17d82	0.09447767
180	0xbdcd1cfb	-0.10015293
181	0x3e12c153	0.1433156
182	0x3ddc1421	0.10746027
183	0x3dd79522	0.10526492
184	0xbd89ad41	-0.06722499
185	0x3df58171	0.119875796
186	0x3d6ab5d8	0.057302326
187	0x3c480727	0.0122087365
188	0x3d4102cc	0.047121808
189	0xbdc17761	-0.09446598
190	0x3de311a8	0.11087352
191	0x3c1e08c4	0.009645645
192	0x3db37d9f	0.08764195
193	0xbd867515	-0.065653004
194	0xbd5daab8	-0.05411789
195	0xbd1ca4f8	-0.038243264
196	0xbdb07d36	-0.08617632
197	0xbcba0a4e	-0.022709992
198	0xbdbad2be	-0.09122227
199	0x3df8e785	0.12153534
200	0x3d4596d0	0.04823953
201	0x3d810114	0.06299034
202	0x3dd98db4	0.10622731
203	0xbc0f06e5	-0.008729671
204	0x3c1305ad	0.008973521
205	0x3c9145d6	0.017733496
206	0xbd824ba3	-0.06362083
207	0x3d45dd10	0.048306525
208	0xbd56d9a0	-0.052453637
209	0x3d30216a	0.043000616
210	0xbd292b70	-0.04130119
211	0xbe067e9e	-0.13134238
212	0xbccb411b	-0.024811318
213	0x3d83167e	0.064007744
214	0x3d4b03cb	0.049564164
215	0xbd9cfd95	-0.076655544
216	0xbd143a16	-0.036188208
217	0x3d9dce7f	0.07705402
218	0xbd7e611c	-0.06210433
219	0x3d94293c	0.07234427
220	0xbd3bbbec	-0.045833513
221	0x3d37a508	0.04483512
222	0xbd9e50ed	-0.07730279
223	0x3dd24854	0.10267702
224	0xbe0481cd	-0.1294014
225	0xbd3b0cb4	-0.04566641
226	0xba76a53f	-0.0009408779
227	0x3d24912d	0.040177513
228	0x3db93ec0	0.09045172
229	0x3db7ed48	0.08980805
230	0xbc6da3f2	-0.01450442
231	0xbc42cdcb	-0.011889885
232	0xbd9cb95a	-0.076525405
233	0xbd654156	-0.055970512
234	0xbd88bb41	-0.06676341
235	0xbd99d4e9	-0.075113125
236	0x3c16bce1	0.009200306
237	0x3e0a21b1	0.13489415
238	0xbdb9d717	-0.09074228
239	0x3bcfb78e	0.00633902
240	0x3df2e8bc	0.11860797
241	0xbc381ce1	-0.011237354
242	0x3ce1a70d	0.027545476
243	0xbd8563c9	-0.06513173
244	0xbc977e3b	-0.018492809
245	0x3bab770b	0.005232697
246	0xbd023f94	-0.031798914
247	0xbdacbd94	-0.08434597
248	0xbd7ad20f	-0.061235484
249	0x3d67ce7b	0.0565934
250	0xbda32961	-0.07966877
251	0xbd989ad5	-0.07451407
252	0x3db58052	0.08862366
253	0x3c4e4561	0.012589783
254	0x3d6ef934	0.058343127
255	0x3c120d4c	0.008914303

enc.layers.0.linear2.weight f4 [64, 256]
0	0x3c5e4198	0.013565443
1	0x3ccdfb33	0.025144195
2	0x3915b7f0	0.0001427827
3	0xbc5038bc	-0.012708839
4	0xbce3a8b2	-0.027790401
5	0x3cfd5f25	0.030929158
6	0x3cd97248	0.026543751
7	0xbc123388	-0.008923419
8	0xbd8025da	-0.062572196
9	0x3cedd79a	0.02903347
10	0xbd0673dc	-0.032825336
11	0x3c906c91	0.017629893
12	0xbc0a2304	-0.0084312
13	0xbaffd0c7	-0.0019517177
14	0xbccc16da	-0.02491324
15	0x3d01d145	0.031693716
16	0xbd0a9d85	-0.03384163
17	0x3c95e35e	0.018296894
18	0x3a4d0370	0.00078206416
19	0x3cd4ca45	0.025975356
20	0x3c83d3b0	0.016092151
21	0xbd290933	-0.04126854
22	0x3ce7368a	0.028224248
23	0xbd7c371a	-0.061575986
24	0x3cbb741a	0.02288251
25	0xbd956bbf	-0.072959416
26	0xbd3d61fd	-0.046236027
27	0xbcb70a5e	-0.02234381
28	0xbca961d4	-0.02067653
29	0x3d31e927	0.043435242
30	0xbd455672	-0.048178144
31	0xbd78fd0c	-0.0607882
32	0x3ba32f8a	0.0049800323
33	0xbcfb10ac	-0.030647598
34	0xbd898bdd	-0.0671613
35	0x3c845f19	0.016158627
36	0x3d17411e	0.036927335
37	0xbd4aa7b7	-0.04947635
38	0xbbbc6fe8	-0.005750645
39	0x3aab91ad	0.0013089679
40	0x3caa88f3	0.020817256
41	0x3c538de3	0.012912246
42	0xbcf55302	-0.029946808
43	0xbd9d09a7	-0.07667857
44	0xbd0e254f	-0.03470355
45	0xbd168f1a	-0.036757566
46	0xbd293a06	-0.0413151
47	0x3bf6c0da	0.007530314
48	0xbb9c948c	-0.0047784504
49	0x3c0b5707	0.008504636
50	0xbd441ee0	-0.047881007
51	0xbdada538	-0.084787786
52	0x3ca84bc3	0.020543939
53	0xbce9851b	-0.028505852
54	0xbcc7d75c	-0.024394684
55	0xbd98bf5a	-0.074583724
56	0x3cd2fe4d	0.025756026
57	0xbd8bde11	-0.06829465
58	0x3bbc5b8b	0.0057482175
59	0xbd0a6a1a	-0.033792593
60	0xb9c3a399	-0.00037315188
61	0xbce1053d	-0.027468318
62	0xbc785eb4	-0.015159298
63	0xbd2af4eb	-0.04173748
64	0xbd3f10f1	-0.046647016
65	0xbd1a7dab	-0.037717503
66	0x3c0a137c	0.008427497
67	0x3ad1ce88	0.0016006986
68	0x3c84f0de	0.016228136
69	0x3cf10838	0.029422864
70	0xbd8d862e	-0.06910358
71	0xbd60d9f3	-0.054895353
72	0x3cecbc2c	0.028898321
73	0xbd83b64a	-0.06431253
74	0xbce770ef	-0.028252093
75	0x3c88927b	0.01667141
76	0xbd7894ff	-0.06068897
77	0x3ca89356	0.020578068
78	0xbc57170a	-0.0131280515
79	0x3b3105d5	0.0027011533
80	0x3ad6e9b2	0.0016396551
81	0xbbb85e71	-0.0056264927
82	0x3c669134	0.014072705
83	0xbc39dc9d	-0.011344102
84	0x3cf8015f	0.030274091
85	0xbc6bafff	-0.014385222
86	0xbd5d523c	-0.054033503
87	0x3c95f554	0.018305458
88	0xbace6391	-0.0015746226
89	0xbab5a372	-0.0013857915
90	0xbd00f4f7	-0.031483617
91	0xbd8e149f	-0.06937527
92	0xbc8f5166	-0.017494868
93	0xbcda262a	-0.026629526
94	0xbbcad2ab	-0.0061896644
95	0xba945101	-0.0011315645
96	0x3c0450e0	0.008075923
97	0xbda8c4ee	-0.08240686
98	0xbd2f329e	-0.04277288
99	0x3d09b680	0.03362131
100	0xbd8b2b01	-0.06795312
101	0xbd57ff55	-0.052733738
102	0xbd69e8d2	-0.0571068
103	0x3c55142d	0.013005299
104	0xbd939ed8	-0.072080314
105	0xbd855cdf	-0.065118544
106	0xbd92fa2c	-0.07176623
107	0xba42f8d7	-0.0007437593
108	0xbd9473ec	-0.07248673
109	0x3d05cd69	0.032666598
110	0xbd812532	-0.063059226
111	0xbd2400b9	-0.04003975
112	0xbc85551b	-0.016275933
113	0xbd9fa965	-0.07795981
114	0xbc9af17a	-0.018913973
115	0xbd7ab8a9	-0.061211262
116	0xbd941390	-0.07230294
117	0xbd8d5d8d	-0.06902609
118	0xbd3eb94e	-0.04656344
119	0xbd401978	-0.04689929
120	0x3c4bf955	0.012449582
121	0x3d00b2a3	0.03142036
122	0x3c920dbe	0.017828818
123	0xbcb04533	-0.021517372
124	0x3b8cc79f	0.0042962576
125	0xbd8f4772	-0.06996049
126	0x3cb3b23d	0.021935577
127	0xbd95789a	-0.072983935
128	0xbd83949c	-0.06424829
129	0x3c799e85	0.015235548
130	0xbcd63d65	-0.026152322
131	0x3d0e0f23	0.034682404
132	0xbc9c90dc	-0.019112043
133	0x3d17526c	0.036943838
134	0xbd2d6fbe	-0.042342894
135	0x3d0e448c	0.03473334
136	0x3c2568d1	0.010095791
137	0x3d2a58a2	0.041588433
138	0x3d14624c	0.036226556
139	0xbd882fdb	-0.06649753
140	0xbc2a2fff	-0.01038742
141	0x3d0e1b84	0.03469421
142	0x3d3f0e79	0.04664466
143	0x3c1d45d4	0.009599168
144	0xbd822dc7	-0.063563876
145	0xbc9865a4	-0.018603154
146	0xbd8244ae	-0.06360756
147	0x3d2eecc6	0.042706273
148	0x3cf23d99	0.029570388
149	0x3c1d441a	0.009598756
150	0x3d0e7876	0.03478285
151	0xbd85176b	-0.06498607
152	0xbcc6100a	-0.02417757
153	0x3d077d3a	0.03307841
154	0x3d384fcd	0.04499798
155	0x3d0c1c93	0.034206938
156	0x3c33b8d9	0.010969364
157	0x3aa60651	0.0012666677
158	0xbd9fe583	-0.07807448
159	0xbbdb1c3d	-0.006686716
160	0x3c5e9d9f	0.0135873845
161	0x3cb34d26	0.021887373
162	0x3c01beda	0.007919038
163	0xbcd6a750	-0.026202828
164	0x3ab6ccf8	0.0013946583
165	0xbd489508	-0.048970252
166	0xbd83f33d	-0.064428784
167	0xbc70b87d	-0.014692423
168	0xbcf3ab98	-0.029744908
169	0xbd47fd15	-0.048825342
170	0xbc2c8583	-0.010529879
171	0x3ab9b537	0.0014168386
172	0xbca5ed20	-0.020254672
173	0xbc1af307	-0.009457356
174	0xbd91804d	-0.071045496
175	0x3d07891d	0.033089746
176	0xbd06bed3	-0.032896828
177	0xbcf0d074	-0.029396273
178	0xbd8e134a	-0.06937273
179	0x3c96b999	0.018399047
180	0xba91e994	-0.0011132234
181	0x3c71f0e5	0.014766906
182	0xbd3c7f7f	-0.046020027
183	0xbd4ff021	-0.050766114
184	0x3d044a5b	0.032297473
185	0xbd56321b	-0.052293878
186	0xbceca137	-0.028885467
187	0x3a99e696	0.0011741694
188	0xbd8362a6	-0.064153
189	0x3d3e8bf0	0.046520174
190	0xbd3d8784	-0.046271816
191	0xbd9bf52c	-0.07615122
192	0xbbeea4d3	-0.007282832
193	0x3acf8a86	0.001583413
194	0x38fb3c62	0.0001197986
195	0xbd6caa00	-0.057779312
196	0xbc0cf3bb	-0.008603032
197	0xbd2412bc	-0.04005693
198	0xbd938b38	-0.07204288
199	0x3b5e356a	0.003390635
200	0xbccfbde5	-0.025359103
201	0xbcfe8be3	-0.031072563
202	0x3d02d8f5	0.031945188
203	0xbc87f8a5	-0.016598055
204	0xbd76b2b6	-0.060229026
205	0x3b4b1cd7	0.0030992532
206	0x3aacef7f	0.0013193934
207	0x3a83dbae	0.0010059976
208	0x3d1331a4	0.035936013
209	0xbd6f1561	-0.058369998
210	0x3d12fa6e	0.03588336
211	0xbc8987d7	-0.016788406
212	0xbca80201	-0.020508768
213	0x3c45903b	0.012058313
214	0x3cf8379e	0.030299958
215	0xbd534e91	-0.0515886
216	0x3cab25cd	0.020892048
217	0x3c2ddb48	0.010611363
218	0x3ca92fa1	0.020652594
219	0xbd0571af	-0.03257912
220	0xbc8b86bb	-0.017032018
221	0xbc6341a4	-0.01387063
222	0xbd10ec1d	-0.035381425
223	0xbbb0d0f6	-0.005396004
224	0xbceec05f	-0.029144464
225	0x3cdd1d2c	0.02699145
226	0x3cad005c	0.021118335
227	0x3c732af8	0.0148417875
228	0x3bb4dd93	0.005519578
229	0x3d2eca6d	0.042673517
230	0xbca05375	-0.019571045
231	0xbd83f79d	-0.06443713
232	0x3be564b0	0.0070005283
233	0xbd3ad5c4	-0.04561402
234	0xbb3f3704	-0.002917708
235	0x3cd4ccef	0.025976626
236	0xbd93a978	-0.07210058
237	0xbd88ab08	-0.066732466
238	0xbd06c72b	-0.032904785
239	0xbab43a4e	-0.0013750286
240	0xbbccf312	-0.006254562
241	0xbc9afe8c	-0.018920206
242	0xbd560ab5	-0.052256305
243	0xbc8e0c6d	-0.01733991
244	0xbd8d44bc	-0.06897876
245	0xbd1e106b	-0.038589876
246	0xbd1025c6	-0.035192274
247	0xbd647b6f	-0.055781778
248	0x3c8c3b24	0.017118044
249	0xbc912a1b	-0.017720273
250	0xbcc42278	-0.023942217
251	0xbd4e60d5	-0.050385315
252	0xbcb68d3f	-0.022284148
253	0x3ca5452d	0.020174587
254	0x3cfdbb70	0.030973166
255	0x3c3a7cce	0.011382295
