model_artifacts/dl_tcn_h12_ret20_52000_53500.pt (torch, 378605 bytes, 20 tensors)

net.0.weight f4 [64, 30, 3]
-0.0890207 -0.030419476 -0.06294949 -0.12518252 0.07707261 0.04922297 0.0029651152 -0.0057653375
-0.10009616 0.031543523 -0.05118207 -0.053394914 -0.075322956 0.10389381 -0.06443905 -0.0015165156
0.018180221 0.07234556 -0.049556218 -0.0009895687 -0.09045857 0.03176382 0.054178424 -0.06713253
-0.044094093 0.074874826 -0.0674182 -0.08319448 -0.0064499183 0.07400179 0.018869568 -0.095073365
-0.084277965 0.065632515 -0.033213146 0.06182394 -0.054497465 0.024498932 0.090188004 -0.06928156
-0.03629774 0.0752364 -0.0645344 -0.030847095 0.1050492 -0.044761743 -0.094689876 -0.07410996
-0.03497658 -0.06676852 0.02945979 -0.099380024 0.05720354 -0.10505412 0.064459085 -0.014148757
0.024477802 0.045484327 0.09238092 -0.08347607 -0.06340906 0.09223478 -0.031218313 0.08888829
-0.034733955 -0.04357513 -0.13991152 0.029656554 0.03439285 -0.090893865 0.06358155 0.00722984
0.10358707 0.04399515 -0.0839693 0.08172148 -0.08311739 0.094268955 0.013813011 -0.0970626
0.040215977 0.06567965 -0.022836778 0.07220454 -0.0009974698 0.032685943 0.04898543 -0.0019533376
-0.05521698 0.07905824 0.09678214 0.07538091 -0.03508021 0.061099306 0.058092646 0.07059444
0.035318755 0.080525704 0.023061194 0.09517156 0.011799609 -0.043837376 -0.05090768 0.09772698
0.017320152 0.13291518 -0.08103109 -0.061943896 0.11884845 -0.008714739 0.007179631 -0.07223571
-0.039976884 -0.08613667 0.02305952 -0.06503102 0.05312182 -0.025134586 0.08303695 -0.097658746
-0.022601912 -0.0828573 -0.050387464 0.029475104 -0.017378926 -0.040551215 -0.045844603 0.007609088
0.025727648 0.09833125 -0.08023679 0.07724979 0.09362699 0.088947676 -0.07757233 0.01852609
0.0741797 0.03433364 -0.0026064585 -0.014829465 0.09846243 -0.018273056 -0.10386585 0.10082241
0.10438026 -0.020122454 -0.08275396 -0.080209665 0.05977103 0.058774494 0.061705068 -0.06988791
0.08153897 -0.0835144 -0.10155196 0.008567393 -0.04391335 0.09105282 -0.012611829 0.00097218476
-0.08126727 0.09981007 -0.015588683 0.030939415 0.023776315 0.07518642 -0.041197613 -0.04494874
-0.035258465 -0.006542933 0.002704828 -0.003698778 0.029928442 -0.060860302 -0.0014099941 0.0095878225
0.0023140702 -0.12834245 -0.010192316 -0.09820248 0.0652574 0.050707035 -0.036518514 -0.048507962
0.046365827 0.044908464 -0.019490264 0.0014334057 -0.043423854 0.02389305 -0.094538145 -0.10484382
-0.07615532 0.027343128 0.06519995 0.08670132 0.0024109297 0.061254025 0.06329133 -0.094873466
0.08807031 0.05212913 -0.092291266 -0.01660486 -0.08779878 -0.0010241102 0.04884062 -0.028714929
0.0652462 0.039583493 -0.12390461 0.086129926 0.012928156 -0.059280396 0.022116471 -0.07418672
0.022064742 0.06441293 0.078207545 0.072574474 -0.06239344 0.073217735 0.075881556 0.047123104
0.10120497 -0.011246752 0.09880804 0.05085084 -0.009448814 0.035987392 -0.011285098 -0.046881475
-0.056889515 0.1022789 0.011497603 0.08190607 0.036664143 0.068819635 -0.047451034 0.091445915
0.0014163501 -0.082239754 0.04982496 0.039395876 -0.031360477 0.010117026 0.018890072 0.041379824
0.06986634 0.006545354 0.011930141 0.014992881 -0.043621786 0.095278166 -0.016030416 -0.12168609
00000000: 7c50 b6bd 4432 f9bc aaeb 80bd d92f 00be
00000010: 3fd8 9d3d 069e 493d 6152 423b 28eb bcbb
00000020: 37ff ccbd c833 013d 4aa4 51bd a0b4 5abd
00000030: ec42 9abd 47c6 d43d 9ff8 83bd d2c5 c6ba
00000040: b0ee 943c e929 943d 76fb 4abd 6ab4 81ba
00000050: 5842 b9bd c81a 023d 32ea 5d3d c87c 89bd
00000060: 029c 34bd f957 993d 8e12 8abd de61 aabd
00000070: d659 d3bb 408e 973d 5a94 9a3c d3b5 c2bd
00000080: ed99 acbd 576a 863d 820a 08bd 1a3b 7d3d
00000090: bc38 5fbd fcb1 c83c 7db4 b83d 7ee3 8dbd
000000a0: f0ac 14bd 8b15 9a3d 9d2a 84bd 0cb3 fcbc
000000b0: 0924 d73d 1758 37bd c4ec c1bd f6c6 97bd
000000c0: 9a43 0fbd efbd 88bd a855 f13c c187 cbbd
000000d0: 424e 6a3d 9d26 d7bd 2003 843d 30d0 67bc
000000e0: ac85 c83c c64d 3a3d 3532 bd3d 80f5 aabd
000000f0: 9cdc 81bd 97e5 bc3d 8cbd ffbc 100b b63d
00000100: 3145 0ebd d67b 32bd f744 0fbe 4df2 f23c
00000110: 84df 0c3d 9026 babd 0b37 823d 4be8 ec3b
00000120: 7525 d43d 4234 343d 19f8 abbd 975d a73d
00000130: 7339 aabd 1510 c13d f84f 623c c2c8 c6bd
00000140: 82b9 243d 0d83 863d 3214 bbbc f9df 933d
00000150: 88bd 82ba b2e1 053d f2a4 483d 9103 00bb
00000160: 332b 62bd 49e9 a13d b735 c63d 4e61 9a3d
00000170: 44b0 0fbd 4443 7a3d 8ef2 6d3d d193 903d
00000180: 66aa 103d a9ea a43d d4ea bc3c 4fe9 c23d
00000190: 2653 413c d28e 33bd 9284 50bd 1525 c83d
000001a0: fee2 8d3c eb1a 083e a1f3 a5bd e2b8 7dbd
000001b0: d166 f33d 44c8 0ebc 1c43 eb3b 51f0 93bd
000001c0: cdbe 23bd 6c68 b0bd 52e7 bc3c fc2e 85bd
000001d0: 4496 593d 0ce7 cdbc 470f aa3d 4f01 c8bd
000001e0: a527 b9bc 17b1 a9bd 1663 4ebd c675 f13c
000001f0: 405e 8ebc 0819 26bd 8dc7 3bbd a855 f93b
00000200: cac2 d23c e561 c93d 3053 a4bd 2335 9e3d
00000210: 82bf bf3d 332a b63d 3ede 9ebd 07c4 973c
00000220: 87eb 973d 6ea1 0c3d 1ed1 2abb 49f7 72bc
00000230: aca6 c93d 60b1 95bc 9eb7 d4bd fb7b ce3d
00000240: 51c5 d53d d8d7 a4bc e87a a9bd f744 a4bd
00000250: 78d2 743d 86bd 703d 74be 7c3d 6421 8fbd
00000260: e7fd a63d 9909 abbd 79fa cfbd 405e 0c3c
00000270: 7cde 33bd e779 ba3d d8a1 4ebc 37da 7e3a
00000280: 746f a6bd 3969 cc3d ad67 7fbc a874 fd3c
00000290: 8cc6 c23c 56fb 993d d4be 28bd 2c1c 38bd
000002a0: 2e6b 10bd 1a66 d6bb 7c43 313b 3367 72bb
000002b0: 7e2c f53c a748 79bd 8dcf b8ba 3e16 1d3c
000002c0: a8a7 173b 346c 03be acfd 26bc 621e c9bd
000002d0: aca5 853d 2eb2 4f3d 7094 15bd 49b0 46bd
000002e0: 18ea 3d3d f0f1 373d 0caa 9fbc 1de1 bb3a
000002f0: 36dd 31bd 5cbb c33c 379d c1bd 5bb8 d6bd
00000300: 52f7 9bbd b2fe df3c 8d87 853d 7690 b13d
00000310: b000 1e3b 80e5 7a3d e39e 813d 054d c2bd
00000320: 355e b43d 5b85 553d 3403 bdbd ea06 88bc
00000330: d9cf b3bd 703b 86ba 1a0d 483d 923b ebbc
00000340: cd9f 853d 4d22 223d b3c1 fdbd e364 b03d
00000350: 9ed0 533c 00d0 72bd 9a2d b53c 35ef 97bd
00000360: 1ec1 b43c edea 833d 472b a03d eda1 943d
00000370: 4490 7fbd 2ef3 953d ca67 9b3d 2804 413d
00000380: 8d44 cf3d 4c44 38bc df5b ca3d f848 503d
00000390: 33cf 1abc 8467 133d 22e5 38bc ca06 40bd
000003a0: fb04 69bd 9a77 d13d 7160 3c3c 5fbe a73d
000003b0: 242d 163d 4ff1 8c3d 045c 42bd ff47 bb3d
000003c0: d3a4 b93a 516d a8bd 4215 4c3d 925d 213d
000003d0: d873 00bd e2c1 253c 5abf 9a3c e47d 293d
000003e0: 1516 8f3d 697a d63b a376 433c b3a4 753c
000003f0: c2ac 32bd 3321 c33d 3852 83bc 8f36 f9bd

net.0.bias f4 [64]
0.1441822 0.060012348 0.05915049 -0.06258207 0.028259339 0.123603545 -0.0652495 0.11914411
0.1074895 -0.026144661 0.022134252 0.085712865 -0.017859256 0.05233565 -0.025487136 -0.079325125
0.005402862 0.06415528 -0.03815256 0.043712527 -0.05715422 0.14896093 0.11144894 0.002295145
-0.02965023 0.08641354 0.114396855 0.008372777 -0.028729947 0.023357159 -0.0018110886 -0.013139908
0.073293634 -0.017852977 0.14397876 -0.046308026 0.018006677 0.040683046 0.13093162 0.09034411
0.016875768 0.11826486 0.033096265 0.010343843 0.026580399 -0.085278146 0.01879904 0.02154419
0.06691544 0.0024685056 0.062384684 -0.058070015 -0.03581149 0.12865113 0.12963423 0.07728039
-0.045121267 -0.038898937 0.13954626 0.14659981 0.087703325 0.09673569 0.09236456 -0.03053662
00000000: 80a4 133e 82cf 753d c947 723d 072b 80bd
00000010: 2180 e73c db23 fd3d 88a1 85bd d401 f43d
00000020: 7423 dc3d 542d d6bc e452 b53c 3a8a af3d
00000030: 934d 92bc e85d 563d 66ca d0bc 3675 a2bd
00000040: 7e0a b13b d863 833d dc45 1cbd e80b 333d
00000050: 8b1a 6abd 3789 183e 583f e43d 256a 163b
00000060: 0ae5 f2bc 95f9 b03d e648 ea3d f92d 093c
00000070: 115b ebbc 8357 bf3c 0d62 edba c548 57bc
00000080: f91a 963d 6840 92bc 2b6f 133e 7cad 3dbd
00000090: bd82 933c 44a3 263d f012 063e 5506 b93d
000000a0: 0d3f 8a3c d934 f23d f38f 073d 3979 293c
000000b0: 23bf d93c 4fa6 aebd 7200 9a3c 717d b03c
000000c0: f60a 893d a7c6 213b 1587 7f3d d3da 6dbd
000000d0: 12af 12bd 1fbd 033e d6be 043e 2e45 9e3d
000000e0: 14d1 38bd 7e54 1fbd 37e5 0e3e 431e 163e
000000f0: cd9d b33d 5d1d c63d a129 bd3d ef27 fabc

net.3.weight f4 [64, 64, 3]
0.016864248 -0.053110845 0.03661396 -0.035239697 0.008510381 0.04573848 0.046432067 -0.06279032
0.06720056 -0.014727786 -0.007386162 -0.050045572 -0.06377954 -0.050906807 0.07094976 -0.028005606
-0.053680684 -0.071169965 -0.03906144 0.015691767 -0.061337505 -0.04600718 0.031028997 -0.04945352
-0.0076740547 -0.03809652 0.024445632 -0.0569888 0.040234685 0.0023701815 0.023578156 0.04606571
-0.012029926 -0.044345602 0.049159795 -0.029960677 -0.08505107 0.040001504 -0.055531725 0.0018083822
0.045269974 0.010654872 1.8825413e-05 0.034765474 -0.062518165 0.04127889 -0.014968308 0.047693998
-0.038249638 0.04760123 -0.03955679 -0.025542395 -0.06542889 0.02131607 -0.037406784 0.048288062
0.034069143 -0.0876753 -0.05262629 -0.015599094 0.043123953 -0.060368415 0.025555423 -0.055369485
0.023427337 -0.041715674 -0.082873605 -0.06504964 -0.011833807 -0.03582759 0.03205368 0.06563367
0.03985286 0.07189645 0.018478366 -0.08768015 -0.032054204 -0.06455552 0.015220643 -0.008170508
0.058228545 0.0030060038 -0.007382243 0.01826948 -0.01702855 0.04825747 -0.011844516 -0.08673096
-0.060395323 -0.050188135 0.04754307 0.071267694 -0.0064962395 0.0056454814 0.014676768 0.058623463
0.006240073 0.06822409 0.028330086 -0.06969856 -0.06666505 -0.02240214 -0.038404826 0.016155403
-0.016213745 0.031396426 -0.019153658 -0.06418128 0.041463885 0.0012876724 0.029636549 -0.01736601
-0.015404765 -0.040466722 -0.03386301 0.0068557085 -0.06405069 -0.009344711 0.039114572 0.032798484
-0.059712045 0.066816434 0.06347568 -0.018942595 0.016804954 -0.07118625 -0.0063505634 -0.016080102
-0.05448662 0.0041591497 -0.05491481 0.034543827 -0.013706685 0.069992244 -0.0122593045 0.010021972
-0.027667526 -0.05566606 0.04597076 -0.012370264 0.0614003 -0.0261919 0.06542899 0.015551445
0.035741176 -0.020222709 -0.014984531 -0.07096235 -0.00022397825 0.0076088347 -0.0139990505 -0.0478311
0.020452261 0.04948315 -0.04324304 0.005383294 -0.01253674 0.038515747 -0.023494875 -0.040358156
-0.018573515 0.06745665 -0.00586461 -0.014380084 0.0710561 -0.061428003 0.0042082276 0.036733784
-0.07147466 0.0636971 0.066931054 0.035894576 -0.0019700252 0.06448361 -0.04084517 -0.051897414
0.039023295 -0.01259737 -0.029203765 0.06484851 -0.080266684 0.06295054 0.0591053 0.035569966
0.011899896 0.057084236 -0.02412176 -0.02917409 0.057270765 -0.032457344 0.02724402 -0.036652848
-0.033501767 -0.034740146 0.070083156 -0.035708945 -0.030674435 0.012787419 0.07693753 -0.026138335
-0.03636133 0.05463729 0.0718704 0.058475025 0.053686634 -0.035125956 0.027914226 0.05805245
-0.053937294 0.027572349 0.0023074737 -0.032362353 -0.019812219 0.07584678 0.03596068 0.0069929953
0.103507325 -0.04348845 -0.06994444 0.07446925 0.057986647 -0.036393642 0.09447567 0.008461466
0.04317309 0.11194731 0.048918504 0.053243153 0.039731964 -0.01749881 -0.065518714 0.041124754
-0.039411098 0.06694426 0.03978051 0.055144638 -0.049789377 0.013136747 -0.017283086 -0.049522452
-0.024757907 -0.027856607 0.067800865 0.09124543 -0.020303484 -0.06258934 0.05285812 -0.013767656
-0.029020827 0.047476243 0.059529364 0.020198766 0.093685314 0.009266749 0.01384362 0.068449706
00000000: e426 8a3c c28a 59bd 85f8 153d 8057 10bd
00000010: 206f 0b3c 4658 3b3d 8d2f 3e3d 3698 80bd
00000020: 72a0 893d d04c 71bc 9e07 f2bb 96fc 4cbd
00000030: d99e 82bd a883 50bd 1c4e 913d 036c e5bc
00000040: 47e0 5bbd 8fc1 91bd e3fe 1fbd 058c 803c
00000050: 093d 7bbd 0672 3cbd 8630 fe3c c68f 4abd
00000060: a376 fbbb 190b 1cbd 3542 c83c 176d 69bd
00000070: 20cd 243d 0c55 1b3b fa26 c13c 66af 3c3d
00000080: 2b19 45bc bca3 35bd c85b 493d 1870 f5bc
00000090: 412f aebd 9ed8 233d 3c75 63bd 3d07 ed3a
000000a0: 026d 393d c691 2e3c 44eb 9d37 3e66 0e3d
000000b0: 8609 80bd 0e14 293d a23d 75bc c85a 433d
000000c0: a7ab 1cbd 82f9 423d 4d06 22bd 493e d1bc
000000d0: 95ff 85bd 0a9f ae3c db37 19bd b4c9 453d
000000e0: 168c 0b3d 1c8f b3bd aa8e 57bd 5893 7fbc
000000f0: bea2 303d df44 77bd 9b59 d13c 1dcb 62bd
00000100: b0ea bf3c 0ede 2abd a3b9 a9bd bf38 85bd
00000110: 96e2 41bc f3bf 12bd b84a 033d f26a 863d
00000120: c13c 233d 723e 933d f15f 973c a791 b3bd
00000130: 454b 03bd af35 84bd 0160 793c 98dd 05bc
00000140: 0e81 6e3d 6000 453b bee6 f1bb e0a9 953c
00000150: 757f 8bbc a0a9 453d 800f 42bc 00a0 b1bd
00000160: 1661 77bd 1392 4dbd 86bc 423d ccf4 913d
00000170: 68de d4bb bbfd b83b d476 703c 281f 703d
00000180: 8779 cc3b 12b9 8b3d 7f14 e83c 1ebe 8ebd
00000190: b087 88bd b184 b7bc 614e 1dbd 5658 843c
000001a0: b0d2 84bc 8a99 003d 22e8 9cbc 7a71 83bd
000001b0: 09d6 293d 1ec7 a83a 59c8 f23c 2a43 8ebc
000001c0: 4464 7cbc 6fc0 25bd f1b3 0abd daa5 e03b
000001d0: 022d 83bd 8f1a 19bc 9a36 203d b457 063d
000001e0: 9e94 74bd 0ed7 883d 8aff 813d 802d 9bbc
000001f0: 8baa 893c 19ca 91bd 6318 d0bb 6bba 83bc
00000200: 5d2d 5fbd 7a49 883b 5aee 60bd d47d 0d3d
00000210: 0192 60bc 1858 8f3d 40db 48bc 3233 243c
00000220: 02a7 e2bc 1802 64bd d64b 3c3d a6ac 4abc
00000230: e27e 7b3d 6590 d6bc a2ff 853d 7dcb 7e3c
00000240: 5765 123d 18aa a5bc ae81 75bc b554 91bd
00000250: b4db 6ab9 8853 f93b 465c 65bc 8bea 43bd
00000260: 808b a73c d8ae 4a3d 9d1f 31bd 5866 b03b
00000270: e666 4dbc b0c2 1d3d 5378 c0bc 984e 25bd
00000280: 7c27 98bc b626 8a3d ea2b c0bb 729a 6bbc
00000290: dc85 913d ee9b 7bbd 2ce5 893b 2a76 163d
000002a0: 4e61 92bd a073 823d 2613 893d 3106 133d
000002b0: 8a1b 01bb fc0f 843d 444d 27bd 6292 54bd
000002c0: e4d6 1f3d 3365 4ebc bc3c efbc 4ccf 843d
000002d0: dc62 a4bd 36ec 803d 6618 723d d0b1 113d
000002e0: c8f7 423c 29d1 693d ff9a c5bc 80fe eebc
000002f0: c094 6a3d fef1 04bd da2e df3c 4c21 16bd
00000300: 2639 09bd af4b 0ebd c287 8f3d 8b43 12bd
00000310: f448 fbbc 5382 513c 6c91 9d3d 1020 d6bc
00000320: 9eef 14bd 5acb 5f3d ca30 933d 8283 6f3d
00000330: 84e6 5b3d 3ce0 0fbd 60ac e43c 68c8 6d3d
00000340: 5aed 5cbd 68df e13c fc38 173b 638e 04bd
00000350: 3c4d a2bc 8e55 9b3d 824b 133d 7f25 e53b
00000360: a6fb d33d f220 32bd 083f 8fbd 5683 983d
00000370: 6883 6d3d 8011 15bd 767c c13d f6a1 0a3c
00000380: 44d6 303d a244 e53d c55e 483d 7e15 5a3d
00000390: fcbd 223d aa59 8fbc ad2e 86bd 6e72 283d
000003a0: 886d 21bd 121a 893d e3f0 223d 58df 613d
000003b0: f2ef 4bbd 833b 573c 4295 8dbc 0ed8 4abd
000003c0: 18d1 cabc 8a33 e4bc 2edb 8a3d e2de ba3d
000003d0: 7e53 a6bc d72e 80bd c281 583d bc91 61bc
000003e0: 16bd edbc 7376 423d 10d5 733d e277 a53c
000003f0: 16de bf3d 90d3 173c 5ad0 623c 5c2f 8c3d

net.3.bias f4 [64]
-0.0644219 0.11455819 0.100983374 -0.01207535 -0.012337715 0.09200321 0.019998353 -0.0104854675
0.114942424 0.018693998 -0.060018722 0.055494115 0.10039381 0.08775511 -0.007203292 0.010625536
0.09413593 0.047233373 0.10061496 0.106207505 0.0037772045 0.0933639 0.08507642 -0.019075017
0.090323895 -0.03121863 0.11643288 0.08347112 -0.027458446 0.08119783 0.077087194 -0.034707118
0.04257012 0.08477498 -0.00526553 0.11409294 0.05153999 0.07153464 0.106030345 -0.06404703
0.07200911 0.05174752 0.055751912 -0.021984404 0.09830062 -0.007657883 0.052941255 0.02626222
-0.0077303345 0.058778718 0.10298695 0.070774145 -0.01765914 0.020799974 0.024241954 0.1044942
0.06296649 -0.0025532495 -0.02148551 0.023689525 0.081533745 -0.008394501 0.10709691 0.0025251075
00000000: a1ef 83bd 7c9d ea3d 5fd0 ce3d b0d7 45bc
00000010: 2124 4abc 2e6c bc3d 96d3 a33c 3dcb 2bbc
00000020: ef66 eb3d 2824 993c 31d6 75bd cc4d 633d
00000030: 459b cd3d f3b8 b33d 9809 ecbb ba16 2e3c
00000040: 57ca c03d c877 413d 370f ce3d 5283 d93d
00000050: fa8a 773b 9335 bf3d 8c3c ae3d 3643 9cbc
00000060: bcfb b83d 36be ffbc 5d74 ee3d e8f2 aa3d
00000070: 89f0 e0bc 0c4b a63d e4df 9d3d 0d29 0ebd
00000080: 025e 2e3d 819e ad3d 788a acbb 8fa9 e93d
00000090: 991b 533d c180 923d 7026 d93d 172b 83bd
000000a0: 8379 933d 35f5 533d 1e5c 643d a318 b4bc
000000b0: d651 c93d fbee fabb eed8 583d de23 d73c
000000c0: bf4e fdbb f4c1 703d d2ea d23d 09f2 903d
000000d0: e7a9 90bc b564 aa3c 1097 c63c 0e01 d63d
000000e0: 93f4 803d 6b54 27bb 6102 b0bc 8910 c23c
000000f0: 2afb a63d 1789 09bc a055 db3d 467c 253b

net.6.weight f4 [64, 64, 3]
-0.057436675 0.054588683 0.037190966 -0.03613407 0.007126366 0.040219136 0.020526309 5.5512828e-05
0.046223193 0.060704738 0.026622739 0.025628738 0.04728658 -0.047795955 -0.0026912112 0.052697323
0.060295 0.06603351 -0.013751063 -0.06739663 0.033803448 0.09640104 -0.012605518 -0.0059103807
0.008994957 0.035223827 -0.059042104 0.07906319 -0.022541616 -0.007463784 0.035257503 0.037138395
0.047214195 0.10561255 0.014403893 -0.033960145 0.0037302251 -0.013504999 0.06747018 0.044431612
-0.0030736793 0.014940562 -0.03933668 0.03847469 0.062564164 -0.03645466 0.022293322 -0.027614595
0.08922029 0.05406519 -0.06570548 0.10387485 0.05445363 0.008810921 0.035315465 -0.047482893
0.04107273 0.012687408 -0.02075028 -0.031415764 0.077102885 0.030222084 0.059218846 0.10375558
-0.043904293 0.005031217 -0.034028698 -0.03944805 -0.025932971 -0.013388104 0.059514076 0.0068394346
0.005694414 -0.06397364 4.119036e-05 0.009622619 -0.051633462 -0.067923345 0.028330777 -0.04756689
-0.020925598 0.018482521 -0.015608504 -0.027450942 0.07814945 0.07147373 -0.0087681 0.01985769
-0.014991639 -0.04640706 0.0143703865 -0.040068664 0.013206091 0.06468926 0.055339344 -0.042748168
0.058623806 0.0065375315 -0.011836332 0.100002475 0.07148485 -0.06843493 -0.024250034 0.052986164
0.040602416 0.06450825 0.059901185 0.056891896 0.017722577 -0.052109636 0.020184617 0.065403655
-0.043042086 -0.0041195983 -0.01863706 -0.039564516 -0.003929272 0.027287982 0.06370002 0.052325368
-0.00972779 0.018358324 -0.016084967 -0.031062642 -0.06819098 0.06873065 -0.033866376 -0.0056886384
-0.0057971003 0.021175243 0.06697415 0.030807868 -0.033629153 0.005499048 0.06284389 0.09235808
-0.06295739 0.0354786 0.06072698 0.060429163 -0.05232185 0.07345296 -0.0148471 -0.026606668
0.094215445 0.0138177145 0.023151258 0.05061333 0.022497412 0.048222244 -0.0020998279 -0.0026216586
0.054785106 0.10480257 -0.033790592 -0.048473462 -0.0099642975 0.03492082 0.020018622 0.029383812
0.0057412055 -0.021766223 0.09100082 0.033038937 -0.03569721 -0.017487492 0.028580137 -0.0065333685
0.0031769078 0.03423831 -0.017828103 0.02303646 -0.061680004 0.034283116 -0.03659221 0.022292227
0.05411453 -0.0036824867 0.0045608077 -0.014500551 -0.0067119626 0.029353723 0.05242855 0.003971967
0.04724382 0.051485334 0.04230745 -0.0010484443 0.021230929 0.05876079 -0.051670745 0.019434536
-0.060739316 -0.034876034 0.007875042 -0.014646009 -0.042846024 -0.06477482 -0.041424893 0.03426273
-0.052105643 -0.02833715 0.060243964 -0.021782398 -0.010379127 0.012260221 -0.025942352 0.017030282
0.07146086 0.04518837 0.05242767 -0.046302292 -0.03613699 -0.0066741924 0.031914502 0.024238264
-0.05079805 0.004112664 -0.00020406235 0.039576434 0.01161168 0.009761119 -0.011906988 -0.046938628
0.004263554 0.011806143 -0.040978335 0.06696461 0.05188685 0.008648323 0.027546197 -0.029259656
0.007643141 -0.023604002 -0.027593734 0.031193025 -0.06853396 0.06664672 0.036992963 0.06652716
0.007817499 -0.052205294 0.06102611 -0.009482138 -0.048914436 0.032414325 0.0035313729 -0.033001617
0.056952946 0.008120602 -0.011382487 -0.048274685 0.025419146 0.05232607 -0.009678166 -0.03908999
00000000: b842 6bbd 6298 5f3d 8e55 183d 5201 14bd
00000010: 4a84 e93b d2bc 243d ca26 a83c 72d6 6838
00000020: 8854 3d3d 88a5 783d ee17 da3c 5cf3 d13c
00000030: 93af 413d b1c5 43bd 085f 30bb 26d9 573d
00000040: e4f7 763d 943c 873d 234c 61bc 3f07 8abd
00000050: 7c75 0a3d e96d c53d 6087 4ebc deab c1bb
00000060: 965f 133c dc46 103d 22d6 71bd e2eb a13d
00000070: 32a9 b8bc c292 f4bb 2c6a 103d 6e1e 183d
00000080: ac63 413d 654b d83d 4efe 6b3c cb19 0bbd
00000090: cb76 743b 1244 5dbc ce2d 8a3d ecfd 353d
000000a0: c86f 49bb 42c9 743c 801f 21bd a397 1d3d
000000b0: a421 803d 7b51 15bd 7ca0 b63c 0138 e2bc
000000c0: 21b9 b63d 7673 5d3d 9890 86bd 56bc d43d
000000d0: c50a 5f3d ae5b 103c f3a6 103d 6c7d 42bd
000000e0: e13b 283d d9de 4f3c 7efc a9bc d1ad 00bd
000000f0: 1ee8 9d3d 4e94 f73c 768f 723d ce7d d43d
00000100: fdd4 33bd e8dc a43b ad61 0bbd 4794 21bd
00000110: 6271 d4bc c759 5bbc 08c5 733d 561d e03b
00000120: 3598 ba3b 9d04 83bd d0c3 2c38 30a8 1d3c
00000130: 9c7d 53bd 651b 8bbd f215 e83c 80d5 42bd
00000140: 296c abbc a868 973c d0ba 7fbc cce0 e0bc
00000150: d20c a03d d260 923d 14a8 0fbc 98ac a23c
00000160: 7e9f 75bc 5415 3ebd c571 6b3c 0a1f 24bd
00000170: 5c5e 583c ce7b 843d 82ab 623d b418 2fbd
00000180: 841f 703d ca38 d63b 2ded 41bc 19ce cc3d
00000190: a666 923d 9d27 8cbd 02a8 c6bc 0508 593d
000001a0: b84e 263d e71c 843d f25a 753d 7a07 693d
000001b0: f02e 913c ea70 55bd 365a a53c 5af2 853d
000001c0: e64c 30bd b2fd 86bb bfac 98bc 670e 22bd
000001d0: 1fc1 80bb 0c8b df3c 2875 823d 2053 563d
000001e0: 4f61 1fbc 3264 963c 9fc4 83bc 1577 febc
000001f0: b6a7 8bbd a8c2 8c3d 78b7 0abd c267 babb
00000200: 9af5 bdbb b477 ad3c be29 893d c860 fc3c
00000210: b9be 09bd 5c31 b43b 4cb4 803d 3c26 bd3d
00000220: ceef 80bd 0252 113d dbbc 783d 9284 773d
00000230: 704f 56bd 816e 963d 4041 73bc 3af6 d9bc
00000240: 07f4 c03d b263 623c b5a7 bd3c ec4f 4f3d
00000250: 7e4c b83c b084 453d 449d 09bb 22d0 2bbb
00000260: 5966 603d bba2 d63d 0168 0abd 1c8c 46bd
00000270: 4b41 23bc 2209 0f3d 18fe a33c 52b6 f03c
00000280: b920 bc3b 144f b2bc a35e ba3d d653 073d
00000290: 3d37 12bd ee41 8fbc e420 ea3c de15 d6bb
000002a0: ab33 503b 783d 0c3d 3e0c 92bc f5b6 bc3c
000002b0: 2ca4 7cbd 746c 0c3d b7e1 15bd 309e b63c
000002c0: 33a7 5d3d e055 71bb d472 953b b893 6dbc
000002d0: 06f0 dbbb 3877 f03c 52bf 563d 4627 823b
000002e0: bc82 413d 49e2 523d 944a 2d3d f46b 89ba
000002f0: 7cec ad3c 27af 703d b4a4 53bd 2d35 9f3c
00000300: cac9 78bd 2cda 0ebd 5206 013c d0f5 6fbc
00000310: 507f 2fbd a9a8 84bd 26ad 29bd 1457 0c3d
00000320: ba6c 55bd 5023 e8bc 60c2 763d 0071 b2bc
00000330: 370d 2abc 18df 483c 0e85 d4bc 1783 8b3c
00000340: 125a 923d 7117 393d 66be 563d 79a7 3dbd
00000350: 6104 14bd 2fb3 dabb c8b8 023d 538f c63c
00000360: 9e11 50bd 87c3 863b 92f9 55b9 e61a 223d
00000370: ea3e 3e3c 1aed 1f3c 8715 43bc b842 40bd
00000380: 48b5 8b3b 8e6e 413c e6d8 27bd be24 893d
00000390: 4e87 543d b2b1 0d3c 90a8 e13c f2b1 efbc
000003a0: 5073 fa3b 2e5d c1bc 410c e2bc 8488 ff3c
000003b0: 885b 8cbd 137e 883d ef85 173d 643f 883d
000003c0: f814 003c 38d5 55bd 84f6 793d f85a 1bbc
000003d0: 815a 48bd e2c4 043d 9b6e 673b b42c 07bd
000003e0: 7e47 693d 460c 053c 9c7d 3abc adbb 45bd
000003f0: d03b d03c dc53 563d 2c91 1ebc d31c 20bd

net.6.bias f4 [64]
0.025400454 -0.036531646 0.09316849 0.06673069 -0.05118967 0.07653474 0.058853313 0.13164677
-0.001416149 -0.020656746 -0.0053585423 0.07023253 0.021989817 0.09013427 0.11228911 0.09200955
-0.038734194 0.11584358 0.02106943 0.04823401 -0.040495284 0.04863062 0.12768918 0.015613244
0.099699825 0.042200264 0.109789304 -0.048566125 -0.0077450573 -0.020671591 0.081738226 0.03630814
0.07917548 -0.059165847 -0.01643483 0.12309103 0.02734214 0.07188198 0.10507949 0.034253854
0.08030504 0.115424864 -0.067160554 0.025141714 -0.027374966 0.021939596 -0.04190337 0.005047303
-0.0012330896 0.002900856 0.034485165 0.06007326 0.009655772 0.08352219 0.025460893 0.10994972
0.09970703 -0.08296141 0.12849522 0.11781257 0.06975422 0.029054856 0.058477182 0.025880221
00000000: 9d14 d03c 35a2 15bd 1fcf be3d 1aaa 883d
00000010: 42ac 51bd 3fbe 9c3d 2c10 713d 69ce 063e
00000020: 139e b9ba 5638 a9bc b696 afbb 13d6 8f3d
00000030: fd23 b43c 5198 b83d d5f7 e53d 816f bc3d
00000040: bfa7 1ebd 663f ed3d cc99 ac3c 0691 453d
00000050: 62de 25bd e730 473d f4c0 023e b1ce 7f3c
00000060: 6c2f cc3d 2fda 2c3d 37d9 e03d 46ed 46bd
00000070: 40ca fdbb 7857 a9bc 5f66 a73d d8b7 143d
00000080: c126 a23d e357 72bd 56a2 86bc 2617 fc3d
00000090: a0fc df3c dc36 933d ea33 d73d c54d 0c3d
000000a0: f876 a43d df63 ec3d 798b 89bd fff5 cd3c
000000b0: 7741 e0bc abba b33c dea2 2bbd d963 a53b
000000c0: 9f9f a1ba 4a1c 3e3b 5140 0d3d 610f 763d
000000d0: 3e33 1e3c af0d ab3d 5d93 d03c 522d e13d
000000e0: 3333 cc3d ace7 a9bd 4094 033e b747 f13d
000000f0: 4ddb 8e3d 7304 ee3c c585 6f3d c202 d43c

net.9.weight f4 [64, 64, 3]
0.0114354715 0.052194264 0.049531996 0.0027404903 0.0049567698 -0.025616925 0.026928924 -0.037564978
0.028267696 0.034155454 0.026004553 -0.027216319 -0.007570463 0.056303054 -0.043615945 0.0540553
-0.062235244 -0.04352523 0.037610974 0.024414422 0.02960154 -0.05736417 0.045881044 -0.033569682
-0.0047544516 -0.020742863 0.070490494 0.042369194 0.014988953 -0.035710167 -0.049117416 -0.013105942
0.048568487 0.06514496 0.019045321 -0.02203208 0.005672114 0.024960734 0.017778888 0.017665664
0.023515576 0.0433136 0.04568803 0.05949059 -0.046171807 -0.02377963 -0.06867657 -0.04874834
0.0030705172 -0.061265487 -0.03034595 -0.0250609 0.06478231 -0.016276304 0.029038044 0.046105973
-0.038435586 0.03358151 0.069980755 -0.017920246 -0.05058327 0.019523669 -0.00561455 0.08442363
0.017945047 0.012480784 0.062483564 0.017271232 0.019634597 -0.03584863 -0.0077343257 -0.06357169
-0.06034984 0.05993513 -0.043286726 -0.034303054 -0.061984338 -0.06265694 0.010680216 -0.05048527
0.0027742337 -0.042403676 0.012667134 0.022928562 0.009687288 0.013320146 -0.034211587 0.0032464203
-0.022412498 -0.013325779 -0.0077160113 -0.0015197701 -0.03970175 0.029857576 0.04382909 -0.045519356
0.035611138 0.012261823 0.02776751 0.003789545 0.05567892 -0.040424503 0.010216337 -0.0037150756
0.054465353 -0.020710709 -0.0718319 -0.03880583 0.008149432 -0.041051835 -0.024660602 -0.04791635
0.06680977 0.048925348 -0.0026779752 -0.04363968 0.01339107 -0.051235765 -0.068238035 -0.0072339363
0.025337446 0.07042961 0.042733878 0.04055313 -0.04020776 0.021346536 -0.021025356 -0.0017981518
0.044865347 0.01221864 -0.010226537 0.033380695 0.05579788 0.030543245 -0.0059706667 0.056920633
0.028447967 0.0688566 0.025616076 -0.063666984 -0.034995645 -0.08351993 0.027048571 -0.04051211
-0.012457845 -0.047382165 0.026199993 0.08127317 0.021005053 0.032462597 -0.006103834 0.049367607
0.030261178 -0.050184667 0.026460337 -0.061181 -0.04648759 0.037141792 -0.06260395 0.023749657
-0.04664667 0.06530248 0.0068824347 0.03794623 0.03609187 0.036982812 0.041378863 0.006198447
-0.05211061 -0.054334786 0.053885095 0.011921236 0.020635266 0.016642991 0.061495136 0.02652571
-0.00043660888 -0.04161074 -0.003210527 0.057432074 0.017164368 -0.05152778 0.05303099 -0.03818657
-0.033905722 -0.03478111 -0.047847938 0.032643937 -0.06050142 0.04815135 0.018016566 -0.059520256
-0.026123734 -0.06259469 0.065240845 0.042569917 -0.06351152 -0.037906446 -0.011742215 0.03417991
-0.066880666 -0.04210332 -0.009811622 -0.037786517 0.06924112 -0.034712654 0.05395504 -0.019503338
0.05229357 0.021205671 -0.046672184 0.021034066 -0.05375835 -0.04225664 -0.056615494 0.018229105
0.05777173 -0.06795535 0.04598973 -0.04214332 0.05017463 -0.01881091 -0.07667661 -0.03169729
-0.064153604 -0.05473318 -0.012567962 -0.015982438 0.03509583 -0.00054561696 -0.049633507 -0.035292305
0.035990812 0.0056786705 0.04195267 0.03211444 -0.026626136 -0.06054815 -0.071832344 -0.048604712
-0.04885589 -0.06362374 0.023600977 -0.0016371188 -0.06905632 0.021557793 -0.035851087 0.036675498
-0.0065473886 0.003977081 0.01083453 0.025128584 0.027221562 -0.06488094 0.033796176 0.054973256
00000000: d85b 3b3c a7c9 553d 10e2 4a3d cc99 333b
00000010: 666c a23b 96da d1bc 0c9a dc3c bcdd 19bd
00000020: a891 e73c 97e6 0b3d 8007 d53c c2f4 debc
00000030: a611 f8bb 089e 663d a2a6 32bd 1769 5d3d
00000040: 62ea 7ebd 8347 32bd f70d 1a3d c100 c83c
00000050: ee7e f23c b1f6 6abd c3ed 3b3d 5d80 09bd
00000060: 3bcb 9bbb f0ec a9bc 525d 903d 528b 2d3d
00000070: 3a94 753c d344 12bd 582f 49bd 4eba 56bc
00000080: c0ef 463d b96a 853d ef04 9c3c 9f7c b4bc
00000090: 24dd b93b 747a cc3c 08a5 913c 95b7 903c
000000a0: bda3 c03c 9a69 313d 5f23 3b3d 68ac 733d
000000b0: a61e 3dbd 80cd c2bc 4da6 8cbd 57ac 47bd
000000c0: bb3a 493b 85f1 7abd 1298 f8bc 844c cdbc
000000d0: 96ac 843d e255 85bc 31e1 ed3c 9ed9 3c3d
000000e0: a26e 1dbd c48c 093d 1252 8f3d 7bcd 92bc
000000f0: 6730 4fbd 1af0 9f3c 42fa b7bb 4ce6 ac3d
00000100: 7e01 933c 347c 4c3c c4ee 7f3d 667c 8d3c
00000110: bcd8 a03c 03d6 12bd 3a70 fdbb e031 82bd
00000120: 6531 77bd 8a7e 753d 6c4d 31bd 5c81 0cbd
00000130: 4ae3 7dbd 4852 80bd 13fc 2e3c a4c9 4ebd
00000140: ebcf 353b 7aaf 2dbd d089 4f3c aed4 bb3c
00000150: 6eb7 1e3c be3c 5a3c 7321 0cbd e5c1 543b
00000160: 6a9a b7bc 5e54 5abc 98d6 fcbb 0633 c7ba
00000170: 4d9e 22bd e097 f43c 2286 333d 8172 3abd
00000180: fcdc 113d d0e5 483c b078 e33c 045a 783b
00000190: 940f 643d 2a94 25bd 6c62 273c a078 73bb
000001a0: 1017 5f3d 81a9 a9bc 9a1c 93bd ddf2 1ebd
000001b0: 3285 053c f825 28bd 0805 cabc ef43 44bd
000001c0: 90d3 883d f265 483d f880 2fbb 85bf 32bd
000001d0: 3866 5b3c 98dc 51bd 62c0 8bbd a80a edbb
000001e0: 7a90 cf3c 663d 903d b809 2f3d 0a1b 263d
000001f0: e4b0 24bd eede ae3c 5e3d acbc f6af ebba
00000200: bac4 373d b130 483c 348d 27bc 32ba 083d
00000210: 518c 643d d435 fa3c 95a5 c3bb 9c25 693d
00000220: b60b e93c b004 8d3d ced8 d13c d663 82bd
00000230: 9857 0fbd 7f0c abbd f794 dd3c 07f0 25bd
00000240: fd1b 4cbc cd13 42bd 5ea1 d63c 8c72 a63d
00000250: ca12 ac3c 80f7 043d ac02 c8bb b035 4a3d
00000260: 4ae6 f73c 708e 4dbd 59c3 d83c ee98 7abd
00000270: c569 3ebd fe21 183d 8036 80bd a48e c23c
00000280: 9410 3fbd 4ebd 853d 0c86 e13b 826d 1b3d
00000290: 12d5 133d 4a7b 173d e27c 293d 581c cb3b
000002a0: ef71 55bd 278e 5ebd 9eb6 5c3d 4a51 433c
000002b0: 4a0b a93c e256 883c 53e2 7b3d 724c d93c
000002c0: a7e8 e4b9 0670 2abd b467 52bb e53d 6b3d
000002d0: 4a9c 8c3c cb0e 53bd 0637 593d 8569 1cbd
000002e0: bae0 0abd a376 0ebd 33fc 43bd a6b5 053d
000002f0: 56d0 77bd 5a3a 453d 7a97 933c 83cb 73bd
00000300: 7101 d6bc a531 80bd fe9c 853d cb5d 2e3d
00000310: 5412 82bd ca43 1bbd 6b62 40bc 3c00 0c3d
00000320: bbf8 88bd 8874 2cbd edc0 20bc 09c6 1abd
00000330: 4ace 8d3d db2e 0ebd f6ff 5c3d 77c5 9fbc
00000340: c831 563d 84b7 ad3c 552b 3fbd a24f ac3c
00000350: b731 5cbd 4c15 2dbd a6e5 67bd 3455 953c
00000360: 0da2 6c3d 2d2c 8bbd ba5f 3c3d 799e 2cbd
00000370: ea83 4d3d 5619 9abc a008 9dbd 04d5 01bd
00000380: f762 83bd e62f 60bd dae9 4dbc 9aed 82bc
00000390: a5c0 0f3d bc07 0fba 814c 4bbd aa8e 10bd
000003a0: 1a6b 133d 2414 ba3b 90d6 2b3d 6e8a 033d
000003b0: 0e1f dabc 5601 78bd d61c 93bd bc15 47bd
000003c0: 1d1d 48bd 2a4d 82bd d656 c13c 9794 d6ba
000003d0: 666d 8dbd f899 b03c 97d8 12bd 0c39 163d
000003e0: 7a8b d6bb 2c52 823b 5083 313c 76da cd3c
000003f0: c1ff de3c 4ce0 84bd dc6d 0a3d a32b 613d

net.9.bias f4 [64]
0.05141087 -0.033546574 -0.07362723 0.12606142 0.04407801 0.07113057 0.110493146 0.04621839
0.11417764 0.013195583 0.09331868 -0.020751674 -0.014261864 -0.050564464 -0.027736343 -0.0093944175
0.084902585 0.095749095 0.09794891 0.10201495 -0.071922526 -0.07275034 0.034949247 -0.026668834
-0.03794215 0.14128685 0.03143243 0.09574759 0.0118774 -0.041457057 0.11030942 -0.030555062
-0.03681386 0.11368833 0.042375594 0.04240089 0.025445031 0.037013873 -0.07111628 0.045327783
0.006280004 0.12345833 0.029951895 -0.035454344 -0.05808488 0.11160247 0.04123721 0.017472995
0.12900555 0.097378045 0.071735546 0.0095715 0.08657481 0.09894371 0.04701208 0.045002595
0.04264975 0.11253946 0.036812272 0.008911534 -0.06526129 0.08970619 -0.04622578 0.07647698
00000000: 3494 523d 2268 09bd e0c9 96bd 3f16 013e
00000010: 258b 343d e7ac 913d 3b4a e23d 7f4f 3d3d
00000020: f7d5 e93d 4932 583c dd1d bf3d 6aff a9bc
00000030: 98aa 69bc af1c 4fbd 5437 e3bc 0beb 19bc
00000040: 68e1 ad3d 1a18 c43d 7099 c83d 37ed d03d
00000050: 1e4c 93bd 21fe 94bd f126 0f3d 9978 dabc
00000060: 3a69 1bbd 80ad 103e 4bbf 003d 5017 c43d
00000070: 6d99 423c e0ce 29bd e8e9 e13d 9c4e fabc
00000080: 21ca 16bd 6dd5 e83d 0892 2d3d 8eac 2d3d
00000090: 1972 d03c dc9b 173d 6aa5 91bd a0a9 393d
000000a0: 7ec8 cd3b b9d7 fc3d ad5d f53c 9338 11bd
000000b0: 69ea 6dbd d68f e43d 59e8 283d 8723 8f3c
000000c0: 081a 043e 246e c73d 16ea 923d c8d1 1c3c
000000d0: 224e b13d 00a3 ca3d bd8f 403d a454 383d
000000e0: 81b1 2e3d 177b e63d 77c8 163d af01 123c
000000f0: b6a7 85bd e1b7 b73d 3e57 3dbd f69f 9c3d

net.12.weight f4 [64, 64, 3]
0.009267516 -0.03601534 0.03963805 -0.07474575 0.009561194 0.022691168 -0.044158638 -0.037564885
-0.072022684 -0.0055267345 0.013772793 0.00013375178 -0.03506691 0.055722162 -0.05542773 -0.017969958
0.034758706 -0.0062467735 0.018814124 0.018278852 0.022097003 -0.0025853578 -0.043080516 0.048925802
-0.06927766 0.055181406 0.0554317 0.014052356 0.0042538433 -0.048985183 0.03418996 0.03087908
0.020868376 0.03304673 -0.020392407 0.024740163 0.0035607857 0.032640398 0.04869727 -0.005362913
-0.054136664 -0.056743044 0.004623903 0.02872287 0.033808522 0.01049524 -0.016978443 -0.038979042
0.018007101 -0.031342864 -0.034769434 -0.013357074 0.061677963 -0.030769745 -0.044471733 0.025494281
-0.05898995 -0.0040795044 0.03454721 0.035971127 -0.050195 0.02750536 0.06270616 0.04672111
-0.037658684 -0.055299368 -0.019547643 -0.0044616535 0.05369774 0.04019347 -0.061765175 -0.00949819
0.04321418 -0.041312695 -0.033704303 -0.034990486 -0.038507838 -0.023240957 -0.0005860276 0.060235277
0.017546354 -0.045890234 0.062524125 0.023265842 -0.05807161 -0.022808604 0.045019336 -0.06835384
0.049520023 -0.059547476 -0.051704198 -0.0024708854 -0.049094282 0.010313773 -0.05317425 0.040615134
-0.009386653 -0.03962079 0.015268087 -0.06823598 0.052935217 0.0022959649 -0.066251665 -0.039930675
0.058322333 0.013492747 -0.06508416 -0.06287734 0.022567093 -0.046544425 -0.030735472 0.055699617
0.01038494 -0.055193137 0.037795685 -0.007312808 -0.034585394 -0.015466481 -0.010911695 0.06402801
-0.02378551 0.030557856 0.05254809 -0.00038043916 -0.04754889 0.028172873 0.004121885 0.06445019
-0.06778371 0.066855475 0.068403214 -0.06082065 -0.029583309 -0.028215218 -0.0363282 -0.012642745
0.030871645 -0.04446532 0.023639297 -0.046410367 0.06509041 -0.041718468 0.02824784 0.031900346
0.022507077 -0.056636762 0.014390631 -0.046951987 0.0005687142 -0.012134736 -0.049777865 -0.01561778
-0.016850434 -0.081010945 -0.03606417 -0.005989277 -0.0632653 0.05078774 -0.06669473 0.007851822
-0.03896371 -0.027395686 -0.07223558 0.046202622 0.026972104 0.045004763 0.0240959 0.010533119
0.02149401 0.015757043 0.06901795 0.034132995 0.055840045 -0.049534418 -0.046594888 0.030381255
-0.037476625 -0.04376075 0.032250635 0.036719106 0.034580655 0.020194825 -0.06854761 -0.0669966
-0.060822625 0.048034906 -0.01811237 -0.03871841 -0.024748106 0.024529263 -0.006680727 -0.061114296
0.0035109571 0.0019841813 -0.029160224 -0.039802216 -0.043825436 0.0044651106 0.0008612384 0.064432874
0.003991237 0.05609327 0.0028528995 -0.056332912 -0.013527932 -0.007704979 0.0021739597 -0.05494069
0.071016684 0.03881207 0.06854216 0.043839738 -0.05308321 -0.011750321 -0.04973931 0.017265562
-0.059662297 0.012022422 -0.04036535 -0.05674913 0.02219902 0.041816015 -0.0034282063 0.054585226
0.037492163 -0.02281788 -0.05529751 -0.06588291 -0.006612525 -0.0036340721 0.0070966566 0.06788623
-0.048597027 -0.06085846 0.035798557 -0.006137345 0.035541058 0.027476422 0.022866461 0.013408057
0.042586368 -0.056947522 0.06914161 -0.05098655 0.050164767 -0.012788601 0.06670024 0.023773514
-0.066629685 0.06771395 0.0051802383 -0.009928839 -0.06363568 -0.047496438 -0.008144066 -0.04560224
00000000: c8d6 173c d284 13bd 825b 223d 4d14 99bd
00000010: 8ea6 1c3c d4e2 b93c b0df 34bd a3dd 19bd
00000020: a180 93bd 9c19 b5bb 48a7 613c b83f 0c39
00000030: 52a2 0fbd ec3c 643d 3008 63bd bc35 93bc
00000040: 255f 0e3d bcb1 ccbb 1420 9a3c 88bd 953c
00000050: c604 b53c 1b6f 29bb 3275 30bd 6c66 483d
00000060: 72e1 8dbd e605 623d 5a0c 633d da3b 663c
00000070: d363 8b3b b0a4 48bd c60a 0c3d 20f6 fc3c
00000080: 28f4 aa3c 025c 073d fa0d a7bc e2ab ca3c
00000090: 125c 693b f0b1 053d ca76 473d 60bb afbb
000000a0: 68be 5dbd 656b 68bd 1c84 973b 394c eb3c
000000b0: ce7a 0a3d 3af4 2b3c 6016 8bbc 7da8 1fbd
000000c0: a183 933c 6061 00bd 656a 0ebd a1d7 5abc
000000d0: 08a2 7c3d d510 fcbc fe27 36bd 62d9 d03c
000000e0: 729f 71bd 5dad 85bb 6081 0d3d 7656 133d
000000f0: 4699 4dbd ec52 e13c 166c 803d a25e 3f3d
00000100: fe3f 1abd 9781 62bd 6122 a0bc 1033 92bb
00000110: 29f2 5b3d e8a1 243d 7bfd 7cbd 4c9e 1bbc
00000120: 5a01 313d 8037 29bd 860d 0abd 2f52 0fbd
00000130: 65ba 1dbd d263 bebc a69f 19ba 44b9 763d
00000140: 5fbd 8f3c 66f7 3bbd a60c 803d 0298 be3c
00000150: 7fdc 6dbd 1cd9 babc 3266 383d 19fd 8bbd
00000160: 82d5 4a3d 0ee8 73bd c8c7 53bd 94ee 21bb
00000170: 1617 49bd 19fb 283c 3ecd 59bd 0e5c 263d
00000180: 7aca 19bc 6949 22bd 0027 7a3c 4ebf 8bbd
00000190: 99d2 583d e677 163b f4ae 87bd 598e 23bd
000001a0: 66e3 6e3d af10 5d3c d84a 85bd d6c5 80bd
000001b0: a0de b83c 5ea5 3ebd f5c8 fbbc 4825 643d
000001c0: 9825 2a3c 3312 62bd a6cf 1a3d 48a0 efbb
000001d0: 6aa9 0dbd 2067 7dbc f7c6 32bc 1e21 833d
000001e0: d4d9 c2bc 7854 fa3c ab3c 573d ae75 c7b9
000001f0: a0c2 42bd ccca e63c e110 873b 76fe 833d
00000200: 30d2 8abd 86eb 883d fc16 8c3d 131f 79bd
00000210: b258 f2bc 9a23 e7bc e1cc 14bd 8423 4fbc
00000220: 88e6 fc3c 4421 36bd 33a7 c13c cc18 3ebd
00000230: 1f4e 853d fce0 2abd 0468 e73c f0a9 023d
00000240: c360 b83c f3fb 67bd aec6 6b3c ba50 40bd
00000250: c415 153a c6d0 46bc e0e3 4bbd b8e1 7fbc
00000260: ec09 8abc 11e9 a5bd 06b8 13bd b241 c4bb
00000270: 3d91 81bd ce06 503d 3f97 88bd eea4 003c
00000280: 6998 1fbd eb6c e0bc 3ff0 93bd f63e 3d3d
00000290: 9af4 dc3c ea56 383d c464 c53c 1a93 2c3c
000002a0: 3514 b03c ea14 813c 4859 8d3d 0acf 0b3d
000002b0: 88b8 643d 9ae4 4abd 48da 3ebd 1ce2 f83c
000002c0: 1781 19bd 793e 33bd 3e19 043d c666 163d
000002d0: 72a4 0d3d 9e6f a53c b062 8cbd 8335 89bd
000002e0: 2521 79bd 40c0 443d 6560 94bc 3297 1ebd
000002f0: 8abc cabc 98f1 c83c 00ea dabb fc52 7abd
00000300: 1618 663b 0a09 023b 6ce1 eebc a607 23bd
00000310: 4d82 33bd 1050 923b bbc4 613a 62f5 833d
00000320: ecc8 823b 0fc2 653d b6f7 3a3b 57bd 66bd
00000330: 42a4 5dbc 0c7a fcbb fe78 0e3b 7d09 61bd
00000340: 3271 913d 68f9 1e3d d55f 8c3d 4c91 333d
00000350: c86d 59bd 6b84 40bc 72bb 4bbd 8270 8d3c
00000360: 7460 74bd b1f9 443c 2356 25bd c771 68bd
00000370: b8da b53c 4547 2b3d c2ab 60bb c294 5f3d
00000380: 6291 193d 90ec babc a47f 62bd 9eed 86bd
00000390: e1ad d8bb 9d29 6ebb 128b e83b f007 8b3d
000003a0: ad0d 47bd b846 79bd 82a1 123d c81b c9bb
000003b0: 8093 113d 3c16 e13c 7252 bb3c 78ad 5b3c
000003c0: 0b6f 2e3d ce41 69bd 1e9a 8d3d 46d7 50bd
000003d0: 9279 4d3d 4887 51bc 239a 883d acc0 c23c
000003e0: 2575 88bd 9dad 8a3d fdbe a93b 92ac 22bc
000003f0: 6c53 82bd a08b 42bd b06e 05bc 6ac9 3abd

net.12.bias f4 [64]
-0.00600227 -0.03482365 -0.004021645 0.124105595 0.03586687 0.014382709 0.09552862 0.015462348
0.1186496 0.1102571 0.01247464 -0.012208728 0.08336324 -0.018774565 -0.013384586 0.061450873
0.0038457126 0.03297497 0.07079374 0.0084747 0.14123912 0.015056858 0.12328819 0.11007582
0.094387226 0.046505097 0.011096989 0.082112275 0.12557313 0.060726866 0.04220622 -0.041968975
0.12978885 0.12804714 0.04498909 0.045383453 0.08711974 -0.01558431 0.11800886 0.088486284
0.066680335 0.05937852 0.0244989 0.070178494 -0.02917796 0.08059674 0.13503651 0.108730145
0.090539396 0.021254253 0.13250431 0.12835525 0.07590943 0.11925083 -0.00031343158 0.04197043
0.11014029 0.088771254 0.019497886 0.13067663 0.1020949 0.00325149 -0.06958514 0.12733099
00000000: b1ae c4bb 3ea3 0ebd 01c8 83bb 132b fe3d
00000010: 24e9 123d 74a5 6b3c 82a4 c33d ca55 7d3c
00000020: 90fe f23d 79ce e13d 6f62 4c3c 1e07 48bc
00000030: 59ba aa3d 1ecd 99bc 064b 5bbc e9b3 7b3d
00000040: 5a08 7c3b c310 073d 4ffc 903d 78d9 0a3c
00000050: fda0 103e 0ab1 763c 857e fc3d 6e6f e13d
00000060: 174e c13d 217c 3e3d 25d0 353c 7b2a a83d
00000070: 3e96 003e bcbc 783d 6ee0 2c3d a9e7 2bbd
00000080: 5ee7 043e ca1e 033e 7b46 383d 00e4 393d
00000090: d66b b23d 5555 7fbc a1ae f13d 4c38 b53d
000000a0: b38f 883d e436 733d ebb1 c83c beb9 8f3d
000000b0: 9e06 efbc e70f a53d 0347 0a3e e9ad de3d
000000c0: b86c b93d 661d ae3c 36af 073e 8f6f 033e
000000d0: 6776 9b3d c739 f43d 1354 a4b9 30e9 2b3d
000000e0: 3b91 e13d b4cd b53d 08ba 9f3c 18d0 053e
000000f0: 2217 d13d f316 553b a782 8ebd 0e63 023e

net.15.weight f4 [64, 64, 3]
-0.054351218 0.03604769 0.0063883727 -0.019805023 -0.044132154 0.010457892 0.051117133 0.06763595
-0.041063465 -0.06163136 0.028000142 -0.0659735 -0.028738208 -0.049265347 -0.03231649 -0.072316304
0.010324126 0.03340169 -0.03996178 0.01307028 0.06807398 0.037629087 -0.01545882 0.03458429
0.026593013 -0.043322656 -0.015287 0.049934544 0.017595563 0.034846686 -0.036773976 -0.028992452
0.04702971 0.029306669 -0.030193474 0.013675159 0.026160523 -0.038972914 0.07193202 -0.054811686
-0.051035106 -0.00089888216 -0.027149383 -0.049208615 -0.013243005 0.0430599 0.021940798 -0.021319319
-0.014413856 0.06634948 -0.020541647 0.027354758 -0.05880138 0.060793612 -0.06888894 -0.055575088
0.008015018 -0.011552708 -0.028256577 -0.06836095 0.026903523 0.009246803 0.057560973 0.03652886
0.06363252 -0.034043748 0.042356677 0.029917765 0.014125153 0.014622057 -0.02840615 0.06649357
-0.0018898721 0.030597134 -0.037092958 0.044339597 -0.01748453 -0.06927051 -0.025478372 0.06696464
-0.031398825 0.012474728 0.063956946 -0.03599992 0.0047820676 0.006793814 -0.05519327 -0.015474891
-0.04945648 -0.041713256 0.029132832 0.06751019 0.026256453 0.06543554 0.013628935 0.047380954
0.04623239 -0.042063206 -0.0004632586 -0.0054660803 0.013069378 -0.0510474 0.0023093696 0.060472526
0.03327488 0.04409278 0.00013275574 0.00199728 -0.016793977 -0.020735234 -0.067199565 -0.057345726
0.024719741 -0.024428602 0.062319282 0.03308472 0.047055755 -0.04953947 -0.00019966763 -0.02545666
-0.018600082 0.002397399 0.0060723303 0.06985049 -0.030889135 0.04644557 0.053536154 -0.03675014
-0.020403806 -0.028782587 -0.028318753 0.06653396 0.03272003 -0.052964117 0.0064479886 -0.011729254
0.025050279 0.014982069 -0.029112844 0.02125118 -0.04323051 -0.015085851 0.043624736 -0.037903666
-0.04727819 0.016835291 0.0134234205 -0.06402398 -0.040495876 -0.0007906789 -0.07230025 -0.04203803
0.068619534 -0.06311841 -0.056325153 0.007825196 0.0326514 -0.04006402 0.023886533 -0.06672178
-0.07151624 -0.050946675 -0.07057967 0.039941583 0.052579373 -0.0016542497 0.0387246 0.06255512
0.040090244 0.0110081695 -0.030756338 -0.0473316 0.006729127 0.05243144 -0.07393556 0.0422732
-0.039452318 -0.021550734 0.019713208 0.052113876 -0.064697504 -0.06575835 -0.054879345 -0.008074557
0.03707923 -0.05110632 0.023114577 -0.039256662 -0.037012972 0.035655554 -0.014700908 0.068878174
0.053514916 0.0155495275 0.03612136 0.04129643 0.033856012 0.060889915 0.050018616 0.0034035055
-0.055932164 0.06738202 0.059918262 -0.034944817 0.06835014 0.023443632 0.023954209 -0.016448021
0.008182511 0.016024195 -0.0023066204 0.009320982 -0.028065767 -0.01373127 -0.046146333 0.01329579
-0.012127379 -0.028504137 -0.05623947 0.0464204 0.03779784 -0.027166575 -0.0035574858 -0.00028109556
-0.03820591 -0.05229439 0.053650856 -0.03039849 0.079817355 -0.030251503 0.06745851 0.013569243
-0.0035011652 -0.00871503 -0.045261838 -0.05301 0.047662675 0.019880021 -0.03126542 0.027206784
-0.042469114 -0.04440933 -0.002118995 0.10124649 0.07122837 -0.042302623 0.034782007 0.016476516
-0.0018046247 0.053192373 -0.032118186 0.06578948 -0.024794452 0.061112408 0.04540825 0.033772036
00000000: 629f 5ebd bea6 133d 8e55 d13b 253e a2bc
00000010: ebc3 34bd 9457 2b3c 3360 513d b884 8a3d
00000020: 2a32 28bd 2a71 7cbd 8e60 e53c 1d1d 87bd
00000030: 646c ebbc 76ca 49bd 4c5e 04bd 921a 94bd
00000040: 8626 293c 36d0 083d f7ae 23bd ba24 563c
00000050: 5f6a 8b3d f520 1a3d fe46 7dbc 42a8 0d3d
00000060: 97d9 d93c 1973 31bd 5376 7abc 2a88 4c3d
00000070: 9224 903c 66bb 0e3d 4fa0 16bd 9481 edbc
00000080: 3aa2 403d 8a14 f03c 4e58 f7bc c60d 603c
00000090: 984e d63c 10a2 1fbd 1851 933d 3882 60bd
000000a0: 300a 51bd f6a2 6bba 6268 debc f98e 49bd
000000b0: 30f9 58bc 945f 303d 30bd b33c daa5 aebc
000000c0: 1828 6cbc 3ce2 873d f546 a8bc 1617 e03c
000000d0: b7d9 70bd b902 793d a515 8dbd b4a2 63bd
000000e0: 6c51 033c 9247 3dbc 567a e7bc d300 8cbd
000000f0: c764 dc3c e77f 173c 0ec5 6b3d 499f 153d
00000100: c451 823d 7571 0bbd 327e 2d3d 1a16 f53c
00000110: 306d 673c 5a91 6f3c 04b4 e8bc c82d 883d
00000120: 96b5 f7ba d7a6 fa3c c9ee 17bd 709d 353d
00000130: b83b 8fbc b2dd 8dbd 05b8 d0bc c224 893d
00000140: 0e9c 00bd cd62 4c3c dcfb 823d a774 13bd
00000150: e4b2 9c3b a49e de3b 5712 62bd 668a 7dbc
00000160: e192 4abd 85db 2abd faa7 ee3c c842 8a3d
00000170: c617 d73c 1203 863d e64b 5f3c 8812 423d
00000180: 2d5e 3d3d 784a 2cbd 84e1 f2b9 ce1c b3bb
00000190: f220 563c 1417 51bd cb58 173b 0ab2 773d
000001a0: 3e4b 083d a29a 343d 5934 0b39 cce4 023b
000001b0: 8693 89bc f0dc a9bc ed9f 89bd 5ae3 6abd
000001c0: 0e81 ca3c 7e1e c8bc 8142 7f3d d883 073d
000001d0: 89bd 403d e6e9 4abd df5d 51b9 7c8a d0bc
000001e0: 335f 98bc ae1d 1d3b 66fa c63b c60d 8f3d
000001f0: 360b fdbc b63d 3e3d ba48 5b3d 5187 16bd
00000200: e225 a7bc 76c9 ebbc bbfc e7bc f542 883d
00000210: 7005 063d e7f0 58bd a649 d33b 0f2c 40bc
00000220: 3e36 cd3c 5a77 753c 0f7e eebc f416 ae3c
00000230: 7a12 31bd a52a 77bc daaf 323d e040 1bbd
00000240: c6a6 41bd 2aea 893c e8ed 5b3c 011f 83bd
00000250: 01df 25bd 9045 4fba 2712 94bd 1230 2cbd
00000260: 6688 8c3d 3a44 81bd 34b5 66bd 4035 003c
00000270: 79bd 053d 2b1a 24bd b1ad c33c 6ea5 88bd
00000280: 1b77 92bd 76ad 50bd 138c 90bd c999 233d
00000290: 785d 573d 69d3 d8ba b09d 1e3d e61c 803d
000002a0: ab35 243d 9c5b 343c b7f4 fbbc c8de 41bd
000002b0: 0280 dc3b 5ac2 563d 876b 97bd aa26 2d3d
000002c0: c198 21bd 2a8b b0bc 987d a13c 5c75 553d
000002d0: 2080 84bd 50ac 86bd 2ac9 60bd 264b 04bc
000002e0: 64e0 173d dc54 51bd c85a bd3c 98cb 20bd
000002f0: ea9a 17bd 8f0b 123d 14dc 70bc 0010 8d3d
00000300: 7532 5b3d 72c3 7e3c fef3 133d 7226 293d
00000310: 9aac 0a3d b467 793d 52e0 4c3d 590d 5f3b
00000320: 2019 65bd 96ff 893d da6c 753d 4c22 0fbd
00000330: 28fb 8b3d dc0c c03c 9e3b c43c 00be 86bc
00000340: f00f 063c 2c45 833c ab2a 17bb 08b7 183c
00000350: 2eea e5bc 1ff9 60bc f003 3dbd 96d6 593c
00000360: eab1 46bc 8281 e9bc 5c5b 66bd 5123 3e3d
00000370: e8d1 1a3d 708c debc b524 69bb 0260 93b9
00000380: cd7d 1cbd a432 56bd 00c1 5b3d 4106 f9bc
00000390: 4877 a33d 00d2 f7bc b027 8a3d 8851 5e3c
000003a0: ce73 65bb 7cc9 0ebc 7a64 39bd 0421 59bd
000003b0: f039 433d 6ddb a23c 2b10 00bd c3e0 de3c
000003c0: 18f4 2dbd 8fe6 35bd d6de 0abb 525a cf3d
000003d0: 2ee0 913d 8445 2dbd 9477 0e3d c2f9 863c
000003e0: 2889 ecba 3fe0 593d 5c8e 03bd a3bc 863d
000003f0: bc1d cbbc 0151 7a3d 00fe 393d 8c54 0a3d

net.15.bias f4 [64]
-0.06797308 0.116269395 0.110085055 0.07370068 0.06766739 0.09438991 0.11809358 0.130987
0.09401532 0.123518914 0.103002034 0.03231772 -0.05660187 -0.07681505 0.10954007 0.016441746
0.09514124 0.03806672 0.039752506 0.028821608 0.105586804 0.13963436 -0.045836978 0.009924617
-0.009458448 0.037581638 -0.049712658 -0.0430315 0.14530373 0.14304693 -0.015107449 0.10039264
0.0054673767 0.011204457 0.10492998 0.07589318 0.13464138 -0.018292686 0.103715815 0.020969404
0.035915203 0.016564101 0.028593281 0.12719695 0.11343706 0.107691154 0.043217435 0.09734278
0.038272932 0.06960225 0.1488639 0.008406089 0.12958246 0.16474476 0.109804824 -0.078289844
-0.05726088 0.03709451 0.11746621 0.012442703 0.014865328 -0.06170351 0.012383593 0.086154565
00000000: 7835 8bbd a61e ee3d 4674 e13d 62f0 963d
00000010: 3395 8a3d 7f4f c13d 0cdb f13d 7521 063e
00000020: 1b8b c03d 7cf7 fc3d bbf2 d23d 965f 043d
00000030: 5dd7 67bd 3551 9dbd 8b56 e03d d7b0 863c
00000040: 69d9 c23d d9eb 1b3d 86d3 223d 4b1b ec3c
00000050: e53d d83d 4ffc 0e3e 8ebf 3bbd dc9a 223c
00000060: 9bf7 1abc 34ef 193d 809f 4bbd cc41 30bd
00000070: 80ca 143e e57a 123e 3c85 77bc a89a cd3d
00000080: ae27 b33b e692 373c 88e5 d63d e26d 9b3d
00000090: 6edf 093e 8bda 95bc f568 d43d 07c8 ab3c
000000a0: d21b 133d 70b1 873c 753c ea3c eb3f 023e
000000b0: b051 e83d 2e8d dc3d c404 313d a75b c73d
000000c0: 14c4 1c3d a08b 8e3d c76f 183e b1b9 093c
000000d0: 44b1 043e dab2 283e 5ae1 e03d 6d56 a0bd
000000e0: 628a 6abd 6af0 173d 2092 f03d 7bdc 4b3c
000000f0: b48d 733c d2bc 7cbd 8ee4 4a3c ce71 b03d
