model_artifacts/dl_tx_tx_h24_28000_29500.pt (torch, 420809 bytes, 30 tensors)

proj.weight f4 [64, 30]
0.0057969177 -0.01804685 -0.11922852 0.12871498 -0.05038558 0.20661801 -0.15185426 -0.07633818
0.11302615 0.036357705 0.046027914 -0.03218001 0.021999862 -0.05993594 0.083797574 -0.07918144
-0.031018583 -0.11609906 -0.15263547 0.17720374 0.12161703 -0.0651192 -0.03355895 0.043359857
0.04189463 -0.008589788 -0.1256789 0.005213887 -0.011082768 -0.03893546 -0.06094544 0.1081707
0.08241884 -0.17494151 -0.11129253 -0.019900626 -0.18208389 0.0598285 0.004357072 -0.14041513
-0.0832117 -0.06815948 -0.10215827 0.066492036 -0.12083554 -0.0645832 -0.037634254 0.18483293
-0.12809688 -0.19470409 -0.102855325 0.15488249 -0.06789284 0.020174408 0.13251384 -0.097904235
-0.0014257377 0.09324463 -0.0239017 0.034311093 0.112900764 -0.078082755 -0.15653205 -0.016546153
0.010304355 0.12708455 0.042612147 -0.093990214 0.043852527 -0.134847 0.10752001 -0.0028724156
0.09529033 -0.079201154 -0.1262007 -0.048496466 0.11073326 0.16110678 -0.10567613 0.12491962
-0.14044192 -0.043986253 0.007088934 -0.030580236 -0.044999063 0.16529314 0.14913319 0.16488364
0.12352073 0.19396114 0.081592396 0.093272194 0.083670855 0.039296206 -0.05362484 0.08161149
0.1082498 -0.10072772 -0.17349115 -0.013651318 0.15080504 -0.09124417 0.10292884 -0.15819474
0.103050254 -0.07072102 -0.02470553 -0.05799781 -0.15751766 0.06748442 0.16366267 0.055056743
0.09222121 0.14397845 -0.04334127 0.13600253 0.10404505 0.03759895 -0.18064131 0.017143939
0.19387802 0.16743001 -0.03332633 0.104159325 -0.15998612 0.18750581 0.0071158074 -0.031022254
-0.1839243 0.16619235 0.10583913 -0.026578061 0.16410792 -0.037402585 -0.0664025 0.016518775
0.1259904 0.022678426 0.087741084 -0.076515794 -0.0065824683 -0.115365736 0.15434736 0.112222895
0.123605624 0.021048028 0.14045061 -0.13999483 0.08719948 -0.07413686 -0.179289 -0.10192293
-0.12885019 0.06709709 -0.037126593 -0.038028337 -0.17890315 0.0009142475 -0.0016426342 -0.14129049
-0.018642738 0.039635852 -0.1105033 -0.09349452 0.055279244 -0.023542339 0.06561849 -0.02463962
0.09830726 0.0008292842 -0.08495145 0.16994822 -0.013218003 -0.024827443 0.010113674 0.13129938
0.14809309 -0.07259843 -0.05170278 0.03628396 0.14600916 -0.019948632 0.09572369 -0.089728154
-0.11955101 -0.17319046 0.1482206 -0.04247534 0.11645036 -0.046984624 0.09926747 0.11048068
0.11928744 -0.038787074 0.0010077038 -0.059177667 0.14830077 -0.07190624 -0.12799725 0.120178506
0.11057165 0.06250248 -0.15490893 0.03890876 -0.0040243575 -0.1771436 0.02909526 0.16789542
-0.14155976 -0.10915497 0.0036996505 -0.111348845 -0.11265932 0.0010609702 0.06737414 -0.068263076
-0.09299548 -0.06353444 0.045547634 -0.04498977 -0.120533295 -0.14530848 -0.12456762 -0.008553862
-0.1304042 0.0723352 -0.014810206 0.0076542646 0.15701795 -0.10078999 0.13996986 -0.058870096
-0.15281759 0.04625344 -0.1114074 -0.011299483 -0.07384229 -0.06464579 -0.06321962 0.021271337
-0.013315744 0.086174734 0.19741847 0.031079795 0.236286 -0.06705903 0.08065293 -0.089857705
0.060651835 -0.038511634 0.062188406 0.13762748 -0.1450347 -0.08550458 0.016550323 0.033276822
00000000: 12f4 bd3b fdd6 93bc 152e f4bd dccd 033e
00000010: 1c61 4ebd ac93 533e af7f 1bbe 3157 9cbd
00000020: 417a e73d d1eb 143d c487 3c3d 30cf 03bd
00000030: 0e39 b43c 637f 75bd 109e ab3d e129 a2bd
00000040: af1a febc 58c5 edbd 794c 1cbe e674 353e
00000050: 5912 f93d 375d 85bd 1c75 09bd 1b9a 313d
00000060: b499 2b3d 2fbc 0cbc f8b1 00be 41d9 aa3b
00000070: 8094 35bc ca7a 1fbd eda1 79bd 9a88 dd3d
00000080: 35cb a83d de23 33be 57ed e3bd a306 a3bc
00000090: 3374 3abe bb0e 753d c5c5 8e3b fcc8 0fbe
000000a0: e56a aabd 3397 8bbd 5b38 d1bd fa2c 883d
000000b0: a078 f7bd 3244 84bd 6026 1abd d844 3d3e
000000c0: d42b 03be 8260 47be d0a5 d2bd 8499 1e3e
000000d0: 670b 8bbd cd44 a53c b5b1 073e 0482 c8bd
000000e0: d2df baba 0af7 be3d 7fcd c3bc ca89 0c3d
000000f0: 8438 e73d dae9 9fbd f049 20be cc8b 87bc
00000100: 99d3 283c 7422 023e 138a 2e3d f17d c0bd
00000110: b59e 333d 5515 0abe 7333 dc3d 233f 3cbb
00000120: 9427 c33d 3734 a2bd c23a 01be 3ba4 46bd
00000130: 1fc8 e23d 2df9 243e ba6c d8bd dcd5 ff3d
00000140: 02d0 0fbe ee2a 34bd 4a4a e83b 6783 fabc
00000150: f050 38bd 9b42 293e 5fb6 183e 42d7 283e
00000160: 70f8 fc3d c09d 463e ea19 a73d 7e05 bf3d
00000170: a05b ab3d 0ff5 203d b8a5 5bbd ed23 a73d
00000180: 12b2 dd3d 564a cebd aaa7 31be c7a9 5fbc
00000190: a36c 1a3e 39de babd 5bcc d23d cdfd 21be
000001a0: 030c d33d 2fd6 90bd 4063 cabc 1d8f 6dbd
000001b0: 4f4c 21be 4635 8a3d 3097 273e 2e83 613d
000001c0: 79de bc3d 166f 133e 9e86 31bd 3f44 0b3e
000001d0: 9215 d53d 5b01 1a3d 09fa 38be 7271 8c3c
000001e0: f687 463e c672 2b3e 3181 08bd 7c51 d53d
000001f0: 67d3 23be 8601 403e b82b e93b 6222 febc
00000200: a756 3cbe 542e 2a3e 30c2 d83d 3cba d9bc
00000210: e80b 283e 7433 19bd 09fe 87bd 6252 873c
00000220: a103 013e 1bc8 b93c 99b1 b33d 50b4 9cbd
00000230: bfb1 d7bb df44 ecbd 3c0d 1e3e 1ed5 e53d
00000240: f224 fd3d ea6c ac3c 49d2 0f3e ce5a 0fbe
00000250: a495 b23d 11d5 97bd 8997 37be f8bc d0bd
00000260: 4ef1 03be 336a 893d 0e12 18bd 9ac3 1bbd
00000270: 6332 37be 1caa 6f3a a84d d7ba 74ae 10be
00000280: a8b8 98bc 3459 223d 8e4f e2bd 0e7a bfbd
00000290: 7d6c 623d dddb c0bc fd62 863d 07d9 c9bc
000002a0: 5155 c93d 5264 593a 07fb adbd e806 2e3e
000002b0: 5390 58bc ec62 cbbc d3b3 253c 5873 063e
000002c0: b7a5 173e 7cae 94bd 4bc6 53bd 7d9e 143d
000002d0: 6d83 153e 506b a3bc c80a c43d 65c3 b7bd
000002e0: 29d7 f4bd d758 31be 24c7 173e 9ffa 2dbd
000002f0: 877d ee3d f372 40bd be4c cb3d b243 e23d
00000300: f94c f43d 32df 1ebd ee14 843a 4864 72bd
00000310: 28dc 173e 9443 93bd b611 03be 2620 f63d
00000320: 6473 e23d 4d01 803d 72a0 1ebe cb5e 1f3d
00000330: c2de 83bb 2265 35be 2f59 ee3c c7ec 2b3e
00000340: 0bf5 10be a48c dfbd d675 723b dd0a e4bd
00000350: eeb9 e6bd 4110 8b3a 74fb 893d 83cd 8bbd
00000360: 6a74 bebd 581e 82bd 2890 3a3d 3147 38bd
00000370: 29da f6bd bfcb 14be 4f1d ffbd 7f25 0cbc
00000380: ae88 05be 7a24 943d 82a6 72bc a0d0 fa3b
00000390: 50c9 203e fb6a cebd 4254 0f3e c521 71bd
000003a0: 377c 1cbe 3f74 3d3d 9029 e4bd 7721 39bc
000003b0: a03a 97bd 0365 84bd 4a79 81bd 3a41 ae3c
000003c0: 472a 5abc 617c b03d 1128 4a3e 0e9b fe3c
000003d0: f5f4 713e 3f56 89bd 5d2d a53d 5107 b8bd
000003e0: 0f6e 783d 60be 1dbd 45b9 7e3d 38ee 0c3e
000003f0: fa83 14be 061d afbd 8b94 873c 474d 083d

proj.bias f4 [64]
0.018437302 -0.007593423 0.004080317 -0.06655548 0.008989999 0.020595575 -0.1310452 0.12628192
0.012467532 0.15000206 0.100462876 0.11807976 0.15700385 -0.08413934 -0.060004927 0.019602397
0.06900505 -0.08308101 0.16086644 0.09928695 -0.1330733 -0.08789857 0.067918845 0.014797921
-0.13489072 0.15676391 0.086148076 0.059136435 -0.1696632 0.076285556 0.1777608 -0.01497325
-0.09235154 -0.05958068 0.04937891 0.17619908 0.13687582 0.1860126 -0.16018546 0.076175995
0.15138799 -0.043623462 0.07114747 0.17694113 0.046393912 -0.18132253 0.011978833 0.12643903
0.09531674 0.11575413 -0.14920306 -0.0055847857 0.06050024 -0.1493193 0.059935246 -0.046948485
0.15879032 0.20397341 0.16023114 0.055255707 0.16633624 0.13934937 -0.075137146 -0.18558474
00000000: d309 973c 40d2 f8bb 2eb4 853b 3d4e 88bd
00000010: ca4a 133c 0db8 a83c b730 06be 0c50 013e
00000020: 9f44 4c3c 249a 193e 7bbf cd3d cdd3 f13d
00000030: 9ec5 203e 3f51 acbd bac7 75bd 3595 a03c
00000040: 8552 8d3d 6026 aabd 2cba 243e f556 cb3d
00000050: 5e44 08be 2a04 b4bd 0919 8b3d fb72 723c
00000060: cb20 0abe b886 203e 676e b03d 0c39 723d
00000070: 31bc 2dbe 9a3b 9c3d ed06 363e 5d52 75bc
00000080: ce22 bdbd df0a 74bd 8a41 4a3d 886d 343e
00000090: 2d29 0c3e 167a 3e3e a807 24be 2902 9c3d
000000a0: 7405 1b3e 84ae 32bd c4b5 913d 0e30 353e
000000b0: 8b07 3e3d 9dac 39be de42 443c 3c79 013e
000000c0: 6c35 c33d 8010 ed3d b0c8 18be 9400 b7bb
000000d0: 1acf 773d 29e7 18be a97e 753d 0e4d 40bd
000000e0: ee99 223e 68de 503e a213 243e cf53 623d
000000f0: 0c54 2a3e 9ab1 0e3e 81e1 99bd ed09 3ebe

enc.layers.0.self_attn.in_proj_weight f4 [192, 64]
-0.041855004 -0.06520637 -0.005304611 -0.1476289 0.10397129 0.03587982 -0.15426396 -0.11621735
0.1289976 0.049913555 -0.06368522 0.17747007 0.23382051 0.053351443 -0.029885687 -0.021900248
0.1552134 -0.1865214 0.08567002 -0.057828926 0.09022733 -0.17411637 0.14791816 -0.209955
-0.18819469 -0.08682989 0.023255393 0.10671318 -0.15038432 0.14293589 -0.038759958 0.022872608
0.04795456 0.0005719679 0.12759613 0.08256251 0.062455527 -0.069354355 -0.13389848 0.17523569
0.03932568 0.080137365 0.016873315 0.0880205 -0.1450814 0.0588514 -0.09644531 0.17777266
0.045144103 0.06999176 -0.10620681 -0.029357828 0.027445722 0.0049262154 -0.107840106 -0.059384517
-0.017521981 -0.01535398 0.09381668 -0.072452135 -0.07877996 0.027650561 0.0068400493 -0.10405861
-0.07540949 -0.084426366 0.020283202 0.067025535 0.015326747 -0.0058670384 0.10416425 -0.15785576
-0.07260626 -0.16890275 -0.09803526 -0.01249211 -0.04983268 0.02614576 -0.13523634 -0.069138706
-0.08615313 0.13927175 -0.13429755 -0.118919045 0.11444268 0.114383526 0.065281205 -0.10988765
0.19388771 0.042516656 -0.08861313 -0.047883645 0.061006695 -0.12475896 -0.09363463 0.14769529
0.0010035541 0.0852702 -0.041155785 -0.12904531 -0.12723017 -0.0040722773 0.008981642 -0.015960027
-0.22549413 0.05509122 -0.05877575 -0.056841798 -0.16206229 -0.05121045 0.108812496 -0.23417003
0.013364963 -0.21174516 0.032652237 0.032191463 -0.04258007 0.21828192 -0.035892375 0.027075425
-0.11307513 -0.24309751 -0.0871884 -0.023497617 0.10602244 -0.0354359 0.15580161 -0.043660793
0.056297153 -0.12824942 0.047708433 -0.03465958 0.14983027 -0.020936066 -0.13877606 -0.03205119
0.15873516 -0.112411916 0.17844653 0.027141523 -0.02089166 -0.0699521 0.08500394 0.07758235
0.06843548 -0.099097915 0.09715648 -0.038456034 -0.12962118 -0.18723184 0.07440023 0.062280685
-0.19025096 0.028746443 0.04632464 -0.14323333 0.061546702 0.038748514 0.16093768 0.055141937
-0.18735905 0.1033134 0.0150168985 0.13605829 0.14341564 0.044092365 -0.19361314 0.095077135
0.18592848 -0.079024814 0.08925334 0.16012861 -0.074593745 -0.15067433 -0.0012876455 -0.10933374
0.04387958 -0.043688297 -0.06344046 -0.12944336 -0.014663399 -0.035102777 -0.024229264 0.060591076
0.023352113 0.085119456 0.22073136 0.16179062 0.060884215 0.11701085 -0.017373022 -0.10816191
-0.05772352 0.058705583 0.056880537 0.07695313 -0.042613674 0.03506237 -0.053190283 0.09346202
-0.115165845 0.035726044 0.12609567 -0.07669466 0.098451994 -0.095088854 -0.00568059 0.044265937
-0.00038226103 -0.054501005 -0.057634525 -0.064850405 0.00978325 -0.001450406 -0.050428104 0.11326849
-0.015723437 -0.082182944 -0.016699722 -0.0124789635 0.03956095 -0.0050648893 0.09064671 0.06368915
-0.15773316 -0.100567795 0.061360687 0.1822133 -0.0045668115 -0.015173101 -0.16795051 -0.067186035
0.069528885 -0.07018334 -0.07107104 0.065832734 0.07576177 -0.1391067 -0.05457554 0.12582478
0.016811991 0.08438707 0.010514729 0.06466721 -0.13087238 0.033785686 0.058204673 -0.11741273
-0.010630587 0.09799083 -0.117614515 -0.10686663 0.17016827 0.014717278 0.08900307 0.098523416
00000000: 2770 2bbd eb8a 85bd 4dd2 adbb 082c 17be
00000010: e6ee d43d b8f6 123d 5ff7 1dbe 5d03 eebd
00000020: f217 043e 2872 4c3d 666d 82bd b7ba 353e
00000030: a56e 6f3e 0b87 5a3d d4d2 f4bc 2668 b3bc
00000040: 43f0 1e3e 77ff 3ebe c373 af3d 06de 6cbd
00000050: 1bc9 b83d 904b 32be dc77 173e 72fe 56be
00000060: 1cb6 40be dfd3 b1bd 1882 be3c 718c da3d
00000070: 59fe 19be c95d 123e c3c2 1ebd 565f bb3c
00000080: 006c 443d 1ef0 153a 8fa8 023e 8916 a93d
00000090: 5ed1 7f3d a809 8ebd af1c 09be fc70 333e
000000a0: f713 213d 0f1f a43d e839 8a3c 1844 b43d
000000b0: 3890 14be 2a0e 713d 1e85 c5bd 090a 363e
000000c0: 06e9 383d d757 8f3d f582 d9bd d47f f0bc
000000d0: dad5 e03c 176c a13b 46db dcbd 2e3d 73bd
000000e0: 428a 8fbc 428f 7bbc f622 c03d c961 94bd
000000f0: 6357 a1bd 6e83 e23c 7e22 e03b ae1c d5bd
00000100: 4a70 9abd bbe7 acbd f528 a63c af44 893d
00000110: 091d 7b3c 4940 c0bb 1154 d53d f1a4 21be
00000120: 97b2 94bd d8f4 2cbe b6c6 c8bd b5ab 4cbc
00000130: 5a1d 4cbd a22f d63c 657b 0abe 9898 8dbd
00000140: 0d71 b0bd 419d 0e3e 4c85 09be d48b f3bd
00000150: ec60 ea3d e941 ea3d 27b2 853d c70c e1bd
00000160: 808a 463e f225 2e3d cd7a b5bd a421 44bd
00000170: 28e2 793d a081 ffbd 83c3 bfbd 6f3d 173e
00000180: b089 833a 25a2 ae3d f892 28bd 7424 04be
00000190: a048 02be bd70 85bb bd27 133c 9abe 82bc
000001a0: efe7 66be 55a7 613d d7be 70bd f2d2 68bd
000001b0: a8f3 25be 0cc2 51bd 16d9 de3d 45ca 6fbe
000001c0: b8f8 5a3c b9d3 58be 5abe 053d 32db 033d
000001d0: 7168 2ebd 4c85 5f3e e203 13bd 48cd dd3c
000001e0: ef93 e7bd 8eee 78be d58f b2bd 137e c0bc
000001f0: 4b22 d93d 3c25 11bd 758a 1f3e a9d5 32bd
00000200: d897 663d d153 03be eb69 433d 34f7 0dbd
00000210: 1b6d 193e 1d82 abbc 501b 0ebe 1c48 03bd
00000220: 788b 223e 3838 e6bd b0ba 363e e657 de3c
00000230: fd24 abbc 0c43 8fbd 8c16 ae3d 7fe3 9e3d
00000240: e727 8c3d d9f3 cabd faf9 c63d 1384 1dbd
00000250: 6abb 04be b4b9 3fbe 265f 983d 081a 7f3d
00000260: 26d1 42be a97d eb3c e8be 3d3d c2ab 12be
00000270: 6518 7c3d c3b6 1e3d d9cc 243e 83dc 613d
00000280: 0ddb 3fbe fa95 d33d 7009 763c dd52 0b3e
00000290: 8ddb 123e 329a 343d 8642 46be cdb7 c23d
000002a0: 0964 3e3e c3d7 a1bd 75ca b63d c1f8 233e
000002b0: 9bc4 98bd 5f4a 1abe 37c6 a8ba 5eea dfbd
000002c0: 13bb 333d 80f2 32bd 12ed 81bd cd8c 04be
000002d0: c13e 70bc eec7 0fbd 737c c6bc 592e 783d
000002e0: ee4c bf3c 1c53 ae3d 6707 623e 71ac 253e
000002f0: ba61 793d 62a3 ef3d de51 8ebc fe83 ddbd
00000300: 7f6f 6cbd 4475 703d 91fb 683d 9a99 9d3d
00000310: ad8b 2ebd 8f9d 0f3d 0ede 59bd 0469 bf3d
00000320: 12dc ebbd 7955 123d 391f 013e 1712 9dbd
00000330: 33a1 c93d f2bd c2bd 3e24 babb 3350 353d
00000340: 356a c8b9 723c 5fbd 2e12 6cbd 4ad0 84bd
00000350: ed49 203c 8d1b beba b38d 4ebd 4ff9 e73d
00000360: 70ce 80bc 884f a8bd dbcd 88bc 9174 4cbc
00000370: aa0a 223d 5ff7 a5bb fba4 b93d 756f 823d
00000380: cd84 21be 7df6 cdbd 5855 7b3d 2096 3a3e
00000390: 31a5 95bb 9998 78bc 38fb 2bbe d598 89bd
000003a0: 2965 8e3d 48bc 8fbd b28d 91bd 50d3 863d
000003b0: fd28 9b3d fd71 0ebe 9a8a 5fbd 36d8 003e
000003c0: 4db9 893c 21d3 ac3d f845 2c3c 3e70 843d
000003d0: 6903 06be dc62 0a3d 0668 6e3d 1676 f0bd
000003e0: ea2b 2ebc 6baf c83d e1df f0bd e4dc dabd
000003f0: 9740 2e3e bd20 713c 3e47 b63d a5c6 c93d

enc.layers.0.self_attn.in_proj_bias f4 [192]
0.054655354 -0.11513783 0.06554016 0.038361344 0.02453068 0.04432276 0.095635116 -0.054136183
-0.07814447 0.08269849 -0.0494634 0.08636169 -0.012198274 0.015993971 -0.030124554 0.05438518
0.1249156 -0.029865617 0.0544615 -0.071266904 0.073380515 0.10288803 0.0989392 -0.009799381
0.03296893 -0.023176659 0.17913052 0.080801256 -0.07694012 -0.08070721 0.065253325 0.0035458028
0.06737848 -0.04981768 0.015140811 -0.07825844 -0.04636282 0.010365211 0.051226895 0.054704152
-0.15166125 9.3414455e-05 0.038582634 0.07545612 -0.096526936 -0.088607684 -0.068491556 0.046448387
-0.058539357 0.034042656 0.048187762 -0.04339892 0.028225275 -0.045780618 -0.10846042 0.1454849
-0.014550478 0.021826165 0.09050893 -0.053758122 0.06776421 -0.01780256 0.115099266 0.053450342
-0.0008559719 -0.0011376481 -9.0083246e-05 -0.0005231404 0.00037536153 -0.00012658576 -0.0006450838 -0.00060304336
0.00044204175 -0.00060008763 0.0007833212 0.00082070706 -0.00026777186 -0.00012269153 -0.0008530648 0.00082829036
-0.0005119614 -0.00017606355 0.0010884524 -0.00013037953 -0.00063905964 0.00047573625 -0.00082371186 0.00046393895
-0.0006615205 -7.957069e-05 0.00019922382 -0.00097310724 -0.0001655198 0.00042169626 0.0001430924 -0.0007111645
-0.00018462 0.0017055427 0.00014860643 -0.0008320783 0.0005346483 -0.0004472798 0.00042275057 -0.0003942171
-0.00033871544 -0.00014557353 -0.000108660846 -0.0004325281 0.00024201517 -8.363309e-05 -0.0004090411 -0.00027090707
0.0010076038 0.00067649817 -0.0008287181 0.0026706373 -0.0009003793 0.0016899703 0.00029886863 0.00037941712
0.0011946022 -0.00016484392 5.6608256e-05 0.00054336846 0.00011445074 -0.0003398737 -0.0018712215 -0.00035985626
0.028051505 -0.024518732 0.025200834 0.030355155 0.026039328 -0.004108885 -0.023613375 -0.022948142
-0.021653838 0.020809023 -0.025077354 0.009169323 0.0217556 0.021759495 -0.0334629 -0.02497757
0.010393837 -0.013317035 -0.026058499 -0.05856921 0.02600895 -0.012588114 -0.021827687 -0.016133446
0.009005447 -0.014385505 0.019262437 -0.020476375 -0.017191999 -0.025078535 0.022750778 0.019260013
-0.01606886 0.01718383 0.02347601 0.01347279 -0.018179659 -0.05756259 0.021030614 0.022568626
0.028015673 -0.027005777 -0.000494055 -0.014509271 0.01969648 -0.0204412 -0.023065615 0.023817679
0.0016722084 0.022343917 0.025655761 -0.017269349 0.02303923 -0.015779542 -0.027709983 -0.0239474
-0.017137598 -0.02406498 -0.014292765 -0.037318747 0.01712708 -0.027126895 0.02077126 0.0130611565
00000000: 4bde 5f3d 62cd ebbd eb39 863d c920 1d3d
00000010: 91f4 c83c c88b 353d 58dc c33d e7bd 5dbd
00000020: 350a a0bd d35d a93d 229a 4abd 66de b03d
00000030: 45db 47bc ca05 833c c5c7 f6bc ffc2 5e3d
00000040: c0d3 ff3d bda8 f4bc 0613 5f3d 62f4 91bd
00000050: 8648 963d f6b6 d23d a3a0 ca3d 958d 20bc
00000060: 6e0a 073d fadc bdbc fe6d 373e 217b a53d
00000070: c892 9dbd d249 a5bd 89a3 853d b360 683b
00000080: bbfd 893d a00d 4cbd 2a11 783c f645 a0bd
00000090: f1e6 3dbd d9d2 293c 4bd3 513d 7611 603d
000000a0: 164d 1bbe 81e7 c338 d308 1e3d bd88 9a3d
000000b0: eaaf c5bd f277 b5bd 4d45 8cbd aa40 3e3d
000000c0: f7c6 6fbd 5070 0b3d 8860 453d 11c3 31bd
000000d0: b138 e73c 7584 3bbd 7f20 debd fef9 143e
000000e0: 2165 6ebc c9cc b23c bf5c b93d 7a31 5cbd
000000f0: f6c7 8a3d add6 91bc 2ab9 eb3d bfee 5a3d
00000100: 4d63 60ba 231d 95ba 13eb bcb8 5c23 09ba
00000110: 2ccc c439 1bbc 04b9 d71a 29ba 8e15 1eba
00000120: d7c1 e739 334f 1dba cc57 4d3a b824 573a
00000130: bb63 8cb9 c2a6 00b9 36a0 5fba a021 593a
00000140: 2635 06ba b39d 38b9 67aa 8e3a 7db6 08b9
00000150: 9186 27ba 3d6c f939 5eee 57ba d53c f339
00000160: e469 2dba 30df a6b8 bde6 5039 1f18 7fba
00000170: 628f 2db9 1d17 dd39 130b 1639 716d 3aba
00000180: 8e96 41b9 848c df3a 3cd3 1b39 d41f 5aba
00000190: a427 0c3a e180 eab9 9fa4 dd39 ecae ceb9
000001a0: 9e95 b1b9 19a5 18b9 d9e0 e3b8 f0c4 e2b9
000001b0: 74c5 7d39 2c64 afb8 9174 d6b9 8808 8eb9
000001c0: 9311 843a 0657 313a 553e 59ba dc05 2f3b
000001d0: 6f07 6cba fe81 dd3a 78b1 9c39 81ec c639
000001e0: 3394 9c3a f4d9 2cb9 a76e 6d38 d770 0e3a
000001f0: 4605 f038 1331 b2b9 c643 f5ba 17ab bcb9
00000200: 45cc e53c 82db c8bc fb71 ce3c 60ab f83c
00000210: 6e50 d53c d3a3 86bb d670 c1bc befd bbbc
00000220: 6463 b1bc af77 aa3c 066f cdbc ee3a 163c
00000230: cd38 b23c f840 b23c 6510 09bd c39d ccbc
00000240: e94a 2a3c b12f 5abc a278 d5bc 45e6 6fbd
00000250: b910 d53c 603e 4ebc facf b2bc 4a2a 84bc
00000260: 958b 133c 2eb1 6bbc 42cc 9d3c 12be a7bc
00000270: 3cd6 8cbc 8071 cdbc d75f ba3c 2dc7 9d3c
00000280: d8a2 83bc 1ac5 8c3c c350 c03c fabc 5c3c
00000290: 82ed 94bc c0c6 6bbd 6548 ac3c d7e1 b83c
000002a0: 2081 e53c 383b ddbc 7883 01ba 4bb8 6dbc
000002b0: 835a a13c 4e74 a7bc 1af4 bcbc 4b1d c33c
000002c0: 012e db3a 970a b73c 082c d23c 7378 8dbc
000002d0: c4bc bc3c 1944 81bc 0c00 e3bc 562d c4bc
000002e0: 2664 8cbc ec23 c5bc 342c 6abc 8bdb 18bd
000002f0: 174e 8c3c 3939 debc 7d28 aa3c 76fe 553c

enc.layers.0.self_attn.out_proj.weight f4 [64, 64]
-0.065667115 -0.033516213 -0.07616502 -0.09162567 -0.008543373 0.10373928 0.04828995 0.0015222979
0.09792608 0.096905485 -0.04571424 0.030542025 -0.094936796 0.085445344 0.063818924 0.012857658
-0.00014232952 0.07851515 0.06114514 0.08894385 0.030106818 0.07678124 0.05933427 0.07462361
-0.07472715 0.09804303 -0.006138379 0.10450263 0.07132241 0.054841332 -0.13598546 -0.051998537
0.12123014 -0.100938156 -0.05445196 0.0712989 -0.0835074 0.0028619715 -0.0062089963 0.03533665
-0.12524225 -0.022788616 -0.11986275 0.061196063 0.078526 -0.09639696 -0.027389737 -0.092701614
-0.03411179 -0.094823495 -0.106035985 0.061876144 -0.071398154 0.0005453419 0.12157999 0.12594846
0.023563765 0.13535133 -0.08707873 0.02037662 -0.011582414 0.09132017 -0.0043972447 -0.08186862
-0.008957964 0.058761153 -0.12084371 -0.094146095 0.0075402125 0.02097167 0.14420444 0.036725923
-0.06660188 -0.12683372 0.047145568 -0.0175785 -0.06779569 -0.03226708 0.14594734 0.03100048
-0.0339876 -0.045900412 -0.0692082 0.0013683619 -0.06192015 0.050802194 -0.01909289 -0.011915781
0.11620058 -0.044354316 -0.16062784 0.14549439 0.056205425 -0.06976991 0.014329498 0.048329618
0.102383085 -0.013274972 -5.9463946e-05 0.08374098 -0.05834711 -0.06784749 -0.051518053 -0.14757939
0.01852161 0.07841148 0.07424785 -0.00456497 -0.03156902 0.14461371 0.15764566 -0.13328293
-0.0571727 0.07633027 0.039975304 0.12405322 0.0035587389 0.020769991 -0.07939666 0.1400979
-0.10408384 0.051584862 0.106002696 0.18423054 -0.04238528 0.111316286 0.06027999 0.114356495
0.06742043 -0.027128331 0.02990314 -0.04913984 0.04747217 0.12504056 0.067914724 0.042783674
-0.13096589 0.08962704 -0.12808529 -0.091862336 0.14710122 0.10425566 -0.06899225 -0.15878813
0.068509094 -0.12141528 -0.05274786 -0.12517197 0.12535284 -0.036291447 -0.059853215 -0.042631462
0.02695039 0.0818311 -0.09362875 0.079437196 0.043115664 0.0052500917 0.003139286 -0.05045478
-0.07461796 0.073468655 0.062363166 -0.13672175 0.012444108 0.039441794 0.03695672 0.08075375
0.083829015 -0.07653042 0.13101842 -0.10614728 0.0548126 -0.011487097 -0.07062117 0.13333695
0.069769025 0.12413846 -0.07925007 -0.0028988202 -0.010276434 0.0358032 0.017031947 0.08498022
-0.000507196 -0.1446607 -0.103281885 -0.008776063 -0.08227377 -0.0072225393 0.154268 0.025768373
-0.042847786 0.026751556 -0.008444649 -0.08298561 -0.0050417753 0.07521861 0.1676659 0.14922105
-0.044202376 0.016855795 -0.07180415 -0.0051194266 0.018776799 -0.12436903 -0.0012025654 -0.068033345
-0.008085666 0.038025577 0.09890116 0.040800065 -0.10146435 -0.0781819 -0.068112545 0.11120411
-0.07431317 0.044417266 0.029359372 -0.0074356734 -0.089710474 -0.02681675 -0.13727883 0.015521769
0.13411106 0.10686892 -0.09385254 0.10575338 -0.13902912 0.05758676 -0.06511073 0.06597859
-0.081557184 -0.047022868 -0.123201706 -0.027558628 0.07328814 0.055068437 0.09459717 -0.012248816
-0.086906105 0.03111965 -0.11132131 -0.030172918 0.023950214 -0.11922194 -0.08004001 0.0745453
-0.060445666 0.04536674 0.015538487 0.12864229 -0.05018286 0.017487757 -0.023982223 0.08874601
00000000: 7b7c 86bd 4c48 09bd 68fc 9bbd 3da6 bbbd
00000010: 81f9 0bbc 4275 d43d afcb 453d d787 c73a
00000020: 788d c83d 6276 c63d db3e 3bbd 4533 fa3c
00000030: 396e c2bd f8fd ae3d 7fb3 823d eda8 523c
00000040: 4a3e 15b9 8dcc a03d 5473 7a3d 3128 b63d
00000050: 93a2 f63c 7c3f 9d3d 7e08 733d 43d4 983d
00000060: 8c0a 99bd c9ca c83d 7524 c9bb 7a05 d63d
00000070: 7c11 923d 4ea1 603d c63f 0bbe 6bfc 54bd
00000080: 8247 f83d aab8 cebd 0509 5fbd 2805 923d
00000090: ed05 abbd ea8f 3b3b d674 cbbb 2abd 103d
000000a0: 813f 00be 31af babc 9a7a f5bd b9a8 7a3d
000000b0: 3dd2 a03d c56b c5bd 7160 e0bc 58da bdbd
000000c0: ceb8 0bbd d232 c2bd 6529 d9bd d771 7d3d
000000d0: 3239 92bd 47f5 0e3a eefe f83d a2f8 003e
000000e0: cc08 c13c 8a99 0a3e 5556 b2bd dfec a63c
000000f0: 2ac4 3dbc 1206 bb3d c316 90bb bcaa a7bd
00000100: 6dc4 12bc 89af 703d e87c f7bd abcf c0bd
00000110: e313 f73b c8cc ab3c 54aa 133e ec6d 163d
00000120: 9166 88bd b3e0 01be b61b 413d c900 90bc
00000130: 77d8 8abd 7c2a 04bd 3873 153e b8f4 fd3c
00000140: 9536 0bbd 1202 3cbd 07bd 8dbd 9b5a b33a
00000150: fc9f 7dbd f615 503d b168 9cbc 683a 43bc
00000160: 92fa ed3d dfac 35bd a07b 24be 7bfc 143e
00000170: a937 663d 87e3 8ebd 45c6 6a3c 47f5 453d
00000180: 39ae d13d 457f 59bc ed68 79b8 6480 ab3d
00000190: 61fd 6ebd a0f3 8abd 9804 53bd 0d1f 17be
000001a0: a2ba 973c 3396 a03d 420f 983d be95 95bb
000001b0: 844e 01bd 9e15 143e dd6d 213e 527b 08be
000001c0: ec2d 6abd 0b53 9c3d 25bd 233d 9d0f fe3d
000001d0: bb39 693b d425 aa3c b79a a2bd d375 0f3e
000001e0: e929 d5bd a64a 533d f117 d93d eea6 3c3e
000001f0: 309c 2dbd cbf9 e33d 27e8 763d bd33 ea3d
00000200: b913 8a3d 3c3c debc 6ef7 f43c db46 49bd
00000210: 2e72 423d a20a 003e e016 8b3d ef3d 2f3d
00000220: ec1b 06be 628e b73d ca28 03be 5222 bcbd
00000230: b4a1 163e fe83 d53d cf4b 8dbd 5b99 22be
00000240: 7f4e 8c3d 93a8 f8bd 240e 58bd 152d 00be
00000250: 7f5c 003e 57a6 14bd a528 75bd 549e 2ebd
00000260: 10c7 dc3c 1097 a73d 6ec0 bfbd f8af a23d
00000270: 0d9a 303d f608 ac3b 7bbc 4d3b aca9 4ebd
00000280: 4dd1 98bd bc76 963d 8570 7f3d c900 0cbe
00000290: 5fe2 4b3c b88d 213d ee5f 173d 3962 a53d
000002a0: 8cae ab3d fbbb 9cbd b129 063e bf63 d9bd
000002b0: 2d83 603d 6034 3cbc d5a1 90bd 7b89 083e
000002c0: 10e3 8e3d 4e3c fe3d dc4d a2bd 22fa 3dbb
000002d0: 7d5e 28bc 60a6 123d 9586 8b3c 1c0a ae3d
000002e0: 59f5 04ba ef21 14be 7485 d3bd 7ac9 0fbc
000002f0: 267f a8bd 0dab ecbb 6ef8 1d3e 3218 d33c
00000300: 2981 2fbd 1426 db3c 6d5b 0abc 5cf4 a9bd
00000310: 7a35 a5bb 370c 9a3d 9cb0 2b3e 67cd 183e
00000320: 8d0d 35bd 2a15 8a3c 0e0e 93bd ddc0 a7bb
00000330: cdd1 993c 31b5 febd 669f 9dba 1155 8bbd
00000340: be79 04bc b5c0 1b3d b18c ca3d f81d 273d
00000350: 8bcc cfbd d51d a0bd 977e 8bbd fbbe e33d
00000360: 8131 98bd e1ee 353d 1183 f03c f3a6 f3bb
00000370: 20ba b7bd cdae dbbc d292 0cbe 054f 7e3c
00000380: 6954 093e 18de da3d c335 c0bd 3a95 d83d
00000390: a65d 0ebe 18e0 6b3d c658 85bd c81f 873d
000003a0: 7407 a7bd 0d9b 40bd 2d51 fcbd a2c2 e1bc
000003b0: 1818 963d 718f 613d 29bc c13d 42af 48bc
000003c0: d4fb b1bd a3ee fe3c 6dfc e3bd 322d f7bc
000003d0: 3d33 c43c a22a f4bd 04ec a3bd 35ab 983d
000003e0: e095 77bd 7ad2 393d 2395 7e3c ceba 033e
000003f0: 8b8c 4dbd 7c42 8f3c 5e76 c4bc 78c0 b53d

enc.layers.0.self_attn.out_proj.bias f4 [64]
-0.019089771 -0.02195841 0.021916397 -0.019925125 -0.018502425 0.02092553 0.015377722 0.016453745
-0.022952247 -0.019199561 -0.016574591 0.00850074 0.018640308 0.018793814 0.020911764 -0.02177737
-0.012755196 0.01469924 0.01965224 0.015883408 -0.018978443 -0.02088508 -0.018411094 0.01461026
-0.020459354 -0.00018915466 -0.023897206 0.0128323715 0.021401376 -0.018045038 0.018756201 -0.018569173
-0.01663648 -0.025182571 -0.017316071 0.019625284 0.014529984 0.020585606 -0.008228095 -0.019198658
0.017861899 0.019644946 -0.016252678 0.004620845 0.02276912 -0.021758474 0.019008731 -0.014373018
-0.025431102 0.018220238 -0.016780408 -0.019652538 -0.018493718 -0.02066833 -0.017804453 0.013219365
-0.010338311 0.021976642 0.016955046 -0.017291432 -0.018508233 -0.013649539 0.015408451 -0.020362757
00000000: 2762 9cbc 20e2 b3bc 048a b33c 043a a3bc
00000010: 6692 97bc 046c ab3c d7f2 7b3c 01ca 863c
00000020: 5a06 bcbc 6648 9dbc 70c7 87bc b046 0b3c
00000030: 8fb3 983c 7cf5 993c 264f ab3c 7466 b2bc
00000040: 2bfb 50bc 15d5 703c bcfd a03c ec1d 823c
00000050: ae78 9bbc 3017 abbc ddd2 96bc df5f 6f3c
00000060: 609a a7bc d157 46b9 13c4 c3bc de3e 523c
00000070: f051 af3c 30d3 93bc 9ba6 993c 611e 98bc
00000080: 3a49 88bc ae4b cebc 6fda 8dbc 34c5 a03c
00000090: 2c0f 6e3c 25a3 a83c 22cf 06bc 8146 9dbc
000000a0: 1e53 923c 70ee a03c 5624 85bc 756a 973b
000000b0: 4e86 ba3c d43e b2bc 33b8 9b3c cf7c 6bbc
000000c0: e354 d0bc 9c42 953c 1177 89bc 5cfe a0bc
000000d0: 2380 97bc a150 a9bc a5da 91bc 0996 583c
000000e0: 0562 29bc 5c08 b43c 4fe5 8a3c c3a6 8dbc
000000f0: 949e 97bc 51a2 5fbc ba73 7c3c cccf a6bc

enc.layers.0.linear1.weight f4 [256, 64]
-0.106323645 0.027378682 0.110050865 -0.11102137 -0.14724441 0.13246332 0.020445846 -0.13238166
-0.079922706 0.090853184 0.052113444 0.031689435 -0.02920406 0.038691804 -0.031390112 -0.07439921
0.1261724 -0.13956624 -0.0825265 -0.12017148 -0.07025442 -0.07280203 0.056352984 0.05171592
0.07701787 -0.014983405 -0.031535592 -0.09609507 -0.06346341 -0.08913292 0.026592419 -0.11820096
0.0966644 0.057366773 0.033699855 -0.004295342 0.15500104 -0.04707715 -0.019705256 0.013072222
0.09943655 -0.06811591 0.105952434 0.07115781 0.07440093 -0.07035593 -0.062214345 0.004517229
-0.020178722 0.12472444 0.05783332 -0.10026885 -0.025640426 -0.0715951 0.04719383 -0.07055476
-0.05163021 -0.023608327 0.062319454 0.039660756 -0.054662123 0.09174512 -0.074759014 -0.042152625
0.07418931 0.07304167 0.022192942 0.026719082 -6.707661e-05 -0.072184615 -0.03945338 0.119840026
0.15538308 0.11363983 0.00033701016 0.060675558 0.11450491 -0.00036814695 -0.0934676 -0.11399581
-0.026428863 0.024014749 0.09830542 -0.06293941 -0.066073015 0.10286758 -0.012052107 0.059712466
-0.061809927 -0.13736953 0.0399006 -0.16079421 -0.082434066 -0.081443004 0.0739441 -0.07416794
-0.12833013 -0.007661374 -0.1036482 0.030505635 0.073210165 0.05923117 -0.065231375 -0.095655255
-0.042491447 0.07078836 -0.09488459 0.08026474 -0.07425613 0.10429033 0.06447416 0.058065087
-0.05208673 -0.015260461 0.07214059 -0.04777295 0.0026964634 -0.018677821 0.1072629 0.06724273
0.049021345 0.013087913 -0.15447411 0.06361332 -0.03015202 0.12121432 0.06532324 0.061288927
-0.10895506 0.018893335 -0.04673924 0.15062222 0.04850335 -0.027444355 -0.026396263 0.11052043
-0.0119980145 0.03202833 -0.06441801 0.09599762 -0.10133385 0.023837833 0.04960095 0.11439728
-0.09823261 0.12716672 -0.027086899 0.12809871 0.085314974 0.033438493 0.10547029 0.022824397
0.11297631 0.052623283 0.11274035 -0.1356977 -0.06640341 0.093416385 -0.10017391 0.047442283
0.021180818 -0.0034863355 0.08455925 -0.0306188 0.08576899 -0.108900264 0.010174396 0.10002603
0.0975512 0.08239381 -0.09717486 -0.027203765 0.0054317582 0.049695425 -0.02984653 -0.017069146
-0.12292023 0.053855218 -0.121409744 -0.015234844 -0.076840766 -0.00015656109 -0.083723694 -0.04081444
0.06949414 0.13782679 -0.03772452 -0.019707058 -0.056467827 0.0047858916 -0.075790964 -0.112271614
-0.13992664 0.04491238 0.12139183 0.0016357367 -0.104246154 0.067496724 -0.011335395 0.028629458
-0.06757443 0.013598078 -0.009821207 -0.1475539 0.0688536 -0.007968412 0.043640517 -0.049893264
-0.07939012 -0.08719078 0.0946001 0.10040445 -0.04044185 0.0069809137 0.038281213 -0.07251989
-0.0657758 0.074021436 0.04446839 -0.035940297 0.13898434 -0.08161315 -0.01768996 -0.031073248
0.071743056 -0.08288614 0.059005145 0.00398322 0.028456181 0.027493201 0.11813747 0.027361048
-0.014465257 -0.05060568 -0.0037557455 0.00037973517 -0.07257568 -0.093665026 0.092681654 -0.099306755
0.053684495 -0.005714832 -0.07178268 -0.13797796 -0.0077977907 0.02052018 -0.08190076 -0.00071605085
0.13621086 0.042409047 -0.04855521 0.0069211684 0.008560592 0.13141897 -0.09176831 0.033625513
00000000: 36c0 d9bd 4249 e03c 5962 e13d 2c5f e3bd
00000010: 3dc7 16be 77a4 073e 0c7e a73c 0f8f 07be
00000020: 84ae a3bd 3c11 ba3d e874 553d c8cc 013d
00000030: 5a3d efbc 4c7b 1e3d eb92 00bd 9d5e 98bd
00000040: 5633 013e 74ea 0ebe a703 a9bd 771c f6bd
00000050: 8de1 8fbd 3b19 95bd 63d2 663d 13d4 533d
00000060: 8cbb 9d3d f57c 75bc 772b 01bd 7ecd c4bd
00000070: 1bf9 81bd 528b b6bd 58d8 d93c 5813 f2bd
00000080: fcf7 c53d 6cf9 6a3d dc08 0a3d f1bf 8cbb
00000090: 98b8 1e3e f8d3 40bd eb6c a1bc df2c 563c
000000a0: 64a5 cb3d 5b80 8bbd 97fd d83d 30bb 913d
000000b0: 845f 983d c516 90bd 78d4 7ebd 4305 943b
000000c0: d94d a5bc 876f ff3d a2e2 6c3d c159 cdbd
000000d0: df0b d2bc 74a0 92bd 514e 413d 047f 90bd
000000e0: 337a 53bd 4066 c1bc af42 7f3d 5173 223d
000000f0: 64e5 5fbd dee4 bb3d 411b 99bd 3ba8 2cbd
00000100: 91f0 973d df96 953d f9cd b53c fae1 da3c
00000110: 7bab 8cb8 87d5 93bd de99 21bd b06e f53d
00000120: be1c 1f3e 00bc e83d bdb0 b039 ef86 783d
00000130: 8d81 ea3d d903 c1b9 f16b bfbd a376 e9bd
00000140: 5881 d8bc 94ba c43c 5a54 c93d 61e6 80bd
00000150: 4a51 87bd 3dac d23d 3376 45bc 0f95 743d
00000160: 682c 7dbd 99aa 0cbe d06e 233d 3da7 24be
00000170: 31d3 a8bd 97cb a6bd 0170 973d 5ce5 97bd
00000180: f968 03be 430c fbbb 8245 d4bd f4e6 f93c
00000190: 36ef 953d 629c 723d 0798 85bd e7e6 c3bd
000001a0: 830b 2ebd 7df9 903d da52 c2bd d761 a43d
000001b0: 9913 98bd 2b96 d53d 070b 843d a8d5 6d3d
000001c0: e558 55bd 0307 7abc 72be 933d 92ad 43bd
000001d0: 26b7 303b 3b02 99bc a7ac db3d 8eb6 893d
000001e0: 9bca 483d b06e 563c 762e 1ebe b347 823d
000001f0: 5e01 f7bc 373f f83d 31c8 853d 190a 7b3d
00000200: d523 dfbd 32c6 9a3c a571 3fbd b63c 1a3e
00000210: 73ab 463d fcd2 e0bc fa3c d8bc 8958 e23d
00000220: 5293 44bc 2330 033d 97ed 83bd 669a c43d
00000230: 1f88 cfbd 8f47 c33c 5e2a 4b3d 1f49 ea3d
00000240: 2e2e c9bd fe37 023e 58e5 ddbc 4f2c 033e
00000250: 9eb9 ae3d cdf6 083d cf00 d83d 3bfa ba3c
00000260: 2060 e73d 838b 573d 6ae4 e63d 56f4 0abe
00000270: 83fe 87bd 1751 bf3d fb27 cdbd d752 423d
00000280: 6583 ad3c 017b 64bb 662d ad3d 47d4 fabc
00000290: a7a7 af3d 1a07 dfbd 83b2 263c 72da cc3d
000002a0: ecc8 c73d 16be a83d 9d03 c7bd 6eda debc
000002b0: e4fc b13b 6e8d 4b3d b680 f4bc 98d4 8bbc
000002c0: 9abd fbbd 4a97 5c3d aca5 f8bd 919b 79bc
000002d0: b15e 9dbd 8c2a 24b9 5477 abbd 0b2d 27bd
000002e0: f252 8e3d 7722 0d3e 0785 1abd b270 a1bc
000002f0: cf4a 67bd f8d2 9c3b 4b38 9bbd a9ee e5bd
00000300: ee48 0fbe 0bf6 373d 489c f83d 3766 d63a
00000310: 027f d5bd b93b 8a3d 18b8 39bc 5388 ea3c
00000320: 7664 8abd 79ca 5e3c 21e9 20bc 5f18 17be
00000330: 1e03 8d3d f18d 02bc 66c0 323d e15c 4cbd
00000340: 4a97 a2bd 1491 b2bd b2bd c13d d9a0 cd3d
00000350: 5aa6 25bd 26c0 e43b c3cc 1c3d 4f85 94bd
00000360: 76b5 86bd 8d98 973d 7d24 363d 2236 13bd
00000370: e951 0e3e cc24 a7bd 89ea 90bc 538d febc
00000380: 06ee 923d 35c0 a9bd 61af 713d ac85 823b
00000390: f01c e93c 6c39 e13c 0ff2 f13d 4724 e03c
000003a0: afff 6cbc e747 4fbd f422 76bb 3117 c739
000003b0: 8fa2 94bd 73d3 bfbd e1cf bd3d 5761 cbbd
000003c0: 46e4 5b3d 7c43 bbbb cc02 93bd 184a 0dbe
000003d0: 9c84 ffbb f019 a83c 96bb a7bd 5cb5 3bba
000003e0: dc7a 0b3e 1cb5 2d3d d4e1 46bd f8ca e23b
000003f0: ba41 0c3c b292 063e 06f1 bbbd e8ba 093d

enc.layers.0.linear1.bias f4 [256]
0.06168582 0.050575685 0.038185347 0.033983115 -0.09652751 0.09970341 0.018677266 0.029679148
-0.053688295 -0.09154263 -0.09263323 -0.09037574 0.11318444 0.029832596 -0.013492349 0.057776555
0.016058724 -0.005131339 0.013402285 0.05290849 -0.09246637 -0.021779947 0.045797687 -0.059750274
0.11161755 -0.06647136 -0.09608485 -0.08076534 0.01327153 -0.043558683 -0.0081247315 0.08099266
0.13556719 0.051218282 -0.03228428 -0.13001826 0.041223455 0.14057577 0.10432035 0.103095286
0.09852441 -0.09533598 -0.07387973 -0.06260215 0.018693257 0.14410222 -0.08858329 0.14062262
-0.06992862 -0.035971567 -0.07113663 -0.029759077 0.116620556 0.06344326 -0.007094384 -0.03562957
-0.094162956 0.12722921 -0.10826456 -0.05260026 -0.040329643 0.12493025 -0.029277889 0.0043735085
-0.035687637 -0.023105904 -0.048416946 -0.08421621 -0.058723 -0.009825708 -0.02668656 -0.09773852
0.030503195 0.062826075 0.060879856 -0.03011144 0.11888971 0.11533528 0.116854385 0.051763136
0.008422195 0.009003846 0.1262702 0.02465808 0.04212323 0.029217152 -0.11595153 -0.043093342
0.063219704 0.043043394 -0.007413261 0.093712725 -0.057705004 0.047739763 -0.053241096 -0.069757
-0.07102561 0.13783316 -0.04155139 -0.04556635 -0.0822914 0.11629562 -0.033098925 0.087336764
-0.0378813 0.09796559 -0.020751616 0.01832611 0.00570001 -0.03218475 0.10741832 0.11686884
-0.043989673 0.064808026 -0.06826616 0.01671454 -0.07387035 -0.07351988 -0.017974379 0.007222713
-0.07494224 0.06781551 0.029277578 -0.08458159 0.118923105 0.0007118803 -0.018039024 -0.07803837
-0.03620911 -0.12665085 0.041027386 0.12979975 0.043035936 0.029843982 0.08286152 0.022724176
0.04734861 -0.05072045 0.12974659 0.033625145 -0.03358108 -0.09974374 0.096376345 -0.108515814
-0.05352873 0.08664242 0.07750968 -0.08653773 0.067952074 -0.016572861 -0.01060724 0.054584526
0.05601754 -0.0802826 -0.027851168 0.06561602 -0.0241803 0.094513714 0.064709686 -0.08883298
0.0963982 -0.05689732 -0.034528106 0.10233987 0.08419953 -0.06972848 -0.00718213 0.02074518
0.08735226 0.02345836 -0.080863655 0.075783215 0.11788335 -0.06782737 -0.06809631 0.021957316
-0.04075793 -0.022231996 0.01325446 0.01284515 0.090969615 -0.037584126 0.08973015 -0.014444803
-0.0077107977 -0.06018423 -0.07582641 -0.03648252 -0.086168475 0.10308111 0.1258821 0.022253532
0.0887258 0.08645195 -0.079553075 0.12087331 0.08647896 -0.039116856 -0.08862833 0.1074285
0.0043686936 0.09014463 0.077176064 -0.04190725 0.074887544 -0.0035968064 -0.06932396 -0.01100803
0.12673058 0.10283457 0.07404279 0.004687848 0.11747867 0.003972501 0.09925185 -0.10679904
0.034909833 -0.004234215 -0.1128168 -0.039012015 -0.028691426 -0.036941055 -0.04732142 -0.08889074
-0.06779348 0.09563383 -0.10323209 -0.060495757 0.03924974 0.1410788 0.07929073 0.11976022
-0.032779545 -0.05069693 -0.06913497 0.059115276 0.11826973 -0.021578442 -0.090480894 -0.05732561
-0.05502504 0.00259891 -0.019158859 0.06963758 0.0066019236 -0.0036348072 0.0627525 0.007056222
-0.07193757 -0.022995897 0.04172963 -0.009990764 0.08018153 0.058976553 0.0068168226 0.14145401
00000000: 45aa 7c3d 7328 4f3d 3d68 1c3d e131 0b3d
00000010: 37b0 c5bd 4d31 cc3d 1101 993c af21 f33c
00000020: 42e8 5bbd b47a bbbd 7eb6 bdbd ea16 b9bd
00000030: 3ecd e73d 7d63 f43c 030f 5dbc 1ca7 6c3d
00000040: 968d 833c cb24 a8bb 4295 5b3c 93b6 583d
00000050: 025f bdbd dc6b b2bc 5b96 3b3d b4bc 74bd
00000060: be97 e43d 2322 88bd 22c8 c4bd 4c68 a5bd
00000070: d570 593c 976a 32bd 981d 05bc 7bdf a53d
00000080: 20d2 0a3e 43ca 513d 853c 04bd 8223 05be
00000090: edd9 283d 18f3 0f3e e8a5 d53d 9f23 d33d
000000a0: 2ac7 c93d 833f c3bd 424e 97bd 8e35 80bd
000000b0: 9a22 993c 888f 133e 286b b5bd 60ff 0f3e
000000c0: bc36 8fbd ec56 13bd 15b0 91bd 4fc9 f3bc
000000d0: c2d6 ee3d 8aee 813d 0278 e8bb 50f0 11bd
000000e0: 82d8 c0bd 6048 023e cfb9 ddbd 5f73 57bd
000000f0: b230 25bd 6edb ff3d 2fd8 efbc a64f 8f3b
00000100: 332d 12bd 9848 bdbc d950 46bd 8c79 acbd
00000110: 8787 70bd 02fc 20bc c69d dabc 222b c8bd
00000120: d6e1 f93c f5aa 803d 285d 793d 44ac f6bc
00000130: 737c f33d e734 ec3d 5a51 ef3d 9505 543d
00000140: 3ffd 093c de84 133c fa4c 013e beff c93c
00000150: 6889 2c3d cf58 ef3c ff77 edbd a582 30bd
00000160: 5579 813d 454e 303d f1ea f2bb 75ec bf3d
00000170: 155c 6cbd c58a 433d 5613 5abd c2dc 8ebd
00000180: e075 91bd 2324 0d3e ca31 2abd c8a3 3abd
00000190: 6588 a8bd 662c ee3d bd92 07bd 9edd b23d
000001a0: 6c29 1bbd 2fa2 c83d 4bff a9bc a320 963c
000001b0: 26c7 ba3b 28d4 03bd 23fe db3d ee58 ef3d
000001c0: 842e 34bd 12ba 843d 21cf 8bbd eeec 883c
000001d0: 5749 97bd 9791 96bd 013f 93bc 82ac ec3b
000001e0: 517b 99bd dce2 8a3d 88d7 ef3c 1d39 adbd
000001f0: f58d f33d 7a9d 3a3a 93c6 93bc 95d2 9fbd
00000200: 0150 14bd c3b0 01be 550c 283d 3aea 043e
00000210: 7346 303d 5e7b f43c 4db3 a93d 0d28 ba3c
00000220: 9ef0 413d 3fc0 4fbd 4adc 043e 85ba 093d
00000230: 518c 09bd 7246 ccbd f660 c53d 8a3d debd
00000240: f140 5bbd 9571 b13d 65bd 9e3d b23a b1bd
00000250: 752a 8b3d cfc3 87bc fdc9 2dbc 0694 5f3d
00000260: a672 653d 346b a4bd 2228 e4bc b161 863d
00000270: c415 c6bc 6890 c13d 8386 843d 11ee b5bd
00000280: 6b6c c53d 2a0d 69bd 586d 0dbd 9197 d13d
00000290: ce70 ac3d cecd 8ebd 1358 ebbb ccf1 a93c
000002a0: bee5 b23d bf2b c03c d89b a5bd 3b34 9b3d
000002b0: d36c f13d 13e9 8abd 1476 8bbd d4df b33c
000002c0: caf1 26bd e01f b6bc 3c29 593c 7774 523c
000002d0: 474e ba3d d0f1 19bd 71c4 b73d e5a9 6cbc
000002e0: dcaa fcbb bd83 76bd e04a 9bbd b26e 15bd
000002f0: 1979 b0bd 301c d33d 3de7 003e 0a4d b63c
00000300: dfb5 b53d b80d b13d b9ec a2bd 6d8c f73d
00000310: e21b b13d ff38 20bd c582 b5bd 7903 dc3d
00000320: 4227 8f3b bf9d b83d 7c0e 9e3d f0a6 2bbd
00000330: a45e 993d 66b8 6bbb b8f9 8dbd 065b 34bc
00000340: a9c5 013e ee9a d23d bfa3 973d 859c 993b
00000350: a898 f03d c12b 823b 8e44 cb3d 75b9 dabd
00000360: 9dfd 0e3d 2bbf 8abb 7f0c e7bd 10cb 1fbd
00000370: 480a ebbc 814f 17bd 1bd4 41bd 590c b6bd
00000380: 4fd7 8abd abdb c33d 596b d3bd 66ca 77bd
00000390: 56c4 203d f676 103e 2e63 a23d d944 f53d
000003a0: d843 06bd 96a7 4fbd a396 8dbd dc22 723d
000003b0: 6637 f23d 46c5 b0bc 0c4e b9bd 42ce 6abd
000003c0: f061 61bd 7952 2a3b 0af3 9cbc 269e 8e3d
000003d0: f354 d83b f235 6ebb 6284 803d e137 e73b
000003e0: 0154 93bd e461 bcbc b0ec 2a3d 4db0 23bc
000003f0: 3736 a43d 6691 713d a75f df3b 52d9 103e

enc.layers.0.linear2.weight f4 [64, 256]
0.026028218 0.044303488 -0.0699841 0.05621747 -0.046671912 0.026393274 -0.05746339 0.0052020615
-0.032765035 0.016587067 -0.050170224 0.02595491 -0.021517979 -0.0154854385 -0.044728033 -0.03584099
-0.03980196 -0.035832245 0.0106586665 -0.04711678 -0.0059571424 -0.014976895 0.04955043 0.046702202
-0.0016530503 0.03309318 -0.043293327 0.047631 -0.061817706 -0.012053618 0.017556278 0.040787265
-0.028826002 -0.003930697 0.014717365 0.008528114 0.00823067 -0.012631449 -0.005150341 0.031232724
0.021405129 0.007865203 -0.060873322 0.010040142 -0.03945363 0.04433334 -0.017256755 -0.049203515
-0.031232236 0.018471768 -0.03197933 0.0035884546 -0.06339078 -0.06869784 0.047963273 -0.003095651
0.03395972 0.026891008 -0.027838288 -0.04106219 0.024223315 -0.048263635 -0.053699456 0.015168081
0.0051681255 -0.029345853 -0.04403676 0.021053202 -0.011468796 -0.019511022 -0.06028193 -0.016885376
0.04618555 -0.06168982 -0.07875319 0.0075869546 -0.03140389 0.0206257 -0.06928188 -0.066994436
-0.070393674 0.008091353 -0.05352356 -0.025134716 0.038334522 -0.061625767 0.038211517 0.0014086418
-0.024325656 -0.01689561 -0.0005163726 0.004077548 0.008706388 -0.044268534 -0.0574813 -0.054661423
-0.037224807 0.0015599056 0.01401471 0.05420498 0.0060795294 -0.0311009 0.00745215 -0.0528925
0.0055549643 -0.0037260267 -0.011627457 -0.060525365 -0.0028903137 0.0093534505 -0.039568286 -0.040547248
-0.054524094 -0.057870064 0.015310956 -0.013456839 -0.030643558 -0.064832434 0.021385543 -0.08059465
-0.008088022 -0.050850097 0.0027957777 -0.043372586 0.008685388 0.035769626 -0.032755967 0.010995338
-0.022363316 0.0461927 0.0043000462 -0.04300897 -0.024289157 0.03506695 -0.05728875 -0.0021986302
-0.017772721 -0.052836303 0.013862272 0.03385035 -0.07110328 -0.05831288 -0.022335486 -0.030550336
0.03125759 -0.020773739 -0.02279442 0.010544983 0.022115767 -0.02014861 0.015405807 -0.056069147
-0.021299237 0.029667215 -0.028883174 -0.019167436 0.034371343 -0.055467393 -0.04999974 0.028899934
-0.02555414 0.023754723 -0.046669576 0.014986254 -0.057740528 0.006037292 -0.07172526 -0.04965815
0.0073990906 -0.036578033 0.0069755455 -0.008730576 -0.03163601 -0.042618126 -0.00680965 -0.05829438
-0.046476815 0.0022670857 0.03666129 -0.043247584 0.02608129 -0.025570873 0.04243045 -0.044733383
0.038114347 0.026897399 0.041585233 -0.0061953724 -0.04953458 -0.034127433 -0.044075236 0.0056698844
0.011360166 0.02029315 -0.053853903 0.003432755 0.021255441 -0.038385723 -0.049027536 -0.031401563
0.017437512 -0.02875556 -0.008922123 0.006778192 0.02186751 0.03638252 -0.049556207 -0.05017559
-0.07420607 0.0387518 0.054999176 0.01374228 0.0059869047 0.0419122 -0.058526456 -0.06563674
-0.062819295 -0.061686974 -0.0043419045 0.0041766553 0.030984038 0.02274366 -0.05713479 0.011968392
-0.052751563 -0.07222612 -0.036883987 -0.030651856 -0.044764586 0.002773869 0.030431468 -0.012113963
-0.008292633 -0.05350209 -0.017817054 0.04134792 -0.049859837 0.03057341 0.03067769 -0.007221511
0.025931602 0.008390729 0.02052077 -0.068205826 0.009666485 0.044655122 -0.07378785 0.033667058
-0.06213402 -0.05470772 -0.06894483 -0.025125185 -0.0024338728 -0.005541741 -0.05426308 -0.010434923
00000000: 2139 d53c 9377 353d d353 8fbd 4a44 663d
00000010: 0c2b 3fbd b536 d83c bb5e 6bbd 0e76 aa3b
00000020: a134 06bd 9ae1 873c 4b7f 4dbd 649f d43c
00000030: 7946 b0bc a3b6 7dbc be34 37bd 00ce 12bd
00000040: 6107 23bd d5c4 12bd b0a1 2e3c 86fd 40bd
00000050: 2234 c3bb a761 75bc 64f5 4a3d cf4a 3f3d
00000060: 2aab d8ba b78c 073d 5854 31bd b918 433d
00000070: 9034 7dbd 8a7c 45bc 2fd2 8f3c 8c10 273d
00000080: 8224 ecbc 14cd 80bb 1a21 713c 81b9 0b3c
00000090: efd9 063c 23f4 4ebc 31c4 a8bb c5db ff3c
000000a0: cf59 af3c 0ddd 003c 4e56 79bd 687f 243c
000000b0: 219a 21bd e096 353d 0a5e 8dbc a089 49bd
000000c0: bfda ffbc 1b52 973c c2fc 02bd 472c 6b3b
000000d0: 06d3 81bd 74b1 8cbd 2375 443d 68e0 4abb
000000e0: 5919 0b3d 884a dc3c 1f0d e4bc d430 28bd
000000f0: f96f c63c 17b0 45bd f6f3 5bbd 8b83 783c
00000100: 6159 a93b b766 f0bc e45f 34bd c477 ac3c
00000110: 9ee7 3bbc 94d5 9fbc 2fea 76bd 3353 8abc
00000120: 0f2d 3d3d 77ae 7cbd 5a49 a1bd fd9b f83b
00000130: 5ea1 00bd 3af7 a83c a9e3 8dbd 6134 89bd
00000140: 8f2a 90bd 9891 043c 853b 5bbd 52e7 cdbc
00000150: a904 1d3d 4d6b 7cbd ae83 1c3d 2da2 b83a
00000160: 9946 c7bc aa68 8abc 2e5d 07ba f49c 853b
00000170: 3da5 0e3c ec52 35bd 8371 6bbd a8e4 5fbd
00000180: 0a79 18bd bf75 cc3a f49d 653c 0b06 5e3d
00000190: ca36 c73b 51c7 febc 2a31 f43b cea5 58bd
000001a0: 6b06 b63b 5b30 74bb 1781 3ebc 72e9 77bd
000001b0: 6b6b 3dbb 373f 193c 5b12 22bd df14 26bd
000001c0: a854 5fbd 2909 6dbd ceda 7a3c 137a 5cbc
000001d0: 3308 fbbc dec6 84bd bc30 af3c cf0e a5bd
000001e0: 9f83 04bc 3148 50bd 5e39 373b 74a7 31bd
000001f0: 284d 0e3c 2c83 123d 1f2b 06bd ca25 343c
00000200: 4633 b7bc 8e34 3d3d 67e7 8c3b 2c2a 30bd
00000210: 0efa c6bc 5da2 0f3d 9ca7 6abd e516 10bb
00000220: 1998 91bc e16a 58bd 951e 633c aaa6 0a3d
00000230: 999e 91bd 7dd9 6ebd e9f8 b6bc b344 fabc
00000240: f507 003d b02d aabc 5dbb babc ddc4 2c3c
00000250: 202c b53c b30e a5bc a368 7c3c c3a8 65bd
00000260: bd7b aebc a908 f33c 689c ecbc 0705 9dbc
00000270: f7c8 0c3d c731 63bd 87cc 4cbd 8ebf ec3c
00000280: ea56 d1bc 4499 c23c 9928 3fbd e888 753c
00000290: 5581 6cbd 7ad4 c53b b1e4 92bd 5866 4bbd
000002a0: 1274 f23b d9d2 15bd 1e93 e43b b10a 0fbc
000002b0: c394 01bd 5890 2ebd 7c23 dfbb 16c6 6ebd
000002c0: 795e 3ebd 6393 143b 262a 163d 6124 31bd
000002d0: 6ea8 d53c 027a d1bc 8dcb 2d3d 5a3a 37bd
000002e0: ca1d 1c3d ef57 dc3c 4755 2a3d 8d02 cbbb
000002f0: c6e4 4abd 35c9 0bbd 3c88 34bd 70ca b93b
00000300: fd1f 3a3c d23d a63c e995 5cbd 12f8 603b
00000310: e41f ae3c 593a 1dbd 19d1 48bd ed9e 00bd
00000320: 1dd9 8e3c c890 ebbc 192e 12bc 981b de3b
00000330: 7e23 b33c d605 153d 73fb 4abd eb84 4dbd
00000340: 5af9 97bd 35ba 1e3d d146 613d 4d27 613c
00000350: cc2d c43b 21ac 2b3d 70b9 6fbd 8e6c 86bd
00000360: 67a7 80bd 7bab 7cbd 8946 8ebb 53dc 883b
00000370: 3dd2 fd3c e950 ba3c 2b06 6abd 1317 443c
00000380: 0612 58bd 4aeb 93bd aa13 17bd 9a19 fbbc
00000390: 125b 37bd cdc9 353b 6a4b f93c a579 46bc
000003a0: d3dd 07bc 0225 5bbd 12f5 91bc 705c 293d
000003b0: d439 4cbd 1775 fa3c c74f fb3c 6da2 ecbb
000003c0: 836e d43c 4579 093c 2d1b a83c 7faf 8bbd
000003d0: 2d60 1e3c 4ae8 363d 161e 97bd 78e6 093d
000003e0: 3e80 7ebd 3415 60bd f232 8dbd 55d3 cdbc
000003f0: 9c81 1fbb 7e97 b5bb f742 5ebd 3df7 2abc

enc.layers.0.linear2.bias f4 [64]
0.018130006 -0.07162886 0.06430344 -0.008349341 -0.056507822 0.04124406 -0.04402263 -0.04719599
0.01544756 -0.029564131 -0.01141451 0.022904757 0.013490416 0.0042643417 0.06514269 -0.07736719
-0.020935426 0.028448667 0.0041668904 -0.016132042 -0.016259752 -0.007000994 -0.047514834 -0.04035384
-0.010166075 0.0019310795 -0.04498691 0.02759441 0.047791734 -0.052561585 -0.029265497 0.030865768
-0.04723207 0.022484751 -0.02271419 0.062006067 0.046143096 0.0073387222 0.01583424 -0.019647306
0.06402886 0.03725838 -0.066565454 -0.057480227 0.065686524 -0.05442279 -0.011196222 -0.0042711184
-0.042868126 0.05689565 -0.07362074 -0.0326862 -0.05121806 -0.07355659 0.024319587 0.013104998
-0.010407562 0.033363104 -0.03639097 -0.00017207066 -0.034816656 -0.03988291 0.027151676 -0.0434453
00000000: 6185 943c 27b2 92bd 86b1 833d adcb 08bc
00000010: bf74 67bd 88ef 283d 1351 34bd 9550 41bd
00000020: c317 7d3c 7a30 f2bc ed03 3bbc c2a2 bb3c
00000030: e806 5d3c e4bb 8b3b 8869 853d b072 9ebd
00000040: c580 abbc 2e0d e93c 698a 883b 5827 84bc
00000050: 2c33 85bc 9868 e5bb ea9e 42bd 114a 25bd
00000060: 9c8f 26bc 471c fd3a 3244 38bd ac0d e23c
00000070: 44c1 433d d14a 57bd 32be efbc 35da fc3c
00000080: 6a76 41bd f131 b83c 1c13 babc 13fa 7d3d
00000090: 8b00 3d3d aa79 f03b cfb6 813c 63f3 a0bc
000000a0: 9021 833d 3e9c 183d 7853 88bd 6370 6bbd
000000b0: a886 863d 6eea 5ebd 5c70 37bc bdf4 8bbb
000000c0: 7d96 2fbd 6a0b 693d 78c6 96bd f7e1 05bd
000000d0: 07ca 51bd d6a4 96bd df39 c73c 58b6 563c
000000e0: 7b84 2abc c0a7 083d b30e 15bd de6d 34b9
000000f0: e99b 0ebd 435c 23bd 316d de3c b3f3 31bd

enc.layers.0.norm1.weight f4 [64]
0.99222416 1.0113734 1.0015903 0.9801888 0.99425364 0.9840086 0.98073345 0.9856613
0.9690213 0.9787719 0.9849212 1.0139525 1.0179658 0.98237765 0.98094463 0.9674298
0.9890525 0.98311853 1.0192153 0.9915093 1.0188837 0.9988818 0.9815507 0.9887006
1.0145873 0.99035275 0.9783693 0.980861 0.9776428 0.98269385 1.0210451 1.0160066
1.0085168 0.9906465 0.9757086 1.0162375 0.940838 1.0079488 1.0103627 0.9858601
1.0137217 0.9822753 0.98231715 0.98861974 1.0172328 1.019616 1.0053157 0.9816535
0.9922757 1.0158043 1.0086064 0.986251 0.9683404 1.0199517 0.9820753 0.9750541
0.9788791 1.016264 1.0216267 0.9939453 0.9858858 0.9766889 0.98534286 1.0193899
00000000: 6702 7e3f af74 813f 1c34 803f a7ed 7a3f
00000010: 6887 7e3f fde7 7b3f 5911 7b3f 4d54 7c3f
00000020: c811 783f cc90 7a3f cc23 7c3f 32c9 813f
00000030: b44c 823f 1a7d 7b3f 301f 7b3f 7ba9 773f
00000040: 8b32 7d3f a8ad 7b3f a675 823f 8ed3 7d3f
00000050: c86a 823f b8b6 7f3f e846 7b3f 7c1b 7d3f
00000060: ffdd 813f c287 7d3f 6976 7a3f b519 7b3f
00000070: cc46 7a3f d391 7b3f 9bb1 823f 810c 823f
00000080: 1417 813f 029b 7d3f 0ac8 793f 1214 823f
00000090: c2da 703f 7704 813f 9153 813f 5461 7c3f
000000a0: a2c1 813f 6576 7b3f 2379 7b3f 2f16 7d3f
000000b0: af34 823f c782 823f 2fae 803f a54d 7b3f
000000c0: c805 7e3f e005 823f 041a 813f f27a 7c3f
000000d0: 28e5 773f c78d 823f 4969 7b3f 259d 793f
000000e0: d297 7a3f f014 823f aac4 823f 3373 7e3f
000000f0: 0363 7c3f 4908 7a3f 6e3f 7c3f 5e7b 823f
