model_artifacts/dl_tcn_weights_ret20_30800_32300.pt (torch, 378717 bytes, 20 tensors)

net.0.weight f4 [64, 30, 3]
-0.1318302 -0.006138058 -0.060579747 -0.049303595 -0.0352605 -0.06764755 0.030868778 0.029215785
-0.043859426 -0.15001714 -0.07919369 -0.081394166 -0.1005136 -0.01627038 -0.047664765 -0.062509045
0.027711751 -0.008818867 0.011902826 -0.074780926 0.090955876 0.054865036 0.08881681 -0.06406645
0.07732818 -0.043396298 -0.089945644 0.057945974 -0.08349591 -0.029602949 -0.013160672 0.03478105
-0.0002320389 -0.0047729337 0.09210448 0.06548866 0.0067816405 0.022963114 -0.092973456 -0.045875818
0.07933978 0.049887452 0.056361917 -0.048550703 -0.046208784 0.0073565203 0.0015424013 -0.028450724
0.050886072 -0.04692386 -0.032188267 -0.017506277 0.007972479 -0.027816914 0.044102095 -0.036472272
-0.099270895 -0.015921557 0.09076302 0.022422165 -0.04485437 0.08414316 -0.04705729 -0.007486826
-0.020065155 0.050038557 -0.097712 -0.02728582 -0.048365265 -0.15007325 0.0074918107 -0.05405842
0.010468174 -0.025096642 -0.0014146963 0.009960879 -0.068813555 0.044029973 -0.081585385 0.097484656
0.010470305 -0.0031980884 -0.08331356 0.021176305 -0.05315519 -0.06775389 -0.0016065052 -0.09179387
-0.055323068 -0.07507342 -0.09103587 -0.01976533 -0.014198476 -0.13736677 0.08002769 -0.101431936
0.03223398 0.06451634 0.019645058 0.02356722 -0.013184099 0.076880306 -0.05041533 -0.015660293
-0.029287565 0.0248783 0.0524618 -0.06914768 -0.15932898 -0.07969157 0.08497735 -0.052105553
-0.021280024 0.07214791 -0.06278934 -0.0049467687 0.07054258 0.08695115 0.08736178 0.00031232153
-0.016972097 0.09144142 0.05596569 -0.06926134 -0.07569694 0.00043489173 -0.059503734 -0.10279146
-0.04752013 0.043639883 0.014513622 -0.084164985 -0.0101852445 -0.078574866 -0.08120079 -0.02680599
-0.0818595 0.031447195 -0.03646917 -0.032886438 -0.06407533 0.026939979 -0.044069204 0.066235736
-0.100986436 -0.03248286 0.08293419 -0.13202922 0.06990656 0.030877898 -0.08080889 0.08616029
0.07748259 0.005557357 0.01345005 0.072716676 -0.0033672967 -0.10175658 0.0632285 -0.13647763
-0.0082504265 -0.0934163 -0.11540817 0.0791223 0.10446643 -0.12889042 0.014548343 -0.037389696
0.035197243 0.09645418 0.100520775 -0.06267129 0.09417144 -0.08304009 -0.059987266 -0.07179446
0.087588824 0.04121654 0.05245646 -0.049646348 -0.016329871 0.050370168 0.0030001595 -0.14817214
0.038416177 -0.01219988 -0.07455415 -0.004862057 -0.05399556 -0.05461697 -0.05717079 0.095025316
-0.0684711 -0.004142551 -0.0369557 -0.09629121 -0.08177513 -0.025388217 -0.14078733 -0.039174523
-0.093610145 -0.065183535 -0.087278545 -0.065480605 -0.04222502 -0.06605365 0.077445515 0.0808942
0.0020606043 0.063554786 -0.07790345 0.09145743 0.035756838 0.0433025 0.03458397 -0.02149713
0.07929763 -0.0030803909 -0.062354475 0.02165583 0.0712361 0.017746419 -0.04527781 0.06984698
0.0308221 -0.06062897 0.037370153 0.03146092 0.046709355 0.060571924 -0.09301467 -0.021389375
0.04331556 -0.056973074 0.058250513 -0.004589362 0.10011775 -0.032171626 -0.060133245 -0.09002468
-0.06366789 -0.09062815 0.010101464 0.010024337 0.07203584 0.09648784 -0.04350944 0.059172913
0.026866818 -0.15413834 0.03314008 -0.07879313 -0.092223786 -0.028748812 -0.104544275 -0.008842423
00000000: 7ffe 06be c321 c9bb 7822 78bd 91f2 49bd
00000010: 506d 10bd cc8a 8abd 85e0 fc3c f155 ef3c
00000020: f1a5 33bd 189e 19be 4d30 a2bd fcb1 a6bd
00000030: 13da cdbd 7649 85bc 213c 43bd be04 80bd
00000040: c103 e33c 027d 10bc 1204 433c be26 99bd
00000050: 1347 ba3d 29ba 603d 96e5 b53d 4535 83bd
00000060: 3d5e 9e3d 51c0 31bd 6c35 b8bd c258 6d3d
00000070: e7ff aabd e281 f2bc dc9f 57bc 9376 0e3d
00000080: 784f 73b9 4566 9cbb 46a1 bc3d eb1e 863d
00000090: 8638 de3b 241d bc3c de68 bebd 48e8 3bbd
000000a0: e57c a23d c956 4c3d c1db 663d 1add 46bd
000000b0: 6c45 3dbd f70e f13b 662a ca3a 7e11 e9bc
000000c0: ea6d 503d 3c33 40bd d8d7 03bd 5369 8fbc
000000d0: 009f 023c 4ce0 e3bc 66a4 343d f363 15bd
000000e0: 8a4e cbbd ed6d 82bc f6e1 b93d b0ae b73c
000000f0: 37b9 37bd 4053 ac3d 25bf 40bd 0c54 f5bb
00000100: ae5f a4bc 3bf5 4c3d 3b1d c8bd 8386 dfbc
00000110: a81a 46bd cdac 19be dd7d f53b 5d6c 5dbd
00000120: b482 2b3c 7997 cdbc 556d b9ba f432 233c
00000130: 1fee 8cbd c658 343d 3d16 a7bd 09a6 c73d
00000140: a48b 2b3c 0597 51bb 4da0 aabd ee79 ad3c
00000150: 42b9 59bd 8dc2 8abd 5f91 d2ba 6dfe bbbd
00000160: 719a 62bd 18c0 99bd 0471 babd e7ea a1bc
00000170: baa0 68bc e0a9 0cbe 8fe5 a33d 8cbb cfbd
00000180: c707 043d 2521 843d acee a03c 0b10 c13c
00000190: 1f02 58bc 6c73 9d3d 4e80 4ebd 044a 80bc
000001a0: 7aec efbc 94cd cb3c 2fe2 563d 4d9d 8dbd
000001b0: 2327 23be 5535 a3bd 9b08 ae3d a26c 55bd
000001c0: 7253 aebc 49c2 933d b397 80bd 8118 a2bb
000001d0: a178 903d 7213 b23d bcea b23d 16bf a339
000001e0: 1109 8bbc a445 bb3d 483c 653d e4d8 8dbd
000001f0: ff06 9bbd 2e02 e439 30ba 73bd 5484 d2bd
00000200: 78a4 42bd bcbf 323d 8bca 6d3c b15e acbd
00000210: 03e0 26bc dceb a0bd 9a4c a6bd 3c98 dbbc
00000220: f4a5 a7bd c6ce 003d b260 15bd eeb3 06bd
00000230: ed39 83bd 3bb1 dc3c e981 34bd 9aa6 873d
00000240: fad1 cebd bf0c 05bd 67d9 a93d ab32 07be
00000250: 2c2b 8f3d a5f3 fc3c 227f a5bd ce74 b03d
00000260: 31af 9e3d 7d1a b63b 995d 5c3c 7bec 943d
00000270: ddad 5cbb c165 d0bd f27d 813d cbc0 0bbe
00000280: cc2c 07bc 0c51 bfbd 1e5b ecbd df0a a23d
00000290: 7ff2 d53d dafb 03be 2c5c 6e3c f025 19bd
000002a0: fc2a 103d c589 c53d d6dd cd3d ce59 80bd
000002b0: f5dc c03d ec10 aabd 35b5 75bd f908 93bd
000002c0: c561 b33d add2 283d 96dc 563d f859 4bbd
000002d0: 39c6 85bc f350 4e3d 539e 443b 70ba 17be
000002e0: 485a 1d3d 01e2 47bc d9af 98bd e451 9fbb
000002f0: 732a 5dbd 0bb6 5fbd eb2b 6abd a29c c23d
00000300: 933a 8cbd 3dbe 87bb dc5e 17bd 5334 c5bd
00000310: b879 a7bd f3fa cfbc 8e2a 10be 7775 20bd
00000320: adb6 bfbd f27e 85bd 18bf b2bd b21a 86bd
00000330: 24f4 2cbd 2347 87bd c19b 9e3d dcab a53d
00000340: 340b 073b 0329 823d d88b 9fbd 084e bb3d
00000350: c375 123d f65d 313d eca7 0d3d c01a b0bc
00000360: cc66 a23d 62e0 49bb 6867 7fbd 9167 b13c
00000370: 3be4 913d f060 913c 3a75 39bd ef0b 8f3d
00000380: a17e fc3c 1556 78bd 7211 193d 2add 003d
00000390: 4f52 3f3d 441a 783d 7a7e bebd c538 afbc
000003a0: a86b 313d 995c 69bd 1798 6e3d 5c62 96bb
000003b0: 890a cd3d 65c6 03bd 474e 76bd dc5e b8bd
000003c0: 5064 82bd 409b b9bd 9c80 253c 1e3d 243c
000003d0: 8787 933d 6b9b c53d f436 32bd 4c5f 723d
000003e0: cd17 dc3c 71d6 1dbe e4bd 073d 4b5e a1bd
000003f0: d3df bcbd a182 ebbc 4f1b d6bd cfdf 10bc

net.0.bias f4 [64]
0.13941321 -0.027291367 -0.022940205 0.049062062 -0.041018628 0.12832011 -0.034948364 0.044554017
0.045664262 -0.034207053 -0.006016678 0.042772572 0.11683164 -0.019436745 0.0025326207 0.046336137
0.039480094 0.090390414 0.0010643615 -0.01198888 0.005745196 -0.032889683 0.077945836 0.01804405
0.040667262 -0.019105034 0.09788555 0.038582303 0.055955205 0.10327397 -0.041494474 0.1375409
0.10310062 0.079359196 0.105950564 0.15121868 0.04510949 0.017514436 0.06962466 -0.0053752377
-0.052772876 -0.0015071911 0.007331137 -0.05756459 0.13575296 0.13537036 -0.07143273 0.060398456
-0.016311945 0.0221639 0.11019196 0.0990042 0.15263064 0.11738255 0.055216204 0.04364174
0.0029476513 0.0020385808 0.11247637 0.09188606 -0.048944317 0.14698267 0.07980887 0.092331596
00000000: 56c2 0e3e 2592 dfbc 19ed bbbc 4df5 483d
00000010: 2603 28bd 5966 033e 0426 0fbd 467e 363d
00000020: 730a 3b3d b21c 0cbd 8e27 c5bb 4b32 2f3d
00000030: 6d45 ef3d cf39 9fbc 53fa 253b f6ca 3d3d
00000040: e1b5 213d 9c1e b93d 0c82 8b3a 026d 44bc
00000050: 3242 bc3b 55b7 06bd 11a2 9f3d 1ed1 933c
00000060: b792 263d 2982 9cbc 3878 c83d 7a08 1e3d
00000070: 4931 653d 4e81 d33d 1cf6 29bd 86d7 0c3e
00000080: 6b26 d33d 1387 a23d 9cfc d83d 12d9 1a3e
00000090: bbc4 383d 6f7a 8f3c 6097 8e3d c322 b0bb
000000a0: 5f28 58bd f18c c5ba 093a f03b d9c8 6bbd
000000b0: d302 0b3e 879e 0a3e 534b 92bd 5f64 773d
000000c0: a1a0 85bc 1191 b53c 53ac e13d b7c2 ca3d
000000d0: 354b 1c3e 4366 f03d 632a 623d aec1 323d
000000e0: 622d 413b b699 053b 035a e63d c22e bc3d
000000f0: d679 48bd a082 163e d572 a33d 5918 bd3d

net.3.weight f4 [64, 64, 3]
-0.0081653325 0.0141440425 -0.010811229 0.059682064 0.035929598 -0.058551665 -0.029601064 -0.044283334
-0.021784576 0.05629705 -0.06520182 0.020653412 0.049195644 0.023430647 0.0020571172 0.045871317
-0.051303316 0.057608906 0.02042168 0.009430208 -0.05884278 0.072904535 -0.04540385 -0.039172426
0.022839135 0.061462678 0.0007214451 0.054934844 -0.020621989 -0.022449702 0.027188573 -0.060696542
-0.0029806579 0.014656526 0.034176275 -0.01574748 -0.044006307 0.06917296 0.043721527 0.022732023
-0.07158316 -0.01980383 0.0728414 0.016434954 -0.008881449 0.04956406 0.050270606 0.06339573
0.07522143 -0.012004486 0.03012917 -0.0031691515 -0.033567283 -0.0084679425 -0.0009736413 -0.011790551
-0.020933997 0.07017777 0.0413855 -0.06386673 0.050459567 0.04625969 -0.017090378 0.010915069
-0.031305615 0.026686944 -0.041367035 0.03794938 0.05229901 -0.056092646 -0.051117226 0.05835746
0.043571956 0.023530446 0.056658935 0.027439376 0.018964844 0.0664874 -0.043089293 0.060786065
-0.06911619 -0.004514545 0.02578485 -0.037199892 0.04438585 -0.05721938 0.064181596 -0.037219435
-0.05390699 -0.00093093223 0.079014644 -0.029470406 -0.018238202 0.046333976 0.033292953 0.0061355364
0.024441013 -0.022518672 0.03975077 0.06603536 -0.049093448 -0.05420736 0.040755052 0.038303483
-0.022006417 0.060439773 0.06298128 0.039454512 0.037251696 -0.04105347 0.052737243 0.06518042
0.050535694 -0.04536142 0.052509308 0.05043737 0.069180354 -0.022692624 -0.060838226 0.038368706
-0.04939617 -0.06795999 -0.044613745 0.079790816 -0.0082985265 -0.021914138 -0.023691738 -0.019938368
-0.0033990855 -0.054622125 -0.034620173 -0.062496804 0.035155136 -0.0058122436 -0.05654293 0.053626623
0.038652524 -0.01509971 0.012113171 0.0024710484 -0.027838793 0.026155867 -0.0033303932 0.060087305
-0.050702408 -0.030842448 0.020923896 0.09500798 0.05113697 -0.013199748 -0.009071721 -0.018626118
-0.063129164 0.025287794 -0.062588796 -0.014020107 -0.042616885 -0.013852963 0.035056215 0.053839944
0.0015559746 0.0349285 -0.014132868 -0.034490705 0.020979617 -0.035112202 -0.005635047 0.022025991
0.091995604 -0.045330852 -0.045789015 0.0757075 -0.0097242035 0.00512758 0.013527867 -0.04892363
0.055827 0.07461942 -0.02501497 -0.020867921 0.07005963 0.0047917864 -0.0067212586 -0.022369834
-0.037431188 -0.066733874 -0.0062979003 0.032643862 0.056906037 0.021967037 -0.037277006 0.011343495
-0.014072534 -0.04652927 -0.057632804 0.00024767686 -0.03698976 0.069222085 0.003299267 -0.042035133
0.022477709 -0.014240562 0.048853856 0.017571785 -0.029711979 -0.006250618 -0.055925738 -0.04777184
0.03396378 0.00702937 0.0016731551 -0.004880039 0.0060962685 -0.0064545562 0.008649013 0.023426302
0.040505983 0.002589824 -0.06739423 0.04457018 0.028606217 0.025190072 -0.04412242 0.05749062
-0.059904978 -0.06596674 -0.043318078 -0.01726795 -0.024372632 -0.06788906 -0.0614422 0.053331565
0.015088534 -0.02502703 0.0009748667 -0.03402211 -0.065925926 -0.052459665 0.02222947 0.05175489
0.015708689 -0.059797805 0.068786874 -0.07517099 -0.033452384 0.0669834 -0.08292124 -0.0061171018
-0.04656441 -0.028800767 -0.06522698 0.05950657 -0.030266702 -0.021347435 0.020046927 -0.016354723
00000000: e3c7 05bc 6abc 673c 9521 31bc 2e75 743d
00000010: ea2a 133d dfd3 6fbd ee7d f2bc 7162 35bd
00000020: 9175 b2bc bc97 663d 8888 85bd 5831 a93c
00000030: 5f81 493d a1f1 bf3c b3d0 063b 90e3 3b3d
00000040: 6d23 52bd 51f7 6b3d 5e4b a73c 2981 1a3c
00000050: 2005 71bd f94e 953d 63f9 39bd 4473 20bd
00000060: 2319 bb3c 4ac0 7b3d 5c1f 3d3a 5c03 613d
00000070: 72ef a8bc 70e8 b7bc 92ba de3c f09c 78bd
00000080: 2457 43bb ed21 703c 6cfc 0b3d dc00 81bc
00000090: f53f 34bd 8eaa 8d3d 5815 333d 8238 ba3c
000000a0: 319a 92bd a43b a2bc df2d 953d 99a2 863c
000000b0: 7f83 11bc af03 4b3d 8de8 4d3d 9fd5 813d
000000c0: b10d 9a3d 77ae 44bc 73d1 f63c 8ab1 4fbb
000000d0: d97d 09bd 20bd 0abc f63b 7fba 282d 41bc
000000e0: c67d abbc 5db9 8f3d d883 293d 8fcc 82bd
000000f0: b1ae 4e3d cd7a 3d3d 1f01 8cbc 1ed5 323c
00000100: 513a 00bd 949e da3c 7b70 29bd cf70 1b3d
00000110: 7d37 563d 67c1 65bd 4c60 51bd 3b08 6f3d
00000120: 8278 323d ecc2 c03c 3313 683d 8bc8 e03c
00000130: 295c 9b3c 8c2a 883d 667e 30bd cffa 783d
00000140: ca8c 8dbd c0ee 93bb c03a d33c ea5e 18bd
00000150: f0cd 353d de5e 6abd a471 833d 6873 18bd
00000160: 93cd 5cbd ce09 74ba 6ed2 a13d ec6b f1bc
00000170: 4868 95bc b2c8 3d3d 315e 083d 9c0c c93b
00000180: 8538 c83c 1479 b8bc b4d1 223d 8c3d 873d
00000190: 3616 49bd 8908 5ebd c5ee 263d 1de4 1c3d
000001a0: cd46 b4bc b28f 773d 54fc 803d 0e9b 213d
000001b0: 3c95 183d af27 28bd 0203 583d 507d 853d
000001c0: 84fe 4e3d e5cc 39bd 0014 573d 6a97 4e3d
000001d0: 6eae 8d3d e2e5 b9bc 8131 79bd 8128 1d3d
000001e0: a353 4abd 9b2e 8bbd e7bc 36bd 5e69 a33d
000001f0: 8bf6 07bc 4785 b3bc 2d15 c2bc ca55 a3bc
00000200: 31c3 5ebb 73bb 5fbd e2cd 0dbd a6fc 7fbd
00000210: d5fe 0f3d a274 bebb 8f99 67bd 97a7 5b3d
00000220: 1c52 1e3d c664 77bc 5276 463c 50f1 213b
00000230: 2e0e e4bc d444 d63c ba42 5abb 1b1e 763d
00000240: 54ad 4fbd 4da9 fcbc 9768 ab3c 8b93 c23d
00000250: 0075 513d c143 58bc 8ea1 14bc cd95 98bc
00000260: dd49 81bd 5928 cf3c 8e2e 80bd 97b4 65bc
00000270: 0b8f 2ebd 8af7 62bc 1b97 0f3d 4687 5c3d
00000280: d8f1 cb3a 3011 0f3d 8b8d 67bc 2046 0dbd
00000290: 72dd ab3c d0d1 0fbd 33a6 b8bb da6f b43c
000002a0: 3168 bc3d d8ac 39bd 438d 3bbd 890c 9b3d
000002b0: 4452 1fbc 4205 a83b fda3 5d3c 2564 48bd
000002c0: daaa 643d 11d2 983d 32ec ccbc 34f3 aabc
000002d0: 6c7b 8f3d 6b04 9d3b 013e dcbb f140 b7bc
000002e0: 7251 19bd c5ab 88bd 9e5e cebb 92b5 053d
000002f0: 4e16 693d 37f4 b33c c6af 18bd 11da 393c
00000300: 7c90 66bc 7a95 3ebd 6010 6cbd a0da 8139
00000310: 9382 17bd 4fc4 8d3d 8438 583b 082d 2cbd
00000320: 2c23 b83c 3f51 69bc fb1a 483d b4f2 8f3c
00000330: 8966 f3bc fcd1 ccbb 6312 65bd 68ac 43bd
00000340: 9b1d 0b3d a156 e63b c54d db3a bce8 9fbb
00000350: 35c3 c73b be80 d3bb 97b4 0d3c 84e8 bf3c
00000360: 9ae9 253d 09ba 293b fc05 8abd 398f 363d
00000370: 9657 ea3c 695b ce3c b6b9 34bd 497b 6b3d
00000380: ec5e 75bd 9219 87bd 4c6e 31bd 8475 8dbc
00000390: 1da9 c7bc 6b09 8bbd d1aa 7bbd 3372 5a3d
000003a0: e635 773c 7c05 cdbc 328e 7f3a c55a 0bbd
000003b0: 2c04 87bd f2df 56bd 941a b63c effc 533d
000003c0: 82af 803c 8bee 74bd 22e0 8c3d 3ff3 99bd
000003d0: 5e05 09bd 982e 893d 9cd2 a9bd f871 c8bb
000003e0: 53ba 3ebd 96ef ebbc b995 85bd 29bd 733d
000003f0: e0f1 f7bc d1e0 aebc 7439 a43c 57fa 85bc

net.3.bias f4 [64]
0.061769933 -0.059981372 0.050405424 0.1276214 0.008645257 0.10722896 0.063161835 0.05947621
0.13098058 -0.10248233 -0.016514331 0.113612235 -0.0085459035 0.048767067 -0.01933894 0.03498865
0.11094498 0.071098685 0.07538933 0.040420387 0.036687974 0.04110606 0.010787496 0.020923175
0.13626905 0.0546938 0.033383615 0.037082925 0.11174368 0.06373442 0.080397286 0.031461596
0.076914035 0.0094521735 0.040413722 0.028125823 0.03635913 0.022901459 -0.0706618 0.1100378
0.14131966 0.13215326 0.024527987 0.040554367 0.04702592 0.12840073 0.049822647 0.1122329
0.09249796 0.028556406 0.049717497 -8.027119e-05 -0.0024128489 0.024308836 0.0009716598 0.12076731
0.13497613 0.07279324 0.091728754 0.013217471 0.03799533 0.11736764 0.11018349 0.13458733
00000000: 7802 7d3d 07af 75bd eb75 4e3d 2faf 023e
00000010: d6a4 0d3c db9a db3d fe5a 813d 549d 733d
00000020: c61f 063e 41e2 d1bd 1049 87bc 88ad e83d
00000030: 1e04 0cbc fabf 473d b26c 9ebc 4250 0f3d
00000040: 1f37 e33d 309c 913d b965 9a3d d98f 253d
00000050: 2146 163d d45e 283d 0abe 303c 1467 ab3c
00000060: 1d8a 0b3e 9b06 603d 42bd 083d 44e4 173d
00000070: dfd9 e43d 3187 823d 55a7 a43d e0dd 003d
00000080: 1b85 9d3d 4add 1a3c dc88 253d 2068 e63c
00000090: 50ed 143d d79b bb3c 22b7 90bd 805b e13d
000000a0: 1ab6 103e 2f53 073e ebee c83c 561c 263d
000000b0: 409e 403d 7b7b 033e d512 4c3d 5dda e53d
000000c0: 926f bd3d 20ef e93c 93a4 4b3d 4457 a8b8
000000d0: e320 1ebb 5323 c73c fcb6 7e3a da54 f73d
000000e0: 2f37 0a3e 9f14 953d 49dc bb3d 178e 583c
000000f0: fea0 1b3d 725e f03d e2a7 e13d 43d1 093e

net.6.weight f4 [64, 64, 3]
-0.033205964 0.054683827 0.03819097 0.07210072 -0.064246215 -0.039771765 0.059901875 0.016058277
0.0107629895 0.073869824 -0.017147893 -0.022407768 -0.053273935 0.07012115 0.016185172 -0.05894284
-0.022615122 -0.025595197 0.013728432 -0.00043700042 -0.035358153 0.06870979 -0.059267107 0.0223016
0.089452244 -0.058791287 -0.022674486 0.012463465 0.019202529 0.055634156 -0.045864612 -0.03163634
-0.052662358 -0.018064637 -0.03887561 -0.032099552 0.002069318 0.044583987 0.0404605 0.029381292
0.028954094 0.06142217 -0.030349765 0.043783985 -0.005953982 -0.0093996255 -0.060569257 -0.02148338
0.036163695 -0.03916725 0.050113283 -0.049628053 -0.05812715 0.0031002061 0.0043537985 -0.0020518277
0.034316033 0.05562847 0.06635106 0.054869607 0.03532639 0.03683246 -0.0069700507 0.018730978
-0.060665082 0.05183485 0.0010084546 0.031375676 0.007263611 0.06504821 -0.061623104 0.041468054
-0.024638653 -0.070491865 -0.023028068 0.081837915 -0.053369176 -0.02996159 0.045442093 -0.042617008
0.03600299 0.048700713 0.017925039 0.041529063 0.06659129 -0.0314145 -0.047619 0.072289705
0.018140197 -0.03830439 0.01048899 -0.047999956 0.02586384 0.07128313 -0.004180944 -0.009295063
-0.0662127 0.038100377 0.0134079065 0.086108446 0.05604906 -0.05754008 -0.01229146 -0.054752465
0.0630312 -0.04346006 -0.024596721 0.016518608 0.02996872 0.030709019 0.047215637 -0.055078335
0.04115276 -0.046339627 0.03485838 -0.02797628 -0.06462633 -0.044255957 0.06461311 -0.018696938
-0.05999809 -0.017838482 0.01371388 0.014237834 -0.015351729 -0.02476027 -0.062382232 -0.011518058
-0.023582447 0.0666871 -0.029846422 -0.04886764 0.03279664 -0.00095483236 -0.06462404 0.035604145
-0.037093874 -0.008752603 0.015086952 -0.028433096 -0.0007013826 -0.05022515 -0.041469716 -0.02544252
0.026292121 -0.0020330122 0.0475295 0.038949672 -0.028591653 0.06390199 0.0015624663 0.03231716
-0.02214911 0.06578763 0.044825032 -0.06294337 -0.04290556 -0.059736166 0.06422088 -0.029321905
0.03901276 0.06721014 0.008356025 0.033228125 -0.012875494 0.034212638 -0.048823606 0.046256654
0.04321532 0.060034342 -0.059808083 0.0024074994 -0.061944544 0.048703462 0.04072394 -0.056223787
-0.053798743 0.021583244 -0.011773076 -0.04208749 0.030152552 -0.05320795 0.054808047 0.050809626
-0.012578259 -0.028125655 0.055984497 0.029737586 0.041582137 0.04267892 -0.020187095 0.01210336
-0.024624182 0.054923132 -0.040847596 0.014953256 -0.04259321 0.04882343 0.043332867 0.0385048
0.0621139 -0.030468075 -0.027381416 -0.018979482 0.07193631 -0.029653944 -0.038290195 -0.03353826
-0.023921724 -0.052600324 0.058150694 0.0041761915 -0.016702887 0.07228537 -0.065514065 0.039910648
0.010906219 0.00772941 -0.018239137 -0.027842898 0.014664396 -0.055150006 -0.015798967 -0.06287947
-0.008956119 0.07338013 -0.03803652 -0.0011216855 0.056300588 -0.025825119 0.0108528985 0.01975168
-0.070873715 -0.0014327397 0.00071532995 -0.009134537 -0.048050128 0.0714618 -0.06845024 0.024298303
2.2266358e-05 0.07074582 0.045137644 -0.05683824 -0.008462091 0.014904277 0.053318962 -0.059796788
-0.021881646 0.06607688 -0.023007698 0.010621606 -0.050703526 0.034880623 0.06337472 -0.008996308
00000000: fa02 08bd 26fc 5f3d 226e 1c3d 8ba9 933d
00000010: 8593 83bd b8e7 22bd ab5b 753d a68c 833c
00000020: 4057 303c 1049 973d bd79 8cbc 7f90 b7bc
00000030: c535 5abd ad9b 8f3d c496 843c 0c6e 71bd
00000040: 5943 b9bc 05ad d1bc 38ed 603c 341d e5b9
00000050: b6d3 10bd b8b7 8c3d 11c2 72bd d8b1 b63c
00000060: bd32 b73d 22cf 70bd d8bf b9bc 9033 4c3c
00000070: 9f4e 9d3c a4e0 633d 88dc 3bbd 1b95 01bd
00000080: 7cb4 57bd 4afc 93bc 083c 1fbd d27a 03bd
00000090: 659d 073b b39d 363d e9b9 253d 09b1 f03c
000000a0: 2331 ed3c d095 7b3d 12a0 f8bc d656 333d
000000b0: 9f19 c3bb e300 1abc 7817 78bd eafd afbc
000000c0: 6220 143d d76d 20bd 9643 4d3d c946 4bbd
000000d0: bc16 6ebd d42c 4b3b 4faa 8e3b f577 06bb
000000e0: f88e 0c3d aeda 633d 11e3 873d f4be 603d
000000f0: 68b2 103d a2dd 163d 0665 e4bb b571 993c
00000100: f37b 78bd c850 543d 1f2e 843a c883 003d
00000110: 9603 ee3b ff37 853d 8268 7cbd 68da 293d
00000120: 00d7 c9bc 0a5e 90bd 5ca5 bcbc a39a a73d
00000130: a399 5abd 0272 f5bc 7d21 3a3d 2c8f 2ebd
00000140: df77 133d 667a 473d 88d7 923c 611a 2a3d
00000150: 0461 883d 7eac 00bd 240c 43bd a00c 943d
00000160: c09a 943c 10e5 1cbd 03da 2b3c 9a9b 44bd
00000170: 67e0 d33c e4fc 913d 4d00 89bb 524a 18bc
00000180: 869a 87bd 240f 1c3d d6ac 5b3c a059 b03d
00000190: b393 653d 26af 6bbd 1f62 49bc 1f44 60bd
000001a0: 8016 813d 2d03 32bd 107f c9bc 0852 873c
000001b0: f680 f53c 7b91 fb3c 2f65 413d d299 61bd
000001c0: cc8f 283d 9fce 3dbd a9c7 0e3d 832e e5bc
000001d0: cf5a 84bd bc45 35bd e153 843d 522a 99bc
000001e0: 8fc0 75bd 0222 92bc 2fb0 603c ce45 693c
000001f0: d185 7bbc 0dd6 cabc 8384 7fbd 3db6 3cbc
00000200: fa2f c1bc 3f93 883d 7c80 f4bc 6f29 48bd
00000210: c555 063d b74d 7aba 9c59 84bd a7d5 113d
00000220: bfef 17bd 1467 0fbc 432f 773c 86ec e8bc
00000230: fddc 37ba e3b8 4dbd 26dc 29bd d56c d0bc
00000240: 9362 d73c 493c 05bb 4bae 423d b189 1f3d
00000250: 0b39 eabc 0cdf 823d abcb cc3a 005f 043d
00000260: 0d72 b5bc aabb 863d 749a 373d 74e8 80bd
00000270: bebd 2fbd e9ad 74bd 3d86 833d 7e34 f0bc
00000280: d8cb 1f3d 78a5 893d b6e7 083c 371a 083d
00000290: bcf3 52bc 8d22 0c3d 43fb 47bd 9e77 3d3d
000002a0: 8c02 313d 92e6 753d 52f9 74bd 23c7 1d3b
000002b0: 90b9 7dbd 487d 473d 25ce 263d ea4a 66bd
000002c0: 125c 5cbd 58cf b03c dce3 40bc ef63 2cbd
000002d0: 7c02 f73c 94f0 59bd 677e 603d c11d 503d
000002e0: 0b15 4ebc c667 e6bc 0050 653d 3d9c f33c
000002f0: 0852 2a3d 17d0 2e3d 685f a5bc 2c4d 463c
00000300: a7b8 c9bc 14f7 603d cf4f 27bd 80fe 743c
00000310: 3876 2ebd 14fb 473d ce7d 313d 36b7 1d3d
00000320: 256b 7e3d 2f98 f9bc fe4e e0bc dc7a 9bbc
00000330: 5853 933d d4ec f2bc 2ed6 1cbd 6a5f 09bd
00000340: 7ef7 c3bc 7073 57bd 6c2f 6e3d 6fd8 883b
00000350: 7ed4 88bc 5a0a 943d 3d2c 86bd 5979 233d
00000360: ffaf 323c fe46 fd3b 3e6a 95bc ca16 e4bc
00000370: ef42 703c f9e4 61bd d66c 81bc f4c6 80bd
00000380: b0bc 12bc 5248 963d 2fcc 1bbd 8505 93ba
00000390: 729b 663d 338f d3bc 5bd0 313c 46ce a13c
000003a0: 3d26 91bd c4ca bbba fb84 3b3a 06a9 15bc
000003b0: 36d0 44bd 905a 923d a42f 8cbd 3c0d c73c
000003c0: a4c8 ba37 2fe3 903d 40e2 383d 37cf 68bd
000003d0: 95a4 0abc 1231 743c fc64 5a3d 7aed 74bd
000003e0: 2341 b3bc 5153 873d a47a bcbc 3f06 2e3c
000003f0: 80ae 4fbd fcde 0e3d 9bca 813d 4065 13bc

net.6.bias f4 [64]
0.09653389 0.08354264 0.09288109 0.1375005 -0.006701433 0.13674858 0.1495888 0.18141255
0.16313806 0.078848064 -0.040864445 -0.020100849 0.029129416 0.05691163 0.16029282 0.044741295
-0.039718512 0.08792734 0.0061111404 0.1547972 0.097192265 0.1668649 0.08428625 0.15595298
0.105956115 0.1273004 -0.0625184 0.030093582 0.0015905607 -0.041281484 0.16944851 0.07061301
0.078643486 0.08614762 -0.032636166 0.040587097 0.050635643 -0.012556136 0.12471186 0.14196053
-0.020265676 0.12304282 0.048714433 0.12739162 -0.05438478 -0.08756458 0.10390613 0.07405145
-0.03846926 0.10146401 0.08128263 0.08134606 0.07370833 0.17720696 0.15417762 0.14382039
0.09966615 0.016934909 0.12002406 0.06700656 0.15368381 0.03386957 0.11256766 0.1788749
00000000: 8fb3 c53d 6718 ab3d 7138 be3d eecc 0c3e
00000010: b297 dbbb d207 0c3e ce2d 193e 36c4 393e
00000020: aa0d 273e 187b a13d 7a61 27bd 89aa a4bc
00000030: d0a0 ee3c 2b1c 693d cd23 243e a642 373d
00000040: e1af 22bd 4013 b43d f63f c83b 2883 1e3e
00000050: bd0c c73d a2de 2a3e 459e ac3d 23b2 1f3e
00000060: 85ff d83d 095b 023e a609 80bd d186 f63c
00000070: 5c7a d03a c616 29bd e983 2d3e 8e9d 903d
00000080: d60f a13d 2a6e b03d 80ad 05bd a83e 263d
00000090: 5267 4f3d 40b8 4dbc ef68 ff3d 1a5e 113e
000000a0: 3404 a6bc e0fd fb3d c988 473d f372 023e
000000b0: 93c2 5ebd 0f55 b3bd bdcc d43d 49a8 973d
000000c0: f191 1dbd 5dcc cf3d 8277 a63d c398 a63d
000000d0: 65f4 963d be75 353e bde0 1d3e a745 133e
000000e0: c41d cc3d 14bb 8a3c 2dcf f53d bc3a 893d
000000f0: 4a5f 1d3e d1ba 0a3d e089 e63d fb2a 373e

net.9.weight f4 [64, 64, 3]
-0.014397357 -0.046455275 -0.03710851 0.06134112 0.046029728 0.033262238 0.038291004 0.028235279
0.02540863 0.026875928 0.03236141 -0.05763178 0.0045203594 0.069359474 0.03487464 0.049255565
0.07012933 0.0020915626 0.07760709 0.059759308 -0.016531734 0.053794947 -0.016704254 0.029176982
0.048486758 0.020001926 -0.022684634 -0.02414244 -0.004004846 0.039976742 -0.048119728 -0.04909258
0.052421443 0.013825093 0.017771415 -0.0579415 0.07047247 0.016107753 -0.0011768643 -0.017432291
0.038469236 0.04696594 0.016462212 0.02256557 0.00020063564 0.077714995 -0.0602452 0.006573815
0.010727889 0.012059538 -0.050521303 0.025275655 -0.05830007 -0.052057765 0.003982895 -0.008619752
-0.046733856 0.09852227 -0.038879484 0.034521934 0.050692722 0.057877615 0.04573016 0.05884696
-0.05907578 -0.0046058055 0.009663937 0.029528687 -0.026234504 -0.015117579 0.06526627 -0.044251498
0.083608225 -0.05392327 0.007874582 0.07735031 0.024014102 -0.055211753 -0.044399656 0.02289221
-0.059349522 0.01829601 -0.06989221 0.06088455 -0.013624684 -0.03600823 -0.021164251 -0.0050384817
-0.06379936 0.055626012 -0.00872031 0.023103243 0.026108334 0.037180204 0.030440269 0.06500984
0.062418956 0.010454822 0.044143796 -0.035777584 -0.041020915 0.03591229 0.06624476 0.069413684
-0.037256382 0.07772552 0.06541573 -0.026334062 0.055046063 -0.05822719 0.039638348 0.07551005
0.00055553764 -0.02400939 0.090748206 -0.066204056 0.037073463 0.053428322 0.05879581 0.024488602
0.04733504 0.06759358 -0.008181564 0.054566912 -0.0046419105 0.010428407 -0.045849293 0.06708948
0.016552418 0.08560229 -0.013279762 -0.021164326 -0.0021915599 0.050370872 -0.023752889 -0.05238494
0.0077299913 -0.04148943 -0.0154999 0.0021803419 0.04538808 0.08716157 0.04572792 -0.05933643
-0.061424285 0.06967911 0.055294532 0.054551695 -0.018749636 0.036166262 0.061979238 0.061224986
0.0026698397 0.027241893 -0.054277256 -0.0011172686 -0.023896191 -0.0312598 -0.027004903 -0.026898235
0.038341574 -0.0024935529 -0.004555599 0.028511303 -0.026843956 0.08461367 0.015024795 -0.028923579
7.237713e-05 -0.047012895 0.0014918296 0.028759576 0.00015576954 -0.07028669 0.07810235 -0.0478751
0.05960041 -0.03127988 0.029998317 0.017573724 0.045448355 -0.061757714 0.034591414 0.02290723
-0.004261829 -0.040543817 -0.025425505 -0.025156256 -0.06340135 0.036844227 -0.03976154 0.065160096
-0.03464321 -0.062319055 0.009384873 -0.03716069 -0.01001507 0.061499484 0.083927184 -0.018862817
0.0009221673 0.05108356 -0.042654034 0.069768414 0.011889305 -0.066837996 -0.047493793 0.09410061
0.05929123 0.02461354 0.022681054 -0.06673834 -0.035109915 -0.017448079 0.044502497 -0.052219164
-0.034397896 0.04659921 -0.0011422292 0.06955979 -0.023180094 0.02249885 -0.0038436176 -0.048319705
0.042250954 -0.03368726 -0.02335196 0.0017123333 -0.06049286 -0.023794752 0.011163594 0.005839909
-0.06829403 -0.007611702 0.0027809336 -0.07080718 0.01738267 -0.0029479214 -0.044900283 0.02546164
0.010034436 -0.04757202 0.021340746 0.08004134 -0.05471351 -0.04625823 0.054949116 -0.006686236
-0.024364822 0.08196107 -0.055934194 -0.047609404 0.010921009 -0.052515008 0.05352533 0.008514788
00000000: e4e2 6bbc e347 3ebd 18ff 17bd d440 7b3d
00000010: ab89 3c3d fc3d 083d 07d7 1c3d ac4d e73c
00000020: c225 d03c e82a dc3c 668d 043d 4d0f 6cbd
00000030: 861f 943b 570c 8e3d b6d8 0e3d 34c0 493d
00000040: f79f 8f3d 9912 093b 77f0 9e3d 2dc6 743d
00000050: 8f6d 87bc 1758 5c3d 5cd7 88bc 9104 ef3c
00000060: 0d9a 463d 14db a33c 20d5 b9bc 5ec6 c5bc
00000070: 153b 83bb a7be 233d 3119 45bd 4d15 49bd
00000080: deb7 563d a582 623c 5c95 913c 1154 6dbd
00000090: df53 903d 68f4 833c 0341 9aba 2ace 8ebc
000000a0: eb91 1d3d 5c5f 403d c3db 863c 6edb b83c
000000b0: b861 5239 0a29 9f3d acc3 76bd 2869 d73b
000000c0: 07c4 2f3c 5e95 453c 6def 4ebd e40e cf3c
000000d0: 0ecc 6ebd 863a 55bd f282 823b dc39 0dbc
000000e0: 006c 3fbd 0bc6 c93d 1840 1fbd df66 0d3d
000000f0: 2ca3 4f3d 1411 6d3d 8c4f 3b3d 8309 713d
00000100: 72f9 71bd 4cec 96bb 7d55 1e3c 25e6 f13c
00000110: bee9 d6bc b9af 77bc 52aa 853d 0f41 35bd
00000120: ca3a ab3d a6de 5cbd 6404 013c d769 9e3d
00000130: 39b9 c43c b825 62bd 6adc 35bd 7288 bb3c
00000140: 7c18 73bd 84e1 953c a623 8fbd 1462 793d
00000150: 113a 5fbc 5e7d 13bd a760 adbc d919 a5bb
00000160: 3da9 82bd 1ad8 633d a2df 0ebc 0343 bd3c
00000170: 25e1 d53c 454a 183d df5d f93c e123 853d
00000180: 05ab 7f3d b44a 2b3c 20d0 343d 848b 12bd
00000190: 8c05 28bd c418 133d 55ab 873d c328 8e3d
000001a0: 269a 18bd 8f2e 9f3d aff8 853d 88ba d7bc
000001b0: fb77 613d a27f 6ebd d25b 223d 03a5 9a3d
000001c0: 80a1 113a 57af c4bc 32da b93d fe95 87bd
000001d0: 58da 173d a8d7 5a3d e0d3 703d 529c c83c
000001e0: 63e2 413d 816e 8a3d f70b 06bc 8e81 5f3d
000001f0: 2b1b 98bb e9db 2a3c 78cc 3bbd 3666 893d
00000200: f098 873c 4150 af3d 5c93 59bc cf60 adbc
00000210: 46a0 0fbb b051 4e3d 6b95 c2bc 9791 56bd
00000220: de4b fd3b d2f0 29bd 4bf3 7dbc 11e4 0e3b
00000230: dae8 393d c481 b23d 334d 3b3d c20a 73bd
00000240: 0898 7bbd ecb3 8e3d 857c 623d 9971 5f3d
00000250: d698 99bc 1323 143d f1dd 7d3d 0dc7 7a3d
00000260: 7af8 2e3b 642a df3c d451 5ebd 5071 92ba
00000270: f2c1 c3bc 470a 00bd 6339 ddbc b059 dcbc
00000280: 0e0c 1d3d e06a 23bb 2247 95bb 8990 e93c
00000290: dbe7 dbbc ef49 ad3d 8f2a 763c 24f1 ecbc
000002a0: 2dc9 9738 9890 40bd 7f89 c33a 3499 eb3c
000002b0: 1156 2339 78f2 8fbd 20f4 9f3d ae18 44bd
000002c0: 8f1f 743d 551f 00bd 08bf f53c c5f6 8f3c
000002d0: 0e28 3a3d a8f5 7cbd baaf 0d3d f1a7 bb3c
000002e0: d0a6 8bbb 4611 26bd 2649 d0bc 7e14 cebc
000002f0: 91d8 81bd f9e9 163d ffdc 22bd a872 853d
00000300: 0ae6 0dbd 4442 7fbd 03c3 193c cf35 18bd
00000310: 4016 24bc e2e6 7b3d 04e2 ab3d 3286 9abc
00000320: 9abd 713a ff3c 513d ffb5 2ebd bee2 8e3d
00000330: 5ccb 423c 5ce2 88bd da88 42bd d2b7 c03d
00000340: 5cdb 723d 56a2 c93c 9ecd b93c 1cae 88bd
00000350: 6acf 0fbd 46ef 8ebc 4048 363d c3e3 55bd
00000360: cfe4 0cbd d0de 3e3d dab6 95ba 5d75 8e3d
00000370: 2ee4 bdbc 824f b83c 34e5 7bbb e2ea 45bd
00000380: 560f 2d3d a7fb 09bd 9c4c bfbc 5f70 e03a
00000390: 5cc7 77bd 36ed c2bc 82e7 363c b55c bf3b
000003a0: bedd 8bbd 966b f9bb 5340 363b 5b03 91bd
000003b0: 1a66 8e3c ea31 41bb 5ce9 37bd ee94 d03c
000003c0: 7a67 243c e1da 42bd cad2 ae3c b7ec a33d
000003d0: 461b 60bd 4579 3dbd 5312 613d 3618 dbbb
000003e0: bc98 c7bc 35db a73d 411b 65bd 1402 43bd
000003f0: 08ee 323c fa19 57bd 603d 5b3d 9c81 0b3c

net.9.bias f4 [64]
0.13082643 0.19915873 0.2123029 0.13591349 0.17835408 0.11081538 -0.034725573 0.18057394
0.021379642 0.18315329 0.112021506 0.13504149 0.14008498 0.005563742 0.123172805 0.15637153
0.12077346 -0.015573232 -0.043113664 0.10784795 -0.067005806 0.11372367 0.08308957 0.178324
0.2216877 -0.047637213 -0.005103836 0.14954604 0.13580322 0.17833401 -0.037742913 0.14829804
0.025819942 0.21923268 0.1826307 0.066762045 0.14408648 0.10707761 0.11482374 0.103469394
0.19059376 0.15912464 0.14083186 0.19081642 0.13143471 -0.07013769 -0.06825685 0.18036775
0.07684242 0.10220142 0.018429996 0.1466769 0.113014676 0.19986321 0.15379202 -0.07494155
0.14444074 0.19603617 0.18966907 0.10146277 0.14425753 0.15836716 0.14672725 0.153095
00000000: 5df7 053e 44f0 4b3e ee65 593e e82c 0b3e
00000010: 74a2 363e 2df3 e23d 673c 0ebd 60e8 383e
00000020: 5c24 af3c 898c 3b3e 886b e53d 5148 0a3e
00000030: 7072 0f3e 0d50 b63b 0642 fc3d dc1f 203e
00000040: 1358 f73d df26 7fbc f497 30bd 63df dc3d
00000050: 573a 89bd f5e7 e83d dd2a aa3d 919a 363e
00000060: 1a02 633e 3d1f 43bd 143e a7bb 9922 193e
00000070: 0010 0b3e 319d 363e 5098 1abd 71db 173e
00000080: 5884 d33c 887e 603e 8b03 3b3e 8aba 883d
00000090: 688b 133e 824b db3d b628 eb3d c3e7 d33d
000000a0: 032b 433e 92f1 223e 3a36 103e 6165 433e
000000b0: d296 063e 59a4 8fbd 3fca 8bbd 53b2 383e
000000c0: 8f5f 9d3d fa4e d13d 81fa 963c 7832 163e
000000d0: 3d74 e73d f1a8 4c3e a87b 1d3e f57a 99bd
000000e0: 46e8 133e b5bd 483e 9c38 423e b6cb cf3d
000000f0: 3fb8 133e 002b 223e ab3f 163e f0c4 1c3e

net.12.weight f4 [64, 64, 3]
-0.09064152 0.020862604 0.029239867 -0.08960776 0.009282036 -0.058617115 -0.014432312 -0.05732653
-0.05998396 -0.01861117 -0.060977902 0.041400142 0.04658011 0.06738192 0.035754483 -0.042556044
0.041413818 0.023338854 0.038795702 0.063617915 0.06312546 0.020474028 -0.041721974 0.06324734
-0.0074347244 0.0138000045 0.037364084 0.04139385 0.068536706 0.015079214 0.06311524 0.019088745
-0.055777375 -0.014851811 0.04826958 -0.055395067 -0.060847662 0.014401738 -0.039082587 -0.0795555
-0.054316167 0.04723999 0.040544078 0.013456199 -0.014465902 -0.06925451 0.012772762 -0.028858451
-0.029746523 0.018620158 0.05367926 -0.038596727 -0.06364954 0.06584696 0.037856378 -0.06342284
-0.029780457 0.053524524 0.06735739 0.06267465 0.009410461 0.067252666 -0.02343791 0.023404384
0.034799665 0.021927088 -0.012965437 0.019325491 -0.009868011 -0.059435327 0.049445514 0.007061873
0.020535413 0.013004206 -0.0380317 0.016835704 0.062228207 -0.043477826 0.030034691 -0.01420435
0.024585744 -0.083101854 -0.0696349 0.058221668 -0.00094660086 -0.05474573 0.05559869 0.041513346
0.024775842 -0.032819208 -0.0039676256 0.05618843 0.014305148 0.03639852 -0.032431968 -0.062325433
-0.04283848 0.02933242 0.026566027 0.018985702 -0.040085703 -0.06599713 -0.017038703 0.06534364
-0.06487854 0.026480567 0.021081556 -0.068424225 -0.078720324 0.060974024 -0.052234374 -0.015851453
-0.01714198 0.04546795 -0.067290045 0.061789237 0.0028242404 -0.0286973 -0.06548171 0.019867713
-0.052527174 0.015021863 -0.06802956 -0.08862871 0.014728785 -0.019818217 -0.0390911 -0.06016624
0.040559944 -0.07346411 -0.058169223 -0.056259338 -0.057518844 -0.04233928 -0.02320895 -0.05801797
-0.044004884 0.048013598 -0.051532876 -0.0437076 -0.052587397 -0.012841456 0.037300862 -0.044955235
-0.059518583 0.036397766 0.034953404 0.046547726 -0.00826616 -0.0708481 0.033774685 -0.0528576
0.053852856 -0.08973365 0.060415413 -0.010386953 -0.04151959 0.038029347 -0.037162445 0.011624689
0.00052617094 -0.038768522 -0.06476822 0.023541065 0.0089153275 -0.01755419 -0.021421162 -0.051307946
-0.03350924 0.038141824 0.055758495 0.037629906 0.026812462 -0.035337523 -0.061567355 -0.042931817
-0.017515313 -0.0031535302 -0.029338947 0.025258832 -0.09000589 -0.017315444 -0.027947942 -0.085051924
-0.05700139 0.04667129 -0.046905044 0.049249064 -0.030670682 0.048405863 0.061466075 0.06498967
-0.037089746 -0.014340528 -0.027472338 -0.031357665 -0.05325686 -0.034701616 -0.04987308 0.022789933
-0.029431019 -0.0031293721 0.040317234 -0.032803856 0.015510854 -0.051748015 0.044984963 -0.054684803
0.014648589 -0.002027731 -0.002612461 0.041093558 -0.035707857 -0.06773876 -0.02491159 -0.014999129
-0.06421874 0.026864503 0.014853562 0.05022687 -0.043720916 0.00833784 -0.0055627814 -0.057731904
0.033409663 0.034479316 0.06138963 0.06483923 -0.06380097 0.027004478 0.069172464 0.061848074
-0.029757142 0.054969758 -0.006577947 0.04646059 -0.010151196 0.017474014 -0.042579874 -0.0148533145
-0.023939846 -0.061461423 -0.07114437 -0.0110435905 0.0132112 -0.03872095 0.049874373 -0.065990515
-0.070914604 -0.039168905 0.0029927588 -0.0104565425 0.032437123 -0.051992174 -0.024937619 0.03723751
00000000: 43a2 b9bd 0de8 aa3c 7288 ef3c 4684 b7bd
00000010: ae13 183c 8018 70bd 8175 6cbc 39cf 6abd
00000020: beb1 75bd 7476 98bc f7c3 79bd 3293 293d
00000030: c9ca 3e3d 88ff 893d 4b73 123d 3f4f 2ebd
00000040: 89a1 293d 2031 bf3c 3ee8 1e3d 1c4a 823d
00000050: ec47 813d 26b9 a73c a9e4 2abd d287 813d
00000060: fd9e f3bb 6a19 623c 150b 193d 998c 293d
00000070: f95c 8c3d cf0e 773c 9042 813d 0060 9c3c
00000080: d176 64bd 0355 73bc 53b6 453d f0e5 62bd
00000090: 663b 79bd 44f5 6b3c 1015 20bd feed a2bd
000000a0: a17a 5ebd b87e 413d 8c11 263d 6477 5c3c
000000b0: 6402 6dbc 4fd5 8dbd d944 513c 8f68 ecbc
000000c0: fbae f3bc 4d89 983c c9de 5b3d 9a17 1ebd
000000d0: b15a 82bd c5da 863d 4a0f 1b3d d5e3 81bd
000000e0: 25f6 f3bc 883c 5b3d acf2 893d 915b 803d
000000f0: 562e 1a3c c4bb 893d dc00 c0bc 8dba bf3c
00000100: 188a 0e3d 70a0 b33c fc6c 54bc 7e50 9e3c
00000110: 70ad 21bc 7572 73bd 6187 4a3d 4967 e73b
00000120: e239 a83c 980f 553c 21c7 1bbd 08eb 893c
00000130: 01e3 7e3d ce15 32bd 500b f63c 5db9 68bc
00000140: 0b68 c93c 4e31 aabd be9c 8ebd d879 6e3d
00000150: 4f25 78ba 0f3d 60bd 74bb 633d e609 2a3d
00000160: b5f6 ca3c 6f6d 06bd db02 82bb d725 663d
00000170: 2460 6a3c 9d16 153d 62d7 04bd f448 7fbd
00000180: 6777 2fbd 8b4a f03c ffa0 d93c e787 9b3c
00000190: e830 24bd 8129 87bd c094 8bbc e3d2 853d
000001a0: 0adf 84bd c6ed d83c 3ab3 ac3c 0022 8cbd
000001b0: 1f38 a1bd e6bf 793d b6f3 55bd e8da 81bc
000001c0: 566d 8cbc 9a3c 3a3d 5dcf 89bd b616 7d3d
000001d0: e416 393b 9a16 ebbc 461b 86bd 9dc1 a23c
000001e0: bc26 57bd 431e 763c 1553 8bbd f882 b5bd
000001f0: 0051 713c d059 a2bc fd1d 20bd e070 76bd
00000200: 2f22 263d 5a74 96bd da42 6ebd 3170 66bd
00000210: e198 6bbd f46b 2dbd b220 bebc 40a4 6dbd
00000220: 773e 34bd e8a9 443d 2314 53bd be06 33bd
00000230: e265 57bd f864 52bc cac8 183d fb22 38bd
00000240: c2c9 73bd d315 153d 4d2b 0f3d d4a8 3e3d
00000250: ca6e 07bc cf18 91bd 5357 0a3d 3681 58bd
00000260: d094 5c3d 47c6 b7bd 2776 773d 0a2e 2abc
00000270: 7210 2abd a9c4 1b3d a637 18bd 7b75 3e3c
00000280: bcee 093a becb 1ebd 33a5 84bd 31d9 c03c
00000290: 9811 123c cecd 8fbc 6f7b afbc 4828 52bd
000002a0: fc40 09bd 9a3a 1c3d 0563 643d d121 1a3d
000002b0: cfa5 db3c 14be 10bd 0d2e 7cbd 46d9 2fbd
000002c0: 467c 8fbc 75ab 4ebb 3b58 f0bc 9ceb ce3c
000002d0: 0255 b8bd 1ed9 8dbc 15f3 e4bc b42f aebd
000002e0: 4a7a 69bd 652a 3f3d 811f 40bd 63b9 493d
000002f0: 1541 fbbc 3a45 463d dac3 7b3d 4e19 853d
00000300: 6beb 17bd 89f4 6abc ab0d e1bc e570 00bd
00000310: dd23 5abd 4823 0ebd b747 4cbd f4b1 ba3c
00000320: 5219 f1bc 2716 4dbb af23 253d 565d 06bd
00000330: 3d21 7e3c baf5 53bd 2742 383d 2cfd 5fbd
00000340: a300 703c aee3 04bb d335 2bbb b851 283d
00000350: 6742 12bd 9eba 8abd 6413 ccbc e8be 75bc
00000360: 1d85 83bd f212 dc3c 5b5c 733c b1ba 4d3d
00000370: b414 33bd 709b 083c fe47 b6bb 4a78 6cbd
00000380: 92d8 083d 2f3a 0d3d b173 7b3d 6eca 843d
00000390: 15aa 82bd 7f38 dd3c 4baa 8d3d 6854 7d3d
000003a0: 40c5 f3bc f827 613d d28b d7bb 764d 3e3d
000003b0: 3451 26bc aa25 8f3c 3c68 2ebd 515b 73bc
000003c0: 7f1d c4bc f9be 7bbd 24b4 91bd 2df0 34bc
000003d0: ca73 583c dc99 1ebd 1249 4c3d 0926 87bd
000003e0: ad3b 91bd 936f 20bd 2922 443b eb51 2bbc
000003f0: cadc 043d bff5 54bd fa49 ccbc 5c86 183d

net.12.bias f4 [64]
0.03823554 -0.018144611 -0.056447532 0.4795784 0.18921673 -0.058361232 -0.018956345 0.16864821
0.22122248 0.43192282 0.14201692 -0.059842613 0.12403409 -0.032783676 0.15230232 0.21559197
0.1670707 0.20238128 0.14347294 -0.06670803 0.2719009 -0.027000185 0.1994236 -0.048962723
0.20078073 0.17611681 0.14220034 0.13600717 -0.067424595 0.2447517 0.15797149 -0.0027592934
0.013140325 0.17449404 0.20714085 0.19021042 0.21537675 0.16398467 0.2052019 0.21821316
-0.08226895 0.23267236 0.30878234 0.24166769 0.22766224 0.23436435 0.18675165 0.15625814
0.1848484 0.25670025 0.19469798 -0.032709252 0.03584381 0.005146013 0.22648059 0.14021327
0.1886327 -0.004880506 0.19201136 0.17224415 0.13773294 0.21243113 -0.054911807 -0.01913102
00000000: df9c 1c3d 02a4 94bc 8735 67bd 4d8b f53e
00000010: 08c2 413e 300c 6fbd 564a 9bbc 1eb2 2c3e
00000020: 2588 623e fd24 dd3e e26c 113e 871d 75bd
00000030: 9605 fe3d 2d48 06bd 24f5 1b3e 24c4 5c3e
00000040: 9514 2b3e 0a3d 4f3e 92ea 123e 389e 88bd
00000050: 9836 8b3e 7e2f ddbc b335 4c3e 238d 48bd
00000060: 7799 4d3e f757 343e f79c 113e 7745 0b3e
00000070: e815 8abd 31a0 7a3e 47c3 213e 43d5 34bb
00000080: 854a 573c 91ae 323e bb1c 543e 85c6 423e
00000090: b98b 5c3e 99eb 273e 7220 523e 4573 5f3e
000000a0: a07c a8bd aa41 6e3e b818 9e3e bc77 773e
000000b0: 4a20 693e 35fd 6f3e d33b 3f3e 2202 203e
000000c0: e648 3d3e 376e 833e e85e 473e 23fa 05bd
000000d0: f5d0 123d e39f a83b 87ea 673e 1194 0f3e
000000e0: ee28 413e a7ec 9fbb a09e 443e c560 303e
000000f0: dd09 0d3e 8c87 593e 34eb 60bd a8b8 9cbc

net.15.weight f4 [64, 64, 3]
0.013837939 0.0035117539 0.032884754 -0.07059367 -0.049462218 0.054669365 0.042542994 -0.06913801
0.01318518 0.15619187 -0.06916239 -0.015739705 0.090841405 0.001456071 -0.01276642 -0.011523418
0.043729343 0.07088291 -0.025079908 0.06381144 -0.07059517 -0.05395944 0.035253532 0.058365352
0.027227974 -0.019917356 -0.016944157 0.17418602 0.049828988 0.011117503 0.06492067 -0.04634148
-0.05162615 0.057613257 0.018873017 0.0066804425 0.061192185 -0.008645423 0.03418069 -0.020406762
0.013478945 -0.04721506 0.09659003 0.023831867 -0.009825423 -0.041043725 0.03961619 0.04955715
0.056195695 0.06344781 -0.014749539 0.027976494 -0.06322862 -0.00050260255 -0.0009330066 0.0036654049
0.03189925 -0.016331622 -0.053430036 0.05177173 0.035850592 0.045996286 -0.027279522 -0.035556436
-0.017151818 -0.051829573 0.07672335 -0.025865607 -0.060666427 -0.04883098 0.065975904 -0.0034138847
0.06040846 -0.051844772 -0.01579391 0.0047083935 0.06219519 -0.031245582 -0.03971945 0.054639988
-0.010337807 0.025081055 0.040032208 -0.004969633 0.009905368 0.027839711 0.053146437 -0.03499018
0.02183987 0.008633017 0.069084264 0.06562118 0.055569433 -0.035928223 0.052753754 0.028619237
0.05393243 -0.011333796 -0.016594717 0.04021501 0.048777837 -0.038859285 -0.045295477 0.050639603
-0.008234594 -0.025468571 0.012682409 -0.038985502 -0.007303091 -0.0022580228 0.053634807 0.070657425
-0.055752855 -0.03031583 -0.013390703 -0.035042744 0.045859944 0.022576818 0.012371275 0.042017166
0.054894187 -0.009504402 0.03969126 0.018381145 -0.050415076 0.014528681 0.056625575 -0.07051904
-0.055826105 0.1076547 0.034869246 0.046106447 0.06691839 0.014279454 0.047931775 0.051136453
-0.047402784 -0.058431514 0.10036579 0.00826238 -0.015268336 -0.04897785 0.005807417 0.040858682
-0.05533524 0.01782811 -0.054397874 0.069625854 -0.032580234 -0.03805242 -0.04293212 -0.0061655897
-0.060733136 0.018471934 -0.045076348 0.07002072 0.037329625 0.028000757 0.014347846 -0.06333116
-0.04215049 0.0011044163 0.0396199 -0.010723703 -0.017782025 0.07279301 0.06382628 0.027445707
0.0028217954 -0.06224591 -0.0049098916 -0.05082325 0.020801459 0.01226739 0.027805379 -0.049272787
-0.044694114 0.0022731603 -0.06119388 -0.04823635 0.064572185 0.024232922 0.054950144 0.025741458
0.0005543463 -0.04208487 0.023003744 -0.038505536 -0.036399595 0.045533128 -0.01670506 0.066840105
0.04141735 0.06029026 0.05647673 0.017826151 0.009563679 0.06513052 0.05057248 0.046822242
0.041722026 0.06578202 -0.063562416 0.046622988 0.06595438 -0.055567063 -0.066222735 0.074030764
-0.027893554 0.028960668 -0.008301687 -0.05726724 -0.06954727 0.068104856 -0.049443144 0.025529481
-0.044121303 0.052314438 -0.0049431743 0.16039021 -0.022932407 -0.037003078 -0.023481704 -0.011676808
-0.003934661 -0.042643715 -0.052058686 -0.020943638 -0.00066213444 -0.052491933 0.03966798 0.07254464
0.01429226 0.02153369 0.02620003 -0.045828607 0.071105614 0.027893683 -0.03453722 0.01539422
-0.03342804 -0.033639915 0.058188915 0.08309232 0.068680935 0.036666013 0.05286521 0.036335878
-0.04880487 0.02483814 -0.05907236 -0.005797409 0.080125704 0.062425837 -0.008125081 0.021046296
00000000: 86b8 623c 7425 663b 2ab2 063d 6a93 90bd
00000010: e598 4abd fcec 5f3d 9041 2e3d 3b98 8dbd
00000020: a706 583c c3f0 1f3e 03a5 8dbd 8ef0 80bc
00000030: 0f0b ba3d a3d9 be3a 3f2a 51bc b8cc 3cbc
00000040: 8a1d 333d 0f2b 913d 6174 cdbc 92af 823d
00000050: 3394 90bd 9304 5dbd 0266 103d 8210 6f3d
00000060: 330d df3c b929 a3bc 79ce 8abc d25d 323e
00000070: 7b19 4c3d 3026 363c 21f5 843d 90d0 3dbd
00000080: f175 53bd e1fb 6b3d 969b 9a3c 9de7 da3b
00000090: a8a4 7a3d 88a5 0dbc 0d01 0c3d 152c a7bc
000000a0: cbd6 5c3c 9464 41bd fed0 c53d 0c3b c33c
000000b0: d0fa 20bc 771d 28bd 9644 223d 70fc 4a3d
000000c0: 752d 663d edf0 813d 0da8 71bc f62e e53c
000000d0: 027e 81bd 16c1 03ba 0395 74ba 4a37 703b
000000e0: caa8 023d e5c9 85bc 74d9 5abd 980e 543d
000000f0: 12d8 123d 9a66 3c3d 4e79 dfbc a0a3 11bd
00000100: f881 8cbc 3f4b 54bd 2221 9d3d 1ce4 d3bc
00000110: 5c7d 78bd fe02 48bd 601e 873d 7bbb 5fbb
00000120: dd6e 773d 2f5b 54bd 3b62 81bc de48 9a3b
00000130: 62c0 7e3d bcf6 ffbc ddb0 22bd 2ece 5f3d
00000140: e85f 29bc c976 cd3c d0f8 233d 4ed8 a2bb
00000150: 204a 223c 1b10 e43c 14b0 593d dd51 0fbd
00000160: 87e9 b23c 7f71 0d3c 0d7c 8d3d 6664 863d
00000170: c69c 633d 7929 13bd 5214 583d e472 ea3c
00000180: 40e8 5c3d 63b1 39bc a5f1 87bc 7fb8 243d
00000190: 45cb 473d ea2a 1fbd c087 39bd 796b 4f3d
000001a0: 64ea 06bc 77a3 d0bc e1c9 4f3c 43af 1fbd
000001b0: c54e efbb 56fb 13bb 2cb0 5b3d d7b4 903d
000001c0: 1b5d 64bd e758 f8bc ae64 5bbc fb88 0fbd
000001d0: a3d7 3b3d 05f3 b83c e3b0 4a3c 311a 2c3d
000001e0: bad8 603d 5ab8 1bbc 4d93 223d 0e94 963c
000001f0: 0a80 4ebd b409 6e3c 38f0 673d 496c 90bd
00000200: eaa9 64bd 117a dc3d 0ed3 0e3d 1dda 3c3d
00000210: 820c 893d 5ff4 693c 1c54 443d 7574 513d
00000220: 6c29 42bd e255 6fbd 948c cd3d ef5e 073c
00000230: 0b28 7abc ff9c 48bd 254c be3b 6f5b 273d
00000240: 34a7 62bd 420c 923c 4ed0 5ebd 0098 8e3d
00000250: da72 05bd dbdc 1bbd 97d9 2fbd b708 cabb
00000260: 4fc3 78bd 7452 973c faa1 38bd 0667 8f3d
00000270: f3e6 183d d861 e53c 3a13 6b3c c4b3 81bd
00000280: fea5 2cbd 10c2 903a 7a48 223d 78b2 2fbc
00000290: 9cab 91bc 8014 953d 5ab7 823d d2d5 e03c
000002a0: dfed 383b 91f5 7ebd 28e3 a0bb 0a2c 50bd
000002b0: d267 aa3c 2afd 483c 1bc8 e33c 43d2 49bd
000002c0: 2d11 37bd 4df9 143b 6fa6 7abd 7b93 45bd
000002d0: 6c3e 843d 1f84 c63c 6713 613d c0df d23c
000002e0: 8d51 113a 2f61 2cbd 5972 bc3c fbb7 1dbd
000002f0: be17 15bd f280 3a3d 0dd9 88bc 77e3 883d
00000300: 3da5 293d ebf2 763d 2554 673d 2608 923c
00000310: fab0 1c3c 2663 853d 1725 4f3d aec8 3f3d
00000320: b7e4 2a3d b9b8 863d 032d 82bd bff7 3e3d
00000330: 1713 873d 4a9a 63bd c99f 87bd 719d 973d
00000340: 0681 e4bc ec3e ed3c cd03 08bc 0e91 6abd
00000350: cd6e 8ebd 8f7a 8b3d e584 4abd 3423 d13c
00000360: 8ab8 34bd aa47 563d 5afa a1bb 553d 243e
00000370: bedc bbbc 8a90 17bd b45c c0bc 1550 3fbc
00000380: 54ee 80bb 2dab 2ebd 7d3b 55bd fe91 abbc
00000390: 1793 2dba c801 57bd e47a 223d 4992 943d
000003a0: 152a 6a3c 6c67 b03c 72a1 d63c c7b6 3bbd
000003b0: d29f 913d 4b81 e43c e676 0dbd 0a38 7c3c
000003c0: d7eb 08bd 02ca 09bd 8057 6e3d 4e2c aa3d
000003d0: 97a8 8c3d 1a2f 163d 3189 583d eed4 143d
000003e0: 9ee7 47bd 5b79 cb3c dcf5 71bd 31f8 bdbb
000003f0: f218 a43d 3cb2 7f3d 0f1f 05bc 4869 ac3c

net.15.bias f4 [64]
0.24470143 0.20277518 0.2037149 0.21338443 0.2272115 0.32002768 0.20990478 0.1622131
-0.026949594 0.32476735 0.5002031 0.16907585 0.20484641 0.2921404 0.53273004 0.20686296
0.2016437 0.21872804 0.22418678 0.17793204 0.15950285 0.1926296 0.22210494 0.24535348
-4.4836943e-05 0.20806 0.1725279 0.22805612 0.26722753 0.28040007 0.20944722 0.1906419
-0.06579535 0.21817788 0.16767506 -0.035810743 0.5044995 -0.011071386 0.22618204 0.43811798
0.18071574 0.20531964 -0.058916517 0.2766392 0.014721012 0.25153708 0.23510537 -0.030273795
-0.007997777 0.17058443 0.3016636 -0.042190112 -0.06387175 0.21367452 0.21410114 0.26101038
0.17954165 0.18353277 -0.048840635 0.15951309 0.0033997297 -0.06814768 0.24047947 0.1959624
00000000: 0393 7a3e 4ca4 4f3e a49a 503e 7381 5a3e
00000010: 22aa 683e abda a33e 47f1 563e 311b 263e
00000020: 65c5 dcbc e847 a63e 4f0d 003f 3822 2d3e
00000030: 42c3 513e 6d93 953e ff60 083f e2d3 533e
00000040: b07b 4e3e 3efa 5f3e 3891 653e d133 363e
00000050: b754 233e b240 453e 7a6f 633e f13d 7b3e
00000060: 4d0f 3cb8 ae0d 553e 27ab 303e 8b87 693e
00000070: 0cd2 883e 9990 8f3e 5579 563e a137 433e
00000080: b6bf 86bd 066a 5f3e 03b3 2b3e 49ae 12bd
00000090: e126 013f c264 35bc 449c 673e 0051 e03e
000000a0: 8c0d 393e 503f 523e 7252 71bd a7a3 8d3e
000000b0: 6630 713c 78c9 803e 76bf 703e c000 f8bc
000000c0: 1c09 03bc afad 2e3e a773 9a3e 8acf 2cbd
000000d0: 31cf 82bd 7ecd 5a3e 543d 5b3e 27a3 853e
000000e0: c4d9 373e 04f0 3b3e 1e0d 48bd 6657 233e
000000f0: 00ce 5e3b 0391 8bbd 4040 763e 5eaa 483e
