model_artifacts/dl_tcn_h24_ret20cls2_36000_37500.pt (torch, 378717 bytes, 20 tensors)

net.0.weight f4 [64, 30, 3]
-0.039299507 0.04294927 -0.052044727 -0.03866873 0.04369791 0.068392076 0.029367736 0.034429535
-0.058578677 -0.0667998 -0.07672815 0.008958558 -0.06794865 -0.049085297 0.025895659 -0.051317856
-0.040449396 -0.017317425 0.0031041636 0.034209542 0.011423206 -0.015295385 0.01085406 -0.09137766
-0.010263286 -0.08271881 -0.078379065 0.018327272 0.07548496 0.016168427 0.10130103 -0.09897351
0.10321564 0.09543413 -0.046750527 -0.051183928 -0.10494576 0.015057664 -0.08269727 -0.037962727
0.061166123 0.08763575 -0.11097563 0.009630717 -0.0017037808 0.065309614 -0.09762022 0.009099033
-0.08943836 -0.06470892 0.09692352 -0.03951201 0.0023109666 -0.075534984 0.012736698 -0.05448046
0.084161796 0.06953535 -0.002108892 -0.040101223 0.07986137 0.08467544 0.05527787 0.023836568
-0.10307993 -0.02476975 0.043228798 -0.0704954 0.07175591 0.10845214 -0.0759173 0.056409948
0.037761092 0.03573919 -0.035814516 0.050001472 -0.057298955 0.09193904 -0.099893354 0.04291937
0.00650521 0.11145206 -0.0508314 0.002380727 -0.1418208 0.08266575 0.005727987 -0.09245134
-0.051455908 -0.06007981 -0.090130374 0.08938312 0.10167313 -0.09246431 -0.10122227 -0.07742838
-0.037447367 -0.047925614 0.06604581 -0.021643741 -0.06915769 -0.027630072 -0.070777975 0.065550365
0.08924597 -0.03121307 -0.103272535 -0.020809762 -0.115862586 0.040975355 0.037085332 -0.030678539
0.039447986 -0.020309199 -0.102259904 0.027473964 -0.04196497 -0.036968276 0.005967554 0.002199016
0.0601952 0.01279011 0.03584282 -0.059450433 0.09290109 -0.075478114 0.0102416435 0.03521204
-0.09024579 -0.057446357 -0.057030886 -0.046376072 0.031394195 -0.010505335 -0.0211948 -0.0022313965
0.07998171 0.022771291 -0.08375598 -0.03477614 -0.01883215 -0.10619531 0.07282225 -0.0587631
0.052051354 -0.0832542 -0.034941755 -0.010256323 0.020662997 -0.039009765 -0.112808846 -0.097969115
0.094474725 0.08012476 0.052929204 -0.07437676 -0.060154323 -0.101257265 -0.03039528 -0.12656406
0.09326769 -0.0131815635 -0.0912054 0.009301223 -0.08541908 -0.027534904 -0.060996514 -0.06125192
-0.080293156 0.05623655 0.088898785 0.075017005 -0.05433025 -0.028072055 -0.04847318 0.036301516
0.062430225 0.06265456 -0.042016506 -0.0490029 -0.04532074 -0.035612248 0.02822014 -0.14771801
-0.021046717 -0.018122071 -0.1056243 -0.027408877 -0.09706954 -0.046549425 -0.08668199 0.04875827
-0.019997718 -0.01662791 0.100412674 0.0005505497 -0.08242815 -0.048633974 0.014948566 0.08930359
-0.012577673 -0.0893847 -0.03830319 -0.06778066 -0.035834923 0.100351624 0.028109584 -0.004463344
-0.07448492 0.045602337 0.078436725 0.10219902 -0.04839812 0.048730593 -0.03543356 -0.012015665
-0.08354901 -0.031185813 0.090244964 -0.07452562 0.08565686 0.08138427 -0.08108313 -0.09081891
-0.07606427 0.046366345 -0.084961995 0.073619805 -0.010066574 -0.10480462 -0.08725063 -0.047260482
-0.07320348 0.033405863 0.020941207 -0.0133655 0.10108671 -0.03517887 -0.06341484 0.088632025
-0.14126442 0.06326049 0.02198936 0.05018953 -0.04852676 -0.0691507 -0.1611434 0.07075218
-0.04481999 -0.025175588 2.6726582e-05 0.09565889 -0.06406018 -0.0435596 -0.01989368 0.07054046
00000000: 85f8 20bd 93eb 2f3d da2c 55bd 1a63 1ebd
00000010: 94fc 323d 2511 8c3d 9b94 f03c fc05 0d3d
00000020: 32f0 6fbd 55ce 88bd a623 9dbd eac6 123c
00000030: a928 8bbd aa0d 49bd 2223 d43c ac32 52bd
00000040: 44ae 25bd 46dd 8dbc 396f 4b3b 4e1f 0c3d
00000050: 6628 3b3c 7f99 7abc 3ad5 313c 3624 bbbd
00000060: 5727 28bc 7b68 a9bd 3485 a0bd 1323 963c
00000070: dc97 9a3d a673 843c ea76 cf3d a0b2 cabd
00000080: b962 d33d f872 c33d 7b7d 3fbd 3da6 51bd
00000090: cded d6bd 6cb4 763c 305d a9bd ce7e 1bbd
000000a0: 5489 7a3d 5f7a b33d 3147 e3bd 28ca 1d3c
000000b0: 6651 dfba 0cc1 853d 1ced c7bd 1c14 153c
000000c0: 752b b7bd 1c86 84bd d77f c63d 58d7 21bd
000000d0: 9673 173b 16b2 9abd 95ad 503c e726 5fbd
000000e0: 055d ac3d 8d68 8e3d 5635 0abb 2e41 24bd
000000f0: 5c8e a33d 516a ad3d 0c6b 623d e844 c33c
00000100: 921b d3bd eee9 cabc ae10 313d e45f 90bd
00000110: c3f4 923d 281c de3d 887a 9bbd 1e0e 673d
00000120: 60ab 1a3d 4263 123d 3eb2 12bd 58ce 4c3d
00000130: 4fb2 6abd 894a bc3d e394 ccbd 39cc 2f3d
00000140: a829 d53b fa40 e43d 9634 50bd f905 1c3b
00000150: 7939 11be a94c a93d d6b1 bb3b 2157 bdbd
00000160: 6ec3 52bd 3f16 76bd 4696 b8bd 7f0e b73d
00000170: 013a d03d ee5d bdbd 9f4d cfbd c592 9ebd
00000180: 6962 19bd a64d 44bd 0743 873d 374e b1bc
00000190: 8ca2 8dbd 7658 e2bc 0bf4 90bd 453f 863d
000001a0: 97c6 b63d 8db2 ffbc 8d80 d3bd 3c79 aabc
000001b0: 5d49 edbd c6d5 273d cae6 173d 8f51 fbbc
000001c0: 3694 213d 7a5f a6bc a46d d1bd 1411 e13c
000001d0: 76e3 2bbd 0c6c 17bd 798b c33b 5e1d 103b
000001e0: 3e8f 763d 9c8d 513c eccf 123d 4c82 73bd
000001f0: ed42 be3d 4594 9abd 91cc 273c 803a 103d
00000200: c9d2 b8bd df4c 6bbd 3899 69bd d6f4 3dbd
00000210: 3397 003d 921e 2cbc b8a0 adbc 9f3c 12bb
00000220: 73cd a33d dc8a ba3c 4188 abbd 6d71 0ebd
00000230: e245 9abc ed7c d9bd d523 953d 94b1 70bd
00000240: cd33 553d 2e81 aabd 161f 0fbd 230a 28bc
00000250: 7245 a93c b4c8 1fbd 5308 e7bd 08a4 c8bd
00000260: f77b c13d 7318 a43d 4bcc 583d d852 98bd
00000270: 6164 76bd f85f cfbd 86ff f8bc 029a 01be
00000280: 2103 bf3d 7cf7 57bc e6c9 babd 2864 183c
00000290: 33f0 aebd e190 e1bc 7bd7 79bd 4be3 7abd
000002a0: bd70 a4bd 4c58 663d 9110 b63d 84a2 993d
000002b0: 6589 5ebd 5ef7 e5bc d08b 46bd e6b0 143d
000002c0: d6b6 7f3d 0951 803d 8019 2cbd 44b7 48bd
000002d0: 3ea2 39bd 26de 11bd ec2d e73c 6443 17be
000002e0: 2a6a acbc bd74 94bc 8e51 d8bd 9588 e0bc
000002f0: 65cc c6bd 9caa 3ebd 5486 b1bd c0b6 473d
00000300: 41d2 a3bc 4137 88bc 29a5 cd3d c452 103a
00000310: 17d0 a8bd 6b34 47bd d5ea 743c cde4 b63d
00000320: 9612 4ebc 530f b7bd cee3 1cbd 96d0 8abd
00000330: a4c7 12bd 2785 cd3d 1246 e63c 3e41 92bb
00000340: 8d8b 98bd 84c9 3a3d 6fa3 a03d b84d d13d
00000350: 1b3d 46bd bb99 473d c822 11bd 5add 44bc
00000360: be1b abbd 6479 ffbc 5ad2 b83d e3a0 98bd
00000370: dd6c af3d ccac a63d e90e a6bd 44ff b9bd
00000380: 96c7 9bbd a3ea 3d3d 8e00 aebd fbc5 963d
00000390: 46ee 24bc cea3 d6bd 75b0 b2bd 3594 41bd
000003a0: b5eb 95bd 96d4 083d e58c ab3c f8fa 5abc
000003b0: 8d06 cf3d b817 10bd a4df 81bd b584 b53d
000003c0: 9fa7 10be b78e 813d 0823 b43c 8993 4d3d
000003d0: ffc3 46bd e29e 8dbd c702 25be 85e6 903d
000003e0: 2a95 37bd 093d cebc e632 e037 cfe8 c33d
000003f0: fc31 83bd 8d6b 32bd 12f8 a2bc 8477 903d

net.0.bias f4 [64]
-0.006982645 0.08566647 0.16503982 0.13024901 0.022431782 0.0092591485 -0.024555378 0.010404966
0.0006407475 -0.0002532724 0.048394155 0.12750773 0.08007498 0.021161107 0.023740137 0.12210519
-0.013449548 -0.061307773 0.09803509 0.105753586 0.15436503 0.09343636 0.027269691 -0.045863826
0.10531218 0.078886084 0.0014681664 0.09024251 0.09054973 0.10759869 0.02375985 0.11298922
0.10964412 0.009810244 0.0016752721 0.016529012 -0.019253897 0.13051398 0.09732061 0.12018426
-0.03130159 -0.028494935 0.0799866 0.08076235 -0.037259195 0.12088177 -0.005432031 0.15556855
0.046230752 0.036206964 0.0473224 0.09438959 0.0150333 0.06728777 0.035212692 -0.011051216
0.118909486 0.13326687 0.10723057 0.06504164 -0.0114196 -0.039799634 -0.03543606 0.124074705
00000000: acce e4bb e771 af3d 3300 293e ff5f 053e
00000010: dbc2 b73c afb3 173c 5c28 c9bc 9779 2a3c
00000020: d6f7 273a a5c9 84b9 f338 463d 6391 023e
00000030: 5afe a33d 0f5a ad3c ad7a c23c 4912 fa3d
00000040: 7e5b 5cbc dc1d 7bbd 9fc6 c83d 5695 d83d
00000050: de11 1e3e 905b bf3d b064 df3c b5db 3bbd
00000060: eaad d73d 078f a13d 7d6f c03a 11d1 b83d
00000070: 2372 b93d b45c dc3d 04a4 c23c e466 e73d
00000080: 198d e03d 25bb 203c ce94 db3a da67 873c
00000090: 59ba 9dbc 75a5 053e 0750 c73d 2a23 f63d
000000a0: 1936 00bd 366e e9bc 04d0 a33d bb66 a53d
000000b0: 199d 18bd dd90 f73d 2eff b1bb 5d4d 1f3e
000000c0: 755c 3d3d c14d 143d 22d5 413d 544f c13d
000000d0: 3b4e 763c 2cce 893d 2f3b 103d 2910 35bc
000000e0: d186 f33d 1c77 083e b39b db3d 8d34 853d
000000f0: 4619 3bbc f104 23bd 6725 11bd e11a fe3d

net.3.weight f4 [64, 64, 3]
0.07106157 0.057261124 -0.06418139 -0.002383384 -0.054496698 -0.03714604 0.041282456 0.007809274
-0.028021332 0.031990808 0.030300025 0.02165495 0.04807286 0.029977817 0.011774575 0.07347049
0.0408227 0.0032039257 -0.01240509 -0.05140078 0.012911065 0.059349902 0.0050652595 0.06587835
0.08109325 -0.012876754 -0.011765858 0.09500633 0.04948414 0.057928413 0.068227634 -0.060360614
0.038616665 -0.0011976 0.001830336 -0.025366154 0.030936696 0.027444057 -0.019710463 0.08721142
0.009566573 -0.008598815 0.07320534 0.022842158 0.02155415 0.0049683675 0.03173633 -0.018472154
-0.026360938 -0.041149672 -0.061818406 0.015874356 0.050829105 0.03557168 0.09664208 0.031441823
-0.010621164 0.05888333 -0.030557193 0.06090121 0.054548535 0.009072181 -0.030970452 -0.011771248
0.0074404106 0.017768167 0.073377095 0.0075219143 0.014848404 -0.031727705 0.05870831 -0.02109105
-0.021334397 0.01538685 0.00068676355 0.11029668 -0.055569336 -0.06942721 -0.019413175 0.017404914
0.034944832 0.09805287 0.012778987 -0.020345062 0.066741645 0.057773426 -0.0049121547 0.07884869
-0.067743346 -0.039835192 0.05084833 0.010988992 0.020883188 0.024265911 -0.009035656 -0.028432637
0.09758259 0.049863935 0.054299504 -0.0013269779 -0.0559762 -0.03549721 0.07253477 -0.0052559385
-0.03420068 0.103705436 -0.00939692 -0.033665642 0.009277669 -0.06062458 -0.03553541 -0.0371134
-0.007105083 -0.06265331 -0.030836042 0.007668142 0.020123325 -0.042096533 0.04688728 -0.04962459
-0.041940197 -0.01723928 -0.023503402 -0.002579252 -0.049213994 -0.059778616 0.06568024 0.00452377
0.013245672 0.01167454 0.020889428 0.014482535 -0.001000751 0.026208166 0.017776527 0.040862296
0.011610964 -0.010460237 0.04196192 -0.0054795425 0.014173788 0.036829773 -0.028845478 0.013607777
0.038347177 0.048189603 -0.039589446 0.032625146 0.012337277 0.04668039 0.04377369 -0.0049288515
-0.039029 0.10893747 -0.00643275 -0.036841817 0.04301552 0.020100363 0.039849833 0.045721002
-0.04347241 0.06479932 -0.013849672 -0.067383155 -0.02908787 0.050060686 0.009780901 0.008698288
0.11300904 -0.052818913 0.049280833 0.0039876164 -0.038084395 -0.031692274 0.08193846 0.045044765
-0.0071107307 -0.021835059 0.061434634 0.02829662 -0.006314447 0.051652603 0.019533645 0.08321023
0.05933446 -0.048676394 -0.023635766 -0.037979495 0.06295067 0.08459325 0.043554977 -0.060249373
-0.03956942 0.04495372 -0.038520355 -0.025447764 -0.047443733 -0.011493977 -0.022561694 -0.06594613
-0.07051539 0.095897324 -0.06276296 0.0014772562 0.05500932 0.06437704 0.015563621 0.03402732
-0.070194304 0.021779906 -0.015868235 0.0123198675 -0.029451985 -0.017472237 -0.041404102 0.046409234
0.039861128 -0.07143104 -0.04422889 0.05243237 0.013762668 -0.055001322 -0.07618578 -0.0019044811
-0.070273414 0.0035530915 -0.03688245 0.011932536 0.044903144 -0.04880283 0.06300628 -0.006684825
-0.036910143 -0.016722843 0.061676305 0.028694341 -0.031449422 -0.011920304 -0.04286716 0.022157233
0.039304435 0.062104426 0.043085985 -0.028081382 0.06357287 -0.008049941 0.011418654 0.006320432
-0.06723031 0.05757123 0.06493007 -0.05034403 0.09837835 -0.06738815 0.06607336 0.091575965
00000000: ba88 913d a48a 6a3d 8871 83bd 8c32 1cbb
00000010: ee37 5fbd 7226 18bd cb17 293d f0e4 ff3b
00000020: fe8c e5bc cb08 033d c237 f83c b965 b13c
00000030: 0ce8 443d 0a94 f53c 26ea 403c b277 963d
00000040: b435 273d f4f8 513b b83e 4bbc a089 52bd
00000050: ee88 533c e218 733d 7afa a53b 3aeb 863d
00000060: 3814 a63d 05f9 52bc 96c5 40bc ae92 c23d
00000070: e2af 4a3d 5846 6d3d eeba 8b3d b13c 77bd
00000080: 822c 1e3d caf8 9cba e3e7 ef3a aecc cfbc
00000090: f46e fd3c 5cd2 e03c d677 a1bc e79b b23d
000000a0: 1ebd 1c3c 0be2 0cbc aeec 953d 7a1f bb3c
000000b0: 5492 b03c b0cd a23b f4fd 013d ea52 97bc
000000c0: e5f2 d7bc 8f8c 28bd 4c35 7dbd f00a 823c
000000d0: 2e32 503d 9cb3 113d 48ec c53d 24c9 003d
000000e0: 6404 2ebc a62f 713d 1453 fabc 8c73 793d
000000f0: 496e 5f3d 7ca3 143c bfb5 fdbc 31dc 40bc
00000100: b0ce f33b 8c8e 913c bb46 963d 647a f63b
00000110: b846 733c e9f4 01bd 2078 703d 23c7 acbc
00000120: 79c5 aebc 2019 7c3c ec07 343a 3ae3 e13d
00000130: ac9c 63bd da2f 8ebd 6108 9fbc c094 8e3c
00000140: 5022 0f3d f1cf c83d f55e 513c b0aa a6bc
00000150: d8af 883d d4a3 6c3d 24f6 a0bb 6c7b a13d
00000160: 06bd 8abd 3a2a 23bd 5746 503d 2c0b 343c
00000170: 3813 ab3c 4ec9 c63c 4a0a 14bc 90eb e8bc
00000180: 62d9 c73d 203e 4c3d 2869 5e3d fded adba
00000190: 4d47 65bd 8665 11bd 1c8d 943d 023a acbb
000001a0: 0316 0cbd 8463 d43d 8af5 19bc fce4 09bd
000001b0: 5d01 183c 7b51 78bd 948d 11bd 3804 18bd
000001c0: c2d1 e8bb 6150 80bd de9b fcbc 0a45 fb3b
000001d0: acd9 a43c 6a6d 2cbd e00c 403d 2743 4bbd
000001e0: 7cc9 2bbd 6439 8dbc 358a c0bc ab08 29bb
000001f0: 9d94 49bd 6cda 74bd 5d83 863d 223c 943b
00000200: 6004 593c 9246 3f3c 4e20 ab3c 2848 6d3c
00000210: a22b 83ba 82b2 d63c 14a0 913c 395f 273d
00000220: ea3b 3e3c 6a61 2bbc 43e0 2b3d bc8d b3bb
00000230: 2d39 683c d1da 163d 5a4d ecbc 27f3 5e3c
00000240: ee11 1d3d 7662 453d 8b28 22bd f2a1 053d
00000250: 4a22 4a3c f033 3f3d 0a4c 333d 3482 a1bb
00000260: dfdc 1fbd 9c1a df3d d1c9 d2bb 72e7 16bd
00000270: 0b31 303d 84a9 a43c 9439 233d f245 3b3d
00000280: 2010 32bd 82b5 843d bce9 62bc 2e00 8abd
00000290: af49 eebc 6f0c 4d3d 1240 203c 4483 0e3c
000002a0: 4971 e73d a558 58bd b3da 493d 8daa 823b
000002b0: 62fe 1bbd c2cf 01bd 5acf a73d dc80 383d
000002c0: 2201 e9bb 70df b2bc e2a2 7b3d 50ce e73c
000002d0: 6ce9 cebb ae91 533d 0605 a03c 206a aa3d
000002e0: b108 733d e660 47bd cb9f c1bc 6390 1bbd
000002f0: 48ec 803d 3a3f ad3d b466 323d 0cc8 76bd
00000300: 8b13 22bd 6421 383d 85c7 1dbd d477 d0bc
00000310: 5c54 42bd 3c51 3cbc 4dd3 b8bc c40e 87bd
00000320: 5f6a 90bd d165 c43d de89 80bd 7ea0 c13a
00000330: 7451 613d 1cd8 833d 8ffe 7e3c 3b60 0b3d
00000340: 08c2 8fbd c66b b23c 1afe 81bc 45d9 493c
00000350: 4a45 f1bc f021 8fbc 5997 29bd 9c17 3e3d
00000360: 6c45 233d 704a 92bd 5a29 35bd 53c3 563d
00000370: d07c 613c 1149 61bd 4a07 9cbd c89f f9ba
00000380: 82eb 8fbd fcda 683b 0d12 17bd af80 433c
00000390: 5cec 373d 7ae5 47bd 7009 813d 600c dbbb
000003a0: 172f 17bd 58fe 88bc 4ba0 7c3d 6510 eb3c
000003b0: 1cd1 00bd 614d 43bc 7a95 2fbd 1683 b53c
000003c0: b0fd 203d 3661 7e3d ee7a 303d ed0a e6bc
000003d0: 7e32 823d e6e3 03bc 4e15 3b3c a01b cf3b
000003e0: 0bb0 89bd cfcf 6b3d 0efa 843d 8b35 4ebd
000003f0: 977a c93d cc02 8abd 7851 873d 2e8c bb3d

net.3.bias f4 [64]
0.01747629 -0.016797097 0.119372845 0.11129787 0.032051083 0.015045445 -0.0033394038 0.021544281
0.01647788 0.09118359 0.04678346 0.12121993 0.07357912 0.009887307 0.05572767 0.026128996
0.02356548 0.00052748335 0.055577155 0.060696095 0.1061912 0.015841985 0.047133107 0.11738664
0.046883143 0.0036079593 0.055763163 -0.026426822 0.044353344 -0.0025014225 0.12717311 0.04220404
0.12017728 0.057251986 0.0019664504 0.08636864 0.06523993 0.08884215 0.04780471 0.05197687
0.12670033 0.10143421 -0.00082496094 0.01558219 0.080746084 0.022580916 0.04583977 0.08539895
0.08174347 0.049594015 -0.0019620066 0.11654511 0.1205586 0.07570034 -0.006042688 0.12576514
-0.0065332297 0.05370854 0.003644808 -0.007440895 0.10737511 0.114294946 0.11443944 0.0356179
00000000: 702a 8f3c 119a 89bc c079 f43d 23f0 e33d
00000010: ff47 033d 2c81 763c e6d9 5abb a27d b03c
00000020: 9efc 863c 76be ba3d 03a0 3f3d 2842 f83d
00000030: a6b0 963d 5ffe 213c b342 643d 7a0c d63c
00000040: 650c c13c cf46 0a3a dfa4 633d 789c 783d
00000050: c67a d93d 0dc7 813c a50e 413d 6868 f03d
00000060: 8a08 403d 8373 6c3b ea67 643d 107d d8bc
00000070: daab 353d e8ee 23bb ab39 023e 25de 2c3d
00000080: 811f f63d 0f81 6a3d 90df 003b 0be2 b03d
00000090: 839c 853d e0f2 b53d dfce 433d b3e5 543d
000000a0: bbbd 013e bdbc cf3d 3142 58ba 714c 7f3c
000000b0: 345e a53d 9dfb b83c 7cc2 3b3d a5e5 ae3d
000000c0: 1f69 a73d 1823 4b3d 0295 00bb 34af ee3d
000000d0: 6de7 f63d c808 9b3d be01 c6bb 94c8 003e
000000e0: b414 d6bb 7cfd 5b3d bbdd 6e3b c0d2 f3bb
000000f0: 7be7 db3d 7813 ea3d 3a5f ea3d 13e4 113d

net.6.weight f4 [64, 64, 3]
0.033755332 -0.063581735 -0.06114039 -0.035889193 0.022635281 0.029063834 -0.009909358 -0.01672798
-0.038295392 0.04053622 0.030374294 0.06020245 0.061480656 0.00052959414 0.004947002 0.010508656
0.041786373 -0.015187991 -0.015026816 -0.024063822 -0.037635647 -0.023189707 0.050535165 0.05336473
-0.005778272 -0.02607156 -0.04189607 0.08864957 0.06427899 0.03300362 -0.00010557899 0.014254915
0.021821173 0.06972018 0.012960696 -0.05721864 0.04571307 0.0705052 -0.047694474 0.05621334
0.011697244 -0.056417182 0.043790195 -0.04681606 0.05388526 0.0680065 0.021335755 -0.040391933
-0.0017047804 0.054958716 -0.0107454285 -0.040749054 -0.021256573 -0.06497419 0.024470234 -0.022250753
-0.026996605 0.04627787 -0.024395902 0.040706255 0.049605668 -0.05909723 0.04615263 0.008372455
-0.05699317 0.01272613 0.028583495 0.045641087 -0.044193417 0.08807513 -0.0060672592 -0.06589191
0.045989994 0.037219465 -0.024045125 0.07869877 -0.0030918517 -0.048521563 0.038679756 -0.026077997
0.04555152 -0.011440768 -0.03643 0.045072056 0.031147592 0.067382365 0.048412234 0.08994348
-0.01901403 -0.032694407 0.078998104 0.035848383 0.026831074 0.09876278 0.056013577 -0.03351901
0.0002585864 0.00059296633 0.040657356 0.088100895 0.062094785 -0.0005090339 0.08207112 0.06098573
-0.055866506 -0.0016890806 0.012344347 -0.070541 -0.013788181 -0.03473537 0.06533156 0.08490359
-0.013784442 0.036431298 0.09667375 -0.011341151 -0.0033820427 -0.01834943 -0.009205056 -0.029769659
0.0480096 0.061556138 -0.040831175 0.007952271 -0.06363287 -0.0043124827 0.0042426432 -0.007340243
-0.05694219 0.045669883 -0.07161362 -0.06886353 0.04492069 -0.07057437 0.07143888 0.098338604
-0.03275252 -0.068493225 0.079920836 -0.061134886 0.0022733295 0.07177324 0.0012921279 0.020024307
0.040214576 -0.021202393 0.039403528 0.047707897 0.0140690645 0.021584727 -0.020785477 0.050729357
0.007907035 0.10339792 0.06786944 -0.0644743 0.10607492 0.023575936 0.031990953 -0.0069098296
0.039252117 -0.024544615 0.057752565 0.019557644 0.04729432 -0.027619611 -0.008748401 -0.021678533
-0.03573863 -0.05095887 0.058238648 0.099258155 -0.030413914 -0.034819983 0.06738707 0.0231508
-0.06113428 0.06375218 -0.04679758 -0.057880677 0.059915192 0.044402465 0.017570445 -0.02462998
-0.05356817 -0.03114519 0.07980176 -0.04101871 0.06946341 0.009768672 -0.06755938 -0.06659829
0.012025826 -0.0129744895 -0.04105231 -0.02795159 -0.06310595 -0.03926341 0.084648155 -0.027551875
0.02380769 -0.055338502 -0.050570138 -0.030934304 0.08421698 -0.053968936 -0.029213984 -0.0050544287
0.04350195 0.0064554317 0.039210867 -0.027795015 -0.0011729684 0.07524257 -0.02313568 0.052824974
-0.00585578 -0.050323814 -0.042270582 -0.046085794 -0.0054243626 -0.065895334 0.04290735 0.01309246
-0.0060656625 0.02556426 -0.008999975 -0.0009916027 0.06260055 -0.003389188 -0.029409654 0.061369453
0.053081818 0.067854896 -0.01931773 0.041386925 -0.035174012 -0.038082622 -0.034996066 0.02447509
0.020914365 0.019173224 0.027832985 0.016883563 -0.012879579 0.05163376 -0.049855214 0.025218643
0.069360286 -0.030009769 0.06493293 0.011147134 -0.04114653 -0.03653779 0.055510707 -0.039705694
00000000: 0843 0a3d 2437 82bd 586e 7abd 8c00 13bd
00000010: a06d b93c 4717 ee3c dc5a 22bc 1e09 89bc
00000020: a1db 1cbd 4f09 263d 83d3 f83c d896 763d
00000030: 24d3 7b3d 76d4 0a3a 761a a23b 7f2c 2c3c
00000040: 3028 2b3d 0dd7 78bc 0933 76bc 7e21 c5bc
00000050: d627 1abd 57f8 bdbc f6fd 4e3d fa94 5a3d
00000060: a957 bdbb 0694 d5bc 379b 2bbd e88d b53d
00000070: b4a4 833d ce2e 073d 4a6a ddb8 728d 693c
00000080: 51c2 b23c 74c9 8e3d 1959 543c 185e 6abd
00000090: a13d 3b3d 0865 903d 485b 43bd f63f 663d
000000a0: cca5 3f3c b415 67bd 595d 333d 32c2 3fbd
000000b0: cab6 5c3d fe46 8b3d 52c8 ae3c 0372 25bd
000000c0: f072 dfba 641c 613d 980d 30bc 7be8 26bd
000000d0: 4422 aebc 3011 85bd cd75 c83c 3647 b6bc
000000e0: fc27 ddbc dd8d 3d3d ead9 c7bc 9abb 263d
000000f0: 502f 4b3d f00f 72bd 8a0a 3d3d 9f2c 093c
00000100: ac71 69bd 4281 503c ef27 ea3c 26f2 3a3d
00000110: 2804 35bd bc60 b43d dccf c6bb 56f2 86bd
00000120: 0160 3c3d 7073 183d 48fa c4bc d22c a13d
00000130: aaa0 4abb 8cbe 46bd aa6e 1e3d 86a1 d5bc
00000140: 3b94 3a3d 0f72 3bbc a037 15bd 7a9d 383d
00000150: 3c29 ff3c c4ff 893d e84b 463d 4a34 b83d
00000160: 50c3 9bbc 92ea 05bd c2c9 a13d c1d5 123d
00000170: d7cc db3c 2444 ca3d 7e6e 653d 3b4b 09bd
00000180: e192 8739 4c71 1b3a 5488 263d 3e6e b43d
00000190: 1a57 7e3d b070 05ba e714 a83d 2ccc 793d
000001a0: 47d4 64bd 2464 ddba f23f 4a3c cd77 90bd
000001b0: d3e7 61bc ad46 0ebd 8ecc 853d efe1 ad3d
000001c0: 24d8 61bc fc38 153d e3fc c53d 3cd0 39bc
000001d0: 43a5 5dbb 8b51 96bc ced0 16bc 80df f3bc
000001e0: b7a5 443d 4a22 7c3d 973e 27bd 3e4a 023c
000001f0: f351 82bd ba4f 8dbb df05 8b3b 6c86 f0bb
00000200: 373c 69bd 5810 3b3d 29aa 92bd 5308 8dbd
00000210: c2fe 373d 4c89 90bd 8c4e 923d c065 c93d
00000220: 8227 06bd 2d46 8cbd 89ad a33d 9368 7abd
00000230: 24fc 143b d9fd 923d 9e5c a93a 040a a43c
00000240: 0ab8 243d a4b0 adbc 9865 213d 5b69 433d
00000250: ef81 663c 74d2 b03c 4e46 aabc 96c9 4f3d
00000260: 828c 013c 4ac2 d33d 22ff 8a3d 1a0b 84bd
00000270: cf3d d93d 5222 c13c f208 033d da6b e2bb
00000280: d4c6 203d ca11 c9bc f48d 6c3d 5a37 a03c
00000290: b0b7 413d 8642 e2bc 7455 0fbc 2e97 b1bc
000002a0: ab62 12bd 40ba 50bd a68b 6e3d dc47 cb3d
000002b0: 9a26 f9bc 669f 0ebd 3b02 8a3d bfa6 bd3c
000002c0: f067 7abd 8190 823d d2ae 3fbd 4a14 6dbd
000002d0: a269 753d 5cdf 353d e5ef 8f3c d0c4 c9bc
000002e0: 4c6a 5bbd 3324 ffbc 1b6f a33d 3c03 28bd
000002f0: d542 8e3d c80c 203c 925c 8abd af64 88bd
00000300: f807 453c f492 54bc 7826 28bd bcfa e4bc
00000310: b13d 81bd abd2 20bd 035c ad3d 78b4 e1bc
00000320: 5808 c33c a0aa 62bd a222 4fbd f069 fdbc
00000330: f479 ac3d 880e 5dbd 2a52 efbc 9f9f a5bb
00000340: 1a2f 323d 1688 d33b 939b 203d 5fb2 e3bc
00000350: 4abe 99ba c718 9a3d 0a87 bdbc 005f 583d
00000360: d8e1 bfbb 5820 4ebd eb23 2dbd 75c4 3cbd
00000370: dabe b1bb 22f4 86bd 9ebf 2f3d c281 563c
00000380: 77c2 c6bb 246c d13c a274 13bc aaf8 81ba
00000390: b834 803d 241d 5ebb 84ec f0bc 895e 7b3d
000003a0: 526c 593d 82f7 8a3d 3740 9ebc 5685 293d
000003b0: a012 10bd 86fc 1bbd 0958 0fbd fc7f c83c
000003c0: 9a54 ab3c 2a11 9d3c 0002 e43c 664f 8a3c
000003d0: df04 53bc ec7d 533d fb34 4cbd 5497 ce3c
000003e0: c40c 8e3d 0cd7 f5bc 8efb 843d 78a2 363c
000003f0: 4489 28bd a6a8 15bd 325f 633d 70a2 22bd

net.6.bias f4 [64]
0.131361 0.10200972 0.11006513 -0.02729941 -0.04527916 -0.0006737805 0.036184516 0.05579324
0.013329971 0.09042388 0.034005865 0.13730207 0.13190258 0.020704113 0.08069974 0.05460873
-0.0043156845 0.00588062 0.07926103 -0.05682677 0.105971165 -0.06356756 -0.015153084 -0.05155562
0.014760039 0.1081059 0.022340277 0.09521067 0.015688352 0.016238183 0.009797349 0.09538614
0.011418695 0.12594168 0.09342457 -0.03546675 0.03142545 -0.029323764 0.042990666 0.080674134
-0.021074401 -0.056492563 -0.049490884 0.05707895 -0.055613015 0.117898405 0.12565014 0.05552278
0.054040406 -0.036750615 0.016722951 0.06591038 0.13259092 -0.0030426467 0.066528976 0.07167556
0.096327074 0.060704917 0.11422224 0.09060518 0.10203608 0.02249075 0.07449714 0.09428702
00000000: 7f83 063e 79ea d03d d469 e13d 03a3 dfbc
00000010: a476 39bd a5a0 30ba 3736 143d 7487 643d
00000020: f365 5a3c 2830 b93d bc49 0b3d ea98 0c3e
00000030: 7811 073e ac9b a93c e845 a53d 67ad 5f3d
00000040: 966a 8dbb 37b2 c03b 9b53 a23d 30c3 68bd
00000050: 6907 d93d b52f 82bd a444 78bc fc2b 53bd
00000060: 17d4 713c a066 dd3d f502 b73c d0fd c23d
00000070: dc84 803c f005 853c 0f85 203c cf59 c33d
00000080: 7a15 3b3c dbf6 003e 6255 bf3d 9545 11bd
00000090: f9b7 003d 6438 f0bc fb16 303d 7b38 a53d
000000a0: 39a4 acbc bf64 67bd f4b6 4abd 9ecb 693d
000000b0: 79ca 63bd b874 f13d 6eaa 003e db6b 633d
000000c0: 7959 5d3d d087 16bd 92fe 883c 05fc 863d
000000d0: eac5 073e 2467 47bb 5840 883d a3ca 923d
000000e0: 2147 c53d b8a5 783d 5aed e93d 358f b93d
000000f0: 4bf8 d03d 853e b83c f591 983d 8e19 c13d

net.9.weight f4 [64, 64, 3]
0.052230936 0.05386413 -0.041235395 -0.01208614 -0.03845736 0.051952712 0.033906616 -0.06021482
0.0011944191 0.026453516 0.0010421784 -0.024010018 -0.021410525 0.031458832 0.023835488 0.06647764
0.004638139 0.05332549 -0.0035330907 -0.02103914 -0.038747832 0.0027196754 -0.062287167 0.015903227
-0.014533721 -0.02636182 0.05467125 0.060777027 -0.03408863 0.040701125 -0.02831328 0.02807321
-0.021457661 0.081395075 -0.0052264133 -0.041735217 0.074158095 -0.059280474 0.029471606 0.011333597
0.012643218 -0.05498409 0.009898042 -0.067364514 -0.014852803 0.017276144 -0.0015362138 -0.0059198276
0.07546319 0.004954326 0.021981232 0.06525826 -0.023934912 0.057214305 -0.013172703 -0.037886176
-0.0560154 -0.009168668 -0.038142566 0.022074666 -0.031415604 -0.04071573 0.009435649 -0.032870647
0.0021093762 -0.06906008 -0.013128332 0.020458996 -0.007749236 0.013518091 -0.063700594 -0.017019935
-0.04699475 -0.0026431987 -0.04043248 -0.00866104 -0.061856825 -0.00640727 0.032615986 0.020170443
-0.07049283 0.007241637 -0.018331561 0.01582935 -0.022231529 -0.068040706 0.044383403 -0.04611643
-0.040127482 0.058460183 -0.069269866 0.009175463 0.0343308 0.05010882 0.025311 0.02957419
-0.027350102 0.017840467 0.0462372 0.09028873 0.051054977 0.04732047 0.0902224 0.06190669
-0.060135268 0.026586164 -0.042655617 -0.05580698 0.05527374 -0.033938825 -0.04865685 0.060573168
-0.019015182 0.006071995 -0.03937948 -0.052032046 0.065123826 0.077036515 -0.045127653 0.0144337695
-0.07351084 -0.05658355 -0.06225565 -0.05777515 -0.0292748 0.036215354 0.062260553 -0.04698009
0.06441532 0.07652672 0.03534036 -0.013588842 0.036817856 -0.033760335 0.025127959 -0.0037633919
0.06259562 0.052977182 0.043599047 0.07135086 -0.058903065 -0.04769108 -0.038463295 -0.044073008
0.080198474 0.028493319 0.04632871 -0.0028503737 0.07193257 -0.062128115 0.008727233 -0.015406117
-0.041412327 0.029306572 -0.020185716 -0.02558536 -0.031966288 -0.01681632 0.06703821 -0.03252932
0.03879343 -0.050198965 0.01885549 0.021360386 0.019465674 -0.03246086 0.027810082 0.01480571
-0.026218666 -0.014426196 0.0014327455 -0.016310472 0.039157078 -0.008973128 -0.04091568 0.01185781
0.042298824 -0.023778511 -0.032448463 0.07196118 -0.0063515157 -0.049947117 0.050012812 0.02291276
0.032451794 -0.01029942 0.014822398 0.050802372 0.025570178 -0.026236989 -0.058174122 -0.028098732
0.089654975 0.0660432 -0.0013463991 0.009051252 0.06544675 0.064134955 0.019747216 -0.028988004
-0.009892609 -0.04718484 -0.023650303 0.009701365 -0.053142596 0.023828365 -0.0122173 0.09705829
-0.02546329 0.045955226 0.09505078 0.05796179 0.03685215 0.09584074 -0.06061115 0.03150566
0.052407548 -0.019811068 0.031824037 0.027269065 0.0365232 -0.07202372 0.09144534 -0.0036826893
-0.061760306 0.032683466 -0.024879422 -0.03971788 -0.024892472 -0.05575236 -0.029277777 -0.024349514
-0.044262692 -0.011565754 0.016566757 0.0214074 -0.051560197 0.06762249 0.0397674 -0.03205104
0.011807095 -0.015357925 0.07010122 0.06423597 0.012945054 -0.015836108 -0.029172562 0.062229883
-0.008971587 -0.053548478 0.026649464 -0.03918505 0.051864125 -0.0065866914 0.06928402 -0.030809358
00000000: 1bf0 553d a2a0 5c3d 72e6 28bd f204 46bc
00000010: 7785 1dbd 5ecc 543d aae1 0a3d d1a3 76bd
00000020: 0e8e 9c3a 0bb5 d83c b499 883a a8b0 c4bc
00000030: 2065 afbc fada 003d a442 c33c 6e25 883d
00000040: 88fb 973b d46b 5a3d 6d8b 67bb 465a acbc
00000050: 0cb6 1ebd 953c 323b d420 7fbd 7c47 823c
00000060: d81e 6ebc bef4 d7bc f6ee 5f3d 55f1 783d
00000070: 85a0 0bbd 39b6 263d 40f1 e7bc caf9 e53c
00000080: fac7 afbc 76b2 a63d 5542 abbb 8cf2 2abd
00000090: 33e0 973d 15d0 72bd 706e f13c 8db0 393c
000000a0: 8025 4f3c ff36 61bd 662b 223c 68f6 89bd
000000b0: 2c59 73bc b386 8d3c c85a c9ba 1dfb c1bb
000000c0: 728c 9a3d e657 a23b fc11 b43c 1fa6 853d
000000d0: 2613 c4bc 8c59 6a3d 52d2 57bc 892e 1bbd
000000e0: 6770 65bd 2e38 16bc 613b 1cbd eed5 b43c
000000f0: a6ad 00bd 8ac5 26bd fb97 1a3c 5fa3 06bd
00000100: 763d 0a3b 5f6f 8dbd 3718 57bc a099 a73c
00000110: 4eed fdbb fc7a 5d3c 7575 82bd 646d 8bbc
00000120: 917d 40bd 8439 2dbb 879c 25bd 09e7 0dbc
00000130: 955d 7dbd 14f4 d1bb 5798 053d 7c3c a53c
00000140: 8b5e 90bd 414b ed3b 122c 96bc 8eac 813c
00000150: e51e b6bc ed58 8bbd 5fcb 353d 95e4 3cbd
00000160: b75c 24bd f273 6f3d 5cdd 8dbd ae54 163c
00000170: 749e 0c3d e83e 4d3d 0459 cf3c 9245 f23c
00000180: 520d e0bc 2c26 923c 3863 3d3d 4ce9 b83d
00000190: 061f 513d 1cd3 413d 86c6 b83d df91 7d3d
000001a0: 6650 76bd 3acb d93c a8b7 2ebd dc95 64bd
000001b0: b866 623d 7003 0bbd 684c 47bd 921b 783d
000001c0: bac5 9bbc 96f7 c63b 614c 21bd 8e1f 55bd
000001d0: a45f 853d 52c5 9d3d c6d7 38bd 9e7b 6c3c
000001e0: da8c 96bd 27c4 67bd c8ff 7ebd a3a5 6cbd
000001f0: b5d1 efbc 8d56 143d ec04 7f3d 326e 40bd
00000200: 2eec 833d 0aba 9c3d 0ec1 103d bca3 5ebc
00000210: 52ce 163d 4748 0abd 26d9 cd3c 3da3 76bb
00000220: 2232 803d 9afe 583d ea94 323d 6620 923d
00000230: 5744 71bd b957 43bd b08b 1dbd e685 34bd
00000240: 193f a43d d26a e93c 2cc3 3d3d 56cd 3abb
00000250: 6251 933d 0d7a 7ebd abfc 0e3c f069 7cbc
00000260: f99f 29bd 5614 f03c 845c a5bc 6498 d1bc
00000270: 15ef 02bd 61c2 89bc 544b 893d 773d 05bd
00000280: dce5 1e3d 6e9d 4dbd d476 9a3c fafb ae3c
00000290: 7a76 9f3c aef5 04bd f8d1 e33c a693 723c
000002a0: 87c8 d6bc da5b 6cbc f6ca bb3a 8a9d 85bc
000002b0: 2c63 203d 0704 13bc 3397 27bd 4347 423c
000002c0: 8841 2d3d 27cb c2bc aee8 04bd 6260 933d
000002d0: 6020 d0bb 5995 4cbd 3cda 4c3d 8ab3 bb3c
000002e0: 2cec 043d e6be 28bc a5d9 723c 2616 503d
000002f0: 8d78 d13c f4ee d6bc fd47 6ebd 502f e6bc
00000300: 079d b73d a841 873d a879 b0ba b44b 143c
00000310: f208 863d 3059 833d eac4 a13c 4078 edbc
00000320: 9c14 22bc e444 41bd 48be c1bc 79f2 1e3c
00000330: 0dac 59bd b433 c33c 122b 48bc 7fc6 c63d
00000340: 6498 d0bc 8c3b 3c3d fca9 c23d 5869 6d3d
00000350: 48f2 163d 2648 c43d 6643 78bd 140c 013d
00000360: 4ca9 563d d24a a2bc ec59 023d 6063 df3c
00000370: 5a99 153d 2c81 93bd b247 bb3d 4659 71bb
00000380: 60f8 7cbd 19df 053d eecf cbbc 37af 22bd
00000390: 4ceb cbbc 965c 64bd f3d7 efbc a278 c7bc
000003a0: cc4c 35bd 4a7e 3dbc 02b7 873c 925e af3c
000003b0: c930 53bd a97d 8a3d 24e3 223d f447 03bd
000003c0: 8c72 413c ce9f 7bbc 3a91 8f3d 268e 833d
000003d0: 7e17 543c baba 81bc 4cfb eebc c3e4 7e3d
000003e0: 90fd 12bc a655 5bbd fa4f da3c 8180 20bd
000003f0: 7a6f 543d 2cd5 d7bb c8e4 8d3d e863 fcbc

net.9.bias f4 [64]
0.08846646 0.005006722 0.0595973 0.06374044 0.028602766 -0.0026476553 0.08690377 -0.036986712
0.088650554 0.0734364 0.013735483 0.0515891 0.14184791 0.047555752 0.042424437 0.10198813
0.1368652 0.0059270924 -0.014643785 0.08263845 0.100153334 0.07281625 -0.0068259654 0.033844486
0.10833734 0.02419492 -0.03561323 0.052949794 0.074980475 0.08107683 0.12535296 0.005308873
0.10115433 0.060588427 0.102690235 0.027126914 0.10251988 0.030256376 0.12700713 0.06575243
0.11916444 0.09760026 0.099460244 0.084026664 0.04612896 0.0406215 0.049927376 -0.048879415
0.072466746 0.035047695 -0.01911531 0.115272984 0.049023148 0.13816781 0.13276784 0.086569935
0.010411841 0.09651554 0.12244094 0.0031976548 -0.025475813 0.13512523 0.054013804 -0.051339965
00000000: e72d b53d 6e0f a43b 4c1c 743d 598a 823d
00000010: 5950 ea3c 4984 2dbb 9bfa b13d 617f 17bd
00000020: 6c8e b53d d365 963d cb0a 613c 184f 533d
00000030: 9440 113e d2c9 423d 3fc5 2d3d 27df d03d
00000040: 6426 0c3e 0e38 c23b 7cec 6fbc 593e a93d
00000050: 311d cd3d b020 953d 59ac dfbb 84a0 0a3d
00000060: f8df dd3d 6d34 c63c 2edf 11bd e2e1 583d
00000070: 5d8f 993d 9c0b a63d 875c 003e 0ef6 ad3b
00000080: 002a cf3d 922b 783d 424f d23d 4339 de3c
00000090: f1f5 d13d 38dc f73c 280e 023e 36a9 863d
000000a0: 7c0c f43d a5e2 c73d d0b1 cb3d 2c16 ac3d
000000b0: b8f1 3c3d bb62 263d a680 4c3d c835 48bd
000000c0: 7269 943d 2c8e 0f3d b697 9cbc 3e14 ec3d
000000d0: 7fcc 483d dd7b 0d3e 4bf4 073e 944b b13d
000000e0: 6d96 2a3c f0a9 c53d 51c2 fa3d bf8f 513b
000000f0: a7b2 d0bc 455e 0a3e 943d 5d3d db49 52bd

net.12.weight f4 [64, 64, 3]
-0.07163411 -0.048662677 0.018395904 0.032029636 0.018418703 -0.05735737 0.03625811 0.06768535
-0.054914817 -0.020177275 -0.032803927 0.023908664 -0.045145247 0.011969486 -0.032770384 -0.019212916
0.020519597 -0.004949593 0.059619818 -0.004142628 0.06783825 0.01231464 0.0144651905 0.05488862
-0.06758359 -0.053779304 0.07202482 -0.0111156935 -0.04693692 -0.03286059 0.026426107 -0.0120816305
0.047943458 -0.043034345 -0.06216682 0.03253605 0.059245285 0.022230953 -0.0129789375 -0.016343579
-0.053857286 0.051551364 0.0645487 0.01701071 0.014894269 -0.07464621 -0.06509588 -0.02036059
-0.07875504 -0.05130128 -0.019985193 -0.05452957 0.0015562191 -0.055987127 0.03944636 0.04870435
-0.06739917 -0.05072802 -0.06475759 0.035302587 0.051237002 -0.06997842 -0.014386011 -0.068575375
-0.06541289 0.0367314 0.058922414 -0.013855042 -0.022935057 -0.0722255 -0.04288583 -0.01635462
0.038698852 -0.03797627 -0.05572261 -0.0050140885 0.060517572 0.06394938 -0.011904493 0.052316427
-0.058719434 0.05385631 0.045090742 -0.045027234 0.014729555 0.054293677 -0.017468862 0.039431762
0.011369009 -0.07086695 -0.044195313 0.06307994 0.05519332 -0.06441869 -0.04452981 -0.06953796
0.006217893 -0.015725207 0.04894851 -0.07217277 -0.018381845 0.035398766 -0.08105575 -0.009106334
-0.0392082 0.06771466 -0.033523027 -0.03559202 0.05426494 -0.06595105 -0.008226485 -0.005421711
0.06681268 -0.0072698398 -0.072620645 -0.054178588 -0.027737912 0.03515763 0.027881749 -0.065060884
-0.042625595 -0.017198786 -0.06387812 0.024028068 0.027046626 -0.06673828 0.014056228 -0.004777505
-0.022231523 -0.034115534 0.04829382 -0.034733225 -0.03886189 -0.04360672 0.04256352 -0.053770185
0.0074289963 0.05297724 0.011506013 -0.02631646 -0.06863645 -0.012428183 -0.025201555 -0.06849121
0.04141257 -0.038497075 -0.0677812 -0.02241301 -0.0034094765 -0.015502 0.034381617 -0.01906033
0.03350146 -0.02291188 -0.047647655 -0.061870355 -0.059950236 0.019131463 0.0576232 -0.0025766192
0.037901044 -0.0017663892 -0.03292212 0.06439948 0.034830004 -0.0565218 -0.037560064 -0.01433
-0.040895935 0.004512892 -0.047290042 -0.008150207 0.023968127 0.050439253 -0.044621225 0.027898282
-0.025562167 0.0216254 -0.069185 -0.06404767 0.04122183 0.040489987 0.07149041 0.011827496
-0.0056081647 0.060776535 -0.016655907 -0.05614829 -0.036811713 -0.04705369 -0.014741709 0.022456732
-0.051195037 -0.06663696 0.0012439142 0.040751845 -0.061669767 -0.06341214 0.0014108025 -0.07116447
-0.0018381397 -0.0354947 0.006196983 -0.0034098937 -0.046109166 0.022105385 -0.06499672 0.034904428
0.03443756 -0.027101148 -0.013008805 0.020698283 0.056164153 0.041032925 -0.022529118 -0.06965442
0.004321648 0.00658389 0.044995606 -0.021425018 -0.06580267 0.04788898 0.064195454 0.0010306744
-0.0335334 0.010780093 -0.03252518 -0.04326553 -0.025987975 0.056811072 -0.06811042 0.03775462
-0.039997566 -0.021765716 0.042587884 0.0058274567 -0.008947507 -0.047452886 -0.047185503 -0.0021251899
0.04397894 0.037960574 0.06351209 -0.041105293 0.035446674 -0.045738712 -0.03754409 0.06144855
0.044159636 -0.03286642 -0.06343754 -0.028278653 0.009827556 -0.06465003 -0.023482274 0.006211868
00000000: e7b4 92bd 8452 47bd 02b3 963c 8231 033d
00000010: d2e2 963c 90ef 6abd 6283 143d 9e9e 8a3d
00000020: 5cee 60bd d04a a5bc 695d 06bd 1adc c33c
00000030: 39ea 38bd aa1b 443c 3d3a 06bd 6864 9dbc
00000040: b718 a83c 3230 a2bb e933 743d e2be 87bb
00000050: c8ee 8a3d 58c3 493c 68ff 6c3c e4d2 603d
00000060: 4469 8abd b047 5cbd c081 933d 991e 36bc
00000070: ee40 40bd d398 06bd 907b d83c 08f2 45bc
00000080: 5c60 443d c844 30bd a3a2 7ebd 8544 053d
00000090: 2fab 723d b01d b63c 9ca5 54bc f8e2 85bc
000000a0: 7599 5cbd 8627 533d 1c32 843d 0b5a 8b3c
000000b0: 1807 743c 1de0 98bd fd50 85bd 41cb a6bc
000000c0: 534a a1bd 4a21 52bd fdb7 a3bc 665a 5fbd
000000d0: 0cfa cb3a c252 65bd 8292 213d 367e 473d
000000e0: 9308 8abd 2fc8 4fbd a19f 84bd 7299 103d
000000f0: e4dd 513d d950 8fbd 4eb3 6bbc 3f71 8cbd
00000100: 31f7 85bd aa73 163d a158 713d 4200 63bc
00000110: 4de2 bbbc f7ea 93bd 0da9 2fbd 20fa 85bc
00000120: b082 1e3d 018d 1bbd 643d 64bd 394d a4bb
00000130: 46e1 773d e4f7 823d 100b 43bc c049 563d
00000140: ca83 70bd 6f98 5c3d 12b1 383d 7a6e 38bd
00000150: 3b54 713c 0c63 5e3d dc1a 8fbc 3383 213d
00000160: 1445 3a3c b122 91bd 2506 35bd 0e30 813d
00000170: 6412 623d f2ed 83bd e464 36bd eb69 8ebd
00000180: 78bf cb3b 26d2 80bc 3c7e 483d 51cf 93bd
00000190: 8695 96bc 4cfe 103d 8f00 a6bd bc32 15bc
000001a0: c798 20bd fcad 8a3d 714f 09bd f0c8 11bd
000001b0: ea44 5e3d 5811 87bd 61c8 06bc 9ca8 b1bb
000001c0: 16d5 883d d637 eebb 22ba 94bd 5eea 5dbd
000001d0: 9e3a e3bc 7201 103d 4468 e43c a43e 85bd
000001e0: 2d98 2ebd 78e4 8cbc 88d2 82bd 83d6 c43c
000001f0: e390 dd3c 14ae 88bd 184c 663c 9e8c 9cbb
00000200: e21e b6bc bbbc 0bbd becf 453d 6d44 0ebd
00000210: a52d 1fbd f69c 32bd 1657 2e3d 203e 5cbd
00000220: f06e f33b aafe 583d b783 3c3c 9e95 d7bc
00000230: 4491 8cbd 949f 4bbc 7e73 cebc 1f45 8cbd
00000240: 3aa0 293d 1caf 1dbd dfd0 8abd 7d9b b7bc
00000250: 8671 5fbb 1afc 7dbc bdd3 0c3d 6924 9cbc
00000260: d438 093d b2b1 bbbc 302a 43bd c56b 7dbd
00000270: 618e 75bd 96b9 9c3c 4e06 6c3d 7fdc 28bb
00000280: 203e 1b3d 3086 e7ba 58d9 06bd e0e3 833d
00000290: e8a9 0e3d 6783 67bd 95d8 19bd 60c8 6abc
000002a0: 7f82 27bd e2e0 933b 34b3 41bd 7288 05bc
000002b0: ce58 c43c 6499 4e3d bfc4 36bd f08a e43c
000002c0: c067 d1bc c027 b13c deb0 8dbd 6d2b 83bd
000002d0: 39d8 283d d4d8 253d 9069 923d 1dc8 413c
000002e0: b2c4 b7bb d1f0 783d f871 88bc c0fb 65bd
000002f0: e1c7 16bd 5fbb 40bd 3687 71bc 2ef7 b73c
00000300: e3b1 51bd f578 88bd d60a a33a 68eb 263d
00000310: 7099 7cbd 39de 81bd adea b83a adbe 91bd
00000320: bced f0ba e462 11bd 1010 cb3b 8678 5fbb
00000330: f7dc 3cbd 5a16 b53c 001d 85bd f2f7 0e3d
00000340: 660e 0d3d 3a03 debc e222 55bc 728f a93c
00000350: 620c 663d 2412 283d fc8e b8bc faa6 8ebd
00000360: 9c9c 8d3b acbd d73b 504d 383d 8583 afbc
00000370: 8dc3 86bd 3c27 443d e878 833d b217 873a
00000380: 525a 09bd fd9e 303c 2039 05bd 3237 31bd
00000390: bce4 d4bc bab2 683d 7a7d 8bbd 97a4 1a3d
000003a0: 7dd4 23bd 044e b2bc a270 2e3d 40f4 be3b
000003b0: 9098 12bc f55d 42bd 9645 41bd c546 0bbb
000003c0: 4323 343d 8c7c 1b3d a012 823d 065e 28bd
000003d0: 8830 113d 8458 3bbd d5c7 19bd 7ab1 7b3d
000003e0: bce0 343d f09e 06bd 8aeb 81bd a2a8 e7bc
000003f0: c203 213c 3c67 84bd e65d c0bc ed8c cb3b

net.12.bias f4 [64]
-0.00896733 -0.027749473 -0.0041019046 -0.021019524 0.12143324 0.1302986 0.049090292 0.12001527
0.12186006 0.12262891 -0.02433925 -0.069768235 -0.031853493 -0.037686214 0.11530074 0.11205004
-0.024382096 0.11775736 0.0064456575 -0.055432282 0.052236333 -0.0025310451 -0.07154387 -0.011597581
0.1412265 0.13008898 0.061942413 -0.07444742 -0.008001412 0.061211243 -0.058794163 -0.025192495
0.08641895 0.10154815 -0.023459291 0.13341475 0.012192603 0.11852737 0.14030124 0.026918763
-0.013455267 -0.03582725 0.022182444 0.02799201 0.050676633 0.02649627 -0.056403656 0.09010825
0.10531758 -0.0364632 0.057459254 0.10971588 0.051003475 0.12258794 0.019770013 -0.072421476
-0.0805428 0.119001664 -0.0001418249 0.07078021 0.15307 -0.023148384 -0.08331013 0.0840674
00000000: b5eb 12bc dd52 e3bc 4569 86bb 2331 acbc
00000010: feb1 f83d ff6c 053e e712 493d 91ca f53d
00000020: c491 f93d de24 fb3d 1b63 c7bc a6e2 8ebd
00000030: cf78 02bd dc5c 1abd cb22 ec3d 7e7a e53d
00000040: f6bc c7bc c52a f13d 1836 d33b f60c 63bd
00000050: c4f5 553d e4df 25bb 9885 92bd c803 3ebc
00000060: ae9d 103e 0c36 053e 54b7 7d3d e477 98bd
00000070: 5b18 03bc a4b8 7a3d 26d2 70bd 7e60 cebc
00000080: 6bfc b03d 7af8 cf3d b32d c0bc e09d 083e
00000090: 7cc3 473c 7abe f23d 21ab 0f3e bd84 dc3c
000000a0: 7b73 5cbc 98bf 12bd f5b7 b53c 804f e53c
000000b0: 4d92 4f3d b50e d93c 8507 67bd ad8a b83d
000000c0: beb0 d73d 705a 15bd 655a 6b3d b8b2 e03d
000000d0: 05e9 503d 630f fb3d b9f4 a13c b651 94bd
000000e0: a0f3 a4bd 25b7 f33d d5b6 14b9 37f5 903d
000000f0: 62be 1c3e aea1 bdbc 809e aabd 872b ac3d

net.15.weight f4 [64, 64, 3]
0.044388596 0.056650758 -0.029659642 -0.035183784 0.067405775 -0.051651217 -0.04485077 -0.04108982
0.016321935 -0.058019724 -0.038318124 0.011989767 -0.050070986 0.0028350847 -0.018732224 0.016278673
-0.021419827 -0.021721471 0.002977734 0.00817322 -0.044926982 -0.05102491 -0.07171674 -0.05592572
0.0036727756 -0.05387948 -0.053910032 -0.022954416 -0.027151745 0.07163811 -0.009045012 -0.040465206
0.03192365 -0.05581832 0.05175335 0.047316544 -0.030110903 0.00068677845 0.03685113 -0.012249488
0.06855315 -0.06889257 0.0075869737 0.02462505 -0.060819745 0.05098286 0.023388587 0.00843559
0.044370394 -0.02146306 -0.051210985 -0.0045991396 -0.039318167 -0.0013137052 0.062752336 0.03351257
0.06235397 -0.053548258 0.059615877 -0.03321563 -0.062353473 -0.024132602 -0.000543799 0.022506814
-0.047852546 0.04788988 0.05599677 -0.03172487 0.0062711826 -0.06624112 0.05114486 -0.06424326
-0.044775497 0.0103192385 -0.04895017 -0.06166069 0.070902064 -0.021474421 0.03591933 0.0038608713
-0.041777194 -0.070947506 0.05612897 0.0087578185 -0.035390668 0.044343226 0.040991314 0.045654528
0.056797497 -0.056222167 0.043968298 0.01622134 0.046621423 0.05598643 -0.03487686 0.014786599
0.0014505363 0.033381186 -0.019660719 0.01612767 0.032664962 -0.026978552 -0.06423095 0.043321498
0.039949577 -0.06287902 -0.011150084 -0.053187247 0.026164938 -0.006905435 0.03307718 0.0029032151
-0.02312299 0.016143631 0.021330463 0.057143092 0.06753282 0.056476273 0.020749837 -0.0019074166
-0.058183026 -0.025922243 0.066904426 0.052055962 0.05769495 0.031932607 -0.036842268 0.06589541
0.03953615 -0.06894415 0.01607421 0.06362215 -0.057000194 0.06171857 -0.033706713 0.06813306
0.035340644 0.024485357 -0.07662302 0.00015032673 -0.059167854 -0.009645202 -0.043551296 0.0066311723
0.0134720635 -0.055315543 0.05939527 -0.06544253 0.007736881 0.04586475 -0.031364426 0.03850414
0.07002264 0.033577792 -0.05731105 0.015892645 0.076137654 0.038679384 -0.010308692 -0.04370097
-0.05119127 -0.02720259 -0.0063080937 0.010729497 -0.069793284 0.036113244 0.059036307 -0.042902738
-0.03822208 -0.0077803815 -0.017300267 0.0334399 0.0014557608 0.044298977 0.02129104 -0.039772645
-0.012838777 -0.009188406 -0.033409137 0.0007530602 0.043321338 -0.003439175 -0.04030319 0.04890316
0.055272363 0.06984909 0.041401394 0.028324734 0.0028978796 0.057698224 -0.016492296 0.0060287286
0.009628794 -0.056868795 0.0147004165 -0.04908984 -0.03626027 -0.059845462 0.027595542 0.061177474
-0.05455135 0.022888215 0.038631916 0.012154048 -0.02834259 -0.0192523 -0.049798653 0.074272886
-0.049043342 0.01816772 0.10043683 -0.0683377 0.044913344 0.019331923 -0.013284983 -0.026528284
0.05716293 0.055679604 -0.046708312 0.10886708 -0.05866113 0.032039203 -0.062121835 -0.023770075
-0.020896241 -0.046725605 0.06603898 -0.051847775 -0.04206795 0.035583556 -0.06591545 -0.07193563
0.01451353 -0.031758495 0.05390854 0.040774442 0.0649291 0.045217063 -0.0030054373 -0.057557356
-0.02215297 0.068510726 0.05233167 0.008279652 0.037149914 -0.064330265 0.07125751 -0.008082589
0.03165146 0.039239924 -0.028380461 -0.042373113 0.0074399533 -0.041574575 0.01598218 0.032147713
00000000: d1d0 353d a00a 683d c7f8 f2bc df1c 10bd
00000010: 0a0c 8a3d 3a90 53bd 71b5 37bd cd4d 28bd
00000020: 94b5 853c 17a6 6dbd 77f3 1cbd ba70 443c
00000030: 3c17 4dbd d4cc 393b 5274 99bc da5a 853c
00000040: a278 afbc 3af1 b1bc 1626 433b f8e8 053c
00000050: 5b05 38bd 7fff 50bd 3ae0 92bd 5e12 65bd
00000060: f3b2 703b bbb0 5cbd c4d0 5cbd e60a bcbc
00000070: 566d debc 00b7 923d 8831 14bc d8be 25bd
00000080: 60c2 023d c0a1 64bd 52fb 533d fece 413d
00000090: 24ab f6bc ec08 343a 36f1 163d 14b2 48bc
000000a0: 9865 8c3d 8c17 8dbd 269c f83b 79ba c93c
000000b0: 201e 79bd 67d3 503d 6c99 bf3c 6e35 0a3c
000000c0: bbbd 353d 4dd3 afbc 9cc2 51bd 61b4 96bb
000000d0: 160c 21bd a230 acba 4c84 803d 7a44 093d
000000e0: e066 7f3d 6b55 5bbd c72f 743d 1d0d 08bd
000000f0: 5b66 7fbd bcb1 c5bc bc8d 0eba 3660 b83c
00000100: 0801 44bd 2e28 443d de5c 653d f0f1 01bd
00000110: 7e7e cd3b 6da9 87bd 467d 513d f891 83bd
00000120: 8366 37bd 0612 293c f97f 48bd eb8f 7cbd
00000130: 1a35 913d 20eb afbc 2620 133d ac06 7d3b
00000140: 901e 2bbd ed4c 91bd 7ee7 653d f47c 0f3c
00000150: cef5 10bd 3ea1 353d 82e6 273d 3e00 3b3d
00000160: 7ea4 683d 3749 66bd 1a18 343d 9ee2 843c
00000170: 1bf6 3e3d 0752 653d 0adb 0ebd 7e43 723c
00000180: ec1f be3a b6ba 083d 840f a1bc 2d1e 843c
00000190: b2cb 053d 2002 ddbc 848b 83bd e271 313d
000001a0: 2ba2 233d b7c6 80bd d8ae 36bc dfda 59bd
000001b0: da57 d63c fd46 e2bb f07b 073d de43 3e3b
000001c0: 6d6c bdbc a63f 843c 39bd ae3c e00e 6a3d
000001d0: a64e 8a3d aa53 673d 90fb a93c 4802 faba
000001e0: 5351 6ebd e25a d4bc 3005 893d a238 553d
000001f0: 8a51 6c3d c4cb 023d ebe7 16bd 2cf4 863d
00000200: a8f0 213d 9732 8dbd 10ae 833c 544c 823d
00000210: 0979 69bd 9ccc 7c3d 0d10 0abd 5989 8b3d
00000220: 5ac1 103d 8495 c83c 88ec 9cbd 06a1 1d39
00000230: fe59 72bd e906 1ebc d862 32bd 4e4a d93b
00000240: eeb9 5c3c 8d92 62bd 7448 733d bc06 86bd
00000250: a985 fd3b addc 3b3d fc77 00bd 84b6 1d3d
00000260: 0868 8f3d de88 093d febe 6abd 4b31 823c
00000270: 0fee 9b3d 466e 1e3d cae5 28bc caff 32bd
00000280: f0ad 51bd f7d7 debc 20b4 cebb c6ca 2f3c
00000290: c8ef 8ebd 7beb 133d 0ed0 713d c8ba 2fbd
000002a0: c18e 1cbd 92f2 febb 4ab9 8dbc 47f8 083d
000002b0: 3acf be3a d872 353d 8c6a ae3c a4e8 22bd
000002c0: bc59 52bc f88a 16bc 05d8 08bd 0469 453a
000002d0: b771 313d c863 61bb f514 25bd ae4e 483d
000002e0: 4665 623d 0a0d 8f3d 8294 293d 4609 e83c
000002f0: 5aea 3d3b f954 6c3d da1a 87bc a48c c53b
00000300: 17c2 1d3c 41ef 68bd 04da 703c 6e12 49bd
00000310: a685 14bd 8420 75bd 0c10 e23c 3b95 7a3d
00000320: 3d71 5fbd 1180 bb3c 803c 1e3d c621 473c
00000330: b82e e8bc 00b7 9dbc acf9 4bbd 621c 983d
00000340: ace1 48bd 78d4 943c d3b1 cd3d a3f4 8bbd
00000350: 0ef7 373d fb5d 9e3c 42a9 59bc d851 d9bc
00000360: ad23 6a3d 4c10 643d 3751 3fbd b4f5 de3d
00000370: a746 70bd 8a3b 033d 7773 7ebd 76b9 c2bc
00000380: 982e abbc 5963 3fbd 723f 873d 555e 54bd
00000390: 714f 2cbd 10c0 113d aefe 86bd fd52 93bd
000003a0: 28ca 6d3c 3215 02bd 34cf 5c3d 1a03 273d
000003b0: 8cf9 843d 8735 393d dff6 44bb 43c1 6bbd
000003c0: 257a b5bc 5a4f 8c3d bc59 563d 61a7 073c
000003d0: 822a 183d 96bf 83bd 75ef 913d d66c 04bc
000003e0: f6a4 013d 0bba 203d 247e e8bc 6e8f 2dbd
000003f0: daca f33b 1a4a 2abd 10ed 823c 52ad 033d

net.15.bias f4 [64]
-0.007158273 0.07468665 0.06970763 0.09543088 0.07511717 0.12764888 -0.0021138564 0.13084765
0.14080611 0.06527844 0.008009834 0.05525616 -0.06261594 0.043264084 0.1103083 -0.026807185
0.032984577 0.0053071356 0.11344131 0.07819635 0.13759622 -0.006021005 0.07408444 0.004838659
0.0021246574 0.12503934 0.13778746 0.07355931 0.10833817 0.08651202 0.13807371 0.028822154
0.0042109783 0.08651864 -0.025939474 0.08360769 0.12560156 0.07349464 -0.0132473465 0.10024484
0.0811376 0.13017578 0.11088362 0.0046232613 0.1287557 0.0061483625 -0.01721103 0.048788417
0.02149983 0.11561496 0.12285624 0.17815776 0.078008994 0.16664794 0.10795612 0.0826198
0.10786356 0.0057605132 0.02509222 0.007939711 0.019089313 -0.008931666 -0.024634423 0.13905792
00000000: f28f eabb 50f5 983d e0c2 8e3d 4471 c33d
00000010: 08d7 993d 63b6 023e a088 0abb edfc 053e
00000020: 7a2f 103e b4b0 853d ae3b 033c 4954 623d
00000030: c93c 80bd ae35 313d 51e9 e13d be9a dbbc
00000040: d61a 073d 7be7 ad3b eb53 e83d 6825 a03d
00000050: 06e6 0c3e da4b c5bb 95b9 973d 9d8d 9e3b
00000060: d63d 0b3b 500a 003e 2818 0d3e 43a6 963d
00000070: 67e0 dd3d 372d b13d 3263 0d3e 701c ec3c
00000080: 3ffc 893b af30 b13d 057f d4bc 823a ab3d
00000090: b29d 003e 5c84 963d 660b 59bc 2b4d cd3d
000000a0: 782b a63d cd4c 053e f416 e33d ba7e 973b
000000b0: 89d8 033e 3478 c93b 25fe 8cbc 5dd6 473d
000000c0: 6920 b03c 89c7 ec3d 0d9c fb3d fd6e 363e
000000d0: 2ec3 9f3d c2a5 2a3e 1918 dd3d 9234 a93d
000000e0: 92e7 dc3d b0c2 bc3b 338e cd3c 9015 023c
000000f0: 3161 9c3c 1f56 12bc 21ce c9bc 3365 0e3e
