model_artifacts/dl_tcn_h24_22400_23900.pt (torch, 378437 bytes, 20 tensors)

net.0.weight f4 [64, 30, 3]
00000000: 1e87 dfbd 515c 9bbb 37db ccbd 22cd 64bc
00000010: 4267 a5bd 08ca c5bd db0e 0fbe acdd 833a
00000020: 3865 5dbc 938c d6bd 7226 7fbd f978 acbd
00000030: 7ca9 f0bd d960 c4bd c1cb 37bc dc8f 303d
00000040: a2f3 263d 546f 9fbd 4375 f4bd 1756 83bd
00000050: 6646 24bb ee34 8a3d 42fe 813d 88bf 0ebc
00000060: b664 313c 4c99 b3bd 14b4 90bd e886 633d
00000070: cb84 993d a07f c4bc 6c22 ad3d 11ac 99bd
00000080: 96a7 2ebc a256 88bd 4164 143b 3e79 bcbd
00000090: f02b 78bd 6a76 8a3d bef4 dcbb 0c20 5f3d
000000a0: 07a6 b63d 9403 84bd 3783 2ebc db4c c4bd
000000b0: 47f6 a53d 444b fa3c 1aa3 b23d 4c7d b53d
000000c0: c788 4d3c 142e 1e3d 9189 0cbd 9088 653d
000000d0: 160a c13d 4609 afbd 9a81 223d 87c9 76bd
000000e0: c7e3 853d 2d0b b4bd 8600 343d 1394 613d
000000f0: cb71 4b3d 526d 0cbc 4cc8 7e3d 4d6a a03d
00000100: affb 353d 5782 19bd 6bf1 22bd 1b1a a7bd
00000110: b2fd 8bbd f3f2 00bd 9314 2ebd 0f7f f53c
00000120: 4966 2dbd f1fd 313d a654 a9bd 6df5 c03d
00000130: 32cc cabc 5554 b5bd e050 803c 09c1 71bd
00000140: a9ab 2cbd 640b 283d 5022 abbb 2505 b3bd
00000150: c2c0 e2bc 476f a23d 0fe7 5f3b 28f1 85bd
00000160: 6ceb a93c 1f4e 53bd 542b 23bc 80bb 9139
00000170: 2429 c6bd 76ae aebd 57b7 773d 310a 26bd
00000180: 27ed 043d f39a 0fbd 9478 843d 04b5 19be
00000190: 8f69 c43c c8da 9dbc 4c3b 433c 3348 a5bc
000001a0: 6c70 93bd 1ebd aabd be3e 8fbc 00df fcbc
000001b0: 2545 e0bd c7ee 91bd 63b7 80bd 6a93 dcbc
000001c0: fe59 573d e29a f23c 27b0 b83c f765 c7bd
000001d0: f352 a63d 28e7 663d 3c05 173b 8c5f c5bd
000001e0: b82b bf3d 747d 2f3d 4931 83bd 699e 7fbc
000001f0: 3273 833d 133f 793c ca47 86bd fb65 ba3d
00000200: c814 72bd 43af cc3b f462 b1bd 4029 3f3b
00000210: 3de5 60bd 4154 b03d fd0a 6ebd 5631 243c
00000220: 9071 853c 1f11 c43c 6ade 513d f5db e23c
00000230: 3a69 3c3d 3acc 11bb 863d 883d 36fb 4bbc
00000240: d3db 833d d2cd 3a3b 4fc3 6f3d 8592 07bd
00000250: 5251 c03d 9d15 94bc d6bc 1bbd a3cd b8bc
00000260: b002 a4bc 221a 963d 739c 25bd 7c8d d2bd
00000270: fc0f 13bd fd86 d4bd eff2 f83b 7f90 823c
00000280: 2798 3e3d 9dbe 943d b230 0abd 5e2c 413c
00000290: bb6f a83d 06c7 b83d 8740 993d 81e6 ca3d
000002a0: 52a1 84bc 0773 8abd 15f1 0ebd 379f de3c
000002b0: 0012 babc 8082 98bd 3503 5ebd c83e 6bbc
000002c0: d178 413d 6b74 b33d e6f6 c33d 0a31 533c
000002d0: c9ad a23d c8c3 6b3d a107 66bd 7532 c23d
000002e0: a04b 803d 4938 aabd e972 7abc 70c2 7bbd
000002f0: 3770 ab3d f3bf f03d b963 4dbd 64a2 b23d
00000300: f9de 1ebd dc0c d43d 0548 ba3d b9eb e53d
00000310: 4612 c73d ef82 9b3d ad82 e23d 7a13 c7bd
00000320: 4592 b93d 09fc 1abc 142d 6d3d 8fdf 973d
00000330: ad47 f03c e245 adbd 242f 71bc ab34 56bd
00000340: 0ebc 80bd efd6 d1bd ce90 00be 9512 163d
00000350: 7c72 c93d 911b 503c 65c9 a9bb e3ee 4f3d
00000360: 674f fd3c c183 563c 7780 5ebd 4cde 58bd
00000370: 28df 7bbd d6fa c5bb 91d6 3e3c 2911 ad3d
00000380: 006c acbd f488 263d 6f76 683d 5e09 833d
00000390: 65ba 813d b606 d23d 913a 493d 2e25 2cbd
000003a0: c2f1 67bd a7ed 7d3d 97c9 993d 0d21 713d
000003b0: bd9a d23d 9296 b3bd 3663 d4bb 67d3 a93d
000003c0: 2a0a 873d 4eb5 6b3c 6e8f b33d eeea 9fbd
000003d0: df23 bf3c f6f1 94bd 7d8d ac3b 68b9 4bbd
000003e0: f2fd 00bd 9e72 a0bd 5cac 83bd 11f3 643d
000003f0: fd2b 0d3e b525 c1bd 33ce 813d ea0f 0d3e
-0.109144434 -0.0047412296 -0.100027494 -0.013964923 -0.080763355 -0.09657675 -0.1397051 0.001006057
-0.013512902 -0.10476031 -0.062292524 -0.08421511 -0.117510766 -0.09588785 -0.011218012 0.043105945
0.04075969 -0.07784906 -0.119364284 -0.06412905 -0.0025066375 0.06748377 0.06347324 -0.008712657
0.010827234 -0.087694734 -0.07065597 0.05554858 0.074960314 -0.023986638 0.08453831 -0.07503522
-0.010660073 -0.06657149 0.0022642764 -0.092028126 -0.060588777 0.06760867 -0.0067430427 0.05447392
0.08918386 -0.06445995 -0.010651401 -0.095849715 0.08103614 0.030553468 0.087225154 0.08861789
0.012544817 0.038618162 -0.03431088 0.05603844 0.09425752 -0.08546691 0.03967438 -0.060250785
0.06537586 -0.08791194 0.04394581 0.055072855 0.04966907 -0.008570986 0.062202737 0.07832775
0.044429477 -0.037477817 -0.039781015 -0.08159276 -0.06835498 -0.031481694 -0.04250009 0.029967813
-0.042333875 0.043455068 -0.082680985 0.09421811 -0.024755571 -0.08853976 0.015663564 -0.059021983
-0.042155895 0.041026488 -0.005222596 -0.087412156 -0.027679805 0.07931381 0.0034164821 -0.065401375
0.02074214 -0.051588174 -0.009959061 0.00027796254 -0.09675816 -0.085293695 0.06047758 -0.040537063
0.03245273 -0.03505988 0.06468311 -0.15010458 0.023976116 -0.019269362 0.011915993 -0.020176029
-0.07199177 -0.083368525 -0.017485972 -0.030868053 -0.10950688 -0.07125621 -0.06284978 -0.026925761
0.052576058 0.02961487 0.022544933 -0.09736245 0.0812129 0.05637279 0.0023043891 -0.09637365
0.093345106 0.04284425 -0.06405885 -0.015601733 0.06418456 0.015212792 -0.065566614 0.091014825
-0.05910185 0.0062464788 -0.08661452 0.0029168874 -0.05490612 0.0860982 -0.058115948 0.010021528
0.016289502 0.023933945 0.0512375 0.027692774 0.04599879 -0.0022246973 0.0665236 -0.01245003
0.064384125 0.0028504026 0.05853587 -0.033098716 0.093905106 -0.018076712 -0.038021885 -0.022558993
-0.020020813 0.07329203 -0.040432405 -0.10280892 -0.035903916 -0.103773095 0.0075973193 0.015938042
0.046531823 0.07262919 -0.033737846 0.011790363 0.08224436 0.09022336 0.07483011 0.099072464
-0.016190205 -0.06760221 -0.034897882 0.027175529 -0.022713661 -0.07446766 -0.054202277 -0.01435823
0.04723436 0.08762439 0.095685765 0.01289011 0.07943303 0.05755976 -0.05615962 0.0948228
0.06264424 -0.08311517 -0.015286186 -0.061464727 0.08371013 0.117553614 -0.05014393 0.0872238
-0.038786862 0.10354015 0.09095768 0.11226601 0.09720282 0.07593333 0.11060081 -0.09720512
0.09061102 -0.009459504 0.057904318 0.07415687 0.029331053 -0.08460595 -0.014720712 -0.05229632
-0.062858686 -0.102460735 -0.12555239 0.036638815 0.09836289 0.012701885 -0.005181479 0.05076493
0.030921651 0.013092936 -0.054321732 -0.052946374 -0.061492115 -0.006041865 0.011647836 0.08450539
-0.08419037 0.040657952 0.056753572 0.06398271 0.0633438 0.10255186 0.04912812 -0.042027645
-0.056627043 0.06199422 0.07509153 0.05886941 0.1028342 -0.087689534 -0.0064815534 0.08292275
0.065937355 0.014386488 0.087675914 -0.07808481 0.023332534 -0.07272713 0.00526589 -0.049737364
-0.03149218 -0.078343615 -0.06429359 0.05589587 0.13786311 -0.0943102 0.063381575 0.13775602

net.0.bias f4 [64]
00000000: 4fa5 123d a413 abbc f2b8 053e 6458 af3d
00000010: 8cae 4f3b 72be c33d 8bcc 17bd bd5b 633d
00000020: 4821 ec3c 7512 133e bfdb 563d 4b6e 103e
00000030: 5a54 bd3d fff1 b13d 7c3a 813d 5dbc c43d
00000040: b220 963d 0010 4fbc 9412 8c3d 5024 33bb
00000050: 726b 7abb c15f 12bd de26 84bb 7573 123d
00000060: cbf8 8fbd a198 7f3d c3ed 923d d835 7c3d
00000070: b404 c13d 6a0e 28ba ae77 1bbd cd60 103e
00000080: 2fd8 0a3d 1ebd 59bd 7130 993d 09f8 a23d
00000090: 2fd0 67bd 9b10 09bc bc6c 323d 1a49 0b3e
000000a0: 25cf ce3d 30c5 903b 512e cdbb 21bf 8d3d
000000b0: 6531 c93d 3300 4ebc 0a0d 183e 8bca 43bd
000000c0: 0392 f63b f311 653d b00e c83d 4664 4e3d
000000d0: 720c 363d 82c6 cc3d f1a7 173e 0091 153e
000000e0: 69db 26bc a3c7 42bd e67d 4a3d e3ae bbbd
000000f0: 9956 c63d 0252 6f3d 6bb7 133e 5bab 4f3c
0.03580218 -0.020883389 0.13058832 0.08561781 0.0031689731 0.09557809 -0.0370603 0.05550741
0.028824463 0.1436251 0.05245566 0.14104573 0.092446044 0.08688735 0.06309983 0.0960624
0.07330455 -0.012638092 0.06839481 -0.0027334876 -0.0038211015 -0.03573585 -0.0040329536 0.03575464
-0.07029875 0.062401418 0.07174256 0.061574787 0.09424725 -0.0006410839 -0.037955932 0.14099427
0.033897575 -0.05315887 0.074799426 0.07957465 -0.056595024 -0.008365775 0.04356073 0.13602105
0.100981034 0.004418038 -0.006261625 0.069212206 0.098238744 -0.01257329 0.14848724 -0.047800582
0.00752473 0.05592532 0.097684264 0.050388597 0.044445463 0.099988 0.14810158 0.14606094
-0.010184147 -0.04755367 0.049436472 -0.09164216 0.09684486 0.058427818 0.14425437 0.012675132

net.3.weight f4 [64, 64, 3]
00000000: 3f9a 11bd 546b e7bc 9247 883d 4e9e d53c
00000010: eae8 f03c c6e6 80bd f844 803c 50b7 2bbd
00000020: 71f0 7e3d b8fb 1fbd a822 7dbd 09ac eabc
00000030: e08c 6f3d 4b46 04bd 2b70 473d ed9d b23c
00000040: 738a 0cbd 9016 1bbc aad1 863c eef5 38bd
00000050: e09f f93c 4671 7cbb 7582 92bd f107 373d
00000060: 83e3 81bc c19c 26bd 1215 b2bc c539 773b
00000070: e236 3abc 65b8 833d baa1 3c3d f31a f93b
00000080: d81b 4cbd ec65 633d e719 54bd 0a77 3bbd
00000090: cc98 58bd 9ed9 03bd 4603 0e3c 86ac 62bc
000000a0: 7811 173d eb38 523c ce7d 13bb 3b15 e2bc
000000b0: b066 7f3c 2ebe 263d 5f79 613d af78 27bd
000000c0: f6ba 21bd 2b6c 093c 8aba 1bbd 9554 40bd
000000d0: 9f10 89bc 4771 fa3c 09d7 923d 3a47 9bbc
000000e0: b1f2 593d d1e4 e93c 7af0 3abd 81c9 3abd
000000f0: 2c6a c83c c65b 873d 596f 423d 13c0 2b3d
00000100: 5f1d ab3c 89a9 523d 3a85 853d 9e00 84bd
00000110: d30f 3dbd 1f40 1cbd ad9c 783d 3b11 9f3c
00000120: 466c a2bc f08a 2b3d db67 35b9 4c68 79bc
00000130: d8ed 973c 3ab9 8f3d 2d57 353d c981 e53c
00000140: e316 453c 2c9c 1e3d 8ea2 a13b 5f25 89bd
00000150: 0f82 9a3d fc84 e0bc eef4 ad3c 81ec 803d
00000160: 924e 813d b92a 093d 7a12 8f3d 8706 17bd
00000170: 6aeb 673d 350e 633d feae 7a3d 4838 0b3d
00000180: 694d 0e3c 761d f5bb 1b01 293c 39f7 473d
00000190: 4e2a 85bd 5086 6abc 26bd 773d 7941 e0bc
000001a0: a72e 413d 4d54 523d d12b 1a3d c77a 893d
000001b0: 8993 273c 2089 2b3d 3f40 373d 7ecf 1dbd
000001c0: bbbe 84bd 663e 82bd 95ad 243d f8de 81bd
000001d0: 06e2 e5ba 62d0 ba3c 886d d53c 049b 083d
000001e0: 7388 28bd e7b4 6abd ab4c 753a 6005 fb3c
000001f0: 9b45 6dbd b233 fd3c 11cb aa3d 7366 9d3c
00000200: dab0 7f3d ca1e 3abc 5894 163d 2927 9fbb
00000210: 6383 453d 6932 9dba f094 373c 26cc f3bc
00000220: d57e 12bd 2634 393d f696 a1bc 528a 1fbd
00000230: ffbe 34bd b17b 583d dc56 9c3c fe19 3bbd
00000240: 12ca a63c 743a 023c d0c8 c53c 83f0 7f3d
00000250: 1504 81bd ecd8 fcbc 4119 28bd 686a d3bc
00000260: ad80 80bd eed9 c93c 65f2 883d 7b20 48bc
00000270: 5471 523d d0a6 523c 2d2e 9b3c 2f5d a5bc
00000280: 6391 12bc 9c04 783d c896 2ebc 064c 6dbd
00000290: 4ee5 87bd 6a69 683d ef78 12bd 20bf 1a3c
000002a0: 7cf0 a4bc 449c 46bd b014 30bb b7ee 6d3d
000002b0: 3618 903d f640 f6bc 1f06 03bc 2315 993c
000002c0: b45d 93bb 0d20 1abd dd3e 73bd 988c e2bc
000002d0: a92a 043d be42 50bd 6a48 7fbd 9ab7 31bd
000002e0: e3cd 3bbd c83a 3e3d b6cd 933d 71ce 5f3c
000002f0: 2490 853d a984 973d 249c f23b b3ed 4fbd
00000300: a58e b8bd 0cdf 5abb bc17 82bd 1725 1fbe
00000310: 3022 b8bc a1f5 653d 0e60 32bd 6f1c 3b3d
00000320: 9e8d 89bd b633 8ebc d35c 4f3d 663c f03c
00000330: 9ae0 81bc b464 0e3d 35fb 323c 94de a83d
00000340: 661d 37bd 7c1f 1a3d 00dc 7c3d 8898 1ebb
00000350: 76e4 8fbd 7812 a13c 8151 86bd 8836 d33c
00000360: ecab 4d3c b962 013d 7351 783d 9efb a63c
00000370: 00ab 743d 007d 6c3d 0e52 e9bd 5d41 7e3d
00000380: e4aa cabc 0232 d93c 1ae6 80bd 6d2d 1d3c
00000390: c20d 86bc 8b2a 4d3c 04ea 4d3d 8c8a 59ba
000003a0: 08e5 50bc 9c0f e23a 1db4 9ebc b55d 55bc
000003b0: 175a 8f3d b281 db3c 7cc8 cf3a 4c6f 5cbd
000003c0: 9788 cabd bba4 063d c5ae 33bd 117a e7bc
000003d0: 6f4f aebc 0c4f 073c 42e5 1cbc 1f23 22bc
000003e0: ae94 84bd 2df1 0fbd 74d9 b3bc 46af ca3c
000003f0: 0a6e 2dbe dbbe 74bd cdf7 e83c d567 95bd
-0.03554749 -0.02824942 0.06654276 0.026076462 0.029407937 -0.062940165 0.015657887 -0.041922867
0.06224102 -0.039058417 -0.06180063 -0.028646486 0.05848396 -0.0322936 0.048690956 0.02180382
-0.034311723 -0.009465829 0.016457397 -0.04515641 0.030471742 -0.0038519665 -0.07153789 0.044685308
-0.015855556 -0.040676836 -0.021738563 0.0037723642 -0.011365624 0.06431655 0.046052672 0.0076020896
-0.04983124 0.055517122 -0.051782515 -0.04576782 -0.052880093 -0.032189958 0.008667773 -0.013835078
0.036881894 0.012830953 -0.0022505405 -0.027598014 0.015588447 0.040708713 0.05504739 -0.040886577
-0.03948494 0.008387606 -0.038019694 -0.046955664 -0.016731558 0.030571593 0.07169921 -0.018954862
0.053209964 0.028551491 -0.045639493 -0.045602325 0.02446469 0.06609301 0.04746947 0.041931223
0.020888029 0.051431213 0.065195516 -0.0644543 -0.04615767 -0.03814709 0.060696293 0.019417396
-0.01982702 0.041880548 -0.00017300194 -0.01522262 0.01854603 0.07017751 0.04427259 0.028015988
0.012029382 0.038723156 0.004932708 -0.06696581 0.07544338 -0.027407162 0.021234956 0.062951095
0.06313814 0.03348801 0.06985946 -0.03687146 0.056620993 0.05543347 0.06120204 0.03398922
0.008685448 -0.0074803187 0.010315205 0.048819754 -0.065022096 -0.014314249 0.06048312 -0.02737497
0.04716363 0.051349927 0.037639443 0.06712871 0.010228046 0.04187882 0.044739004 -0.038527958
-0.064816914 -0.06359558 0.040204603 -0.06341356 -0.0017538674 0.022804443 0.026053205 0.03335096
-0.041145753 -0.05730143 0.0009357433 0.030642211 -0.05792771 0.03090844 0.08339513 0.01921389
0.06242452 -0.01135988 0.036762565 -0.004856963 0.048221003 -0.0011993173 0.011204943 -0.029760431
-0.035765488 0.04521575 -0.019725304 -0.038950272 -0.04412746 0.052852336 0.019084387 -0.045679085
0.020360027 0.007948507 0.024143606 0.06248523 -0.06299607 -0.030865155 -0.04103971 -0.025807574
-0.06274543 0.02464005 0.06686858 -0.012214775 0.05137761 0.012857154 0.018942917 -0.020186035
-0.008945796 0.06055127 -0.010656066 -0.05793383 -0.06635533 0.056741156 -0.035759863 0.009444982
-0.020134203 -0.04848887 -0.00268678 0.058088984 0.07035868 -0.030060273 -0.007997065 0.018686837
-0.0044972543 -0.037628222 -0.059386123 -0.027654931 0.032267246 -0.0508449 -0.06232492 -0.043387987
-0.045850646 0.046442777 0.072169706 0.013660059 0.06521633 0.0739835 0.0074038673 -0.050763797
-0.09011582 -0.0033397106 -0.06352183 -0.15541492 -0.02247724 0.056142453 -0.043548636 0.045681413
-0.067164645 -0.017358642 0.050625633 0.029325675 -0.015854169 0.034764007 0.01092415 0.082455784
-0.04470577 0.037627682 0.061733246 -0.0024199802 -0.07025997 0.019662127 -0.065585144 0.025782838
0.012553196 0.03158829 0.06062455 0.020383652 0.05973339 0.057736397 -0.11392604 0.062074054
-0.02473969 0.026513103 -0.062938884 0.00959335 -0.016363982 0.01252235 0.050272003 -0.0008298538
-0.012749918 0.0017247084 -0.019372994 -0.01302283 0.06999605 0.026795242 0.0015852596 -0.05381708
-0.09889334 0.032871943 -0.043867845 -0.028256448 -0.021278111 0.008258592 -0.009576144 -0.009896069
-0.06473671 -0.035142113 -0.021954276 0.02474178 -0.16936508 -0.059752326 0.028438473 -0.07295195

net.3.bias f4 [64]
00000000: 960a ec3d c35f b7bd d641 003e 8ab2 843d
00000010: b43a cd3d 6ae4 c93d c9ea b13d 9a6d e03d
00000020: b4e3 443d a76c 033e 84e0 d93d fc83 bebc
00000030: 71fd 493d c2fc 733b e1b1 b0bd 69f4 c93d
00000040: 15c4 fa3d 796e 6f3d 5fcd 78bd a4d5 aa3d
00000050: 7582 1c3e 12a6 893d b93f 003d 4f3e a73d
00000060: 3f85 d33d 7513 f53d b27a 5f3d ab60 c93c
00000070: 3d3e 84bc a941 3f3d 3e9e 02bc b046 493d
00000080: 7bbe f23d 147f e43d 6ede f83d d7e8 d93d
00000090: 86cf ca3c 46e5 633c 99d7 bd3c f8fc f93d
000000a0: 9c2f b13c bf49 0d3d e30a 8e3c 4ff4 7638
000000b0: 7bcd 4b3d c078 013e 7d83 c73d 775d 153d
000000c0: 09bc 973d 1e35 4b3c c5be 2e3d dd9e 833d
000000d0: 0347 b8bb 7369 70bd 1d94 003e 67ae ba3d
000000e0: 7e0e 19bc 8c9a 61bc 5043 b53c 8428 213d
000000f0: 0de1 173d 5016 f9bc e35b 2bbc 53aa 5c3c
0.115254566 -0.08953812 0.12525114 0.06479366 0.10020962 0.0985802 0.0868736 0.10958405
0.048068717 0.12834416 0.10638526 -0.023256294 0.049313966 0.0037229513 -0.08627678 0.09861071
0.12244431 0.058454964 -0.060742732 0.0834153 0.1528414 0.067211285 0.03131077 0.08166181
0.10328149 0.11966602 0.05456037 0.024582228 -0.016142959 0.046693478 -0.007972298 0.04913968
0.118527375 0.11157051 0.121518 0.10640114 0.024757158 0.0139096435 0.023174094 0.12206453
0.021629147 0.034494158 0.017339176 5.88785e-05 0.04975651 0.12643719 0.09741876 0.03646609
0.07408912 0.012402801 0.0426624 0.06426785 -0.0056236996 -0.058694314 0.125565 0.09115296
-0.009341834 -0.013769757 0.022126824 0.03934528 0.03707986 -0.030406147 -0.010458919 0.013468343

net.6.weight f4 [64, 64, 3]
00000000: dcb0 53bb fd01 9c3c 8e7f 4abc a372 a0bd
00000010: a378 54bd a7cc a4ba 2fad 47bc dd01 7b3d
00000020: 42be b23b 9e92 a43c dd5a 3fbd d156 f63c
00000030: 72fc 1dbd 0687 893d 59b7 953c 3cb8 30bd
00000040: e419 2a3d fe6f 27bd 4837 85bd d02e e23c
00000050: cf3b 09bd 001f dc3c f943 023d 714a 3d3d
00000060: b4b2 0fbd 3af4 3cbd 9b89 623d a53f 4d3d
00000070: 323d e3bc 55ac 5e3d 3afe 88bd a173 30bb
00000080: 4c80 a3bb 65a0 423d 0091 01bd 274c 143d
00000090: bf96 9abd 4be8 593d e7e5 50bc abac 7ebd
000000a0: 0859 38bd f63d 22bd 57dc 063d 835f 843c
000000b0: a48b 883d 3228 67bd d4c5 243d 1a74 8cbd
000000c0: b9ba 3e3d 75c4 253d 442c 193c ecc1 503d
000000d0: e47a ebbc 27c4 1c3d d3fc b1bc 80fd 73bd
000000e0: 57c0 3f3d 7893 26bd 9a4f e43b 3c29 623d
000000f0: 2dba dc3d 9ac3 483b 4680 f1bb 44d4 a53d
00000100: 018f 493d c967 2d3d bb6b 043d c594 6bbd
00000110: c4b0 023d 07f5 7cbd fab6 d4bb 4288 42bd
00000120: 6676 dfbc be0c 32bd 66cb 863d 3c33 123d
00000130: c79f e5bb 6923 04bd 87a1 3dbd 804f 36bd
00000140: 8e1e 3a3d 5b0e 2ebd b5f5 4ebc b1e0 47bd
00000150: e110 e43c 711c 35bc c4bd 8bbc e6e6 433c
00000160: 5718 88bd b082 5d3c 41ac 6a3d b07c 19bd
00000170: bee7 5ebd d0d2 3a3d 6da5 e03c 2a82 923d
00000180: 6ed8 41bb 680e 11bd 90b3 5cbd 44a6 993c
00000190: 14e0 efbc 48da 72bc 7a92 b0bd 4657 7cbc
000001a0: 88a2 143c 2608 5fbd 0e42 013d 803d 5dbd
000001b0: 0ecf 713d 0e7c 823d 1618 323c 158b 593d
000001c0: 58c0 2c3d 6b27 fb3c f64a 133c 8a5a b4bc
000001d0: aef8 303d 41c6 223d b152 643d 6c11 b2bb
000001e0: 5810 5abd c1ca 183c 446d 69bd 56a9 633d
000001f0: 820a 40ba 22fc 67bd 7557 fe3b 10ba 143c
00000200: 961f 453d 96f1 b93c b646 6abd 45d0 903d
00000210: e225 69bc 142e 103c 305d d1bc d7fc 743c
00000220: e5d9 5a3c 9212 c13b a95a f63c 37aa 49bd
00000230: 23ab 1d3d 8af2 0c3c f8d6 9a3b 600e 933c
00000240: 60a4 8d3d 05f2 39bd b823 453d 8412 c53c
00000250: c374 773d a215 f6bc 68e9 763d 74ef 5ebd
00000260: 9afb 44bd 0e27 f53c 11fe 79bd 2d7d 67bd
00000270: 70a2 c8bd fc05 75bc ae46 8d3d 0ed9 1f3d
00000280: 5416 0d3d 6666 723d c509 adbc 6cf3 20bc
00000290: d0cf 1d3d 223e 753d 01bc 05bd 8e52 b93a
000002a0: db29 bfbc 66e1 c63c 1e75 403d 8c79 f6bb
000002b0: 27ca 2a3d 184b 7fbd 7d3a 73bb 3a13 02bb
000002c0: 832e 92ba 1d64 033e 7e6d 913d 9f05 31ba
000002d0: f3ca 423c 79a4 f9bc 7b5f 56bd a779 ce3c
000002e0: a14a 543d 77d6 983c e71f 3e3c 2737 8dbd
000002f0: e0e6 a83c 1db3 353c a42d b73b 578b 3fbd
00000300: 8dec 43bd 2416 333d 2d7f aa3c 64a3 60bd
00000310: c2ef 113c 8ba2 1ebd a201 033d 482d 0e3d
00000320: ff05 8ebc 7025 543d 63e1 373c 4592 d9bc
00000330: 8f88 b4bc a4dc 8a3c ad38 0b3d def7 8abc
00000340: a510 ddbc e542 8f3d 8895 b53d f44f 59bc
00000350: 19e6 2f3d e295 923d 9600 c1ba 70ed 4a3d
00000360: 925e 30bc 6385 653d f2ff 57bd ed08 8e3d
00000370: b769 40bd 5fef 87bd 387b c03d 2cd8 5a3d
00000380: 177e 9dbc fadd a23d 3e3b ecbc 64c8 a2bc
00000390: 87e1 28bc 9e3f 13bd 8242 ba3c ac84 81bc
000003a0: 205d 8ebd dcf0 253d f9b7 593d 2bf5 4c3d
000003b0: 793c 8ebd 1947 1d3d b547 d4bc a5b6 81bd
000003c0: 469d 903d 4b61 37bd 6c1b 013c cbe2 703d
000003d0: 38b7 bf3c 380d abbc b6de 843c 7d37 b2bc
000003e0: be85 383d 6782 e6bc b4ad 493c 0d27 89bc
000003f0: efad 1e3e ab30 7cbd 7562 1bbd 1a0b 7ebc
-0.0032301461 0.019043917 -0.012359513 -0.07834365 -0.05187286 -0.0012573198 -0.012187286 0.061281074
0.0054548094 0.020089444 -0.046717513 0.030070694 -0.03857083 0.06715207 0.018275904 -0.04314445
0.041528597 -0.04087829 -0.06504685 0.027610213 -0.033504304 0.02687025 0.031803105 0.04621357
-0.035082534 -0.04613135 0.055307012 0.050109524 -0.027739141 0.054363567 -0.06689115 -0.002692439
-0.0049896594 0.047516245 -0.031632423 0.036205437 -0.07548284 0.053200047 -0.0127501255 -0.062176388
-0.04500678 -0.03960987 0.032924976 0.016158825 0.06667259 -0.056434818 0.040227726 -0.06858082
0.04656479 0.04047056 0.009348933 0.05096619 -0.028745122 0.038273003 -0.021727001 -0.05956793
0.04681429 -0.04066798 0.006967497 0.055215105 0.10777698 0.0030634166 -0.0073700277 0.08097127
0.049208645 0.042335305 0.032329302 -0.057514925 0.031906858 -0.061757114 -0.006491539 -0.047493227
-0.027278136 -0.043469183 0.06581764 0.035693392 -0.0070075723 -0.032260332 -0.046296623 -0.04450941
0.045439295 -0.04249416 -0.012631823 -0.048798267 0.02784008 -0.011054144 -0.01705826 0.011956906
-0.066452675 0.013519928 0.05729318 -0.037472427 -0.054420225 0.045611203 0.027422631 0.07153733
-0.0029578465 -0.03541413 -0.05388218 0.01875604 -0.029281653 -0.01482255 -0.08621688 -0.015401667
0.009071954 -0.05445113 0.031557135 -0.05401373 0.059035353 0.06371318 0.01087 0.053111155
0.04217562 0.030658444 0.00899004 -0.022015829 0.04320591 0.03973985 0.055742923 -0.0054342058
-0.053238243 0.009325684 -0.05698897 0.055581413 -0.00073257845 -0.056636937 0.0077618905 0.009077564
0.048125826 0.022698205 -0.05719634 0.07070974 -0.014230223 0.008800048 -0.02555713 0.01495286
0.013357614 0.0058921063 0.030072527 -0.049234595 0.038493287 0.008602748 0.0047253333 0.01795119
0.06916118 -0.045396823 0.048129767 0.02405668 0.060414087 -0.030039612 0.060281187 -0.05442758
-0.04809151 0.02992585 -0.061033312 -0.05651586 -0.097966075 -0.01495504 0.06898247 0.03902536
0.034445122 0.059179686 -0.021122823 -0.009823661 0.038528264 0.059873708 -0.032649998 0.0014138983
-0.023335388 0.0242774 0.04698669 -0.0075218137 0.041696694 -0.062327474 -0.003711372 -0.0019847886
-0.0011152778 0.12831159 0.07100962 -0.0006752852 0.011889207 -0.030473934 -0.05233715 0.025204493
0.051828984 0.018656952 0.011604286 -0.06895285 0.020617902 0.011090067 0.0055901576 -0.046763744
-0.047833014 0.043722287 0.020812595 -0.05484332 0.00890726 -0.03872923 0.03198398 0.034711152
-0.017336844 0.051793516 0.01122317 -0.026559005 -0.022037772 0.016950913 0.033989597 -0.016963895
-0.026985476 0.06995181 0.088664114 -0.013263691 0.042944048 0.07157494 -0.0014724906 0.049542844
-0.010764735 0.05603541 -0.052734323 0.06935296 -0.046975818 -0.06637453 0.09398502 0.053428814
-0.019225163 0.07952495 -0.028836843 -0.019870944 -0.010307676 -0.035949342 0.022736792 -0.015810333
-0.06951356 0.040512905 0.053153966 0.050038498 -0.06945128 0.038397882 -0.025913099 -0.06333665
0.070612475 -0.04477052 0.007880073 0.058810037 0.023402795 -0.020880327 0.016219478 -0.021754974
0.04504942 -0.028138353 0.01230948 -0.016742254 0.15496038 -0.06156985 -0.037935693 -0.0155055765

net.6.bias f4 [64]
00000000: b97c d53d 9ba1 393d e16b 573d 00b7 093c
00000010: 8c02 053e 144b 1b3d 43a6 9e3d 67e0 9b3c
00000020: 997a 313d e733 48bd 5e01 523d 1f60 883d
00000030: 64b8 f13d c323 1e3e 01ca 813d c913 273e
00000040: cb63 163e a6da 183e 5c00 133e 2305 9abd
00000050: ed54 1cbd f8db a23d 24ac 06bd cdbe b03c
00000060: 1c81 003d 06d7 873d 9f4b 783d efa9 203e
00000070: bd01 e13c 936f 9f3d 4bf5 603d 068a 9f3c
00000080: 1825 8d3d c6d0 6c3d ac60 f23d bb62 033e
00000090: 7266 0a3e 3b50 f53d 8ea4 fb3c ddd5 e73d
000000a0: 4fe1 b23d f82c 323d 1dee 87bc 693b f4bc
000000b0: a494 233e 7c10 eb3d eec8 993c 51a1 f13d
000000c0: 52ac a63d da63 47bd dd76 ae3d 772b e73d
000000d0: edd5 1f3d a955 3c3e a319 bfbd fe04 a7bc
000000e0: 0ba5 863d 7d7e 2b3e 7078 113e c75e ba3d
000000f0: 1ba1 da3d 2789 22bb 0cb2 023d 0558 903d
0.104241796 0.045320135 0.052593116 0.008405447 0.12989253 0.037913397 0.07746556 0.019027902
0.04332981 -0.048877623 0.051270835 0.06658959 0.11802748 0.1544333 0.06337357 0.16316141
0.14686505 0.14927158 0.14355606 -0.07520511 -0.03816693 0.07952112 -0.03287901 0.021575356
0.03137313 0.06632809 0.060618993 0.15689825 0.02746665 0.07784953 0.05492143 0.019474994
0.06891841 0.05781629 0.11834845 0.12830631 0.13515642 0.11978193 0.030718114 0.11320088
0.087343805 0.043499917 -0.016593033 -0.029813485 0.1597467 0.114777535 0.018772569 0.11798347
0.08138336 -0.04867921 0.08518765 0.11287587 0.039022375 0.18392052 -0.09331062 -0.020388123
0.06574448 0.1674747 0.142061 0.091001086 0.1067526 -0.0024800987 0.03190808 0.070480384

net.9.weight f4 [64, 64, 3]
00000000: 624f a4bc 2169 4abc 6ca6 be3c 005f 0f3d
00000010: 7647 883d 9017 583d 3f78 5c3d 1ae2 99bc
00000020: 9cfc 003d 449c 8e3d 8d55 84bd 5969 4abc
00000030: 8fec 913d 40d1 de3c 3626 2f3d ca07 99bb
00000040: fe71 5f3d fa4c 32bb a358 29bd 08ed a0bb
00000050: 572b 5a3d b15c adbc 428a 38bd 87f3 37bd
00000060: 5433 c53c dddd 8ebd 4538 e93c ff62 64bd
00000070: 23bc 1e3d bd53 843d 057f c7ba c5f6 55bd
00000080: 3d60 47bd d5da 4a3d 9060 bcbc dbfb b5bc
00000090: 6fcb 973c 0195 90bd 5060 a23c a4d2 b23d
000000a0: d1b8 0bbd b497 383d c215 553d e15f 4b3d
000000b0: 02a1 eebc 71c3 7e3b 0f1e 44bd 98f8 273c
000000c0: c563 8dbc bea4 ee3b a93a e03c 78eb 6d3c
000000d0: 5c85 e1bc fef3 e43c 8ddb 233d 1153 ea3c
000000e0: 1750 f73c 9f23 22bd 3b71 acbc 3e44 873d
000000f0: 6cd0 753d a986 fc3c 27b5 ca3c dc5c 8c3d
00000100: bcee 9e3c 09ee 7d3c ac49 cdbc d37f a93c
00000110: 0332 c7bc 65d6 82bc 3a6b 813d cc48 223d
00000120: f0ae 6dbc c4b7 853c c4e2 2cbd a25c 753d
00000130: 8293 16bc a473 99bb 1d2e 2a3d 7387 6339
00000140: 5db6 a3bc 7e1c 6d3d 9de9 933c a6ef 8a3c
00000150: dce1 ed3c d1ce 5c3d 4ed5 7e3d db0c f83b
00000160: 31da 9fbc 8178 7bbd 0b1d c53c 6f40 0cbd
00000170: 32cb 91bd 2e3a 00bd 8219 5bbd baf1 83bd
00000180: ef14 853d 6d44 fabc 24cd 1c3b 09e1 bcbb
00000190: b250 7fbd 40c4 19bd e731 9f3d 6976 31bd
000001a0: b69b e33a 3a1d 903d 0945 733b a252 303c
000001b0: 1846 04bd 69fb 6bbd 0619 753c 9bb7 133d
000001c0: 4511 eabc 4e44 dc3c 6059 90bb c102 9a3c
000001d0: 3689 82bc 205d ae3d 26cc 84bd 0f6c 09bd
000001e0: 22e1 09bc bc28 a03c c3cd 1cbc df4d ad3d
000001f0: e394 72bd 9f62 78bd 4c96 4e3c 1679 0e3d
00000200: 7c31 3a3d 9ffc 1f3d 8ce6 bfba af85 d43c
00000210: 0431 803d 4ef6 d43c 0eaa 023d a48a ed3c
00000220: 0666 70bd b306 2bbd 5f37 68bc 22c5 59bd
00000230: f7e0 c7bc 9440 823d 41a4 0c3d aba8 073c
00000240: e461 093d 2b38 65bd 4c3b 03bc cd86 7a3d
00000250: 63b6 903d 5549 70bd 4c63 20bd a800 7ebd
00000260: b4f2 82bd 1b70 733c 3a8f 1ebd 0c02 5fbd
00000270: b92a 123d 38bb edbc 92c2 7139 8c1d 953d
00000280: 8d97 1d3d b9c8 76bd ff0b 993d 005c 7dbd
00000290: b1c3 25bd 08c9 8fbb f13a 5f3d 0cfb 6f3c
000002a0: 8db8 d6bb 4504 12bd 7e17 453d 4517 183d
000002b0: 0657 ee3c f2bb 743d 1bff 48bd 2ac9 143d
000002c0: e7de 673d 0764 a73d 4b20 19bd a0ac 673d
000002d0: ab36 03bd 8484 623d df7f 263c ebcc 363d
000002e0: c0c6 f63b a5ec 9ebc 89c8 3c3d dd38 653d
000002f0: b9ed a7bb 80ba 853d f9c9 7c3c 154c 36bd
00000300: c628 4dbd 99a2 843d 0c04 bfba e174 b03b
00000310: f402 71bc a91a 88bd 60c0 b3bb ad61 8fbd
00000320: a869 7bbc 2144 60bd 19b8 5a3d 40a2 0ebd
00000330: 2ade 8abb 3cf4 833d ee09 e73c eb27 ba3d
00000340: bc18 bcbc ac9a 25bd 3f23 163d 1b49 513d
00000350: e04c 08bd ad9d c53a 2eb2 8e3d fd63 6c3d
00000360: 36bd 45bd 09c0 71bd de9b 8c3d bc10 60bd
00000370: 8dde 89bd c4ad 0cbd 3545 103d 7654 6cbd
00000380: eca4 7d3d 6d95 0bbd a799 5cbd e2b8 f1ba
00000390: 2159 2bbd 6226 d53c 5c87 c43c 4d55 113d
000003a0: 4cb9 8dbc c2aa 95bc 2246 393d e956 5ebd
000003b0: 0481 293d 4c02 3a3a ac67 123d 9d69 0abd
000003c0: 2b4c 8f3d 2d21 253d e4fa 8b3d f5e1 113d
000003d0: 6efe 37bc 4b79 3d3d 171f c53c 82bf a23c
000003e0: 944f 8e3d 77b6 70bd c8ba 62bd c928 63bc
000003f0: 75e3 4cbd f4e5 56bd ef38 3dbd 922d d73c
-0.020057384 -0.012354166 0.023272716 0.03500271 0.06654255 0.052756846 0.053825613 -0.018784571
0.031490907 0.06963399 -0.0646163 -0.012354218 0.07125198 0.027199388 0.04276105 -0.004670118
0.05455207 -0.0027206526 -0.041344296 -0.004911069 0.05326399 -0.021162363 -0.045053728 -0.04490998
0.024072327 -0.06975911 0.028469214 -0.055758473 0.03875364 0.06461284 -0.001522035 -0.05223729
-0.048675764 0.0495251 -0.022995263 -0.02221482 0.018529622 -0.0705967 0.019821316 0.08731583
-0.0341118 0.04506655 0.052022703 0.049651984 -0.029129509 0.0038873816 -0.04788023 0.01025214
-0.017259488 0.0072828224 0.027371721 0.014521472 -0.027529411 0.027948376 0.0400043 0.028604062
0.030189557 -0.039584752 -0.021050086 0.06604813 0.06001322 0.03082593 0.024744583 0.06853649
0.019400947 0.015498647 -0.025059544 0.020690834 -0.02431584 -0.015971372 0.0631928 0.039620206
-0.01450704 0.016322978 -0.042208448 0.059902795 -0.009190442 -0.004682975 0.041547883 0.00021698866
-0.019984419 0.0578885 0.018055731 0.016959976 0.029038362 0.053908173 0.062215142 0.007569892
-0.019513221 -0.06139422 0.0240617 -0.034241136 -0.071188346 -0.031305484 -0.053491123 -0.0644259
0.064981334 -0.030550206 0.0023925984 -0.005764131 -0.062332816 -0.037540674 0.0777319 -0.043325815
0.0017365131 0.070368245 0.0037120006 0.010761889 -0.03229341 -0.05761281 0.014959579 0.03606377
-0.028572688 0.026888039 -0.0044051856 0.018800141 -0.015934568 0.08513856 -0.06484251 -0.03355032
-0.008415492 0.019550674 -0.009570542 0.08462118 -0.05922402 -0.060640927 0.012609076 0.034783445
0.04545735 0.039059278 -0.0014640852 0.025942652 0.06259349 0.025996353 0.031900458 0.028996773
-0.058691047 -0.041754436 -0.014173358 -0.053166516 -0.024399264 0.063599735 0.034336332 0.00827996
0.03354062 -0.05596177 -0.008009743 0.061163712 0.070660375 -0.058663685 -0.039157197 -0.062012345
-0.06393948 0.014858271 -0.03871081 -0.05444531 0.035685275 -0.029019937 0.00023056034 0.07281026
0.03847461 -0.060250018 0.07472991 -0.061855316 -0.04046983 -0.0043879785 0.05449957 0.014647257
-0.006552762 -0.035648603 0.048118107 0.037131567 0.02909423 0.05974955 -0.049071413 0.036324657
0.05660906 0.081733756 -0.037384313 0.056561112 -0.032034557 0.055302158 0.010162323 0.04462902
0.007531017 -0.01939995 0.046089683 0.055962432 -0.0051247743 0.06529713 0.015429013 -0.04450615
-0.050087713 0.064763255 -0.001457335 0.005385027 -0.014710177 -0.0664571 -0.0054855794 -0.07001052
-0.015345015 -0.054752473 0.053398225 -0.034822702 -0.00423791 0.064430684 0.028202977 0.09089645
-0.022961013 -0.04043071 0.036654707 0.05109511 -0.03327644 0.0015076898 0.06967579 0.057712544
-0.04827615 -0.05902103 0.06865667 -0.05470346 -0.06731901 -0.034345403 0.03522225 -0.057697736
0.06192486 -0.03407805 -0.05385747 -0.001844194 -0.041833047 0.026019279 0.023990326 0.03548174
-0.01730027 -0.0182699 0.0452329 -0.054282103 0.041382805 0.0007095679 0.0357434 -0.033792127
0.0699695 0.040314842 0.06834963 0.03561588 -0.011230094 0.046258252 0.024062676 0.019866709
0.06948772 -0.058767762 -0.05535391 -0.013864704 -0.050021607 -0.052465394 -0.046196874 0.026266847

net.9.bias f4 [64]
00000000: 8261 153e d18d 133e 189d c83e d120 d23d
00000010: 1bfc 833d cc31 873d 2e8e f5bc f495 e53d
00000020: 12fa e43d bb92 0e3e 1342 793e d68a 033e
00000030: ae3d d63d cb86 153e 9fd2 b73d 3e7c 033e
00000040: 6a2d 97bd ae73 253e 9673 78bc 553b 273e
00000050: 750d c43d 95c3 3b3d a873 fd3d 826a 133e
00000060: 4a95 8c3d 9035 7bbd 2655 dd3d b7fd 123e
00000070: 9e4a e73d 11d2 ea3d 7750 1d3e b0fb 2a3e
00000080: 51d1 9c3c 511e ab3d f269 de3d 8fd5 223e
00000090: 06b9 153e 4ebc bf3e 047c b53d bf3b 7d3d
000000a0: 784d 223d 2006 65bc 6c1f 443e 3228 013e
000000b0: abc4 323e de23 0d3e 95d5 233e 401d adbc
000000c0: c4d0 da3d 6b7d 1c3e f23a 483d 8fe0 3b3e
000000d0: df1a 663d 73ad 283e acc0 8dbd 08d0 e9bc
000000e0: 11ec 113e a5ac 083e a375 0a3e d7e5 c73d
000000f0: 58e2 783d 18a1 1b3e 4dee 9cbd 6a69 de3d
0.14587978 0.14409567 0.39182353 0.102601655 0.0644457 0.06601295 -0.029975023 0.11210242
0.111805096 0.1392316 0.24341612 0.1284593 0.10460983 0.146022 0.0897572 0.12840363
-0.07381709 0.1615741 -0.015164277 0.16331227 0.09572879 0.04584082 0.12375575 0.14396098
0.06864412 -0.061330378 0.108072564 0.14354597 0.11293529 0.11465848 0.15362726 0.16697574
0.019142779 0.08355392 0.10860051 0.15901779 0.14621362 0.37448353 0.08861545 0.061824556
0.03962466 -0.013978511 0.19152611 0.1261299 0.17457835 0.13783213 0.15999444 -0.021132112
0.1068435 0.15282218 0.04888434 0.18347381 0.05617797 0.16472416 -0.06921515 -0.02854158
0.14250208 0.13347109 0.13521437 0.09760635 0.060762733 0.15198171 -0.0766264 0.1085995

net.12.weight f4 [64, 64, 3]
00000000: 7777 ca3a 455a 783d 7bae 3e3d 6a30 d0bc
00000010: 2a43 18bd fc2d c83c c1a0 9e3e d069 abbc
00000020: d6d4 843d 72a3 fcbc 92a7 853d 0960 eb3c
00000030: 373c 0a3d cf5a 0a3d a7b9 9e3b eae8 243d
00000040: 4a99 923c cf85 61bd 54b3 fa3c ddcd 343d
00000050: 8d3b 793d e9d0 cb3d 1387 afbc 72cc 2fbd
00000060: 3d98 ae3d 398f ba3c 032e 0b3b 2a57 b13d
00000070: 2dc4 7abb 329c 18bd 923c 963d f9b3 18bd
00000080: 88b5 f63c cbe5 a33c 4ca1 743d 91f8 8a3d
00000090: 3e45 15bd a26c 4bbd a2b3 31bd 63a4 ab3d
000000a0: 6f1b 73bd 4663 0c3d 3cd4 a7bc 200c 4abc
000000b0: 502e 40bd 0996 653d fc1e dd3c 2c45 43bc
000000c0: 6a8a 55bd d7fd 183d 3b33 a73c 6d9e 6abd
000000d0: 9a2d 64bd 5b5b 2d3d 5898 51bc fb11 cc3b
000000e0: 9572 763b 8f47 1a3d 9a65 80bc b308 973b
000000f0: f2e1 e33c 947c 82bd 5de7 5abd 7007 703d
00000100: ef92 72bd 807f 6dbd 7344 aa3d 4598 213d
00000110: 95ef 2bbb 25d5 a53b bcff 8dbd ae63 0abd
00000120: 9c5e 213d 4332 803d f7da 3abb 473f 18bd
00000130: 79f9 883d 882d 00bd 8bc1 833c fa26 74bd
00000140: 4228 703b 48a5 e4bc 0d5e 8f3d bbea fabc
00000150: 76b7 0d3d 0aef 1c3d 3d81 0a3d 817d 093c
00000160: 1d33 bdbc 800a 7bba 55ea 2d3d 38ca 823d
00000170: dd7d fb3c 0459 973b d6d0 5dbd aa98 86bc
00000180: 3043 38bc fcb3 6a3d ee8e 93bc a5c8 8abc
00000190: 6758 80bd ca16 c73c bb1e 1f3d d314 0fbd
000001a0: 1b93 dcbb a162 b63d 2ca9 b7bc 8dab a33c
000001b0: 9e53 b1bc 3fce 18bd 78d4 7e3d aeb3 ae3e
000001c0: ed2e 5a3d 1a3a d43c 1591 1cbd 5c4d 82bc
000001d0: 18f3 b0bb bc36 1fbc 9220 773d ff62 0bbd
000001e0: 2103 1d3c 82ca b7bc 61d8 89bc b53d adbc
000001f0: 65be 213d 3751 13bd b6d5 093d dfd5 4dbd
00000200: b9ed 0dbc 0d20 b13d be2e 283d bb7c b8bc
00000210: 09d0 683d 3569 90bd 5530 91bc fe00 883d
00000220: e10f dcbc b47f 1abc 04c5 933b 4233 7dbd
00000230: 3f0f c93c 6930 8f3d 9a45 30bd 9662 f8bc
00000240: 558e a93d 8fa8 1c3c a967 32bd 78f6 193d
00000250: ad38 11bd 545b 593d 34c9 5b3d 6640 06bc
00000260: 6043 8dbd 6302 99bc e1ee 873c fc46 d7bc
00000270: 79fc 993d 1923 15bd 6b20 4dbd 0b5f 42bc
00000280: 6053 e4bc c064 8e3d cdd9 713d 3293 36bd
00000290: 0769 e53c a3e9 75bd 9fc0 4d3d 1789 14bd
000002a0: 1efb 83bb dc29 84bd c633 7e3d 5c99 0f3d
000002b0: c6a9 8cbd db11 563d 175e e63c f16d 36bc
000002c0: d83d 303c aa54 16bc f579 663c 2c6d 7c3d
000002d0: 6c8d df3b 0ec7 043d 38d2 b0bc a5a2 953c
000002e0: 9402 ddbc fc90 92bd e512 bb3c 167b 7d3d
000002f0: b33f a93c 7ee8 dcbb ca04 ebbb c379 6cbd
00000300: 55d4 92bc aea9 ae3c 3a2c 813d 051d f13a
00000310: ac2a 443d e1c0 903d 6690 e83c 1f10 6f39
00000320: 2c37 043d 3c02 1abd 07e6 17bd dc2e fbbc
00000330: 4d07 7dbd ac70 19bc d3ea 153b 0ffa 503d
00000340: f8be a83c 60c8 87bc a3ea 073d a38c 553b
00000350: 7e17 5ebd 10e2 ce3a 0772 903b 26a6 87bd
00000360: 220e 493d 67ba cf3c 1c67 853d ed86 f23c
00000370: 1e53 07bd f319 88bd 14bc 843d 4dc6 53bd
00000380: 3ddd 40bb 0dfb afbd fc4b 913c ac88 aebb
00000390: 508c 6e3c 4752 3bbc f8c7 2a3d 164f 073d
000003a0: 8524 763d 188a 283d ee32 17bd b098 863d
000003b0: ca37 44bc 9d3c 23bd b82a 873d 61bb 54bd
000003c0: f380 c1bc 631e 1abd dbcc 2abd eb1d f0bb
000003d0: a4ee 38bd 156e 3ebd 61a9 813c 0219 03bc
000003e0: d035 1a3c 56ed 903c dabb 40bc 13ca 82bd
000003f0: cf67 bbbb 11b1 15bd 187e 8bbd eb8c bc3c
0.001544698 0.060632963 0.046553116 -0.02541371 -0.037173428 0.02443599 0.3098202 -0.020924479
0.06485908 -0.030839656 0.06526102 0.028732317 0.03374883 0.033778008 0.004843909 0.040261187
0.01789536 -0.05505925 0.030603088 0.04414164 0.060847808 0.09951956 -0.021426713 -0.042919584
0.08525131 0.022773372 0.0021237142 0.08659203 -0.0038263903 -0.037258334 0.073357716 -0.03728101
0.030115858 0.020007035 0.059724137 0.067856915 -0.036442988 -0.049664147 -0.0433842 0.08380964
-0.059352335 0.034274362 -0.020486943 -0.012331992 -0.046919167 0.056051288 0.026992314 -0.011918347
-0.052133955 0.037351456 0.02041017 -0.057279993 -0.05570755 0.04232345 -0.012792669 0.0062277294
0.0037604917 0.0376659 -0.015673447 0.0046091913 0.0278177 -0.06371418 -0.0534433 0.058600843
-0.059222158 -0.05798292 0.08313837 0.039451856 -0.0026235331 0.005060809 -0.06933543 -0.03378647
0.039396867 0.06259587 -0.002851186 -0.03716972 0.06688208 -0.031293422 0.0160835 -0.059607483
0.003664509 -0.027910843 0.07000361 -0.030629506 0.03459879 0.038313903 0.033814657 0.008391739
-0.023095662 -0.0009576455 0.042459805 0.063862264 0.030699665 0.004618766 -0.05415424 -0.016430218
-0.0112464875 0.057300553 -0.01801249 -0.016941378 -0.062668614 0.024302859 0.038847666 -0.03493197
-0.0067314035 0.08905531 -0.022419535 0.019979263 -0.021646317 -0.037306067 0.062214345 0.3412146
0.05326741 0.025906611 -0.0382243 -0.015906028 -0.005400073 -0.00971764 0.060333796 -0.034029957
0.0095832655 -0.02243543 -0.01682681 -0.021147588 0.039488215 -0.035966124 0.033651076 -0.05025279
-0.0086626345 0.08648691 0.0410602 -0.022520414 0.056839023 -0.07051317 -0.017723242 0.06640814
-0.02686304 -0.009429861 0.00450957 -0.06181646 0.024543403 0.069916554 -0.043035127 -0.030320447
0.08279101 0.009561672 -0.04355589 0.037588567 -0.03545444 0.053065613 0.05365868 -0.008194065
-0.068976164 -0.018677896 0.016593399 -0.026278965 0.075188585 -0.036410425 -0.050079744 -0.01186348
-0.027871788 0.0695281 0.0590456 -0.04457397 0.028004183 -0.060037266 0.050232526 -0.03626355
-0.0040277382 -0.064532965 0.062061094 0.035058364 -0.06868319 0.052263122 0.028121037 -0.0111346105
0.010756932 -0.009175459 0.014067163 0.061627552 0.0068222787 0.032416396 -0.021584615 0.018266032
-0.026978768 -0.0715656 0.022836158 0.061884962 0.020660257 -0.0067415824 -0.0071722018 -0.05773331
-0.017923513 0.021321144 0.06307264 0.0018395489 0.047892258 0.07068039 0.028389167 0.00022798822
0.03227918 -0.037599787 -0.037084606 -0.030661993 -0.06177454 -0.009365242 0.0022875562 0.051019724
0.020598873 -0.016575038 0.03318275 0.0032585047 -0.054221623 0.0015783925 0.0044081244 -0.06623487
0.049085744 0.025357438 0.06513807 0.029605353 -0.03303825 -0.066455744 0.064811856 -0.051702786
-0.0029428743 -0.08592806 0.017736427 -0.005326351 0.01455982 -0.011433191 0.04169461 0.033034407
0.06009342 0.04114732 -0.036913805 0.065720916 -0.011976192 -0.039852727 0.06599945 -0.05193651
-0.023621058 -0.037626635 -0.04169927 -0.0073277852 -0.04514946 -0.0464917 0.015827836 -0.008001568
0.009412244 0.017691296 -0.011763537 -0.06386199 -0.005719162 -0.036545817 -0.0681116 0.023016414

net.12.bias f4 [64]
00000000: 1ff5 0f3e 8580 0fbd 92d7 243e 699e 273e
00000010: 7de8 c23c a472 073e f913 113e 5c73 2f3e
00000020: 25d8 29bd 9f96 9bbd e762 1e3e c709 443e
00000030: 1df0 4e3e 3bf2 1c3e 3e7a b23d f9eb 513e
00000040: c473 213e 9fea e83d e7d8 503e d785 793e
00000050: 24d6 333e 9756 293e 8a1c 103e c5c1 273e
00000060: 22c9 0d3e f577 0c3e 34d7 303e 9aee 533e
00000070: 25ab 223e b1d4 fa3d a9a1 5a3e 5eb1 e03d
00000080: c80a 403e 72bd 043e 6800 503e 657a 2e3e
00000090: a07f 65bd f052 f13d 82f7 4e3e 4c65 283e
000000a0: e675 2d3e 9dbd 473e b437 0a3e e09b 89bd
000000b0: 854a 523e 3d3a 093e 5c20 a4bb 1ead 16bd
000000c0: d9d3 f83e 8d67 d03d 6aa2 483e 79ba 083e
000000d0: 9380 3d3e 8d30 1a3e 8ba3 4e3e d757 313e
000000e0: daa4 483e f02e 143e 92ef bb3d 8e72 1a3e
000000f0: db88 9d3d afb8 9fbd 2668 3a3e 2126 673e
0.1405835 -0.035034675 0.16097859 0.16369022 0.0237925 0.13227326 0.14167775 0.1713385
-0.041465897 -0.07597088 0.15467416 0.19144355 0.20208783 0.15326779 0.08714722 0.20500173
0.15766817 0.113728754 0.20395242 0.24367462 0.17562157 0.16536938 0.14073387 0.16382511
0.13846257 0.13717635 0.17269593 0.20696488 0.15885599 0.12247599 0.21350731 0.1097133
0.18754113 0.12962893 0.20312655 0.17038877 -0.056029916 0.11783397 0.20211604 0.16444892
0.16939506 0.19505925 0.13497812 -0.06719184 0.2053624 0.13401122 -0.0050087404 -0.03678619
0.48599127 0.10176001 0.19593206 0.13352384 0.18506078 0.15057583 0.20179574 0.17318664
0.19594136 0.1447103 0.09176554 0.15082762 0.07692119 -0.077988975 0.18203792 0.22573139

net.15.weight f4 [64, 64, 3]
00000000: 5fa7 b53c a8d7 203c 153d 733d bb77 1a3d
00000010: aa19 1cbd 6b47 5fbd 0fe2 c03d 5275 e43c
00000020: 29e5 2b3d 8ad2 243d c4f3 28bd b637 86bd
00000030: 7748 25bd ef94 983c 7ff4 07bd 6560 343c
00000040: e2e9 f7bc 80f1 18bd a295 cc3d 6ef3 b43c
00000050: ceae 313d 9013 7ebc b845 89bb e293 5b3c
00000060: 110f 933d 9478 6f3d 3358 1fbd 2c6e 24bd
00000070: 99d9 f6bc 6278 3ebc bcc5 133d 0f96 1abd
00000080: d13b a03b e1b4 3ebc 3baa 153c b9df 353d
00000090: e996 9638 8ac8 6abd 747d 293d c508 a03d
000000a0: 2da0 66bd 20b0 d6bc f54b c03d e393 663d
000000b0: cac1 363c 41b2 9bbc da8b f4bc 59a2 20bd
000000c0: 635c c33b 2edc f4bb 366b 393d 5538 b53d
000000d0: 3f23 3fbd 91ff 35bc 50e1 433d 65ec bdbc
000000e0: 303b 1e3d 0866 603c f715 59bd 9be4 5b3d
000000f0: 089c 4e3d abc0 4ebd eb76 4d3c 4adb d3bc
00000100: 5d5d 3c3d 4403 0cbd b759 bcbc 2a92 80bd
00000110: 672d 733d a5a2 843d f130 92bd 75a8 303d
00000120: 6f23 483d 7971 343d 0826 57bd 0289 003b
00000130: 1eaa 8b3d 9467 8e3d 80b3 373d ce70 453d
00000140: bd33 6f3c a56c 083d 5150 01bd be00 043d
00000150: 3021 643d 58a2 7ebd c8b2 05bc a0c5 3a3c
00000160: 02da 843d 1acb eb3a be39 c43c 4f21 79bc
00000170: 191a 29bc 0b04 303c 1770 173c 5700 2cbd
00000180: c720 953d 77f0 87bd afb1 843d f263 813d
00000190: d876 8bbc 7a1e 7dbc 65d4 673b 6f38 913d
000001a0: f4ad 2b3d 3217 dd3d a65e 2b3d 2c4d 853c
000001b0: c762 2dbd 0bd2 e63c ddb0 6b3c 8daf 4ebc
000001c0: 0539 4b3c 3b52 84bd a9a6 ee3c 40af d3bc
000001d0: 0905 1dbc b971 e33d 5399 19bd f4da ae3c
000001e0: 8319 833c 07e9 cf3b 68bc 96bb fa1a dd3d
000001f0: 5711 253d 621b a2bc 39a7 b73d f78f 51bd
00000200: 11db 4f3d be32 1d3d 251b f9bc b433 913d
00000210: b5b2 f53b 193b f9bc c6cd 8ebd 5b8f b1bc
00000220: 9e74 a3bc 5c1e 673c 6a96 d93c 1a1c 43bc
00000230: fa05 01bd 2909 523d 0419 283d 49c5 4b3d
00000240: cde5 363e efe1 5e3d 0ed0 213d d980 873d
00000250: 0d61 af3c 40e3 2ebd 9ff1 523b 6ed1 63bd
00000260: 55ba 1e3b 0596 f33c 1685 13bd 2633 133d
00000270: 85d9 9e3d 4a5e f43c 854c 3d3d e1e9 9e3d
00000280: d8b0 413d fa3e 70bd dabd 943d df4e 0ebd
00000290: 080e 77bc 091f e23d 7455 693c a5d9 89bc
000002a0: 66bb 40bc 1108 6bbd 901f 973c b064 9a3d
000002b0: 8cea 9bbb ccfa 5fbd 2eea b23d d414 043c
000002c0: acb4 d33c b0e5 443d 340c 8c3c f033 343d
000002d0: f072 603c 9034 d23c 5a8b 8c3c 680a a6bc
000002e0: e3ec 693d c23b 32bd 9533 da3d f036 5b3b
000002f0: 9902 f43a f4b0 6b3d 7933 2fbd 1133 1ebd
00000300: 203b ec3a 78db a13c eba3 4f3d 3951 c6bc
00000310: a9df cabb d446 963c b705 a33d 8863 933c
00000320: 910c afbc d2a1 c43d c2c7 923c e937 e5bc
00000330: 20c2 8c3d 4831 f7bc a31c 573b cbe0 c73d
00000340: 92d5 8dbd 1ae6 bfbc f309 933d dc36 4fbd
00000350: 2d78 86bd bcab b33c c0bb db3c 69e8 3d3d
00000360: f00a 9c3c e6a5 353c d42b 78bd 94fc a63c
00000370: 1d17 913d b51d 2c3d dbb2 543d c0ce 6a3d
00000380: 5a26 d4bc d5e5 d93d ec01 8cbd 3da9 77bd
00000390: cde2 ce3d e8e3 e93c 2c15 f6bc f66f de3c
000003a0: a8cf 883d 738f 91bd 0b40 f83c 37e0 283c
000003b0: 0c99 7c3c 4fe2 a43c 40a0 82bc 07b7 54bd
000003c0: 446c d93b 7c44 d6bb 2264 cc3c 66c2 1c3d
000003d0: 6b7e 5dbd bc6e 43bd 50d3 223d c800 273c
000003e0: 02ed 36bd b941 ed3d 45cf 28bd edd6 4d3c
000003f0: e316 743d e99a b0bc 7581 7cbc 5eaf 56bc
0.022174535 0.009817041 0.059384424 0.03771184 -0.038110413 -0.05451147 0.09418117 0.027887974
0.04196659 0.04023985 -0.041248098 -0.06553595 -0.04035231 0.018625705 -0.033192154 0.01100931
-0.030262891 -0.037339687 0.09989478 0.022088733 0.043379597 -0.015507594 -0.0041892193 0.013401957
0.07180608 0.0584646 -0.038902473 -0.04014413 -0.030133056 -0.011625381 0.036077246 -0.037740763
0.004889943 -0.011639805 0.009134824 0.04440281 7.1806666e-05 -0.057320155 0.041379407 0.07814173
-0.0563051 -0.02620703 0.09389488 0.05629338 0.011154601 -0.019005897 -0.029851843 -0.039217327
0.005961941 -0.0074725365 0.04526826 0.08848635 -0.046664473 -0.011108295 0.047822297 -0.02318401
0.038630664 0.013696201 -0.052999463 0.053684812 0.05044177 -0.05047671 0.012540559 -0.025861401
0.045987476 -0.0341828 -0.022991998 -0.062778786 0.05936947 0.064763345 -0.07138241 0.043129403
0.048861917 0.04405353 -0.052526504 0.0019612913 0.06819557 0.0695335 0.04484892 0.048203282
0.014599738 0.033306736 -0.031570736 0.03222727 0.055695713 -0.06216654 -0.008160301 0.0113996565
0.06486894 0.0017989606 0.023953315 -0.015205695 -0.010321164 0.010743151 0.009243033 -0.04199251
0.072816424 -0.06637662 0.06479203 0.06317891 -0.017024443 -0.015449161 0.00353744 0.07090842
0.04191394 0.1079544 0.04183831 0.01627215 -0.04233053 0.028176328 0.014385429 -0.012615097
0.012403731 -0.06460997 0.029132204 -0.025840402 -0.00958372 0.11105675 -0.037499737 0.02134464
0.016003376 0.0063449177 -0.0046000965 0.10796161 0.04029974 -0.019788448 0.08967442 -0.051162686
0.050746027 0.03837847 -0.030408451 0.0708994 0.00749811 -0.030423688 -0.06972842 -0.021674803
-0.019953068 0.014106359 0.02656098 -0.011908555 -0.03149984 0.051278267 0.04103948 0.049748693
0.178611 0.054414686 0.039505057 0.066163726 0.021408582 -0.04269719 0.0032187474 -0.05561965
0.002421995 0.02973462 -0.036015593 0.03593745 0.07756332 0.029830117 0.046215553 0.077594526
0.047287792 -0.05865381 0.07262774 -0.034743186 -0.015079029 0.11041076 0.014241565 -0.016827414
-0.011763429 -0.05738074 0.018447667 0.07538736 -0.004758185 -0.054682538 0.087360725 0.008061606
0.025842987 0.04807061 0.017095663 0.043994844 0.013699278 0.02565983 0.017156292 -0.020268634
0.05711068 -0.04351402 0.1065437 0.0033449493 0.0018616497 0.057541803 -0.042773698 -0.03862292
0.0018022992 0.019757971 0.050693434 -0.024208652 -0.006191213 0.01834432 0.079600744 0.017991796
-0.021368297 0.09601177 0.017917518 -0.027980762 0.06872964 -0.030174866 0.0032823465 0.09759673
-0.06925501 -0.02342515 0.07179632 -0.050589427 -0.065658905 0.021932475 0.026822925 0.04636422
0.019048184 0.011086917 -0.060588673 0.02038411 0.07084487 0.04202052 0.051928382 0.05732608
-0.025897194 0.1063954 -0.06836304 -0.060464133 0.101018526 0.028551057 -0.030039392 0.027152997
0.06680232 -0.07107439 0.030303976 0.010307363 0.015417349 0.020127444 -0.015945554 -0.05193236
0.0066352207 -0.0065389257 0.02495009 0.03827133 -0.05407564 -0.047713026 0.039752305 0.010193057
-0.044659622 0.11584801 -0.041213293 0.012563449 0.05959214 -0.021558242 -0.015411724 -0.013103334

net.15.bias f4 [64]
00000000: e915 223e 2cc9 613e 169a 9abd b5cd 593e
00000010: d4e0 a73b 63c6 3d3e 2072 5c3e 72a4 313e
00000020: 9173 213e 4ebf 1f3e 29eb 87bd b88d 9b3a
00000030: 4924 bbbc a6e2 3a3e d140 543e b4f1 07bc
00000040: a15a 493e 0c39 4a3e 6bdc 473e 753a 463e
00000050: a40a 493e 7225 233e a46b 2b3e 68e0 173e
00000060: e095 283e 51b8 4d3e 03dd 9d3e f353 3d3e
00000070: c7bd 543e a7ea 203e 0e25 2e3e 6d5f 4e3e
00000080: e1b8 4e3e a824 163e e8cf 343e 2c26 1d3e
00000090: 6e82 f43e fb28 503e cc6d 1f3e 2a42 333d
000000a0: a053 5e3e b3cf 32bd a53c 2bbd c9d9 243e
000000b0: b865 6a3c aff8 363e dbac 2ebd 0588 4e3e
000000c0: 2aff 5e3e 5e8d 7fbd 020d 5c3e db58 1e3e
000000d0: 77d5 5e3e 78a3 653e 2920 3bbb 1100 2f3e
000000e0: c354 64bd f745 2c3e 756b 4abd a936 203e
000000f0: 12e2 713b ff06 413e 957d 3c3e edf7 413e
0.1582867 0.22049397 -0.07548921 0.21269877 0.005123237 0.1853271 0.2152791 0.17347887
0.15766741 0.1560032 -0.0663665 0.0011867797 -0.02284445 0.18250522 0.2072785 -0.008297373
0.19663478 0.19748324 0.19517677 0.19358237 0.19632965 0.15932253 0.1674028 0.14831698
0.16463423 0.20089842 0.3083268 0.18489055 0.2077552 0.15714513 0.17006323 0.2015359
0.20187713 0.14662421 0.17657435 0.15346593 0.4775576 0.20328133 0.15569228 0.04376427
0.21711588 -0.04365511 -0.041805882 0.16098703 0.014306478 0.17868303 -0.042645317 0.20169075
0.21777025 -0.062390678 0.21489337 0.15463583 0.21761118 0.2242564 -0.0028553104 0.17089869
-0.055744898 0.16823564 -0.049418885 0.15645851 0.003690843 0.18850325 0.1840728 0.18942232
