model_artifacts/dl_tcn_h24_44000_45500.pt (torch, 378437 bytes, 20 tensors)

net.0.weight f4 [64, 30, 3]
0	0xbd2ed1df	-0.042680617
1	0xbd2790b8	-0.0409095
2	0xbcc1dc1f	-0.023664532
3	0xbdd2bb13	-0.10289588
4	0x3d8c797d	0.068591096
5	0x3c6c8566	0.014436102
6	0xbe1554e8	-0.1458317
7	0x3dd2e9c0	0.102984905
8	0x3d105028	0.035232693
9	0xbe07eb96	-0.13273463
10	0x3dce48c6	0.10072474
11	0x3dabeb13	0.08394446
12	0xbda1d4b9	-0.07901902
13	0x3d841a85	0.06450371
14	0x3d595204	0.05305673
15	0xbe0e48f5	-0.13895018
16	0xbc0ce81a	-0.008600259
17	0x3d0b00d0	0.03393632
18	0xbdef2bc5	-0.1167827
19	0x3db31413	0.08744063
20	0xbd9ec4e7	-0.077524
21	0x3d5f37e1	0.05449665
22	0xbd34cabe	-0.044138663
23	0xbd40eb02	-0.04709912
24	0x3c046b7d	0.008082268
25	0xbda16a6e	-0.07881628
26	0xbcc2915c	-0.023750953
27	0x3c713e1f	0.0147242835
28	0x3d1d00a0	0.038330674
29	0xbb89e7fe	-0.004208564
30	0x3d73c65f	0.059515353
31	0xbdd5ebbb	-0.10445353
32	0x3d071440	0.032978296
33	0xbd55e4c7	-0.052220132
34	0x3d7d9b5a	0.061915733
35	0x3da964b2	0.08271159
36	0x3c38a142	0.011268916
37	0xbc87948e	-0.016550329
38	0xbd8341c2	-0.06409027
39	0x3c5b2adc	0.013376918
40	0x3dbb35bf	0.09141111
41	0x3c12ad76	0.008952489
42	0xbd4f37b6	-0.05059024
43	0x3da01e95	0.07818333
44	0xbd7657aa	-0.060142197
45	0xbdc614bc	-0.096719235
46	0x3d9ae533	0.075632475
47	0xbb00570b	-0.0019583132
48	0xbd8fb7d0	-0.07017481
49	0xbb635ffb	-0.003469466
50	0xbd8c7be9	-0.068595715
51	0xbdafaa07	-0.08577352
52	0x3dbb5cad	0.09148536
53	0x3ca0c20a	0.019623775
54	0x3c223560	0.009900421
55	0xbd09e4ce	-0.03366547
56	0xbc2c349a	-0.010510588
57	0x3cd3b16b	0.025841435
58	0x3da8d52b	0.082437836
59	0xbcbc8574	-0.023012854
60	0xbe0d807f	-0.13818549
61	0xbd8fd159	-0.07022352
62	0xbd9128f6	-0.07087891
63	0x3decc339	0.11560673
64	0x3d318c50	0.043346703
65	0x3d7cb7ba	0.061698653
66	0x3d74850c	0.059697196
67	0x3ce07787	0.027400745
68	0x3d0f96a6	0.03505578
69	0x3bff2b05	0.0077871107
70	0xbc1eb26e	-0.009686096
71	0x3dd5e073	0.10443201
72	0xbda2f30f	-0.07956516
73	0xbd378079	-0.044800255
74	0xbda1aa22	-0.078937784
75	0xbca8dc27	-0.02061279
76	0x3c55bf15	0.013046046
77	0x3d81772f	0.063215606
78	0x3ca640c5	0.020294556
79	0xbd716553	-0.05893452
80	0x3db11fba	0.086486295
81	0x3d0c4bae	0.03425186
82	0x3d0c320a	0.03422741
83	0xbd82ca64	-0.06386259
84	0xbd74d0fe	-0.059769623
85	0x3d3173c0	0.04332328
86	0xbc12b5a8	-0.008954443
87	0x3d27e555	0.040990192
88	0x3d1892e0	0.037249446
89	0x3daa3eab	0.08312734
90	0x3dc7f034	0.09762612
91	0x3d9c0e5d	0.07619927
92	0xbd8ac1ab	-0.067752205
93	0x3da9d962	0.082934156
94	0x3d50b994	0.05095823
95	0x3cc78272	0.024354193
96	0x3cd78dc5	0.026312718
97	0xbdb04c9c	-0.08608362
98	0xbdd6e1ed	-0.10492311
99	0xbc3e312d	-0.011608404
100	0x3b11d0e0	0.0022249743
101	0x3d9ebacf	0.07750475
102	0x3d1a6768	0.037696272
103	0xbd1fe4e8	-0.03903666
104	0x3db1d725	0.08683614
105	0x3d601e8a	0.054716624
106	0x3daa4ec1	0.08315802
107	0x3d150dd2	0.036390133
108	0x3d151fa9	0.036407147
109	0xbd375590	-0.044759333
110	0x3db3af8d	0.08773718
111	0x3c7c76c5	0.015409176
112	0x3c5f24c0	0.013619602
113	0xbd412516	-0.04715451
114	0xbde8b1ce	-0.113620386
115	0x3db413e1	0.08792854
116	0xbd9b169c	-0.07572672
117	0xbd126020	-0.035736203
118	0x3dd581c2	0.1042514
119	0xbd42fe1e	-0.047605626
120	0x3b6679db	0.0035167846
121	0x3c16681e	0.009180097
122	0xbda1621b	-0.0788004
123	0x3c0cf776	0.008603921
124	0x3c691ea4	0.014228497
125	0xbdb3b76c	-0.08775219
126	0xbb99bd24	-0.004691737
127	0xbd4ea3f9	-0.050449345
128	0xbcbe1d96	-0.023207467
129	0x3bf327e5	0.0074205273
130	0xbd796a5b	-0.060892444
131	0xbc091a84	-0.008368138
132	0xbd979ff6	-0.07403557
133	0xbd3c6990	-0.04599911
134	0xba963d6e	-0.0011462399
135	0xbd681342	-0.05665899
136	0x3d89c0ad	0.06726203
137	0xbd6054a3	-0.054768216
138	0x3dd51241	0.10403872
139	0x3da54e9c	0.08071634
140	0x3d6f2a1e	0.058389775
141	0x3c063cf7	0.008193246
142	0xbd8012ec	-0.06253609
143	0xbdbc8024	-0.092041284
144	0x3d6519c5	0.05593278
145	0x3d730c4e	0.059337907
146	0x3d33433e	0.0437653
147	0x3db36f81	0.08761502
148	0xbdac11e5	-0.084018506
149	0xbd8a038e	-0.06738959
150	0x3b097388	0.0020973403
151	0xb92ed6ce	-0.00016673954
152	0xbc3bbf54	-0.01145919
153	0x3d7c5d0a	0.061612166
154	0x3d51f8e2	0.051262744
155	0x3db19b7b	0.08672234
156	0x3e0d0125	0.13769968
157	0x3d9b3fe9	0.07580549
158	0xbd551bda	-0.052028514
159	0x3de5df10	0.112241864
160	0xbc7629cc	-0.015024614
161	0xbc852279	-0.01625179
162	0x3d61756e	0.05504363
163	0xbd69e23d	-0.057100523
164	0xbdaade89	-0.083432265
165	0xbc404e67	-0.011737443
166	0x3d004b41	0.031321768
167	0xbd38fae4	-0.045161143
168	0xbe19bf5b	-0.15014403
169	0x3b11a160	0.002222143
170	0xbdd49ad0	-0.10381091
171	0x3dca71bd	0.09884975
172	0xbda89087	-0.082306914
173	0x3dc8daad	0.09807334
174	0x3c226874	0.009912599
175	0x3d1c59e8	0.03817168
176	0xbd7eae1b	-0.06217776
177	0xbd7f4208	-0.06231883
178	0xbd475cff	-0.048672672
179	0xbdc15396	-0.09439771
180	0x3c84ec66	0.016226005
181	0x3d041068	0.03224221
182	0xbd81dbf8	-0.06340784
183	0xbd90c4b0	-0.07068765
184	0xbcb386d0	-0.02191487
185	0xbd4a2ef5	-0.049361188
186	0x3d5f5777	0.054526772
187	0x3bf77db1	0.0075528254
188	0x3d15cba0	0.036571145
189	0x3cd8ceaa	0.026465733
190	0xbdad8b24	-0.084738046
191	0x3d93d1c1	0.07217742
192	0xbdb93fec	-0.09045395
193	0xbdcafbf0	-0.099113345
194	0xbc3d04e9	-0.011536815
195	0xbdfe056a	-0.124033764
196	0x3d9d6985	0.07686142
197	0x3d326138	0.043549746
198	0xbe0557ac	-0.13021725
199	0xbbd320ce	-0.0064431196
200	0x3d612b2e	0.05497282
201	0xbdda3649	-0.10654885
202	0xbb831b3c	-0.0040010493
203	0x3bf0c72b	0.0073479614
204	0x3db8f306	0.09030728
205	0xbd00bcf0	-0.031430185
206	0x3dce0302	0.100591674
207	0x3d70ad88	0.058759242
208	0x3cd53d34	0.02603016
209	0x3d210d52	0.039319344
210	0xbdd75442	-0.10514118
211	0xbdacd82a	-0.084396675
212	0xbd851bad	-0.06499419
213	0x3d0a3286	0.03373959
214	0x3daf3405	0.08554844
215	0xbd581dae	-0.05276268
216	0x3d8fcce1	0.070214994
217	0x3ca557ae	0.02018341
218	0x3c777c7b	0.015105362
219	0xbd9d244f	-0.07672941
220	0x3d91d657	0.0712096
221	0x3dabb5e7	0.083843045
222	0x3cb360ee	0.021896806
223	0x3d787769	0.060660753
224	0x3dc6df0d	0.09710512
225	0x3c5b928f	0.0134016415
226	0x3dc838bc	0.09776446
227	0x3d34a78c	0.044105098
228	0xbc559e69	-0.013038256
229	0x3c01a42a	0.007912675
230	0xbd7ac019	-0.061218355
231	0x3c95fa82	0.018307928
232	0x3d986fef	0.07443225
233	0xbd8f163a	-0.06986661
234	0x3c31b191	0.010845558
235	0x3d87f6be	0.06638859
236	0x3bc7dc7b	0.0060992814
237	0xbcb98aa6	-0.02264912
238	0xbd87fa16	-0.06639497
239	0x3c9c08a2	0.019047085
240	0xbdcc7f6a	-0.0998524
241	0x3ce1313c	0.027489297
242	0x3c92f813	0.017940557
243	0xbd86c122	-0.06579806
244	0xbc47473e	-0.012162982
245	0xbd705528	-0.05867496
246	0x3cf226ba	0.029559482
247	0xbcf37900	-0.029720783
248	0xbc4aa0aa	-0.012367407
249	0xbe04ec35	-0.12980731
250	0x3d74f328	0.059802204
251	0x3befda89	0.0073197526
252	0x3d085da3	0.033292424
253	0x3d3c0920	0.04590714
254	0xbd1c8cee	-0.03822034
255	0xbbe7465e	-0.007057949

net.0.bias f4 [64]
0	0xbd597059	-0.05308566
1	0x3d63ab8f	0.055583533
2	0xbc415f2f	-0.011802479
3	0x3ca33741	0.019923808
4	0x3d1e759e	0.038686387
5	0xbd88632f	-0.06659543
6	0xbd670b44	-0.056407228
7	0x3d9f77e7	0.077865414
8	0x3d13d52c	0.03609197
9	0xbae64e0c	-0.0017570867
10	0x3e1bcf38	0.15215766
11	0xbc2a256f	-0.010384901
12	0x3c41c33f	0.011826335
13	0x3e21a31b	0.15784876
14	0x3b1db562	0.0024064411
15	0xbc887b37	-0.016660316
16	0xbccac176	-0.024750452
17	0xbc890dd4	-0.016730227
18	0x3db2eb4d	0.08736286
19	0x3df6acec	0.12044701
20	0x3d16ba9a	0.03679905
21	0x3cadc403	0.02121163
22	0x3d7e5b5b	0.062098842
23	0xbd08486a	-0.033272184
24	0x3c11534e	0.008869959
25	0xbcc25449	-0.02372183
26	0x3e04b968	0.12961352
27	0x3d7994c6	0.060932897
28	0x3dcb686d	0.09932027
29	0x3dad2ab4	0.084554106
30	0x3dbc9a7a	0.092091516
31	0x3d51af1f	0.0511924
32	0x3daabc49	0.08336694
33	0x3def4875	0.11683742
34	0x3de0e16e	0.10980497
35	0xbad10b08	-0.0015948722
36	0x3d2ef834	0.042717174
37	0xbc93a908	-0.018024936
38	0xbbef48b7	-0.0073023695
39	0x3c2ccfcc	0.0105475895
40	0x3e06245d	0.13099809
41	0x3d856d7b	0.06515022
42	0x3dcb8af9	0.09938616
43	0x3d7ed909	0.0622187
44	0x3d19456f	0.037419733
45	0x3d629720	0.055319905
46	0x3e15560b	0.14583604
47	0x3e0c6d9c	0.13713688
48	0x3dec3645	0.115337886
49	0x3d3e8440	0.046512842
50	0x3d5d8447	0.054081228
51	0xbc77ec86	-0.015132075
52	0x3dc058b8	0.09391922
53	0x3d71cf1d	0.05903541
54	0x3ced4fd2	0.028968725
55	0x3d947c2c	0.072502464
56	0x3d1e544b	0.038654607
57	0x3d995d08	0.074884474
58	0xbd65622c	-0.056001827
59	0x3d84a5d8	0.06476945
60	0x3df73d4d	0.12072239
61	0x3e0f8ff1	0.14019753
62	0x3defb72e	0.11704861
63	0x3e2579bd	0.1615972

net.3.weight f4 [64, 64, 3]
0	0x3d99baa5	0.07506303
1	0x3c6d9f09	0.014503249
2	0x3cc3c238	0.023896322
3	0x3d8b5f1f	0.06805252
4	0xbb8e6399	-0.004345369
5	0x3cbb06c2	0.02283037
6	0x3c5ad13d	0.01335555
7	0xbcfd1064	-0.030891605
8	0x3d58c0f9	0.052918408
9	0xbcf73edb	-0.030181339
10	0x3d083448	0.033252984
11	0xbd1c5c5c	-0.03817402
12	0xbd13997a	-0.03603504
13	0x3c317966	0.010832166
14	0x3d47054c	0.048589036
15	0xbcc3bb0e	-0.023892906
16	0x3c8a2e12	0.016867671
17	0x3d72f009	0.059310947
18	0xbce484e4	-0.027895398
19	0xbc227f16	-0.009917995
20	0xbd28c1b4	-0.041200355
21	0xbcff30b1	-0.031151148
22	0xbd190825	-0.037361283
23	0x3d5125c4	0.051061407
24	0x3d25a440	0.040439844
25	0xbc5906fb	-0.013246293
26	0x3cd1e550	0.02562204
27	0xbd7e5fb9	-0.062103007
28	0x3d2a2f16	0.04154881
29	0xbba43bf8	-0.0050120316
30	0xbcd32aac	-0.025777183
31	0xbd4398c4	-0.04775311
32	0xbc31995e	-0.010839788
33	0xbd292b73	-0.041301202
34	0x3d8ac2d8	0.06775445
35	0xbd3fd328	-0.046832234
36	0x3cccbc47	0.024992121
37	0x3c8e3727	0.017360283
38	0x3beedfc2	0.0072898576
39	0x3d467bc2	0.04845787
40	0x3b702c6c	0.0036647571
41	0x3c98d7b2	0.018657539
42	0x3ccda86a	0.02510472
43	0xbd769ce7	-0.060208227
44	0xbca610ec	-0.02027174
45	0xbcfbbc2f	-0.030729381
46	0xbd47d824	-0.048790112
47	0xbaef801c	-0.0018272432
48	0xbd6225df	-0.055211898
49	0x3d4fd1f0	0.05073732
50	0x3b797ee8	0.0038070027
51	0x3d2e88e7	0.04261103
52	0xbc782476	-0.015145412
53	0xbce63e6a	-0.028105933
54	0x3d5b2e4d	0.053510953
55	0xbd30afdc	-0.043136463
56	0x3c1b5d34	0.009482671
57	0x3da35a30	0.07976186
58	0xbd22494c	-0.039620683
59	0xbd6c7fbf	-0.057739016
60	0x3d7348da	0.05939565
61	0x3b1feeea	0.0024403878
62	0xbcecb405	-0.028894434
63	0xbcc1138b	-0.02356889
64	0xbd8b72ef	-0.06809031
65	0xbd659a78	-0.056055516
66	0xbce6c33b	-0.028169265
67	0x3cb33360	0.021875083
68	0xbd2361bd	-0.039888132
69	0xbd223c12	-0.03960807
70	0xbb0f8929	-0.0021901822
71	0x3d235129	0.039872322
72	0xbd30fdc2	-0.043210752
73	0xbd92a563	-0.07160451
74	0x3c0817d7	0.008306465
75	0xbd13d065	-0.036087412
76	0xbceb9c06	-0.028760921
77	0xbd70015c	-0.058595046
78	0x3db02628	0.08601028
79	0xbc112081	-0.008857847
80	0xbd22b059	-0.03971896
81	0xbd282b70	-0.04105705
82	0xbd27cc74	-0.040966466
83	0x3d3c5de0	0.045987964
84	0x3d0b2ca8	0.033978134
85	0xbd58a5d0	-0.052892506
86	0xbc840e00	-0.016119957
87	0x3d2a75ae	0.041616134
88	0xbba6610b	-0.0050774864
89	0xbcdf9954	-0.027294792
90	0xbd1c7139	-0.038193915
91	0xbc7b4b1c	-0.015337732
92	0x3d6d5ae8	0.057948023
93	0xbc95baa5	-0.018277476
94	0x3cf869fd	0.030323977
95	0xbc121980	-0.0089172125
96	0x3d4fc471	0.05072445
97	0x3d84b4b8	0.06479782
98	0xbc97f3d4	-0.018548883
99	0xbd3e7445	-0.046497602
100	0x3bdde0d4	0.0067711864
101	0xbc9c5124	-0.01908166
102	0xbd474453	-0.048649143
103	0xbcff50ee	-0.03116652
104	0x3cf43056	0.029808205
105	0xbd55ea8b	-0.05222563
106	0x3cc55ea0	0.024092972
107	0xbc8ec83e	-0.017429467
108	0x3d3233e4	0.043506518
109	0xbd41a716	-0.047278486
110	0xbd3b9a4e	-0.045801453
111	0xbcb72172	-0.022354815
112	0xbd3e9a1d	-0.046533693
113	0xbce6d768	-0.028178886
114	0x3d20691f	0.03916275
115	0xbbec26ca	-0.0072067725
116	0x3d72f92e	0.059319668
117	0x3d9a3c06	0.0753098
118	0xbd8eac6f	-0.06966483
119	0x3a8772aa	0.0010333855
120	0x3d9ba834	0.076004416
121	0xbc4d3f5e	-0.012527315
122	0x3cbc063c	0.022952192
123	0xbcab52b1	-0.020913454
124	0x3cceb3cc	0.025232218
125	0xbb7fa550	-0.0039008446
126	0x3d49dfa9	0.049285565
127	0xbd6374c5	-0.055531282
128	0x3d12fc73	0.035885286
129	0x3d2ece99	0.042677496
130	0xbd8b168a	-0.06791408
131	0x3d56478e	0.052314334
132	0x3c0c9dd2	0.008582549
133	0x3d0e6324	0.034762517
134	0x3cb08a4c	0.02155032
135	0xbd8ce56e	-0.06879698
136	0x3b2b2324	0.0026113475
137	0x3caf3c3e	0.02139103
138	0x3c6612cf	0.01404257
139	0x3d5e2908	0.05423835
140	0x3d404dda	0.046949245
141	0xbd21975a	-0.03945098
142	0x3b8d98b2	0.004321181
143	0x3d8ff7d0	0.07029688
144	0xbd472d83	-0.048627388
145	0xbcab697f	-0.020924328
146	0x3c9de6ac	0.019275032
147	0x3cdbec50	0.026846081
148	0xbce76760	-0.028247535
149	0x3cc5c31c	0.024140887
150	0xbca139f3	-0.019680953
151	0x3c89a048	0.01680006
152	0xbc47f235	-0.012203743
153	0x3c8b3359	0.016992258
154	0x3d20a1e8	0.039216906
155	0x3d15ca2e	0.036569767
156	0x3d31ed05	0.04343893
157	0xbc34e1ce	-0.011040164
158	0x3d865a1e	0.06560157
159	0x3d7bfe7d	0.061521996
160	0x3d1d3953	0.038384747
161	0xbcb054c8	-0.021524802
162	0x3d742fc4	0.059615865
163	0xbd71b906	-0.059014343
164	0x3bd02f0a	0.0063532637
165	0x3d2699b9	0.040673945
166	0x3d2efaf8	0.04271981
167	0x3d3d1ae3	0.04616822
168	0x3cd46f53	0.02593199
169	0x3cbcfc5f	0.023069559
170	0x3c0476f6	0.008085003
171	0x3d913d26	0.07091741
172	0xbd5fe34b	-0.054660123
173	0xbd6ee735	-0.058325965
174	0xbd8e5fb1	-0.069518454
175	0x3b62b922	0.003459521
176	0xbcc4e5cd	-0.024035359
177	0x3db3ffe3	0.08789041
178	0x3d40ac2e	0.047039203
179	0xbc60d268	-0.01372204
180	0xbc751a45	-0.014959876
181	0xbc22ef32	-0.009944724
182	0x3d3625f2	0.04446978
183	0x3d96d9d8	0.07365769
184	0xbd636eaf	-0.055525478
185	0xbd701afd	-0.058619488
186	0x3da75439	0.08170361
187	0x3c2e3861	0.010633559
188	0xbd190853	-0.037361454
189	0x3a90175e	0.0010993292
190	0xbcbb0fcc	-0.022834681
191	0x3c2a96e0	0.010411948
192	0xbd0e5316	-0.034747206
193	0xbce1afb3	-0.0275496
194	0x3d8b1647	0.067913584
195	0x3cddf07b	0.02709221
196	0x3d51b2dc	0.051195964
197	0x3d8892ae	0.06668602
198	0xbd374442	-0.04474283
199	0x3d6e93d6	0.058246456
200	0xbd0db6c2	-0.03459812
201	0x3d7f5b47	0.06234291
202	0xbd51463b	-0.051092368
203	0x3cd7205c	0.026260547
204	0x3acfe5cd	0.0015861333
205	0x3c9a9265	0.018868634
206	0xbd8fec7c	-0.07027528
207	0xbb9b1e3b	-0.0047338284
208	0xbd8e69ee	-0.06953798
209	0x3c053dec	0.008132439
210	0x3c360ee7	0.011111951
211	0x3d5a75f6	0.053335153
212	0x3ba9cc2f	0.0051818113
213	0xbcbcbd59	-0.023039507
214	0xbc9e201c	-0.01930242
215	0xbd43e6f2	-0.04782767
216	0x3d2c6f5c	0.042098388
217	0xbd84dd57	-0.0648753
218	0xbc9d0856	-0.019169014
219	0x3cf73110	0.030174762
220	0x3d83656a	0.064158276
221	0xbd912308	-0.0708676
222	0x3d86a30f	0.0657407
223	0xbd8e0e2a	-0.06936295
224	0xbcac1db8	-0.021010265
225	0x3dc7c251	0.0975386
226	0xbc5735a2	-0.013135346
227	0x3d8481e4	0.06470087
228	0x3d17c623	0.037054192
229	0x3c075872	0.008260833
230	0x3ce2e066	0.027694892
231	0x3d30631b	0.043063264
232	0x3d614c78	0.055004567
233	0x3ca1c68d	0.019747997
234	0x3d33e8a6	0.043923043
235	0xbd2d4e08	-0.042310745
236	0xbb6c07bd	-0.0036015355
237	0x3cf780f3	0.030212855
238	0x3c39a37c	0.011330482
239	0x3d91520a	0.07095726
240	0x3da5d11c	0.08096525
241	0x3d167a64	0.036737815
242	0xbcf9c86b	-0.030491075
243	0x3d8f4438	0.069954336
244	0xbce79cc9	-0.028273003
245	0xbd0f3e11	-0.0349713
246	0x3d3482ff	0.04407024
247	0xbbbba638	-0.005726602
248	0xbc0d626a	-0.008629421
249	0x3d666a1f	0.05625355
250	0xbd6d4fb9	-0.057937358
251	0x3cade328	0.02122648
252	0xbc88c012	-0.016693149
253	0xbd676db1	-0.056501094
254	0x3d47995c	0.04873024
255	0x3d40a3bc	0.04703115

net.3.bias f4 [64]
0	0x3d544546	0.051823877
1	0x3d61eb40	0.055155993
2	0x3dba2569	0.09089167
3	0x3d7ef2c4	0.062243238
4	0x3d8038a7	0.062608056
5	0x3e07a185	0.13245209
6	0x3dcafacc	0.09911117
7	0xbc600906	-0.013674026
8	0x3dd8be9a	0.10583229
9	0x3df1236b	0.117743336
10	0xbce9b14f	-0.02852693
11	0x3ba1ed6a	0.004941632
12	0x3df72ce4	0.12069109
13	0x3dbaed58	0.09127301
14	0x3ddc6c70	0.1076287
15	0x3c037640	0.0080237985
16	0x3cc3df2d	0.02391013
17	0x3d422e8e	0.04740768
18	0x3cabac37	0.020956142
19	0x3e08b548	0.13350403
20	0x3dfa95e1	0.122356184
21	0xbc946057	-0.018112345
22	0x3d1ccea8	0.03828302
23	0x3c19c623	0.009385618
24	0x3e0ad061	0.13556053
25	0x3b395b31	0.0028283114
26	0x3dbca87b	0.092118226
27	0x3d7783c0	0.06042838
28	0x3d82a617	0.063793354
29	0x3d56fd86	0.052487873
30	0x3dcdcaa0	0.10048413
31	0x3de8d243	0.11368229
32	0x3cd2c1d5	0.025727192
33	0xbb533175	-0.0032225524
34	0x3c8addc2	0.016951445
35	0xbd1a9a2f	-0.037744697
36	0x3dd85a96	0.10564153
37	0x3dfceab2	0.12349452
38	0xbadb22b2	-0.0016718714
39	0x3ded5014	0.11587539
40	0x3d0f3a1d	0.03496753
41	0x3d6f3d40	0.058408022
42	0x3c904e4f	0.017615465
43	0x3ceb8129	0.028748112
44	0x3dbf6419	0.09345264
45	0x3df13d7b	0.117793046
46	0x3df09f23	0.11749103
47	0x3d874e54	0.06606737
48	0x3d631873	0.05544324
49	0x3c4705a7	0.012147344
50	0x3d129abb	0.035792094
51	0x3dbcefca	0.09225424
52	0x3c34fc0a	0.011046419
53	0x3c097134	0.008388806
54	0x3deaf89b	0.11473199
55	0xbd0ad881	-0.03389788
56	0xbc3c05b6	-0.011475971
57	0x3e04ed7b	0.12981217
58	0x3e057eec	0.13036698
59	0x3e0d3a21	0.13791706
60	0x3daaff5a	0.08349486
61	0x3dcc7e5e	0.0998504
62	0x3d176dcb	0.03696994
63	0x3d2f33c7	0.042773988

net.6.weight f4 [64, 64, 3]
0	0xbc306b7d	-0.010767815
1	0x3d103c34	0.035213664
2	0xbcccd387	-0.025003208
3	0xbc1cbf63	-0.0095671145
4	0xbd6ecd86	-0.05830147
5	0x3b3a93cd	0.0028469444
6	0x3d38cbf3	0.045116376
7	0xbcbdb85e	-0.023159202
8	0xbd790103	-0.06079198
9	0x3da8cbe5	0.08242015
10	0x3d9308c3	0.071794055
11	0xbcf5df5a	-0.030013729
12	0xbc1bc713	-0.009507912
13	0x3ce91406	0.02845193
14	0xbd01a978	-0.03165576
15	0x3c27a418	0.010231994
16	0xbd926854	-0.07148805
17	0xbc29930f	-0.010350003
18	0x3d3b9585	0.04579689
19	0xbd85bd2e	-0.06530224
20	0x3c7aacba	0.01529997
21	0x3dc8bd3a	0.09801717
22	0x3b967dde	0.0045926413
23	0x3c13c522	0.009019168
24	0xbb477abb	-0.0030438143
25	0xbd73777a	-0.059440114
26	0x3d139c7c	0.036037907
27	0x3b782c0c	0.003786805
28	0xbd71f2fc	-0.05906962
29	0x3d732e64	0.059370413
30	0xbbcf82c8	-0.006332729
31	0x3d6c1411	0.057636324
32	0xbd21c2b5	-0.039492328
33	0x3c7c18d6	0.015386781
34	0xbc8bed5e	-0.017080959
35	0xbd31dd6c	-0.043424055
36	0xbc62fb63	-0.013853881
37	0x3cd942ba	0.026521076
38	0xbb8ceb49	-0.004300509
39	0x3d975788	0.07389742
40	0xbd3baa3b	-0.04581664
41	0xbd6cf8c2	-0.05785442
42	0x3d480964	0.04883708
43	0xbb8505d9	-0.004059535
44	0xbd34ec5f	-0.044170734
45	0x3bec0f82	0.007203997
46	0xbd3b5738	-0.045737475
47	0xbbb145b0	-0.0054099187
48	0x3d8aa549	0.06769807
49	0x3d8d654a	0.06904085
50	0xbbd2f41a	-0.0064377906
51	0xbc72c453	-0.014817315
52	0xbd762f73	-0.060103845
53	0xbd9132f8	-0.070898
54	0x3dbd3663	0.09238889
55	0xbc3af2aa	-0.011410395
56	0x3d4cb3b2	0.04997606
57	0x3cc731d2	0.024315748
58	0xbd907e17	-0.070553
59	0xbcbfaa58	-0.023396656
60	0x3d10135f	0.035174724
61	0xbd8b63cd	-0.06806145
62	0xbce5f794	-0.028072156
63	0xbc9e60ac	-0.019333206
64	0x3bd54e63	0.0065095886
65	0xbcddecf2	-0.027090523
66	0xbce6654a	-0.02812447
67	0x3887d46a	6.476867e-05
68	0x3a93d23a	0.0011277862
69	0x3dc4aeaf	0.09603631
70	0x3cae5a88	0.021283403
71	0x3cb24c16	0.021764796
72	0x3cfe6c05	0.031057367
73	0xbc613588	-0.013745673
74	0x3c9037ea	0.017604787
75	0xbd0ab088	-0.03385976
76	0xbd1f2f66	-0.038863562
77	0x3ce2b62a	0.027674753
78	0x3daad322	0.08341052
79	0xbcb2e447	-0.021837367
80	0xbd5bf376	-0.05369898
81	0x3ce5de73	0.028060174
82	0xbd2dcc88	-0.042431384
83	0x3d4119d0	0.047143757
84	0x3bd3075a	0.0064400854
85	0xbd4868c6	-0.048928045
86	0xbd0e61b6	-0.034761153
87	0x39385f7e	0.00017583181
88	0xbcef7709	-0.029231565
89	0xbd6e80bc	-0.05822824
90	0xbc9e268c	-0.01930549
91	0x3b628da2	0.0034569283
92	0xbd4f3463	-0.05058707
93	0x3d9eb0fb	0.077486
94	0x3d3c6f26	0.046004437
95	0xbd8c3591	-0.068461545
96	0x3dcc3a57	0.09972065
97	0xbc3f47fc	-0.011674877
98	0xbd206ac6	-0.039164327
99	0xbb9c7f97	-0.004775952
100	0x3d0d7e92	0.034544535
101	0xbd86b19f	-0.06576847
102	0x3b53d5ca	0.0032323473
103	0xbc75d59a	-0.01500454
104	0xbd5ef57e	-0.05443334
105	0x3daa43c8	0.083137095
106	0x3c284ddb	0.010272468
107	0x3d05bdc2	0.03265167
108	0x3bb8cddf	0.005639776
109	0x3d35b279	0.044359658
110	0x3d54d708	0.051962882
111	0x39eb29a5	0.0004485372
112	0x3d28fca0	0.041256547
113	0x3c704374	0.01466452
114	0x3d7d5608	0.061849624
115	0xbd8646e6	-0.065564916
116	0xbd80c8ec	-0.06288323
117	0x3d5b727b	0.053575974
118	0xbcd0bbac	-0.025480114
119	0xbbf3056a	-0.007416417
120	0x3da0157b	0.07816597
121	0xbc0e73f4	-0.008694638
122	0x3d673a58	0.056452125
123	0x3de37301	0.1110592
124	0x3c600e32	0.013675259
125	0xbd56e912	-0.052468367
126	0x3c39d57d	0.0113424035
127	0x3c95e746	0.018298756
128	0xbd66959a	-0.056295015
129	0x3dc6765c	0.09690544
130	0x3d8e2f96	0.0694267
131	0x3d57755c	0.052602157
132	0x3d292751	0.04129726
133	0xbc8e6568	-0.017382339
134	0x3d04e670	0.032446325
135	0x3cc28646	0.023745667
136	0x3ba53c6d	0.0050426037
137	0xbcb87d7d	-0.022520775
138	0x3d9c43fc	0.076301545
139	0x3d23cf2e	0.039992504
140	0x3d178539	0.036992285
141	0x3c1e4433	0.009659815
142	0xbc91921e	-0.01776987
143	0x3d352228	0.044222027
144	0x3d811f76	0.06304829
145	0x3ca4026c	0.020020686
146	0xbb7d20bd	-0.003862425
147	0x3da565e6	0.08076076
148	0xbc183090	-0.009288922
149	0xbd5ff845	-0.054680128
150	0xbc409fba	-0.011756832
151	0xbd48c276	-0.049013577
152	0x3d03249a	0.032017328
153	0x3d8baf9a	0.06820603
154	0x3d4a453a	0.049382426
155	0x3cb1e5f6	0.0217161
156	0x3cc3def9	0.023910033
157	0x3c875f12	0.016524825
158	0xbcd641d0	-0.026154429
159	0x3dbc120d	0.091831304
160	0x3d5f2a7e	0.054483883
161	0x3d4bd2dc	0.049761638
162	0x3dad7626	0.08469801
163	0xbcd2707e	-0.025688406
164	0xbd39fb0d	-0.045405436
165	0x3d8b6aec	0.06807503
166	0x3bf4bb9a	0.007468653
167	0x3d8c791d	0.06859038
168	0x3d20da5d	0.039270747
169	0xbd695c33	-0.056972694
170	0xbc8d663a	-0.01726066
171	0x3d500b93	0.050792288
172	0xbd88661d	-0.066601016
173	0x3d857cd6	0.06517951
174	0x3d9f6926	0.07783727
175	0xba75cb2e	-0.00093762844
176	0x3d84c06e	0.064820156
177	0x3d97c04d	0.07409725
178	0xbcf8d123	-0.030373162
179	0xbd896cf9	-0.06710238
180	0x3c830e16	0.015997928
181	0x3d7cad04	0.061688438
182	0x3d62cb7e	0.055369847
183	0xbce81eec	-0.028335057
184	0x3d736740	0.05942464
185	0xbcf93994	-0.030422963
186	0x3d6fdffb	0.058563214
187	0x3cbfcffc	0.023414604
188	0x3cbf0d3d	0.023321742
189	0xbc9c1a20	-0.019055426
190	0xbd3024ca	-0.043003835
191	0x3d6a9a51	0.057276074
192	0x3cabd133	0.020973777
193	0x3d27f149	0.04100159
194	0xbd34ed8c	-0.044171855
195	0x3d6f5900	0.058434486
196	0x3c95a06f	0.018264977
197	0xbbef5404	-0.0073037166
198	0x3c9c10cd	0.01905098
199	0x3b98bd5a	0.0046612443
200	0x3d005b89	0.031337295
201	0xbb1ad898	-0.0023627635
202	0x3d8f0ab4	0.06984463
203	0xbd4ed94b	-0.050500195
204	0x3c42c2da	0.011887277
205	0x3d392027	0.04519668
206	0xbd46cb63	-0.04853381
207	0xbb617217	-0.0034400278
208	0x3d8639e6	0.06554012
209	0x3cff3b56	0.031156223
210	0xbd46a2e1	-0.048495177
211	0x3d453eac	0.04815547
212	0xbd46a05a	-0.048492767
213	0xbd2c8ada	-0.042124607
214	0xbc3d76ba	-0.011563951
215	0x3d070114	0.032960013
216	0xbcf8175a	-0.030284572
217	0xbd4ba4ae	-0.049717598
218	0x3d0b88a6	0.034065865
219	0x3c13ed7e	0.0090287905
220	0x3d4226fc	0.04740046
221	0x3c87ae9a	0.016562749
222	0xbd4bea67	-0.04978409
223	0xbd8d4c72	-0.068993464
224	0x3d40d1a8	0.047074944
225	0x3c2c8ff5	0.010532369
226	0xbcfd0120	-0.030884326
227	0xbd5fcb90	-0.05463749
228	0xbcdb7a0b	-0.026791593
229	0x3cbf3821	0.023342194
230	0xbd87cd75	-0.06630985
231	0xbcaf2eb0	-0.021384567
232	0xbd008c77	-0.031383958
233	0x3d1c1274	0.038103536
234	0xbd9fe37b	-0.0780706
235	0x3ce8e0fa	0.02842759
236	0xbd31069b	-0.04321919
237	0xbd817520	-0.06321168
238	0xbcf83750	-0.030299813
239	0x3d017e56	0.031614624
240	0xbd3589ec	-0.044320986
241	0x3d38700f	0.045028742
242	0xbc86f074	-0.016472079
243	0xbd01d588	-0.03169778
244	0x3d3bcfcb	0.045852464
245	0x3b5c53fa	0.003361939
246	0xbd0d1cc1	-0.03445125
247	0xbce3a552	-0.027788792
248	0xbd0795d2	-0.033101864
249	0x3b0890b3	0.00208382
250	0x3d80e90a	0.06294449
251	0x3d381a34	0.044946864
252	0x3c3e9225	0.011631523
253	0x3ba59012	0.005052575
254	0xbbed4718	-0.007241141
255	0xbcf9fb75	-0.030515412

net.6.bias f4 [64]
0	0x3dc8a485	0.097970046
1	0xbd85c3f0	-0.06531513
2	0x3dbae665	0.091259755
3	0x3d623c6e	0.05523341
4	0x3de22404	0.11042026
5	0x3e0a28ff	0.13492201
6	0x3dabc84c	0.08387813
7	0xbca62790	-0.020282537
8	0x3cbee083	0.023300415
9	0x3db52d90	0.08846581
10	0x3c863447	0.01638235
11	0x3c27442a	0.010209123
12	0x3d8d1588	0.068888724
13	0x3d752ed4	0.059859112
14	0x3b11aba2	0.0022227545
15	0x3c314807	0.010820395
16	0x3e0e0d36	0.13872227
17	0x3d952152	0.07281746
18	0x3ddedd8a	0.10882099
19	0x3de5beb4	0.11218014
20	0x3e1a7df9	0.15087117
21	0x3e050711	0.12990977
22	0x3e0677bb	0.13131611
23	0xbd9d4a9e	-0.07680248
24	0xbd6b0a39	-0.057382796
25	0x3e083f9f	0.1330552
26	0x3dae5d8a	0.08513935
27	0xbc8b32f8	-0.016992077
28	0xbc83cb96	-0.016088288
29	0x3d5a97bd	0.053367365
30	0x3dfc8182	0.12329389
31	0x3d515b69	0.051112566
32	0x3cde7ce3	0.02715916
33	0xbd565cf5	-0.052334744
34	0x3c79b02b	0.015239756
35	0x3dc7a20b	0.09747704
36	0xbd9e19ac	-0.0771974
37	0xbcce8541	-0.025210025
38	0xbd035261	-0.032060985
39	0x3da81b70	0.08208358
40	0x3c76b337	0.015057377
41	0x3dbeadbb	0.0931048
42	0xbd2454e7	-0.04012003
43	0x3e2067ec	0.15664643
44	0x3d9cccb3	0.07656231
45	0x3d77aff8	0.06047055
46	0x3db84ee0	0.08999419
47	0x3d6280e0	0.055298686
48	0x3d1e08f3	0.038582753
49	0x3e174dd0	0.14775777
50	0x3d2c3a3b	0.04204772
51	0x3de1c802	0.110244766
52	0xbc94ae38	-0.01814948
53	0x3ce59edc	0.028029852
54	0x3db407ec	0.087905735
55	0x3ba83632	0.0051334137
56	0x3d862190	0.0654937
57	0x3ae79e61	0.0017671102
58	0x3db94fba	0.0904841
59	0xbcdb47e7	-0.026767684
60	0x3d55aed0	0.052168667
61	0x3dd14dfd	0.10219953
62	0xbca8398d	-0.020535255
63	0x3daf228f	0.085515134

net.9.weight f4 [64, 64, 3]
0	0xbd9b386f	-0.07579123
1	0x3d38cc98	0.04511699
2	0x3d6a7210	0.057237685
3	0xbd73739c	-0.059436426
4	0x3cf1a852	0.029499207
5	0xbc6cd630	-0.014455363
6	0x3d104eef	0.035231527
7	0x3d4c5154	0.049882248
8	0xbd8256c7	-0.06364208
9	0xbd95c779	-0.07313437
10	0xbcd953b2	-0.026529167
11	0x3c94c24c	0.018159054
12	0xbd7e023a	-0.062013842
13	0x3d929eb5	0.07159177
14	0xbc8a38aa	-0.016872723
15	0xbdad1b5b	-0.08452483
16	0x3d5f4762	0.054511435
17	0xbcd5ea68	-0.02611275
18	0x3ca7cfeb	0.020484885
19	0x3c35207e	0.01105511
20	0x3d615c4c	0.05501966
21	0x3c646953	0.013941127
22	0xbd213758	-0.03935942
23	0x3cda75e2	0.026667539
24	0xbd12bc55	-0.03582414
25	0xbc478c92	-0.012179511
26	0x3c60b929	0.013716021
27	0xbd078f6c	-0.033095762
28	0xbba3c510	-0.004997857
29	0x3d58296c	0.052773878
30	0x3d41282f	0.047157463
31	0xbd6a8fdf	-0.057266112
32	0xbd2d90d0	-0.042374432
33	0x3c680adc	0.014162745
34	0x3cdc3f0a	0.026885528
35	0x3d36aa88	0.044596225
36	0xbdac228d	-0.084050275
37	0xbd87cae9	-0.06630499
38	0xbd8921fd	-0.06695936
39	0xbc38ebbc	-0.011286672
40	0x3d030062	0.031982787
41	0xbc97c80e	-0.01852801
42	0x3d614e0f	0.055006083
43	0x3d5a420f	0.053285655
44	0x3d0debb6	0.03464862
45	0x3d4eec62	0.0505184
46	0xbd56f348	-0.052478105
47	0x3d83d646	0.06437354
48	0xbd63c466	-0.055607222
49	0x3ca19858	0.019725963
50	0x3bb9e884	0.00567347
51	0xbd1c3a9b	-0.038141828
52	0x3be8a96a	0.007100274
53	0x3d06b59a	0.032888032
54	0x3cf26315	0.029588262
55	0x3d476448	0.04867962
56	0xbd92bde8	-0.07165128
57	0x3d41a0c2	0.04727245
58	0xb927fdce	-0.0001602091
59	0x3c48d7c0	0.01225847
60	0xbc031cb3	-0.008002448
61	0xbd5e5f8d	-0.054290343
62	0xbd288ca8	-0.041149765
63	0xbd9b30af	-0.07577645
64	0xbbdf9fde	-0.0068244776
65	0x3d58d46a	0.05293695
66	0xbcf381b1	-0.029724928
67	0x3d21655e	0.039403312
68	0x3d8bd988	0.068286
69	0x3cf72a0b	0.030171415
70	0x3d061b56	0.032740913
71	0xbd280cee	-0.041027956
72	0x3d15c429	0.036564026
73	0x3c91da58	0.01780431
74	0xbd92de78	-0.07171339
75	0xbd5a3ff0	-0.05328363
76	0x3d302aa0	0.0430094
77	0x3c84d8d6	0.016216677
78	0xbd5088e9	-0.050911818
79	0xbd920296	-0.071293995
80	0x3d3e20c0	0.04641795
81	0xbd402216	-0.046907507
82	0xbcf58c7a	-0.029974211
83	0xbc83f9be	-0.016110297
84	0x3d4d1d34	0.05007668
85	0x3d12b555	0.035817463
86	0x3d924e00	0.071437836
87	0x3c99b7ab	0.018764338
88	0xbd4ce769	-0.050025377
89	0xbbca28c2	-0.0061694095
90	0x3cb07997	0.021542354
91	0xbd86154e	-0.06547032
92	0xbd442c9b	-0.0478941
93	0xbd2b2332	-0.04178161
94	0xbc7111e6	-0.01471374
95	0xbd14b0b0	-0.036301315
96	0xbd6d7d86	-0.057981037
97	0x3d88eb74	0.06685534
98	0xbd92400f	-0.071411245
99	0x3d27209b	0.04080258
100	0x3d39fe79	0.0454087
101	0x3d161403	0.03664018
102	0xbd34c126	-0.044129513
103	0x3d1e305e	0.038620345
104	0xbd8a69f1	-0.06758488
105	0xba3cb713	-0.0007198911
106	0xbd46f137	-0.048569884
107	0x3cae3213	0.021264112
108	0xbbb289f1	-0.005448573
109	0x3d21e6ed	0.03952687
110	0xbce6127a	-0.028084982
111	0x3d4fb5ff	0.050710674
112	0x3d3659c8	0.044519216
113	0xbd093a8a	-0.033503093
114	0x3c7d1616	0.01544716
115	0xbd2384cb	-0.039921563
116	0xb9099645	-0.00013121318
117	0xbda7d9c0	-0.081958294
118	0x3d5371c6	0.051622175
119	0xbd7e2516	-0.062047087
120	0x3d1d5cae	0.038418464
121	0xbd23014d	-0.039796162
122	0x3d13bb2a	0.036067165
123	0xbd509c64	-0.050930396
124	0xbd31deed	-0.04342549
125	0x3d88e120	0.06683564
126	0xbc938f96	-0.018012803
127	0xbd9056e5	-0.07047824
128	0x3ce294a2	0.027658764
129	0xbda576e9	-0.08079321
130	0xbd81e570	-0.0634259
131	0x3cab0c1d	0.0208798
132	0x3bfd736b	0.007734706
133	0x3d4524de	0.048130862
134	0xbd29d878	-0.041466206
135	0xbd8e8348	-0.06958634
136	0xbd85b46c	-0.06528553
137	0xbd673d89	-0.05645517
138	0x3d1266d5	0.0357426
139	0x3cad5da4	0.021162815
140	0xbc5670e2	-0.013088437
141	0xbda203cd	-0.07910881
142	0xbc3cb560	-0.011517853
143	0x3d14da84	0.036341205
144	0x3d44f260	0.04808271
145	0xbc29ded8	-0.0103680715
146	0xbd2c9c5a	-0.042141296
147	0xbd1428ec	-0.03617184
148	0x3d0acd10	0.03388697
149	0x3d487eb2	0.04894895
150	0xbd53b552	-0.051686592
151	0xbd43b73f	-0.04778218
152	0x3cba32f9	0.022729384
153	0xbd2b805d	-0.041870464
154	0xbb4dcc59	-0.0031402318
155	0xbcadddba	-0.021223892
156	0xbd41e71b	-0.04733954
157	0x3d3f6a34	0.046732143
158	0x3d54c612	0.051946707
159	0x3b92353c	0.0044619124
160	0x3cc3c1bc	0.02389609
161	0x3d542bc2	0.051799543
162	0xbce58789	-0.02801873
163	0xbd777c10	-0.06042105
164	0x3d22412f	0.039612945
165	0xbc131e7a	-0.008979434
166	0xba862a70	-0.0010236036
167	0x3d01de65	0.031706233
168	0x3bb6527e	0.005564033
169	0xbc231ec2	-0.009956064
170	0x398d9752	0.00027006358
171	0x3d02d6d7	0.03194317
172	0x3d75f435	0.060047347
173	0x3c65e3ae	0.014031334
174	0x3caab88d	0.020839954
175	0xbd8ffcc6	-0.070306346
176	0xbd2b870d	-0.04187684
177	0x3d4a17c5	0.049339075
178	0x3d14e7f8	0.036354035
179	0xbd0a7e2a	-0.033811726
180	0xbc8c369a	-0.01711588
181	0xbd68296b	-0.056680124
182	0xbbf35eb0	-0.007427059
183	0xbd6ceff5	-0.05784603
184	0xbb9d5f89	-0.0048026484
185	0xba871faa	-0.0010309119
186	0x3d533824	0.05156721
187	0xbd925ed9	-0.07146997
188	0x3bce06ea	0.0062874453
189	0xbd551954	-0.052026108
190	0xbd6012d6	-0.054705463
191	0xbc0d827a	-0.008637065
192	0x3d8e705b	0.06955024
193	0xbd2de749	-0.0424569
194	0x3d62511e	0.05525314
195	0x3d048e0b	0.032362025
196	0xbd5b2f6e	-0.05351203
197	0xbcf2fc45	-0.029661307
198	0x3dbcf5f0	0.09226596
199	0x3d3c60c2	0.045990713
200	0x3d2de7be	0.042457335
201	0x3d89b74e	0.06724416
202	0xbc82de8a	-0.015975256
203	0xbc11381a	-0.008863473
204	0x3dc6ab28	0.09700614
205	0xbd5cf493	-0.05394418
206	0x3ce48a34	0.027897932
207	0x3d780849	0.060554776
208	0x3d9270b4	0.07150403
209	0x3d67d0a2	0.056595452
210	0x3ceb1268	0.0286953
211	0x3d34ab0c	0.044108436
212	0x3d8ed4ce	0.06974183
213	0xbce2f447	-0.027704371
214	0xbc3574b0	-0.011075184
215	0x3d7a767b	0.061148148
216	0xbc9e39a2	-0.01931459
217	0x3d6096ad	0.054831196
218	0xba0b76d8	-0.00053201383
219	0xbce1f8db	-0.027584484
220	0xbc8b017c	-0.016968481
221	0x3c2d3c54	0.010573465
222	0x3d7daf99	0.06193504
223	0x3b2c1f7a	0.0026263879
224	0xbcabfdf4	-0.020995118
225	0x3d4fa478	0.05069396
226	0x3d544b6c	0.05182974
227	0x3d2eae32	0.042646594
228	0x3c7b3b18	0.015333913
229	0x3d265339	0.04060671
230	0xbd716d4d	-0.058942128
231	0x3d698382	0.05701018
232	0xbd214f57	-0.039382305
233	0xbd84b373	-0.0647954
234	0xbd062531	-0.032750312
235	0xbcf24081	-0.029571773
236	0xbca99029	-0.020698624
237	0x3d5c5f3f	0.05380177
238	0x3cfa1be8	0.030530885
239	0x3d6f252c	0.05838506
240	0x3d397cd7	0.045285072
241	0x3b31ff62	0.0027160277
242	0x3d2456be	0.040121786
243	0xbd191e46	-0.037382387
244	0x3d3f8d1c	0.04676543
245	0xbd2b18cc	-0.041771695
246	0x3da5fdc7	0.08105045
247	0xbd6c12a3	-0.05763496
248	0x3d36c8ba	0.04462502
249	0x3d19c31d	0.03753959
250	0xbd929f10	-0.07159245
251	0x3cd91463	0.026498979
252	0x3d78d780	0.06075239
253	0xbc96ad8a	-0.018393297
254	0x3d12b3cd	0.035816003
255	0xbcaa271f	-0.020770608

net.9.bias f4 [64]
0	0x3cfe94ae	0.031076755
1	0x3d719cf4	0.058987573
2	0xbd05ed08	-0.032696754
3	0x3e119ea3	0.14220671
4	0xbd8f209f	-0.06988644
5	0x3e0522a9	0.13001503
6	0x3d6ad80f	0.057334956
7	0x3b624fbc	0.0034532389
8	0x3d59bdbf	0.05315947
9	0xbd3a600c	-0.045501754
10	0xbd852e87	-0.06503015
11	0x3d3f7bea	0.046749033
12	0xbc825c2c	-0.015913092
13	0xbbaf09c9	-0.0053417427
14	0x3dee5ee2	0.11639191
15	0x3e1a7be3	0.15086322
16	0x3cae6dcb	0.021292588
17	0x3dd194d2	0.10233463
18	0x3dfc2015	0.12310807
19	0xbd78ee30	-0.06077403
20	0x3ce65d06	0.028120529
21	0x3cdb96da	0.02680533
22	0x3de22c8a	0.110436514
23	0xbd7c592c	-0.06160848
24	0x3bce33b6	0.0062927855
25	0x3d25f6b9	0.040518496
26	0x3d655497	0.055988874
27	0xbd6b1637	-0.057394233
28	0x3e066847	0.13125716
29	0x3ace81a7	0.0015755192
30	0x3d191fe9	0.037383948
31	0x3e840aad	0.25789395
32	0x3e076513	0.1322215
33	0x3e113ce0	0.14183378
34	0x3df976d5	0.121808685
35	0x3dbc5e3f	0.091976635
36	0x3da053a5	0.07828454
37	0x3d90305a	0.07040472
38	0x3e173556	0.1476644
39	0x3dc2833d	0.09497688
40	0x3e1b05fb	0.15139
41	0x3db89a1b	0.09013768
42	0x3dfeb748	0.12437302
43	0x3dfe3766	0.1241291
44	0x3e064962	0.13113931
45	0x3c8318c6	0.016003024
46	0xbd4e8d92	-0.05042798
47	0x3c89270f	0.016742257
48	0x3e211901	0.15732194
49	0xbc5accb6	-0.013354471
50	0xbc28ad0a	-0.010295162
51	0x3d5ed7a8	0.054404885
52	0xb9f82b97	-0.00047334723
53	0x3e10b43f	0.14131258
54	0x3d9fd84f	0.078049295
55	0x3dc197a3	0.094527505
56	0x3d7e0a29	0.06202141
57	0x3dc3dbbc	0.095633954
58	0xbd8dc2ca	-0.06921919
59	0x3df92801	0.12165833
60	0x3b130278	0.0022431891
61	0x3c22d2eb	0.009937982
62	0xbc02acc6	-0.007975763
63	0x3e107e38	0.14110649

net.12.weight f4 [64, 64, 3]
0	0x3cf73f04	0.030181415
1	0xbd23c2b4	-0.039980605
2	0x3d1af0ae	0.037827186
3	0xbcc0c13f	-0.023529647
4	0x3d8193d0	0.06327021
5	0xbd7c9339	-0.06166384
6	0xbd6a611a	-0.05722151
7	0xbd276c4a	-0.040874757
8	0x3d3f3fd8	0.046691746
9	0x3d67c214	0.05658157
10	0x3d5944ea	0.053044237
11	0x3d693756	0.056937538
12	0xbcfc53f5	-0.030801753
13	0xbd8442b6	-0.064580366
14	0x3d335974	0.04378648
15	0xbcf33fdf	-0.029693542
16	0xbd0bcb6a	-0.034129538
17	0x3d80fc92	0.06298174
18	0x3d1da120	0.03848374
19	0x3bfbf21d	0.0076887743
20	0xbbf24ee0	-0.0073946565
21	0x3d6d54e7	0.057942297
22	0xbc34ab7e	-0.011027215
23	0xbcdc2d9d	-0.026877219
24	0x3d946286	0.07245354
25	0x3d3ced32	0.046124645
26	0x3ca55f3e	0.020187017
27	0x3d1ade01	0.037809376
28	0xbc85899a	-0.016300965
29	0x3d44ac73	0.048016023
30	0xbca94c06	-0.020666134
31	0xbd1e4c2b	-0.03864686
32	0xbd6ddc07	-0.058071163
33	0x3d2646c6	0.04059484
34	0xbd258bfa	-0.040416695
35	0xbc5555e5	-0.013020967
36	0x3b685c5c	0.003545544
37	0xbcff9734	-0.031200029
38	0xbd0a8fff	-0.03382873
39	0xbd11f027	-0.035629418
40	0xbd32103e	-0.04347252
41	0x3d3433af	0.0439946
42	0x3ce30da0	0.027716458
43	0xbd43310b	-0.047654193
44	0x3c888428	0.01666458
45	0x3d8f364e	0.0699278
46	0xbcf38a0e	-0.029728916
47	0x3a574848	0.000821237
48	0xbcf29106	-0.029610168
49	0x3b281654	0.0025648074
50	0xbd80e3f4	-0.062934786
51	0xbc87b56f	-0.016566006
52	0x3c6c4f1f	0.014423161
53	0xbcc5e5ce	-0.024157431
54	0xbc76b3f3	-0.015057552
55	0x3cb0e43f	0.021593211
56	0x3ce38d09	0.027777212
57	0x3ca0ba52	0.019620094
58	0x3d65fa51	0.056146923
59	0x3cbd121e	0.023079928
60	0x3dbe437a	0.09290214
61	0x3cdb7665	0.026789853
62	0xbd7eada3	-0.06217731
63	0x3d91566f	0.07096564
64	0x3b2f146e	0.0026715058
65	0xbd019d03	-0.03164388
66	0x3d6e7759	0.058219288
67	0x3cc4fee3	0.02404732
68	0x3cd4eaa0	0.025990784
69	0x3d684e79	0.056715462
70	0x3bdf9e3e	0.006824284
71	0x3d3336de	0.043753497
72	0xbb155992	-0.0022788984
73	0x3d8cde6d	0.06878362
74	0xbadbb830	-0.0016763266
75	0x396de4fe	0.00022687388
76	0x3bca3302	0.0061706314
77	0xbd823792	-0.063582554
78	0xbd26925d	-0.040666927
79	0x3d1e909a	0.03871212
80	0xbc992e90	-0.01869896
81	0x3c3f77a5	0.01168624
82	0x3d3bed56	0.045880638
83	0x3d71263d	0.058874357
84	0x3d968100	0.073488235
85	0x3d1d5417	0.038410272
86	0x3d796314	0.060885504
87	0xbd09468a	-0.033514537
88	0xbc2c4870	-0.010515317
89	0x3d15844c	0.03650312
90	0x3dac2029	0.084045716
91	0x3d868ab4	0.06569424
92	0xbc950caa	-0.018194515
93	0x3e0d2655	0.13784154
94	0xbbabd51a	-0.0052439095
95	0xba9bd243	-0.0011888224
96	0x3bf1de28	0.0073812194
97	0xbc42daac	-0.011892956
98	0xbb8c988f	-0.0042906473
99	0x3dca505b	0.09878608
100	0xbd855ac9	-0.065114565
101	0x398abb5e	0.0002646101
102	0x3d7ade47	0.061247136
103	0x3c466f6a	0.012111524
104	0xbd048de8	-0.032361895
105	0x3d4bf535	0.049794395
106	0x3d68d70a	0.056845702
107	0xbd46ac74	-0.048504308
108	0x3bc7feb5	0.0061033615
109	0x3cbce3e4	0.023057885
110	0x3d87d3a0	0.06632161
111	0x3dc4d68e	0.096112356
112	0xbd0d6557	-0.034520473
113	0xbc57804e	-0.013153149
114	0x3d5afe68	0.053465277
115	0xbd194226	-0.0374166
116	0x3d827eec	0.06371865
117	0x3d0e81ce	0.03479176
118	0xbd0fa272	-0.03506703
119	0x3bfa5f67	0.0076407674
120	0x3da42ef0	0.08016765
121	0xbd8b657a	-0.068064645
122	0xbc875f52	-0.016524944
123	0x3d9fcdd2	0.07802929
124	0xbca3d756	-0.020000141
125	0x3caed492	0.021341596
126	0x3dad6d69	0.08468134
127	0xbc8ee9c8	-0.01744546
128	0xbbb298e8	-0.0054503568
129	0x3d10297f	0.035195824
130	0x3d6770fc	0.056504235
131	0xbbdcb33a	-0.0067352327
132	0x3d784a35	0.060617644
133	0x3bd1e714	0.0064057205
134	0xbca6592d	-0.020306194
135	0xbd09ee9a	-0.033674814
136	0x3d8edce2	0.06975724
137	0x3c7b8075	0.015350451
138	0x3c0d258b	0.008614908
139	0x3c9a151b	0.018808892
140	0xbd6c4037	-0.057678428
141	0x3cdce8dc	0.026966505
142	0xbc16c026	-0.009201085
143	0xbd432a7f	-0.04764795
144	0xbb49a224	-0.003076681
145	0xbbf738be	-0.007544606
146	0x3cdda7ea	0.027057607
147	0x3c0b8a4e	0.008516861
148	0x3d7730b7	0.060349192
149	0xbc0f7172	-0.008755075
150	0x3da2e433	0.07953682
151	0x3d83239c	0.06403276
152	0x3cf58de4	0.029974885
153	0x3bc77512	0.006086954
154	0x3d65b18e	0.056077532
155	0x3d0912f4	0.03346534
156	0x3d5b5a09	0.05355266
157	0x3d5e5ad4	0.05428584
158	0x3d20ccfe	0.039257996
159	0x3d886c19	0.06661243
160	0xbd22e760	-0.039771438
161	0xbb2d2d14	-0.0026424574
162	0x3d84b781	0.06480313
163	0x3cb0a1d4	0.02156154
164	0xbcc6bab6	-0.024258953
165	0xbc14d96f	-0.009085043
166	0x3bb8aefc	0.005636094
167	0xbcfa1c64	-0.030531116
168	0xbd27cf5b	-0.040969234
169	0xbb7f72f0	-0.003897842
170	0x3c370ef4	0.011172999
171	0x3dcb1c35	0.099174894
172	0xbc0d3192	-0.0086177755
173	0xbd59aac0	-0.053141356
174	0xbc7508ba	-0.014955694
175	0x3d87747c	0.066140145
176	0xbd0db639	-0.03459761
177	0x3dcc15e6	0.09965114
178	0xbc4b9c64	-0.012427423
179	0xbcf2c953	-0.029637014
180	0xbd467d1c	-0.048459157
181	0x3ccd62f6	0.025071602
182	0xbd42666c	-0.04746096
183	0xbd210dee	-0.039319925
184	0xbd6771d7	-0.05650505
185	0xbd8c7b05	-0.068594016
186	0x3d04f99f	0.03246462
187	0xbd179b5a	-0.03701339
188	0xbc5e94f4	-0.013585318
189	0x3d94de09	0.07268912
190	0x3d89dfa8	0.06732112
191	0x3b0057c8	0.0019583572
192	0x3cf2c418	0.02963452
193	0x3cfb8e83	0.030707603
194	0x3d495dfa	0.04916189
195	0x3d13c4a8	0.036076218
196	0xbc8cf32d	-0.017205799
197	0xbce084c4	-0.027407058
198	0x3bc529ca	0.0060169445
199	0x3d8d254c	0.068918794
200	0xbd5b63c6	-0.05356195
201	0xbd86c325	-0.065801896
202	0x3c073faa	0.008254925
203	0xbd8e4dc4	-0.06948426
204	0x3c0ab1c6	0.008465236
205	0x3c672a18	0.014109157
206	0x3c411696	0.01178517
207	0xbc4d65ba	-0.0125364605
208	0xbd7b8deb	-0.06141464
209	0x3d6ad1b1	0.057328884
210	0xbd19f71a	-0.03758917
211	0x3d76d4e4	0.060261622
212	0x3d52e231	0.051485244
213	0xbd6cc703	-0.05780698
214	0xbd61326e	-0.054979734
215	0xbd5b5132	-0.05354423
216	0x3b52a896	0.0032143942
217	0xbca87916	-0.02056555
218	0xbd11aec5	-0.035567064
219	0xbd8c7608	-0.0685845
220	0xbc9d2bd5	-0.01918594
221	0xbd74d0b0	-0.059769332
222	0xbd29852d	-0.041386772
223	0x3d02d692	0.03194291
224	0x3d4bdfbc	0.049773917
225	0xbd475c27	-0.048671868
226	0xbaa839c2	-0.0012834596
227	0x3d046c42	0.032329805
228	0xb977bdae	-0.00023626417
229	0xbc67866e	-0.014131172
230	0xbcf1e2f0	-0.029527158
231	0xbcb7ee00	-0.022452354
232	0xbd4d69da	-0.050149776
233	0xbcb784af	-0.022402136
234	0xbcfbd493	-0.030741012
235	0x3ca68488	0.020326868
236	0x3cbb66da	0.022876192
237	0xbd4b76aa	-0.049673714
238	0x3d8a946a	0.06766589
239	0xbd913597	-0.070902996
240	0xbd690791	-0.05689198
241	0xbd7e4b4b	-0.062083524
242	0xbd56e591	-0.052465025
243	0xbc8b4051	-0.016998442
244	0xbc2b1e8e	-0.0104442965
245	0xbd19a32a	-0.03750912
246	0x3d58a000	0.052886963
247	0xbcae60c2	-0.021286372
248	0x3cb70c55	0.022344748
249	0xbcdbf39a	-0.026849557
250	0xbd880883	-0.066422485
251	0xba07fffc	-0.0005187986
252	0x3cce5b1a	0.025189925
253	0xbc70d323	-0.014698776
254	0x3d8183b4	0.063239485
255	0x3d72b51c	0.05925475

net.12.bias f4 [64]
0	0x3df2e762	0.11860539
1	0xbd0a258a	-0.033727206
2	0x3dc158ef	0.09440791
3	0x3ce94726	0.028476309
4	0xbc0390f7	-0.008030168
5	0x3bebd260	0.0071967095
6	0xbda17621	-0.078838594
7	0xbd9520f4	-0.07281676
8	0x3e300c42	0.17192176
9	0x3cd66c50	0.026174694
10	0x3e1afc99	0.15135421
11	0xbd553a74	-0.0520577
12	0x3e22172b	0.1582915
13	0x3d7c77c2	0.061637647
14	0x3dd3c4ba	0.10340257
15	0x3d400683	0.04688121
16	0x3da01cb3	0.07817974
17	0x3e090aa0	0.1338296
18	0x3d74d04c	0.05976896
19	0x3e1d4ae9	0.15360607
20	0x3cfa11f9	0.030526148
21	0x3dc61648	0.096722186
22	0x3dd9b595	0.10630337
23	0x3dae5cb3	0.08513775
24	0x3e066b06	0.13126764
25	0x3d45092c	0.04810445
26	0x3dcd6fcd	0.1003109
27	0x3d1c2257	0.038118687
28	0x3dd7443b	0.10511061
29	0x3dac53db	0.08414432
30	0xbd6f2743	-0.058387052
31	0x3e42817d	0.18994708
32	0x3dc48d57	0.09597271
33	0x3e33aa4a	0.17545429
34	0x3e29ced8	0.16582811
35	0x3e09c4e3	0.13454013
36	0x3da330f7	0.07968324
37	0x3d6c2c7c	0.05765961
38	0x3e10ca62	0.14139703
39	0xbd827b84	-0.06371215
40	0x3e238c89	0.15971579
41	0xbd497b20	-0.049189687
42	0x3e283adf	0.16428708
43	0x3d87c56f	0.06629454
44	0x3d8d2fa1	0.0689385
45	0x3e12d732	0.14339903
46	0x3e1891af	0.14899324
47	0x3dc62240	0.096745014
48	0x3de7f531	0.113260634
49	0x3e1cdd1b	0.1531872
50	0x3e14a2e1	0.14515258
51	0xbcd94e1b	-0.026526501
52	0x3dd6524e	0.10464917
53	0x3e0e1ae3	0.13877444
54	0x3df073c1	0.11740828
55	0x3dd485ac	0.103770584
56	0x3e0592f0	0.13044333
57	0x3e135966	0.14389572
58	0x3dd14b44	0.10219434
59	0x3df4b2f2	0.119481936
60	0x3e066c0f	0.13127159
61	0xbbf8d396	-0.0075935824
62	0xbd59859c	-0.053105935
63	0x3e0d7b5f	0.13816594

net.15.weight f4 [64, 64, 3]
0	0xbbca4e11	-0.006173857
1	0xbb8d6a12	-0.004315623
2	0xbca874c0	-0.020563483
3	0xbd5a8765	-0.05335178
4	0x3c6f5f32	0.014610099
5	0x3c84c32a	0.016206343
6	0x3c9fca9a	0.019505788
7	0x3c92cd59	0.017920183
8	0x3d38bf8b	0.045104545
9	0x3ba5fdd2	0.005065658
10	0x3d721d30	0.059109867
11	0xbd040533	-0.03223152
12	0x3bf1d6e6	0.007380354
13	0xbd084102	-0.03326512
14	0x3d528ad7	0.05140194
15	0x3d7bb581	0.061452392
16	0xbccb698c	-0.024830602
17	0x3d048a1a	0.032358266
18	0xbb36e79c	-0.0027909046
19	0x3d8af31e	0.06784652
20	0x3ca8c57e	0.020601984
21	0xbcb1bd78	-0.021696791
22	0xbd39a0e6	-0.04531946
23	0xbd31cafb	-0.043406468
24	0x3ce023ff	0.027360914
25	0xbd7e0258	-0.062013954
26	0xbd520d8e	-0.051282458
27	0x3c00ffba	0.00787347
28	0xbd0b3118	-0.033982366
29	0x3cbf24e9	0.02333303
30	0xbcbd28b0	-0.02309069
31	0xbd256352	-0.040377922
32	0xbd6786ac	-0.056524917
33	0x3d35760f	0.044302043
34	0xbb8ebfbc	-0.0043563526
35	0xbd1ace04	-0.037794128
36	0x3d7de2cf	0.06198388
37	0xbd77397f	-0.060357567
38	0xbd890e74	-0.0669221
39	0xbca91120	-0.020638049
40	0x3b3fcd2c	0.002926658
41	0xbcd49888	-0.025951639
42	0x3d615ad4	0.05501826
43	0xbd92ea93	-0.07173648
44	0xbd4300ef	-0.047608312
45	0xbbe5dadd	-0.007014616
46	0x3c1054fe	0.008809326
47	0x3ca98046	0.020691048
48	0x3c92ec77	0.01793502
49	0xbd2dc6b8	-0.04242584
50	0x3b8f7452	0.00437788
51	0x3c8c5829	0.017131882
52	0xbd49f7c5	-0.049308557
53	0x3c6d0528	0.014466561
54	0xbc0b942f	-0.008519216
55	0xbc5a8f8c	-0.013339888
56	0x3d8028a6	0.06257753
57	0x3cbed172	0.02329323
58	0x3d0891ca	0.03334216
59	0xbd456731	-0.048194114
60	0xbd443b80	-0.047908306
61	0x3c421b6c	0.011847358
62	0x3cbf8738	0.023379907
63	0x3d3e6edc	0.046492442
64	0xbd66fa01	-0.056390766
65	0x3d24d918	0.0402461
66	0xba27eb2f	-0.00064055895
67	0x3c1afe9c	0.009460118
68	0x3d85f594	0.06540981
69	0xbd0f87ed	-0.03504174
70	0xbb3615b5	-0.0027783934
71	0x3cf298d9	0.029613899
72	0x3ddf6ce6	0.109094426
73	0xbd809c58	-0.0627982
74	0xbc13fc72	-0.009032356
75	0x3d8c89b4	0.06862202
76	0xbd84685a	-0.06465216
77	0x3b9522b4	0.004551256
78	0xbd3c11d4	-0.04591544
79	0x3d2e7bce	0.042598538
80	0x3d3e5c56	0.046474777
81	0xbcd8add2	-0.026450071
82	0x3c8af94b	0.016964575
83	0x3cc2decc	0.023787878
84	0x3dc00e4b	0.09377726
85	0xbd87639a	-0.06610794
86	0xbd40af46	-0.047042154
87	0x3cc3bab1	0.023892732
88	0x3d6a5330	0.05720824
89	0xbd72a4a2	-0.059239037
90	0xbd48f20e	-0.049058966
91	0x3cfa4c59	0.030553984
92	0xbbb0c748	-0.00539485
93	0x3d603251	0.054735485
94	0xbd540e96	-0.051771723
95	0x3d05aa68	0.032633215
96	0x3ba39098	0.004991602
97	0xbd78b5ae	-0.06072014
98	0x3d812926	0.063066766
99	0x3cc8acc9	0.024496453
100	0x3d65363b	0.05595992
101	0x3cde5a10	0.027142555
102	0x3d9c8d84	0.076441795
103	0x3d157832	0.03649158
104	0xbc997e54	-0.018736996
105	0x3a7a99ea	0.0009559678
106	0x3ca49b64	0.020093627
107	0x3d29431b	0.041323762
108	0x3db36d05	0.08761028
109	0x3d0f94a6	0.03505387
110	0x3b99bdf2	0.0046918327
111	0x3d7d69e9	0.061868582
112	0xbc6893a2	-0.014195355
113	0xbd87dda3	-0.06634071
114	0x3dc8adde	0.097987875
115	0xbd837726	-0.0641921
116	0x3d7a6831	0.06113452
117	0xb9ae51da	-0.0003324885
118	0x3ca1f339	0.019769298
119	0xbc6d14c8	-0.014470287
120	0xbcc338e7	-0.023830844
121	0x3b1d9eac	0.0024050875
122	0xbcfe396e	-0.031033244
123	0x3db1a16d	0.08673368
124	0xbc2e839e	-0.010651497
125	0x3d926372	0.07147874
126	0x3c8772cc	0.016534232
127	0xbd153fcc	-0.036437795
128	0x3d63a695	0.055578787
129	0x3d83065e	0.06397699
130	0x3d59063c	0.05298446
131	0x3cc9b088	0.02462031
132	0xbbafd88d	-0.005366391
133	0x3d6df228	0.058092266
134	0x3ccb1cdf	0.02479404
135	0x3c071b03	0.008246186
136	0xbd2a814c	-0.041627213
137	0xbd5209b4	-0.051278785
138	0xbc34263a	-0.010995442
139	0xbc95fb9d	-0.018308455
140	0xbd480b09	-0.04883865
141	0x3dc68836	0.09693949
142	0x3bddb6e4	0.006766187
143	0xbcd8b957	-0.026455564
144	0xbba2c385	-0.0049671554
145	0xbd3ee1f2	-0.046602197
146	0xbd90b550	-0.070658326
147	0x3dca3a49	0.09874398
148	0xbd899c65	-0.06719283
149	0x3cebd96a	0.028790195
150	0x3d999565	0.07499198
151	0xbd20e3d8	-0.03927979
152	0x3cba7248	0.022759572
153	0x3c750efe	0.014957188
154	0xbca69e3d	-0.020339126
155	0x3d881840	0.0664525
156	0x3d627cf8	0.05529496
157	0x3d80c750	0.06288016
158	0xbd3da969	-0.04630414
159	0x3d81bb16	0.06334512
160	0x3d43f904	0.0478449
161	0x3d684f84	0.056716457
162	0xbb812c0b	-0.003942018
163	0xbd2ba167	-0.041901972
164	0x3d463fd8	0.04840073
165	0x3baea3ef	0.005329601
166	0xb96ffd50	-0.00022887182
167	0x3cd54508	0.026033893
168	0x3c80db13	0.015729463
169	0xbc4b51fd	-0.012409684
170	0x3d2e5ce9	0.042569075
171	0x3d06ba72	0.03289265
172	0xbd2d610c	-0.04232888
173	0xbd1b1c03	-0.03786851
174	0x3d2330c2	0.03984142
175	0xbd6507a0	-0.055915475
176	0xbd0511f7	-0.032487836
177	0xbcd46afb	-0.025929919
178	0x3d8aa890	0.06770432
179	0xbd6ad4bc	-0.057331786
180	0xbca5aee6	-0.020225
181	0xbd912060	-0.07086253
182	0x3be6dc50	0.0070453063
183	0x3b1ade48	0.0023631025
184	0x3d6f8b79	0.05848262
185	0x3cdef26c	0.027215205
186	0xbcec34fb	-0.028833857
187	0x3d431ebc	0.047636732
188	0xbd1b4b5f	-0.037913676
189	0x3d9f5c57	0.07781284
190	0xbc1f920e	-0.009739412
191	0xbd930090	-0.07177842
192	0xbc95e756	-0.018298786
193	0xbd7e3e44	-0.0620711
194	0xbd7253e4	-0.059162036
195	0xbcdc6b24	-0.026906557
196	0x3bec46b5	0.0072105774
197	0x3d8614f0	0.06546962
198	0x3dc1fbee	0.0947188
199	0xbc795e98	-0.015220307
200	0x3d8267ba	0.063674405
201	0x3dc4b398	0.09604567
202	0xbd3b66f6	-0.045752488
203	0x3d8e0080	0.06933689
204	0xbd311d23	-0.043240678
205	0xbd06e92d	-0.032937218
206	0xbd2229a9	-0.03959051
207	0x3d7a87b8	0.061164588
208	0xbd3183db	-0.043338638
209	0x3d8e2c5b	0.06942054
210	0xbbb53066	-0.005529451
211	0xbc02753c	-0.007962521
212	0x3d0a90f0	0.03382963
213	0x3cbe7efd	0.023253912
214	0xbcf1b5ec	-0.029505692
215	0x3d7b59bd	0.061364878
216	0xbcbc8e6a	-0.023017127
217	0x3d1ae566	0.037816428
218	0xbd767fb8	-0.060180396
219	0x3eb50f99	0.35363463
220	0x3d46fd50	0.04858142
221	0x3cc03ff8	0.023468003
222	0x3d5f7576	0.05455538
223	0x3d51c128	0.0512096
224	0xbd804fcf	-0.06265222
225	0x3a848982	0.0010111781
226	0xbd6dcb89	-0.058055434
227	0xbc8ecad2	-0.017430697
228	0x3cf24b3a	0.029576886
229	0x3d7ec7ff	0.06220245
230	0xbd043b23	-0.03228296
231	0xbd5c302a	-0.05375687
232	0x3ce2dd56	0.027693432
233	0xbc9731a3	-0.018456286
234	0x3da5f303	0.081029914
235	0x3d02d4e0	0.031941295
236	0xbcfb85b9	-0.030703412
237	0x3aae7f7e	0.0013313142
238	0xbd2409c6	-0.040048383
239	0xbd809e56	-0.062802
240	0x3df74de5	0.12075404
241	0xbc98aee7	-0.018638087
242	0xbcefd72a	-0.029277403
243	0x3c4d507d	0.012531397
244	0xbcb767bc	-0.022388332
245	0x3c930acd	0.017949486
246	0x3df84958	0.12123364
247	0x3d90c2b4	0.07068387
248	0x3d50fd63	0.0510229
249	0x3ce0d035	0.02744303
250	0x3b43a66b	0.0029853832
251	0x3cf8b56a	0.030359942
252	0x3b8d5ea2	0.0043142596
253	0xbd011600	-0.03151512
254	0xbcb0d896	-0.021587651
255	0xbd195f63	-0.037444483
