model_artifacts/dl_tx_tx_h24_48000_49500.pt (torch, 420809 bytes, 30 tensors)

proj.weight f4 [64, 30]
000000 89 8c 29 bd b9 73 b4 bd 26 84 1e bb 1b b5 ef 3d
       -0.04139379 -0.08811135 -0.0024187653 0.11704465
000010 94 4a 0e 3e 52 fd 20 3d a7 b7 42 3d da b8 37 3d
       0.13895637 0.039304085 0.047538426 0.044854023
000020 43 f3 b5 3b 71 a2 3e bd d0 e1 b1 3d 33 1e af bd
       0.0055526807 -0.046541635 0.086856484 -0.08550682
000030 6e 8e dc bd e8 f0 d9 bc b1 9f 23 be c5 78 30 3e
       -0.10769354 -0.02660413 -0.15978886 0.1723357
000040 45 d6 17 be 8b 2f 18 be 37 19 96 3d 89 f6 1f 3d
       -0.14827831 -0.14861886 0.07329028 0.039053474
000050 84 c3 c6 3d 07 a8 08 bc 73 4a e5 bd fb 11 17 3e
       0.097052604 -0.008340842 -0.11195841 0.14752953
000060 24 f6 ed 3c 01 ee 52 3d f3 ac 43 be a5 fa 22 3e
       0.029048033 0.05149651 -0.19108944 0.15915926
000070 9a ab 02 be de dc ab 3d e0 b7 ef bd 08 8e df bd
       -0.12760773 0.083917364 -0.11704993 -0.10915762
000080 86 b6 e9 bc b9 a9 32 be d4 a4 27 3c a8 ff e2 bd
       -0.028529417 -0.17447557 0.010232169 -0.11083919
000090 63 f3 38 3e be cc 0f 3e 73 04 f3 3d 50 b8 31 3d
       0.18061595 0.14042947 0.11866083 0.043388665
0000a0 ab 9d 0f 3e 2b c5 24 3e 8a e8 cb 3d 30 54 45 3d
       0.1402499 0.16090839 0.09956463 0.04817599
0000b0 f2 e3 a8 3d 2f 3a 2d bc 6a ff 76 bd ee 05 b5 bd
       0.08246602 -0.010572954 -0.060302176 -0.088390216
0000c0 46 49 1a 3e 8c 2d cc bd c8 bf 95 3c e5 c8 74 3d
       0.15067014 -0.09969625 0.018279925 0.0597619
0000d0 da d8 8d bd 5b a1 9b bd 9c 43 1a 3e 54 65 c6 bb
       -0.06926127 -0.075991355 0.15064853 -0.0060545597
0000e0 f4 a4 10 be c0 03 ef bc d1 49 71 bd 7d 6e cc bd
       -0.14125425 -0.029176593 -0.058908287 -0.099820115
0000f0 8d 1b d5 bb 9a f6 f0 3d a3 af 0a 3e e6 bc 18 bd
       -0.0065035284 0.117657855 0.13543563 -0.037289523
000100 e9 e8 c5 bd 4c 54 1d be 74 74 46 bd dc a9 08 3e
       -0.09663565 -0.15364188 -0.048450902 0.13346046
000110 1a 25 1b be 5d 59 89 3c 41 d3 ed 3c e7 7c e8 bd
       -0.15150872 0.016766245 0.029031398 -0.11351948
000120 92 18 0c 3c 9a 1f c9 3d b5 ae e3 3c 64 f2 4b bc
       0.00855078 0.09820481 0.027793268 -0.012447927
000130 a0 80 00 be 21 0f d0 3d 7c 4c 40 3d a9 a9 06 3e
       -0.12549067 0.101591356 0.04694794 0.13150658
000140 d0 f2 ec 3d 35 43 1e 3e 36 89 19 3d fd c8 51 bd
       0.1156975 0.15455325 0.03748437 -0.051217068
000150 84 be 84 bd 87 87 28 3e a6 88 1c 3e cb 30 fb 3c
       -0.064816505 0.1645795 0.15286502 0.030662915
000160 3e 22 2e be c3 90 02 3e ca 15 ad bd bd e9 59 3d
       -0.1700525 0.12750535 -0.084514216 0.053201426
000170 06 dd 1b be 7a be ca bc b2 e6 43 3e 8f e8 21 3e
       -0.15221033 -0.02474903 0.19130972 0.1581137
000180 84 b2 38 3d bc c7 05 be 8c 5c ad bd 7e a3 81 bd
       0.04509212 -0.13064474 -0.084649175 -0.06330012
000190 ad b8 38 3d c5 0e 67 b9 37 e4 7c bd 30 1d f1 bc
       0.045097996 -0.00022035379 -0.06174108 -0.029432863
0001a0 9d 8c d6 bc d5 2a 4a 3d e3 a6 d5 3d d7 c5 20 3d
       -0.026190097 0.049357254 0.10432222 0.039251175
0001b0 97 c4 45 bd 2e f6 ae 3d 57 b6 e3 bd d4 83 1e 3d
       -0.048283186 0.08543049 -0.11118763 0.03869994
0001c0 21 ba 2f 3e aa 6f 96 3d 93 b6 a3 3d b6 1b de 3d
       0.17160846 0.07345517 0.07993808 0.10845129
0001d0 c5 97 a8 bc 87 5f 23 3d 9a 29 f0 3d 4c ff a8 bd
       -0.020580182 0.039886024 0.11726685 -0.08251819
0001e0 56 ea 5b 3d e8 7a 96 3d 66 ec 29 be fe d2 e0 bd
       0.053690277 0.07347661 -0.16594085 -0.109777436
0001f0 18 14 25 3e e3 a1 1f 3e cb 21 cc 3d c8 22 e5 bc
       0.16120946 0.15589099 0.09967383 -0.027970687
000200 0b 6c 22 be 49 11 6a 3d d5 56 93 bc d0 32 9c 3d
       -0.15861528 0.05714539 -0.01798574 0.07626879
000210 e7 b1 33 3d 9d 58 fe 3d 04 6b fe 3d f4 78 04 be
       0.043870833 0.124192454 0.12422755 -0.12936765
000220 75 5b 72 bd bf 65 a9 bd 95 fc c6 bd 73 75 fc bd
       -0.05916925 -0.0827136 -0.09716145 -0.12327089
000230 cf d1 d1 3c b6 21 24 be 9e 1f 2e 3e 57 52 b6 3c
       0.02561274 -0.16028485 0.17004248 0.02225606
000240 b8 de 09 3e de 71 b4 bd c5 51 84 3d 94 fc d9 bd
       0.13463867 -0.08810781 0.06460909 -0.106438786
000250 2b 7a bd 3d a4 4a ed bc 4e 86 89 bd f2 a6 5a bc
       0.09251817 -0.028966255 -0.0671507 -0.013345467
000260 b3 11 0e be dc a9 01 be f6 a4 c7 bd b7 1b ea bd
       -0.13873939 -0.12662452 -0.09748261 -0.114310674
000270 b0 b0 ba bc 2e ee f3 3c 93 8b 14 3e 3a 8f fd bd
       -0.02278933 0.029776659 0.14506368 -0.12380834
000280 af d5 9d 3d 0e 57 9f 3d 45 ed 07 3e 84 8f 11 3e
       0.077067725 0.07780276 0.13274105 0.14214903
000290 38 a5 ad 3d 19 cc 75 bc be 77 17 be 35 89 16 3e
       0.084787786 -0.015002274 -0.14791772 0.14700778
0002a0 1d 75 fb 3c a2 17 f7 3d 3d a9 2a be f9 13 76 bd
       0.030695492 0.120650545 -0.16666122 -0.06007764
0002b0 90 a3 3b 3d 39 17 44 be c2 97 8e bb e7 7a b8 bd
       0.045810282 -0.19149484 -0.004351587 -0.09007817
0002c0 f9 82 46 3e 81 b0 c5 bd 06 fb 33 3e bc 69 e1 bc
       0.193859 -0.09652806 0.17576227 -0.027516238
0002d0 4b 59 a2 bd a8 1c c3 3c a1 a7 5c bd 78 20 69 3d
       -0.079271875 0.023817375 -0.0538708 0.05691573
0002e0 90 82 3e 3d b4 df 4c be ae 07 d0 3d 09 6e 66 3d
       0.046511233 -0.20007211 0.10157715 0.05625728
0002f0 9e f0 b1 3c 4e 9c 01 be 0b ee b1 3d 86 fe c0 3d
       0.02172118 -0.12657282 0.08687981 0.094235465
000300 37 d3 e6 bd 5c 6b 70 bd 11 1c 04 3e f7 74 10 3e
       -0.11270755 -0.058696136 0.12901331 0.14107119
000310 28 d2 a8 3d 6c a5 21 be ee d5 2f 3d 74 92 7c 3c
       0.08243209 -0.1578576 0.04292863 0.0154157765
000320 30 84 11 be ad 61 20 3e 03 15 ac bd 34 ce 40 be
       -0.14210582 0.1566226 -0.08402445 -0.1882866
000330 3d 31 0e be 75 51 1c be e6 76 00 be 90 81 1e be
       -0.1388597 -0.15265448 -0.12545356 -0.15479112
000340 c0 5f 87 bd a0 3f 9e bc c5 e0 22 3d 27 95 e6 3c
       -0.0661006 -0.019317448 0.03976514 0.028147293
000350 84 20 07 be 1e 7e 71 bc 11 d1 2c 3d f0 44 c5 3b
       -0.13195997 -0.014739541 0.04219157 0.006020181
000360 50 d7 a5 3c d5 ca 16 3e 4b d5 df 3d c8 16 f4 3d
       0.02024427 0.14725812 0.10929354 0.11918408
000370 ac 2b 88 bd ee f7 21 3d 50 d1 bc bb 58 f7 9e bd
       -0.06648955 0.039543085 -0.0057622567 -0.07762021
000380 ec 8c f0 3d 00 c0 e3 bd 74 0e 07 bd bd 2a 24 3d
       0.11745629 -0.111206055 -0.032972768 0.04007982
000390 fc 3f 80 bd 0b 38 7c 3d da 09 b1 bc f8 5f 2c bd
       -0.06262204 0.061576884 -0.021611143 -0.04208371
0003a0 95 5c 5a 3c 3c d4 0e 3d e1 59 dc bc d7 6e 63 3d
       0.013327737 0.03487037 -0.026898326 0.055525627
0003b0 f3 7d 01 be 21 b1 0b be 14 6a 2e be 92 b5 06 3e
       -0.12645702 -0.13641788 -0.17032653 0.13155201
0003c0 53 9e 0e be b2 ec 3b be 12 72 a1 3d 1a 6f 2c be
       -0.13927583 -0.18352011 0.07883085 -0.16839257
0003d0 37 0b 1c be 00 b5 b0 3d 12 c6 49 be 41 3f de bd
       -0.15238653 0.08628273 -0.19704464 -0.108519085
0003e0 a2 7c b2 3c 9a 42 02 bd ca e0 0c be dd 76 97 3d
       0.021787945 -0.031801797 -0.13757625 0.07395718
0003f0 3c 71 0d be 65 93 78 3d 63 d0 0a 3e 30 71 6d bd
       -0.13812727 0.06068744 0.13556056 -0.057969272

proj.bias f4 [64]
000000 18 d7 10 be f2 25 d3 bc 9f 0f 3c bd 9d f1 75 3d
       -0.14144552 -0.02577493 -0.045913335 0.060044874
000010 35 16 c5 3d 76 9e a9 3d 8a 17 4b 3e 13 cd 21 3e
       0.09623376 0.08282177 0.19833198 0.15800886
000020 24 70 a2 bd 76 ab 0b 3e 8f 74 8a 3d 96 68 b7 3d
       -0.079315454 0.13639626 0.06760513 0.08955495
000030 b5 a0 e2 bd 57 7a 2b 3e c9 03 4d bd 92 c1 06 3d
       -0.11065809 0.16745888 -0.050052438 0.032899447
000040 d8 bd 3d be 36 32 19 bd 5b 03 49 be 1d c3 5e 3d
       -0.18529451 -0.0374014 -0.19630186 0.054385293
000050 ce 45 2e 3e f9 f4 d4 bb 5a 42 cc bd 33 3f 5d bd
       0.17018816 -0.0064989296 -0.09973593 -0.05401535
000060 f7 08 c3 3d 78 8d f8 3d c0 47 26 be 47 07 ca bc
       0.09523194 0.12136358 -0.16238308 -0.024661673
000070 d1 56 13 3b c3 e5 84 3d 41 52 14 3e db 60 9d bc
       0.0022482167 0.06489136 0.14484502 -0.019211223
000080 7d de e2 bd 0b 57 88 bd 01 ef a5 3d 5b 69 6b bc
       -0.110775925 -0.06657227 0.08102227 -0.01436838
000090 38 3d 16 3d 46 69 1c 3e 9f 3d 59 3d c9 9a 64 3d
       0.036679476 0.15274534 0.053037282 0.055811677
0000a0 6b b2 92 bd a8 79 49 be c5 9d c8 3b 42 e3 2e 3e
       -0.07162937 -0.19675314 0.006122323 0.1707888
0000b0 76 47 23 3e 41 0f 2a be 1d ca 28 3e 1b a0 c5 3d
       0.15945229 -0.16607381 0.1648335 0.09649678
0000c0 32 f0 7c bd 16 e0 2f 3e bd d3 f9 bd 24 d0 1e 3e
       -0.061752506 0.17175326 -0.12198589 0.15509087
0000d0 98 2a 50 3e 7e 08 4f be f0 54 5c bd c3 c2 be bd
       0.20328748 -0.20218083 -0.05379194 -0.093144916
0000e0 31 4c 6a 3d 94 b6 66 3d ff cb b2 3d 09 99 d1 3d
       0.057201568 0.056326464 0.087303154 0.10234267
0000f0 25 d6 dc 3d c3 6d 44 be 6c 86 ed 3d 24 e8 21 be
       0.10783032 -0.19182496 0.115979046 -0.15811211

enc.layers.0.self_attn.in_proj_weight f4 [192, 64]
000000 35 da d8 3d 7e 85 01 3e cc 97 25 3c 23 79 8a bc
       0.10588495 0.1264858 0.010106992 -0.016903466
000010 58 57 2d 3d e0 37 07 3e d3 6a 88 bd c7 c5 f6 bd
       0.042319626 0.13204908 -0.06661 -0.12049442
000020 90 8b af 3d 2c 2b 0a be 3a d9 05 bd 9a 33 33 bc
       0.08571541 -0.13493031 -0.032677867 -0.010937596
000030 f6 e7 04 bc 8c 9c 8d 3d b7 e2 27 3d 87 45 d7 bc
       -0.008111944 0.069146246 0.040987696 -0.02627827
000040 9c 1c a3 3d a7 f4 24 bc fb a3 27 be ca 8e 57 b9
       0.07964441 -0.010068095 -0.16371147 -0.00020557191
000050 59 2c 10 bc 34 42 55 3d f2 e1 15 be cd 5c b7 3c
       -0.008799636 0.05206509 -0.14636973 0.022383118
000060 ff e7 ff bd 93 c8 9b bd 94 0c b3 bb ef 05 8a bd
       -0.124954216 -0.07606616 -0.005464146 -0.06739413
000070 37 7a 55 3c c9 7a 10 3e bd dc 2a bc f9 c8 e7 bd
       0.013029627 0.14109339 -0.010428605 -0.11317629
000080 c5 99 08 3e be f2 e2 3d 1c 17 f4 bd a7 e6 92 bd
       0.13339908 0.11081456 -0.1191847 -0.071729
000090 b6 4a 29 bd ad 9a f0 3d 17 bf ac 3c 7a bd a6 3d
       -0.041331016 0.11748252 0.021087212 0.081416085
0000a0 b7 b3 97 bd 4c 95 5a bd df fa 2a ba 38 e6 e6 bb
       -0.07407325 -0.053365037 -0.0006522368 -0.007046487
0000b0 fc a0 24 3e 24 5f 4a 3d 85 cb da 3d 7d cf 13 3e
       0.16077036 0.04940714 0.106833495 0.14434619
0000c0 7c 93 07 3d aa a2 13 3e af 16 af bd bb 23 8a bd
       0.033099636 0.1441752 -0.085492484 -0.06745096
0000d0 50 a9 02 3d 4c de 01 be a9 a3 de bd 49 c6 da 3d
       0.03189975 -0.12682456 -0.108710594 0.10682351
0000e0 34 d9 f2 3d 0e 72 5d 3d 48 06 27 3e 04 af ed bd
       0.118578345 0.05406385 0.1631099 -0.11605647
0000f0 f9 00 9e 3d 1c 18 04 bd d5 7f 1a 3e 64 4a b9 3d
       0.07715029 -0.032249555 0.15087827 0.09047392
000100 11 61 b6 bc 7d cd 64 3d c5 25 1e 3e 1a 57 d0 3d
       -0.022263082 0.05586003 0.15444095 0.10172863
000110 e0 3d 05 3e cf bb 1e be 5c 68 72 bd 81 95 f9 3d
       0.13011885 -0.15501331 -0.059181556 0.12186719
000120 c1 1b 1a 3e 64 84 90 3d e9 3a bf 3d 19 7a e7 bd
       0.1504965 0.070565015 0.09337408 -0.11302585
000130 77 c3 40 bd e3 ef b4 bd 26 e8 13 be 1c 3e 17 bd
       -0.04706141 -0.08834817 -0.14444026 -0.036924466
000140 03 14 01 3e c6 02 29 3e 60 76 74 3d 17 6a 7e 3d
       0.1260529 0.16504964 0.059683204 0.062112894
000150 4d 4d 23 be 1d 66 1d 3e c2 73 05 bd fd 38 00 3e
       -0.15947457 0.15370984 -0.0325811 0.1252174
000160 32 20 a7 3d 76 cd 29 bd e8 09 dd 3d 6b 4b 20 3e
       0.08160438 -0.04145571 0.10792905 0.1565377
000170 67 74 be bd 82 7a 27 bd 53 be 03 3e f1 30 15 3e
       -0.09299546 -0.040888317 0.12865572 0.14569451
000180 31 9a c8 bd 1c b2 f7 bb b3 05 ce bb 5a 37 b7 bd
       -0.09795035 -0.007559074 -0.0062873005 -0.08946104
000190 e3 2f 16 3e 69 ec 16 be 0d 8a 05 3e 68 42 74 3c
       0.14666705 -0.14738621 0.13040943 0.014908411
0001a0 88 b1 29 3e 5a 33 92 3d 6b c9 f4 bd 30 c7 83 3d
       0.16571629 0.07138701 -0.1195248 0.064344764
0001b0 9c af 0b 3d 2a 5e 26 3e a1 ee a1 3d 41 07 5e bc
       0.03410302 0.16246858 0.07906843 -0.013551534
0001c0 09 32 e5 bd a6 8e d6 bd 8f 58 87 3c 06 0b 7b 3d
       -0.11191184 -0.10476427 0.01652172 0.06128981
0001d0 f5 79 15 be 3a 4d 0f bd 94 12 24 bd 5f 41 77 3d
       -0.14597304 -0.03498576 -0.04005678 0.060365077
0001e0 7e e8 35 3c be 50 03 be b2 ac d8 3d ac f3 24 3c
       0.011102794 -0.1282377 0.10579814 0.0100678615
0001f0 c7 bf 04 3d a2 c0 be bd a3 18 87 3d af e4 4e bd
       0.032409456 -0.093140855 0.06596496 -0.05051106
000200 51 cd 3f 3e 52 27 a8 bd 8c ed d8 3c fd b5 07 be
       0.18730666 -0.08210625 0.026480459 -0.13253017
000210 76 8c bd 3d 44 57 0b bb ea 89 da bd cc 17 ee bd
       0.092553064 -0.002126173 -0.10670836 -0.11625633
000220 aa 7c 0e 3e 8d 51 23 be 75 25 02 3e c8 35 71 bd
       0.13914743 -0.15949078 0.12709601 -0.05888918
000230 7f b6 24 3d 6f 52 14 be 8a 23 aa bd bc 80 1a be
       0.040213104 -0.14484571 -0.0830756 -0.15088171
000240 0e ed c3 3d 7e 8e de bc 8d 36 ee 3d c7 f0 8a bd
       0.09566699 -0.027167555 0.116314985 -0.06784206
000250 f3 5a 46 3c 76 86 f4 bd 25 df ef bd 34 3c 5f bb
       0.012106645 -0.11939709 -0.11712483 -0.0034062983
000260 d9 06 25 be 84 fd f7 3d f1 85 46 3d 2b 47 cf 3d
       -0.16115893 0.12108901 0.04846758 0.10120996
000270 87 8f 0c be b6 79 98 3d d7 e1 dd bd b0 5b dd bd
       -0.13726626 0.074450895 -0.10834091 -0.10808504
000280 c0 98 0b 3e 1f 4c 0e 3e 37 25 84 bc 94 2b e4 3a
       0.13632488 0.13896225 -0.016131027 0.0017408007
000290 9c 9b d4 3d 95 11 0d be 2c a9 27 3d 48 1a 26 be
       0.10381243 -0.13776238 0.04093282 -0.16220963
0002a0 2e f9 cb bd e5 17 4c 3d 8a a3 09 be c0 36 83 3d
       -0.09959637 0.049827475 -0.13441291 0.06406927
0002b0 79 20 b8 3d af 15 f5 3d 09 08 ea bd f7 d0 90 3d
       0.08990569 0.119670264 -0.11427314 0.07071107
0002c0 94 3d 78 bd e4 82 ca 3d 56 5f d6 3c f0 d5 a3 3d
       -0.0606056 0.09888247 0.026168507 0.0799979
0002d0 f5 7b fa bd a6 da 38 3e 80 7a 27 3e db 61 1c bd
       -0.12230674 0.18052158 0.16355324 -0.03817926
0002e0 5b 46 cb 3d 86 25 c2 bd 95 9e 5b 3d 9f c3 f1 bd
       0.099255286 -0.09479813 0.053618032 -0.1180489
0002f0 1b 01 ce 3d 00 2c b7 bd 9d 39 cc bc 7b 9e 1b 3e
       0.100588046 -0.08943939 -0.024929816 0.15197174
000300 c8 78 8e bd f7 76 be bd 47 a0 ae 3c 73 8d 92 3d
       -0.06956631 -0.093000345 0.02131666 0.071558855
000310 d4 6f 8b bd 0b 72 ea 3c ff ce 03 3e 1e 72 fd bd
       -0.06808439 0.028618833 0.12871931 -0.12375282
000320 42 71 a7 bd 80 cb 85 3b 13 aa 86 3b fc 72 85 3c
       -0.08175899 0.004083097 0.00410963 0.01629018
000330 ca f2 b2 3d 2f 25 41 3d 8f 0c ad 3d 47 03 5b 3d
       0.087377146 0.0471546 0.08449661 0.053469922
000340 66 27 8c 3c 84 fe 94 3a 20 ef 86 bc 45 98 1e 3d
       0.01710863 0.0011367355 -0.016471446 0.038719434
000350 51 71 04 3e 68 86 6f bd d0 9f 2b bb 00 58 96 bd
       0.12933852 -0.05847779 -0.0026187785 -0.073410034
000360 09 49 b1 3d 0f f2 8e bd 88 0c 0b be 31 59 c8 3d
       0.086565085 -0.06979763 -0.13578999 0.09782637
000370 93 18 23 3e 8e 85 9e 3c fb 5b 1c 3c da b3 ce 3c
       0.15927343 0.019350793 0.009543414 0.025232244
000380 9b 6c 4c bd ee bc ff bc 67 da b6 3c 69 f5 be 3d
       -0.04990826 -0.031218018 0.02232094 0.09324152
000390 c6 a7 7a bd 42 e4 0c be 70 bb 00 bd 42 e6 d0 bd
       -0.061195157 -0.13758948 -0.031428754 -0.10200168
0003a0 f5 18 66 3d 80 14 d0 3d 1e d7 77 3d b1 83 5c 3b
       0.056176145 0.1016016 0.060507886 0.003364783
0003b0 e8 e5 b6 3d 74 79 fc 3d 15 1e b8 3d f6 4d 74 3d
       0.0893057 0.12327853 0.08990113 0.05964466
0003c0 3d 53 bd bd 8c fe ed 3d 65 ba ec bd 91 4e 35 3d
       -0.09244392 0.116208166 -0.115589894 0.04426438
0003d0 cc b1 84 3d 5f cf eb 3d 6a a2 c1 bb 76 c3 87 bd
       0.064792246 0.11514162 -0.005909254 -0.06629078
0003e0 f7 cc 15 3d f6 80 ad 3c 5a 27 a9 3c 6d 72 14 be
       0.036572423 0.021179657 0.020648647 -0.14496775
0003f0 d5 8d 03 bd a8 28 24 3d ec ea 8a bd 74 75 c8 3d
       -0.032117683 0.040077835 -0.06783089 0.097880274

enc.layers.0.self_attn.in_proj_bias f4 [192]
000000 a0 6d cf 3c 16 1f 97 bc 38 07 ff bc d9 02 5a bc
       0.025320828 -0.01844744 -0.031131372 -0.013306343
000010 66 f3 1e bd ae 60 bd bc dd ae f3 bc dc 38 c5 3d
       -0.03880634 -0.02311739 -0.029746467 0.09629986
000020 b6 f7 52 3c 08 f0 df bb 52 2a 56 bc ac 14 84 bc
       0.012876442 -0.006834034 -0.013071613 -0.016123138
000030 df 90 d1 bc e8 b5 b6 3c 1c eb 64 3d d2 05 04 3d
       -0.025581775 0.022303537 0.05588828 0.032232113
000040 16 5b 1b 3d 5d 6b aa 3c 8f 9d b8 3b d2 ad fe 3c
       0.037928663 0.020803148 0.005634017 0.031088743
000050 75 6c 1c 3d c3 0a 10 3d 4d 13 e4 bc 71 86 06 3d
       0.03818937 0.035166513 -0.027841235 0.032843057
000060 b9 67 37 3d 18 57 e0 bc 62 e8 85 3d 21 d0 2d bd
       0.044776652 -0.02738528 0.06538464 -0.042434815
000070 f8 b5 8e 3d 39 53 a5 bc 84 ce 32 bd 33 fd 25 3d
       0.069683015 -0.020181285 -0.04365398 0.040524673
000080 4a 81 2e bc 1f 34 31 3c 08 06 e2 bc fe b0 9d bb
       -0.010650942 0.010815649 -0.027590767 -0.004812359
000090 17 de fe b9 e3 40 8c 3b 55 b7 c2 39 c2 ba f2 3c
       -0.00048612125 0.004280196 0.00037139156 0.029630069
0000a0 7a d8 17 bc a8 75 36 bb 49 09 8a 3b a4 4d d6 3b
       -0.009267921 -0.0027841125 0.0042125327 0.006540017
0000b0 54 03 32 3d 84 7b 25 bd 81 ca e1 ba 8a ca ed bc
       0.043460205 -0.040400997 -0.0017226489 -0.029027242
0000c0 36 4b fe bd 60 f7 a6 3d 2b bf 3d bc f6 9a 65 bd
       -0.12416689 0.08152652 -0.0115812225 -0.056055985
0000d0 3e c5 ac 3d 39 84 d0 bc 01 26 c0 bd cd 36 b3 3c
       0.084360585 -0.025453674 -0.09382249 0.021876717
0000e0 dd 1f 81 bd ad 4f 73 bc 29 33 91 bd f1 a6 96 bd
       -0.063049056 -0.014850539 -0.07089836 -0.0735606
0000f0 89 45 e3 3c 64 69 86 bd f0 78 45 3d b9 c2 9b bd
       0.027743118 -0.065630704 0.048211038 -0.076055
000100 71 8b 17 b9 45 2f 15 3a b4 ea 24 3a 73 b1 42 ba
       -0.00014452428 0.00056909426 0.0006291077 -0.00074269547
000110 e6 ea ca b9 c2 11 13 ba 01 88 db b7 f7 6b 16 38
       -0.00038703455 -0.0005610251 -2.6170166e-05 3.5863337e-05
000120 e1 d0 c8 ba f3 1c b2 39 3b 81 95 ba f7 c5 cb b9
       -0.001532104 0.00033972375 -0.0011406312 -0.00038866673
000130 65 0c 72 3a ee a7 23 ba ad f4 fc ba 5f a7 dd 37
       0.00092334143 -0.000624298 -0.0019298993 2.6423191e-05
000140 e3 be de b9 6a a0 b2 ba ea 59 a4 b9 4f a0 ef 3a
       -0.0004248536 -0.0013628129 -0.0003134751 0.0018282029
000150 dc 4f b4 ba ff 2c 86 3a 87 44 95 ba 97 ed 9e ba
       -0.001375671 0.0010236799 -0.0011388221 -0.0012125251
000160 c0 35 18 39 ee 76 86 3a a9 ef 0d ba 91 37 d1 39
       0.00014515873 0.0010258832 -0.0005414435 0.00039904987
000170 39 d7 e3 b9 49 5f e9 3a 7c 42 58 ba 4f 3b 3f 3a
       -0.00043457167 0.0017804886 -0.0008249653 0.00072949094
000180 f5 2a b3 39 57 f4 a6 ba ec 35 1d 3a b6 9f a9 ba
       0.00034173546 -0.0012737614 0.00059971097 -0.0012941274
000190 e8 e0 27 ba ca cf 08 ba c2 48 7c ba 26 34 fb b9
       -0.0006404058 -0.0005218951 -0.0009623879 -0.00047913304
0001a0 6e f2 4b 39 8f 2f fd 3a 0f 52 19 ba 8a e1 b1 3a
       0.000194499 0.0019316542 -0.00058487145 0.0013571244
0001b0 a9 e1 80 3a 7a b9 c1 b8 a1 50 91 ba af f1 8e 3a
       0.0009832877 -9.237505e-05 -0.0011086651 0.0010905768
0001c0 b7 2a ff 38 16 47 ed b9 2d 32 ad 39 7b c9 10 bb
       0.00012167304 -0.00045257126 0.00033034515 -0.0022092748
0001d0 f4 fb f8 39 e1 ee 18 3b b7 c6 e0 38 23 21 8d b8
       0.00047489966 0.0023335742 0.00010718166 -6.729576e-05
0001e0 94 b5 83 b9 d4 33 95 b9 9c f0 c5 39 c4 d7 b2 3a
       -0.00025121553 -0.0002845811 0.00037754036 0.0013644625
0001f0 40 e1 8c ba eb 70 bf 39 94 bd 36 3a 93 8a 8d ba
       -0.0010748282 0.0003651449 0.00069709984 -0.0010798745
000200 dc 1f ae bc a1 15 74 3c ff 33 6a bc d7 86 8e 3c
       -0.021255426 0.014897735 -0.014294623 0.017398281
000210 9e f3 82 bc 75 8f fd bc 7e 5b 87 3c d9 b5 09 3c
       -0.015985306 -0.030952195 0.016523119 0.008405172
000220 31 25 b0 3c 5d 89 69 bc 5a e3 dd 3c cc 47 80 3c
       0.02150211 -0.014253941 0.027085949 0.015659235
000230 a0 02 dd bc 95 01 dd 3c 30 f0 b7 bc 87 cd c4 3c
       -0.02697879 0.026978293 -0.022453398 0.024023784
000240 9b b7 bf 3c a4 0c 51 bc e7 5b b6 bc c0 77 23 bc
       0.02340298 -0.012759361 -0.02226062 -0.009977281
000250 aa 39 0a 3d 18 eb d9 bc 7f 58 b8 bc 58 8d d9 3c
       0.0337464 -0.02660136 -0.022503136 0.026556656
000260 1a f9 15 bc e5 b8 c6 3c df 86 1b 3d 2e c9 90 bc
       -0.009153629 0.024258086 0.03797042 -0.017674055
000270 4b b3 a2 bc 58 f2 ca bc b7 24 bd bc 4b d6 14 bd
       -0.019860884 -0.024773762 -0.023088796 -0.03633718
000280 9a f9 96 3b fb de 8e bc 06 c4 d9 3c aa 2b d8 bc
       0.0046073915 -0.01744031 0.02658273 -0.026388008
000290 75 20 53 3c b6 71 c7 bc ee 0a d7 3c 49 93 ea bc
       0.012886156 -0.024346214 0.026250329 -0.028634684
0002a0 5a 31 99 3c 99 89 c9 3c 25 fd f3 3c 78 0c c7 bc
       0.01870029 0.024601744 0.029783795 -0.024297938
0002b0 6e 23 e3 bc f8 ca 7d bc b2 b3 53 bc a4 f9 d1 bb
       -0.027726855 -0.015490286 -0.012921261 -0.0064079333
0002c0 5a 2e ba bc 05 de c9 3c a0 91 bf 3c 61 cc 09 3d
       -0.02272718 0.024642 0.02338487 0.033642177
0002d0 f5 21 fe bc 40 c4 3f 3b 03 ca 13 bd 31 8e c9 bc
       -0.031022051 0.0029261261 -0.036081325 -0.024603935
0002e0 58 aa e1 bc 4b 8b f3 3b dd f7 af bc da 6e db 3c
       -0.027547047 0.0074323765 -0.021480495 0.026786257
0002f0 07 28 5f bd d2 fc fd 3c 2a d5 e1 bc 9d ba a6 3c
       -0.054481532 0.031004343 -0.027567465 0.020352656

enc.layers.0.self_attn.out_proj.weight f4 [64, 64]
000000 19 ae 8d bd 45 ba 91 bb db 73 00 3d 0f 1c a0 3d
       -0.06917972 -0.004447254 0.03136049 0.07817852
000010 d9 d2 68 bd f7 40 99 bd 34 4d b7 bd b8 9a 22 bd
       -0.056841705 -0.07483094 -0.08950272 -0.039698333
000020 9f 35 bd 3d 81 95 ba bb 0e 15 4c bc 91 dc bf 3c
       0.09238743 -0.005694092 -0.012456192 0.023420604
000030 a8 9f 13 3d 7e df 94 3d ab 84 81 3d 16 e8 01 bc
       0.036040932 0.0726919 0.063241325 -0.007928869
000040 18 e7 08 be 75 49 ba bd a0 28 18 3e 8e a3 5e bc
       -0.13369405 -0.09096042 0.14859247 -0.013588799
000050 4c 34 67 3d 6d cb 01 3e 7d fe 62 bc 00 70 21 bd
       0.05644636 0.12675257 -0.01385462 -0.039413452
000060 a2 59 66 3d ae 80 b8 bc 00 d9 32 bd 9f a8 9d bd
       0.056237824 -0.022522297 -0.04366398 -0.076981775
000070 90 a3 0e 3e d2 20 c8 3d 62 2f 18 3e b3 b7 08 3d
       0.13929582 0.09771885 0.14861825 0.033378314
000080 1c fe b9 bd 5d 11 85 3d d1 73 ce 3d 35 44 5a bd
       -0.09081671 0.064974524 0.10080684 -0.053287704
000090 60 b9 3a bc c6 05 da 3d e1 71 04 be 5b cd 24 3e
       -0.011396736 0.106456324 -0.12934066 0.16093962
0000a0 96 03 89 3c 68 32 14 3b 71 39 b1 3d eb c4 2d 3d
       0.016725343 0.0022613052 0.08653534 0.042424124
0000b0 f7 de 8e 3c 65 4b c6 3d 9f ea 4f 3c 3b 12 eb bd
       0.017440302 0.09682349 0.012690215 -0.114780866
0000c0 8b 4b 8c bd 45 cb 9f bd a8 ed 98 bc ff 2d fe bd
       -0.06850346 -0.078024425 -0.01866801 -0.12411117
0000d0 d4 bf ed 3b 91 2f 12 be 02 ac b2 bd ac bb 40 3d
       0.0072555337 -0.14275958 -0.08724214 0.047053978
0000e0 8e 75 2b 3d cc 0f cb 3a 06 21 32 3d 08 41 a2 3d
       0.041860156 0.0015492379 0.043488525 0.0792256
0000f0 d2 92 c6 3d 1a c3 64 bd c8 1d 92 3d c7 10 b2 3d
       0.096959725 -0.055850126 0.071345866 0.08694606
000100 8c 83 22 bd 66 6e 37 bd 48 89 f2 bd f1 1c e1 bd
       -0.039676234 -0.04478302 -0.118425906 -0.10991848
000110 58 d8 2e 3d 74 da b5 3b d0 19 05 3e e9 4f 38 3d
       0.04268679 0.0055497233 0.12998128 0.044998083
000120 ee ff b3 3d 8b 13 c0 bd bf 5a fe bc 45 00 51 bd
       0.08789049 -0.093787275 -0.03104913 -0.051025648
000130 7d 46 24 3d 0f 1e 36 3d 83 6e c0 3d 24 c2 c1 bd
       0.040106285 0.04446226 0.093960784 -0.094608575
000140 1e 2c 68 bd 8b c2 6b 3d ca 94 10 bd 50 9c 3b 3d
       -0.0566827 0.057558578 -0.035298146 0.045803368
000150 e6 04 14 be a8 e0 40 bc ee 0c 4e bd ae e2 1e be
       -0.14454994 -0.011772312 -0.0503053 -0.15516159
000160 3f 47 e6 bd 76 e7 8f 3c e8 10 e5 bc c2 99 24 3d
       -0.11244058 0.017566424 -0.027962163 0.040185697
000170 a2 e2 b5 3d b3 91 1b bd 7d 3d 22 3e 22 dd 2e bd
       0.088811174 -0.037980746 0.15843768 -0.042691357
000180 63 19 9c 3d 7a b0 01 be 69 b3 05 be 38 12 91 3c
       0.0762203 -0.12664977 -0.13056721 0.017708883
000190 0f 6f b3 bd 10 3f d9 bc 8b b7 5c bd 29 3e b3 3c
       -0.08761417 -0.026519328 -0.053885978 0.021880226
0001a0 f6 39 43 bd a6 8c 44 bd a3 27 b3 bd d1 8a d3 3d
       -0.047662698 -0.047985695 -0.087477945 0.103292115
0001b0 9e 56 3e bd 3f 53 a1 ba 9f 4e 5c bd bc 9d a1 bd
       -0.046469323 -0.0012308134 -0.053785916 -0.078914136
0001c0 aa d0 79 bd 93 60 20 3d 21 ed 14 bd c9 63 43 be
       -0.060990013 0.0391546 -0.036358956 -0.19081034
0001d0 77 e5 4a 3e 92 0a 83 3d e0 6a af 3d 2a 6f 81 bd
       0.19814096 0.063985005 0.08565307 -0.06320031
0001e0 2a 43 a8 3c 65 25 0f be cb a5 c2 bd 4b 7e 7a 3d
       0.020539839 -0.13979109 -0.09504279 0.0611556
0001f0 49 2e da 3d 33 ac 5b 3d 9f eb da 3d a0 e4 d9 bc
       0.106533594 0.05363102 0.106894724 -0.026598275
000200 9f 43 49 bc 49 b7 71 3c 49 1a a6 bd 8c bb b3 3d
       -0.0122841885 0.014753171 -0.08110482 0.08776006
000210 0f 1a e0 bc 84 92 d8 bd 28 7f 9f 3d 7c c8 6e bc
       -0.027356176 -0.10574821 0.07787925 -0.014574166
000220 17 8a 92 3c 99 6a df bd 03 c5 65 3d 20 6f 85 bc
       0.017888112 -0.10909004 0.05609609 -0.01628834
000230 05 db 6f 3d f1 10 db bc 0d 69 84 bd b3 85 1a 3d
       0.058558483 -0.026741477 -0.06465349 0.03772516
000240 ea c9 e6 3d 56 e8 d3 bc b2 26 84 bc 9e b6 e7 bd
       0.11268981 -0.025867622 -0.016131733 -0.11314128
000250 4b 57 b3 bb 5b b5 8a bd 86 20 25 be 4f f7 32 bd
       -0.0054730526 -0.06772872 -0.16125688 -0.043692883
000260 46 38 3c bc f1 43 5d 3b 14 90 a3 3d df 91 92 bc
       -0.011488026 0.003376242 0.07986465 -0.017891822
000270 98 50 2c 3c f0 8e 02 be a0 d1 2c bd ad a7 b8 3d
       0.010517262 -0.12749839 -0.0421921 0.090163566
000280 a0 56 80 3c 50 d9 75 3d b7 e2 02 3e be db e9 bd
       0.015666306 0.0600217 0.12781797 -0.114188656
000290 a1 6d 7c 3d 1a fc 1f 3d d0 61 65 bd 2f 2a 8e 3c
       0.061627988 0.039058782 -0.056001484 0.0173541
0002a0 1d 80 d1 bd cd d5 b3 bc f5 2b e8 3d 18 86 bf 3d
       -0.10229514 -0.021952534 0.11336509 0.09351748
0002b0 a9 ef 68 3d f5 1d 72 3d dd 94 00 3e 83 02 b1 bc
       0.056869183 0.0591106 0.12556787 -0.021607643
0002c0 b4 fc dd 3c d2 71 a2 bc 7e 47 9c 3d fc 62 cf 3d
       0.027098037 -0.019829664 0.076308236 0.10126302
0002d0 4f de 24 be f3 bb 53 3d 7e d0 9d bc d3 a1 94 3d
       -0.16100429 0.051692914 -0.019264456 0.07257428
0002e0 41 f1 e8 bd 50 21 84 bc b7 bf c3 3d ea a0 16 3e
       -0.113741405 -0.016129166 0.09558051 0.14709821
0002f0 e0 51 d8 bd 80 59 d9 3d 54 3f 9a 3a 92 96 94 3d
       -0.105624914 0.10612774 0.0011768141 0.072552815
000300 68 d3 de 3d 91 20 66 bd 28 96 21 3d 9c 58 5f bd
       0.10880166 -0.0561834 0.03944984 -0.054527864
000310 6f c1 c9 3c 07 48 dc 3c 1b 23 fc 3d c5 14 bd 3d
       0.02462837 0.026889814 0.12311383 0.09232477
000320 ea f1 00 bd 73 73 b2 bd 3a 9d 6d 3d 73 d3 9d bc
       -0.031480707 -0.087134264 0.05801127 -0.019265866
000330 bb 97 9f bc 29 31 2e bd a9 03 5d 3d b8 66 ae 3d
       -0.01948153 -0.04252735 0.05395857 0.08515686
000340 eb 07 8b bd 0c 8f 17 bd 5f fe 57 3d 44 2d 3c 3d
       -0.067886196 -0.037001655 0.05273282 0.045941606
000350 2a d8 ea 3d 29 bb 43 3d 45 3c 99 bd 81 12 c9 bd
       0.11467011 0.04778591 -0.074821986 -0.098179825
000360 cc 64 fe bd 54 7a f3 bd ef 11 bb 3d c7 e7 18 be
       -0.12421569 -0.118885666 0.0913428 -0.14932166
000370 39 ba 15 bd 14 f1 d2 bd 65 75 1e 3c 94 46 33 bd
       -0.03655455 -0.10299888 0.009671544 -0.04376848
000380 95 6a d0 3c e8 38 92 3c 12 3c 14 bd 95 ec 02 3e
       0.025441447 0.0178494 -0.0361901 0.12785561
000390 b1 5c a4 3d 5f f9 d5 3d 61 a0 37 bd 58 90 4b 3d
       0.08025492 0.104479544 -0.044830684 0.049698204
0003a0 fe d1 19 bd 17 b2 cb 3d 06 63 dc 3d 6c c6 ca 3d
       -0.03755378 0.09946077 0.10761075 0.09901127
0003b0 f8 d9 73 bd 61 d9 87 3d 6b 50 b2 3d cf 84 bd bc
       -0.059534043 0.066332586 0.08706745 -0.023134617
0003c0 76 1f 15 3d 48 da 52 bc df 50 ac 3d cf f5 52 3e
       0.036406957 -0.012869425 0.084138624 0.20601581
0003d0 3a 6b ee 3a 39 6f a9 3d 33 33 9f bd ce 0e 85 3c
       0.0018189915 0.08273167 -0.07773437 0.016242411
0003e0 e7 ee 73 bd a1 03 d7 3c c5 47 cd 3d 15 d6 1e bd
       -0.059554007 0.026246848 0.100234546 -0.038778383
0003f0 c8 19 0e be ed 14 92 3d 73 23 e0 bd 53 cf 16 3d
       -0.13877022 0.071328975 -0.109442614 0.036818814

enc.layers.0.self_attn.out_proj.bias f4 [64]
000000 1e d4 9b bc 54 17 a8 bc bd a9 85 3c 10 1e 70 bc
       -0.019022044 -0.020518936 0.01631629 -0.014655605
000010 3f b8 a6 bc f1 6f 9e 3c 6b ca 73 bb d9 76 a3 bc
       -0.020351527 0.019340487 -0.0037199508 -0.019954132
000020 e0 55 a5 3c 47 d6 b0 3c e2 dc 8f bc 46 1b f0 bc
       0.02018255 0.02158655 -0.01756138 -0.02930988
000030 09 3c bb 3b 14 b5 0a 3d 48 90 70 3c 0e ef 8e bc
       0.005713944 0.033864096 0.014682837 -0.017447975
000040 cd a9 bf bc df 90 96 3c e9 68 d2 bc 3f 75 9b bc
       -0.023396397 0.018379627 -0.02568479 -0.018976806
000050 89 a3 9b 3c 22 f8 95 bc 18 34 a5 bc 5c 0c 9c 3c
       0.018998878 -0.018306796 -0.020166442 0.019048862
000060 0e 3c f9 ba a1 99 62 bc 74 e1 90 3c cc e1 b5 bc
       -0.001901509 -0.013830573 0.01768563 -0.022202395
000070 ab 89 9f 3c 7f 8c c3 3c 3c 2b a6 3c f3 71 9c bc
       0.019474825 0.023870705 0.020284288 -0.019097304
000080 64 9a 9c bc a7 f9 95 bc 87 3b c5 3c b4 d9 95 bc
       -0.019116588 -0.01830752 0.024076236 -0.018292286
000090 95 b6 93 bc 5d ac 93 bc 30 90 92 3c 8b 54 a7 3c
       -0.018031398 -0.018026525 0.01789102 0.020426055
0000a0 e8 c2 79 3c ee 24 81 bc 17 6a 72 3c de e8 63 bc
       0.015244223 -0.01576468 0.014795802 -0.0139105
0000b0 36 6c 7d bc 4d da 9b 3c 5d cd c1 3c a5 83 8d bc
       -0.015467694 0.019024992 0.023657495 -0.017274687
0000c0 0c 52 49 3c 47 65 ac 3b 6e 6c 71 3c 4c 04 0a b9
       0.012287628 0.0052610966 0.014735324 -0.00013162306
0000d0 4d 9a a4 bc d2 b9 ad bc 36 5e 8e 3c d2 9e 8a 3c
       -0.020093108 -0.02120677 0.017378908 0.016921435
0000e0 97 c6 8b bc 04 fe 94 3c 54 aa a1 3c 55 5e b7 bc
       -0.017062468 0.01818753 0.01973454 -0.022383848
0000f0 8d 70 9e 3c a9 55 b9 bc e3 c7 9e 3c 06 2c 5a 3c
       0.019340778 -0.022623854 0.019382423 0.01331616

enc.layers.0.linear1.weight f4 [256, 64]
000000 a9 69 25 bd ca e6 51 3c 45 8a 9b 3d 65 b2 dc bc
       -0.04038397 0.012811372 0.07594732 -0.026940534
000010 76 85 ad bd 86 87 99 3d 06 29 20 3d c0 28 66 bd
       -0.08472721 0.07496552 0.039101623 -0.056191206
000020 d4 7e fc bc 45 c8 b1 3d 13 62 8d bd 19 93 89 3b
       -0.030822195 0.086807765 -0.06903472 0.0041984436
000030 b7 6d e3 bd 99 7c ad bd ee 88 11 3d 51 19 95 bd
       -0.11104911 -0.08471031 0.035530977 -0.07280219
000040 fb 3a e7 bd f7 74 4f 3b ad 84 c6 bd 87 c5 d8 bc
       -0.112905465 0.003165541 -0.09693275 -0.026461376
000050 16 cf 98 3c 3f 02 12 3d 02 f5 66 bd b7 94 05 be
       0.018653434 0.035646673 -0.056386 -0.13045011
000060 df b4 88 3d e6 82 ce bc 9a 72 30 3d ae 16 ba bd
       0.066751234 -0.025208902 0.043078043 -0.09086357
000070 4a 45 a3 3d 69 e7 e3 bd eb 0c c7 3d 5c d5 82 bd
       0.079722 -0.11128122 0.09719261 -0.06388351
000080 9b 08 b8 bd 3b b9 b5 bc 4d 8a ba 3d 76 9f ab 3d
       -0.08986016 -0.022183051 0.0910841 0.08380024
000090 13 39 34 3d 42 dd 09 3e 4f 5b f5 bd 2e b3 19 bd
       0.043999743 0.1346331 -0.11980306 -0.037524395
0000a0 5f 69 3d 3d 9f 0c 47 3c 96 86 8a 3b 93 7f f1 3d
       0.046243068 0.012149005 0.0042274697 0.11791911
0000b0 8e 94 02 3e 8c 82 d4 bd 4d a9 31 3d 11 f9 01 bc
       0.12751982 -0.10376462 0.04337435 -0.007932917
0000c0 c4 c6 7f bd 0e 88 00 be e4 1f e7 bd 8e db 48 3d
       -0.062445417 -0.125519 -0.112853795 0.04903751
0000d0 31 31 0f 3e c4 60 d3 bd 2c 55 0f 3c dc 29 89 bd
       0.13983609 -0.10321191 0.008748334 -0.06697437
0000e0 23 f3 2f bd a4 5d 86 3d fd 75 a9 bd f4 f6 bf bd
       -0.042956483 0.06560829 -0.082744576 -0.093732744
0000f0 19 9d 99 bc 99 9b 88 bd 37 1f ef 3d 61 7c b9 3c
       -0.018751668 -0.06670303 0.11675876 0.022642316
000100 e5 dc aa 3c 7a 09 57 bc 35 65 3c 3d 82 ad 00 3d
       0.020857284 -0.013124818 0.045994956 0.03141547
000110 16 74 45 3d 3a b4 bd 3b 14 bf 5f bd 3b 92 fd 3d
       0.04820641 0.005789307 -0.054625586 0.12381407
000120 ed f0 ca 3c c5 30 75 3c 1c 79 bb bd 49 71 cb 3d
       0.024773085 0.014965241 -0.09153959 0.09933717
000130 6f 28 82 bd 13 0a 7d bd 43 6f b8 bd 13 76 fc 3d
       -0.06355368 -0.061777186 -0.090055965 0.12327208
000140 59 c0 77 bd 0b 33 4f bd 4f c4 90 3d 49 8c 0a 3d
       -0.06048617 -0.050585788 0.07068693 0.033825193
000150 6a f9 a0 3d 8a bc 0e 3d f0 94 01 3d 2c 0d ea 3d
       0.07860072 0.034847774 0.03163618 0.114282936
000160 e8 6e 94 3c 60 56 51 bc 10 6b d9 bd 06 68 be bc
       0.01811929 -0.012776941 -0.10616124 -0.023242962
000170 11 13 01 be 41 f7 13 3e 7b 56 c4 3d 50 60 72 bb
       -0.1260493 0.14449789 0.09586807 -0.0036983676
000180 3e 90 13 3d 4c 6b fa 3d 95 e4 0d 3e 95 11 13 be
       0.036026232 0.122274965 0.13856728 -0.14362176
000190 0a 46 19 bd 9d e7 a3 3d 8b e0 ab 3d 24 a7 c6 bc
       -0.03742031 0.08003161 0.083924375 -0.02424962
0001a0 7b d4 8a bd 1c 16 98 3d 5b c4 28 3c b7 db 07 3e
       -0.06778809 0.07426092 0.010300721 0.13267408
0001b0 c5 ae cb 3d 10 55 91 bd eb 2f 82 bd 2e 53 9e bd
       0.09945444 -0.070963025 -0.06356796 -0.07730709
0001c0 18 02 fd bc ff 95 ee 3d 99 ac da 3b ff 1c 96 bb
       -0.030884787 0.11649703 0.0066734073 -0.0045810933
0001d0 6d cc 9b bd 8d 20 83 bc 98 fb 99 bd 1d 02 f4 bd
       -0.076073505 -0.016006732 -0.07518691 -0.119144656
0001e0 b9 6f e2 bd 96 08 b0 3d 54 7d 59 bd 7e 8b 92 3d
       -0.11056466 0.08595388 -0.053098038 0.07155512
0001f0 ab 64 9d bd 96 46 89 bd 32 c3 03 be 1a 3e f3 bd
       -0.076852165 -0.06702916 -0.1286743 -0.11877079
000200 68 5c 82 bd 97 a4 f8 bd fd 4d 97 3c 6d 70 0b be
       -0.06365281 -0.12140768 0.018469805 -0.13617106
000210 4e 9b dd 3d 2b 42 c9 bd 56 a0 bc bc 4b 0a 02 bc
       0.10820638 -0.09827074 -0.023025673 -0.007937024
000220 a4 0b d6 bd aa 1d a9 3d 5c 61 ff bd 9a bf 07 be
       -0.10451439 0.08257611 -0.12469742 -0.13256684
000230 45 68 93 3d e2 ab 16 bd a8 3f c1 bc cb a1 3f bd
       0.07197622 -0.036785014 -0.023589924 -0.046785157
000240 5a 14 75 bd a7 04 d4 bd 37 1c 5c bd 6b 3a 13 be
       -0.059833862 -0.1035245 -0.053737845 -0.14377753
000250 71 c2 dc 3d 95 cf 7f bd 06 bc f4 ba 55 b4 bf 3d
       0.10779274 -0.062453825 -0.0018671758 0.093605675
000260 ee d6 25 3d 3e 59 57 bc 12 af dc 3d 9c 6f de 3b
       0.040488176 -0.013143836 0.107755795 0.006788207
000270 9c 3a f3 3c 22 61 cd 3d 80 9a 26 3d 5f 20 2e 3d
       0.029691033 0.10028292 0.040674686 0.04251134
000280 d5 87 f0 3d 37 91 14 3d 06 9d 5c 3a 70 d3 86 3d
       0.11744658 0.0362713 0.00084157323 0.06583297
000290 ca ce 72 3d 77 e8 0d 3e 7c 51 ae 3c de a4 82 bb
       0.05927924 0.1385821 0.02127909 -0.003986939
0002a0 5b 31 98 3c 2b 8d 4d 3b f4 a4 8f bc d7 4a f5 bc
       0.018578222 0.003136466 -0.01753471 -0.029942913
0002b0 aa fa e4 3a c8 98 42 3d 54 13 f5 3d 9b 21 a3 3d
       0.0017469723 0.047508985 0.11966577 0.07965394
0002c0 6e f9 ab 3d f1 e6 82 3d ba fa a4 3d aa 6a 11 3d
       0.08397184 0.06391705 0.08055635 0.035502113
0002d0 ab f6 b5 3d a3 68 a8 bb 87 35 48 bd 11 c3 03 be
       0.08884939 -0.005139427 -0.048879173 -0.1286738
0002e0 06 83 e1 bd 5f 50 b2 3c fe 93 85 bd 07 f4 4d 3d
       -0.11011319 0.02176684 -0.06522368 0.05028155
0002f0 fd 87 bf 3d 66 9e 8e 3d 82 7e d5 3c 7f 59 15 be
       0.093521096 0.06963806 0.0260613 -0.14584921
000300 a2 d5 a4 3b 51 48 aa 3d ae 88 bf 3c 14 da b8 bc
       0.00503035 0.083145745 0.023380604 -0.022564925
000310 e1 72 31 3b 2f bb 11 3e a5 bf 0d 3e 0d d0 32 3d
       0.002707653 0.14231561 0.13842638 0.043655444
000320 54 f4 ae bd 11 50 e4 bd 7e 7f 2f bd 78 46 1d 3c
       -0.08542696 -0.11148084 -0.042846195 0.009599321
000330 33 96 b4 3d 10 a0 17 be 90 a7 eb 3d e3 5e d6 bd
       0.08817711 -0.14807153 0.115065694 -0.10467317
000340 7b b6 3b 3d 14 97 69 3c b0 ec b9 bd bf 9d 64 bc
       0.045828324 0.014257211 -0.09078348 -0.013953625
000350 57 4c 0b 3e 37 cc bb 3d 18 ff be bc 27 2a 77 bd
       0.1360334 0.0916981 -0.023314998 -0.060342934
000360 89 b0 04 bd 0c 7e e7 3d 1b 95 ee bd e3 0f 40 3d
       -0.03239492 0.113033384 -0.11649533 0.04689015
000370 f6 9e 83 bd aa fe 8a 3d b0 e3 83 bd fd 7e 6d bd
       -0.06426804 0.067868546 -0.06439912 -0.057982434
000380 16 9b ce bd 28 87 b8 bd c8 bf 43 3d f4 f4 a9 bd
       -0.10088174 -0.09010154 0.04779032 -0.08298674
000390 d1 2c 3b 3d ea f9 ce 3d 35 f0 fd 3d 9d a7 d0 3d
       0.045697037 0.10106261 0.123993315 0.1018822
0003a0 ee 44 13 3e 43 36 b0 3c d4 d3 ce 3d 8d c6 ba bb
       0.14381763 0.021510249 0.10098997 -0.0056999386
0003b0 e6 5d 3a 3d b8 00 48 bd 02 63 32 bc e2 b5 b5 bd
       0.045499705 -0.04882881 -0.010887863 -0.08872582
0003c0 c2 fd 57 bd 5d a2 b0 3d cc d8 ef bd cf ba 08 3e
       -0.052732237 0.08624718 -0.117112726 0.13352512
0003d0 0c bb 92 bd 78 f1 81 3d 3b 78 29 bd 34 e7 0c be
       -0.071645826 0.06344885 -0.041374426 -0.13760072
0003e0 ef d8 03 3e dc fd db bc 5c 0d 02 bd 0c e7 3f 3d
       0.12875722 -0.026854448 -0.03175102 0.046851203
0003f0 21 b2 54 3c da 07 19 bc 1c d8 a7 3d 75 3b 03 3e
       0.012981922 -0.009340251 0.081955165 0.1281565

enc.layers.0.linear1.bias f4 [256]
000000 94 8d 10 3d 20 59 8e bd ef 13 0e 3e a1 20 a1 bd
       0.03529127 -0.06950593 0.13874792 -0.078675516
000010 7f dc a3 3d 84 12 e4 3c 97 b8 c9 3d 51 67 aa bd
       0.08001041 0.02784086 0.09849661 -0.08320487
000020 1c 72 42 3c 8d 24 b9 bd 97 7c 8a bd 66 3e 30 3d
       0.011868026 -0.09040175 -0.06762045 0.043028258
000030 c6 39 af bd 5d e7 fb bd d0 bb 08 3e f5 cd 05 bd
       -0.08555941 -0.122999884 0.13352895 -0.03266712
000040 cb 5a 57 bc a6 b9 ca bd 52 ce ef 3d 6f 33 35 3d
       -0.013144205 -0.09898691 0.11709274 0.044238504
000050 8b f9 a1 3d d4 fd 5e 3d 4d eb 51 3c af 1b bb bd
       0.07908925 0.054441288 0.012812448 -0.091361396
000060 8d d4 7f bc e0 a2 ea 3d 3d e1 a6 3d a1 b5 a3 bd
       -0.015614641 0.11456847 0.081484295 -0.07993627
000070 0d ca 98 bd 15 aa c3 3d cc f4 e0 3d d6 80 9f 3d
       -0.07460413 0.09553925 0.10984191 0.077882454
000080 c7 7a 20 bb 05 9f 9b bd 2f f6 8c bd d1 5c 2b 3d
       -0.0024487243 -0.0759869 -0.06882893 0.041836563
000090 af 20 d0 3d b4 4d 45 bd 2c 63 c1 bd 02 77 c1 bd
       0.10162484 -0.048169807 -0.09442744 -0.09446527
0000a0 9f 0e 7e 3d f9 82 dc 3d ea db 96 3d c0 5e c1 3d
       0.062025663 0.107671686 0.07366164 0.094419
0000b0 74 e4 bb 3d 8e 35 89 bd 53 84 3a bd 83 80 ba 3d
       0.09174433 -0.06699668 -0.04553635 0.09106543
0000c0 bd 5f 88 3d 19 2f 07 bb 71 42 92 3b 4b 5b 67 bd
       0.06658886 -0.0020627438 0.004463487 -0.056483548
0000d0 ae f0 21 bd 1a 2d 0e 3d 36 8a cf bc 28 4e f4 3d
       -0.03953617 0.03471098 -0.025334459 0.119289696
0000e0 9a ce b2 bd 9a 88 6a bd 1f f3 37 bc 9b f4 b1 3d
       -0.08730812 -0.05725918 -0.011227398 0.08689233
0000f0 ad 81 e2 bc 0f b9 3b 3d 9a 0c 57 3d 16 68 df bd
       -0.027649725 0.045830783 0.052502252 -0.10908525
000100 e3 68 ca 3c 5b c8 08 bc cb 88 8f 3d fa 2a 77 bc
       0.024708217 -0.00834855 0.07008513 -0.01508593
000110 d6 ce cf ba bf 92 fd 3d 09 bf d8 bd e4 63 b4 3b
       -0.0015854489 0.12381505 -0.10583312 0.005505072
000120 0b c0 84 bd 14 25 d9 bc 56 3f f3 3c 2c 5a 22 3d
       -0.06481942 -0.026506938 0.029693287 0.039636776
000130 79 d5 62 3d 32 00 3e bc 28 6c fc 3c ad a7 a8 3d
       0.055379365 -0.011596726 0.030813292 0.082351066
000140 46 5c 0d bd 29 ef 88 3d 3f 68 a3 3c 2f 04 02 bd
       -0.034511827 0.06686241 0.01994717 -0.03174227
000150 91 27 49 bd a7 6b a2 bd 71 a7 0a bb 73 b4 5b bd
       -0.04911 -0.07930689 -0.0021156932 -0.053638887
000160 ba 75 aa 3d e6 87 9b bc 3e e7 b8 3d 44 11 5a bc
       0.08323236 -0.0189857 0.09028481 -0.0133097805
000170 de 10 42 bd b9 e7 f1 3c 1b 82 60 bd 36 14 a4 3d
       -0.047379367 0.02952944 -0.05481158 0.080116674
000180 8d b6 d1 bd 0d 89 f0 bd 4d f1 b9 bd a7 50 09 bd
       -0.10239897 -0.1174489 -0.090792276 -0.03352418
000190 d3 cc ee bd 12 3e bf bd 53 90 32 3d 6a ae 5b bd
       -0.11660161 -0.09338011 0.04359467 -0.05363313
0001a0 fa be 86 3d ac 86 97 bb fd d7 8d 3d 6e 32 eb 3c
       0.06579395 -0.0046242084 0.06925962 0.02871057
0001b0 62 2e 96 bc 95 9e ac bd 5c 1d 0d 3e e9 d3 b5 3d
       -0.018332664 -0.084286846 0.13780731 0.08878309
0001c0 cf 17 57 bd 19 36 6b bd 00 04 dc 3d bc 88 69 bd
       -0.05251294 -0.05742464 0.107429504 -0.057015166
0001d0 ee 95 ba 3d 04 55 1e ba 22 ac 12 3d f8 3b 03 3e
       0.09110628 -0.000603989 0.03580869 0.12815845
0001e0 65 6b e1 3c a9 56 f8 3c da 3e bc bd 9f 6e d3 3d
       0.02751703 0.03031476 -0.091916755 0.10323834
0001f0 67 a4 2b bd 04 ce 03 3e 85 3a c0 3d b4 54 5d 3c
       -0.041904833 0.12871557 0.09386162 0.013508964
000200 a4 ad 08 3e 3f 6d ec 3b eb 25 8b bd 13 6d fd 3d
       0.13347489 0.0072151716 -0.06794342 0.1237432
000210 61 d6 b9 3c ad 8e e5 3c 87 2d 6e 3b e9 42 0a 3e
       0.022685232 0.028022135 0.0036343054 0.13502087
000220 a4 b1 32 3d 03 63 83 bd ca 82 00 bd 9f 92 1c bd
       0.043626443 -0.06415369 -0.03137473 -0.038225766
000230 5a 24 24 3d 38 da 0f bc 6d 1e 5c 3d 03 af 8d 3c
       0.04007373 -0.008780055 0.053739954 0.017295366
000240 07 40 b1 3d c0 6a 88 3d 49 f0 c7 bd 22 2e 2a 3c
       0.0865479 0.06660986 -0.09762628 0.0103869755
000250 0c d6 c9 3d 7d b5 57 bd c3 c2 2a 3d 18 6d ce 3d
       0.09855279 -0.052663315 0.041689645 0.10079402
000260 1c 48 f1 3d 73 76 2f bd 21 53 48 39 7a 77 c8 bd
       0.11781332 -0.04283757 0.00019104454 -0.09788413
000270 fc 4f 9d 3d 74 72 9d 3d 63 9b 8e 3d b6 a3 d2 3b
       0.076812714 0.07687846 0.069632314 0.0064282073
000280 c7 cb 04 bc 00 fb 68 3d 94 fb cd 3d 05 e9 87 3d
       -0.008105225 0.056879997 0.1005775 0.06636242
000290 59 f9 c9 bd e2 97 d0 3d 58 83 10 3e 8a 87 5e 3d
       -0.098620124 0.10185219 0.14112604 0.05432848
0002a0 b6 8e e4 bd 5b 4e 2b bd 12 ab 17 3d cb 10 cb 3d
       -0.111600325 -0.041822772 0.03702838 0.099153124
0002b0 3e 62 60 bc 3c c6 b8 3d 77 39 eb 3d 02 ce 24 3c
       -0.013695298 0.09022185 0.1148557 0.010058882
0002c0 90 74 91 3c 16 fe cc 3c ee fc 69 3d f1 06 bb 3d
       0.017755777 0.025023501 0.05712598 0.09132183
0002d0 38 40 cd bd 68 e7 11 3e f5 29 dd 3d 17 6e d7 3d
       -0.100220144 0.1424843 0.10799018 0.10519045
0002e0 c3 87 89 bd 30 f9 f4 3d 0a 84 69 3d b3 93 42 3c
       -0.067153476 0.11961591 0.057010688 0.011876035
0002f0 41 25 40 3d 65 5b c2 bd e5 c2 e2 3d 19 2d 09 3c
       0.046910528 -0.094900884 0.110723294 0.0083725685
000300 ea 2e b3 3d 4b 90 87 bd c6 07 60 bd a8 0a 1e bd
       0.087491825 -0.066193186 -0.054694913 -0.03858438
000310 a1 6a b2 bd 46 3b be bc 9e c4 bb bd ca 36 f8 3d
       -0.08711744 -0.023221623 -0.09168361 0.12119825
000320 4e f5 41 3d ce e7 72 3d 57 41 d7 3d 63 64 19 bc
       0.04735308 0.059303097 0.105105095 -0.009362313
000330 74 46 19 3c bd 18 90 3c 7f 7d 82 bd 00 ae 41 3d
       0.009355176 0.017589921 -0.06371593 0.04728508
000340 b9 5c 57 bd 9b 02 24 3d 09 cd 29 bd f2 09 07 be
       -0.05257866 0.040041547 -0.041455302 -0.13187388
000350 0d 99 cb bc 56 d0 83 3d f9 1c 4c 3d f5 c6 9e bd
       -0.024853254 0.06436221 0.049832318 -0.07752792
000360 77 a0 18 bd 4c cb 9b 3d da 22 81 bd ed 2a 92 3d
       -0.037262406 0.07607135 -0.063054755 0.07137094
000370 bf 94 3d bd da e1 38 3d 52 87 9e bd c0 0c d2 3d
       -0.046284433 0.045137264 -0.07740654 0.10256338
000380 7d c3 04 be d8 99 3c bd b4 b8 2e bb 30 c0 20 3d
       -0.12965198 -0.046045154 -0.0026660385 0.039245784
000390 35 6f b9 3d 60 08 b2 3d 47 35 6c bc a9 ee 51 bc
       0.09054414 0.08693004 -0.014416999 -0.012813249
0003a0 9e f3 9d bd 0a e1 64 bd 6b 9a 89 bd 05 0b 9c bd
       -0.07712482 -0.055878676 -0.06718906 -0.07619289
0003b0 bb 37 0c 3c 44 8e 09 3e 3e 8a b9 bd 3c 79 ae 3b
       0.008558209 0.13433176 -0.09059571 0.005324511
0003c0 d2 29 f2 3d 03 07 3e bc f5 c6 d7 3c 50 99 84 bd
       0.11824383 -0.011598351 0.026339987 -0.064745545
0003d0 bb 3b 9b bc 87 c4 94 3b d2 c9 00 bd 13 0a ad bd
       -0.01894938 0.0045400294 -0.03144247 -0.08449187
0003e0 64 f7 7a bd 80 d6 67 3d 11 06 a5 bd b4 1b 98 bd
       -0.061271086 0.056601048 -0.08057798 -0.07427159
0003f0 f8 38 b5 3d 9e 13 34 3c 7c 7c 6c 3d d4 60 24 3c
       0.088487566 0.010991005 0.057735905 0.010032851
