model_artifacts/dl_tcn_latest_35600_37100.pt (torch, 378521 bytes, 20 tensors)

net.0.weight f4 [64, 30, 3]
-0.07073939 -0.018216245 0.062070563 -0.08565413 -0.08026104 -0.03056355 -0.04131333 0.088341154
-0.0657699 0.021367574 0.1019189 0.0150184715 -0.0017445652 0.1048251 -0.009045741 0.046704568
-0.025477555 0.0046176026 -0.15168369 -0.052775875 0.09942227 -0.059251048 -0.071539104 -0.012476493
-0.0819045 -0.09821317 -0.017607767 -0.04421083 0.03362912 -0.05859462 0.02584018 0.021890283
-0.062225368 -0.06803655 0.026588436 0.037968747 -0.029267788 0.04257463 -0.07196742 0.013669325
-0.028513264 0.08004337 0.020893484 0.0081895515 0.02088844 -0.09405116 -0.07674098 0.085965075
-0.099837914 -0.07504289 -0.05267246 0.040606424 0.061750956 0.050619952 0.025827542 0.003987016
0.07098385 -0.02685242 0.048700556 0.04614771 0.024088167 0.022521768 0.06918851 0.020461561
-0.07539965 0.008565076 -0.10203454 -0.08872745 0.08878854 -0.059220225 -0.052177813 -0.03177681
0.10510438 -0.066964984 -0.008636115 -0.017360996 -0.07763615 -0.09505222 0.10970081 0.004481943
0.08781686 0.10976857 -0.0539271 -0.08220911 0.010287922 -0.09199437 0.0071438234 0.12331079
-0.0067978706 -0.05535302 -0.12949112 -0.047015682 0.068103455 0.031145494 0.038792245 -0.025705688
-0.14891618 -0.058626477 0.05742444 -0.09731788 -0.01030566 -0.04905222 -0.10844122 0.012673199
0.065175824 -0.15828718 -0.01777815 -0.07498181 -0.044177484 0.03826019 0.0379278 -0.040231247
0.075341634 -0.043330945 -0.08320568 -0.020658921 0.037169762 0.07800068 -0.008144885 -0.015596442
-0.06250147 0.052405104 -0.068257354 -0.09007901 -0.06345931 0.10221945 -0.077850245 0.07787987
0.06651085 0.023233162 -0.06353846 0.05664826 0.036699 -0.10448514 0.0831619 0.1142636
-0.08953839 0.06457166 -0.10588038 -0.07534524 0.017170362 0.07008402 0.022074338 -0.009226704
0.08468002 -0.023727015 0.018016722 -0.13217868 -0.07863372 0.07817962 -0.08448036 0.034558907
0.08115419 0.04410434 -0.030531175 0.06627131 0.017089464 0.008519873 0.006894272 -0.084409654
0.08577181 0.08487109 0.052490223 0.026820935 0.07764338 -0.059409797 0.08333438 -0.0036056046
-0.06160768 0.014032582 -0.013133554 0.07022013 -0.048575897 -0.031768493 -0.009211492 -0.08970496
-0.095660485 0.1342745 0.0719874 0.046136357 -0.12883446 -0.018713456 -0.0603797 -0.067598306
-0.010441437 -0.096883394 -0.089003175 0.06872305 -0.082782626 -0.063133 0.08558188 0.007626701
-0.08903809 -0.043601844 0.04865852 -0.1504135 -0.016431436 0.08202555 0.038377326 -0.034273803
0.073319964 0.1063855 -0.007369323 -0.07087842 0.037893865 -0.065507114 0.095748805 0.09361208
0.044722967 -0.09377439 0.029092884 0.053187847 0.03276696 -0.017417185 0.01758447 -0.0052658496
0.016067285 0.077011086 -0.013399683 -0.06039233 0.037711896 0.08343797 -0.07851179 -0.01821553
0.0727156 -0.0037046296 -0.049271043 -0.07928007 0.07257133 0.07164615 -0.070232965 -0.049246185
0.017723035 0.0712269 0.030833174 0.09118127 -0.0025774078 -0.073753856 -0.08000915 0.06425143
-0.07459534 0.09206744 0.042451017 0.0513252 0.060002394 -0.09036304 -0.09673988 0.089991294
0.0069088778 0.03365592 0.039987113 0.06476212 -0.036432743 0.052476913 0.06888089 0.09310631
00000000: d0df 90bd 3c3a 95bc b43d 7e3d 6f6b afbd
00000010: e65f a4bd 6960 fabc 2b38 29bd 35ec b43d
00000020: 5fb2 86bd 0d0b af3c dbba d03d 0910 763c
00000030: e5a9 e4ba 8bae d63d 9634 14bc 4a4d 3f3d
00000040: 4eb6 d0bc 424f 973b f852 1bbe 842b 58bd
00000050: e79d cb3d 3ab1 72bd 1883 92bd 346a 4cbc
00000060: 8cbd a7bd fd23 c9bd 2a3e 90bc 6a16 35bd
00000070: b0be 093d ea00 70bd c9ae d33c 4053 b33c
00000080: 07e0 7ebd bf56 8bbd fecf d93c 1e85 1b3d
00000090: 00c3 efbc bc62 2e3d a863 93bd 4ef5 5f3c
000000a0: a694 e9bc c7ed a33d d028 ab3c 782d 063c
000000b0: 3c1e ab3c e59d c0bd 602a 9dbd 750e b03d
000000c0: d277 ccbd 16b0 99bd 14bf 57bd ec52 263d
000000d0: 92ee 7c3d de56 4f3d 4894 d33c 84a5 823b
000000e0: fb5f 913d 9bf9 dbbc 3c7a 473d 6205 3d3d
000000f0: 8c54 c53c 927f b83c b5b2 8d3d 019f a73c
00000100: 226b 9abd 8854 0c3c 7cf7 d0bd bdb6 b5bd
00000110: c4d6 b53d e890 72bd 67b8 55bd 6628 02bd
00000120: f740 d73d f024 89bd 7e7e 0dbc a638 8ebc
00000130: b4ff 9ebd bdaa c2bd d1aa e03d 43dd 923b
00000140: 53d9 b33d 58ce e03d aae2 5cbd 405d a8bd
00000150: ac8e 283c 8b67 bcbd bc16 ea3b 5e8a fc3d
00000160: acc0 debb d9b9 62bd 5299 04be 8493 40bd
00000170: d379 8b3d d624 ff3c 9ee4 1e3d bc94 d2bc
00000180: 7c7d 18be 5122 70bd e435 6b3d 994e c7bd
00000190: 12d9 28bc fbea 48bd 6e16 debd 40a3 4f3c
000001a0: e77a 853d 0916 22be 7ca3 91bc 1090 99bd
000001b0: 73f3 34bd b8b6 1c3d 2e5a 1b3d 85c9 24bd
000001c0: b74c 9a3d ca7b 31bd bd67 aabd e63c a9bc
000001d0: 523f 183d d2be 9f3d 2072 05bc 3888 7fbc
000001e0: c500 80bd bca6 563d 83ca 8bbd 587b b8bd
000001f0: f4f6 81bd 6e58 d13d f36f 9fbd 7b7f 9f3d
00000200: d736 883d 7953 be3c 7420 82bd 0208 683d
00000210: b151 163d 4efc d5bd c950 aa3d 0903 ea3d
00000220: e75f b7bd 253e 843d d0d7 d8bd 9b4e 9abd
00000230: dca8 8c3c 3688 8f3d 3ed5 b43c 9a2b 17bc
00000240: b86c ad3d 285f c2bc ce97 933c d959 07be
00000250: b70a a1bd a31c a03d 0a04 adbd a48d 0d3d
00000260: 2b34 a63d c1a6 343d 841c fabc 41b9 873d
00000270: 34ff 8b3c f096 0b3c 58e9 e13b f8de acbd
00000280: 21a9 af3d e5d0 ad3d fdff 563d 94b7 db3c
00000290: 7e03 9f3d b057 73bd 37ab aa3d 024c 6cbb
000002a0: 5658 7cbd eae8 653c 1e2e 57bc 92cf 8f3d
000002b0: 85f7 46bd ae1f 02bd cceb 16bc 3cb7 b7bd
000002c0: a5e9 c3bd 417f 093e 216e 933d 7af9 3c3d
000002d0: 2eed 03be f64c 99bc b450 77bd fb70 8abd
000002e0: 9012 2bbc cd6a c6bd 4c47 b6bd acbe 8c3d
000002f0: f089 a9bd e04b 81bd 8d45 af3d 68e9 f93b
00000300: 9a59 b6bd d997 32bd 284e 473d ff05 1abe
00000310: 389b 86bc 03fd a73d 8b31 1d3d b062 0cbd
00000320: c728 963d a4e0 d93d 5d7a f1bb b428 91bd
00000330: 9936 1b3d 9828 86bd f317 c43d b1b7 bf3d
00000340: 6e2f 373d ca0c c0bd 3354 ee3c 80db 593d
00000350: a636 063d 7cae 8ebc 4e0d 903c 268d acbb
00000360: 8a9f 833c fdb7 9d3d 588a 5bbc f35d 77bd
00000370: ca77 1a3d 87e1 aa3d caca a0bd bc38 95bc
00000380: ebeb 943d 5fc9 72bb 6fd0 49bd 975d a2bd
00000390: 47a0 943d 37bb 923d 4dd6 8fbd 5eb6 49bd
000003a0: e62f 913c 69df 913d da95 fc3c 3fbd ba3d
000003b0: bae9 28bb 430c 97bd d6db a3bd 4196 833d
000003c0: 71c5 98bd db8d bc3d 1ee1 2d3d 5f3a 523d
000003d0: 12c5 753d 4210 b9bd 8f1f c6bd 5b4d b83d
000003e0: de63 e23b cada 093d 87c9 233d 01a2 843d
000003f0: 803a 15bd 08f2 563d 6d11 8d3d 85ae be3d

net.0.bias f4 [64]
0.103704125 0.033179477 0.14790297 0.027618233 0.06638905 0.10921856 0.028565584 0.11103835
0.040489245 0.082741104 -0.016691992 -0.0046465425 0.12349955 -0.052858822 0.12821406 0.018887864
0.1066699 0.12883015 0.056299407 0.11415628 0.0727821 -0.012144637 -0.015524536 0.093397655
0.13316245 0.054799348 0.10970351 0.058974702 0.037317865 0.09790364 0.08282877 0.013654932
-0.028841104 -0.06440399 0.11236901 0.14168179 -0.030159196 0.061900936 0.12990895 -0.023274217
-0.0144750355 0.050203133 0.01555391 0.12524939 0.11038332 0.14351544 0.00978758 -0.06394095
-0.023754884 0.04903882 0.023558844 -0.011786485 0.108290255 0.10151539 0.114759155 0.08986036
0.05158384 0.09473509 0.1233179 0.025228878 0.06648832 0.110649236 0.13456208 0.12381491
00000000: d462 d43d 34e7 073d e073 173e a23f e23c
00000010: fbf6 873d fbad df3d 5f02 ea3c 1368 e33d
00000020: 0dd8 253d 2b74 a93d a5bd 88bc 0642 98bb
00000030: 55ed fc3d 7e82 58bd 8c4a 033e b9ba 9a3c
00000040: c075 da3d 0dec 033e 359a 663d c5ca e93d
00000050: c80e 953d 4dfa 46bc a05a 7ebc 4547 bf3d
00000060: bd5b 083e 4875 603d 3cac e03d 758f 713d
00000070: 9eda 183d b481 c83d 21a2 a93d f0b8 5f3c
00000080: 2e44 ecbc 3de6 83bd b921 e63d 0815 113e
00000090: 6b10 f7bc d68b 7d3d da06 053e 92a9 bebc
000000a0: b328 6dbc cda1 4d3d d4d5 7e3c 6041 003e
000000b0: a610 e23d b6f5 123e 165c 203c 79f3 82bd
000000c0: 9a99 c2bc eedc 483d 7afe c03c 1a1c 41bc
000000d0: 48c7 dd3d 4de7 cf3d d906 eb3d b508 b83d
000000e0: 9449 533d 7904 c23d 188e fc3d cbac ce3c
000000f0: 072b 883d 119c e23d a4ca 093e ac92 fd3d

net.3.weight f4 [64, 64, 3]
0.015176976 0.06158805 -0.06810549 0.10411533 0.0601864 0.05629248 0.114700526 -0.03339145
0.0009306781 0.06401825 0.0023769373 0.009866681 0.07015194 -0.05633013 0.021650393 -0.02973944
-0.042930722 0.06285642 0.089735344 0.03419844 0.05487439 0.014599481 0.030588018 -0.0033305348
0.056056187 0.03323807 -0.02512667 0.040329523 -0.0043095937 0.06702678 0.059176564 -0.028390702
0.05024939 -0.032040387 0.017162248 0.044673882 0.098556794 -0.04011058 0.04790058 -0.038939353
-0.0651681 0.018339556 -0.013348247 -0.045486633 -0.022535827 0.03159497 -0.015856322 0.059848376
0.09626325 -0.003551682 0.06611541 0.099889554 -0.038660202 0.040120937 0.03490536 -0.062680945
0.014609491 0.018949782 -0.048084334 -0.034857642 0.07430141 0.029836105 -0.0200946 0.058983803
-0.070151724 0.025481898 0.08107922 -0.06921673 -0.05443923 0.03597691 -0.027616734 0.047663115
0.070706606 0.0120080095 0.05556905 0.11642578 0.0023602927 -0.043852936 0.035550397 0.06459148
0.0098405 0.022871712 -0.046056822 -0.07115603 -0.015456624 0.03800367 -0.015683021 0.08127642
0.06044492 -0.059203066 0.044324532 -0.06512055 0.034057394 0.09934871 0.009094488 0.055954903
-0.0009614573 0.060956404 -0.025765594 0.010477295 -0.0065503856 0.05134709 0.0275855 -0.06741293
-0.014772901 0.071797155 -0.005309155 -0.028520714 -0.00061363383 -0.024655912 -0.029561311 0.052012134
-0.05614453 0.019727334 0.017492488 0.037038386 -0.014200272 -0.0070603495 -0.055901185 0.021908768
0.11298952 0.046512358 0.0038523236 -0.021869773 -0.01710571 0.05465477 0.013883935 0.02412697
-0.0038194312 0.03122926 0.03574977 -0.0062748315 0.107065074 0.016094249 0.039760143 0.10946688
0.0038669843 0.04058338 0.06696889 -0.023631502 0.034962215 0.095402 0.009209679 -0.026737299
0.049877543 -0.053436555 0.040833525 0.09635637 0.044193335 0.009294413 0.045677267 0.04426027
0.033763163 0.0031274245 -0.018784456 0.05819486 0.004660008 -0.07161572 -0.043409884 -0.010723625
-0.0017563005 -0.05528695 0.002427857 -0.019494534 0.06235616 0.05135936 -0.011368256 -0.03241019
0.071655706 0.017419674 0.03512933 0.08475932 0.018206753 0.0023234617 0.09667313 -0.029468745
0.056020416 0.01649961 -0.050283875 -0.06530509 0.07627882 0.03330502 0.03550811 0.06864127
-0.030509334 0.0024564555 0.107158 0.044494875 -0.015696626 0.08354499 0.02254561 0.023792647
0.060420554 0.0325354 -0.009117316 0.0080011925 -0.051824577 0.045578085 -0.013471636 0.009725345
-0.046128977 0.045899972 -0.033646468 0.046846986 0.066065535 -0.056430317 -0.034534615 0.06032593
0.069025025 -0.017520659 -0.03735483 0.013603408 0.012680037 0.06833287 0.024377469 0.054607727
0.053588133 0.046831533 0.026292797 0.0940146 -0.044408288 -0.034726724 -0.0039361995 -0.0658678
-0.0012301649 -0.0024736754 -0.0073856534 0.002602972 -0.061368242 0.058221854 -0.01574535 0.07186662
-0.014248615 0.055797428 0.0709564 -0.053857736 -0.068981566 0.019823655 0.018577404 -0.03782998
0.0067070327 0.012792181 -0.0056477734 0.023179334 -0.022468507 -0.04024905 -0.00724807 0.070913166
-0.057764035 0.07113036 -0.0004363713 0.056431517 -0.03158894 0.069248796 -0.023802377 0.07633131
00000000: daa8 783c c043 7c3d e47a 8bbd 6b3a d53d
00000010: 0486 763d f292 663d 1ce8 ea3d 79c5 08bd
00000020: c0f8 733a 001c 833d 64c6 1b3b dca7 213c
00000030: d2ab 8f3d 6cba 66bd 2a5c b13c 20a0 f3bc
00000040: 20d8 2fbd deba 803d 2ac7 b73d aa13 0c3d
00000050: f8c3 603d a932 6f3c b993 fa3c 1a45 5abb
00000060: 2c9b 653d a424 083d 72d6 cdbc 9230 253d
00000070: 7e37 8dbb 5645 893d 2063 723d 9e93 e8bc
00000080: 4ed2 4d3d c83c 03bd d897 8c3c f6fb 363d
00000090: 25d8 c93d fe4a 24bd 6633 443d df7e 1fbd
000000a0: da76 85bd d63c 963c 9bb2 5abc 3150 3abd
000000b0: 0e9d b8bc ba69 013d 1ee5 81bc 9223 753d
000000c0: ab25 c53d 56c3 68bb 8467 873d e592 cc3d
000000d0: 295a 1ebd da55 243d ecf8 0e3d de5e 80bd
000000e0: a65c 6f3c 933c 9b3c 14f4 44bd e3c6 0ebd
000000f0: 562b 983d d96a f43c 6e9d a4bc 0099 713d
00000100: b5ab 8fbd 6abf d03c dd0c a63d 80c1 8dbd
00000110: acfb 5ebd 865c 133d 7d3c e2bc 663a 433d
00000120: a0ce 903d 3ebd 443c 5f9c 633d a470 ee3d
00000130: 24af 1a3b 239f 33bd 4b9d 113d 8a48 843d
00000140: 0c3a 213c 755d bb3c 14a6 3cbd 41ba 91bd
00000150: c83d 7dbc bca9 1b3d ae79 80bc 4074 a63d
00000160: 1895 773d ea7e 72bd a48d 353d ec5d 85bd
00000170: c47f 0b3d 5677 cb3d 0c01 153c f830 653d
00000180: 4f0a 7cba 6cad 793d 5e12 d3bc f6a8 2b3c
00000190: 9ea4 d6bb 5451 523d fdfa e13c ca0f 8abd
000001a0: 0a0a 72bc 630a 933d 6cf8 adbb 46a4 e9bc
000001b0: 45dc 20ba 32fb c9bc 902a f2bc ad0a 553d
000001c0: cff7 65bd 389b a13c 684c 8f3c 90b5 173d
000001d0: 42a8 68bc 815a e7bb a4f8 64bd 047a b33c
000001e0: 0d67 e73d be83 3e3d 4477 7c3b 3d28 b3bc
000001f0: 4621 8cbc aedd 5f3d 7279 633c eca5 c53c
00000200: 6c4f 7abb 81d4 ff3c 5a6e 123d 1a9d cdbb
00000210: ef44 db3d 16d8 833c 88db 223d 2c30 e03d
00000220: 3b6d 7d3b c23a 263d fc26 893d da96 c1bc
00000230: 8a34 0f3d 2062 c33d 32e4 163c 2e08 dbbc
00000240: 654c 4c3d 4ae0 5abd 0e41 273d 7d56 c53d
00000250: 1204 353d 9847 183c 1618 3b3d 424a 353d
00000260: 3e4b 0a3d 7af5 4c3b dce1 99bc bc5d 6e3d
00000270: fbb2 983b 43ab 92bd 90ce 31bd 25b2 2fbc
00000280: aa33 e6ba 9274 62bd ae1c 1f3b 00b3 9fbc
00000290: 2c69 7f3d 315e 523d ec41 3abc 8cc0 04bd
000002a0: 3ac0 923d b4b3 8e3c c6e3 0f3d 4b96 ad3d
000002b0: 5426 953c 3845 183b 90fc c53d 7068 f1bc
000002c0: aa75 653d 312a 873c 77f6 4dbd adbe 85bd
000002d0: 1238 9c3d d86a 083d f470 113d cb93 8c3d
000002e0: b6ee f9bc 7cfc 203b a775 db3d 4240 363d
000002f0: 3696 80bc a319 ab3d 92b1 b83c cce8 c23c
00000300: 8b7b 773d d743 053d cc60 15bc 6f17 033c
00000310: 0246 54bd 16b0 3a3d 23b8 5cbc 0e57 1f3c
00000320: bdf1 3cbd 9c01 3c3d e1d0 09bd a0e2 3f3d
00000330: 5e4d 873d 7a23 67bd 2b74 0dbd 5318 773d
00000340: fe5c 8d3d 7c87 8fbc 6101 19bd d4e0 5e3c
00000350: eebf 4f3c 1bf2 8b3d 42b3 c73c 5aac 5f3d
00000360: 3b7f 5b3d 6cd2 3f3d fe63 d73c ba8a c03d
00000370: 77e5 35bd 9c3d 0ebd 3cfb 80bb b2e5 86bd
00000380: 7c3d a1ba 631d 22bb 5a03 f2bb a096 2a3b
00000390: 445d 7bbd 0a7a 6e3d 64fc 80bc ce2e 933d
000003a0: 0673 69bc d88b 643d 9751 913d ee99 5cbd
000003b0: 3546 8dbd 3865 a23c a42f 983c 9cf3 1abd
000003c0: abc6 db3b 4c96 513c f510 b9bb 96e2 bd3c
000003d0: e00f b8bc 30dc 24bd 3881 edbb ec3a 913d
000003e0: fb99 6cbd cbac 913d c4c8 e4b9 bc24 673d
000003f0: 6863 01bd 50d2 8d3d 34fd c2bc 9753 9c3d

net.3.bias f4 [64]
0.10721064 -0.01179277 0.04550069 -0.06353798 0.02370661 0.0580929 0.059082028 -0.0051834728
0.07543617 -0.002400281 -0.022373138 0.11352468 0.06318554 0.063715935 0.063170746 0.10557009
0.08071119 0.102870815 0.09488054 0.06691572 0.08259383 0.045620654 0.028322577 0.050731517
0.056537047 -0.003800825 -0.025020828 -0.05119198 -0.024277687 0.06846358 0.028553963 0.10657777
0.06508253 0.0885921 0.0447308 0.06628764 0.09489742 0.053862695 0.01048527 0.066973835
-0.056548603 0.030944357 0.034999784 -0.010186179 0.07190989 0.048563045 0.10756627 -0.015756343
0.013857574 0.10041134 0.04149949 -0.029708141 -0.008980038 0.08494328 0.089464165 0.12074608
0.086903654 -0.0020001624 -0.002772592 0.021767693 -0.011305761 0.017211698 -0.046805926 -0.010790791
00000000: 4191 db3d 7636 41bc ee5e 3a3d 3320 82bd
00000010: 5d34 c23c d2f2 6d3d ffff 713d 1fda a9bb
00000020: 477e 9a3d 084e 1dbb df47 b7bc a17f e83d
00000030: 6c67 813d 807d 823d aa5f 813d 2235 d83d
00000040: e94b a53d efad d23d bb50 c23d 1c0b 893d
00000050: f426 a93d b9dc 3a3d c004 e83c dacb 4f3d
00000060: 6493 673d 4317 79bb 7bf8 ccbc aeae 51bd
00000070: 00e2 c6bc a236 8c3d 00ea e93c 7245 da3d
00000080: fd49 853d c66f b53d a537 373d d0c1 873d
00000090: 9459 c23d 219f 5c3d 69ca 2b3c 9429 893d
000000a0: 829f 67bd 057f fd3c ef5b 0f3d eee3 26bc
000000b0: 7e45 933d 0bea 463d b44b dc3d 7213 81bc
000000c0: e10a 633c 76a4 cd3d 5ffb 293d 7d5e f3bc
000000d0: 0221 13bc bef6 ad3d fd38 b73d b949 f73d
000000e0: 8bfa b13d 2815 03bb 60b4 35bb 2952 b23c
000000f0: cc3b 39bc 8cff 8c3c 92b7 3fbd dccb 30bc

net.6.weight f4 [64, 64, 3]
-0.052548632 -0.031340797 0.058156926 -0.046582427 -0.03992049 0.06842311 0.035090014 -0.0113177635
0.0042124474 0.043192066 -0.002892346 0.05254788 0.035356943 0.05335544 0.051075753 -0.026713356
0.020634618 -0.01472958 -0.05000307 -0.0253802 0.06607786 -0.053478763 -0.030183919 -0.028749812
0.05125561 -0.045052066 -0.011618478 0.025418147 -0.061322615 -0.0424816 -0.06704796 0.060155228
0.0045384895 -0.059458986 0.010847999 -0.032384638 -0.020756628 -0.045801066 -0.052242633 -0.0022328629
-0.060048696 -0.007600862 0.047187805 -0.025496293 -0.048177388 0.0123423105 0.044636406 0.009433347
-0.02877041 -0.058261275 -0.05057756 0.027202163 0.039341033 0.00988939 -0.031485394 0.014721225
0.025992282 -0.061721686 0.06196692 0.022858966 -0.07332502 -0.049892575 -0.059940457 -0.057675835
-0.059419878 0.046471283 0.057609238 -0.027587961 0.011815565 0.062198322 -0.01821034 -0.045764036
-0.0303278 -0.06516817 0.022729188 0.015891645 0.054377183 -0.04648325 0.021422582 0.03814009
-0.07031962 -0.051529754 0.035829216 0.008049676 0.053139072 0.057697855 0.0017146543 -0.043789733
0.02466024 -0.010150177 -0.062420018 0.047349118 -0.022060104 -0.07689874 0.06685844 0.016339764
-0.037856992 -0.03529319 -0.027900528 0.04946433 -0.05145784 0.063687995 -0.029233389 0.04311928
0.07111369 0.06842154 -0.041294467 0.030755993 0.03474839 -0.066445306 -0.057361107 0.045030292
0.033764713 -0.036371067 -0.0679289 -0.011463022 0.0048171952 -0.0025819838 -0.016624602 0.0134456735
-0.025504839 -0.028432745 -0.06658099 -0.07293197 -0.030469254 -0.024769843 0.0023970553 0.05468584
-0.00066770345 0.005945966 -0.035236124 0.043907978 -0.052345306 0.027171746 0.0032383134 -0.036827907
-0.02827181 -0.03138591 0.056535162 0.036504112 -0.013286656 0.030643268 0.008946322 -0.056709614
-0.048459496 0.03601914 0.06808016 -0.046368863 -0.027883288 0.02562353 0.06663278 -0.04225886
0.005635853 -0.06428294 -0.051080115 0.06729965 -0.0771262 0.026864288 0.06318651 -0.06823861
0.04329384 -0.044326477 -0.04116957 -0.012388142 0.071191 0.0073019504 -0.04486996 0.019855138
-0.025180725 0.05281812 -0.029529233 0.015331219 0.008918859 -0.050303508 0.0495861 -0.030434635
-0.004894207 0.05559613 -0.03237279 0.024781387 0.017334757 0.03859376 -0.034105178 -0.03272349
-0.028962221 -0.040395606 0.04643977 -0.034681723 0.021415856 -0.057760287 0.0118698105 -0.029135574
0.005775481 0.010870023 -0.06478045 -0.047895886 -0.017813481 0.00505866 -0.02909987 0.01441198
0.0486817 -0.0052509336 0.022774337 0.013032854 -0.0685899 -0.03664144 -0.054523095 -0.00319302
0.07178989 -0.06363942 0.059622105 0.0024784585 0.02998769 -0.07550193 -0.02758473 0.03794188
-0.053396024 -0.03336442 0.044539288 0.054831367 -0.04669103 -0.024872374 -0.03793841 -0.040583417
-0.046779152 0.023930361 -0.044579454 -0.013411995 -0.038354523 -0.06891192 0.027040321 0.03151948
-0.056797225 0.028029729 0.05975 -0.060740463 0.038026236 -0.07452613 -0.034414895 -0.07158881
-0.0526618 -0.058935158 0.001779488 0.0057906755 0.067682594 0.03218226 -0.0038758547 0.018769171
0.053640887 0.037421074 0.022470247 -0.06472834 0.003701294 -0.02323652 -0.014000906 -0.053923566
00000000: 3c3d 57bd 355f 00bd f535 6e3d 37cd 3ebd
00000010: ab83 23bd 6a21 8c3d 8cba 0f3d 246e 39bc
00000020: 9208 8a3b 2aea 303d 838d 3dbb 723c 573d
00000030: 71d2 103d 3c8b 5a3d cf34 513d f8d5 dabc
00000040: ee09 a93c 5654 71bc 05d0 4cbd 23ea cfbc
00000050: d453 873d 8c0c 5bbd 4444 f7bc ba84 ebbc
00000060: 67f1 513d 8488 38bd 6e5b 3ebc b839 d03c
00000070: 6c2d 7bbd 3001 2ebd 7150 89bd 5465 763d
00000080: 9cb7 943b 448b 73bd cebb 313c c1a5 04bd
00000090: ce09 aabc e699 3bbd 5ffc 55bd 3955 12bb
000000a0: 9ff5 75bd a710 f9bb 0048 413d 9add d0bc
000000b0: a755 45bd 6737 4a3c aad4 363d 538e 1a3c
000000c0: ecaf ebbc 60a3 6ebd 6a2a 4fbd 12d7 de3c
000000d0: 1024 213d 1c07 223c d4f6 00bd 4b31 713c
000000e0: c4ed d43c e1cf 7cbd 06d1 7d3d ba42 bb3c
000000f0: 6e2b 96bd 285c 4cbd 2084 75bd 7f3d 6cbd
00000100: 4262 73bd ac58 3e3d aaf7 6b3d 2600 e2bc
00000110: 1296 413c abc3 7e3d da2d 95bc 1273 3bbd
00000120: 0272 f8bc e476 85bd 9032 ba3c 322f 823c
00000130: 9cba 5e3d 3865 3ebd 697e af3c c838 1c3d
00000140: bc03 90bd dd10 53bd a8c1 123d cae2 033c
00000150: 5ba8 593d 9654 6c3d 40be e03a dd5c 33bd
00000160: 4604 ca3c ee4c 26bc 22ac 7fbd 26f1 413d
00000170: 64b7 b4bc 167d 9dbd 14ed 883d f8da 853c
00000180: ef0f 1bbd 988f 10bd a68f e4bc 1c9b 4a3d
00000190: 75c5 52bd da6e 823d dc7a efbc d89d 303d
000001a0: 0ea4 913d 9820 8c3d 6324 29bd fef3 fb3c
000001b0: 5454 0e3d 7a14 88bd 7bf3 6abd af71 383d
000001c0: de4c 0a3d d4f9 14bd 4f1e 8bbd 66cf 3bbc
000001d0: 90d9 9d3b 8036 29bb 5130 88bc 3e4b 5c3c
000001e0: 86ef d0bc caeb e8bc 9d5b 88bd 5b5d 95bd
000001f0: a89a f9bc 20ea cabc ea17 1d3b 42fe 5f3d
00000200: d208 2fba 61d6 c23b c153 10bd dad8 333d
00000210: 0868 56bd 4897 de3c e239 543b dcd8 16bd
00000220: 489a e7bc 838e 00bd 6a91 673d 5685 153d
00000230: 46b0 59bc 9707 fb3c 9893 123c 5748 68bd
00000240: 777d 46bd ce88 133d 9c6d 8b3d 47ed 3dbd
00000250: 7e6b e4bc 70e8 d13c c476 883d a017 2dbd
00000260: f6ac b83b c6a6 83bd 6239 51bd 66d4 893d
00000270: 57f4 9dbd 7f12 dc3c ee67 813d afc0 8bbd
00000280: e254 313d ae8f 35bd 6ca1 28bd a2f7 4abc
00000290: 96cc 913d 3345 ef3b 90c9 37bd 3ea7 a23c
000002a0: cf47 cebc d057 583d 4ae7 f1bc cb2f 7b3c
000002b0: 6820 123c 0d0b 4ebd cb1a 4b3d 0e52 f9bc
000002c0: 965f a0bb c5b8 633d 5599 04bd 5602 cb3c
000002d0: 9f01 8e3c 7e14 1e3d dfb1 0bbd 1109 06bd
000002e0: 2e42 edbc dd75 25bd a137 3e3d 6c0e 0ebd
000002f0: 4e70 af3c 0d96 6cbd 9879 423c baad eebc
00000300: 3f40 bd3b 2e18 323c 9dab 84bd 7a2e 44bd
00000310: 94ed 91bc 1ec3 a53b da62 eebc 3a20 6c3c
00000320: 7666 473d 0610 acbb 3f91 ba3c c087 553c
00000330: dd78 8cbd 5615 16bd 9c53 5fbd fc41 51bb
00000340: 9406 933d 6255 82bd 4f36 743d a26d 223b
00000350: bea8 f53c c2a0 9abd 5ff9 e1bc f268 1b3d
00000360: cab5 5abd 21a9 08bd d46e 363d db96 603d
00000370: 183f 3fbd 26c1 cbbc 4e65 1bbd cc3a 26bd
00000380: 7f9b 3fbd 9b09 c43c f298 36bd fcbd 5bbc
00000390: a219 1dbd b121 8dbd aa83 dd3c 921a 013d
000003a0: 35a4 68bd 9a9e e53c 6abc 743d feca 78bd
000003b0: 66c1 1b3d 28a1 98bd a2f6 0cbd 279d 92bd
000003c0: e6b3 57bd fe65 71bd b63d e93a b5bf bd3b
000003d0: 2c9d 8a3d 8cd1 033d 0d02 7ebb cec1 993c
000003e0: 8cb6 5b3d d746 193d 8613 b83c 4b90 84bd
000003f0: 6991 723b 845a bebc 0e64 65bc f5de 5cbd

net.6.bias f4 [64]
-0.0027334853 0.042402055 -0.021180853 0.016666947 0.08365823 -0.023410035 7.805445e-05 0.040134586
-0.08280647 -0.03652784 0.0012248798 -0.07633748 0.009198176 0.035497434 0.007129388 0.094251126
0.014089516 0.04437086 -0.035789166 0.07231574 -0.007645697 0.04354973 0.02213049 -0.00015558556
0.1047696 0.03844983 -0.0006346831 -0.052243162 0.11013727 0.0015527885 0.06482557 0.0140500795
-0.04779537 0.0017957748 0.07805266 0.00962826 0.024233079 -0.07324202 0.123450056 0.006126985
0.005620367 -0.05247638 0.10953008 0.035325654 -0.05978884 0.08324461 0.08716908 0.09401201
0.032414418 0.09805401 0.023113031 -0.06368131 0.06119821 -0.0027775317 -0.023273265 0.13052711
-0.05579299 0.08188358 0.1163188 0.028613115 0.07929295 0.013898247 0.058613073 -0.016001197
00000000: 4624 33bb c7ad 2d3d 7883 adbc 1f89 883c
00000010: 0255 ab3d 67c6 bfbc 2ab1 a338 2a64 243d
00000020: 7096 a9bd 379e 15bd 258c a03a d356 9cbd
00000030: f2b3 163c c265 113d a49d e93b bc06 c13d
00000040: b7d7 663c 38be 353d a997 12bd 461a 943d
00000050: c188 fabb 3461 323d 004b b53c ae24 23b9
00000060: 7291 d63d 927d 1d3d dd60 26ba edfc 55bd
00000070: a68f e13d f086 cb3a 45c3 843d 4e32 663c
00000080: 14c5 43bd 3460 eb3a 13da 9f3d d9bf 1d3c
00000090: 7384 c63c eaff 95bd 62d3 fc3d e0c4 c83b
000000a0: 0e2b b83b 79f1 56bd 4e51 e03d a2b1 103d
000000b0: 25e5 74bd 267c aa3d b485 b23d 5e89 c03d
000000c0: fbc4 043d 8ad0 c83d 8a57 bd3c 596b 82bd
000000d0: f9aa 7a3d 4007 36bb 93a7 bebc e6a8 053e
000000e0: 3187 64bd 94b2 a73d 8d38 ee3d 0d66 ea3c
000000f0: 5864 a23d 79b5 633c 4314 703d f114 83bc

net.9.weight f4 [64, 64, 3]
-0.013334288 0.04759536 -0.028868854 -0.010634774 -0.014349824 -0.018540379 0.06385742 -0.030170504
-0.06575536 -0.0019381066 0.059059776 0.03321828 0.047576673 0.012706025 0.0691625 0.04915769
-0.0042377347 -0.06056299 0.097342834 -0.016722716 -0.05510132 -0.00084610167 -0.04991827 -0.06126147
-0.0033699095 -0.032221522 0.057496183 -0.03401136 -0.007168373 -0.001688563 0.06190864 -0.010509992
0.02311176 -0.04534937 0.061440878 -0.004509787 -0.007815952 -0.046166625 -0.06237807 0.07989928
0.043144584 0.06019482 0.09117975 -0.051778827 -0.03476899 0.035963148 -0.054038852 -0.0033469573
0.014178601 -0.01893625 -0.035016123 -0.0049767927 -0.052889965 0.018199988 0.04493291 0.029044382
0.036360726 -0.0066443356 -0.0015403334 -0.034738608 0.022037432 0.0017048216 0.051041342 -0.018093362
0.0510576 0.00033422426 -0.004953129 0.00048766984 0.028189294 0.09096099 -0.0071376283 0.008257275
0.015741622 0.0340413 -0.028251834 0.08969496 0.05206863 -0.009724481 0.08082728 -0.051908232
-0.015209533 0.06347688 -0.030644342 -0.03531956 0.069835454 0.034729376 0.014236813 0.06695243
-0.005397808 0.02856177 0.026477978 -0.034439053 -0.06787935 0.050075334 0.01801737 -0.031557634
-0.032363676 0.048948817 0.036018893 0.063237116 -0.055968136 0.049922816 0.09622157 0.01344317
0.017853528 0.01466414 0.047237128 -0.057655495 -0.048792716 -0.010858415 -0.056068152 0.048107803
0.056536347 -0.017692111 0.045766585 -0.055928916 -0.040121466 0.0005061776 0.007553553 -0.016071636
0.024224134 0.00038606668 -0.00019561793 -0.023224458 -0.022450097 0.00937566 -0.020163286 -0.04649347
0.00864104 -0.014238684 -0.06261153 -0.06263189 -0.053370636 -0.0100662075 -0.00493904 -0.019516474
-0.025008522 -0.06458459 0.021496648 0.042196542 0.037821412 -0.023378292 -0.026187073 0.02918775
0.040465623 -0.02280049 -0.031780656 0.03729027 -0.04866772 0.009622858 -0.009893607 0.016663179
0.03776799 -0.025273679 0.022211876 0.048757598 0.07276091 0.03592713 0.017496005 -0.023505539
-0.04373964 -0.017214399 -0.019225322 -0.05639179 0.064264305 0.07785351 0.06937075 0.061103553
-0.046308532 0.055068538 0.038615778 0.057453934 0.021725778 0.046543576 0.068058446 -0.07173914
-0.033059925 0.012423234 0.06166567 0.034681328 0.046848536 -0.055183336 -0.014432805 0.08408706
0.016978014 0.027006093 0.04905017 0.04973454 -0.025682688 0.096123666 0.04975813 -0.037988365
-0.048715677 0.0495568 -0.03373939 0.07212559 0.028147632 -0.06690107 -0.044139028 -0.041729435
-0.04766599 -0.038929984 0.07049623 0.014365758 -0.024833618 -0.0337588 0.04917957 0.059050262
0.027351964 -0.06903233 0.03121 -0.05508955 0.0024127252 0.01600717 0.011770578 -0.022428151
0.016020857 0.039812505 -0.02843666 0.04708972 -0.067638665 0.058291905 0.050022542 -0.004127356
-0.029456409 -0.033497732 -0.050242297 0.008978261 -0.05308448 0.020941902 0.005648128 0.07722937
0.028621703 0.07146612 0.097546175 -0.069179215 -0.006167873 0.10452047 0.0141206905 -0.01871571
-0.02047976 -0.03428342 -0.05512671 0.09745852 0.012753157 0.018040437 -0.029865436 0.034403272
0.03821692 -0.0064922767 -0.025126945 -0.051457055 0.068131715 -0.04323135 0.06531334 0.04909322
00000000: 0f78 5abc 5af3 423d 607e ecbc 7a3d 2ebc
00000010: 861b 6bbc fee1 97bc aec7 823d 2228 f7bc
00000020: bfaa 86bd 1108 feba aae8 713d e40f 083d
00000030: c2df 423d ee2c 503c 12a5 8d3d 9359 493d
00000040: b2dc 8abb e610 78bd ae5b c73d 14fe 88bc
00000050: ecb1 61bd eccc 5dba 1a77 4cbd 4fed 7abd
00000060: b3d9 5cbb b7fa 03bd 1e81 6b3d 7f4f 0bbd
00000070: ace4 eabb c652 ddba ea93 7d3d 1a32 2cbc
00000080: e054 bd3c 43c0 39bd 6ea9 7b3d d6c6 93bb
00000090: 7b0e 00bc 3719 3dbd 2680 7fbd 3ca2 a33d
000000a0: 60b8 303d d88e 763d 73bc ba3d 0916 54bd
000000b0: ee69 0ebd 184e 133d d857 5dbd a058 5bbb
000000c0: 5d4d 683c 3220 9bbc 116d 0fbd 5d14 a3bb
000000d0: 26a3 58bd 2418 953c 920b 383d 7cee ed3c
000000e0: fcee 143d bab8 d9bb 03e5 c9ba 124a 0ebd
000000f0: d887 b43c 5274 df3a ba10 513d 8838 94bc
00000100: c621 513d d23a af39 dc4d a2bb f0ad ff39
00000110: 3ced e63c c149 ba3d c4e2 e9bb 8649 073c
00000120: 93f4 803c e46e 0b3d 6470 e7bc feb1 b73d
00000130: ea45 553d 6e53 1fbc c688 a53d ba9d 54bd
00000140: 6831 79bc 2b00 823d d809 fbbc 3eab 10bd
00000150: e405 8f3d 6440 0e3d 8641 693c 5b1e 893d
00000160: 18e0 b0bb 60fa e93c 58e8 d83c f70f 0dbd
00000170: 5404 8bbd cb1b 4d3d 2a99 933c 9442 01bd
00000180: c68f 04bd 8e7e 483d 8c88 133d 7682 813d
00000190: d83e 65bd de7b 4c3d d10f c53d be40 5c3c
000001a0: 9041 923c dc41 703c b87b 413d 2b28 6cbd
000001b0: dfda 47bd 7ee7 31bc b8a7 65bd b00c 453d
000001c0: a892 673d 0cef 90bc be75 3b3d b815 65bd
000001d0: 6856 24bd 01b1 043a cc83 f73b aaa8 83bc
000001e0: b171 c63c fe68 ca39 ca1e 4db9 3841 bebc
000001f0: 44e9 b7bc 5e9c 193c 7a2d a5bc f06f 3ebd
00000200: 2693 0d3c 5f49 69bc 793a 80bd 2645 80bd
00000210: 2b9b 5abd bcec 24bc acd7 a1bb 03e1 9fbc
00000220: acde ccbc ed44 84bd bd19 b03c 48d6 2c3d
00000230: a0ea 1a3d d583 bfbc 4686 d6bc 261b ef3c
00000240: 48bf 253d 18c8 babc 6f2c 02bd afbd 183d
00000250: ce57 47bd 31a9 1d3c cc18 22bc 3881 883c
00000260: 9cb2 1a3d bf0a cfbc aef5 b53c 0cb6 473d
00000270: ac03 953d 5428 133d c853 8f3c b08e c0bc
00000280: 5628 33bd 3605 8dbc 6c7e 9dbc 14fb 66bd
00000290: 019d 833d a971 9f3d 4012 8e3d b847 7a3d
000002a0: 04ae 3dbd 8c8f 613d 942b 1e3d d154 6b3d
000002b0: 42fa b13c 7aa4 3e3d 3a62 8b3d f8eb 92bd
000002c0: d869 07bd d28a 4b3c 2495 7c3d 020e 0e3d
000002d0: 40e4 3f3d ec07 62bd 9277 6cbc d635 ac3d
000002e0: 7a15 8b3c e23b dd3c d5e8 483d 72b6 4b3d
000002f0: 8064 d2bc 7cdc c43d 2ecf 4b3d b099 1bbd
00000300: 178a 47bd 12fc 4a3d 5132 0abd 95b6 933d
00000310: dd95 e63c 6e03 89bd 20cb 34bd 7cec 2abd
00000320: 6a3d 43bd 0c75 1fbd 5460 903d 5b5e 6b3c
00000330: df6f cbbc ab46 0abd 8470 493d b0de 713d
00000340: 3a11 e03c d260 8dbd 1dac ff3c 94a5 61bd
00000350: d01e 1e3b 7821 833c 62d9 403c 3ebb b7bc
00000360: 2c3e 833c 7012 233d 00f4 e8bc 26e1 403d
00000370: 2486 8abd 7ec3 6e3d 70e4 4c3d c63e 87bb
00000380: 914e f1bc eb34 09bd deca 4dbd 8e19 133c
00000390: 1d6f 59bd 5a8e ab3c ef13 b93b 6f2a 9e3d
000003a0: 1078 ea3c d45c 923d 4ac6 c73d d5ad 8dbd
000003b0: de1b cabb d40e d63d 785a 673c b051 99bc
000003c0: 2bc5 a7bc c56c 0cbd 8ccc 61bd 5598 c73d
000003d0: 9ef2 503c 8ac9 933c 5ca8 f4bc 72ea 0c3d
000003e0: 5889 1c3d 2abd d4bb 06d7 cdbc a2c4 52bd
000003f0: a488 8b3d 5b13 31bd 00c3 853d f915 493d

net.9.bias f4 [64]
0.13419081 0.11834184 -0.058378264 0.08691189 0.08168974 0.10934182 -0.05391526 0.032283165
-0.010993442 0.0480886 0.13088267 0.0042385794 0.056677084 -0.050956044 -0.056690663 0.06388894
0.04764488 -0.065290906 0.052698787 -0.037565663 0.017571064 0.015113751 -0.0077457367 0.100260206
0.13173696 0.0029337606 0.11973119 0.10078838 -0.02886781 0.12870707 0.04030155 -0.019389976
0.13446118 0.11259223 0.01880934 0.016861815 -0.036871612 0.07762882 0.087463096 0.016670406
-0.04637274 0.12436419 0.09417475 0.09777567 -0.020243006 0.07857494 -0.023828024 0.09188431
0.07967462 0.070666924 0.0710865 -0.018176142 0.025581656 0.014572249 0.020817392 -0.074599385
-0.017957028 -0.001848142 0.13555546 -0.010677194 -0.0047946535 0.12323913 0.001654217 0.11012692
00000000: 5169 093e 355d f23d 0c1e 6fbd dcfe b13d
00000010: f34c a73d 9bee df3d 3fd6 5cbd 5a3b 043d
00000020: d61d 34bc 8df8 443d 1b06 063e c8e3 8a3b
00000030: 3b26 683d 49b7 50bd 7834 68bd 34d8 823d
00000040: 4727 433d 3db7 85bd afda 573d 74de 19bd
00000050: 31f1 8f3c ab9f 773c f3cf fdbb 3955 cd3d
00000060: 0ee6 063e 5644 403b a035 f53d 236a ce3d
00000070: 2f7c ecbc c9cb 033e 3d13 253d bad7 9ebc
00000080: 31b0 093e c196 e63d 0c16 9a3c ca21 8a3c
00000090: b006 17bd dcfb 9e3d da1f b33d 6090 883c
000000a0: 58f1 3dbd a7b2 fe3d b1de c03d 9c3e c83d
000000b0: a9d4 a5bc e6eb a03d fd32 c3bc d72d bc3d
000000c0: 722c a33d d2b9 903d cd95 913d 22e6 94bc
000000d0: 9f90 d13c 71c0 6e3c 3c89 aa3c 90c7 98bd
000000e0: 9e1a 93bc 5b3d f2ba 0dcf 0a3e 66ef 2ebc
000000f0: 781c 9dbb cc64 fc3d 50d2 d83a 398a e13d

net.12.weight f4 [64, 64, 3]
0.005188762 -0.015510457 -0.0423816 -0.03557896 -0.02658505 -0.032688666 0.032277405 -0.058315977
0.0555081 0.014346887 -0.04213059 -0.043065496 0.028789159 0.03614538 0.04586733 0.025422493
0.028144242 -0.06882734 0.07358739 -0.030777851 0.027622415 -0.04498002 -0.068244874 0.0671438
0.01666747 0.017485872 -0.03601724 -0.029181313 -0.049648795 -0.038514506 -0.0074220914 -0.020063344
0.013905641 -0.07404555 0.06700659 -0.028368894 0.06515936 -0.020384856 -0.0316623 -0.04791701
0.002315184 -0.047380008 -0.07020685 0.005392041 0.030348975 0.007618346 -0.03411914 0.038789906
-0.02660778 -0.04115793 0.0014156061 0.047253855 -0.018694889 0.0054890383 0.046730626 0.027998816
-0.030185152 0.05515136 -0.044163585 -0.024846055 0.05385802 -0.05331026 0.0071733277 0.0057708733
-0.046267506 0.0496815 0.045271683 0.021714378 -0.035505448 -0.058660377 0.039412476 0.07090689
-0.0029488371 -0.059157297 -0.01753125 0.008158277 0.019081023 -0.004377531 -0.0480141 0.01865632
-0.051347367 -0.043888118 -0.03410104 0.049357608 0.06256116 0.008866126 0.057683013 -0.060913157
-0.008644646 0.030622784 -0.04193592 0.033764556 0.017049074 -0.017770022 0.07036692 -0.02316001
-0.007572749 -0.011883508 -0.03864881 -0.038193714 -0.0071813464 -0.03007155 0.016568825 0.010033622
0.015191705 -0.034588233 0.031276554 -0.01689509 0.06673571 0.063731015 0.0088360775 0.032961406
0.055438526 -0.05267977 -0.016242532 0.053123154 0.047038116 -0.058417737 -0.048394077 0.04433208
0.017114699 -0.022805143 0.0024923538 -0.049274366 -0.06359158 -0.049770795 0.039550632 0.045059018
-0.028194502 0.023677763 0.06893028 -0.031578314 0.03899252 0.011026124 -0.017958604 0.02143588
0.04802782 -0.05018467 0.027681474 -0.05245799 -0.061103728 -0.047687877 0.002641837 0.06801613
-0.0095847 -0.04654356 -0.03378307 0.050708406 0.038462546 0.014600029 -0.0045274445 0.035781913
-0.031833917 -0.03154636 0.021801602 -0.048540466 0.00850991 0.029287012 0.016344085 -0.013793298
-0.043394282 0.033309102 -0.035347734 -0.03014386 0.060226917 -0.051341124 -0.017226126 -0.017765768
0.04029852 0.011750984 0.04046423 -0.04890904 0.0034293826 -0.06580705 0.049650688 -0.053701296
0.045704 -0.024594314 -0.06840819 -0.016544297 0.019601332 -0.021227293 0.031592898 0.03381122
-0.037177783 -0.06058345 0.079859994 0.013638826 -0.071489275 -0.0002504917 0.06894058 0.018423174
0.044365715 0.058706045 0.061043784 0.04351022 0.00882929 0.009922737 -0.036294 -0.02009416
0.060850754 -0.0029645695 0.070545316 -0.02222017 0.085793294 0.06598097 0.031990916 0.079863176
-0.00064534287 -0.049609724 -0.021341398 0.052921593 -0.04775128 -0.057628755 0.068557605 0.05267474
0.004937758 0.026020668 -0.004532072 0.045377165 0.0066734776 -0.05663532 0.049698323 0.045676053
0.064240605 -0.016834674 -0.033942014 -0.058137413 0.09961008 -0.069362916 -0.03558342 0.047169328
0.032306693 0.020522557 0.061826482 -0.013457304 -0.061400283 0.011150997 0.026513148 0.011478088
-0.019559951 0.00048037365 0.013642976 -0.031706087 -0.051048256 -0.0137797445 -0.03151017 0.054493845
-0.06640823 0.06316525 -0.069010265 -0.015305093 0.08733672 -0.059689313 0.05598208 0.10164776
00000000: 7e06 aa3b 921f 7ebc 5498 2dbd 3ebb 11bd
00000010: e4c8 d9bc 8de4 05bd 5035 043d bcdc 6ebd
00000020: 765c 633d 350f 6b3c 2091 2cbd 7265 30bd
00000030: 3ed7 eb3c 2e0d 143d 62df 3b3d d542 d03c
00000040: c18e e63c 59f5 8cbd fcb4 963d d521 fcbc
00000050: 6748 e23c f83c 38bd f8c3 8bbd b082 893d
00000060: 388a 883c 883e 8f3c d086 13bd a60d efbc
00000070: 895c 4bbd 63c1 1dbd 0435 f3bb e25b a4bc
00000080: 7cd4 633c 31a5 97bd c03a 893d e265 e8bc
00000090: 4572 853d 24fe a6bc 54b0 01bd a044 44bd
000000a0: 58ba 173b 8a11 42bd 9cc8 8fbd b8af b03b
000000b0: 6a9e f83c 51a3 f93b 83c0 0bbd 2ae2 1e3d
000000c0: 8ff8 d9bc 3895 28bd dc8b b93a 428d 413d
000000d0: 0626 99bc 64dd b33b 9d68 3f3d c65d e53c
000000e0: da46 f7bc 64e6 613d e0e4 34bd f489 cbbc
000000f0: 3a9a 5c3d dc5b 5abd 3c0e eb3b 9819 bd3b
00000100: ff82 3dbd d47e 4b3d cd6e 393d 5ae2 b13c
00000110: 296e 11bd dd45 70bd fa6e 213d a237 913d
00000120: 4741 41bb ec4e 72bd b29d 8fbc 4baa 053c
00000130: ce4f 9c3c 6471 8fbb 6faa 44bd 24d5 983c
00000140: 9e51 52bd 07c4 33bd 88ad 0bbd 342b 4a3d
00000150: 1120 803d 3a43 113c 0645 6c3d 1380 79bd
00000160: 46a2 0dbc a2dc fa3c 00c5 2bbd b44c 0a3d
00000170: 80aa 8b3c 7092 91bc 881c 903d 10ba bdbc
00000180: d324 f8bb 0cb3 42bc 374e 1ebd 0371 1cbd
00000190: 8051 ebbb 9c58 f6bc 58bb 873c 1064 243c
000001a0: a1e6 783c 64ac 0dbd d81b 003d 9267 8abc
000001b0: bbac 883d 6885 823d 32c5 103c 8a02 073d
000001c0: 8213 633d bec6 57bd 0f0f 85bc aa97 593d
000001d0: 0aab 403d 7047 6fbd de38 46bd 8e95 353d
000001e0: 2034 8c3c dad1 babc c256 233b ebd3 49bd
000001f0: 4d3c 82bd 76dc 4bbd d8ff 213d ce8f 383d
00000200: 28f8 e6bc def7 c13c 522b 8d3d 4358 01bd
00000210: 9fb6 1f3d eaa6 343c ec1d 93bc 4c9a af3c
00000220: d2b8 443d 718e 4dbd 42c4 e23c 30de 56bd
00000230: e747 7abd 5d54 43bd ac22 2d3b 0a4c 8b3d
00000240: 2509 1dbc 76a4 3ebd 1e60 0abd 9eb3 4f3d
00000250: e78a 1d3d f634 6f3c f55a 94bb 0e90 123d
00000260: 4864 02bd c236 01bd 4699 b23c 5ed2 46bd
00000270: 266d 0b3c 51eb ef3c 08e4 853c 49fd 61bc
00000280: 34be 31bd 206f 083d c9c8 10bd 42f0 f6bc
00000290: 80b0 763d 124b 52bd ce1d 8dbc 8489 91bc
000002a0: 1010 253d 3387 403c d2bd 253d d854 48bd
000002b0: 7ebf 603b d9c5 86bd 855e 4b3d e4f5 5bbd
000002c0: 1e34 3b3d 047a c9bc 9819 8cbd e887 87bc
000002d0: f992 a03c dce4 adbc 8e67 013d a27d 0a3d
000002e0: bb47 18bd 5a26 78bd a38d a33d 6275 5f3c
000002f0: f868 92bd 6d54 83b9 b830 8d3d 32ec 963c
00000300: d3b8 353d c075 703d 0c09 7a3d c637 323d
00000310: baa8 103c fa92 223c 04a9 14bd 829c a4bc
00000320: a43e 793d 3949 42bb 107a 903d 1307 b6bc
00000330: 65b4 af3d 0821 873d e808 033d 4e8f a33d
00000340: 3a2c 29ba 9133 4bbd 28d4 aebc 50c4 583d
00000350: d996 43bd 210c 6cbd ee67 8c3d 78c1 573d
00000360: ebcc a13b 4c29 d53c c781 94bb 68dd 393d
00000370: 30ad da3b 70fa 67bd 7890 4b3d d016 3b3d
00000380: 9490 833d dfe8 89bc c806 0bbd 7f21 6ebd
00000390: 5f00 cc3d 250e 8ebd ecbf 11bd a034 413d
000003a0: 0654 043d ec1e a83c c43d 7d3d 067c 5cbc
000003b0: dd7e 7bbd acb2 363c 1a32 d93c 970e 3c3c
000003c0: 313c a0bc a9da fb39 ca86 5f3c 3ede 01bd
000003d0: fa17 51bd 70c4 61bc cf10 01bd f034 5f3d
000003e0: 0a01 88bd c85c 813d 4155 8dbd 36c2 7abc
000003f0: 98dd b23d c87c 74bd 774d 653d b32c d03d

net.12.bias f4 [64]
0.042833377 0.1003078 -0.016774233 0.08878094 0.12063651 0.12200086 0.061437417 -0.0709146
0.07892972 -0.009648645 -0.021102788 -0.028603159 0.0414471 7.541439e-05 0.12647083 0.020977978
0.13300747 0.09664312 0.018452236 0.02407532 -0.010601773 0.10858819 0.09780061 0.003423377
0.08741067 0.044627707 0.046568718 0.11853164 -0.010727038 0.108829886 0.08176454 0.006495542
-0.026546985 0.053094078 -0.05275871 0.060664415 0.06281804 0.13976857 0.10233659 0.09207699
0.028407587 0.06809413 0.038249075 -0.042111717 0.045490377 0.017828802 0.021381605 -0.057517905
0.003284918 0.032885797 0.041725237 0.12893268 0.09896516 -0.058898497 0.017976036 0.019057397
0.08366408 0.08448439 0.1261463 -0.046405695 -0.0053505986 -0.0010973159 -0.034539625 -0.03953398
00000000: 0d72 2f3d 2d6e cd3d 1e6a 89bc c8d2 b53d
00000010: 4610 f73d 96db f93d cda5 7b3d ac3b 91bd
00000020: e8a5 a13d 5a15 1ebc c1df acbc 2c51 eabc
00000030: 6fc4 293d cb27 9e38 9281 013e 02da ab3c
00000040: 1c33 083e d4ec c53d 2529 973c 9b39 c53c
00000050: 0fb3 2dbc 7c63 de3d b04b c83d bc5a 603b
00000060: 5e04 b33d 8bcb 363d d7be 3e3d b7c0 f23d
00000070: 75c0 2fbc 34e2 de3d 2b74 a73d 8ed8 d43b
00000080: 1079 d9bc 2d79 593d 8419 58bd 407b 783d
00000090: bfa6 803d 7e1f 0f3e d995 d13d dc92 bc3d
000000a0: 07b7 e83c ef74 8b3d 10ab 1c3d 567d 2cbd
000000b0: 1e54 3a3d b50d 923c 7a28 af3c e597 6bbd
000000c0: c747 573b 42b3 063d 15e8 2a3d ee06 043e
000000d0: 3fae ca3d 8d3f 71bd 7b42 933c 421e 9c3c
000000e0: 1358 ab3d 2706 ad3d 7f2c 013e e613 3ebd
000000f0: 1354 afbb d0d3 8fba 6c79 0dbd 62ee 21bd

net.15.weight f4 [64, 64, 3]
0.07030999 -0.050325327 0.037536927 0.09654509 0.03422968 -0.052921347 -0.0005312053 0.041315466
-0.0051588686 -0.010416455 0.02594906 0.009691462 -0.026175674 0.017746706 0.056699064 -0.017205775
0.020991001 -0.040274944 0.07464337 0.023321055 0.047786668 0.07147169 0.07098306 0.020049602
0.080918625 0.010610174 0.056251265 0.036071956 0.0705491 -0.024933327 0.0833507 0.037769847
0.057927564 -0.060234476 0.017819539 0.027902395 0.028216654 0.040980756 -0.050588388 -0.051308244
-0.047971193 -0.05096183 0.06840066 -0.031874757 -0.0001685851 -0.038791463 0.06353175 0.0675347
-0.00057285314 0.017326493 0.022504691 0.086934455 0.022773221 -0.03536698 0.043182325 -0.019765481
0.035407275 0.07560788 0.0554282 -0.029745262 -0.03134236 0.012209253 0.014728703 0.023098629
-0.01728246 0.0070093917 0.04719992 -0.039941173 0.025484357 -0.045494236 -0.06641692 0.0022539436
0.012077955 -0.0061116596 0.03136608 0.09215026 -0.048414864 0.0408914 -0.0055652345 0.0011754481
-0.046023373 0.0072377706 0.018302938 -0.017448816 0.059595153 -0.020573322 0.02743022 0.057471834
-0.038205657 0.062207572 0.03374905 -0.0035529933 0.00980939 0.081249334 0.031234458 0.036597002
-0.047702227 0.06576118 0.040104188 -0.005313309 0.028174264 0.052914605 0.052698027 0.057256162
-0.05854955 0.048453193 0.018765409 0.06860171 0.08708577 -0.054500904 0.005324204 0.00031849678
-0.01491351 0.02311448 -0.043868035 -0.023612421 -0.049495302 0.01341324 0.018404659 0.058536876
-0.06392941 0.05786681 -0.06286625 0.035774387 0.015285212 0.0016968078 -0.069015935 0.027803507
0.060909122 0.03391027 0.03436992 -0.01315788 0.03797409 -0.04485488 -0.028352818 0.024986196
0.0127155315 -0.01739143 0.09826879 0.021091888 -0.065983824 0.05435417 -0.033915747 0.022234544
0.08328141 -0.009461354 0.057854295 0.023655262 -0.042185552 0.016695738 -0.014783798 0.07177307
-0.019321159 0.08212374 0.032768436 0.043231435 0.066540636 0.044860765 0.06006552 -0.015880391
-0.038234066 -0.007028763 0.058814976 0.011541061 0.0706823 -0.046488296 0.028569616 -0.01356649
0.019881567 0.039071396 -0.05173993 0.06510776 -0.020410951 -0.0026732725 0.024010709 0.051076006
0.017447338 0.025023991 -0.052770603 0.018243216 0.048506454 -0.06516542 0.043625027 0.06978926
-0.026533052 0.00525974 0.0155392755 0.03712684 0.04985603 -0.058619894 0.032990456 -0.0020433702
0.08459667 -0.03950919 0.065073155 -0.010983667 -0.04034287 0.0183126 0.09008568 0.0001928657
-0.019833159 0.075317256 0.043103144 0.0027600848 0.052124843 0.017694335 0.02785924 0.11482901
0.0007549792 -0.07042677 0.04114567 0.06876574 0.040945195 -0.011536438 -0.06666278 0.0104028955
0.10898049 0.019792069 -0.023068544 0.00051928026 -0.011049094 -0.016640324 0.02372486 0.012517402
0.01985899 0.017883508 -0.055767167 -0.05405251 0.044863254 -0.06427088 0.017117694 0.055476673
0.039029665 -0.019594712 -0.021787148 0.050165154 0.041375227 -0.049230196 -0.07124173 -0.001520036
-0.0018137703 -0.035272885 -0.053431522 0.053929754 -0.023896905 0.018382732 0.024193136 -0.06974369
0.039559364 0.06872036 -0.0077655884 -0.026520357 -0.027690325 0.004889856 -0.07110795 0.03771532
00000000: affe 8f3d ee21 4ebd 52c0 193d 6fb9 c53d
00000010: 6c34 0c3d 0ec4 58bd 9640 0bba 683a 293d
00000020: ba0b a9bb c7a9 2abc 2093 d43c f0c8 1e3c
00000030: 5e6e d6bc 8a61 913c 473d 683d 20f3 8cbc
00000040: 52f5 ab3c 57f7 24bd a0de 983d cc0b bf3c
00000050: f4bb 433d c05f 923d 915f 913d 103f a43c
00000060: aab8 a53d 4cd6 2d3c ba67 663d 30c0 133d
00000070: 0c7c 903d fa40 ccbc c6b3 aa3d 8eb4 1a3d
00000080: 7445 6d3d 6db8 76bd 48fa 913c 9093 e43c
00000090: 9d26 e73c 70db 273d c535 4fbd 9828 52bd
000000a0: 717d 44bd 5abd 50bd a515 8c3d 1b8f 02bd
000000b0: 38c6 30b9 cce3 1ebd ef1c 823d a24f 8a3d
000000c0: 862b 16ba 4af0 8d3c c25b b83c b10a b23d
000000d0: e88e ba3c f7dc 10bd f3df 303d 38eb a1bc
000000e0: 3807 113d 4ed8 9a3d ae08 633d 56ac f3bc
000000f0: d960 00bd 5209 483c a850 713c 5639 bd3c
00000100: f293 8dbc 0aaf e53b b454 413d 5b99 23bd
00000110: 92c4 d03c 2a58 3abd 9805 88bd e6b6 133b
00000120: 9de2 453c 5144 c8bb b879 003d 47b9 bc3d
00000130: aa4e 46bd be7d 273d 925c b6bb 7e11 9a3a
00000140: 0183 3cbd d22a ed3b 0bf0 953c d2f0 8ebc
00000150: 0c1a 743d 6289 a8bc 57b5 e03c 9667 6b3d
00000160: 897d 1cbd 5ecd 7e3d 723c 0a3d 56d9 68bb
00000170: 90b7 203c 0d66 a63d 68df ff3c bde6 153d
00000180: 6963 43bd ccad 863d 4a44 243d 441b aebb
00000190: b7cd e63c fcbc 583d e3d9 573d 7085 6a3d
000001a0: a7d1 6fbd db76 463d eab9 993c 0e7f 8c3d
000001b0: 065a b23d 573c 5fbd a976 ae3b eafb a639
000001c0: cb57 74bc 945a bd3c f8ae 33bd d66e c1bc
000001d0: 96bb 4abd 35c3 5b3c 5ec5 963c 5dc4 6f3d
000001e0: 6ced 82bd c005 6d3d 05c0 80bd 2a88 123d
000001f0: d36e 7a3c 6c67 de3a 3a58 8dbd 2ec4 e33c
00000200: d87b 793d 7fe5 0a3d 79c7 0c3d 2694 57bc
00000210: b88a 1b3d c0b9 37bd 2b44 e8bc daaf cc3c
00000220: ce54 503c 7978 8ebc 2641 c93d e5c8 ac3c
00000230: 8722 87bd 7aa2 5e3d 3deb 0abd 3825 b63c
00000240: 728f aa3d cc03 1bbc a0f8 6c3d aec8 c13c
00000250: c2ca 2cbd 80c5 883c be37 72bc c2fd 923d
00000260: 6847 9ebc 7e30 a83d 3238 063d 7213 313d
00000270: 7546 883d ecbf 373d 4307 763d 9817 82bc
00000280: 539b 1cbd 8a51 e6bb f9e7 703d b816 3d3c
00000290: e2c1 903d 836a 3ebd d40a ea3c fc45 5ebc
000002a0: abde a23c 5409 203d 40ed 53bd 3857 853d
000002b0: de34 a7bc 1232 2fbb 1bb2 c43c 1335 513d
000002c0: b8ed 8e3c 1dff cc3c fd25 58bd cc72 953c
000002d0: b4ae 463d 7375 85bd 28b0 323d aced 8e3d
000002e0: d85b d9bc e659 ac3b 7298 7e3c 5012 183d
000002f0: d635 4c3d 6a1b 70bd 0021 073d 10ea 05bb
00000300: 0541 ad3d 63d4 21bd 1345 853d d7f4 33bc
00000310: 913e 25bd 4e04 963c d77e b83d fe3b 4a39
00000320: 2679 a2bc ef3f 9a3d ec8c 303d 8ae2 343b
00000330: dc80 553d b6f3 903c 1039 e43c 792b eb3d
00000340: cce9 453a e93b 90bd 5d88 283d 0dd5 8c3d
00000350: 26b6 273d 5403 3dbc 7f86 88bd e870 2a3c
00000360: 2a31 df3d fa22 a23c 3efa bcbc 4f20 083a
00000370: 4207 35bc 4a51 88bc a35a c23c ca15 4d3c
00000380: 52af a23c 6f80 923c 1d6c 64bd 2a66 5dbd
00000390: 88c2 373d 73a0 83bd 683a 8c3c 823b 633d
000003a0: 92dd 1f3d 1785 a0bc f67a b2bc fa79 4d3d
000003b0: 1279 293d 9aa5 49bd 2fe7 91bd f23b c7ba
000003c0: 08bc edba 4d7a 10bd 03db 5abd 72e5 5c3d
000003d0: 71c3 c3bc 6297 963c af30 c63c c8d5 8ebd
000003e0: 0009 223d 43bd 8c3d 7a76 febb 3841 d9bc
000003f0: d2d6 e2bc 163b a03b 0ba1 91bd 617b 1a3d

net.15.bias f4 [64]
0.046188254 0.12342091 0.029633408 -0.011991958 0.090490066 0.09957162 0.019073041 0.1364338
-0.052627865 0.12804124 0.06571332 0.05128781 0.018016262 0.13006844 0.016976323 0.06867186
0.14249982 -0.032796875 -0.009310775 0.111226864 -0.01692978 -0.046476386 -0.08501924 0.13719843
0.08204195 0.08335173 -0.013830237 -0.002725325 -0.06580964 0.13826981 -0.021108286 0.14037766
0.068885006 -0.015279065 0.111455224 -0.022462897 0.07218235 0.09105359 -0.034616053 0.12476802
-0.058394156 0.10064921 -0.024426656 0.0035475197 -0.020964641 -0.0022198376 -0.019241506 -0.012150367
0.004963651 -0.045481373 -0.053556625 0.090224236 0.10773352 0.10402447 -0.050622214 0.10530745
-0.003309796 0.07697079 -0.022831704 0.076677926 0.1423301 0.060422365 -0.03399311 0.11897404
00000000: e52f 3d3d 1ac4 fc3d c3c1 f23c eb79 44bc
00000010: db52 b93d 35ec cb3d 113f 9c3c 4db5 0b3e
00000020: 5190 57bd 3e1d 033e b594 863d 2b13 523d
00000030: d796 933c a930 053e ee11 8b3c d5a3 8c3d
00000040: 79eb 113e 0456 06bd 398c 18bc e9ca e33d
00000050: 52b0 8abc 065e 3ebd 911e aebd bf7d 0c3e
00000060: 9c05 a83d 50b4 aa3d 3898 62bc 5e9b 32bb
00000070: 34c7 86bd 9a96 0d3e 49eb acbc 29bf 0f3e
00000080: 9513 8d3d 0b55 7abc a342 e43d 1c04 b8bc
00000090: 57d4 933d 4e7a ba3d 90c9 0dbd 6086 ff3d
000000a0: b62e 6fbd 2c21 ce3d 691a c8bc 817d 683b
000000b0: 0abe abbc b27a 11bb 5da0 9dbc 5512 47bc
000000c0: 1fa6 a23b ad4a 3abd 315e 5bbd 7cc7 b83d
000000d0: 64a3 dc3d c80a d53d 3d59 4fbd 6fab d73d
000000e0: 2ae9 58bb dda2 9d3d 8e09 bbbc 5109 9d3d
000000f0: fbbe 113e 717d 773d 5c3c 0bbd a9a8 f33d
