model_artifacts/dl_tcn_h24_ret20_32000_33500.pt (torch, 378605 bytes, 20 tensors)

net.0.weight f4 [64, 30, 3]
00000000: 2811 8dbd fa7e ca3b 3991 963d f8bc 703d
00000010: f530 d2bd 1057 8dbd a557 8c3d e4b3 a7bd
00000020: 5f00 ce3d 7387 083e 8a61 e9bc faae f23c
00000030: df77 df3c 1155 50bd 1fc9 783c 0a68 823d
00000040: b0cb 99bd 398f a23d 9066 f13d 5662 a03c
00000050: 7963 573d 470c 67bd 3a2b 4c3d a538 8c3d
00000060: 7e5b 84bd 48a9 80bb 2ce8 8e3b c22f d83d
00000070: 56bc b13c 52b0 1f3c 4501 08be 094f b83d
00000080: 2b50 8b3c 32ab 9d3d d848 b3bc 9f08 b53d
00000090: 6d7f 943d a669 87bd 6c19 a7bb a2b0 a8bd
000000a0: f39b cdbd 0726 80bd 64f4 003e a217 9ebd
000000b0: 9b07 a6bd 5eaf 7fbd 0c53 1f3d 1182 a93d
000000c0: 40b8 d73d 4a01 4b3c 845e 8fbd 3110 1c3d
000000d0: 2878 043d 2ee8 213d 5204 18bd c690 c73b
000000e0: 22d6 4ebd 858c 0ebd 37c9 8fbd d0f6 f3bc
000000f0: ecad e53d b123 a43d b86c abbd e077 653d
00000100: 9779 b83d 9c15 993c d34f f33d 03ff a83d
00000110: 4fd1 58bd 8589 33bd 9758 71bd ad8f 54bd
00000120: d323 e3bd d60a 223d 369a cfbd c8c2 32bd
00000130: 7ed4 b7bd bc31 a4bc 3535 eebd 300f 083d
00000140: cf27 953d baab a5ba b9ac c6bd 8eab 93bd
00000150: ed3d fabb f094 853a 1f1b 5f3d c680 f7bd
00000160: 761b 29bc fc68 94bd 46e9 2c3c 487d 883c
00000170: 16ac 233d d16e c33d aca4 33bb d8ce f6bc
00000180: 6d05 5bbd 766a 423d c8a2 48bc 836f ba3a
00000190: 2739 d0bd af5e 5dbc 23af c63d 2032 883c
000001a0: 6106 31bd 9535 bf3d 5c6c 4d3d f08d 073d
000001b0: 013a ecbc 1501 d13d 7c63 a5bd 614a 19bd
000001c0: 2ca5 95bd ba07 fbbc 1d75 c43c 38bd a6bd
000001d0: bbf7 983d eaff b2bc 8f9c 80bc 8425 543d
000001e0: 1477 32bd b4b8 21bc 66b4 ac3d 4854 9ebd
000001f0: c9e6 d33d 856c 3dbd 5406 c43d 87ea 92bd
00000200: 2440 fa3c 3581 62bc 80da e1bc 352f b03d
00000210: 2eb3 aabd 332a c43d 4b18 66bd fee5 193d
00000220: fcc9 b239 205e 68bd 9b66 0bbd 04f5 9dbc
00000230: eefa 53bc 69f8 5e3d f6de 82bd 9f8a c6bd
00000240: a0aa 9ebd b020 7abd 8180 9e3d a1bb 7dbc
00000250: 2390 fabb 47ef 843d ffe8 0b3d fcaa 253d
00000260: 5318 a53d bec2 833d e070 9cbd a0e4 bf3c
00000270: ee94 8ebd a446 fcbc fbff 76bd dc6c 103d
00000280: f40d 173d 58ed bfbd 5f91 ebbd 03af 03bd
00000290: b970 883d 24da cabd 315d 41bd 3c66 643c
000002a0: 367b 663d 4b7e c0bd e884 97bd 39a5 35bd
000002b0: 302c 263d e165 d0bd b9d4 a8bd 1a1e 433d
000002c0: ce1e c5bd ef4b f4bd 5899 aabc 3750 85bc
000002d0: df3c 443d 4e87 79bd 807c c03d ca64 163d
000002e0: 26a0 17bd 96bb abbc f06c f53d 32ac 3ebd
000002f0: 9058 233d e465 6bbd b93b b53d e498 7ebd
00000300: f59f 613d f751 d53d 0046 c3b9 9b5b fa3c
00000310: f527 cbbd de29 8fbd d437 44bd 06ff 1a3d
00000320: 20a5 3b3d a3e4 0eba 2685 74bd 9054 1abd
00000330: 59b8 a9bd e484 a43c 0301 9bbd c695 cdbd
00000340: 335e 53bd fe47 913d a1c1 e9bd 087d 79bb
00000350: e6db c8bd 93ca 693c ccf5 8dbd 9ebd a83b
00000360: a7ae dfbd b348 d4bd 48cb 94bd 2886 b73d
00000370: da0e bf39 7058 35bd 7614 8c3d 5eed 23bd
00000380: 47f2 883d b4d2 ebbd c5dc 18bd 673e bcbd
00000390: 3657 943c 2c05 9f3d bd08 c2bd f0e4 ddbd
000003a0: e9c1 523d 007c cebc fb78 84bd 3612 613d
000003b0: 6f44 87bd 65f6 11bd 20b6 7fbd 2e25 b23c
000003c0: c34f 2fbd 1256 d93c 2dd7 8e3d ac22 2dbd
000003d0: 72ba b83a 0451 203d 1297 023d 2c8a cfbd
000003e0: 0e09 7ebb 2c6a 9a3d f138 cc3d f504 a33d
000003f0: b202 8abd 9c07 3b3d d855 e13b d41f d3bc
-0.06888038 0.0061796876 0.07351918 0.058773965 -0.10263244 -0.069013715 0.06852654 -0.08188608
0.100586645 0.1333292 -0.028488893 0.029624451 0.027278839 -0.050862376 0.01518467 0.063675
-0.075095534 0.07937474 0.1178714 0.01957814 0.0525851 -0.056408193 0.04984591 0.068467416
-0.06462763 -0.00392643 0.004361173 0.10555984 0.02169625 0.009746628 -0.13281734 0.0899945
0.017006 0.076986685 -0.02188532 0.08839535 0.07250867 -0.06611948 -0.005099466 -0.08236815
-0.100395106 -0.06257253 0.12593228 -0.07719351 -0.081069194 -0.062423103 0.03889756 0.08276761
0.1053319 0.012390444 -0.07000449 0.03810138 0.032341152 0.039528064 -0.037113495 0.0060902564
-0.05049718 -0.03480198 -0.070208006 -0.029780775 0.112148136 0.0801462 -0.08370346 0.056022525
0.090075664 0.018687062 0.1188046 0.082517646 -0.052933987 -0.04383232 -0.058922376 -0.051894832
-0.11090817 0.039561115 -0.10136835 -0.04364279 -0.089760765 -0.020043246 -0.11631242 0.03321761
0.072829835 -0.001263968 -0.09700913 -0.07210456 -0.0076367767 0.0010191482 0.054469224 -0.120851085
-0.010321489 -0.07246587 0.010553664 0.016661301 0.039959036 0.09542621 -0.0027411385 -0.030127928
-0.05347197 0.04746481 -0.012245841 0.0014223907 -0.10167151 -0.013511344 0.097013734 0.016625464
-0.043218974 0.09336392 0.050152168 0.033094347 -0.028836252 0.102052845 -0.08075616 -0.03742445
-0.07306895 -0.030643333 0.023981625 -0.08141559 0.07469126 -0.021850545 -0.015699653 0.05179359
-0.043570593 -0.009870697 0.08432846 -0.07730919 0.10346753 -0.04624607 0.095715195 -0.07173639
0.030548163 -0.013824751 -0.02757001 0.08602754 -0.08334957 0.09578361 -0.05617551 0.037572853
0.00034101296 -0.05673039 -0.0340334 -0.019281872 -0.012938244 0.05443612 -0.06390183 -0.096944086
-0.07747388 -0.06106633 0.07739354 -0.015486629 -0.007646577 0.06490951 0.03415775 0.040446267
0.0806128 0.064336285 -0.07638717 0.023424447 -0.06962 -0.030795403 -0.060302716 0.035260066
0.03687854 -0.093714416 -0.11502337 -0.032149326 0.06662125 -0.09904888 -0.047208015 0.01394039
0.056269847 -0.093990885 -0.07398397 -0.04434702 0.040569484 -0.10175682 -0.082436986 0.04763613
-0.09625016 -0.11928546 -0.020825073 -0.016273601 0.047909614 -0.060920052 0.093987465 0.036717214
-0.037017964 -0.020963471 0.11983669 -0.046550937 0.03987938 -0.057470217 0.08849282 -0.062157527
0.055084188 0.10416024 -0.00037245452 0.030561259 -0.099197306 -0.069904074 -0.047904804 0.037840866
0.045811772 -0.00054509396 -0.059697293 -0.0376783 -0.08287115 0.020082898 -0.07568552 -0.10038333
-0.051603507 0.070938095 -0.11413885 -0.003806891 -0.09807567 0.014269489 -0.06931648 0.0051495573
-0.10921984 -0.10365429 -0.07265335 0.08961135 0.00036441424 -0.044273794 0.0683984 -0.040021293
0.06686836 -0.11514798 -0.037319917 -0.0919159 0.018107992 0.07764658 -0.09474323 -0.10834682
0.05145446 -0.025205612 -0.06468388 0.054949008 -0.066048495 -0.03563537 -0.062429547 0.021746244
-0.042800676 0.0265303 0.06974635 -0.042269394 0.0014093651 0.039139763 0.031882353 -0.10133776
-0.0038762721 0.07539782 0.09971798 0.0795993 -0.06738795 0.045661554 0.0068766885 -0.025772013

net.0.bias f4 [64]
00000000: 1bb7 36bd 7eef 0e3e 5ed3 5f3c d539 f8bc
00000010: 90a1 e73d 54de 503d 66e9 9dbc 3bcc bb3d
00000020: c249 33bb 2a79 0c3e c056 d03d 641b 5a3c
00000030: 4d26 54bc 1790 a63d 3b0e 063e 5173 34bb
00000040: c6fb 6c3d ac09 6b3b 63d4 78bc a839 8b3d
00000050: cbc0 b2bc ab9e 5a3c 4e74 a73d 1882 cbbb
00000060: 1538 923d 5ec6 0d3e cd9f e93d 6493 be3d
00000070: 4f3e 463c c036 903d 589b 8a3d e4e8 143e
00000080: f68a 053e 091a 133e 7e71 d03d a81d 17bd
00000090: d3f7 0abd 5d18 883d 3e52 da3b 2692 f63d
000000a0: 664d 013e 09b4 c83d 1e05 7c3d 3ebf c2bc
000000b0: 4de8 8ebc c7b2 0e3d a07c e73c f9c5 3e3d
000000c0: 6728 63ba b740 82bc 3b44 573c 2083 943d
000000d0: eda1 a9bd 897a ce39 8142 193d 4ffa f53d
000000e0: a6de ba3d f2e1 043e 84bf f33d 77e5 e73d
000000f0: 6ab1 953d 4f01 86bc 0bf7 c53d 2c94 a43b
-0.044608217 0.13958547 0.013661234 -0.030301014 0.113101125 0.05099328 -0.019276332 0.09169813
-0.0027357196 0.13718095 0.10172796 0.0133121945 -0.012948585 0.08132952 0.13091366 -0.0027534554
0.057857297 0.003586392 -0.015187356 0.067981064 -0.021820446 0.013343493 0.0817648 -0.0062105767
0.07139603 0.13845202 0.11407433 0.09305456 0.012099816 0.07041693 0.06767911 0.14541966
0.1304129 0.143654 0.10177897 -0.036893517 -0.03392775 0.06645272 0.006662636 0.12039594
0.12627181 0.09799964 0.061528318 -0.023772832 -0.017444754 0.034838464 0.028257668 0.04657552
-0.0008665383 -0.015899999 0.013138826 0.072515726 -0.08282838 0.00039382678 0.03741694 0.12010633
0.09124498 0.12976816 0.11901763 0.11323064 0.0730923 -0.016358046 0.0966626 0.0050225463

net.3.weight f4 [64, 64, 3]
00000000: 97b5 b5bb e536 66bd 32ff 863a 30ed 25bb
00000010: 86bf 2cbd a691 a4bc 32d7 4d3d a233 2c3a
00000020: c470 333d 32af 353d 823b a0bb 4ca4 55bd
00000030: 294e 1d3c 3209 a4bc 82e6 593d 2adf af3d
00000040: 549c ea3b cae4 903d 27d1 a03c 1c74 47bd
00000050: 76a0 8bbd 2bdf 223d 3616 7e3c 3258 343d
00000060: a30f 6d3d 4a2d a93c 9d6f 22bd bffc 1c3d
00000070: 389c 40bd 3451 adbb 2a47 78bc 1c01 703b
00000080: 0ad9 f4bc 5873 c93a 5709 46bd 3822 86bd
00000090: 1883 d23c 2a6b 7fbd 364c c53c 13a6 d7ba
000000a0: 4657 b83c c2cc 22bd 566f 083c 42cc c1bc
000000b0: 5f0c 4b3c f5c7 cfbc f12b 1ebd 62a0 2dbd
000000c0: d024 bd3d 2814 8f3d ea0e e63c 1fdf bb3d
000000d0: 5092 7c3d 9e8d 7e3d c31d cf3d 4430 0a3d
000000e0: b462 12bd dc1d 203c 9a74 d93c b749 82bd
000000f0: 9997 63bc 0848 033d 5c28 3d3d 0a9d babc
00000100: dcba 853d c532 92bd cef8 af3d 7175 1abd
00000110: b0e4 56bd d2d1 86ba ca4d 7b3d bbff 31bd
00000120: 73fc e8bc ae86 593c 4a18 0ebc 6e80 803c
00000130: 5ef4 6b3c 8fa9 803d 80e0 853c 1a6e a63c
00000140: 7c39 c0ba a8a4 de3d 2d9a 73bd aa22 0b3d
00000150: 36ea 1bbd 85b8 1abd 849d 4abd 42c8 a83d
00000160: acce 883c 9d83 2fbd 86c5 7fbc 508b 4cbc
00000170: 8e5b 633d 31d0 f93c 7ccf 973c 498e c03c
00000180: db01 493d 74f8 3e3d 7c5c 27bb 33cf 803b
00000190: 0e1d 8dbd 4eb6 283c 955e c63a 30d2 48bc
000001a0: a7b4 00bd 010d bc3d 18f4 ed3c b481 273c
000001b0: 063e c13d 02d1 8e3d a7f1 35bd f594 8e3b
000001c0: b096 ad3c 3eec e5bb 961b ba3d caf6 3a3d
000001d0: b727 86bd 90ff 9f3d 649f 10bd 081e d1bc
000001e0: 1439 8a3b 0803 a53b e261 87bc 5f93 423d
000001f0: 306e 733d 02cc b13c db3b a33b a65e 933c
00000200: e8b0 4bbd 0cb1 c13a 3626 3ebc 0e82 5f3d
00000210: 4d17 b03d 1524 05bd 447f c5ba c7b4 653d
00000220: a60e 373d a259 133b b091 7dbb 1d11 a23a
00000230: ea57 963c 5238 54bc 4b38 90bd c8bc 853c
00000240: 7449 b53c 6ce0 3c3d 405d 7f3d 2b44 f03c
00000250: 4a91 39bd 71f8 783d 760e 153c 983d 37bd
00000260: ab3a 8dbd 3890 b93a b853 223d 2858 13bd
00000270: 60b9 a2bc dcf1 9d3c e447 aabc c294 e23d
00000280: f62f 3b3c 96aa f4bc 6123 423d 85ac 523d
00000290: ac59 213d 5175 5fbc 9934 1fbd 5288 0a3d
000002a0: 2ef8 303d e9d4 08bd 15a6 82bd 359d 02bd
000002b0: 9a9a 7b3d 2eb7 8b3d 560c bd3d f02e 81bd
000002c0: fe21 10bc abce f13c 02a4 b1bc 84fe e63c
000002d0: e2b4 533c 2425 9abc 1765 3a3c 817f 02bd
000002e0: 56b6 1c3d 4e5e b4bb 4bec 2abd 5629 3ebd
000002f0: a0a8 97bc 4172 a73d 9025 43bd 3227 063d
00000300: 3fbc e6bc 9cec f0bb fc63 703d 0d25 e23c
00000310: 345d 77bd 80c8 72bc 0098 fcba 4ac2 873d
00000320: 02ce 1c3d a475 ae3d 1ce3 f0bb 9b60 53bd
00000330: 53dc 313d dcc0 123d 863b 243d 4e21 e13d
00000340: c058 613d e8c9 1b3d 7054 babc 9e2a 663d
00000350: 28ad de3c 169a 1e3d 1a41 37bd e898 023d
00000360: 9a28 ba3d 881f b0bb da6c 6fbb d76a dd3d
00000370: cae9 f3bc 2cd8 0f3d daa8 123c dcc5 cebc
00000380: 78e5 023d 0466 353d 6091 72bd 010d 653d
00000390: 9ce2 89bc 0b3f 84bd 0bc8 13bd cd1c a63c
000003a0: 04aa 2e3d 54b6 4dbd 6753 d03d 58be 5d3d
000003b0: 12f6 e23c ffd4 bf3d 460d 503d aaab 1fbd
000003c0: 4477 2f3d e3a6 05bd 6ac0 d03c 6695 bc3c
000003d0: 7cfd 5d3d 0f92 c93c 05bb 87bc 3c56 1b3d
000003e0: c973 90bd 166d 08bd dde3 12bc 1af2 aabc
000003f0: 7298 9f3c f5db 0ebd 484e f13c 7872 dc3c
-0.005545329 -0.056204695 0.0010299443 -0.0025318377 -0.04217484 -0.020088982 0.050254054 0.0006568973
0.043808714 0.044356532 -0.0048899064 -0.05215864 0.009601154 -0.020023916 0.053198345 0.08587487
0.007159749 0.07074888 0.019630982 -0.048694715 -0.06817715 0.03976361 0.015508225 0.044029422
0.05787624 0.020651478 -0.039657224 0.038326975 -0.04702398 -0.005289221 -0.015153686 0.0036621755
-0.029888649 0.0015369458 -0.04834875 -0.065494955 0.025697276 -0.06235806 0.024084192 -0.0016452692
0.022502553 -0.039746054 0.008327326 -0.023656968 0.012393086 -0.025363902 -0.038616125 -0.04238928
0.09235537 0.069862664 0.028083283 0.09173416 0.061662972 0.062146775 0.101130985 0.033737436
-0.035738662 0.009772744 0.026544858 -0.06361716 -0.013891124 0.032051116 0.046181068 -0.02277996
0.06529781 -0.0713859 0.085923776 -0.037709657 -0.052464187 -0.001028592 0.061353482 -0.043456774
-0.02844069 0.013276739 -0.008672783 0.01568624 0.014401523 0.06282341 0.016342402 0.020316172
-0.0014665569 0.108712494 -0.059473205 0.033968605 -0.038065158 -0.037773628 -0.049466625 0.08241321
0.016700111 -0.042850126 -0.015611058 -0.012484387 0.055507235 0.030494781 0.018531553 0.023505347
0.049074035 0.046623662 -0.0025537303 0.00393095 -0.06890307 0.010297371 0.0015134389 -0.012257144
-0.031422284 0.09182168 0.029047057 0.010223795 0.09435658 0.06973459 -0.04441991 0.004351253
0.021190017 -0.0070166877 0.09087293 0.045645513 -0.06550544 0.078124166 -0.035308257 -0.025527015
0.00421823 0.0050357617 -0.016526166 0.047503825 0.059431255 0.021703724 0.0049815006 0.017989468
-0.049729258 0.0014777496 -0.01160579 0.05456739 0.08598194 -0.032505114 -0.0015067835 0.056080606
0.044691704 0.0022483845 -0.0038691573 0.0012364719 0.018352468 -0.012952881 -0.07041987 0.01632537
0.022129752 0.046112463 0.06234479 0.02932938 -0.045304574 0.060783807 0.009097686 -0.044736475
-0.06895956 0.001415736 0.03963062 -0.035972744 -0.019863784 0.019280367 -0.020786233 0.110635296
0.011425009 -0.029866498 0.04739702 0.05143406 0.03939216 -0.01363881 -0.03886852 0.03382141
0.043205433 -0.033406172 -0.06379334 -0.031888206 0.061426736 0.06822048 0.092308685 -0.06307781
-0.008797167 0.029517492 -0.02168465 0.028197534 0.012921544 -0.018816538 0.011376641 -0.03185988
0.038259827 -0.005504406 -0.041729253 -0.04642614 -0.018513024 0.08176089 -0.047643244 0.032752223
-0.028165935 -0.007352425 0.058689103 0.027605558 -0.06039162 -0.014818311 -0.0019271374 0.066288546
0.0382824 0.08518532 -0.0073512923 -0.051605802 0.04342301 0.035828456 0.04009583 0.109926805
0.05501628 0.03803435 -0.022745341 0.056192987 0.027182177 0.038721167 -0.04473982 0.031884104
0.090897754 -0.0053748526 -0.0036533386 0.10811394 -0.029774565 0.035118267 0.00895139 -0.025240831
0.03195712 0.044286743 -0.05922067 0.055920605 -0.016831689 -0.06457337 -0.036079448 0.020277405
0.04264261 -0.05022271 0.10172158 0.054136604 0.027705226 0.09366798 0.05079391 -0.03898207
0.04283835 -0.03262986 0.025482375 0.023020457 0.05419682 0.024605779 -0.01656867 0.037924036
-0.07053334 -0.033307157 -0.00896546 -0.020867396 0.019481871 -0.034877736 0.029456273 0.026910052

net.3.bias f4 [64]
00000000: 8fc2 b83c c91b 573d af09 b33d a954 503c
00000010: dfe9 d53c 34b1 b63d 4ac3 673d a62d 9d3d
00000020: 4917 093c b3ad ed3d 80e8 c4bc 824b ed3d
00000030: a6d2 943c 25e9 ef3d a536 ec3d 5964 bb3d
00000040: 820b ec3c d219 be3d 325b eb3d 6ef9 ae3d
00000050: 12dc f93d 2603 533d bb73 f83d 1e26 ad3c
00000060: fc73 793d 0002 7abd a827 67bc 5e35 2c3d
00000070: 9dbd b93d 1767 813d 078e 353d 1819 21bb
00000080: 0ee8 f93d 6153 963d f597 053e cf0c 7a3d
00000090: d773 f23d 2b6b d73d ddee 993d 3a15 f13d
000000a0: b323 33bd 9f7d 0cbb 5e3d 373d 4ccf e43c
000000b0: 3a1f 043e d637 893d d64a 413d 4024 3e3c
000000c0: 7b6c e13d 98ba 973d 2ee1 ae3b 38e8 263d
000000d0: f60c 6b3d f221 d4bc 457c 743d 7de6 a53d
000000e0: 8f6b 9a3d ea1d fb3d f58c 7e3d 0b05 d93d
000000f0: c3d6 473d 220f d33d c90e bd3d 108c 843d
0.02255371 0.052516732 0.087420814 0.012715497 0.026112495 0.089205176 0.056582727 0.076747224
0.008367368 0.11605396 -0.024036646 0.115866676 0.018166851 0.11714391 0.1153386 0.09149999
0.028814081 0.092822686 0.114920035 0.08543669 0.12200178 0.051516674 0.12131449 0.02113634
0.060901627 -0.061037064 -0.014108576 0.042043082 0.09069369 0.06318491 0.0443249 -0.0024581607
0.12202464 0.07340122 0.13046248 0.06104737 0.11838501 0.105184875 0.07516263 0.11771627
-0.043735217 -0.002143718 0.04473626 0.027930878 0.12902537 0.06700103 0.04719051 0.011605322
0.11007019 0.07408637 0.005336902 0.040748805 0.057385407 -0.025895093 0.059688825 0.08100603
0.075400464 0.12261565 0.062146146 0.10596665 0.048788797 0.10305621 0.09231336 0.06472027

net.6.weight f4 [64, 64, 3]
00000000: 30e2 fbbb d2bf e1bc f2ba 5cbc 3b57 e73c
00000010: baac 3ebb f26c 5d3d c927 f73c 72e2 87bb
00000020: 8a26 013c ea45 613d 6ca3 bf3c f8bc 8f3c
00000030: cd0b 7e3d ec96 883d 52f6 cfbc 5122 d03b
00000040: 71c9 8fbd caa2 62bd d987 b63c 88dd 30bb
00000050: 822c 0e3d 8335 903d b0e8 5abd 9895 a8bc
00000060: 3083 86bd 3c3b e4bb a681 7cbd 960a cebb
00000070: e9a5 863d a071 33bc 1e0f 12bc 469e 7e3c
00000080: 718f 80bc 007d 163c 25cd 293d 98e3 64bc
00000090: ebf3 4cbd bb10 8abd 1a3d 303d 39d9 8f3b
000000a0: 362b dbbc 9853 3f3d 9d33 a03c 8eba 653c
000000b0: be35 19bd d256 82bc 689e 5b3d 6e70 e8bc
000000c0: 0745 133d 1433 073d 8015 223d 911d 52bd
000000d0: fa59 cd3c be5a 843d afd0 5e3d fa06 0ebc
000000e0: bcf4 38bd aeb7 2ebc 1c4d 413d bfab 92bd
000000f0: d90f 733d 8ea0 333d 78b6 ce3c 9873 233d
00000100: bae6 d03c 52d5 84bc 7ab6 913d 5a2b 593d
00000110: 2f82 91bd cadf 853d e7e8 7dbd 4e08 903d
00000120: aa48 4cbc 4677 c73a 98ee 9ebc 325f 93bd
00000130: b4fa 203b cbcd 0cbd 11c9 113d 640e ebbb
00000140: 9e2a 6fbd 6c78 b339 e296 2ebd daf9 e6bc
00000150: c403 46bd 1a04 143c 605e d7bb 07b1 1c3d
00000160: 7041 3abc b8ca a0bc 3cd4 b23c a7f1 11bd
00000170: 18df ebbc 2411 c4bc 74ef 89bc bafe a53b
00000180: e41a f53b 9276 72bd 6aa6 38bc 0cd8 e93a
00000190: a274 503c 6351 f7bc 9fbe 0d3d 4cdb 23bd
000001a0: 6c0d b3bc d4d2 183d af80 67bd d23e 9d3c
000001b0: 284e 943d 62e4 3b3d aea0 cdbb 6e99 de3c
000001c0: f075 893d 7eec 19bd fd0d 3fbd d4d8 8a3d
000001d0: a314 10bd 1137 dcbc b6b8 38bc f650 783d
000001e0: a3d7 37bd 7ba1 4cbd c255 423d d905 443c
000001f0: a2d2 313d 1c90 a9bc f916 53bd a87a d8bc
00000200: fa24 823d f1d2 20bd 91a5 84bd 9222 1a3c
00000210: e240 c43c ca93 023d 105c 81bd fc9e 1cbd
00000220: 14bc b33c 7bb0 f5bc 2425 77bb 5254 2ebd
00000230: f277 5ebd e880 4bbc 0aee 043d 2824 3ebd
00000240: 673b 883d 78ed 293c ed42 223d 9658 b9bc
00000250: 72cf 09bc a111 df3c 739d 84bd 7e8a 8dbd
00000260: 367f 843d dffb 01bd a454 463c 1411 703c
00000270: aa5b c4bb 0843 303c 30a9 413d 6abe 31bd
00000280: 0433 47bd 0cd7 65bd bff7 8f3d a049 2bbc
00000290: dd9f 833d ce45 1e3d 82f4 16bd 2139 18bd
000002a0: bd7c 493d 126e 42bd 9aaf 36bd a305 ca3d
000002b0: 206c 063d 5fb1 22bd ec86 053c 6f1e 93bd
000002c0: 0441 15bb f0bf 6bbd dc70 8dbd 0465 53bd
000002d0: 0e04 35bd 5e24 16bc e08a c03b 5bfd 5abb
000002e0: d69e 6b3b 9bad 003d e0f5 45bc 7088 643d
000002f0: 2626 d7bc 4cb1 343d 23da 88bd 98f8 973b
00000300: ba05 363d 3aae 4e3d 5219 6cbc bdc4 1c3d
00000310: 16b5 05bd d402 443d f99d 813d a0cb 88bd
00000320: fe5b 843d 2363 723d 749f 71bd a4ec 2d3d
00000330: 5d99 82bb be72 963c c79c 14bd e525 7f3d
00000340: 6408 f4bc 601e 87bd 1483 c63d 32fd 293d
00000350: ceb5 8f3d 935b cd3d 5362 d7bc 8c10 b1bc
00000360: 1c37 1cbc dc5d 283d a804 ea3c 75ff 103d
00000370: 2c8f 8e3c 5453 2bbd 624e 263d 2012 acbc
00000380: 2abf 85bc 03a8 083d f55d 93bd acc4 d1bc
00000390: 41a7 c6bc ae64 903b 3988 403d 860d 7fbb
000003a0: 68d0 8c3c 5d7d 1abd 2398 8bbc 5ac6 2bbd
000003b0: f698 eb38 1bb9 d03a 8701 99bc 0d02 a23c
000003c0: f88b 343d 6e04 6dbd 94ee a03a 928a 06bd
000003d0: 1a11 f2bc 9a89 8f3d 4078 b73b 01a2 39bd
000003e0: c406 edbc 75a2 9f3c 26e1 853d 420d 13bc
000003f0: 2b28 083d 2263 aabc 1c73 013d deda ba3d
-0.0076868758 -0.027557287 -0.013472306 0.028239837 -0.0029094652 0.054058976 0.030170338 -0.0041468674
0.007882724 0.054998316 0.023393355 0.017546162 0.062022973 0.06669411 -0.02538601 0.006351747
-0.07020844 -0.05533103 0.022281574 -0.0026987512 0.034710415 0.070414566 -0.053444564 -0.020579144
-0.06567991 -0.006965069 -0.06164708 -0.006287883 0.065746136 -0.010952383 -0.008914737 0.015540665
-0.015693398 0.009185076 0.041455407 -0.013970278 -0.050037306 -0.06741472 0.04302702 0.0043899086
-0.026754003 0.04671058 0.019555861 0.014021529 -0.03740477 -0.01591054 0.053617865 -0.028373923
0.0359545 0.033007696 0.039571285 -0.051297728 0.025067318 0.0646262 0.054398235 -0.0086686555
-0.045155272 -0.01066391 0.047192678 -0.07161664 0.059341285 0.04385429 0.025233492 0.03990516
0.025500644 -0.016215 0.07114883 0.05301986 -0.07104909 0.06536825 -0.06198969 0.07032834
-0.012468496 0.0015218041 -0.01940088 -0.071958914 0.0024563493 -0.034375947 0.035592142 -0.0071733464
-0.058390252 0.00034231262 -0.04262436 -0.02819531 -0.048343435 0.009034181 -0.0065725297 0.038254764
-0.011368141 -0.019627914 0.021829717 -0.03563085 -0.028792903 -0.023933955 -0.016837813 0.005065766
0.0074800123 -0.05919511 -0.011270145 0.0017840876 0.01272312 -0.030190175 0.03460562 -0.04000406
-0.021856986 0.037310436 -0.056519207 0.019194994 0.072414696 0.0458721 -0.006275258 0.02717277
0.06711948 -0.037579052 -0.0466442 0.06779638 -0.03517593 -0.026881726 -0.011274507 0.060624085
-0.04488338 -0.049958687 0.047445066 0.011964285 0.043413766 -0.0206986 -0.05153558 -0.026425675
0.06354709 -0.03926367 -0.06476892 0.009407656 0.02395672 0.031879224 -0.06316388 -0.038237557
0.021940269 -0.029991379 -0.0037711347 -0.042560883 -0.054313608 -0.01242087 0.032453574 -0.0464212
0.06651955 0.010371558 0.039614607 -0.022625249 -0.008411275 0.027230086 -0.064753436 -0.06911181
0.06469576 -0.031734344 0.012105141 0.014652509 -0.0059923725 0.010758169 0.04728049 -0.043394484
-0.048632637 -0.056113288 0.07029676 -0.010454565 0.06426976 0.03864079 -0.036854275 -0.037163857
0.049191225 -0.047468252 -0.04460106 0.09864356 0.03281796 -0.039719936 0.008149844 -0.07183539
-0.0022774348 -0.057556093 -0.06906292 -0.051610008 -0.04419332 -0.009163944 0.00587593 -0.0033415172
0.0035952828 0.031415563 -0.012082547 0.05579418 -0.026263308 0.044114396 -0.06682231 0.004637789
0.044439055 0.050459124 -0.014410334 0.03827356 -0.0326434 0.04785426 0.06328959 -0.066794634
0.064628586 0.059176575 -0.058989957 0.042462006 -0.0039855675 0.01836526 -0.036282327 0.062292
-0.029789157 -0.065975904 0.0969297 0.04150123 0.07017098 0.10027232 -0.026292002 -0.021614335
-0.0095346235 0.041105136 0.028566673 0.035399873 0.017402254 -0.041827515 0.040602095 -0.021004736
-0.016326506 0.033363353 -0.07195655 -0.025606476 -0.024249675 0.004406533 0.047004912 -0.0038917973
0.01718922 -0.037717212 -0.017040318 -0.04193721 0.000112341644 0.0015924306 -0.018677486 0.019776369
0.044078797 -0.057865553 0.0012278133 -0.032846995 -0.02954917 0.07008667 0.0055990517 -0.045320515
-0.02893389 0.019486645 0.06537084 -0.008975329 0.033241432 -0.020799223 0.031603917 0.09123777

net.6.bias f4 [64]
00000000: 535c d2bc 1c70 943c 3119 6c3d 480a a23d
00000010: 94fb 983d 54bf b23d ba43 e63d 199a 0d3e
00000020: 9737 afbd ebb5 25bc 0383 11bd dfc5 b1bc
00000030: aca4 9abc aaae 633d 4289 0d3e e1f4 c4bb
00000040: 3f94 073d 44c5 a8bd 605e 3f3d dd36 243d
00000050: 3bf6 823a 488a f03c 1b60 3bbb 19d3 013e
00000060: 8ca6 523d 90f3 7fba 1cbc 193d 73ee 893c
00000070: e319 c3bb de55 9e3d 48e5 323d 980d 9fba
00000080: d236 3f3d ee17 3e3d cef2 e93d 86dd 00bd
00000090: 0a01 443d 0e8c 513d 7bcc bdbc 4e22 b8bc
000000a0: 8628 a63d 40e1 1c3d 880d d63b f735 7d3d
000000b0: dba8 613d b330 c63d d946 453d 5668 45bd
000000c0: fa92 c0bb 523b 043d 4c7f c33d 893c 2b3c
000000d0: 7598 2dbd c225 263d bdbe 423d 9c9e b03b
000000e0: bdb1 6a3d 6c62 ee3d 98ab debc 2f6c f93d
000000f0: 7ab1 a63b d2c8 c23d 7940 4abd d378 113e
-0.02567879 0.018119864 0.057641212 0.07912117 0.0746986 0.08727899 0.112433866 0.13828315
-0.08555525 -0.010114173 -0.035525333 -0.021700798 -0.01887735 0.055586495 0.13821891 -0.006010637
0.033100363 -0.082407504 0.046720862 0.040091384 0.0009991595 0.029362813 -0.002859122 0.12678184
0.051428363 -0.00097637717 0.03753291 0.016837334 -0.0059540137 0.077312216 0.04367569 -0.0012134789
0.04668314 0.04640954 0.114232644 -0.03146126 0.047852553 0.051158957 -0.023168793 -0.022477295
0.08113198 0.038300753 0.006532375 0.061819043 0.055092674 0.096772574 0.04816327 -0.048195206
-0.005876896 0.032283135 0.09545764 0.010451444 -0.042381722 0.040563352 0.047545183 0.0053900015
0.05729841 0.11639866 -0.027181432 0.121788375 0.005087075 0.0951096 -0.049377892 0.14206247

net.9.weight f4 [64, 64, 3]
00000000: b3c9 83bd 81e4 0abd 4db8 01bd 0420 9e3d
00000010: e416 913d a4eb 673d 45df 5abc 1303 92bd
00000020: b6be 473c 4107 263d 7a32 07bd 823a 13ba
00000030: d955 933d cb8d fa3c 069b 39bd 16f2 563c
00000040: eada 0bbd f8af 203d e009 523d fdcf 41bd
00000050: deaf bbbc f642 5a3d c994 a63c 50cb e4bc
00000060: 1419 27bd a0f4 a9bb e013 bd3c 0db4 03bd
00000070: 3281 5fbd 0613 823d 9ab5 bcbc 368c bebc
00000080: d601 1d3c 51fc 023d 5a4b e9bc e0cd 8bbd
00000090: a258 39bd 223a 0f3d c3dc 2bbd 6e63 c43c
000000a0: b686 41bd 7656 663d 9086 83b9 41d2 debc
000000b0: 5039 37bb 041f f43c b64d 00bd f062 cabc
000000c0: 37fe 903d aa7a 2d3d 76d3 41bc 9cbe 28bd
000000d0: 430e 91bd 5b2d bf3c 6dca da3d a003 42bd
000000e0: 3206 5a3d 33ba d93c 24e1 0b3d 001b 72bd
000000f0: 3e7b 7c3d 8b3d 78bd 8599 773d 1b8e 743d
00000100: d0d2 3d3d 504f 4cbd 2a76 b23d 696d 3bbd
00000110: 4eb7 8d3c 2426 be3d 7a93 72bd 596a 633d
00000120: 3bcc 773d 986d c9bb 7c1a 7f3d 229a 17bc
00000130: 549b 7f3d 0428 0d3d 49a3 9ebc d2b9 8f3d
00000140: 9eb9 0a3c 7917 64bc 92af b7bb ac67 5e3c
00000150: 5748 363d 4874 98ba b818 3fbd 9f3f d83d
00000160: b28f 403d c6e4 c73b 85fc c13c 3f71 19bd
00000170: bd1f 30bd c053 9b3d 9748 313d 8686 cabc
00000180: 5e11 873d 76c6 7a3d d217 82bc fc51 9c3c
00000190: 7acd e0bc 3e5d 3bbd 9c23 973d 2034 f4bc
000001a0: 70be b0bc d3e0 4cbd f86a 69bd e0e4 85bd
000001b0: b69d db3d 92a9 b83c 839c 463d 275d ac3d
000001c0: 3c9e 823d 64f9 2c3b a14d 933c c84a 3e3d
000001d0: a450 39bd 8b47 2a3d 5879 293d fe4f 783d
000001e0: ba7b f1bb 7a77 0dbb eeb5 6ebd 11a9 a33d
000001f0: c283 ac3b 8222 023d cecb 4ebb a5c3 39bd
00000200: 1373 5abd fddd 633d 3c16 5bbc fcba d73b
00000210: 87dd 03bd b072 013d 155c 913d 4b7a f83c
00000220: ce5e ee3c 5770 6fbd c283 67bc 382f 493d
00000230: 8af2 893d e996 933d 0052 35bd 150a 793d
00000240: 249e af3c 6639 173b 32bf dabc 23e2 b5bc
00000250: accb 4bbc a2bd e83c 0be7 9e3d 6827 2a3c
00000260: 5f8e 233d 5c03 d3bc dbba 893d 0482 713d
00000270: 8946 8ebb 84ce 5bbc 3058 06bd 5829 2a3d
00000280: 4a5d e5bc 0e81 a9bb 8e1f 4c3d 509c a63c
00000290: ae3e 803d 34f7 513d a677 80bc 9577 87bd
000002a0: cfa5 d13d 8a09 2b3d d2ea 14bd e158 cb3d
000002b0: 54c2 843d 7227 5d3d 1588 043d 5a47 013c
000002c0: bc9c 9cbc 284d 813c 1fff 1ebd b8b8 27bd
000002d0: 9b29 233d 2297 9fbb 5a8d 33bd fbc2 5b3c
000002e0: de09 993c b520 1f3d 0670 923d af31 82bd
000002f0: 8a51 d93c d5fc 803a 3c34 84bd 29fd c13b
00000300: d3d9 753c eaa0 193d 122c 20b9 8b83 613d
00000310: 14f6 f33c 767f 59bd 8995 ddbc cacc 623b
00000320: 529a 593d 9e8f ad3d 9c0b 43bc 3cc8 adbc
00000330: fcfb af3c 9256 843d f0cb d1bc bf6c 7dbc
00000340: f0fb 9ebc 5ab5 b83c 8cd3 223d 23be 863d
00000350: 97ab 2f3d 1119 3f3d f83c 3b3d 06a8 9c3c
00000360: 4fbc 32bc 8e1a f2bb fa01 8ebd 7421 843d
00000370: a85d ff3c e827 7f3c 945f 283d 3827 bdba
00000380: c8d9 8c3d 7108 35bd 6c1b 03bd 685a 893c
00000390: 6311 203c 129f 3c3d 1cec 4a3d 9f37 c73d
000003a0: 58c2 213d 3feb 06bd 4db2 e53c c946 8ebd
000003b0: f947 37bd e534 41bd 08a6 8e3d d835 35bd
000003c0: 8f4b 8d3d 702b cfbb e38f 263d 7bbf 75bd
000003d0: 2093 3cbc d44b 6a3c 9801 bc3d 1782 6c3d
000003e0: 7c72 d0bc c015 393c 408d 923d be9d c1bb
000003f0: b1b9 6abd 2781 3abd 70d7 dd3c baa7 59bc
-0.064349554 -0.033909325 -0.031669904 0.0772095 0.07084444 0.05662121 -0.013358896 -0.071294926
0.012191465 0.04053426 -0.033007123 -0.00056163233 0.071941085 0.03058519 -0.045313857 0.013119241
-0.03414432 0.039230317 0.05127895 -0.047317494 -0.022911008 0.053286515 0.020334618 -0.027928978
-0.0407954 -0.0051866323 0.023080766 -0.03215413 -0.05456657 0.06351285 -0.023035813 -0.023260217
0.009582957 0.03197891 -0.028478313 -0.06826377 -0.045250542 0.03496755 -0.04195858 0.023973193
-0.04724761 0.0562348 -0.00025086524 -0.027199866 -0.0027957745 0.029799946 -0.03132411 -0.02470538
0.07079738 0.04235331 -0.011830201 -0.041197404 -0.07082798 0.023337057 0.10683141 -0.04736674
0.053228565 0.026578045 0.034150258 -0.05910778 0.06164097 -0.060605567 0.060449142 0.059705835
0.046343625 -0.049880326 0.08713944 -0.04575864 0.01729932 0.092846185 -0.059222676 0.055521343
0.060497504 -0.006147098 0.062281117 -0.009253057 0.06240399 0.03446199 -0.01936497 0.07017864
0.008467106 -0.013921612 -0.0056056464 0.013574522 0.044502582 -0.0011631334 -0.046654433 0.1055901
0.04701204 0.00610027 0.023679981 -0.037461516 -0.042999018 0.075843334 0.043282118 -0.024722349
0.065951094 0.061224423 -0.015880499 0.019082062 -0.027441729 -0.04574322 0.07379839 -0.029810011
-0.021575183 -0.050019097 -0.05698678 -0.06537795 0.1072344 0.022541795 0.048489105 0.08416205
0.06377837 0.0026393766 0.017981352 0.046458036 -0.04524292 0.041572135 0.041375488 0.06062316
-0.0073694857 -0.0021586106 -0.05827897 0.07991231 0.00526473 0.03177119 -0.0031554583 -0.045352597
-0.0533324 0.055631626 -0.013372 0.0065835696 -0.032193687 0.031603515 0.070976414 0.030331751
0.02909794 -0.058456745 -0.014130535 0.049117297 0.06735714 0.07206518 -0.044267654 0.06080063
0.021437712 0.0023074984 -0.026702497 -0.022202557 -0.012438696 0.028410736 0.07758912 0.010385372
0.039930698 -0.025758438 0.06725093 0.058961883 -0.0043419045 -0.013415936 -0.032798946 0.041543335
-0.027998585 -0.005172855 0.04983478 0.020338207 0.06261955 0.051261142 -0.015682053 -0.06614605
0.102367036 0.041757144 -0.036356755 0.09929062 0.06482378 0.053992696 0.03235634 0.007890547
-0.019117706 0.015783861 -0.03881752 -0.040947646 0.0398346 -0.0048703114 -0.043835975 0.013413186
0.018681463 0.03884955 0.07150273 -0.06357133 0.026528139 0.0009840975 -0.064552754 0.0059200716
0.015005547 0.037506975 -0.00015275207 0.05505709 0.029780425 -0.05310007 -0.027048843 0.0034606927
0.053125687 0.084746584 -0.011904623 -0.021213643 0.02148246 0.064618245 -0.02560994 -0.015467822
-0.019407243 0.022547413 0.039752528 0.065792345 0.04288825 0.046654765 0.04571244 0.019123089
-0.010909154 -0.0073884195 -0.06933971 0.06451693 0.031172588 0.015573479 0.041106775 -0.0014431244
0.06877476 -0.044197503 -0.032008573 0.016766742 0.00976977 0.04605014 0.049541578 0.09727406
0.03949198 -0.032939192 0.028039122 -0.06947095 -0.044746373 -0.047169585 0.06965262 -0.044240803
0.06899177 -0.006322317 0.040664565 -0.059997063 -0.011509687 0.014300305 0.091799915 0.05774125
-0.025445215 0.0112966895 0.071558475 -0.005908697 -0.057305995 -0.045533326 0.027080268 -0.013284618

net.9.bias f4 [64]
00000000: aed9 073e 59c7 c23d 653c e03d 9388 cb3d
00000010: b3a9 3e3c 0d2a f63d 10d6 00bd 5768 c73c
00000020: 771a 963d 30c2 f63d a38a 4abd 08c6 2dbc
00000030: 3014 8c3d 9e4e d93d 5e37 e93c 68d0 9d3c
00000040: 3836 f93d b2d6 d93d 27ec d43d 890b 0c3e
00000050: 9eae 523d 5fba cd3d e209 783d ddf9 6fbd
00000060: f073 ce3d 77b9 94bd 9505 f83c bb60 00bc
00000070: 4842 7f3d 9319 12bc 8cdb 4c3c 3fa1 0d3e
00000080: 0018 063e f358 2abb 3ef5 d33d cb22 a23d
00000090: 0a9b 0f3e 9086 753a 2d82 293d 9506 2c3d
000000a0: 3fdc bf3d a0c6 063d 02e0 d53d b537 813d
000000b0: 281b f63c 52f3 023e 5c82 603d 0034 45bc
000000c0: 816c 1ebd 99fb 943d 6b5f 033b 77bb e2bb
000000d0: 605b d33c aad9 47bd eba6 7d3b 644f 003d
000000e0: 5cc3 b63d d65b 8f3a 6e67 8a3d e9aa bf3d
000000f0: 2f48 13bc c1c7 043e 2447 373e d4d6 fc3c
0.13266632 0.09510679 0.10949019 0.09938159 0.011637139 0.12019739 -0.031454146 0.024341745
0.073292665 0.12048757 -0.04944862 -0.010606296 0.06839788 0.10610698 0.028468784 0.019264415
0.121685445 0.10636653 0.10396605 0.13676275 0.05143606 0.10045313 0.0605563 -0.058587898
0.10080707 -0.07261937 0.0302761 -0.007835562 0.06231907 -0.00891723 0.012503516 0.13831042
0.13095093 -0.002599296 0.103495106 0.079167925 0.14023986 0.00093660597 0.04138391 0.041998465
0.093681805 0.032904267 0.10443117 0.063094534 0.030042246 0.12788132 0.05481182 -0.012036324
-0.038677696 0.07274551 0.0020045887 -0.00691932 0.025800407 -0.048791565 0.0038704227 0.031325713
0.089239806 0.0010937403 0.06758009 0.093587704 -0.008989378 0.12966825 0.17898232 0.030864157

net.12.weight f4 [64, 64, 3]
00000000: 8e09 813d 2e92 38bc 2535 dfbc 3cab 973d
00000010: 0ad8 bdbb 9a68 53bc 5813 db3d 7001 2f3d
00000020: 5eea 87bd 6a7b a13c f618 69bd 79da 80bd
00000030: b08d 113c ae12 663d 6486 2d3c 1d0b d33d
00000040: 300b 00bd 04ec c83c 4d53 783d 6a38 04bd
00000050: ea53 5f3d 42dd 203d ee1b 62bd dab8 93bc
00000060: b53c 233c aa51 42bd 8e63 42bd 3dff bc3d
00000070: 28f5 59bd 6682 353c d849 0abd ab01 8bbd
00000080: 1c6f 88bc fa61 4bbd c85f cf3c 48e8 3ebd
00000090: f3a6 9f3c 5467 1ebd 910f 1f3c aba5 c53c
000000a0: f6ba 18bd 16b8 c9bb f40d 56bc 26c0 fd3c
000000b0: 8d27 c83c 11f1 8c3d 0c0b 93bd 48ad 89bd
000000c0: 6ffd 8d3d ba6d 193d 88d1 5a3d 677d cd3d
000000d0: da04 8a3d 0a3a d63c d8cb 113d b610 c1bc
000000e0: 9128 f4bc a4bc bd3d 12c0 af3c fc8a 883c
000000f0: e3bd 713d c0c8 863d 7144 86bd 4ba4 5b3d
00000100: 0022 8cbd d8d9 ea3c 8fec f6bc d25f 933b
00000110: 0072 bbbc 7e4d 233d c027 793c 1763 26bd
00000120: 442d d33d 624d 7bbd 107c 063b 4af8 0cbd
00000130: cefd 2d3d 989f 8f3c f49f af3d 6a44 abbc
00000140: e894 aebc 0031 973d 1c62 6a3d c6c3 9dbc
00000150: 878f e13c aad0 513d ce53 0a3d 4757 093d
00000160: bb45 b7bc a83e 883d 73c6 043c 3eae 92bc
00000170: 489e 673c daa8 df3d 82ca 47bc 3633 343d
00000180: ba20 32bc 34b2 9cbc e2c0 653d 284f b13d
00000190: 86ce df3c 2ada 47bc c54e c53d b2cb 5c3d
000001a0: 1e60 913c 7373 6ebc 80fa 85bc 80d6 693d
000001b0: 4be7 5c3d 88da aa3c 1bce 87bd 075f 843c
000001c0: 8214 2b3d 5838 03bd 12a1 babc 6a3f be3b
000001d0: d492 263d 61a0 c13d ac24 6ebd f283 86bd
000001e0: c5f6 b03d 0cd8 043d 7494 c23c 8a1b 3e3d
000001f0: a6e7 2f3d 1024 e0bc 8994 5a3d 3a69 8abc
00000200: 4a05 82bd 46ee db3c 72c3 07ba b24d a0bb
00000210: d39d c83c 00c1 153d ad82 94bb 2534 eb3c
00000220: de90 29bc 51cc 63bc eeb4 5d3c 8289 be3c
00000230: 2939 2ebd 49fe 08bd c1e4 40bd 662b 163b
00000240: a447 863d 6dc6 7cbd 6018 3f3d 167b 7f3d
00000250: ecc1 a73b e9f2 ecbb a099 b03b 842c 063d
00000260: 1a61 85bd f05c 0d3d b5ba 553c bfa1 19bd
00000270: e9be b23c 76cc 0a3c 2080 473d 7ee5 75bd
00000280: c09e 71bd 605a 89bc 85e7 00bd 7e2c af3c
00000290: ee02 b63c ee12 68bc 5458 583d 48ae 0a3d
000002a0: bb93 8b3c ea8a 0139 3c0d 5e3c 21ad 963c
000002b0: d428 923d 342f 9b3c fc01 cc3d fa80 813c
000002c0: 780e 18bd b772 8b3c 885f b5bc b090 413d
000002d0: 13c8 903b 985d 613c b8a8 5dbc e599 d73d
000002e0: 6820 aebc a699 a63b 317d cd3d 4a7d 813b
000002f0: 0858 92bd 3c5b 333d c2a0 42bd d9b4 84bd
00000300: 8c99 b7bc fcac 8abd fc66 b6bc 3aa8 76bd
00000310: f433 1bbc 7fc0 42bd 6042 83bd b5ea bbbc
00000320: 0f76 89bd 8d67 89bd 5e8f 8abc 214d 913c
00000330: e7e8 fe3c a2f5 35bd 824a 813d dd6a 22bd
00000340: d6d8 0d3d 4e62 35bd 5b2a 4b3d 1ab4 be3c
00000350: 1a29 523d f7b2 bfbc f059 4abd ccae 82bd
00000360: 460f 50bd b6c2 26bc 2266 19bc ba27 b7bb
00000370: 56ba 8ebd 0c11 463d 2d28 73bd 5eac 123d
00000380: f243 91ba 9c3b 37bd c211 243d 806a dfbc
00000390: c2b3 023d 08b0 403d 580b 87bd a758 32ba
000003a0: b068 4e3c 5850 4f3c 77f6 90bd 24d1 e33c
000003b0: c0e1 003d 13a2 343d 7e83 7ebc e66c 62bd
000003c0: f69b 73bc d5f8 26bd 254e 82bd c9f7 55bd
000003d0: 1e56 893d b85d db3c a663 6dbd 14ac 8d3d
000003e0: 4c59 ecbc 8a38 7fbd ac6f 1fbd b27b 3abd
000003f0: cac9 c1bc 9a92 62bc d97a bdbc 3ec3 523d
0.063006505 -0.011265321 -0.027247021 0.07405707 -0.005793576 -0.012903357 0.10697049 0.04272598
-0.06636499 0.019712169 -0.05690857 -0.0629167 0.008883879 0.056170158 0.010591123 0.10304854
-0.03126067 0.024526604 0.060626317 -0.032280363 0.054523386 0.039273508 -0.055202417 -0.01803248
0.009963204 -0.047441162 -0.047458224 0.0922837 -0.053212315 0.011078453 -0.03376183 -0.067874275
-0.016654544 -0.049653985 0.025314227 -0.04660824 0.019488787 -0.03867276 0.009708301 0.024126848
-0.037287675 -0.006155978 -0.01306485 0.030975413 0.024432922 0.06881917 -0.071798414 -0.06722504
0.06933104 0.03745816 0.05342248 0.10033684 0.067392066 0.026150722 0.03559479 -0.023567539
-0.0298045 0.09264496 0.021453891 0.016667835 0.05901898 0.06581259 -0.06556023 0.05362348
-0.068424225 0.02866833 -0.030142097 0.0044975067 -0.022881508 0.039868824 0.015207231 -0.040621843
0.10311368 -0.061353095 0.0020520724 -0.034416474 0.042478375 0.017532155 0.085754305 -0.020906646
-0.021311238 0.07382393 0.05722247 -0.019258391 0.02753426 0.05122439 0.03377133 0.0335305
-0.022372117 0.06652576 0.008103955 -0.01790535 0.014136858 0.10920878 -0.012194278 0.04399415
-0.01087206 -0.019127943 0.05609215 0.08657676 0.027320158 -0.01219801 0.09634165 0.053905196
0.017746028 -0.014553892 -0.0163548 0.05708933 0.053931516 0.020856157 -0.066311084 0.016158594
0.041767605 -0.032036155 -0.022781882 0.0058058994 0.04066737 0.09454418 -0.05814044 -0.06568135
0.086408176 0.0324326 0.023752429 0.046412982 0.042945527 -0.027360946 0.05336431 -0.016895879
-0.06348665 0.026847016 -0.0005178965 -0.0048920745 0.024489319 0.036561012 -0.0045321793 0.028711388
-0.01034948 -0.013903693 0.0135319065 0.023258928 -0.04253498 -0.03344563 -0.047093157 0.002291405
0.06556633 -0.06171267 0.046654105 0.062373243 0.005119553 -0.0072311056 0.0053894073 0.032757297
-0.06512661 0.03451246 0.013045003 -0.03750777 0.021819549 0.008471599 0.048706174 -0.060033314
-0.058989286 -0.016766727 -0.031470794 0.02138352 0.022218194 -0.014164669 0.05281861 0.033857614
0.017038217 0.00012354148 0.01355296 0.018393101 0.071366936 0.018943407 0.09961316 0.015808571
-0.037123173 0.017022474 -0.02214028 0.047257125 0.004418382 0.013755225 -0.013528995 0.105274
-0.021255687 0.0050842343 0.10033644 0.003951703 -0.07145697 0.04378818 -0.04751659 -0.064798065
-0.022412084 -0.067712754 -0.022265904 -0.060219027 -0.009472836 -0.04754686 -0.064091444 -0.022939065
-0.06711971 -0.06709204 -0.016914066 0.017736973 0.031116916 -0.044423707 0.06313039 -0.039652694
0.03463062 -0.044283204 0.04960094 0.023279238 0.05130873 -0.023400767 -0.049402177 -0.06380996
-0.050795816 -0.010178259 -0.009362729 -0.0055894526 -0.069691345 0.0483561 -0.059364486 0.035808913
-0.0011082871 -0.044734582 0.040055998 -0.027272463 0.03190971 0.047042876 -0.065939605 -0.00068033714
0.012598202 0.012653433 -0.070782594 0.027809687 0.031465292 0.04409988 -0.01553428 -0.055279635
-0.014868727 -0.04076465 -0.06362561 -0.05223826 0.06705879 0.026778087 -0.05795636 0.06917587
-0.028851174 -0.06230978 -0.038924858 -0.04552812 -0.02365579 -0.013828898 -0.023129867 0.05145573

net.12.bias f4 [64]
00000000: 4067 543d da09 21bd 4ef8 153d 069a 8cbd
00000010: 406b 5a3d 9e2f 8a3c 691a ebbb 3b7f 85bd
00000020: 9a4c ab3d 22e8 093e 1ed9 d03d 3f86 7fbd
00000030: 6d01 843d 881a 9c3d 38ce 5abc 73e8 903d
00000040: b251 023c 8e24 c33d 42a8 f43d 8583 833d
00000050: 2b36 71bd 36d6 de3c b341 7b3c 2d43 18bd
00000060: 40af 1c3e 4faf 8fba 35f7 0c3e 098a 943d
00000070: 5387 dc3c 4836 383d 5a31 babd 0963 febb
00000080: 4cc7 2bbd 3fbf 633d 8257 8e3d ab5d 203c
00000090: 264a 3b3d 6d8c d43c acbe c63d 36c3 7c3c
000000a0: 68ad 1abc b52b b63d e58f bf3d c0c2 0d3e
000000b0: f482 a43c a637 40bc ac31 0f3d c323 033e
000000c0: 79b0 ce3c 07f5 0c3e 5ddb bc3d 25e2 1c3d
000000d0: 6013 c83d 2aec b63d c353 bf3d 024f 113e
000000e0: 9ded 113e 836b d73d 4b84 3c3d 270f 89bd
000000f0: 7215 ce3d 25f5 41bd 104c d53d f16b fe3d
0.05185628 -0.039316036 0.036613755 -0.06865315 0.053324938 0.016868409 -0.007174779 -0.06518408
0.0836422 0.13467458 0.10197662 -0.062383886 0.064455844 0.07622248 -0.01335483 0.07075586
0.007954048 0.09528457 0.11946155 0.0642157 -0.05888955 0.027201753 0.015335488 -0.03717344
0.15301228 -0.001096228 0.13766177 0.072528906 0.026919996 0.04497364 -0.09091444 -0.0077632708
-0.04193811 0.05560231 0.069502845 0.009787957 0.04572501 0.025945866 0.097043365 0.015427401
-0.009440757 0.08895055 0.093536176 0.13843822 0.020081975 -0.011732018 0.03495948 0.12806611
0.025230633 0.13765346 0.09221528 0.038301606 0.097693205 0.089317635 0.09342148 0.14190295
0.14250799 0.10518553 0.046024602 -0.06692343 0.10062684 -0.04735293 0.104148984 0.12422932

net.15.weight f4 [64, 64, 3]
00000000: ebd1 143d d6e1 c5bc 04cd 0e3d 6a1f 17bd
00000010: 8853 a9bc dec0 80bd d5cf b43d 56f1 933c
00000020: 26d0 b8bb e24b b03d 1458 ccbc 2c1e 83bd
00000030: b4eb 413d 7e3e 833d 31ff 39bd dd80 c9bb
00000040: e8b9 8a3d accc 353d 0fcf 82bc b4ad d1bc
00000050: aa5b 713c 3a6d 3fbc 448b 633d dc99 3f3d
00000060: a062 8f3d 7c96 823d d4f4 573d 5f7e b63c
00000070: 1064 1a3d 3539 4bbd 61ab 91bb cc7f 643c
00000080: 40f4 54bc 194f 723c e0b7 33bd 1bdf 2f3d
00000090: 94d4 7b3c 70b6 aa3c 48b0 91bd c3e7 d7bc
000000a0: b46e a5bc e66e d3bc 3301 d23c 1c5a ce3c
000000b0: f077 8abd 463f b53d cc31 583c c45b 273c
000000c0: fc98 563a 435f 283b cfd9 a93c 60d1 a23c
000000d0: 63e3 89bd e2a9 153d 0bf0 bdbc 66c1 d7bc
000000e0: 0ae5 b8bc aa90 343d 5483 5e3c 4f1f 73bd
000000f0: 10d4 9c3d 8820 903d 5cfa 48bd 0ce3 583d
00000100: e479 debc 5e66 58bd 7005 c93c d6dd 96bb
00000110: 3e61 563d e3be 773d 8681 06bd 9d23 8239
00000120: 6e72 493d 4a18 76bd ef9d 3d3d badd c13c
00000130: cacd 8fbd 9caf d739 40c2 a5bb ecd2 64bc
00000140: 5400 273d 4fc0 3ebc 32db ab3b 39a7 8bbd
00000150: 7037 e8bc 2019 433c c443 013d 313e 7f3d
00000160: 7ff7 92bd ac8b 643a 4110 9f3d 947a 7f3d
00000170: 5063 f93c 990a 8e3d 1eab 96bc 0e8e 413c
00000180: 03c1 3a3d 53a9 17bd 9e53 1d3d 69c0 b83d
00000190: 9823 c93b 3083 4d3d 1f09 d13d bd91 033d
000001a0: 0532 f73c e4e4 37bd 7a0e 65bd 8e8d 24bd
000001b0: d604 3ebb 119f 71bd 8e69 90bb 19dd 5b3c
000001c0: 8466 49bd b029 5e3d 5b5d 983d 5171 8ebd
000001d0: b35b 87bd 9f6f dc3c 0c3c b03c 2af1 8d3d
000001e0: d0d0 83bd a82b 4ebd 7257 61bd b697 053c
000001f0: 7a91 4ebd 3497 8fbd 0976 c9bc cab2 abbc
00000200: eb8e 4bbd 4bce a03c c6d5 873d 8e2f 653d
00000210: 700b 463d 4b6a eb3b 4c17 6d3d b8b0 e2bc
00000220: c5be 5bbd 04af f9bc 3e0f 533d 0697 c9bb
00000230: 4ce7 0d3d 28d7 0f3d 93be 6bbd 7c8a 503d
00000240: f538 593d 3cdb cb3b 183a 233d c738 a43d
00000250: c491 663d f4d4 5ebc f870 bcbc 06df 3c3d
00000260: 3a00 e03c 6611 5d3d 8214 c5bc b065 90bd
00000270: bc07 ce3d 7c7a bf3a 2a11 4ebd b40b 993d
00000280: 5923 45bd f554 7ebd ad28 1e3d 96d9 03bd
00000290: 9c1b c0bc c1ed 3b3d 9eaa e5bb a2f1 963c
000002a0: 5ad1 d53c ac56 16bd 92df 803d 2476 3e3d
000002b0: 91e5 71bd 8cff dfbc b3b6 953d 76fb 33bd
000002c0: ae35 8bbd 45a8 0fbd 0c75 8b3c 68c6 30bb
000002d0: efcd b53c c962 8cbd f20b 893d ab9d 803d
000002e0: f2a7 563c db17 45bd 1127 debb 2a2b 163d
000002f0: e030 01bd 142c e53d a4f2 c53c f0af e73a
00000300: 1921 9e3d 634b 06bd c2db 483d 18a1 1bbd
00000310: e8d0 643d aed6 8f3b 9caf 973c 202d 0bbd
00000320: 3cff 3fbd 2875 a33b a8cc 7dbd 8c5f 323d
00000330: d6a5 8a3d 3031 79bc aea9 13bd 674e 6f3d
00000340: a68c 6b3c 40da 723c b6d5 1b3d bc7f 92bd
00000350: 044b 403c 88a1 853d 18ad ed3c a219 c53c
00000360: c089 f23c 6292 aebc bba5 a33b 9273 c93d
00000370: 9c72 8e3d 0ced 3f3d ed00 c53d d6fa b7bc
00000380: ff54 0bbd 99b6 05bc ccc8 22bd aa2a 963c
00000390: 51ae f43c c8d1 6d3d 058c 58bd ab87 bc3d
000003a0: ae82 863d e66a d9bc e4b8 34bd 98a8 a43b
000003b0: cc68 113d 1ac4 0f3b 1e3a 143d d8ce 573d
000003c0: 398e fc3c f9ae f5bc da48 7e3d 8d56 d23d
000003d0: c4b8 8d3d 6adb 993b b49f 3c3d 3e98 26bd
000003e0: 9e0c c1bc 280f a13d 823b e8bb a41c 1b3d
000003f0: f10b 49bc a297 3e3c 28aa 1c3d d15d 2b3a
0.036333006 -0.024155539 0.034863487 -0.036895193 -0.020669714 -0.062867865 0.08828703 0.018059414
-0.0056400476 0.086082235 -0.024944343 -0.06402239 0.047343925 0.06408404 -0.045409385 -0.006149395
0.0677374 0.044384643 -0.015967874 -0.025595523 0.014731327 -0.0116837565 0.055552736 0.04677759
0.07001233 0.06376359 0.05272372 0.022277055 0.037693083 -0.049615104 -0.004445479 0.013946485
-0.012997687 0.014789366 -0.04387653 0.04293738 0.015370507 0.020838946 -0.07113701 -0.02635563
-0.020194389 -0.025809716 0.025635337 0.025189452 -0.067611575 0.08849959 0.013195466 0.01021475
0.00081862486 0.0025691546 0.020733742 0.019875228 -0.06732824 0.036538966 -0.02318575 -0.026337337
-0.022570152 0.044083275 0.013581116 -0.05935603 0.07657635 0.07037455 -0.049066886 0.052950904
-0.027157731 -0.052832 0.024538726 -0.0046040816 0.05233883 0.060484778 -0.032838367 0.00024822066
0.049181394 -0.060081758 0.046293195 0.023665298 -0.07021673 0.00041138835 -0.005058557 -0.013966303
0.040771797 -0.01164253 0.005244636 -0.068190046 -0.028346747 0.011907846 0.031558767 0.06231517
-0.071761124 0.00087183225 0.07766772 0.06237276 0.030442864 0.06935615 -0.018392142 0.011813654
0.045594227 -0.037026715 0.03840982 0.09021074 0.0061382763 0.05017394 0.10206818 0.03212141
0.030175218 -0.04489602 -0.05592201 -0.04017406 -0.0028994582 -0.05898959 -0.0044071143 0.013419413
-0.049170032 0.054238975 0.07439681 -0.06955207 -0.06609287 0.026908694 0.021513008 0.06930764
-0.06436312 -0.050334603 -0.055015035 0.0081538465 -0.050431706 -0.070112616 -0.024592416 -0.020959277
-0.049696844 0.019629618 0.06632571 0.055953555 0.04835075 0.007184302 0.057883546 -0.027672157
-0.05364873 -0.030478962 0.051528208 -0.0061520366 0.03464441 0.0351173 -0.057554793 0.05091332
0.053032834 0.006221203 0.039850324 0.08018642 0.056291357 -0.013600577 -0.023003086 0.04611113
0.027343858 0.05397167 -0.02405763 -0.07050645 0.10060069 0.0014608647 -0.050309338 0.07472935
-0.048129413 -0.06209274 0.03861301 -0.032189928 -0.023450665 0.045881037 -0.0070088645 0.018425766
0.026100803 -0.03670375 0.06292643 0.046499386 -0.059056822 -0.027343534 0.07310238 -0.043940984
-0.06797348 -0.035072584 0.017023586 -0.0026973728 0.022192923 -0.06854779 0.066917315 0.06280073
0.013101565 -0.048118453 -0.0067795594 0.03666226 -0.03154075 0.11190048 0.024163552 0.0017676335
0.077211566 -0.032786738 0.049037702 -0.037995428 0.05586329 0.0043896055 0.018516354 -0.03397858
-0.04687427 0.0049883313 -0.061962754 0.04354815 0.06769912 -0.015209481 -0.03605049 0.05842438
0.014376795 0.014822543 0.038045608 -0.0715327 0.011736635 0.0652495 0.029013202 0.024060074
0.0296067 -0.021310035 0.004994122 0.098364964 0.06955454 0.046856925 0.09619317 -0.022458475
-0.034016605 -0.00816121 -0.039742276 0.01833089 0.029868277 0.05806139 -0.052867908 0.09205564
0.06567894 -0.026540231 -0.044121638 0.0050249808 0.035500333 0.0021936954 0.036188237 0.052687496
0.030829536 -0.02999066 0.062081195 0.102704145 0.06920007 0.0046953456 0.046050742 -0.040672533
-0.023565587 0.07864219 -0.007087172 0.03786911 -0.012270913 0.011632832 0.03824821 0.0006537112

net.15.bias f4 [64]
00000000: a231 e93d 62bf 173e e191 d23d f123 db3d
00000010: b6f1 4a3d dabe c93c 646b 8cba 2d3c 2f3b
00000020: fa85 383b 9064 8f3c 8a3f 013e 26ff 653d
00000030: 0485 cb3c 7d35 bb3d bfe4 0c3e f4ed 5a3c
00000040: 1c2d cd3d ebb6 803d d76e 83bb 24b2 ef3b
00000050: 8d72 053e c8f1 023e a078 efbb 6ccf a63d
00000060: 1fc4 eb3d 2bb0 a03c aef9 4d3d 6abc 44bd
00000070: fbab cb3d c286 053e 878a 193e 4d37 183c
00000080: 62f9 633c f53d e23d 51e9 f03d 3680 59bd
00000090: ad7b da3d ae65 0d3e e46c d23d 35fb 4f3d
000000a0: a071 133e 2274 ff3d f62f aa3d ebf9 3d3c
000000b0: 32c6 f63d 6573 2f3c c93f 92ba da3a 123e
000000c0: 2625 15bc 84bf f03d 4a20 60bc 82ca 8cbd
000000d0: 700a 0f3e 6700 04bd 568d ce3c e7a5 97bd
000000e0: ee6a 99bb 069e df3d 81ba 143e 3024 053e
000000f0: 977d 38bd c928 e63d e3b7 ec3d b404 fc3c
0.1138642 0.148191 0.102817304 0.10700215 0.04954692 0.024627138 -0.0010713157 0.0026738748
0.0028156028 0.017504007 0.12621894 0.05615153 0.0248437 0.091410615 0.13759135 0.0133623965
0.100183696 0.06284889 -0.004011016 0.007314937 0.13031979 0.12787545 -0.007308081 0.08145031
0.115120165 0.019615253 0.05028694 -0.04803125 0.09944912 0.13039687 0.1499425 0.0092905285
0.013914438 0.110469736 0.117632516 -0.053100787 0.106681205 0.13808319 0.102746755 0.05077668
0.14398813 0.124733225 0.08309929 0.01159523 0.120495215 0.010708665 -0.0011157925 0.14280263
-0.009103095 0.11755279 -0.013679573 -0.06874563 0.13968825 -0.032226946 0.025213879 -0.0740469
-0.0046819365 0.109188125 0.1452427 0.13002086 -0.045041647 0.11238248 0.11558511 0.030763961
